save_checkpoints/LeNet5_epoch_95.pth (torch, 249863 bytes, 10 tensors)

conv1.0.weight f4 [6, 1, 5, 5]
0	0xbc7b75d4	-0.015347917
1	0xbc254722	-0.01008776
2	0xbca39634	-0.019969083
3	0x3bed4411	0.00724078
4	0xbd22b12e	-0.039719753
5	0x3d5165fb	0.051122647
6	0xbe0e4679	-0.1389407
7	0x3b8f3f28	0.0043715425
8	0x3dd1c9ae	0.102435455
9	0xbe1a38cf	-0.15060733
10	0x3e257550	0.16158032
11	0xbd856fde	-0.065154776
12	0xbdb9e0cc	-0.0907608
13	0xbdde1941	-0.108446606
14	0x3e94076b	0.2891191
15	0x3ec59dab	0.38596854
16	0x3ea0a1b6	0.31373376
17	0x3f0298d4	0.5101445
18	0x3e171f49	0.14758028
19	0x3c346b3e	0.011011897
20	0xbe9d4960	-0.30720043
21	0xbdaf3040	-0.08554125
22	0xbe8ef17e	-0.2791862
23	0xbda81bc6	-0.08208422
24	0xbd222183	-0.03958274
25	0xbdea2af7	-0.11433976
26	0xbd9e3643	-0.07725193
27	0xbdbf0051	-0.09326232
28	0xbe013b28	-0.12620223
29	0x3e3ae4c1	0.18251325
30	0xbd06b405	-0.032886524
31	0xbd838a53	-0.064228676
32	0x3ded3dae	0.1158403
33	0x3eb804a7	0.3594105
34	0x3dbc5dc2	0.091975704
35	0x3ce804c2	0.028322581
36	0x3e111243	0.14167123
37	0x3dc58c9d	0.096459605
38	0x3d09533a	0.033526637
39	0xbcaab716	-0.020839255
40	0xbef1540c	-0.47134435
41	0x3d143eb5	0.036192615
42	0x3e62e1ae	0.22156402
43	0xbd44280b	-0.04788975
44	0xbea84381	-0.32864
45	0xbeba0dc7	-0.36338636
46	0x3dde42f3	0.10852613
47	0xbe1be915	-0.15225632
48	0x3de1ea0a	0.110309675
49	0xbdb19c2c	-0.086723655
50	0xbd17a6f7	-0.037024464
51	0xbc96e51f	-0.0184198
52	0x3dfef5e9	0.124492474
53	0x3c89c8e1	0.01681942
54	0x3a5b83a3	0.00083738024
55	0x3d9133c3	0.07089951
56	0x3bbb50a6	0.005716401
57	0x3b02590c	0.0019889502
58	0x3c8cb87c	0.017177813
59	0x3d9232e1	0.07138611
60	0x3e5647f9	0.20925893
61	0x3ea6560b	0.3248752
62	0x3b2c3e67	0.0026282312
63	0x3d9d08f2	0.07667722
64	0xbdb4ee7d	-0.088345505
65	0xbe0c607c	-0.13708681
66	0xbebf40ff	-0.37354276
67	0xbe3a0e54	-0.18169528
68	0xbe82c42b	-0.2554029
69	0x3e3ee3fa	0.18641654
70	0xbefe34fb	-0.49649796
71	0xbe0ad1fb	-0.13556664
72	0xbe408476	-0.1880053
73	0xbe2bc138	-0.16772926
74	0xbec5799c	-0.38569343
75	0xbce6539b	-0.028116038
76	0x3d63aab2	0.05558271
77	0xbe27f070	-0.16400313
78	0xbc21c257	-0.009872994
79	0xbe9774b8	-0.29581237
80	0xbd53a2fe	-0.051669113
81	0xbdf58a49	-0.119892664
82	0xbdf26b61	-0.11836887
83	0xbddd74cd	-0.108132936
84	0xbe6ecb7c	-0.2331981
85	0xbd6e3e6f	-0.05816501
86	0xbe2cf172	-0.16888979
87	0xbe76762a	-0.24068514
88	0x3dbf2ed2	0.09335102
89	0xbe6416e7	-0.22274362
90	0x3e2b6bf8	0.16740406
91	0x3d88eb1c	0.066854686
92	0x3e5669f2	0.20938852
93	0xbd9583ff	-0.07300567
94	0x3eae310c	0.34021795
95	0x3df58e92	0.11990084
96	0x3e5b8894	0.21438819
97	0x3e6093eb	0.21931426
98	0x3d15d68c	0.03658156
99	0xbce41c65	-0.02784557
100	0xbd02868b	-0.03186659
101	0x3d878f9d	0.06619189
102	0x3dabca1e	0.0838816
103	0x3e6ce15b	0.23132841
104	0xbe781c68	-0.24229586
105	0xbd4d3cc6	-0.050106786
106	0x3e2c18d4	0.16806346
107	0x3e8e0e91	0.27745488
108	0x3df38769	0.11891062
109	0x3dda4042	0.106567875
110	0xbe70b153	-0.23505144
111	0x3ec45be6	0.38351363
112	0x3e17f80a	0.14840713
113	0xbdf635cd	-0.120219804
114	0x3dc2df8b	0.09515294
115	0x3d4558da	0.04818044
116	0x3e881d84	0.2658502
117	0xbd67daa8	-0.05660501
118	0xbdd2ea39	-0.10298581
119	0xbd3bbc15	-0.045833666
120	0x3d73ab6c	0.059489653
121	0xbcb5546a	-0.022134978
122	0x3d6f4981	0.05841971
123	0xbdfaf4a2	-0.12253691
124	0xbeaf29ba	-0.34211522
125	0x3dde7203	0.1086159
126	0x3e449650	0.19197965
127	0xbcb7dcf0	-0.022444218
128	0x3e123eb4	0.14281732
129	0xbb93a53b	-0.004505781
130	0xbd80b89d	-0.06285212
131	0xbc6eed2d	-0.014582914
132	0x3e582215	0.21106751
133	0x3dba1a7e	0.09087084
134	0xbcc043f6	-0.023469906
135	0x3cd2a2e3	0.025712436
136	0x3e01c504	0.12672812
137	0x39e08fd9	0.00042831784
138	0xbdb891a1	-0.090121515
139	0xbe62dc9a	-0.22154465
140	0x3b92284f	0.0044603716
141	0xbd8cc433	-0.068733595
142	0xbb9b1446	-0.0047326414
143	0xbefbab46	-0.4915411
144	0xbe694aa3	-0.22782378
145	0xbde841fe	-0.11340712
146	0xbd52a5ce	-0.051427655
147	0xbeabbb44	-0.3354131
148	0xbdb0e53b	-0.08637472
149	0x3e673600	0.22579193

conv1.0.bias f4 [6]
0	0xbd2f8df4	-0.042859986
1	0xbe01afeb	-0.12664764
2	0xbc202058	-0.009773336
3	0xbd285ecb	-0.041106027
4	0xbe9a4a2f	-0.30134723
5	0xbe6a271f	-0.22866486

conv2.0.weight f4 [16, 6, 5, 5]
0	0x3df763e3	0.12079599
1	0xbcab151b	-0.020884087
2	0xbc15e380	-0.0091484785
3	0xbd364d88	-0.044507533
4	0xbdef6d4b	-0.11690768
5	0x3bd15c76	0.006389196
6	0x3d916b24	0.071005136
7	0x3db23396	0.087012455
8	0xbcc4491b	-0.02396064
9	0xbe109212	-0.14118221
10	0xbe254b1d	-0.16141935
11	0xbdcc6ce1	-0.099817045
12	0xbc716ad9	-0.014734947
13	0xbc894de0	-0.016760767
14	0xbd88737c	-0.06662652
15	0xbc75ffdf	-0.015014618
16	0xbdaa2b67	-0.083090596
17	0xbcc1489a	-0.02359419
18	0x3ba6be2c	0.005088588
19	0xbd8dabe6	-0.06917553
20	0x3dc38012	0.09545912
21	0xbd9873eb	-0.074439846
22	0xbc6c4aa6	-0.014422094
23	0xbd698b1a	-0.057017423
24	0xbcca521d	-0.024697358
25	0xbdcb6f1b	-0.09933301
26	0xbe3b28f0	-0.18277335
27	0xbde0bfdb	-0.109740935
28	0xbdab8870	-0.08375633
29	0x3bf899d4	0.007586697
30	0x3cd9e220	0.026597083
31	0xbb5f10bc	-0.0034037074
32	0xbd2a8cea	-0.041638292
33	0xbd809883	-0.06279089
34	0xbd02a382	-0.031894214
35	0x3d38d879	0.04512832
36	0x3e385485	0.18000992
37	0x3de110aa	0.109895065
38	0x3cc6068f	0.02417305
39	0xbd8ffd3e	-0.07030724
40	0xbd8e37d4	-0.06944242
41	0x3d3a70c1	0.045517687
42	0x3d034c3a	0.032055117
43	0x3d470614	0.04858978
44	0xbb9c6988	-0.0047733225
45	0xbc92ddc8	-0.01792802
46	0xbccf25ff	-0.025286673
47	0x3c7db60e	0.0154853
48	0xbb5e6563	-0.0033934943
49	0x3d023e23	0.03179754
50	0xbacfe0c7	-0.0015859836
51	0xbdfd27ad	-0.12361083
52	0xbde0ce82	-0.10976888
53	0xbd1d3d15	-0.03838833
54	0x3e0cb9a5	0.13742693
55	0x3dda20b6	0.1065077
56	0x3cce0fb6	0.025153976
57	0xbe27e73a	-0.163968
58	0xbe849684	-0.25896084
59	0xbd821374	-0.06351367
60	0x3d8ff5a3	0.07029273
61	0x3e087927	0.13327466
62	0x3d14282a	0.036171116
63	0xbd97a693	-0.074048184
64	0xbdcf7029	-0.10128815
65	0xbe0c3504	-0.13692099
66	0xbdb842ab	-0.08997091
67	0x3ccc241e	0.024919566
68	0x3cdefb89	0.02721955
69	0x3c46f251	0.012142734
70	0xbc21af83	-0.009868505
71	0xbd474f46	-0.048659585
72	0x3cbd6226	0.02311809
73	0x3c480f1c	0.012210634
74	0xbbbcd2db	-0.0057624406
75	0x3d5a447d	0.05328797
76	0x3d7191a4	0.058976784
77	0x3e09ffed	0.13476534
78	0x3c23bea4	0.009994183
79	0xbd871db8	-0.06597465
80	0xbe119e20	-0.14220476
81	0xbd5d7afb	-0.05407236
82	0x3d1e4161	0.03863657
83	0x3e5799cf	0.21054767
84	0x3dd15c09	0.102226324
85	0xbdf615a5	-0.12015847
86	0xbe279f23	-0.163693
87	0xbdc26430	-0.094917655
88	0x3be84413	0.007088193
89	0x3d29aefb	0.04142664
90	0x3d242a9e	0.040079705
91	0xbd0c10b4	-0.034195617
92	0xbdda2629	-0.1065181
93	0xbd9abba5	-0.075553216
94	0xbc57f1d6	-0.013180217
95	0x3deb4c82	0.11489202
96	0xbc745884	-0.014913682
97	0xbe0d1233	-0.13776474
98	0xbe046b86	-0.12931642
99	0xbd631075	-0.055435617
100	0x3bdac1a9	0.006675918
101	0x3ceb63c6	0.0287341
102	0x3ac5d7e3	0.0015094246
103	0x3cab1362	0.020883266
104	0xbd4e51c6	-0.050370954
105	0x3d6d6c05	0.057964344
106	0x3ddbd07a	0.10733123
107	0x3d3c8ead	0.046034504
108	0x3dc722d2	0.09723438
109	0xbdb1c226	-0.08679609
110	0x3d49308f	0.049118575
111	0x3cc121c6	0.023575675
112	0x3cdaf207	0.026726736
113	0x3dc555c8	0.09635502
114	0xbbfc9623	-0.0077083274
115	0xbda61df6	-0.08111183
116	0xbd9a231f	-0.0752623
117	0xbddb4749	-0.10706956
118	0xbd5307b5	-0.051521022
119	0xbced2575	-0.028948525
120	0x3bf02396	0.007328461
121	0xbdb17377	-0.08664601
122	0xbda54778	-0.08070272
123	0xbd941758	-0.07231015
124	0xbd9c9c2d	-0.07646976
125	0xbe077477	-0.13228022
126	0xbdfe90f8	-0.12429994
127	0xbe0c4a7c	-0.13700289
128	0x398b4331	0.00026562207
129	0x3d3574d6	0.044300877
130	0xbe182d3d	-0.14861007
131	0xbeae542d	-0.34048596
132	0xbed1ce43	-0.40977678
133	0xbe900237	-0.2812669
134	0xbdfeddc3	-0.124446414
135	0x3d8c7a22	0.068592325
136	0x3b9f9287	0.0048697623
137	0xbdc78ee2	-0.097440496
138	0xbe617c55	-0.22020085
139	0xbe0082a1	-0.12549831
140	0x3c809ea1	0.01570064
141	0x3d842d58	0.06453961
142	0x3d5c4b51	0.053782765
143	0xbcd58b04	-0.026067264
144	0xbd565483	-0.05232669
145	0x3b3738c1	0.0027957412
146	0x3c54766c	0.012967687
147	0x3dc24865	0.094864644
148	0x3bbb6149	0.0057183844
149	0x3c55071b	0.013002182
150	0xbd3207f1	-0.043464605
151	0xbcba921b	-0.022774747
152	0xbe244027	-0.16040097
153	0xbdbc6b96	-0.09200208
154	0xbe5030de	-0.20331141
155	0x3d808dff	0.062770836
156	0xbc9334f3	-0.017969584
157	0xbd879d2e	-0.066217765
158	0xbea297ce	-0.31756443
159	0xbe6e6b0a	-0.2328302
160	0x3d3a4a43	0.045480978
161	0x3d58531b	0.05281363
162	0xbe044244	-0.12915903
163	0xbdc57b23	-0.09642627
164	0xbdc9800c	-0.09838876
165	0x3c5de1a9	0.013542571
166	0x3d6f57b3	0.058433246
167	0x3d1ddad6	0.038538776
168	0xbdec76eb	-0.11546119
169	0xbaba16c7	-0.0014197462
170	0xbd2fe870	-0.04294628
171	0xbd768008	-0.060180694
172	0xbdeb279f	-0.114821665
173	0xbdb6befa	-0.08923145
174	0xbde2a92a	-0.11067422
175	0xbddd8c8d	-0.108178236
176	0xbd2d078c	-0.042243525
177	0xbcc4c088	-0.024017587
178	0xbda5251f	-0.08063721
179	0xbd8ec2b3	-0.0697073
180	0xbd8da48e	-0.06916152
181	0x3e1972c6	0.14985189
182	0x3e0cca78	0.1374911
183	0xbc8a8514	-0.01690916
184	0x3d9fbd7c	0.07799813
185	0x3d7cc251	0.061708752
186	0xbd9e77bf	-0.077376835
187	0xbe1a4468	-0.15065157
188	0xbdf3b03e	-0.1189885
189	0x3c38ade2	0.011271926
190	0xbd8d85fb	-0.0691032
191	0xbd50396e	-0.05083602
192	0x3dcde112	0.100526944
193	0x3de43884	0.11143592
194	0x3d9cc2a0	0.07654309
195	0x3e0f6593	0.14003591
196	0x3d8bdab5	0.068288244
197	0x3dc247a5	0.09486321
198	0x3d8ffcb1	0.07030619
199	0x3bff10c0	0.007783979
200	0xbd0947e0	-0.03351581
201	0xbda0def2	-0.078550234
202	0xbda48a1e	-0.08034156
203	0x3e0ed969	0.13950123
204	0x3d849cbe	0.06475209
205	0x3dff2f4d	0.12460194
206	0xbde3f45d	-0.11130593
207	0xbdccadbb	-0.09994074
208	0x3c9a9664	0.01887054
209	0x3dafc1c4	0.0858188
210	0x3d11f352	0.03563244
211	0x3d21ff4d	0.039550114
212	0xbe488197	-0.19580685
213	0xbe90387d	-0.28168097
214	0xbe3ed1ad	-0.18634672
215	0xbe364947	-0.1780139
216	0x3c682f40	0.0141714215
217	0xbdb6b2e2	-0.08920838
218	0xbc817fc9	-0.015808003
219	0x3d22c49f	0.039738294
220	0x3ddcba9c	0.107777804
221	0x3c73a36c	0.014870506
222	0x3d304af9	0.04304025
223	0xbc4091fc	-0.011753555
224	0xbcf40db2	-0.029791687
225	0x3d0403cc	0.032230183
226	0x3d8a95dd	0.067668654
227	0x3d764f5a	0.06013427
228	0xbdcbd64b	-0.099529825
229	0x3d36f7c8	0.044669896
230	0xbcf51086	-0.029915106
231	0x3df8c505	0.121469535
232	0x3c10ebb1	0.008845256
233	0x3d40e38a	0.047092
234	0x3dcbafd1	0.09945644
235	0x3d173e99	0.036924932
236	0x3df6d750	0.12052786
237	0x3e815104	0.25257123
238	0x3e7aeb2b	0.24503772
239	0x3e8d2cd8	0.27573276
240	0x3e087409	0.13325514
241	0x3cff0318	0.031129405
242	0x3dec7ac2	0.11546852
243	0x3d5244e6	0.051335238
244	0xbc161abd	-0.009161648
245	0xbd0824e5	-0.03323831
246	0xbe157b61	-0.14597847
247	0xbe712b3e	-0.23551652
248	0xbdbe1c45	-0.09282736
249	0xbc55c05c	-0.01304635
250	0xbcb50ae0	-0.022099912
251	0xbe2fa6dd	-0.17153497
252	0xbd1dd8ae	-0.03853672
253	0x3c15cca0	0.009143025
254	0xbdf4225e	-0.119206175
255	0x3d097972	0.033563085

conv2.0.bias f4 [16]
0	0xbf6695a3	-0.9007208
1	0xbf589c29	-0.8461328
2	0xbf850c7a	-1.0394433
3	0xbf3108a3	-0.69153804
4	0xbfa99b11	-1.3250448
5	0xbf6c1a11	-0.92227274
6	0xbfc77d7d	-1.5585171
7	0xbf72136e	-0.945609
8	0xbf5042ab	-0.8135173
9	0xbf258497	-0.6465544
10	0xbf89353c	-1.0719371
11	0xbed85dd1	-0.42259076
12	0xbed89196	-0.42298573
13	0xbf21a474	-0.6314156
14	0xbf127565	-0.5721038
15	0xbf7ebd3c	-0.995075

fc1.0.weight f4 [120, 400]
0	0xbd2daa89	-0.042398963
1	0xbdd09bef	-0.10185992
2	0x3e28548b	0.164385
3	0x3e124530	0.14284205
4	0x3dab0efe	0.08352469
5	0xbdfe6f7c	-0.12423608
6	0x3d9f82d7	0.077886276
7	0x3df7a5cc	0.1209217
8	0x3e39e23a	0.18152705
9	0x3e68f719	0.2275051
10	0x3d9d2064	0.07672194
11	0x3d5c18fb	0.05373476
12	0x3e096542	0.13417533
13	0xbc98f7a2	-0.018672768
14	0xbdb31408	-0.08744055
15	0xbc0b3e7f	-0.008498787
16	0x3d9e1cf0	0.07720363
17	0xbd7714c4	-0.060322538
18	0x3d682b91	0.056682173
19	0xbe0b4aad	-0.13602705
20	0xbc14f56c	-0.009091716
21	0x3b139bc2	0.0022523259
22	0xbe564354	-0.20924121
23	0x3ddf670f	0.10908329
24	0x3e617864	0.22018582
25	0xbc9c483b	-0.01907741
26	0xbc042686	-0.008065825
27	0xbd22a391	-0.03970677
28	0x3bb75bd1	0.005595662
29	0x3c87aecc	0.016562842
30	0x3e0105b5	0.12599833
31	0x3d35e157	0.044404354
32	0x3dfec93f	0.124407284
33	0x3e03dbc6	0.12876806
34	0x3d9ebf31	0.077513106
35	0xbccbf13d	-0.024895305
36	0x3d97a24a	0.07404001
37	0x3dde897c	0.10866067
38	0xbc7c050d	-0.015382064
39	0xbe063c6e	-0.1310899
40	0x3dda9f25	0.10674886
41	0x3c4966be	0.012292562
42	0x3db79178	0.08963293
43	0x3c6c1167	0.014408446
44	0x3e96e283	0.2946969
45	0x3e6326aa	0.22182718
46	0xbccb1e11	-0.02479461
47	0xbe021a0d	-0.1270525
48	0xbcd102ce	-0.025514033
49	0x3e47e114	0.19519454
50	0x3e40700e	0.18792745
51	0x3e29ebf9	0.16593923
52	0x3d4443f4	0.047916368
53	0x3e110d9d	0.1416535
54	0xbafa9d05	-0.0019120282
55	0x3e2e8908	0.17044461
56	0x3d37a764	0.04483737
57	0xbe1cca19	-0.15311469
58	0xbe2c7d11	-0.16844584
59	0x3e733d0c	0.23753756
60	0x3ebcaf82	0.36852652
61	0x3decaba4	0.11556175
62	0xbe1a99d1	-0.15097739
63	0x3c466f3b	0.01211148
64	0x3e35a16f	0.17737363
65	0x3e860189	0.26173046
66	0x3e2a2bf2	0.16618326
67	0xbd6b3bc1	-0.057430033
68	0xbdddc773	-0.108290575
69	0xbe6d0364	-0.23145825
70	0x3c9323c8	0.017961398
71	0x3e0ea31c	0.13929409
72	0x3d26c05f	0.040710803
73	0xbd9e13f7	-0.07718652
74	0xbdacd56f	-0.08439147
75	0x3e682e78	0.22673976
76	0x3ddfb7a3	0.10923698
77	0x3e98a7fd	0.29815665
78	0x3ecf52a1	0.40492728
79	0x3e09e0c1	0.13464643
80	0x3e7558a0	0.23959589
81	0x3e374bb0	0.17899966
82	0xbdac2aca	-0.08406599
83	0xbd9b3056	-0.07577579
84	0x3dd3d1d8	0.10342759
85	0x3ed6e90c	0.41974676
86	0x3e3b063b	0.18264095
87	0xbcd85f8e	-0.026412752
88	0xbe5e082e	-0.21682808
89	0x3c2a1794	0.010381598
90	0xbc4836bc	-0.012220081
91	0x3d4cf49a	0.050037958
92	0x3daa6b56	0.08321254
93	0xbdc68873	-0.096939944
94	0xbc968564	-0.018374152
95	0x3d94a0c8	0.07257229
96	0xbd11231e	-0.03543388
97	0xbd83a7ec	-0.06428513
98	0xbca877b7	-0.020564897
99	0xbd4030ad	-0.04692142
100	0x3daf94bf	0.08573293
101	0x3df04c12	0.11733259
102	0x3e30f01f	0.17279099
103	0x3e9acdc8	0.30235124
104	0xbe1805c4	-0.1484595
105	0x3d82b42c	0.06382021
106	0x3e36678e	0.1781294
107	0x3d18b8e6	0.037285708
108	0x3b2c7c12	0.002631907
109	0x3ddbab03	0.10725977
110	0x3d2b1d9f	0.041776296
111	0xbd91f42f	-0.071266524
112	0x3e1a333a	0.15058604
113	0x3c41d453	0.011830407
114	0xbdd30793	-0.10304179
115	0xbd663133	-0.056199264
116	0x3e55c1d6	0.20874724
117	0x3e1346c8	0.1438247
118	0x3c1e0188	0.00964392
119	0xbde56e02	-0.11202623
120	0xbde80ebe	-0.11330937
121	0x3dbec3b4	0.09314671
122	0x3de503d4	0.11182371
123	0x3dd26b01	0.102743156
124	0x3defc90c	0.117082685
125	0x3db5adf8	0.088710725
126	0xbcd4d819	-0.02598195
127	0xbe577c24	-0.2104345
128	0xbecc6ae9	-0.39925316
129	0xbd2fd722	-0.042929776
130	0xbdb7802d	-0.089599945
131	0xbd77e299	-0.060518835
132	0xbda14437	-0.07874339
133	0xbe71ece2	-0.2362552
134	0xbcf0f842	-0.029415254
135	0xbe62cad9	-0.22147693
136	0xbe3315c7	-0.17488776
137	0xbd765f9f	-0.060149785
138	0xbd4a0952	-0.049325295
139	0x3de51979	0.11186499
140	0x3e3bab61	0.18327095
141	0x3d1a0dbd	0.037610758
142	0xbdbd9a23	-0.09257915
143	0xbd9210df	-0.07132124
144	0x3a5a5770	0.0008329069
145	0xbcf3a2ac	-0.029740654
146	0xbdd259f9	-0.10271067
147	0x3dc8a9ec	0.09798035
148	0xbe0b1f9b	-0.13586275
149	0x3c156b6b	0.009119849
150	0xbca7fffd	-0.020507807
151	0x3e1cc0b4	0.15307885
152	0x3caacac6	0.020848643
153	0xbe8ea9a7	-0.2786381
154	0xbe2e1f4a	-0.17004123
155	0xbe2f9ef7	-0.17150484
156	0xbc0a51fc	-0.008442398
157	0xbe0a93e7	-0.13532983
158	0xbe9700d7	-0.29492828
159	0xbe5bbf79	-0.2145976
160	0xbe1d0e51	-0.15337493
161	0x3e7efd98	0.24901426
162	0xbc6f56b3	-0.014608073
163	0xbda7c05c	-0.081909865
164	0xbda14f67	-0.07876473
165	0xbc753b51	-0.014967755
166	0x3d7cddc4	0.06173493
167	0xbb894952	-0.0041896487
168	0xbdb9aed1	-0.09066547
169	0xbdc2f517	-0.095194034
170	0xbdbc09c5	-0.09181551
171	0xbdd033c9	-0.10166127
172	0xbde1426e	-0.109989986
173	0x3e25f58e	0.16206953
174	0xbe08cf13	-0.13360243
175	0xbd96d45b	-0.07364722
176	0x3da38fc9	0.07986409
177	0x3e3ef708	0.18648922
178	0x3db70950	0.08937323
179	0x3da1ef40	0.079069614
180	0x3e4d03a0	0.20020914
181	0x3e134163	0.14380412
182	0x3c5c2b3e	0.013438044
183	0x3d12c4c0	0.035832167
184	0x3b4ec8e6	0.003155285
185	0x3e31b50b	0.17354219
186	0x3d1a9132	0.037736125
187	0xbe301051	-0.17193724
188	0xbd58cae1	-0.052927855
189	0x3c56db80	0.013113856
190	0x3ea9979d	0.33123484
191	0x3d753df2	0.05987353
192	0xbe50a122	-0.20373967
193	0xbcab8974	-0.020939566
194	0x3de90e89	0.113797255
195	0x3eb32f6d	0.3499712
196	0x3de70785	0.11280731
197	0x3dd467bf	0.103713505
198	0xbd0eeb49	-0.034892354
199	0xbde03db7	-0.10949271
200	0xbcd42d40	-0.025900483
201	0xbd3b143d	-0.045673598
202	0xbd2e23f9	-0.042514775
203	0x3de7dac3	0.11321022
204	0x3ca9702d	0.020683372
205	0xbd82d7e3	-0.063888334
206	0x3e003680	0.1252079
207	0x3cfcbfc5	0.030853162
208	0xbe529843	-0.20565896
209	0x3c3315da	0.010930503
210	0x3dff3ca1	0.12462736
211	0x3d9ebfb3	0.077514075
212	0xbd8ea43e	-0.069649205
213	0xbdea74b8	-0.114480436
214	0x3e6dd6ef	0.23226522
215	0x3ebbca5d	0.36677828
216	0x3dc43458	0.09580296
217	0xbd3ce610	-0.046117842
218	0xbdfa7209	-0.12228782
219	0xbd62c07a	-0.05535934
220	0xbd366ce4	-0.04453744
221	0x3e1862a4	0.14881378
222	0x3dcdde39	0.10052151
223	0x3c3b92cc	0.011448573
224	0xbdc5a267	-0.096501164
225	0xbe59dd67	-0.21275865
226	0xbd4b470c	-0.049628302
227	0xbe558c96	-0.2085441
228	0xbe1ccc3c	-0.15312284
229	0xbe83e0f1	-0.25757554
230	0xbda1c0f4	-0.07898131
231	0xbe075c19	-0.13218726
232	0xbd55fc7a	-0.052242734
233	0xbe2f6d4c	-0.17131537
234	0xbd493bd1	-0.04912931
235	0xbd33d519	-0.043904398
236	0xbd2f0f68	-0.042739302
237	0xbcabc9af	-0.020970194
238	0x3deab800	0.114608765
239	0x3d2252c9	0.03962973
240	0x3dfcbbe6	0.12340526
241	0x3c0c552c	0.008565228
242	0xbdfe6c6a	-0.12423022
243	0x3c160ab4	0.009157825
244	0xbdfd2360	-0.12360263
245	0x3d9508f3	0.072770976
246	0x3dfb5e09	0.12273795
247	0x3d8fa3c0	0.07013655
248	0x3d3dc412	0.046329565
249	0xbdab0791	-0.083510526
250	0x3d4de1df	0.050264236
251	0x3d97da4a	0.07414682
252	0x3e0049dd	0.12528177
253	0x3e162609	0.14662947
254	0x3c0ea1f3	0.008705604
255	0x3e7acd52	0.24492386

fc1.0.bias f4 [120]
0	0x3e84539a	0.25845033
1	0x3ebdb053	0.37048587
2	0x3ec270f3	0.37976798
3	0xbe1d5af7	-0.15366732
4	0x3ed385ae	0.41312927
5	0xbe3ea471	-0.18617417
6	0x3d9bb4b2	0.07602824
7	0x3ceecf13	0.029151475
8	0x3e3edaa7	0.18638097
9	0x3eec193b	0.46113
10	0x3ed886e6	0.4229042
11	0xbd435814	-0.04769142
12	0xbd6ff15d	-0.05857979
13	0xbe519634	-0.20467454
14	0x3c499f18	0.012305997
15	0xbeeffd6b	-0.4687303
16	0xbac63dbe	-0.0015124602
17	0x3e874dff	0.26426694
18	0x3f1ae337	0.6050295
19	0xbddaa579	-0.10676093
20	0x3f16b9af	0.5887708
21	0xbdbe904a	-0.09304865
22	0x3ea7fdc4	0.32810795
23	0xbebf45be	-0.37357897
24	0x3e088774	0.13332921
25	0x3ed6b4f0	0.4193492
26	0x3ee63cd4	0.44968283
27	0xbf09374a	-0.5359999
28	0xbf25491d	-0.64564687
29	0x3ecd4a40	0.4009571
30	0xbdd87537	-0.10569232
31	0xbf123873	-0.57117385
32	0x3d4f56a8	0.05061975
33	0xbe1b2101	-0.15149309
34	0x3ed0a7a7	0.4075291
35	0xbed40a8e	-0.41414303
36	0xbe7775bf	-0.2416601
37	0x3ec9fb96	0.39449757
38	0x3ee3cb6a	0.4449113
39	0x3ddd3e74	0.108029276
40	0x3e33b331	0.17548825
41	0xbdf36408	-0.11884314
42	0xbe50a888	-0.2037679
43	0xbc34c5a8	-0.011033453
44	0x3e6a2239	0.22864617
45	0xbc904056	-0.017608803
46	0x3f08c2ff	0.5342254
47	0x3db818ac	0.08989081
48	0x3e89d8e8	0.269233
49	0xbe9bdbea	-0.3044122
50	0xbd321bb4	-0.04348345
51	0xbe2dfd1f	-0.1699109
52	0xbe3f6ea0	-0.18694544
53	0x3cdbf442	0.02684987
54	0xbd69284d	-0.0569232
55	0xbd8ce795	-0.06880108
56	0x3e11bf12	0.14233044
57	0xbf20e69e	-0.62851894
58	0x3ebc6556	0.36796063
59	0xbe2a2d92	-0.16618946
60	0xbebfaded	-0.37437382
61	0x3de1a650	0.1101805
62	0xbe83382c	-0.25628793
63	0xbe190c4d	-0.14946099
64	0xbe64041c	-0.22267193
65	0xbd54a174	-0.051911786
66	0xbefc3e17	-0.4926612
67	0xbe34ad8d	-0.1764433
68	0x3de67b92	0.11254038
69	0x3e5b7127	0.21429883
70	0x3e204d0b	0.1565439
71	0xbe513179	-0.20429029
72	0x3eca5bcb	0.39523157
73	0x3f0f8596	0.5606321
74	0xbe6ed47b	-0.23323242
75	0x3d8fa103	0.070131324
76	0xbf14f6d9	-0.5818916
77	0xbdbaa4c9	-0.091134615
78	0xbe924856	-0.28570813
79	0x3e67227f	0.22571753
80	0x3ecab0e8	0.39588094
81	0xbc82ce81	-0.01596761
82	0x3e8f1e4c	0.27952802
83	0x3e9ec656	0.31010693
84	0xbe31fdfd	-0.17382045
85	0xbefbf377	-0.49209186
86	0x3edfea14	0.43733275
87	0x3c9a1904	0.018810757
88	0xbe570e6f	-0.210016
89	0xbf205db8	-0.62643003
90	0xbe04427f	-0.12915991
91	0xbe099949	-0.1343738
92	0x3e291c38	0.16514671
93	0xbdf8b4d7	-0.121438675
94	0x3e36fb75	0.1786936
95	0x3e63ea4b	0.22257344
96	0x3f1ab1a3	0.604273
97	0x3c4df94c	0.012571644
98	0xbebff93e	-0.37494844
99	0xbe97e448	-0.29666352
100	0x3e8c6753	0.2742258
101	0x3e5a0781	0.21291925
102	0xbe9d1e72	-0.3068729
103	0x3d4a4ef1	0.04939169
104	0x3ebd628b	0.36989245
105	0xbe4a0ee3	-0.19732241
106	0x3e9eabfe	0.30990595
107	0x3e89116d	0.26771107
108	0xbde556c3	-0.11198189
109	0xbd380bb7	-0.044933047
110	0x3e7c8072	0.24658373
111	0xbe0be67f	-0.13662146
112	0xbc5d89d3	-0.013521629
113	0x3e46d16f	0.1941583
114	0x3d972e2e	0.07381855
115	0xbf2514a1	-0.644846
116	0x3e9c1929	0.30487946
117	0xbeb60cc0	-0.35556602
118	0xbe9517d4	-0.29119742
119	0x3ed8edce	0.4236893

fc2.0.weight f4 [84, 120]
0	0x3c4d12df	0.012516706
1	0x3d8b725d	0.068089224
2	0xbdb367c2	-0.087600246
3	0x3ddd5932	0.10808028
4	0xbd448527	-0.047978546
5	0xbe864540	-0.2622471
6	0xbdcee327	-0.101019196
7	0x3df30dda	0.11867876
8	0xbec03bf0	-0.3754573
9	0x3d90d251	0.07071365
10	0xbdc6dd34	-0.0971016
11	0x3e79f9d6	0.24411711
12	0x3db1102b	0.08645662
13	0x3e1c6b16	0.15275225
14	0xbe4a481a	-0.19754067
15	0x3cfd224d	0.030900145
16	0xbda8ae1a	-0.08236332
17	0x3cc6dacd	0.024274254
18	0xbe1f6ddf	-0.15569256
19	0xbd3597eb	-0.044334333
20	0x3e300f48	0.1719333
21	0x3dde0e11	0.10842527
22	0x3dd65d10	0.10466969
23	0x3d55cf76	0.052199803
24	0xbdeeed2b	-0.1166633
25	0xbcac54fa	-0.021036614
26	0xbe26825f	-0.1626067
27	0xbd518611	-0.051153246
28	0xbd85d464	-0.06534651
29	0x3dc6e198	0.09710997
30	0xbe0565d6	-0.13027129
31	0x3e405d3f	0.1878557
32	0x3e27ab89	0.16374029
33	0x3dbb684b	0.09150752
34	0x3e4ba56a	0.19887319
35	0xbde5aa60	-0.11214137
36	0xbdb9dfa8	-0.09075862
37	0xbe23d318	-0.15998495
38	0xbddb7e05	-0.10717396
39	0xbe8346f2	-0.25640064
40	0x3b1bf6a7	0.002379814
41	0xbcda779d	-0.026668364
42	0xbda91d2a	-0.08257516
43	0x3d8311d8	0.06399888
44	0xbe016e33	-0.12639694
45	0x3dd8e5a2	0.10590674
46	0xbd2871ca	-0.041124143
47	0xbe4993ba	-0.1968526
48	0x3e58fad0	0.21189427
49	0x3d86cbf0	0.06581867
50	0xbe7f2258	-0.24915445
51	0x3bd4e587	0.0064970884
52	0x3e2406f7	0.16018282
53	0x3e8c2bab	0.27377066
54	0x3e14c021	0.14526416
55	0xbe72ad68	-0.23698962
56	0xbd3a9f91	-0.04556233
57	0x3d92831b	0.07153913
58	0xbd90a82d	-0.07063327
59	0xbd6bdade	-0.057581775
60	0x3dc013de	0.09378789
61	0x3d159cdb	0.036526542
62	0xbe56d1db	-0.20978491
63	0x3e089ad2	0.1334031
64	0xbcca182a	-0.024669725
65	0xbe2bdca8	-0.16783392
66	0x3dbaf86b	0.09129413
67	0x3e378bd0	0.17924428
68	0xbd8231ba	-0.06357141
69	0x3dd453cd	0.10367546
70	0x3baed556	0.00533549
71	0x3d0ce7a1	0.034400586
72	0x3d80d607	0.062908225
73	0x3c315f92	0.010826008
74	0x3de69808	0.112594664
75	0xbc6e65ef	-0.01455067
76	0xbcaf87c8	-0.02142705
77	0x3d7ea883	0.062172424
78	0x3dc7506b	0.097321354
79	0x3d0bde30	0.03414744
80	0x3d9bfa70	0.076161265
81	0x3e900de2	0.28135592
82	0xbe7e35e8	-0.24825251
83	0xbe4a459f	-0.19753121
84	0x3e0cd2c4	0.13752276
85	0x3e064d63	0.13115458
86	0x3e0466d0	0.12929845
87	0xbcd4d4c5	-0.025980363
88	0xbb78ef4f	-0.0037984436
89	0x3e7f9889	0.24960531
90	0x3e4969e2	0.19669297
91	0x3d6743a6	0.056461
92	0x3d33ba4b	0.043878835
93	0xbe2c1c91	-0.16807772
94	0xbdfd0afb	-0.1235561
95	0x3e37f15c	0.17963165
96	0xbbb25efd	-0.0054434524
97	0xbc5be086	-0.01342023
98	0x3d579966	0.052636527
99	0x3d8054c4	0.06266168
100	0xbd345f5d	-0.044036258
101	0xbc760dc1	-0.015017928
102	0xbe20e1c1	-0.15711118
103	0x3e14b1c5	0.14520939
104	0xbdcb6ed9	-0.09933252
105	0xbda69dad	-0.08135543
106	0x3da8f124	0.08249119
107	0xbd23c7f2	-0.039985605
108	0x3c1fdaea	0.009756783
109	0x3d1ae832	0.037819095
110	0xbc9f77a9	-0.019466238
111	0x3e169cd9	0.1470827
112	0xbd7875ea	-0.060659327
113	0x3d1956ed	0.037436415
114	0x3e0e88cc	0.13919371
115	0x3dbc5a7b	0.09196945
116	0x3b436820	0.0029816702
117	0x3d53a162	0.05166758
118	0x3d45ed9b	0.0483223
119	0xbe3967a4	-0.18105942
120	0x3e9f63a0	0.31130695
121	0x3e9569ba	0.29182225
122	0x3c13fa3e	0.00903183
123	0x3e45703a	0.19281092
124	0x3e1adb55	0.15122731
125	0xbe587a71	-0.21140458
126	0xbe88a347	-0.2668707
127	0x3d5b40c9	0.05352858
128	0xbd227676	-0.039663754
129	0xbc879d0e	-0.016554382
130	0xbcd95dc9	-0.026533978
131	0x3e567013	0.2094119
132	0xbc39bcca	-0.011336515
133	0x3e50be94	0.203852
134	0x3dff9bdd	0.124809004
135	0xbd21ba62	-0.03948439
136	0x3d9cc4c4	0.076547176
137	0x3e239a77	0.15976892
138	0x3e580a96	0.21097788
139	0xbe59a03f	-0.21252535
140	0x3dcabd89	0.09899432
141	0xbe670bd5	-0.22563107
142	0x3e535c7d	0.2064075
143	0x3d36eb0f	0.044657763
144	0x3dd269f2	0.10274114
145	0x3e2a0a0d	0.16605397
146	0x3d3be105	0.045868892
147	0xbe4fe6b2	-0.20302847
148	0x3c225d07	0.009909875
149	0x3d8324e1	0.064035185
150	0xbe0ef716	-0.13961443
151	0xbd7ced16	-0.06174954
152	0x3e0212b3	0.12702446
153	0xbd751f28	-0.059844166
154	0x3c66ab12	0.014078872
155	0x3dbc6aa2	0.09200026
156	0xbe38d888	-0.1805135
157	0xbb5e0a15	-0.003388052
158	0x3e109582	0.14119533
159	0xbdfd754a	-0.12375887
160	0xbe52e9c8	-0.20596993
161	0xbc8beaac	-0.017079674
162	0xbdc48a44	-0.095966846
163	0xb8146da7	-3.538807e-05
164	0x3e5b8528	0.21437514
165	0x3de352f5	0.11099807
166	0x3e644bb4	0.22294503
167	0xbd4bc6e9	-0.049750242
168	0x3d84dceb	0.06487449
169	0x3d9b4025	0.07580594
170	0x3dd57c89	0.10424144
171	0xbdbdc39d	-0.09265826
172	0x3af604df	0.0018769762
173	0x3e6793e0	0.22615004
174	0x3e627be9	0.2211758
175	0xbe3e10b2	-0.18561056
176	0x3dbdc1ce	0.09265481
177	0x3d90e594	0.070750386
178	0x3db75630	0.08951986
179	0x3b682374	0.0035421522
180	0xbe2e216f	-0.17004941
181	0x3d99bdd3	0.07506909
182	0xbd6013de	-0.054706447
183	0x3c9f5904	0.019451626
184	0xbeb9e5ac	-0.36308038
185	0x3da43a9b	0.080189906
186	0xbdfbbaa2	-0.12291457
187	0xbe94f6b4	-0.2909447
188	0xbd264c9c	-0.040600404
189	0x3de9eca2	0.11422087
190	0xbbcced3d	-0.006253867
191	0x3d967d54	0.07348123
192	0x3c3b2080	0.011421323
193	0x3e23b9ac	0.15988797
194	0xbdc947be	-0.09828137
195	0xbe81b076	-0.25329942
196	0xbe684725	-0.2268339
197	0x3e0095f2	0.125572
198	0xbe02c4f0	-0.12770438
199	0x3d0536e6	0.03252306
200	0x3d802543	0.06257107
201	0xbd1830d8	-0.037155956
202	0x3d219ce4	0.039456263
203	0x3e4a0a52	0.197305
204	0xbe8135c1	-0.25236323
205	0x3e6e0512	0.23244122
206	0xbd82c158	-0.06384534
207	0xbd73b49c	-0.059498414
208	0x3e2dac73	0.16960315
209	0xbceb1563	-0.028696721
210	0x391020e8	0.00013745169
211	0x3c871630	0.016490072
212	0x3bcc000f	0.006225593
213	0xbe1693a2	-0.14704755
214	0x3d7a5b6b	0.06112234
215	0x3ccbc21d	0.024872834
216	0x3e362817	0.1778873
217	0xbdb71a8a	-0.08940609
218	0xbe18ed0d	-0.14934178
219	0x3b722eb8	0.0036954116
220	0x3e148ce6	0.14506873
221	0x3d762451	0.060093228
222	0x3d9fc40a	0.07801063
223	0x3dc65dd3	0.09685864
224	0xbe9e5d3c	-0.30930507
225	0xbc4731a2	-0.0121578295
226	0xbda591ee	-0.080844745
227	0xbcf16719	-0.029468106
228	0xbd7fd4ad	-0.062458683
229	0x3dac7f1d	0.084226824
230	0x3dbce0bd	0.09222553
231	0xbdc6e805	-0.09712223
232	0xbd63bda1	-0.055600766
233	0xbe045c5a	-0.12925854
234	0x3c38772a	0.01125888
235	0xbd29654e	-0.041356377
236	0x3e33371e	0.17501494
237	0xbd63f9d9	-0.055658195
238	0x3dbae1ff	0.091251366
239	0xbccfd426	-0.025369715
240	0xbc927653	-0.017878687
241	0x3e3ec114	0.18628341
242	0xbddcf3c6	-0.107886836
243	0x3d9e1b26	0.07720022
244	0xbc82087b	-0.015873184
245	0xbde2dcb2	-0.110772505
246	0x3cfb0e97	0.030646605
247	0x3dfd0ca2	0.12355925
248	0x3dce98f5	0.10087768
249	0x3db8c6be	0.09022282
250	0xbde80b4e	-0.11330281
251	0xbcc60617	-0.024172826
252	0x3c21e0c9	0.009880253
253	0xbdd0f6cf	-0.10203325
254	0xbd20495c	-0.03913246
255	0x3b9c4020	0.0047683865

fc2.0.bias f4 [84]
0	0xbc9609b8	-0.018315181
1	0x3e5c0702	0.21487048
2	0x3e802ce6	0.25034255
3	0x3e2817da	0.16415349
4	0x3dcae0c9	0.099061556
5	0x3e05b8c9	0.13058771
6	0x3d3e61cd	0.04647999
7	0x3a646503	0.00087125617
8	0x3bee4218	0.0072710626
9	0xbdef3b05	-0.11681179
10	0xbe83363d	-0.25627318
11	0x3e609132	0.21930388
12	0xbe36fe04	-0.17870337
13	0xbe4383d3	-0.19093256
14	0x3d8381e3	0.06421258
15	0x3d370cc2	0.0446899
16	0xbdf33849	-0.1187597
17	0xbdc16e7e	-0.09444903
18	0xbdcf2fb5	-0.10116521
19	0x3e987df6	0.297836
20	0x3cd54bf9	0.026037203
21	0xbeaeff69	-0.34179237
22	0xbe3be4e0	-0.18349028
23	0x3ddc4ebb	0.10757204
24	0xbda8182d	-0.08207736
25	0x3dd85f94	0.10565105
26	0xbf049e6a	-0.5180422
27	0xbdc17d6d	-0.09447751
28	0x3d9a211e	0.07525848
29	0x3d8c8803	0.0686188
30	0xbe28b2e0	-0.16474485
31	0x3e8e5c89	0.27804974
32	0xbf1788ba	-0.59193003
33	0x3eac4c4b	0.33651957
34	0xbdfd7926	-0.12376623
35	0x3e5b9e52	0.21447113
36	0xbd4589ea	-0.04822723
37	0xbd06b4d2	-0.032887287
38	0x3ee94592	0.4556089
39	0x3eb21a77	0.34785816
40	0x3e43a874	0.19107229
41	0xbe06d4dc	-0.13167137
42	0xbd8071cf	-0.06271707
43	0xbe1b1759	-0.15145625
44	0x3cd7479c	0.026279263
45	0x3dfbd73b	0.12296911
46	0x3e82a4c7	0.2551634
47	0x3e9b0ae9	0.3028176
48	0xbe1a1375	-0.15046485
49	0xbe9d6d45	-0.3074743
50	0x3dadbb05	0.08482937
51	0xbec93bcc	-0.39303434
52	0xbb17777b	-0.0023111987
53	0x3ddd873c	0.108168095
54	0x3ddfb998	0.10924071
55	0xbe37965b	-0.1792845
56	0xbe4001d1	-0.18750693
57	0xbe6df8e5	-0.23239477
58	0x3c7c603d	0.015403804
59	0xbe18febe	-0.14940926
60	0xbcb8b5eb	-0.022547683
61	0xbe26a9f3	-0.16275768
62	0xbe801979	-0.25019434
63	0x3ddddd45	0.108332194
64	0x3e37f925	0.17966135
65	0x3d9653a4	0.07340172
66	0xbee76a76	-0.4519841
67	0xbf056024	-0.52099824
68	0xbc80b51f	-0.015711365
69	0xbe84bf65	-0.25927272
70	0xbf0bb54a	-0.545735
71	0x3d9547f0	0.072891116
72	0xbe92f5f2	-0.28703266
73	0xbec91b00	-0.39278412
74	0x3e3df7da	0.18551579
75	0x3d24885f	0.040169116
76	0xbd41c24c	-0.047304437
77	0xbd2d5526	-0.042317532
78	0xbe5b6fba	-0.21429339
79	0xbcc6c998	-0.02426605
80	0x3ccda468	0.02510281
81	0x3d6024d9	0.05472264
82	0x3e45d8de	0.1932101
83	0xbe2ae129	-0.16687454

fc3.0.weight f4 [10, 84]
0	0x3db9df0a	0.090757445
1	0xbea720e4	-0.3264228
2	0xbe0cdfd5	-0.1375726
3	0x3e139488	0.14412129
4	0xbccc75fe	-0.024958607
5	0x3e28b1e8	0.16474116
6	0xbdb30d3e	-0.0874276
7	0x3e18765d	0.14888902
8	0x3d87154c	0.06595859
9	0x3e8ee587	0.2790949
10	0x3c144df2	0.009051787
11	0xbe0cc1aa	-0.13745752
12	0x3e967332	0.29384762
13	0x3ea3380a	0.31878692
14	0x3e2a267d	0.16616245
15	0x3de60371	0.11231125
16	0xbde7676f	-0.11299025
17	0xbe3201ed	-0.17383547
18	0xbd8d11cd	-0.06888161
19	0xbd4d9e82	-0.050199993
20	0x3e02ec40	0.12785435
21	0x3e2066dd	0.15664239
22	0x3ea3eed5	0.32018152
23	0xbe66cad7	-0.22538315
24	0x3e9532a2	0.29140192
25	0xbdd70352	-0.1049868
26	0x3e1bd2f2	0.15217188
27	0xbd37cc45	-0.04487254
28	0x3de4e30f	0.111761205
29	0xbe5ee504	-0.2176705
30	0xbe394dd9	-0.18096103
31	0x3bfd9f95	0.007739971
32	0x3e9e6af9	0.3094099
33	0xbddf4719	-0.10902233
34	0x3e487b50	0.1957829
35	0xbe09158e	-0.13387129
36	0x3dec782b	0.11546358
37	0xbdae2f0a	-0.08505066
38	0xbb0d5917	-0.0021567994
39	0xbe5c4339	-0.21510018
40	0x3dca11d7	0.09866684
41	0xbd9bb5e3	-0.076030515
42	0x3e62e647	0.22158156
43	0x3e608b7f	0.21928214
44	0xbe3110e7	-0.17291604
45	0x3e54c8c1	0.20779707
46	0xbe92997f	-0.28632733
47	0xbe5b9b4f	-0.21445964
48	0xbe9733eb	-0.29531798
49	0x3cd89253	0.02643696
50	0x3e03df1b	0.12878077
51	0x3e153415	0.14570649
52	0xbc839dab	-0.016066393
53	0x3e0595b7	0.13045393
54	0xbe33d4f8	-0.1756171
55	0xbe4342ea	-0.19068494
56	0x3d311f22	0.04324258
57	0x3e4a62b3	0.19764213
58	0xbe26abda	-0.16276494
59	0x3becdb4b	0.00722829
60	0x3d8802f8	0.06641191
61	0xbc70ce67	-0.014697648
62	0xbe0750e8	-0.13214457
63	0x3d02273e	0.031775706
64	0x3d9b86a6	0.075940415
65	0xbe2ee8de	-0.1708102
66	0xbdb4cbfb	-0.08827969
67	0x3e68e3a3	0.22743087
68	0x3e86d806	0.26336688
69	0x3e9aa3ec	0.30203187
70	0x3d84928a	0.064732626
71	0xbe6a2303	-0.22864918
72	0x3e630073	0.2216814
73	0x3e742de3	0.2384563
74	0xbe53d61f	-0.2068715
75	0xbe247730	-0.16061091
76	0x3e903bf8	0.28170753
77	0xbd112151	-0.035432164
78	0x3e3902f4	0.18067533
79	0x3dcbc80d	0.09950266
80	0x3e62f526	0.22163829
81	0x3e3b54e2	0.18294099
82	0xbe3714db	-0.1787905
83	0x3e9401ba	0.28907567
84	0xbe3553b0	-0.17707705
85	0x3c175c03	0.009238246
86	0x3e759baf	0.2398517
87	0xbd0f161c	-0.034933195
88	0x3db6f6dc	0.089338034
89	0xbdd5ac9d	-0.10433314
90	0xbe688ebc	-0.22710699
91	0xbe95dd4b	-0.29270396
92	0xbde1a011	-0.11016858
93	0xbe32f015	-0.17474397
94	0xbe499f44	-0.19689661
95	0x3e2a564e	0.16634485
96	0x3e6b33c4	0.22968966
97	0x3e52ae92	0.20574406
98	0x3ec00dd8	0.37510562
99	0x3e9c950f	0.30582473
100	0x3e754213	0.23950987
101	0xbe435a4a	-0.19077411
102	0x3e43df82	0.1912823
103	0x3e17d132	0.14825895
104	0x3e23404d	0.15942498
105	0xbcf225bd	-0.02955901
106	0x3cf0c06d	0.02938863
107	0xbe9c25a8	-0.3049748
108	0x3e82cb0b	0.25545534
109	0xbe022686	-0.12710008
110	0xbd8f30c2	-0.06991722
111	0x3dc7b4c8	0.09751278
112	0xbe85df0d	-0.26146737
113	0xbe06d045	-0.13165386
114	0x3e1f542f	0.15559457
115	0x3d509f97	0.050933447
116	0x3e45cda3	0.19316725
117	0x3e11a2d4	0.1422227
118	0xbe5c7c83	-0.21531872
119	0x3dad03ca	0.08447988
120	0xbe717efd	-0.23583598
121	0x3e26f1b6	0.16303143
122	0x3d50f537	0.051015105
123	0x3e100ade	0.14066646
124	0xbe84dc98	-0.2594955
125	0x3bd32360	0.006443426
126	0x3e0fcd80	0.14043236
127	0xbe55e046	-0.20886335
128	0xbd8b071b	-0.06788465
129	0x3e6da40b	0.23207109
130	0x3def558e	0.1168624
131	0xbdd6fb92	-0.10497202
132	0xbe1f679e	-0.1556687
133	0x3e1b9280	0.15192604
134	0x3e42df94	0.19030601
135	0xbe2708d0	-0.16311955
136	0xbe8bc501	-0.2729874
137	0x3c767a13	0.015043753
138	0x3e54ec8e	0.20793363
139	0xbdf83bd8	-0.12120789
140	0x3e2d79e8	0.16941035
141	0xbe099fad	-0.13439818
142	0xbbdf0d9c	-0.0068070423
143	0x3de82bef	0.11336505
144	0xbbeffcc8	-0.007323835
145	0x3d966993	0.073443554
146	0x3e6a8c0a	0.22904983
147	0xbe8a0992	-0.26960427
148	0x3a85ff9f	0.0010223276
149	0xbdf687a6	-0.12037592
150	0x3e5291f5	0.2056349
151	0xbdc15df3	-0.094417475
152	0xbe48a5b9	-0.19594468
153	0x3df1c8d1	0.11805881
154	0xbe6b2bbd	-0.22965904
155	0x3de90eb2	0.11379756
156	0xbe3c9d63	-0.18419413
157	0xbde276f2	-0.11057843
158	0x3e37a33a	0.1793336
159	0xbdaaeb8b	-0.083457075
160	0xbd9c7862	-0.07640149
161	0x3db2a869	0.08723528
162	0xbe58ef01	-0.21184923
163	0xbe446fd0	-0.19183278
164	0xbe4fa66d	-0.2027833
165	0x3e816bd7	0.25277588
166	0xbe03b476	-0.12861809
167	0xbdd93582	-0.10605909
168	0xbe02e1d7	-0.12781464
169	0x3d5fa515	0.054600794
170	0xbd9754fc	-0.07389256
171	0xbcc2920c	-0.023751281
172	0xbe1fb0e8	-0.15594828
173	0x3e0380a4	0.12842041
174	0x3e016865	0.1263748
175	0xbc89cbec	-0.01682087
176	0xbd0dc414	-0.034610823
177	0xbe25dbb0	-0.16197085
178	0xbe2eb746	-0.17062101
179	0xbe1d5d6a	-0.15367666
180	0xbe523454	-0.20527774
181	0xbe3fa08b	-0.18713586
182	0xbde7463e	-0.112926945
183	0x3e6fd08f	0.23419403
184	0x3e39661b	0.18105356
185	0xbdffed18	-0.12496394
186	0xbdd38d6f	-0.10329711
187	0x3e32b5cf	0.17452167
188	0xbe551b5e	-0.20811221
189	0x3cc90a50	0.02454105
190	0xbe052af9	-0.13004674
191	0x3e03a22a	0.1285483
192	0x3e4629a8	0.19351828
193	0xbe6dc9d5	-0.23221524
194	0xbe21621a	-0.15760079
195	0xbe815010	-0.25256395
196	0xbe5d2781	-0.21597101
197	0x3dd763ad	0.105170585
198	0x3ac46285	0.0014982974
199	0x3e396dc0	0.18108273
200	0x3e61e12c	0.22058553
201	0xbd2666eb	-0.040625494
202	0xbe273a9c	-0.16330951
203	0x3e33bcab	0.1755244
204	0x3e12abaa	0.14323297
205	0x3d257681	0.040396217
206	0x3e370676	0.17873558
207	0x3d20f54e	0.03929644
208	0x3e89f57e	0.26945108
209	0xbe84c519	-0.25931624
210	0xbe515648	-0.2044307
211	0x3ddb6689	0.107129164
212	0x3e246014	0.16052276
213	0x3d8fd056	0.07022159
214	0x3d183de1	0.037168387
215	0x3d972eb3	0.07381954
216	0xbe16510a	-0.14679351
217	0xbe2aa129	-0.1666304
218	0x3b7c19e1	0.0038467573
219	0xbe808cd1	-0.25107434
220	0xbe29f854	-0.16598636
221	0x3dfa409b	0.12219354
222	0xbe1e7c0f	-0.15477012
223	0x3d8f3dcc	0.06994209
224	0xbe238b15	-0.15971024
225	0x3dc07b5b	0.09398528
226	0x3e1b93d7	0.15193115
227	0x3d353c54	0.044246987
228	0x3df89a49	0.121388026
229	0xbe1368a0	-0.1439538
230	0xbd90c515	-0.070688404
231	0x3c4845fc	0.012223717
232	0x3e55b218	0.20868719
233	0xbe695ebc	-0.22790045
234	0xbc52cd2c	-0.0128663
235	0xbd510ee3	-0.051039588
236	0x3e141c1c	0.14463848
237	0xbe6ee41e	-0.23329207
238	0xbe668005	-0.22509773
239	0x3b9b77aa	0.0047444897
240	0x3e0c1f41	0.13683797
241	0xbe3495e3	-0.17635302
242	0xbe4e8895	-0.2016929
243	0xbe077a87	-0.13230334
244	0x3e79ee06	0.24407205
245	0x3ea3f70c	0.3202442
246	0x3dc7f5e0	0.09763694
247	0x3e3fc0fc	0.18725961
248	0xbe2c4bc2	-0.16825774
249	0x3e2f5810	0.17123437
250	0xbd9ce2a2	-0.07660414
251	0xbe2f6ddc	-0.17131752
252	0xbe23aaaf	-0.1598308
253	0xbdb86d95	-0.09005276
254	0xbddbcd07	-0.10732465
255	0x3e622b74	0.22086889

fc3.0.bias f4 [10]
0	0xbf1fb730	-0.62388897
1	0x3dbe5b9f	0.09294819
2	0x3e967732	0.29387814
3	0xbe913b7c	-0.28365695
4	0xbdd4731f	-0.1037352
5	0x3e902e4b	0.2816032
6	0xbf04ab2f	-0.51823705
7	0x3ec8cf86	0.39220828
8	0x3e27066d	0.16311045
9	0x3e47cb38	0.19511116
