save_checkpoints/LeNet5_epoch_50.pth (torch, 249863 bytes, 10 tensors)

conv1.0.weight f4 [6, 1, 5, 5]
000000 e5 70 e4 3b e2 b3 25 bd 1d 73 1a be fe ce f7 bc
       0.006971466 -0.040454753 -0.15082975 -0.030250069
000010 4c 49 41 3a d3 96 7e bd b2 3f a8 bd aa de b8 3c
       0.0007373288 -0.062155556 -0.08215274 0.022567112
000020 c6 a3 b8 3d 43 66 2a be ef 9d f1 3d 01 7e ae bb
       0.09015612 -0.16640572 0.117977016 -0.0053250794
000030 7a 41 e5 bc 22 7b ac bd 94 35 8c 3e 90 77 a9 3e
       -0.027985323 -0.08421923 0.27384627 0.3309903
000040 7c 9f 85 3e cf 2d dd 3e e2 16 0f 3e 7d cd 05 bd
       0.2609824 0.43199012 0.13973573 -0.032666672
000050 eb 43 24 be cd 89 96 bc a4 2e 92 be 09 ee 55 bd
       -0.16041534 -0.018376255 -0.2855121 -0.05222896
000060 77 1f 82 bc 30 5f 2a bd 45 79 8a bc 83 24 36 bd
       -0.015884144 -0.041594684 -0.016903529 -0.044468414
000070 06 6e 11 be 4f 44 38 3e 7a 9b 96 bb c8 66 ae bd
       -0.14202127 0.17994808 -0.004596171 -0.08515698
000080 e3 e0 15 3e 5d f6 9d 3e b3 05 b1 3d 26 3b 63 3d
       0.14636569 0.30852023 0.08643665 0.05547633
000090 e6 e7 00 3e f5 bb 84 3d e7 d9 ae 3d 00 69 8d 3d
       0.12588462 0.064811625 0.08537655 0.06904793
0000a0 b3 e4 bc be 3a 1f 89 3d d4 43 82 3e cb e4 03 39
       -0.36893234 0.06695409 0.25442374 0.00012578366
0000b0 ee 15 7e be b1 c2 a3 be bf 6e dc 3d 8f ae 2f be
       -0.24813053 -0.31984475 0.10763311 -0.17156433
0000c0 94 f6 3a 3d 52 14 10 be f7 b8 d4 3a 95 57 7b 3d
       0.04564531 -0.14070252 0.001622944 0.06136282
0000d0 6a 09 58 3e e8 ca aa 3d c9 98 52 bc cb 37 d1 3d
       0.21097341 0.083394825 -0.01285381 0.1021572
0000e0 a9 aa 8a bd 06 6b 39 3a 41 ea 4a 3d 19 63 e2 3d
       -0.06770832 0.00070731377 0.04953981 0.11054058
0000f0 e4 44 03 3e 42 f1 67 3e e3 c0 70 bd e4 10 74 3d
       0.12819248 0.22650626 -0.0587777 0.05958642
000100 3c 4f 80 bd 45 30 61 be d1 4a ab be 78 00 2b be
       -0.06265113 -0.2199107 -0.33455518 -0.16699398
000110 ec 88 8d be 3b 1b 60 3e 85 9a c3 be 90 5d 03 be
       -0.27643526 0.21885388 -0.38203827 -0.1282866
000120 7a e3 8d bd 70 cc 10 be b5 6a b0 be 9a 9b b0 bc
       -0.06928153 -0.14140487 -0.3445641 -0.021558572
000130 00 5f 13 3c f3 c9 e8 bd 7b 0e 07 3d 54 e9 83 be
       0.008994818 -0.11366644 0.032972794 -0.25763953
000140 cf c3 2a bc 53 05 ce bd fc a7 00 bd ac 04 ec bb
       -0.010422661 -0.10059609 -0.031410202 -0.0072027054
000150 9c 98 29 be 8b e9 55 bd ca d5 ef bd dc 6b 4f be
       -0.16562122 -0.052224677 -0.11710699 -0.20255989
000160 7f d0 dc 3d 1d 57 56 be 7d 02 e1 3d ab db 83 3d
       0.10781955 -0.20931669 0.10986803 0.06438383
000170 c1 94 5c 3e 6f 6c 88 bd 70 03 b3 3e 3b c6 67 bc
       0.2154112 -0.06661307 0.3496356 -0.014146383
000180 88 0b 2e 3e db 38 87 3e 3f 4a eb 3c 43 77 8d bd
       0.16996586 0.26410565 0.028721927 -0.06907513
000190 37 67 1d bd a7 81 56 3d 16 ce 02 3d 40 9d 1b 3e
       -0.03842851 0.05236974 0.03193482 0.15196705
0001a0 40 3d 7a be 07 ed c6 3b 82 e8 11 3e 1e ae 89 3e
       -0.24437428 0.0060707363 0.14248851 0.26890653
0001b0 40 37 d1 3d 97 f4 d5 3d 8a 7a 3c be fb fc 8a 3e
       0.10215616 0.104470424 -0.1840612 0.27146134
0001c0 ab 2a 12 3e e7 dd 42 bd d0 ab 5a 3d b9 e3 43 3d
       0.14274089 -0.047574904 0.05338651 0.047824595
0001d0 0d 76 7d 3e 33 38 c5 bd 01 e6 a8 bd 78 a0 e9 bd
       0.24752064 -0.0962986 -0.08246995 -0.1140756
0001e0 5a d3 2b 3d df 4a e5 ba 07 9c e7 3c a1 bd b1 bd
       0.041949607 -0.0017493627 0.028272642 -0.08678747
0001f0 72 57 8f be 32 ef bc 3d c2 b0 5e 3e 22 9a fe 3c
       -0.27996403 0.092253104 0.21747115 0.031079356
000200 57 5f f3 3d 9c 3d 38 bc 1e 45 85 bd ec c4 1f bc
       0.11883419 -0.011245158 -0.06507324 -0.00975154
000210 c2 8b 6e 3e 03 41 ad 3b f5 75 2d 3a 4e d5 3d 3d
       0.23295501 0.005287291 0.0006617003 0.046346
000220 5e 32 a5 3d 52 b2 4d 3d cd fc b2 bc 6a 06 f5 bd
       0.080662474 0.050218888 -0.02184906 -0.11964114
000230 4d 79 14 bd 54 cb 82 bd ca fb cd 3d 2b c1 a7 be
       -0.036248494 -0.06386438 0.100577906 -0.32764563
000240 6d d9 80 be 52 77 da bc 43 94 0a 3d ea a6 7a be
       -0.25165883 -0.026668224 0.0338328 -0.24477735
000250 7d 46 33 be 64 f8 fd 3d
       -0.17507358 0.124008924

conv1.0.bias f4 [6]
000000 67 4a ed bc f3 41 59 bd 75 f0 f2 bc 47 93 b5 3d
       -0.028966142 -0.05304141 -0.029655674 0.088659815
000010 16 ed cb be 36 39 89 be
       -0.3982932 -0.2680146

conv2.0.weight f4 [16, 6, 5, 5]
000000 3c ba 04 3e 00 50 67 3d 5d 11 09 3d 21 28 e7 bd
       0.12961668 0.05647278 0.033463825 -0.11286951
000010 25 21 3b be 7b e9 1a bc d8 1f 14 3d 19 ee 83 3d
       -0.18274362 -0.00945508 0.03616318 0.06441898
000020 37 4d c8 bc 79 bd 07 be 20 f8 1e be c5 87 2a be
       -0.024450881 -0.13255872 -0.1552434 -0.16653354
000030 75 1a f3 bc 18 5b c4 bc b1 48 a5 bd 6c 23 9a bd
       -0.029675702 -0.023969218 -0.080705054 -0.075262874
000040 31 2b 34 be da b0 07 be f3 b4 d8 bd 8d 75 0f be
       -0.17594601 -0.13251057 -0.10581388 -0.14009686
000050 f9 16 02 bc f6 3c 32 bd 01 8e 54 bd f9 8a c4 bd
       -0.007940047 -0.043515168 -0.051893238 -0.095968194
000060 c3 47 ea bd c4 b9 af bd 57 03 2f be 4f 4e 84 be
       -0.11439469 -0.08580354 -0.17091118 -0.25840995
000070 d8 74 04 be e6 20 34 bd db d9 e0 3d 7f a2 ce 3d
       -0.12935197 -0.043976687 0.10979053 0.100895874
000080 f2 a4 95 bc c8 08 a1 bd a4 a8 d7 bd 1d eb 19 3d
       -0.018267129 -0.07863003 -0.105302125 0.037577737
000090 9b 3f 22 3e 8d 0f fb 3d d6 66 01 3d 9d d6 85 bd
       0.15844576 0.122588255 0.031592213 -0.06535075
0000a0 5f af c1 bd e2 35 74 bd 1e b5 ff 3c 28 63 b0 3c
       -0.094572775 -0.0596217 0.031214293 0.021531656
0000b0 17 b3 91 bc fe ea 12 3c ce e3 4f bd 57 78 b0 3c
       -0.017785592 0.008967159 -0.05075436 0.021541758
0000c0 55 e9 24 3d 3d 62 54 bd ca bd ca bc 99 84 c2 bd
       0.040261585 -0.0518515 -0.024748702 -0.09497947
0000d0 60 e6 06 be 7a 71 9c bd 95 b8 f7 3d ac f4 00 3e
       -0.13173819 -0.076388314 0.12095753 0.12593335
0000e0 a6 2f 3f 3c c7 84 66 be 8d 30 b1 be 2d 15 1e be
       0.011669075 -0.22511588 -0.34607354 -0.15437765
0000f0 91 b8 a0 3d 7d 80 1e 3e 81 71 88 3d 35 cc b0 bd
       0.07847703 0.15478702 0.06662274 -0.086326994
000100 ed 84 21 be 3f 6a f2 bd 42 56 9e bc e5 57 29 3d
       -0.15773363 -0.11836671 -0.01932824 0.04134359
000110 08 ce 98 3c 9a 70 93 bb 29 4f e9 bc 61 7f 24 bd
       0.01865293 -0.004499507 -0.02848013 -0.04016054
000120 e7 7e a4 bc d8 45 05 3d 99 64 38 3d 2d 70 fe 3c
       -0.020080043 0.03253731 0.045017812 0.031059349
000130 28 14 b7 3d 28 e8 84 3d fc 9c b8 bc ca 22 a6 bd
       0.089393914 0.06489593 -0.022535793 -0.08112104
000140 96 50 be bd f0 6c 93 ba bc 82 19 3e 8e 0a a2 3d
       -0.09292714 -0.0011247676 0.14991277 0.079121694
000150 31 f6 49 bb b6 86 18 be dd db 26 be 89 59 33 bd
       -0.0030816908 -0.14895138 -0.16294809 -0.04378656
000160 a1 a4 59 bc b8 bb 79 3d 86 64 bc bc 53 48 b6 bd
       -0.0132838795 0.06097004 -0.022997152 -0.089005135
000170 b2 fb 7f bd f7 48 ff bc 58 1e 5a bd 7d ce b9 bc
       -0.062495895 -0.031162722 -0.053251594 -0.02268147
000180 f1 19 ab bd a5 65 eb bd 24 c0 0c be 45 a4 14 bc
       -0.08354557 -0.114939965 -0.13745171 -0.009072368
000190 74 8a 27 bb b7 12 c2 3b e1 d0 ab 3c 1e fd 85 3d
       -0.0025564702 0.005922641 0.020973625 0.06542419
0001a0 27 da d1 3c a3 42 7d 3d 3e a1 86 3d 67 9a a9 3d
       0.025616718 0.061831128 0.06573723 0.08281403
0001b0 74 22 bb 3d 01 5a 7c bd a3 21 0c 3a 5d 29 7b 3d
       0.09137431 -0.061609272 0.00053455884 0.061318744
0001c0 f3 c6 b1 3d e6 c1 88 3d fd 37 e5 3b 1d be 59 bd
       0.08680525 0.06677608 0.0069951997 -0.05315982
0001d0 00 50 bf bd 62 7b fb bd 97 69 8b bb 54 f6 52 39
       -0.09341431 -0.12279393 -0.0042545306 0.00020118925
0001e0 73 d4 36 bd 8e 06 ac bd ad cd 48 bd 56 ba fe bd
       -0.0446362 -0.08399688 -0.049024273 -0.124378845
0001f0 e3 97 c5 bd b5 a0 9e bd 22 09 0d be 4d e2 02 be
       -0.09648111 -0.07745496 -0.13773015 -0.1278164
000200 77 c7 17 bc 1b 44 7e 3d b7 56 d1 bd da a7 77 be
       -0.009263865 0.06207667 -0.10221618 -0.24185124
000210 7b 58 95 be 9d 7c 64 be dc 0f 16 be 38 78 a7 3d
       -0.29169068 -0.22313161 -0.14654487 0.08177227
000220 68 93 60 3d cb a2 9c bd 7f 44 0f be 94 d2 23 be
       0.054828078 -0.07648238 -0.13990973 -0.15998298
000230 c3 e8 ba 3c fc b5 61 bb 0b b9 db 3c 74 63 f8 bc
       0.022816068 -0.0034440747 0.026821634 -0.03032086
000240 21 ab 33 bd 37 45 4e 3d ba 35 d3 bc 46 d4 af 3a
       -0.043864373 0.050358977 -0.025782455 0.0013414703
000250 20 31 1a 3d cc 66 a4 3d 91 b5 fe 3a 8e da 81 bd
       0.037644506 0.080274194 0.0019432773 -0.06340514
000260 ec ca 19 be 08 6f 05 be 8f cf 7a be fb dc 23 bd
       -0.15018815 -0.13030636 -0.2449324 -0.040005665
000270 f0 1a db bd 58 bb a4 bd be c1 ad be 31 f0 88 be
       -0.10698497 -0.080435455 -0.33936876 -0.26745752
000280 dd 86 a5 bb 55 85 ec 3c 37 0e da bd c8 8b 8c bd
       -0.0050514773 0.028872171 -0.106472425 -0.06862599
000290 27 d9 86 bd 04 57 48 3d 8d be 75 3d bf 70 c1 3c
       -0.06584387 0.04891111 0.059996177 0.023613332
0002a0 48 5e 05 bd e9 8f d8 3c 4a 25 4a bc de 44 ca bc
       -0.032560617 0.02643581 -0.012337992 -0.024691042
0002b0 0b 8a 0f be 16 35 fa bd 66 15 00 bd 28 82 cc bd
       -0.14017503 -0.122171566 -0.031270407 -0.09985763
0002c0 7c c3 db bd 23 4e ae bd 6b ff 1f bd 7f e1 65 bd
       -0.10730645 -0.08510997 -0.039061945 -0.056123253
0002d0 13 5e 55 bd 62 73 19 3e 06 3b 25 3d 5e dc b3 bd
       -0.05209167 0.14985421 0.040339492 -0.08782266
0002e0 d7 94 e1 3c 84 19 cb bd 60 37 69 3b 55 1b 1e be
       0.027536793 -0.09916976 0.0035585985 -0.15440114
0002f0 e7 ee ba bd 9a fe ab bd cc b4 09 bd a8 e2 10 3d
       -0.09127598 -0.08398171 -0.033619687 0.035372406
000300 8a 20 7e 3d 0b a6 3d 3e fb 36 8a 3d cc 1c 54 3e
       0.06204275 0.18520372 0.06748768 0.2071411
000310 b0 7d c1 3d f7 88 4f 3d 3e 2f 40 3e 15 72 2e bb
       0.09447801 0.05066773 0.18768021 -0.002661829
000320 fd ab 1a 3c 5f d6 e9 bc d2 4d 17 be 05 51 bf bc
       0.009440419 -0.028544603 -0.1477578 -0.023354063
000330 d0 c8 35 bb a0 55 52 3e 2c 33 8e bd 98 15 84 be
       -0.0027738102 0.20540476 -0.06943354 -0.25797725
000340 d3 bf e6 3c a1 40 69 bb 7a 1a 76 3c b8 1d 26 3d
       0.02816764 -0.00355915 0.015020961 0.040555686
000350 7f ff b2 bd 91 ca 79 be 4b 9b 5f be 0b d5 25 be
       -0.08740138 -0.24393679 -0.21836583 -0.1619455
000360 18 0b 37 3d 00 2b d8 bd c2 d6 21 bd b6 fa 0c 3d
       0.044688314 -0.105550766 -0.03951145 0.034418784
000370 97 c1 e8 bb d3 33 ef 3c 35 d3 20 3e c7 c9 b8 bd
       -0.007103156 0.029199516 0.15705569 -0.09022861
000380 fa 56 78 bd 5d 20 24 bd 0a 35 3e 3c 17 f7 a8 3b
       -0.060629822 -0.040069927 0.011609325 0.0051564085
000390 a6 42 91 bd cf ff 17 bd 7c a4 00 bd cf 15 85 3d
       -0.0709279 -0.037109192 -0.031406865 0.064983
0003a0 95 04 3a 3c 8d 70 20 bc 8b 38 8b bb 1f 3e c7 bc
       0.0113536315 -0.009792459 -0.004248684 -0.024321614
0003b0 10 3c aa 3d 0a 5d 2c 3e 30 e2 0a 3e 98 1c c0 3d
       0.08312237 0.16832367 0.13562846 0.09380454
0003c0 9d d4 a0 3d 73 53 01 3d 8c 75 8f bc 21 92 80 3d
       0.07853053 0.031573724 -0.017512105 0.06277872
0003d0 1b f4 46 3c 10 cf 3c be 47 9f 7c be d3 d9 17 be
       0.01214316 -0.18438363 -0.24670134 -0.14829187
0003e0 76 42 bc bd d4 9b c6 bd a2 df 36 bc 5a 38 11 be
       -0.09192364 -0.096976906 -0.011161717 -0.14181653
0003f0 a4 34 87 bd 10 02 25 bb c5 67 11 be 13 42 13 3e
       -0.06601837 -0.0025178231 -0.14199741 0.14380674

conv2.0.bias f4 [16]
000000 ab 17 07 bf ae 4e ff be 4c ed 2a bf 84 f7 de be
       -0.5277049 -0.49864715 -0.66768336 -0.43548214
000010 ad 51 54 bf 36 23 26 bf c7 f5 94 bf 22 9b 28 bf
       -0.8293713 -0.6489748 -1.1637505 -0.65861714
000020 d0 75 06 bf 9a fd d6 be 7d c6 3a bf d9 05 43 be
       -0.5252352 -0.41990358 -0.7295912 -0.190452
000030 9d aa 60 be 96 a0 c0 be 16 15 ab be f2 56 01 bf
       -0.21940084 -0.37622517 -0.33414525 -0.50523293

fc1.0.weight f4 [120, 400]
000000 76 8c c6 3c 04 b2 85 bd c7 d8 1c 3e 98 7e c4 3d
       0.024236899 -0.065280944 0.15317069 0.09594458
000010 d9 b3 6d 3b ce 49 70 bd 7d e8 9a 3c a3 7f cf 3d
       0.0036270528 -0.058664136 0.018909687 0.10131767
000020 39 c5 66 3e 86 9c f8 3d c3 ab 60 3d c9 0c 10 3d
       0.22536172 0.121392295 0.054851305 0.035168443
000030 0c 47 50 3d 9c a1 c8 3c 71 5c 01 be 0a 9b f0 3a
       0.050849006 0.024491124 -0.1263292 0.0018356752
000040 ae 8f 41 3d cb 53 89 bc e8 58 d7 3d 5c 62 84 bd
       0.047256164 -0.016763588 0.105150044 -0.06464073
000050 81 d2 1c 3e 9b 29 b0 3d 35 73 8a bd f3 31 65 3d
       0.15314676 0.086016856 -0.06760255 0.05595584
000060 ef 0f 13 3e 58 51 db bd d9 3d 21 3d 16 2e 3d bd
       0.14361547 -0.107088745 0.039365623 -0.04618653
000070 f0 53 4d 3d 81 fe 35 3c bd df d7 3d 17 f8 99 3d
       0.050128877 0.011108042 0.105407216 0.075180225
000080 38 da 63 3d c1 84 7d bb 66 01 99 3d 0d 68 87 3b
       0.05562803 -0.0038683864 0.0747097 0.004132277
000090 82 a4 bf 3c 91 dd af 3d a2 30 85 3c 84 ff 27 3c
       0.023393873 0.08587182 0.016258541 0.010253791
0000a0 ef e8 13 3e dc 85 cc bc 4b e5 79 3d e4 7e 83 3c
       0.14444326 -0.024966173 0.061009686 0.016051717
0000b0 96 e3 8b 3e 98 8a cd 3d 86 1b 90 bc d6 1f 8c bd
       0.27322072 0.100362 -0.01759125 -0.0684201
0000c0 38 f0 74 bd bc 0e ce 3d 6a d4 fd 3d bd cd 44 3e
       -0.059799403 0.10061404 0.123940304 0.19219108
0000d0 2b a5 52 3d 89 57 93 3d 16 8e b4 bd aa 52 44 3e
       0.051427048 0.071944304 -0.08816163 0.19172159
0000e0 81 92 73 3d 06 37 3a bd ab d3 3c be 45 5e a2 3d
       0.05946589 -0.04546263 -0.1844012 0.07928137
0000f0 32 10 a1 3e 1a 65 5c 3d cd 91 06 bd f9 cb d9 bd
       0.3145767 0.053807355 -0.03285389 -0.10634608
000100 28 2c 01 3e 54 8d 35 3e 14 fe 06 3e 54 3f 04 bd
       0.126145 0.17729694 0.1318286 -0.032286957
000110 87 06 54 bd 4a d8 39 be 55 93 a0 3d 4b 41 ae 3d
       -0.051764037 -0.18148914 0.07840601 0.085085474
000120 25 2d af 3d fb 0b c1 bd 5c 19 11 be 65 ee 01 3d
       0.085535325 -0.09426113 -0.1416983 0.03172149
000130 92 63 18 3d e2 d4 4f 3e ce 73 71 3e 46 36 11 3b
       0.037204333 0.20296052 0.23579332 0.0022157594
000140 29 0f 5c 3e a7 4b 8e 3e 17 4b aa 3c 1a 1a e3 bd
       0.21490158 0.27792093 0.020787759 -0.11088963
000150 3e f0 a1 3d 52 a3 9c 3e 8a 0d eb 3d 91 2e 6c bd
       0.07907151 0.30593354 0.11477192 -0.057661597
000160 ff bc 3e be 60 1c 9a 3d bc f5 12 ba 10 26 b3 3c
       -0.18626784 0.07524943 -0.0005606075 0.021868736
000170 5a b2 45 3d 61 b1 83 bc 28 07 e6 bb 2c 6b 31 3e
       0.048265792 -0.016075792 -0.007019896 0.17326039
000180 dc 09 c0 bc 15 3d e5 bc 42 70 6b bd 7b 68 09 bd
       -0.023442201 -0.027983228 -0.057480104 -0.033546906
000190 35 d3 c0 3d f2 89 7f 3d 1d 4e db 3d bb 56 6a 3e
       0.094152845 0.062387414 0.10708258 0.22884648
0001a0 40 2f 8f bd e3 b6 5c 3d aa 32 50 3e 23 8d 30 3e
       -0.06991434 0.053885352 0.20331827 0.1724134
0001b0 59 dc c1 3c a3 a9 d4 3b b2 2f e5 3d 52 28 8a 3d
       0.02366464 0.006489949 0.11190738 0.06745972
0001c0 65 5c cb 3d 2d 85 48 bd 17 ec a5 bd cb 94 d4 3c
       0.09929732 -0.04895513 -0.08101671 0.025949856
0001d0 27 8d 13 3e f4 f2 56 3e 86 3f ce bd d3 ae 71 bd
       0.14409314 0.20991117 -0.1007071 -0.059004616
0001e0 d1 0f 25 bb cc 26 09 3d 02 2e 08 3c ba f4 ae 3c
       -0.002518643 0.033484265 0.00831175 0.02135693
0001f0 30 dd 66 3d a9 3e ac 3d d5 01 a3 3c 8e 7e 84 be
       0.056363285 0.08410389 0.019898335 -0.25877804
000200 c6 2b a1 be ef e9 87 bd b5 2c 85 3d 86 a8 45 3c
       -0.3147871 -0.06636416 0.06502668 0.012064105
000210 91 2d 07 be d9 95 72 be 50 33 f9 bc db 6b 6f bd
       -0.13200976 -0.23689975 -0.030419976 -0.05845247
000220 41 7a 93 bc 2e 94 93 bd 85 26 50 bd ea 0c c4 3d
       -0.018002631 -0.072059974 -0.050817985 0.09572776
000230 cb 25 f3 3d 2f a4 b6 bb 20 cc ac bd e2 d4 69 bd
       0.11872443 -0.0055737714 -0.08437371 -0.057087786
000240 e4 d8 b5 3d 49 24 8a bd 42 72 da bd 35 b4 06 3e
       0.08879259 -0.06745202 -0.10666324 0.13154681
000250 69 ba 72 bd c0 a8 f2 bc d0 2f 67 bd 9e ca 58 3e
       -0.059259806 -0.029621482 -0.056442082 0.21171042
000260 24 6f 21 bd f4 db 6b be fa 91 78 bc 4f 53 34 bd
       -0.039412633 -0.23033124 -0.015171522 -0.04402476
000270 f0 14 cb 3d 79 4d 11 be 94 89 c4 bd 6a 2f 39 be
       0.09916103 -0.1418971 -0.095965534 -0.18084493
000280 84 d3 56 bd f5 ba e2 3d 35 47 ec bc 81 9c 89 bd
       -0.05244781 0.110708155 -0.028842548 -0.06719304
000290 21 ea 77 3a e5 76 80 bd 88 6f 4b bc 7b 97 35 bc
       0.000945719 -0.06272677 -0.012416728 -0.011083479
0002a0 e4 99 f6 bd 26 ec 47 bc d9 76 91 bd 0e c9 1a bd
       -0.12041071 -0.012202298 -0.071027465 -0.037789397
0002b0 40 15 8d 3b ac 38 24 3e f7 ea dd bd 42 c2 39 bd
       0.0043055117 0.16037244 -0.108358316 -0.045351274
0002c0 4b 08 18 3d fc 31 fc 3d 47 a2 15 3e ed a9 d0 3c
       0.037117284 0.12314221 0.14612685 0.025471652
0002d0 d8 f5 24 3e 1c e3 45 3e 43 1e 11 bd 6e e6 10 3d
       0.16109407 0.19324917 -0.03542925 0.035376005
0002e0 2f ca ae bd 8f 55 1c 3e 2d 6e c0 3d 23 48 ff bb
       -0.08534657 0.15267013 0.09396014 -0.007790582
0002f0 2f 55 17 be 39 cb 26 bd 05 a7 62 3e 4a 75 48 3c
       -0.14778589 -0.040721152 0.22134025 0.012234995
000300 3f ef f5 bd 92 41 c8 3b ef e3 31 3e 1d b1 2e 3e
       -0.12008523 0.006111332 0.17372106 0.17059751
000310 75 8e 13 3e ba 36 d2 3c da f6 78 bd 3e 48 90 bd
       0.14409812 0.025660861 -0.06078229 -0.07045029
000320 22 97 e7 3c cf 6a aa 3d b5 03 75 bd 46 47 5c bd
       0.028270308 0.08321153 -0.05981799 -0.05377891
000330 3c f8 2d 3d 23 15 7b bd 27 8d 42 3e 36 1d 8b 3d
       0.042473063 -0.061299454 0.18999158 0.06792681
000340 27 d5 4a bc fe b2 16 bc 1a bc 0d 3e c7 20 f1 3d
       -0.012379921 -0.0091979485 0.13841286 0.1177383
000350 cf e9 1f bd c9 99 2b bd a4 a0 24 3e df 05 54 3e
       -0.039041337 -0.041894708 0.16076905 0.20705365
000360 eb f6 50 3d 17 16 86 bd 18 b9 f3 bd a1 5a 80 bd
       0.05101673 -0.06547182 -0.11900538 -0.06267286
000370 56 88 28 bd 14 36 a8 3d 82 10 77 3d 26 75 91 bc
       -0.041145645 0.082134396 0.060318477 -0.017756056
000380 fc df 22 be 4f ad 14 be 81 65 d7 bd 9d c4 27 be
       -0.15905756 -0.14519237 -0.10517407 -0.16383596
000390 c2 8c bc bd 4c a0 35 be b4 66 34 3d 3d 67 00 be
       -0.09206535 -0.1773693 0.044043258 -0.12539382
0003a0 5c b2 ee bc 3e 78 08 be f2 ce 02 3d b1 be 07 bd
       -0.029137783 -0.13327119 0.03193564 -0.033140842
0003b0 83 10 ee 3c 82 87 22 3c 7b 8b 17 3e ee 0c 5c 3d
       0.029060608 0.009920003 0.14799301 0.05372327
0003c0 a3 8c b5 3d f3 74 e4 3c d6 09 91 bd 54 67 14 bc
       0.08864715 0.027887797 -0.07081954 -0.0090578385
0003d0 1c d4 42 bd 0f 87 af bc f6 53 f3 bc 17 52 fc 3c
       -0.047565565 -0.021426706 -0.029703122 0.030800862
0003e0 01 d8 ab bd d2 95 a5 bd 48 51 14 3d 4b 90 84 3d
       -0.08390809 -0.080852166 0.03621033 0.06472834
0003f0 bc f4 92 3c a1 41 c3 3d 76 f1 39 bd 7a df 01 3e
       0.017938964 0.09534002 -0.04539629 0.12682906

fc1.0.bias f4 [120]
000000 7c e5 27 3e 39 42 94 3e 64 47 67 3e 20 c5 f5 bd
       0.16396135 0.28956774 0.22585827 -0.12000489
000010 7b 41 9a 3e 14 a0 bd bd 70 e4 94 3d 58 18 ba 3c
       0.30128083 -0.09259048 0.072701335 0.022716686
000020 17 29 18 3e bd 13 a5 3e 80 c0 94 3e dd bb 2a bd
       0.14859425 0.32241622 0.29053116 -0.041683067
000030 e7 e9 92 bd 35 25 20 be 4f e7 92 3b 21 d2 9a be
       -0.071735196 -0.15639193 0.0044831405 -0.3023844
000040 3c 12 cb bc 4e 3d 52 3e 6d 2e eb 3e 4c 5c c1 bd
       -0.024788968 0.20531198 0.45933858 -0.09441432
000050 20 98 f7 3e d4 19 35 bd c7 4d 55 3e 7a 27 8b be
       0.4835825 -0.044214085 0.20830451 -0.27178556
000060 00 f5 a6 3d 42 7c 7b 3e aa bf ab 3e 9a dc bd be
       0.08152199 0.2455912 0.33544666 -0.37082368
000070 47 d6 e6 be 24 bd 85 3e d0 bc a6 bd 83 b5 d3 be
       -0.45085356 0.26120865 -0.08141482 -0.4134942
000080 01 c1 af 38 a1 f6 85 bd 75 cd 99 3e 76 17 93 be
       8.3806e-05 -0.06541181 0.30039564 -0.28728837
000090 35 9e 3d be 50 43 61 3e 81 91 88 3e 64 7c b7 3d
       -0.18517382 0.21998334 0.2667351 0.089592725
0000a0 e3 93 f5 3d 11 d5 0f be 57 0f 26 be e8 9e ab bc
       0.11991098 -0.14046122 -0.16216789 -0.020949796
0000b0 dd df 0f 3e 8e 0b c5 3c 7d 37 c4 3e 93 4e 2a 3d
       0.14050241 0.024053361 0.38323584 0.04157884
0000c0 a3 0b 4c 3e bb f1 77 be 83 e6 0e bd e7 34 57 bd
       0.19926314 -0.24213307 -0.0348878 -0.052540686
0000d0 82 3b 1a be a7 22 51 bb 08 c2 f7 3b e2 93 8c bd
       -0.15061763 -0.0031911524 0.007560972 -0.06864144
0000e0 f5 7e 04 3e 61 62 e5 be 21 8f 5a 3e d7 52 b0 bd
       0.12939055 -0.4480162 0.21343662 -0.086095504
0000f0 2d 3e 78 be d7 66 dc 3d 68 a5 24 be 3d 56 75 bd
       -0.24242468 0.10761803 -0.16078722 -0.059896696
000100 02 28 40 be ba 73 75 bd e5 f1 a2 be 2c 7e e7 bd
       -0.18765262 -0.05992482 -0.31825176 -0.11303362
000110 f2 24 29 3e 8d da 04 3e 9d c8 81 3d ac 0b 05 be
       0.16518 0.12973996 0.06337092 -0.12992734
000120 9f 33 85 3e 80 99 bf 3e 27 18 2d be 97 07 74 3b
       0.26015946 0.374218 -0.16903745 0.003723597
000130 6b 79 d4 be 2b 2a f4 bc 76 40 6b be 57 82 24 3e
       -0.41498885 -0.029805264 -0.22973809 0.16065346
000140 e8 c0 a5 3e 90 fe 19 3d 7b f4 43 3e f6 15 51 3e
       0.32373738 0.037596285 0.1913623 0.20418534
000150 7f b7 c4 bd 78 6e a8 be ed 05 a1 3e b5 c7 a3 3c
       -0.096053116 -0.3289678 0.31449834 0.019992689
000160 04 8d fe bd e7 cd de be 9b b3 63 bd 55 4c fa bd
       -0.1242924 -0.43516466 -0.055591207 -0.122215904
000170 bd 78 75 3d 31 95 40 bd 8c 11 0a 3e ca 0b b0 3d
       0.059929598 -0.04701728 0.13483256 0.085959986
000180 90 3f d2 3e 4b 3a 8d 3b 19 2a 97 be 9b de 63 be
       0.4106412 0.0043099276 -0.29524305 -0.22252886
000190 2d f6 69 3e 2b 53 03 3e 38 a8 24 be e2 20 47 bc
       0.22847815 0.12824695 -0.16079795 -0.012153836
0001a0 5b e5 70 3e 5f 68 c9 bd e4 32 8e 3e d0 55 47 3e
       0.23524992 -0.0983436 0.277732 0.19466329
0001b0 9a 2c 9a bd 49 c5 34 3c 40 1b 3b 3e 41 b3 96 bd
       -0.07528038 0.011033365 0.18272114 -0.07358409
0001c0 b9 fe 85 bd 19 23 05 3e 63 77 3e 3d 75 f2 e7 be
       -0.06542725 0.1300167 0.046500575 -0.45302168
0001d0 ac 16 5d 3e 7c 0a 40 be 3d 99 4d be 5d 7a a7 3e
       0.2159068 -0.18754 -0.20077987 0.32710543

fc2.0.weight f4 [84, 120]
000000 af db ce 3d 94 59 08 3d 38 49 22 be 92 4b 0a 3d
       0.10100495 0.033288553 -0.15848243 0.033763476
000010 c3 8a 81 bd 0f 65 4f be 09 a0 44 bd 24 3a d9 3d
       -0.06325295 -0.20253395 -0.048004184 0.106067926
000020 9d c3 88 be 1b 87 e1 3c 67 76 df bd 1b f4 5b 3e
       -0.2671174 0.027530244 -0.10911255 0.21479838
000030 b1 7d e2 3b 7a 8e 0b 3e b0 42 e9 bd 4d c7 85 3d
       0.0069119562 0.13628569 -0.11389673 0.06532154
000040 a1 2e 04 be 26 63 06 bd e5 ca 31 be 29 c3 72 bd
       -0.12908413 -0.0328094 -0.17362554 -0.05926815
000050 1e 59 25 3e 5a 23 6c 3d 6f b9 0d 3e 5c db 70 bb
       0.16147277 0.0576509 0.13840269 -0.0036751842
000060 b6 e8 e0 bd db 26 0c be 57 89 f9 bd 20 d6 1c bd
       -0.10981886 -0.13686697 -0.121843986 -0.038290143
000070 20 e2 14 bc 77 ae 06 3e 64 3e 0d be 64 fe 5b 3e
       -0.0090871155 0.1315249 -0.13793331 0.21483761
000080 f4 88 b6 3d f8 34 6a 3c d2 5c 7b 3d 4a 4f b4 3b
       0.089128405 0.014294855 0.061367817 0.005502616
000090 7c 76 eb bd db 4c 17 be 52 d2 e0 bc b7 fc 62 be
       -0.114972085 -0.14775412 -0.027444039 -0.22166716
0000a0 bc 77 15 bc cb 2e 91 bd 78 18 91 bd 0d c8 bd 3d
       -0.009122785 -0.07089003 -0.07084745 0.09266672
0000b0 2f 66 fd bd c7 46 26 bc 10 bd 8e bb 0f 36 27 be
       -0.123730056 -0.010148711 -0.004356034 -0.16329215
0000c0 74 84 2e 3e d4 88 aa 3d ff 8e 3c bd b0 4a e4 3c
       0.17042714 0.08326879 -0.04603481 0.027867645
0000d0 7c a9 1e 3e b0 52 4f 3e e1 1c 21 3e bb 12 71 be
       0.1549434 0.20246387 0.15733673 -0.23542301
0000e0 2d c2 29 bd 6d 4a bd bb f5 0e 15 bd 61 46 fb bd
       -0.041444946 -0.0057766945 -0.036391217 -0.12269283
0000f0 3a cc 2c 3d b3 2e 30 3d f4 57 51 be 99 c0 29 3e
       0.042186953 0.043013286 -0.20443708 0.16577376
000100 33 40 93 bd e5 c9 f3 bd 84 5a 92 3d f0 c2 06 3e
       -0.071899794 -0.11903743 0.07146171 0.131603
000110 c6 e6 1d bd a6 ff 9e 3d 8c b5 b4 bd df bb 22 bd
       -0.03855016 0.07763605 -0.0882369 -0.03972995
000120 48 ce 8e bc 73 60 84 bd 86 eb ec 3d a4 a4 cb bb
       -0.017432347 -0.06463709 0.1156836 -0.006214695
000130 cf 1e a8 ba 7f e7 e9 3c fb 09 76 3d f0 85 34 ba
       -0.0012826564 0.028552769 0.060068112 -0.00068864133
000140 61 57 5a 3d ca 26 14 3e d4 1f 03 be 77 6a 41 be
       0.053305987 0.14467922 -0.1280511 -0.1888827
000150 5b e8 11 3e 5c 1a 8d 3d 18 4d 46 3e 1d a7 66 bb
       0.14248793 0.06889793 0.19365346 -0.0035194822
000160 ee 20 4c bd 41 a9 54 3e 68 d2 d8 3d 9b 6f 09 bd
       -0.04983609 0.2076769 0.10587007 -0.0335537
000170 75 a9 7c bb 90 dd 51 be 72 e2 b6 bd 6c b4 0e 3e
       -0.0038553153 -0.20494676 -0.0892991 0.13936013
000180 68 e0 a9 bc 22 da e4 39 66 46 7c bd 1b c5 23 3d
       -0.020736888 0.0004365007 -0.061590575 0.039982896
000190 d1 1b a1 bc 37 a6 5b bb 1d 08 63 bd 20 6f 08 3e
       -0.019666584 -0.003351582 -0.05542766 0.13323641
0001a0 f3 53 e2 bd b5 39 f9 3c 5a bf 83 3b 6d 8e 6a bc
       -0.11051168 0.030423025 0.0040206136 -0.0143161835
0001b0 36 af dc 3c 20 56 25 3c b5 fe a9 3d 5a 3a 2e 3e
       0.026939016 0.010091335 0.08300535 0.17014447
0001c0 c6 9c c7 3a 9e ac c8 bc 46 b7 13 3e df 08 d4 3d
       0.0015229217 -0.024496373 0.14425382 0.103532545
0001d0 a4 eb 64 bc 76 0b 91 3d 89 ee 4b bc 14 16 1e be
       -0.013972197 0.07082264 -0.012447008 -0.1543811
0001e0 a9 a8 95 3e dd b3 95 3e a3 2c 5a bc 38 33 34 3e
       0.2923024 0.29238787 -0.013316306 0.17597663
0001f0 11 ea a3 3d 27 8d 1f be 77 f4 20 be 56 63 a8 bb
       0.08003629 -0.15581189 -0.15718256 -0.005138795
000200 e7 ea 0f bd 3b 03 fe 3c c3 6c 2b 3a d0 d8 ce 3d
       -0.03513613 0.0310074 0.0006539339 0.100999475
000210 de 48 66 bd f3 98 34 3e 80 e8 9d 3d 19 26 c3 3c
       -0.056221835 0.1763647 0.077103615 0.023821877
000220 91 e9 da 3c 3f 8d c4 3c 97 31 2f 3e e4 f2 74 be
       0.026722701 0.023993133 0.17108761 -0.2392078
000230 81 4e db 3d 29 df 16 be 59 1f 0a 3e 68 0b 2a bd
       0.10708333 -0.14733566 0.1348852 -0.041514784
000240 ee 80 0a 3e d4 c2 5d 3d 6e 3a cd 3d bd b9 53 be
       0.13525745 0.05414088 0.1002091 -0.20676322
000250 52 57 44 bc 05 fd 88 3d 06 db 30 3c 4e ff 84 bd
       -0.011983709 0.06688885 0.010794407 -0.06494008
000260 86 cd a0 3d db 12 95 bd c0 55 4a 3d 61 85 c6 3d
       0.078517005 -0.07278987 0.049398184 0.09693409
000270 30 07 15 be 17 1e 1e bd b2 81 f1 3d 96 c0 12 bc
       -0.14553523 -0.038602915 0.117923155 -0.008957049
000280 63 cb 33 be 64 a6 0d be 1f a2 f9 3a e2 39 7d bb
       -0.17558055 -0.13833004 0.0019045508 -0.0038639237
000290 a0 64 44 3e a1 67 65 3d 24 b8 f2 3d 4a 4d a1 3c
       0.1917901 0.05600703 0.11851528 0.019690175
0002a0 9e 4d 84 3d 34 65 d7 3d eb b6 91 3c 4f f0 c8 bb
       0.06460117 0.1051735 0.017787417 -0.0061321626
0002b0 43 74 6b bc a4 c8 2d 3e 2c 0e 1a 3e 29 e2 3e be
       -0.014370981 0.1697107 0.15044469 -0.18640961
0002c0 81 e4 43 3e e8 45 95 3d 68 b6 02 bb be d7 2d 3c
       0.19130136 0.07288724 -0.0019945148 0.010610519
0002d0 d6 36 be bd a5 ef 48 3d 1f 04 81 bd 69 5c 47 ba
       -0.09287803 0.049056668 -0.06299614 -0.0007605018
0002e0 47 00 a6 be 10 01 fa 3d e3 60 3c be 79 10 87 be
       -0.32422087 0.12207234 -0.18396334 -0.26379755
0002f0 0b b2 0b bd c4 f4 10 3e 4f 4f c9 bd a3 b2 a6 3d
       -0.034105342 0.1415587 -0.0982958 0.08139541
000300 81 7b 0b be fd ba 1f 3e 60 43 c7 39 2f b1 a4 bd
       -0.13621332 0.15598674 0.00038006436 -0.080416076
000310 5f 21 5b be 46 c5 f1 3d 8f 8a 90 bd 5d 14 ce bc
       -0.21399449 0.11805205 -0.07057678 -0.025156194
000320 f7 30 e7 3c 03 35 5b 3d 9c 73 91 3d 1d 32 ba 3d
       0.02822159 0.053517353 0.07102129 0.090915896
000330 c9 75 20 be f9 cc 47 3e 01 10 6a bd 85 1a 07 bd
       -0.15669931 0.19511785 -0.05714417 -0.032984275
000340 ce e9 ce 3d d9 74 2f bc 5f 8f ae b9 ee b6 d6 3b
       0.101031885 -0.010709011 -0.00033294686 0.0065525686
000350 9b bc 7e bd c0 50 21 be a9 1b 2c 3d fa 8f 9a 3d
       -0.062191587 -0.1575346 0.042018566 0.075469926
000360 df 95 4c 3e 87 81 bc bd ab b0 30 bc b7 32 ac bc
       0.19979046 -0.09204393 -0.010784308 -0.021020276
000370 7e 54 d7 3d aa a0 85 3d 62 df 3b 3d a4 9c 85 3c
       0.105141625 0.06524785 0.04586733 0.016310044
000380 7e 8e 35 be 16 df a4 bd 3e dd e0 bd 4a 14 d9 3d
       -0.17730138 -0.08050363 -0.109796986 0.10599573
000390 1f b2 75 bd 61 d9 7d 3c f8 9a 99 3b b0 16 e7 bc
       -0.059984323 0.015493722 0.004687663 -0.02820906
0003a0 8a 36 ea 3b b2 9c 67 bd 19 ca 3f 3d 45 93 9c bd
       0.007147615 -0.05654592 0.046823595 -0.07645277
0003b0 75 9d 68 3e 54 a3 61 bd 80 cb 58 3d 82 f4 d1 3b
       0.22716315 -0.055087402 0.052928448 0.0064073214
0003c0 47 14 43 3d d3 30 3d 3e 44 c3 97 bd 25 dd c2 3d
       0.04762676 0.18475656 -0.07410291 0.09514836
0003d0 05 63 09 3d da 13 0e be b7 19 7b bd 52 57 b5 3d
       0.033541698 -0.1387476 -0.06130382 0.08854546
0003e0 53 48 3c 3e 7e 43 cf 3d e4 e2 9f bd e2 6e 1d 3d
       0.18386964 0.10120295 -0.07806948 0.038435824
0003f0 d2 fb ed bc 12 cc e4 bd 44 66 ee bc 92 21 a3 bd
       -0.029050741 -0.11171736 -0.029101498 -0.079653874

fc2.0.bias f4 [84]
000000 39 5a 7f bd 50 1a 35 3e ca 80 49 3e 2f f0 f7 3d
       -0.062341902 0.17685819 0.19678035 0.12106358
000010 f8 68 cf 3c 7f 8f 54 3e 4b 51 3e 3d 43 0a eb 39
       0.025318608 0.20757864 0.046464246 0.00044830338
000020 2d 15 71 ba ee 87 0f be 92 ae 25 be 66 fc 48 3e
       -0.0009196576 -0.14016697 -0.16179875 0.19627532
000030 ab 73 a9 bc ab 2b f0 bd b4 98 91 3c 79 20 9f 3d
       -0.020685038 -0.11727079 0.01777301 0.077698655
000040 95 d8 d4 bd 01 88 c3 bd 2b 87 83 bc 6e 7b 6a 3e
       -0.10392872 -0.09547425 -0.016055664 0.22898647
000050 07 28 46 3c 20 64 90 be ef d8 87 bd 29 ac 50 3d
       0.012094504 -0.2820139 -0.06633174 0.050945435
000060 ab ba 64 bd 12 63 72 3d ba ba c6 be 07 17 f3 3c
       -0.055842083 0.059176512 -0.38814336 0.029674066
000070 84 6d 9c 3c 7e a3 41 3d b0 ee de bd d1 94 83 3e
       0.01909519 0.04727506 -0.1088537 0.25699475
000080 20 07 de be 25 08 6c 3e 15 f4 09 be c4 ec 37 3e
       -0.4336481 0.23049982 -0.13472016 0.17961413
000090 89 ce 9f 3c b3 92 f8 3c 57 3e a3 3e eb ab 98 3e
       0.019507663 0.03034339 0.318835 0.29818663
0000a0 f2 17 d4 3d c1 e6 a3 bd a2 9e 0b bd 94 01 3a be
       0.1035613 -0.08002997 -0.03408683 -0.18164665
0000b0 16 27 76 bc 08 f0 7b 3d 6d b0 54 3e 88 a6 78 3e
       -0.015023967 0.06150821 0.20770426 0.24282277
0000c0 31 ce 95 bd 32 06 7a be 9b bf a4 3d 0b 41 a6 be
       -0.073147185 -0.24416426 0.08044358 -0.324715
0000d0 6c 20 f1 bc af 58 ab 3d 96 10 73 3d 94 ac 3e be
       -0.029434405 0.083665244 0.05934199 -0.18620521
0000e0 11 29 d7 bd 8a da 14 be 84 58 6e 3d a0 fb e9 bd
       -0.1050588 -0.14536491 0.058189884 -0.11424947
0000f0 07 1a 18 bd 14 69 2c be e6 20 16 be 53 0a bc 3d
       -0.037134197 -0.16836959 -0.14660987 0.09181657
000100 e2 cc 1b 3e 0e 29 ae 3d 2c 2f 87 be dd b6 cb be
       0.15214875 0.08503924 -0.26403177 -0.3978795
000110 5c ca aa 3c db 7f 42 be 48 4e a4 be ac 6e da 3d
       0.020848446 -0.18994085 -0.32090974 0.1066564
000120 9a fe 43 be 1d 28 82 be a0 55 22 3e 20 60 13 3c
       -0.19140092 -0.2542123 0.15852976 0.008995086
000130 4b d3 61 3a 56 85 83 3d 02 f7 45 be 7e 16 43 bd
       0.0008614554 0.06421916 -0.19332507 -0.047628872
000140 26 62 e8 bc b1 59 b0 bb 24 47 0e 3e 7d 20 04 be
       -0.028367113 -0.005381786 0.13894325 -0.12903018

fc3.0.weight f4 [10, 84]
000000 23 ed b3 3d 34 32 91 be 91 6d 0c be 91 65 dd 3d
       0.087854646 -0.28358614 -0.13713671 0.10810388
000010 d9 73 59 bd bb d8 eb 3d 99 e7 f7 bd 45 f7 ab 3d
       -0.053088997 0.115159474 -0.121047206 0.08396772
000020 78 b3 ba 3d ee 4a 61 3e da d7 b7 3d 6f f5 0f be
       0.09116262 0.2200124 0.08976717 -0.14058469
000030 8b 27 8d 3e 4c ac 92 3e 03 0a 40 3e 74 ce e0 3d
       0.2756923 0.28647077 0.18753819 0.10976878
000040 4c 2a 04 be 9a 7b 7e be 91 9e 7f bd 32 bd c1 bd
       -0.1290676 -0.24851838 -0.06240708 -0.09459914
000050 82 e5 1c 3e db 31 5a 3e d5 1c 89 3e d5 9e 51 be
       0.15321925 0.21308081 0.2677981 -0.20470746
000060 9c 17 a9 3e 55 3f 16 be 8a 9c 26 3e a9 4a 07 be
       0.33025825 -0.14672597 0.16270652 -0.13212074
000070 4c 0c 96 3d ea 50 2d be 13 58 47 be ef 5c 68 bd
       0.07326564 -0.16925398 -0.19467191 -0.056729253
000080 24 ff 8f 3e 06 33 6b bd 44 ca 2f 3e d0 4f 35 be
       0.28124344 -0.057421707 0.17167002 -0.17706227
000090 13 dc ad 3d 00 08 e7 bd bf 8f 2a bd b6 8e 1c be
       0.084892415 -0.11280823 -0.041640993 -0.15288815
0000a0 64 67 e8 3d 3c 5f 3d be 71 32 04 3e 36 fa 4b 3e
       0.11347845 -0.1849336 0.12909867 0.19919667
0000b0 1d 45 24 be ec 59 14 3e 77 c1 97 be 31 9e 83 be
       -0.1604199 0.14487427 -0.2963979 -0.25706628
0000c0 de e7 ab be 93 a2 8d 3d 6d 95 6c 3e 9d a2 14 3e
       -0.33575338 0.06915774 0.23103876 0.14515157
0000d0 13 3b 81 bc b3 7f aa 3d e5 5e 30 be 7a f3 c7 bd
       -0.01577524 0.08325138 -0.172237 -0.09763236
0000e0 c4 b9 33 bc 4a d2 27 3e a7 f5 ee bd 43 ed c9 3d
       -0.010969583 0.16388813 -0.11667948 0.09859707
0000f0 23 07 57 3c 5a 62 7a 3b fc 9f 13 be a9 98 30 3d
       0.01312426 0.0038205595 -0.14416498 0.043114338
000100 72 70 7b 3d 0d 43 ff bd ed 42 c7 bd 4d 33 83 3e
       0.061386533 -0.12463961 -0.09729562 0.25625077
000110 50 13 3a 3e 2b 91 90 3e 25 11 a2 3d f1 ff 39 be
       0.1817143 0.28235754 0.07913426 -0.1816404
000120 66 27 4b 3e 3c f3 54 3e 37 5c 27 be 6f 27 40 be
       0.19839248 0.20795912 -0.16343771 -0.18765043
000130 3e 23 69 3e d1 47 7d 3b 14 e5 14 3e 48 a6 35 3c
       0.2276735 0.0038647542 0.14540511 0.011087008
000140 ac 04 6f 3e e2 03 4b 3e ca e1 21 be 4f 10 87 3e
       0.23341626 0.198257 -0.15808788 0.2637963
000150 a8 cb 13 be f8 f7 66 3d 62 97 7a 3e 37 56 97 bd
       -0.14433157 0.056388825 0.2447181 -0.07389491
000160 49 32 99 3d 91 dd 2c be 73 df 42 be 85 04 55 be
       0.07480294 -0.16881396 -0.19030552 -0.20802505
000170 8a 2d 81 bd 0e be 3a be 22 41 60 be 93 79 34 3e
       -0.06307514 -0.18236563 -0.21899846 0.17624502
000180 7a ff 55 3e e9 38 67 3e b7 1e a1 3e aa 24 9a 3e
       0.20898238 0.22580303 0.31468746 0.30106097
000190 d6 12 7b 3e bd 0e 7a be 7f c7 4f 3e df e4 55 3e
       0.24518904 -0.24419685 0.20290945 0.20888089
0001a0 1d 86 f4 3d ac a1 c9 bd 14 08 29 bc f0 ac 86 be
       0.119396426 -0.098452896 -0.010316867 -0.26303816
0001b0 92 1f 8d 3e ea e1 fd bd 71 b7 0b be 58 e9 04 3e
       0.2756315 -0.12396605 -0.13644196 0.12979639
0001c0 28 df 49 be 82 32 21 bd be ef 11 3e 33 e5 e8 bc
       -0.19714034 -0.03935481 0.1425161 -0.028429603
0001d0 07 b6 6a 3e c2 e4 5e 3e 6a de 82 be 4a d2 3a 3e
       0.22921 0.21766952 -0.25560313 0.18244281
0001e0 e6 4a 8f be 1c 02 4a 3e e3 6e a3 3d 3a 32 18 3e
       -0.2798683 0.19727367 0.07980134 0.1486291
0001f0 2e 20 64 be c8 86 7b 3d f1 f8 b9 3d 83 be df bd
       -0.222779 0.061407834 0.09080685 -0.10925009
000200 b4 f4 05 3d b9 ed 2b 3e d6 f0 1b 3e e8 fa db bd
       0.03270407 0.16789903 0.1522859 -0.10741216
000210 5a de 10 be 50 d6 00 3e 44 a1 6a 3e 20 53 2f be
       -0.1414732 0.12581754 0.2291308 -0.17121553
000220 c8 f6 87 be 2e cb c2 3c 57 3a 76 3e 94 77 20 be
       -0.26555467 0.023778524 0.24045692 -0.15670615
000230 bc 72 11 3e 21 c5 cd bd a4 3c 30 bd 30 12 a2 3d
       0.14203924 -0.10047365 -0.04302658 0.07913625
000240 09 b2 8b 3d 08 4d ba 3d de 4b 45 3e 42 71 83 be
       0.06821067 0.09096724 0.19267222 -0.25672346
000250 31 9f 2c 3d f7 43 f8 bd 69 96 5e 3e aa cb 00 be
       0.042144004 -0.12122338 0.21737064 -0.12577692
000260 60 9c 7a be 7e 7c 09 3e 78 9a 09 be 8b 36 59 3e
       -0.24473715 0.13426396 -0.13437831 0.21212213
000270 75 10 6a be 76 06 00 be e3 63 51 3e ed 9f d6 bd
       -0.2285784 -0.12502465 0.2044826 -0.10479722
000280 a2 30 b1 bd 70 88 12 3e 68 9b 0e be ec 17 54 be
       -0.08651854 0.1430986 -0.1392647 -0.2071225
000290 06 3a 37 be 6b e4 15 3e d2 82 b7 bd c7 a2 8d bd
       -0.17893228 0.14637916 -0.08960499 -0.06915813
0002a0 44 08 f9 bd fb 30 c1 3d 95 7f a3 bd 5a f9 f2 bc
       -0.1215978 0.094331704 -0.07983319 -0.029659916
0002b0 a4 68 d8 bd 2e af 11 3e 83 32 de 3d 1d 37 00 be
       -0.105668336 0.14226982 0.10849478 -0.12521024
0002c0 1a 36 98 bd 72 23 e6 bd a1 ad f5 bd 08 33 4e be
       -0.07432194 -0.112372294 -0.11996008 -0.20136654
0002d0 50 8f 03 be b5 bd 36 be fb 17 24 be 38 e3 3a 3e
       -0.12847638 -0.17845805 -0.16024773 0.1825074
0002e0 ce af e6 3d c9 06 2f be f3 60 ed bd 6f e1 38 3e
       0.11264001 -0.17092432 -0.11590757 0.18054746
0002f0 f3 16 4b be 32 c7 c2 3d 66 05 07 be 55 f3 d7 3d
       -0.19832973 0.0951065 -0.13185653 0.10544459
000300 0f 10 44 3e 7c 92 46 be 9c 71 0b be 91 d1 4d be
       0.19146751 -0.19391817 -0.13617557 -0.20099474
000310 36 7c ff bd 2f d2 04 bc 3a 0e 60 3b eb ec 2c 3e
       -0.12474863 -0.008106752 0.0034188167 0.16887252
000320 33 8c 3c 3e 6c 6c 9e bd f5 e8 4f be 6d a6 0f 3e
       0.18412857 -0.077355236 -0.2030371 0.1402833
000330 b7 e2 17 3e 24 90 50 3d c6 d0 f9 3d 09 99 e9 3c
       0.14832579 0.050918713 0.121980235 0.028515356
000340 b5 d3 80 3e be 89 89 be 3f 08 57 be ea 6e 09 3e
       0.2516152 -0.268629 -0.2099924 0.13421217
000350 b7 2f 27 3e c6 a6 0c 3e 38 af ca 38 47 3d 41 3e
       0.16326796 0.13735494 9.6647476e-05 0.18871032
000360 f8 aa 05 be e1 2a 2b be 29 9b 95 bc 96 ee 68 be
       -0.130535 -0.16715576 -0.018262463 -0.22747263
000370 d5 ba f2 bd 9b 00 c6 3d b4 72 0d be 80 42 fe 3d
       -0.11852042 0.09668084 -0.13813287 0.124150276
000380 fc 04 61 be 4d c6 19 3e 4b d1 13 3e fd ac d3 3c
       -0.21974558 0.15017052 0.14435308 0.025839323
000390 4c 26 f8 3d 37 7d 4c be 0c 85 64 bd 69 72 29 3d
       0.121166795 -0.1996964 -0.055790946 0.041368876
0003a0 e2 cd 57 3e af 07 87 be 9c fb 9b bc c5 b9 a4 bd
       0.21074632 -0.2637305 -0.019040875 -0.08043245
0003b0 34 8d fc 3d 42 75 89 be 99 1f 82 be 32 48 f3 3c
       0.1233162 -0.26847273 -0.25414732 0.029697511
0003c0 bf ee 15 3e ef bc f4 bd 11 2e 81 be b9 db f7 bd
       0.14641856 -0.11950099 -0.25230458 -0.12102456
0003d0 71 a5 2e 3e e9 9f 90 3e 4d 84 82 3d a6 e8 71 3e
       0.17055298 0.28247002 0.063728906 0.23623905
0003e0 a4 e3 f1 bd 6a fd 3a 3e 13 c4 e1 bd 4d 4a 61 be
       -0.11810997 0.18260732 -0.11023726 -0.22001
0003f0 a5 39 17 be eb a7 d2 bd 73 31 05 be ca 56 58 3e
       -0.14768083 -0.10285934 -0.13007145 0.21126857

fc3.0.bias f4 [10]
000000 2b fe df be bb 7e 33 3d 25 5a 87 3e 86 f1 05 be
       -0.43748602 0.04382203 0.26435962 -0.13080415
000010 00 32 f7 bc 1a 5a 2e 3e fb c8 df be c7 98 b2 3e
       -0.030175209 0.17026559 -0.43708023 0.34882185
000020 d8 15 83 3d e4 ed 18 3e
       0.06400651 0.14934498
