save_checkpoints/LeNet5_epoch_67.pth (torch, 249863 bytes, 10 tensors)

conv1.0.weight f4 [6, 1, 5, 5]
0	0xbd9c98ce	-0.07646333
1	0x3d72f997	0.05932006
2	0xbd4752ad	-0.04866283
3	0xbe1b7f97	-0.1518539
4	0x3ee8016d	0.45313588
5	0xbefa96f5	-0.48943296
6	0xbec6b5c1	-0.38810542
7	0xbe331865	-0.17489775
8	0x3c273988	0.010206588
9	0x3e61a840	0.22036839
10	0xbce423ed	-0.027849162
11	0x3de8a498	0.11359519
12	0xbd6b745e	-0.057484023
13	0x3edb9490	0.42886782
14	0x3e921d44	0.28537953
15	0xbe04d4fa	-0.12971869
16	0x3d1ef123	0.038804185
17	0x3e27b4f5	0.16377623
18	0x3f578fee	0.84203994
19	0x3e85ee84	0.26158535
20	0x3dc2423f	0.09485292
21	0xbc85a3ae	-0.0163134
22	0x3e43cb3f	0.19120501
23	0x3ebc82cc	0.3681854
24	0xbdf29c0c	-0.1184617
25	0xbd0016e5	-0.031271834
26	0x3ed3e8d9	0.41388586
27	0x3e1d6d03	0.15373616
28	0x3e8ab3ba	0.27090245
29	0xbd11c4c0	-0.035588026
30	0xbf0cbe52	-0.54977906
31	0xbf2d5d93	-0.6772091
32	0xbe92c626	-0.286668
33	0xbe7bc7b4	-0.245879
34	0xbe5357d5	-0.20638974
35	0x3c378d47	0.011203117
36	0xbe434986	-0.19071016
37	0xbf03474f	-0.51280683
38	0xbe9729cd	-0.2952408
39	0xbea3c2a9	-0.3198445
40	0x3e9e9224	0.3097087
41	0x3e415eeb	0.18883865
42	0x3d88fd37	0.06688922
43	0x3ced335f	0.02895516
44	0x3e48a4e0	0.19594145
45	0x3df24a6a	0.118305996
46	0xbbc5ce31	-0.006036543
47	0xbcf86446	-0.030321252
48	0x3dc6f71d	0.09715102
49	0xbcb4bfaf	-0.022064058
50	0x3b9b1939	0.0047332314
51	0x3d7d192b	0.06179158
52	0x3d4ccb48	0.04999855
53	0x3eb95c51	0.36203244
54	0xbe3a511a	-0.18195
55	0xbdf8b013	-0.121429585
56	0x3ee4cabc	0.44685924
57	0x3ef64eb9	0.48106936
58	0x3c8cf310	0.017205745
59	0x3ded0d1a	0.115747645
60	0xbe62ad64	-0.22136456
61	0x3eceaae4	0.40364754
62	0x3e1dc85e	0.15408465
63	0x3d496ac4	0.049174085
64	0x3d826257	0.06366413
65	0x3d4c337f	0.049853798
66	0x3f1ab640	0.6043434
67	0xbe1ba717	-0.15200458
68	0xbe358942	-0.17728141
69	0xbe42bd51	-0.19017531
70	0x3ee82fa2	0.4534884
71	0x3f084b0d	0.5323952
72	0xbe045742	-0.12923911
73	0xbe043d50	-0.12914014
74	0xbea37025	-0.31921497
75	0x3e89df62	0.2692824
76	0x3d9c882d	0.07643161
77	0xbdbc299c	-0.09187624
78	0x3db60379	0.08887381
79	0x3eb50c95	0.35361162
80	0x3cf0415b	0.029328039
81	0xbe9d18ea	-0.3068307
82	0xbefb87bf	-0.49127004
83	0xbe1d0b8e	-0.15336439
84	0xbd5304b3	-0.051518153
85	0xbe73ce13	-0.2380908
86	0xbf59eca9	-0.8512674
87	0xbc66f5c8	-0.014096685
88	0xbd4e40b3	-0.05035467
89	0xbdbcefb5	-0.09225408
90	0xbf151415	-0.5823377
91	0xbe207ec2	-0.15673354
92	0x3ddb8390	0.10718453
93	0x3e3e3bd7	0.18577515
94	0xbd9c91fb	-0.07645031
95	0xbf8ab0fd	-1.0835263
96	0x3d2be48c	0.041966006
97	0x3d4ee6b6	0.05051299
98	0xbe2bb766	-0.1676918
99	0x3dae51a9	0.08511669
100	0x3e611bf8	0.21983325
101	0x3e2a6cac	0.16643018
102	0x3dbba28e	0.09161864
103	0x3ea1b8f1	0.31586412
104	0x3e1616fd	0.14657207
105	0x3e2afc77	0.1669787
106	0x3e877510	0.264565
107	0x3d8cf21c	0.06882116
108	0x3d1c0d9d	0.03809892
109	0x3e3d5250	0.18488431
110	0x3e453551	0.1925862
111	0xbdfb6843	-0.12275746
112	0xbda02978	-0.078204095
113	0xbea87dc7	-0.3290846
114	0xbe21b41a	-0.1579136
115	0xbf2e9d6d	-0.6820896
116	0xbedc18d2	-0.42987686
117	0xbeda2c6e	-0.42612022
118	0xbeebaa65	-0.46028438
119	0xbe9ba0fc	-0.3039626
120	0xbdc198e4	-0.0945299
121	0x3e0e60e9	0.13904156
122	0x3e0eb31f	0.13935517
123	0x3ea24a41	0.31697276
124	0xbc9633ed	-0.018335307
125	0xbebab1d2	-0.3646379
126	0xbe7385b1	-0.23781468
127	0xbdeb8754	-0.11500421
128	0x3ea231be	0.31678575
129	0x3eb1589b	0.34637913
130	0xbda0b08b	-0.07846173
131	0xbed8bdf5	-0.42332426
132	0xbdcdc834	-0.10047951
133	0x3d7aae1f	0.06120121
134	0x3d69f91e	0.057122342
135	0xbdefe99f	-0.117144816
136	0xbf3348b1	-0.70032793
137	0xbea57107	-0.32312796
138	0x3ea3be50	0.31981134
139	0x3dcdb367	0.10043984
140	0x3e69d94c	0.22836798
141	0xbee3bb34	-0.44478762
142	0xbf5af944	-0.855366
143	0xbbba4b5f	-0.0056852545
144	0x3e0e81d2	0.1391671
145	0x3d49a3cb	0.04922847
146	0x3e0ec57d	0.13942523
147	0xbeabfc57	-0.33590958
148	0xbeac19c5	-0.3361341
149	0xbd8d96bb	-0.06913515

conv1.0.bias f4 [6]
0	0xbe836d79	-0.25669459
1	0xbdea66f5	-0.11445419
2	0xbd861d86	-0.065486
3	0xbe02e510	-0.12782693
4	0xbe1ec130	-0.15503383
5	0x3c425173	0.011860239

conv2.0.weight f4 [16, 6, 5, 5]
0	0x3e50fe81	0.20409586
1	0x3e2ba5dc	0.16762489
2	0x3ee757f4	0.4518429
3	0x3cad5ca5	0.02116234
4	0xbe3e3b7a	-0.18577376
5	0xbd61eaca	-0.055155553
6	0x3dd3fc9e	0.10350917
7	0x3e7d7ccc	0.24754637
8	0xbe5fe37d	-0.21864124
9	0xbed13c9e	-0.4086656
10	0xbd9d12af	-0.07669579
11	0x3e5fa0d8	0.21838701
12	0x3dce23fc	0.10065457
13	0xbe7d825b	-0.24756758
14	0xbedf519b	-0.43616948
15	0x3e5ed9cf	0.21762775
16	0xbc154ae1	-0.009112091
17	0xbd086ee0	-0.033308864
18	0xbefa4b4e	-0.48885578
19	0xbe947763	-0.28997335
20	0x3dc694cb	0.09696349
21	0xbd90007e	-0.07031344
22	0xbe9e15cd	-0.30876008
23	0xbdf1c001	-0.118042
24	0xbe603292	-0.21894291
25	0x3e58ff82	0.21191218
26	0xbe1dfe9b	-0.15429156
27	0xbe577b91	-0.2104323
28	0x3dab6316	0.083685085
29	0x3d9f89cb	0.07789954
30	0x3e39ebef	0.18156408
31	0x3de63d34	0.11242142
32	0x3cd3e7d9	0.02586739
33	0xbe9d34f8	-0.30704474
34	0x3cdfa81f	0.027301846
35	0x3ec3ef43	0.3826848
36	0x3e47a0a6	0.19494876
37	0xbdbca247	-0.092106394
38	0xbebdc78d	-0.37066308
39	0xbe2a7776	-0.16647133
40	0x3e072838	0.13198936
41	0xbebf972f	-0.3742003
42	0xbe653526	-0.22383556
43	0xbe260de8	-0.16216242
44	0x3d8877de	0.06663488
45	0xbed1afaf	-0.40954348
46	0xbea38390	-0.31936312
47	0x3e0edbfc	0.13951105
48	0x3e4b1c03	0.19834904
49	0x3dc24a11	0.09486783
50	0xbcf7a437	-0.03022967
51	0xbd27446f	-0.040836748
52	0x3d5e59d8	0.0542849
53	0xbd663dc8	-0.056211263
54	0xbb3a83d6	-0.0028459928
55	0xbe19ac44	-0.1500712
56	0xbec5f12f	-0.3866057
57	0xbc9266c2	-0.017871264
58	0x3d9ea533	0.07746353
59	0xbebe421a	-0.37159806
60	0xbf075206	-0.5285953
61	0xbea8986d	-0.32928792
62	0x3dfa10cd	0.12210236
63	0xbe0b97d2	-0.13632134
64	0xbe9b1696	-0.3029067
65	0xbd1bfc0d	-0.03808217
66	0x3caec2dd	0.021333152
67	0xbca61f4c	-0.020278595
68	0xbe45b9c4	-0.19309145
69	0xbf2b4f48	-0.6691785
70	0xbdc6b3ec	-0.09702286
71	0x3d4e045a	0.05029712
72	0xbd2a6112	-0.04159648
73	0xbe420cb6	-0.18950161
74	0xbda5c9c4	-0.08095124
75	0x3d10c17f	0.035340782
76	0x3e7b0251	0.24512602
77	0xbeaa4b3f	-0.33260533
78	0xbea9fa0d	-0.33198586
79	0xbe782182	-0.24231532
80	0xbdcea48e	-0.1008998
81	0x3e88fa75	0.26753584
82	0x3d32a632	0.043615527
83	0xbd5726ae	-0.052527122
84	0xbb92591c	-0.004466189
85	0xbe1c3493	-0.1525443
86	0x3e4a56db	0.19759695
87	0x3d2447a5	0.040107388
88	0xbdb7325a	-0.08945151
89	0x3ebfd11a	0.3746422
90	0x3e53535a	0.20637265
91	0xbe05bafa	-0.13059607
92	0xbe1bdfa4	-0.15222031
93	0x3df084f3	0.11744108
94	0x3ee52591	0.44755223
95	0xbe9c5172	-0.30530888
96	0xbd5040ae	-0.050842933
97	0xbe0f0bd8	-0.13969362
98	0xbbf46453	-0.0074582486
99	0x3dd27c79	0.102776475
100	0x3f21ca34	0.6319916
101	0x3e95e8db	0.29279217
102	0xbea4ea1d	-0.32209864
103	0xbef4fa29	-0.47847107
104	0xbf03e9b7	-0.51528496
105	0x3e882d81	0.26597217
106	0x3db2d458	0.087319076
107	0xbee4596f	-0.44599482
108	0xbf119d75	-0.56880885
109	0xbe722e39	-0.23650445
110	0x3e21e3c5	0.15809543
111	0xbe669394	-0.22517234
112	0xbe68e41c	-0.22743267
113	0xbcc6f8c5	-0.024288544
114	0x3e46d659	0.19417705
115	0xbe89b132	-0.26893002
116	0xbeff9783	-0.49920282
117	0x3db129ed	0.08650575
118	0x3e4d7d22	0.20067266
119	0xbae776be	-0.0017659289
120	0xbe4ee7f4	-0.2020567
121	0xbd952e56	-0.072842285
122	0x3ec8d87d	0.39227667
123	0x3ea177fd	0.31536856
124	0xbedc2578	-0.42997336
125	0x3ef8dc82	0.48605734
126	0x3ec7bcc0	0.39011192
127	0x3eafa787	0.343075
128	0x3e8b9b2a	0.27266818
129	0xbcc68cf3	-0.024237132
130	0x3f106867	0.56409305
131	0x3e768ac1	0.24076368
132	0x3e4ba771	0.19888093
133	0x3eccebf0	0.40023756
134	0xbe3bc68a	-0.18337455
135	0xbd912eef	-0.0708903
136	0x3e0e7059	0.13910045
137	0x3e229189	0.1587583
138	0xbce5422d	-0.027985657
139	0x3df7ef62	0.121062055
140	0xbe5b6ca9	-0.2142817
141	0x3c406b88	0.011744387
142	0xbe2e7d95	-0.17040093
143	0xbcd02784	-0.025409468
144	0xbdb79ddb	-0.089656554
145	0xbe8877ff	-0.2665405
146	0x3c4bf492	0.012448447
147	0x3df05fb3	0.11737003
148	0x3bfdbc69	0.0077434075
149	0x3d9574da	0.07297678
150	0xbd9e808e	-0.077393636
151	0xbea49860	-0.32147503
152	0xbee8c836	-0.4546525
153	0xbe98ffb4	-0.29882586
154	0xbe548de0	-0.20757246
155	0xbe8dcba0	-0.27694416
156	0xbe4fdaee	-0.20298359
157	0xbc898e30	-0.016791433
158	0xbdd986a6	-0.10621385
159	0xbd69a346	-0.057040475
160	0xbe65a6c3	-0.22426896
161	0x3d75b1e2	0.059984095
162	0xbc22fff5	-0.00994872
163	0xbecac1b0	-0.39600897
164	0xbdd20f24	-0.10256794
165	0xbd62abfa	-0.05533979
166	0xbd65bbf0	-0.056087434
167	0xbe91f0e2	-0.28504092
168	0xbe951299	-0.2911575
169	0xbd38b6d4	-0.045096233
170	0xbdef4b4e	-0.11684285
171	0xbcd1cb79	-0.025609719
172	0xbd988a5a	-0.074482635
173	0xbd8ac0b7	-0.06775039
174	0xbde31bbe	-0.11089276
175	0xbdee9daf	-0.116511695
176	0xbe249572	-0.16072634
177	0x3d86b125	0.065767564
178	0x3d23ab61	0.03995836
179	0x3d6aab70	0.0572924
180	0x3e1d261d	0.1534657
181	0x3dcceece	0.10006486
182	0x3e94eab4	0.29085314
183	0x3cf404cf	0.02978745
184	0xbcbbbfd5	-0.022918621
185	0xbdb4a351	-0.08820213
186	0xbd719e9a	-0.058989145
187	0x3e6a7845	0.22897442
188	0xbd84f2d3	-0.064916275
189	0x3e1b6d57	0.15178429
190	0xbe2dbbfe	-0.16966245
191	0xbdd6d042	-0.10488941
192	0xbec5a5d9	-0.38603094
193	0x3dc2fd17	0.09520929
194	0x3dd8e8aa	0.10591252
195	0x3c438800	0.01193428
196	0xbe332abd	-0.17496772
197	0xbf12fe01	-0.5741883
198	0x3e2ae76e	0.16689846
199	0x3e6fd027	0.23419248
200	0x3e87483c	0.26422298
201	0xbe64e80c	-0.22354144
202	0xbea03be5	-0.31295696
203	0xbe557f5f	-0.2084937
204	0xbe6b66e0	-0.22988462
205	0xbe0478a2	-0.12936643
206	0xbf055756	-0.5208639
207	0xbe898181	-0.26856616
208	0xbdfe9158	-0.12430066
209	0xbcbfd7b4	-0.023418285
210	0xbed11e66	-0.40843505
211	0xbf124ba8	-0.5714669
212	0xbed36e20	-0.41294956
213	0x3dc18e06	0.09450917
214	0xbeb60774	-0.3555256
215	0xbeb93a23	-0.36177167
216	0xbebfa509	-0.374306
217	0xbefae3b6	-0.49001855
218	0xbdc24ef2	-0.09487714
219	0xbed5c26c	-0.41749895
220	0xbe1d0fb4	-0.15338022
221	0xbdf77f90	-0.120848775
222	0x3972126c	0.00023085781
223	0x3c45316f	0.012035712
224	0xbe71f8e4	-0.236301
225	0xbeac3f62	-0.33642107
226	0x3e7c1b4b	0.24619786
227	0x3eaccffb	0.33752427
228	0x3e8b07d5	0.27154413
229	0x3e0400d0	0.12890935
230	0x3e08c266	0.13355407
231	0x3f3df928	0.7420831
232	0x3dbf5fe9	0.09344465
233	0xbbb2c097	-0.0054550874
234	0xbe01a697	-0.12661205
235	0x3e958aca	0.2920745
236	0x3f10eb9c	0.5660951
237	0x3debaaa1	0.11507154
238	0xbd6c9d44	-0.057767168
239	0xbd97fc58	-0.074211776
240	0x3eb35a86	0.3503
241	0x3ea1fbbb	0.31637368
242	0xbd227149	-0.03965882
243	0xbdc0e71c	-0.094190806
244	0x3dce8e50	0.10085738
245	0x3d85a64b	0.065258585
246	0xbe26651f	-0.16249512
247	0xbe9502a6	-0.29103583
248	0xbf1563ea	-0.5835558
249	0xbe0fbdf1	-0.140373
250	0xbdd84600	-0.105602264
251	0x3f0cb110	0.54957676
252	0x3e8a6d12	0.2703634
253	0xbc400947	-0.011720962
254	0x3d78f7dc	0.060783252
255	0x3ccfda83	0.02537275

conv2.0.bias f4 [16]
0	0xbf93d675	-1.1549822
1	0xbf4cda8f	-0.80020994
2	0xbf96f484	-1.179337
3	0xbfc9bf83	-1.576157
4	0xc0185f3b	-2.3808124
5	0xbffb619f	-1.9639167
6	0xbf5c5b3a	-0.860767
7	0xbf996e72	-1.198683
8	0xbfb4fa5d	-1.4138905
9	0xc0028e49	-2.0399344
10	0xbf0368b2	-0.5133163
11	0xbfae9c15	-1.3641382
12	0xbfc4fe00	-1.5390015
13	0xbfc5bca2	-1.5448191
14	0xbff05cb9	-1.8778297
15	0xbf817a69	-1.0115482

fc1.0.weight f4 [120, 400]
0	0xbe721397	-0.23640285
1	0xbe95e71d	-0.29277888
2	0xbf05a816	-0.52209604
3	0xbd4dd489	-0.050251517
4	0xbf0a33a8	-0.5398507
5	0x3e0f4017	0.13989292
6	0xbe522b09	-0.20524229
7	0xbdea8b44	-0.11452344
8	0xbe7dbba8	-0.24778616
9	0xbcf15a85	-0.029462108
10	0xbdf5e794	-0.12007061
11	0x3d4f0369	0.05054036
12	0xbdf26d99	-0.1183731
13	0x3eb75159	0.3580425
14	0xbe3a9d2d	-0.1822402
15	0x3e952c08	0.29135156
16	0xbf0eb658	-0.55746984
17	0xbcf88786	-0.03033806
18	0x3efa7ef4	0.48924983
19	0x3f26c576	0.6514505
20	0x3e92d55b	0.28678402
21	0xbea1e776	-0.31621903
22	0x3dc9cb86	0.09853272
23	0x3e87ec96	0.26547688
24	0x3ec49892	0.38397652
25	0xbe54958b	-0.20760171
26	0xbee86ad4	-0.45394003
27	0xbe8a5081	-0.27014545
28	0xbf147999	-0.57998043
29	0xbeed0e6d	-0.46300068
30	0xbdd0255d	-0.101633765
31	0x3e2f25e9	0.17104305
32	0x3e5b4a1a	0.21414986
33	0xbe81bca3	-0.2533923
34	0xbebd8d11	-0.37021688
35	0x3e6ce70d	0.23135014
36	0x3e3c1b55	0.18369801
37	0x3ea37e99	0.31932524
38	0x3e4bc765	0.19900282
39	0x3e668d36	0.22514805
40	0x3e1caeff	0.1530113
41	0xbeb77582	-0.3583184
42	0x3dcb7024	0.099334985
43	0x3e6748b0	0.22586322
44	0x3deae676	0.11469738
45	0xbd85154e	-0.06498204
46	0x3dc61023	0.096710466
47	0x3e84ae49	0.2591422
48	0x3ec3dceb	0.38254485
49	0x3e4cccc3	0.19999985
50	0xbea1b687	-0.3158457
51	0xbe3668a9	-0.17813362
52	0xbeaa4854	-0.33258307
53	0xbeeb29b0	-0.45930243
54	0xbe770fb8	-0.2412709
55	0xbe1313f7	-0.14363085
56	0x3ebd4ea0	0.3697405
57	0x3eebf6fc	0.46086872
58	0xbedc2a8d	-0.43001214
59	0xbe25336d	-0.16132899
60	0x3da20a43	0.079121135
61	0xbc0a0009	-0.00842286
62	0xbe99b19a	-0.30018312
63	0x3f044fc8	0.51684237
64	0x3e76e213	0.24109678
65	0xbe30f335	-0.17280276
66	0xbef348be	-0.47516435
67	0xbcd9f8f2	-0.026607964
68	0x3f08781c	0.5330827
69	0x3ee94057	0.455569
70	0x3dfbbe06	0.122921035
71	0xbdbba2b8	-0.091618955
72	0xbe3d272a	-0.18471971
73	0x3e36565c	0.17806381
74	0x3e83c396	0.25735158
75	0x3e6a37cf	0.22872852
76	0x3d38f1db	0.045152526
77	0x3e9d32c5	0.30702797
78	0x3f1a39db	0.6024453
79	0x3e412707	0.18862544
80	0xbecaba26	-0.39595145
81	0xbe122f65	-0.14275892
82	0x3d10df48	0.035369188
83	0x3e43c926	0.19119701
84	0x3f00f52b	0.50374097
85	0x3e395dcf	0.18102191
86	0xbe8b436b	-0.27199873
87	0xbe7b2098	-0.24524152
88	0xbe885887	-0.2663004
89	0xbd9463d5	-0.07245604
90	0xbdd574b6	-0.104226515
91	0x3ea28713	0.31743678
92	0x3d9d57ae	0.07682739
93	0xbe1e2951	-0.15445448
94	0xbe17c751	-0.14822127
95	0xbd9d381b	-0.07676717
96	0x3ef66742	0.48125654
97	0xbdda4b1f	-0.106588595
98	0x3e8564a8	0.26053357
99	0xbe875d3e	-0.26438326
100	0x3dab2497	0.08356588
101	0xbe2a72fe	-0.16645429
102	0x3ea66831	0.32501367
103	0x3d9edfd0	0.077575326
104	0x3e084d9a	0.13310853
105	0x3e76886c	0.24075478
106	0x3ead9b6e	0.33907646
107	0x3ee8bc33	0.45456085
108	0x3e41a228	0.18909514
109	0xbd4a8353	-0.049441647
110	0xbf2ca69b	-0.6744172
111	0xbd046672	-0.032324262
112	0xbdaaa8e6	-0.08332996
113	0xbead60a7	-0.33862802
114	0xbee91862	-0.45526415
115	0x3d85e61d	0.06538031
116	0xbdac14b6	-0.08402388
117	0xbeab4861	-0.33453658
118	0xbea2bcb6	-0.317846
119	0xbe518e13	-0.20464353
120	0x3edb3f55	0.42821756
121	0x3f0b3bf2	0.54388344
122	0x3ecae584	0.39628232
123	0x3d04d342	0.032428034
124	0x3ddb99d5	0.107227005
125	0xbec59fd5	-0.38598505
126	0xbd6822c3	-0.056673776
127	0xbe1d60bb	-0.15368931
128	0x3da2ef22	0.07955767
129	0xbc0758b2	-0.008260893
130	0xbeb6979d	-0.35662547
131	0xbd57ee33	-0.0527174
132	0xbe173a7c	-0.14768404
133	0xbe5a69bd	-0.21329398
134	0x3dd2185d	0.10258553
135	0x3e253a7c	0.16135591
136	0x3cc7cfa7	0.024391009
137	0x3dccf2e7	0.100072674
138	0x3dfe1607	0.12406545
139	0xbe28e750	-0.16494489
140	0xbecec8d9	-0.4038761
141	0xbee2cac6	-0.4429533
142	0x3e6db9b2	0.23215368
143	0xbe0d50b1	-0.13800313
144	0xbf22f039	-0.636478
145	0x3e3f7bcc	0.18699569
146	0x3e932c81	0.2874489
147	0xbdbd42b3	-0.092412375
148	0xbddec1f1	-0.10876835
149	0xbeb82aaf	-0.35970065
150	0xbed8531f	-0.42250916
151	0xbeec5d97	-0.46165153
152	0xbf5fdb79	-0.87444264
153	0xbf46a1f3	-0.77590865
154	0xbf0e4295	-0.55570346
155	0x3e084c0e	0.13310263
156	0xbc85e14b	-0.01634278
157	0xbe9bf722	-0.30461985
158	0xbf004d6b	-0.5011813
159	0xbf42e99b	-0.76137704
160	0x3ebe2f8d	0.37145653
161	0x3ec62389	0.38698986
162	0x3ea5a30b	0.32350954
163	0xbe2c906b	-0.16851966
164	0xbe8dd4e1	-0.27701476
165	0x3d967283	0.0734606
166	0x3d89d745	0.067305125
167	0x3ee4c286	0.4467966
168	0x3e3b97f5	0.18319686
169	0xbcb88929	-0.02252634
170	0xbe1739fe	-0.14768216
171	0x3e9cb533	0.30606994
172	0x3dd1ac9f	0.10238003
173	0xbdfca49e	-0.12336086
174	0x3d910567	0.070811085
175	0xbeb7f9a8	-0.3593266
176	0xbd39c960	-0.04535806
177	0xbeca3865	-0.3949615
178	0x3ecb6d25	0.39731708
179	0xbd1713b5	-0.03688403
180	0x3f0aa165	0.5415252
181	0x3e8c16f0	0.2736125
182	0xbdb154e7	-0.08658772
183	0x3ea581cb	0.32325587
184	0x3e4f7f0c	0.20263308
185	0xbda2e634	-0.07954064
186	0x3d780528	0.060551792
187	0xbea36cf2	-0.31919056
188	0xbe7a47ec	-0.24441499
189	0xbe3e8b50	-0.18607831
190	0xbeb3916d	-0.3507189
191	0x3dacfb49	0.08446366
192	0xbf1ebdc1	-0.6200829
193	0xbe085600	-0.13314056
194	0xbe5537ed	-0.20822115
195	0xbea83472	-0.32852513
196	0x3ed678e6	0.41889113
197	0xbea1343c	-0.31485164
198	0xbe67f9ad	-0.22653838
199	0xbe48454c	-0.19557685
200	0xbeda9817	-0.4269416
201	0xbde9b5de	-0.114116415
202	0xbe8eebae	-0.27914184
203	0x3cf671d0	0.030083567
204	0x3c077271	0.008267031
205	0x3d83cc9a	0.06435509
206	0xbdb3ec68	-0.08785325
207	0xbe57b0ab	-0.21063487
208	0x3e8f79b0	0.28022528
209	0x3e179f98	0.14806974
210	0x3da2d3fc	0.07950589
211	0x3ee5d93f	0.44892308
212	0x3e808bca	0.2510665
213	0x3f59bb18	0.8505111
214	0x3e5e2efb	0.21697609
215	0x3e2737f7	0.16329943
216	0x3daffb2b	0.08592828
217	0xbd7ccf55	-0.061721165
218	0x3e8a8e4b	0.27061686
219	0xbe3f48b5	-0.1868008
220	0xbf0479b4	-0.51748204
221	0xbd8b10b1	-0.06790293
222	0xbe377e65	-0.1791931
223	0x3e45f306	0.19330987
224	0x3e7bd934	0.24594575
225	0x3a8310e2	0.0009999538
226	0xbc5bdc57	-0.013419232
227	0x3cbd6a11	0.023121865
228	0x3e5d2bff	0.21598814
229	0x3dacacaa	0.084313706
230	0xbddea984	-0.10872176
231	0x3dc2bc99	0.095086284
232	0x3e3f2466	0.18666229
233	0x3eca0251	0.39454892
234	0x3e1fc5fe	0.15602872
235	0x3eb6208c	0.35571706
236	0x3e95d4ca	0.29263908
237	0x3f21c851	0.63196284
238	0x3e89e1c9	0.26930073
239	0xbea7005e	-0.32617468
240	0x3d99c1e4	0.07507685
241	0x3f25dd8f	0.64791197
242	0xbe2127a0	-0.15737772
243	0xbaa8cf6e	-0.0012879202
244	0xbed0fa04	-0.40815747
245	0xbcf0d195	-0.029396812
246	0xbdf12a9e	-0.11775707
247	0xbe929120	-0.28626347
248	0xbef2b6e1	-0.4740515
249	0xbe1c810c	-0.15283602
250	0x3ea856a1	0.32878593
251	0x3eb8cba5	0.36092868
252	0x3eafdc48	0.3434775
253	0x3eb7e2b9	0.35915163
254	0xbd794501	-0.060856823
255	0x3efbd106	0.4918291

fc1.0.bias f4 [120]
0	0xbe86023f	-0.2617359
1	0x3e43a0cb	0.19104306
2	0xbef91e21	-0.486558
3	0xbe59ea0d	-0.2128069
4	0xbf22e3ad	-0.63628656
5	0xbe469ea3	-0.19396453
6	0xbea8d35c	-0.32973754
7	0xbe322392	-0.17396381
8	0x3e8ee7a1	0.27911094
9	0xbeafdf91	-0.34350255
10	0xbd4b03b2	-0.04956407
11	0xbefc6d58	-0.49302173
12	0xbeb2cd25	-0.34922138
13	0xbebc4c78	-0.3677709
14	0xbf6a8852	-0.9161426
15	0x3e27d5e3	0.16390185
16	0xbeddf605	-0.4335176
17	0x3b8ae78f	0.0042390297
18	0xbea6cacd	-0.325766
19	0x3e21f175	0.15814765
20	0x3f0af42e	0.5427884
21	0xbea31082	-0.31848532
22	0xbe922e01	-0.28550723
23	0x3cab8aa1	0.020940127
24	0xbe042e38	-0.12908256
25	0x3e839cbe	0.25705522
26	0xbea425ea	-0.32060176
27	0x3e83053c	0.2558993
28	0x3eef8faf	0.4678931
29	0x3da786c4	0.081800014
30	0x3ea1ab85	0.31576172
31	0xbf27f105	-0.6560214
32	0xbf06ef4d	-0.52708894
33	0xbe3b7310	-0.18305612
34	0x3f85384f	1.0407809
35	0x3ce7d0ab	0.028297743
36	0xbf208839	-0.6270786
37	0x3e558803	0.20852666
38	0xbebb1c45	-0.36545005
39	0xbe60b21e	-0.21942946
40	0x3eeaf1b4	0.4588753
41	0x3de8d9c2	0.11369659
42	0x3ebebd76	0.37253922
43	0xbc29f0fc	-0.010372397
44	0xbedf4b39	-0.43612078
45	0xbe0f63df	-0.14002942
46	0x3e6370c1	0.22210981
47	0xbe863181	-0.26209643
48	0xbed49945	-0.41523185
49	0x3da81f32	0.08209075
50	0xbda412af	-0.08011376
51	0x3e8c5956	0.27411908
52	0xbf011d49	-0.5043531
53	0x3f0d1fc4	0.55126595
54	0xbe47e6fc	-0.19521707
55	0xbeaa480b	-0.3325809
56	0x3f5e821d	0.8691729
57	0x3f0fa189	0.5610586
58	0xba38fd44	-0.00070567825
59	0xbed3ad33	-0.41343078
60	0xbe006925	-0.1254011
61	0xbd71c409	-0.059024844
62	0x3e938b61	0.28817275
63	0xbd9d838f	-0.076911084
64	0xbe053225	-0.1300741
65	0x3f20ef2e	0.6286496
66	0xbf44834a	-0.7676283
67	0xbe1909b2	-0.14945105
68	0xbf39d0d0	-0.7258425
69	0xbf08323e	-0.53201663
70	0x3e86e405	0.2634584
71	0x3e22bd8b	0.15892617
72	0xbe0f1a00	-0.13974762
73	0xbea3854c	-0.31937635
74	0xbeec65cf	-0.46171424
75	0x3c856404	0.016283043
76	0xbf435cca	-0.7631346
77	0x3f0fdefb	0.56199616
78	0x3e3fe10d	0.18738194
79	0xbe9b371c	-0.30315483
80	0xbd9988eb	-0.07496818
81	0xbf6546a4	-0.89560914
82	0xbf2f95cf	-0.68587965
83	0x3f547116	0.82985055
84	0xbe9ec354	-0.310084
85	0xbed767be	-0.42071337
86	0x3f4d37b3	0.80163115
87	0xbeea2eaf	-0.45738742
88	0x3ea8c38f	0.329617
89	0xbc978bec	-0.018499337
90	0x3ec668fd	0.38751975
91	0xbedf5e88	-0.4362681
92	0x3f8dbe2d	1.1073662
93	0x3e3a1f06	0.18175897
94	0xbebe2815	-0.37139955
95	0x3dd63581	0.10459424
96	0xbe79bfb6	-0.24389538
97	0xbd1a41a9	-0.037660275
98	0xbefe7cab	-0.4970449
99	0x3f30086a	0.6876284
100	0xbcafc327	-0.02145536
101	0x3db51c9d	0.08843348
102	0x3e241c44	0.16026407
103	0x3efb09e6	0.4903099
104	0xbf65b605	-0.89730865
105	0x3ec4e2ed	0.3845438
106	0xbec55e89	-0.38548687
107	0xbf1ddb15	-0.6166242
108	0x3e52bea1	0.20580532
109	0x3e0ba09b	0.13635485
110	0x3debee56	0.11520068
111	0x3d4d8c43	0.050182592
112	0x3f31ebfd	0.69500715
113	0x3ee5c147	0.4487402
114	0xbe2922ee	-0.16517231
115	0xbe6b2ee0	-0.229671
116	0x3e9abaae	0.3022055
117	0xbf04308a	-0.51636565
118	0x3e9ef12c	0.31043375
119	0x3ee0dc17	0.43917915

fc2.0.weight f4 [84, 120]
0	0x3e755626	0.23958644
1	0xbd298e9f	-0.04139578
2	0xbe9cfe0c	-0.30662572
3	0x3da3dda7	0.08001261
4	0xbf25c505	-0.6475375
5	0x3d55858e	0.05212932
6	0x3de450de	0.11148237
7	0x3f0265a1	0.50936323
8	0x3e4367d3	0.19082575
9	0xbe979671	-0.29606965
10	0x3eaa25f8	0.33232093
11	0xbe1e43b3	-0.15455513
12	0x3d19ed3d	0.037579764
13	0xbd995eb7	-0.074887685
14	0xbd56711f	-0.052353974
15	0x3f28d79e	0.65954006
16	0x3f012ac1	0.5045586
17	0x3f59eaf4	0.85124135
18	0xbe33bbcb	-0.17552106
19	0x3c8d97d1	0.017284306
20	0xbd5cd618	-0.053915113
21	0xbe3e92ac	-0.18610638
22	0xbd8b06a7	-0.06788378
23	0xbea61da8	-0.324445
24	0x3eb9b1db	0.36268505
25	0xbe26b64a	-0.16280475
26	0xbdef6027	-0.116882615
27	0x3f3b2a93	0.7311184
28	0x3e9f4387	0.31106207
29	0xbe828c0c	-0.25497472
30	0xbeb18b08	-0.34676385
31	0xbe5ef139	-0.21771707
32	0x3e7226ad	0.23647566
33	0xbefa4856	-0.48883313
34	0x3ea59ecc	0.32347715
35	0x3d2ad322	0.04170526
36	0x3ce42685	0.027850399
37	0x3e313ac7	0.17307578
38	0xbee41f1e	-0.4455499
39	0xbe49e8bd	-0.19717689
40	0x3e0c9cd3	0.13731699
41	0xbed3f8aa	-0.41400653
42	0x3e70c9cb	0.23514478
43	0xbeda3e87	-0.4262583
44	0x3e59e923	0.21280341
45	0x3e892b61	0.26790908
46	0xbd2333e5	-0.039844412
47	0xbcec276e	-0.028827395
48	0x3ea03d8e	0.31296962
49	0x3c89a3e7	0.016801788
50	0x3eaacf36	0.33361214
51	0xbd9b7118	-0.0758993
52	0xbd0cd0ce	-0.03437882
53	0xbe2ed82e	-0.17074654
54	0x3ef89ca9	0.48557022
55	0xbede54a6	-0.43423957
56	0x3e92a63e	0.28642458
57	0x3e00a6d6	0.12563643
58	0x3d58f377	0.05296656
59	0xbd1088c8	-0.035286695
60	0x3c01e02f	0.007926985
61	0x3de94256	0.11389606
62	0x3c482ea2	0.012218149
63	0xbe47a039	-0.19494714
64	0x3de0d3bd	0.10977886
65	0x3e61830a	0.22022644
66	0xbf109ade	-0.5648631
67	0xbe4b459b	-0.19850771
68	0xbe29ab2b	-0.16569202
69	0x3d8a5246	0.06753974
70	0x3ed2478f	0.4107022
71	0x3e665db1	0.22496678
72	0xbebc028b	-0.3672069
73	0x3e761a28	0.24033415
74	0x3dccecb8	0.10006088
75	0xbd26f26e	-0.040758543
76	0xbd6e1e6e	-0.05813449
77	0x3d15dfd7	0.036590423
78	0xbea23ac6	-0.31685466
79	0x3d163ec0	0.036680937
80	0x3d37b082	0.044846065
81	0xbe6707b4	-0.22561532
82	0x3d2d7f99	0.042358015
83	0xbd878023	-0.06616237
84	0xbd822de1	-0.06356407
85	0xbe23e740	-0.16006184
86	0x3e22a462	0.1588302
87	0x3c333733	0.0109384535
88	0x3c9aba63	0.018887704
89	0x3d09ded7	0.033659782
90	0x3ed567de	0.41680807
91	0xbef5d342	-0.4801274
92	0x3e177e87	0.1479436
93	0x3e9390e8	0.28821492
94	0xbd63cce7	-0.055615332
95	0xbf08a037	-0.5336947
96	0x3d4e7e32	0.050413318
97	0xbeed7dc8	-0.46385026
98	0x3ea208f8	0.31647468
99	0x3e0e8ebd	0.13921638
100	0xbebc83df	-0.3681936
101	0xbe0a2826	-0.13491878
102	0x3e8a1530	0.2696929
103	0xbe8483cd	-0.25881806
104	0x3e2e3bac	0.1701495
105	0xbe6d7cc6	-0.23192129
106	0xbe107cc1	-0.1411009
107	0x3e4bf139	0.19916238
108	0x3e89701a	0.2684334
109	0xbd09ac07	-0.033611324
110	0xbd8044e9	-0.062631436
111	0xbea95e2f	-0.3307967
112	0x3e9cb0c7	0.3060362
113	0xbdfcb961	-0.12340046
114	0xbebdefba	-0.3709696
115	0xbee7ecfb	-0.4529799
116	0xbd0badb4	-0.034101203
117	0x3e039782	0.12850764
118	0x3f2cb110	0.67457676
119	0x3ec66dbd	0.387556
120	0x3e9bffa6	0.30468482
121	0x3e5b06a8	0.21389258
122	0x3e7b3ca9	0.24534859
123	0x3e52b719	0.20577659
124	0xbeb685a0	-0.35648823
125	0x3e3db28c	0.18525141
126	0x3e2f3409	0.17109694
127	0x3d6fd393	0.058551382
128	0xbcfd271d	-0.03090244
129	0x3e04f991	0.12985827
130	0x3f0e1561	0.5550137
131	0x3e593c5a	0.21214429
132	0x3f16f5da	0.5896889
133	0x3e94c358	0.29055285
134	0x3ea0127a	0.31264096
135	0x3e7da543	0.24770074
136	0x3e9a4942	0.30134016
137	0xbbe86c77	-0.007093008
138	0xbdd7142c	-0.10501894
139	0xbe891581	-0.2677422
140	0xbe66d131	-0.22540738
141	0x3ca3b3a4	0.01998312
142	0xbea98c76	-0.33114976
143	0xbcced56c	-0.025248252
144	0xbe3ddd82	-0.1854153
145	0xbe0f8845	-0.14016826
146	0x3e81ef71	0.25377992
147	0x3f1847ad	0.5948437
148	0x3e9654df	0.29361627
149	0x3c8b5531	0.017008396
150	0xbd75b007	-0.059982326
151	0x3e75f4d0	0.2401917
152	0x3f057eb8	0.5214648
153	0xbf1f87db	-0.62316674
154	0xbe9a5f49	-0.30150822
155	0xbdd08a49	-0.10182626
156	0x3ea4f365	0.32216945
157	0x3e75cbe1	0.24003555
158	0x3dc6cb67	0.09706765
159	0xbe2957c3	-0.16537385
160	0xbe38be79	-0.1804141
161	0xbe658cc8	-0.22416985
162	0xbddd3517	-0.10801142
163	0xbd83b6f8	-0.06431383
164	0x3e15c491	0.14625765
165	0x3ed87faf	0.42284915
166	0xbe13544d	-0.14387627
167	0x3e9056f0	0.28191328
168	0x3f174f3c	0.5910528
169	0x3e1cac58	0.15300119
170	0x39d7bbe8	0.00041147997
171	0xbdccf395	-0.10007397
172	0xbdae15df	-0.08500265
173	0xbe64edd2	-0.22356346
174	0xbd0dae18	-0.034589857
175	0xbe675193	-0.22589712
176	0xbd8f91a0	-0.07010198
177	0x3d9d5358	0.07681912
178	0x3e014e14	0.1262744
179	0xbd9ca270	-0.0764817
180	0x3e0cedfe	0.13762662
181	0xbde496ec	-0.111615986
182	0x3bdeb931	0.006796979
183	0x3e0e73d0	0.13911366
184	0x3ddffe8f	0.10937225
185	0xbdbfcaab	-0.09364828
186	0x3e0811b6	0.13288006
187	0xbd2c16bb	-0.042013865
188	0x3c03bdda	0.00804087
189	0x3e24f55d	0.16109224
190	0xbd213719	-0.039359186
191	0x3ead44a5	0.33841434
192	0xbe345ff2	-0.17614725
193	0x3f201286	0.62528265
194	0x3dd16176	0.10223667
195	0x3d4112fd	0.04713725
196	0x3e90d957	0.28290817
197	0xbee4c795	-0.4468352
198	0x3cc4d5ec	0.024027787
199	0xbdc37967	-0.0954464
200	0x3df9838c	0.12183294
201	0x3eb2a151	0.348887
202	0x3e151f71	0.14562775
203	0xbe4ee026	-0.20202693
204	0x3e947291	0.28993657
205	0xbe1f3756	-0.15548453
206	0xbe4947e5	-0.19656332
207	0x3e298521	0.16554691
208	0xbe86160b	-0.26188692
209	0x3e77babf	0.24192332
210	0xbd055524	-0.0325519
211	0x3ea22c6a	0.3167451
212	0xbe9bed97	-0.30454704
213	0xbf3f8b3e	-0.7482184
214	0xbd6bd2bf	-0.05757403
215	0xbe4cf40d	-0.20014973
216	0x3c75e4db	0.015008177
217	0xbe56acee	-0.20964405
218	0x3ef8ae2e	0.4857039
219	0xbf09e784	-0.5386889
220	0xbe9d5dd2	-0.30735642
221	0xbe8af295	-0.271382
222	0xbbcde9bc	-0.006283967
223	0xbe62fe7e	-0.22167394
224	0x3eb3fe06	0.35154742
225	0xbefc9d9e	-0.49339002
226	0xbdf06d96	-0.11739652
227	0xbe8bd628	-0.27311826
228	0xbdc3b1b7	-0.09555381
229	0xbe7cf1e6	-0.24701652
230	0xbe849e4e	-0.25902027
231	0xbcb66679	-0.02226566
232	0xbe3c59be	-0.18393609
233	0xbe81f98f	-0.2538571
234	0x3e654c81	0.22392465
235	0x3da64d4a	0.081202105
236	0xbe35612f	-0.17712854
237	0x3f15281c	0.5826433
238	0x3ab43af2	0.0013750477
239	0x3d9cfe58	0.076657
240	0x3ef7e7ac	0.4841894
241	0x3e95e24d	0.29274216
242	0x3d6a1d48	0.05715683
243	0x3e5ede15	0.21764405
244	0x3d8e958a	0.06962116
245	0xbe9e272d	-0.30889264
246	0x3eeb34f8	0.4593885
247	0x3e2db392	0.16963032
248	0x3e88c81c	0.2671517
249	0x3ede4a50	0.4341607
250	0x3e0011f9	0.12506856
251	0xbeb4477a	-0.35210782
252	0x3f1fbf3f	0.62401193
253	0x3cdf7979	0.027279602
254	0xbe720f26	-0.23638591
255	0x3e3992c8	0.18122399

fc2.0.bias f4 [84]
0	0x3d4b059a	0.04956589
1	0xbf859cc6	-1.0438468
2	0xbeba89f3	-0.36433372
3	0x3eb28914	0.34870207
4	0xbe3929d8	-0.18082368
5	0xbef437b2	-0.47698742
6	0x3ea6931a	0.32534105
7	0xbeb2752c	-0.3485502
8	0x3dbb4be0	0.091453314
9	0xbf33510a	-0.7004553
10	0x3f2db185	0.67849
11	0x3eaaa903	0.3333207
12	0xbd12bc9c	-0.035824403
13	0x3f4355eb	0.76302975
14	0x3de324ae	0.110909805
15	0xbde5c713	-0.11219611
16	0xbc992460	-0.018694103
17	0xbf1e2907	-0.6178135
18	0xbedd3531	-0.43204644
19	0x3d3cdc04	0.04610826
20	0xbc9f3836	-0.019435983
21	0x3ef515d9	0.4786823
22	0x3e0e8dba	0.13921252
23	0x3ed73b76	0.42037553
24	0xbf12ea11	-0.57388407
25	0x3f342641	0.7037087
26	0x3eb497f6	0.35272187
27	0x3e52652a	0.20546404
28	0x3ea3c598	0.3198669
29	0xbe24c6a4	-0.160914
30	0x3f318fcc	0.6936004
31	0x3deb8147	0.11499267
32	0x3c5e7559	0.013577783
33	0x3e58af08	0.21160519
34	0xbeca42d0	-0.395041
35	0xbe8047db	-0.2505482
36	0xbc13e092	-0.00902571
37	0xbf172459	-0.5903984
38	0xbf61c55f	-0.8819179
39	0x3d920993	0.071307324
40	0xbb391f90	-0.0028247572
41	0x3f4347a5	0.76281196
42	0xbeb66cb0	-0.35629797
43	0x3eb82fb6	0.359739
44	0xbe83635e	-0.2566175
45	0x3efd1492	0.49429756
46	0x3e10dec5	0.1414748
47	0x3e1c287e	0.15249822
48	0xbf280e0c	-0.65646434
49	0xbe34e3fa	-0.17665091
50	0xbe09ccc3	-0.13457017
51	0x3f3d2c90	0.7389612
52	0x3eb6a4f5	0.35672727
53	0x3ecc8c6b	0.3995088
54	0xbe9393f5	-0.2882382
55	0x3e090268	0.13379824
56	0xbeea62db	-0.45778546
57	0x3f2298d9	0.63514477
58	0xbf24c0f7	-0.6435694
59	0xbf01b66d	-0.50668985
60	0x3f359777	0.7093424
61	0xbe37e2df	-0.17957638
62	0x3ee2f9af	0.44331118
63	0xbd188a6c	-0.037241384
64	0x3ea4f96d	0.32221547
65	0x3ce08009	0.027404802
66	0x3eb29535	0.3487946
67	0xbe930ffd	-0.28723136
68	0x3e95a0cd	0.29224244
69	0xbe01c5df	-0.12673138
70	0xbefd84bf	-0.4951534
71	0xbefa4205	-0.48878494
72	0xbf5721ac	-0.84035754
73	0xbce0ab5d	-0.027425462
74	0xbf06b076	-0.5261301
75	0xbe3e0081	-0.1855488
76	0x3fa86212	1.3154929
77	0x3ee29f09	0.4426196
78	0x3ec8d92a	0.39228183
79	0x3d259a7a	0.040430523
80	0xbf232944	-0.6373484
81	0xbf09b83a	-0.5379673
82	0x3e0ea226	0.13929042
83	0x3e72b811	0.23703028

fc3.0.weight f4 [10, 84]
0	0xbcf25b25	-0.029584477
1	0x3e08a91c	0.1334576
2	0xbe0eef2a	-0.13958421
3	0xbd42485f	-0.0474323
4	0x3e212b39	0.15739144
5	0x3e6efa00	0.23337555
6	0x3e054f5a	0.13018551
7	0xbdd775e0	-0.1052053
8	0xbd9e2083	-0.07721045
9	0xbc24c52c	-0.010056775
10	0x3e3c9ead	0.18419905
11	0xbe9c0598	-0.30473018
12	0xbe44d131	-0.19220425
13	0xbe55cd37	-0.20879065
14	0xbc502906	-0.012705093
15	0x3dfa0c44	0.12209371
16	0xbea6e9f2	-0.3260036
17	0x3e9f6403	0.3113099
18	0x3e642676	0.22280297
19	0xbed43655	-0.41447702
20	0xbea5b51c	-0.32364738
21	0x3df64ea0	0.12026715
22	0x3e2ca2f9	0.16859044
23	0x3da50ba2	0.080588594
24	0x3e3596ba	0.17733279
25	0xbe38a30d	-0.18030949
26	0xbcc1f9b5	-0.02367864
27	0x3e3dfc40	0.18553257
28	0x3e068bb1	0.13139226
29	0x3e275355	0.16340382
30	0x3e80c5b2	0.2515083
31	0xbe1da284	-0.15394026
32	0xbe13f6ec	-0.14449662
33	0xbe8567f3	-0.2605587
34	0x3ead064e	0.33793873
35	0x3ed1a48f	0.4094586
36	0xbe295c3d	-0.16539092
37	0xbdbe1c74	-0.09282771
38	0x3e979155	0.29603067
39	0x3e40325b	0.18769209
40	0xbde7335f	-0.11289095
41	0xbc2b499a	-0.01045456
42	0xbdd6eb0b	-0.1049405
43	0xbe5643f7	-0.20924364
44	0xbca378bc	-0.019955032
45	0xbeb3ba75	-0.35103193
46	0xbe1efe06	-0.1552659
47	0x3e38d3d1	0.18049552
48	0x3cfda7d0	0.030963808
49	0x3db1da1a	0.08684178
50	0xbcf2f598	-0.029658124
51	0x3e8bdfbd	0.27319136
52	0x3e770d59	0.24126185
53	0x3ea2fc37	0.3183305
54	0x3e835f62	0.2565871
55	0x3d4df352	0.050280876
56	0x3e7cb10e	0.24676916
57	0xbd92a67b	-0.0716066
58	0xbe299358	-0.16560113
59	0xbce939c5	-0.02846993
60	0xbe35ec07	-0.17765819
61	0xbe0e8d9a	-0.13921204
62	0x3d69c846	0.05707576
63	0xbe01cf1b	-0.1267666
64	0xbdc8f7e1	-0.09812904
65	0x3e8ebaed	0.27876988
66	0x3e886aff	0.26644132
67	0x3dd287ec	0.10279831
68	0x3e834ffd	0.25646964
69	0xbdeb21ec	-0.114810795
70	0x3e7ef311	0.2489741
71	0x3ea01008	0.3126223
72	0xbd0a71b6	-0.03379985
73	0x3d94b5ab	0.07261213
74	0xbcfd17f5	-0.030895213
75	0xbcea7ac1	-0.028622987
76	0x3cc9e4ed	0.024645293
77	0x3b6e4cf9	0.0036361797
78	0x3d86457b	0.06556221
79	0x3e8b0b06	0.27156848
80	0xbe8b7ece	-0.27245182
81	0x3d3056e0	0.0430516
82	0xbdbe68cd	-0.09297333
83	0x3d51f71f	0.051261064
84	0xbc914be9	-0.017736392
85	0xbe797982	-0.24362758
86	0xbe561bcb	-0.2090904
87	0x3ea2747e	0.317295
88	0xbe15bcd9	-0.14622821
89	0xbe16aecc	-0.14715117
90	0x3dc44c14	0.09584823
91	0xbded4679	-0.11585707
92	0x3de16aa0	0.11006665
93	0xbeb0ec9c	-0.3455552
94	0x3eaa61c3	0.3327771
95	0xbda34e59	-0.07973928
96	0xbe73538d	-0.23762341
97	0x3e554156	0.20825705
98	0xbe8e732c	-0.27822244
99	0xbe3f71e7	-0.18695794
100	0xbe814522	-0.25248057
101	0xbd672974	-0.056436017
102	0xbd972c49	-0.073814936
103	0xbe3a65ab	-0.18202846
104	0xbe1ae5fb	-0.15126793
105	0xbd2a3965	-0.041558642
106	0x3e71dcaa	0.23619333
107	0xbcbe6a98	-0.023244187
108	0x3e2c3feb	0.16821258
109	0xbe7d7dd4	-0.24755031
110	0x3dad7ce8	0.084710896
111	0x3e164773	0.14675693
112	0xbea2ab9b	-0.3177155
113	0xb924ac3f	-0.00015704425
114	0x3ee395e7	0.44450304
115	0x3e34e539	0.17665567
116	0xbe082ad8	-0.13297594
117	0x3de3e6c1	0.11127997
118	0x3e5165b1	0.20448948
119	0x3ec260f4	0.37964594
120	0x3df15c79	0.11785216
121	0xbcb02a4d	-0.021504546
122	0x3e043553	0.12910967
123	0xbd8fce28	-0.07021743
124	0x3e373aa2	0.1789346
125	0x3e64c9f3	0.22342663
126	0x3e7fb81e	0.24972579
127	0x3e850652	0.25981385
128	0xbdee9557	-0.11649578
129	0x3d968708	0.07349974
130	0xbe816c84	-0.25278103
131	0x3e1b2f1b	0.15154688
132	0xbe1425b8	-0.14467514
133	0x3d00264d	0.031286526
134	0xbdc76436	-0.097359106
135	0x3e4cd7f8	0.2000426
136	0xbdc21c0c	-0.09478006
137	0x3d909e6f	0.07061469
138	0x3b5b01ab	0.0033417742
139	0xbc5d2254	-0.013496954
140	0x3a94b493	0.0011345319
141	0x3e822c75	0.25424543
142	0xbe122563	-0.14272074
143	0x3db127d7	0.08650177
144	0xbe1e4d2b	-0.15459125
145	0xbcf29f0e	-0.029616859
146	0xbe5b6478	-0.21425045
147	0x3d378689	0.044806037
148	0xbe469996	-0.19394526
149	0xbe3916c2	-0.18075088
150	0x3dda96d6	0.10673301
151	0xbd7cf7ad	-0.06175964
152	0xbdc884b3	-0.09790935
153	0x3cd3777e	0.025813814
154	0xbdfee855	-0.124466576
155	0xbe24695e	-0.1605582
156	0xbe6b4e5f	-0.22979115
157	0x3e43c91c	0.19119686
158	0xbe8295dd	-0.25504962
159	0xbedc119c	-0.42982185
160	0x3dbdb1b4	0.0926241
161	0x3e7c846f	0.24659894
162	0x3dbc8e44	0.092068225
163	0xbc6c85fe	-0.014436243
164	0xbe1d0d25	-0.15337045
165	0xbea2376c	-0.3168291
166	0x3ea54b1f	0.32283875
167	0x3df31c1d	0.118705966
168	0x3e1bea18	0.15226018
169	0xbdbf4583	-0.0933943
170	0xbe2ccc6e	-0.16874859
171	0xbd63cf46	-0.055617593
172	0xbd535d65	-0.05160274
173	0xbd819038	-0.06326336
174	0x3e9bda00	0.30439758
175	0xbd7773c8	-0.060413152
176	0x3e27a9ee	0.16373417
177	0xbe88a2eb	-0.26686797
178	0xbcf59b25	-0.029981205
179	0xbe4157fb	-0.18881218
180	0xbe6a4d57	-0.22881065
181	0xbd495253	-0.049150776
182	0xbc5d4f1c	-0.013507631
183	0x3da7e73e	0.08198403
184	0xbe57d6ea	-0.21078077
185	0x3e879f38	0.26488662
186	0xbd7444e9	-0.05963603
187	0x3d57e99a	0.052713014
188	0x3e32d6f6	0.17464814
189	0x3e9645ad	0.29350033
190	0xbd212af2	-0.039347596
191	0xbe9c424d	-0.30519333
192	0xbe64f753	-0.22359972
193	0xbe33d7fc	-0.1756286
194	0xbd0e17bb	-0.0346906
195	0xbe3880ce	-0.18017885
196	0xbdd05568	-0.1017254
197	0x3eb7fc5e	0.35934728
198	0xbdb2e293	-0.08734622
199	0xbd0a91a1	-0.03383029
200	0xbe4ff0b5	-0.20306666
201	0x3da7215e	0.08160661
202	0xbd9a5b34	-0.07536927
203	0xbc34ef59	-0.011043393
204	0xbe0cfd3e	-0.13768479
205	0xbe51797f	-0.20456503
206	0xbd8934bc	-0.066995114
207	0xbd9be075	-0.07611171
208	0xbe22c4c1	-0.15895368
209	0xbe3b8364	-0.1831184
210	0xbd3e51e3	-0.046464812
211	0xbe27ce86	-0.16387376
212	0xbdad304b	-0.08456477
213	0x3cfc8d4e	0.030829098
214	0xbccfd097	-0.025368018
215	0xbc369476	-0.011143794
216	0xbe4cc51f	-0.1999707
217	0xbe5cfbf5	-0.21580489
218	0xbda59173	-0.08084383
219	0x3e8c9166	0.2745468
220	0x3e1ea85a	0.15493909
221	0x3ca5e908	0.02025272
222	0xbd085606	-0.033285163
223	0x3e8a6b04	0.2703477
224	0x3de047e2	0.109512106
225	0x3e127eaf	0.14306138
226	0xbcd2f305	-0.025750646
227	0x3d26ff1c	0.040770635
228	0x3e750373	0.23927097
229	0xbd099f87	-0.033599403
230	0xbe546bb0	-0.20744205
231	0xbd751d09	-0.059842143
232	0xbeaf1439	-0.34195116
233	0xbe08bf53	-0.13354234
234	0xbe1ac1dc	-0.15113014
235	0x3e3fcd28	0.18730605
236	0x3cb52bbc	0.02211558
237	0x3e917dba	0.28416234
238	0x3cb72c72	0.02236006
239	0x3da8d4d5	0.082437195
240	0xbe6f2229	-0.23352875
241	0xbde039b5	-0.10948507
242	0xbe8e68d6	-0.27814358
243	0xbea5cb38	-0.32381606
244	0x3e63f168	0.22260058
245	0x3e57df42	0.2108126
246	0xbddf5592	-0.10904993
247	0xbe02e2b2	-0.1278179
248	0xbe377e86	-0.17919359
249	0xbddcf298	-0.107884586
250	0xbd2cc097	-0.042175855
251	0x3e21d42c	0.15803593
252	0x3e57bf79	0.21069135
253	0x3d8f470f	0.06995975
254	0x3e0373e0	0.12837172
255	0xbe0351c6	-0.12824163

fc3.0.bias f4 [10]
0	0xbf820b9c	-1.0159793
1	0xbe02ccf5	-0.12773497
2	0x3dd91f20	0.1060164
3	0xbf3cf3bc	-0.7380941
4	0x3b209e70	0.0024508499
5	0x3d37107b	0.04469345
6	0xbf575d75	-0.8412698
7	0x3e970668	0.29497075
8	0x3e9a50e0	0.30139828
9	0xbd06bd9c	-0.03289567
