save_checkpoints/LeNet5_epoch_18.pth (torch, 249863 bytes, 10 tensors)

conv1.0.weight f4 [6, 1, 5, 5]
00000000: 5de4 db3c c04c 913d f162 29be a175 fabd
00000010: 3330 4abc a7ca bdbd 2c30 97bd 914b 1abb
00000020: babf ba3d c741 a6bd e903 af3d df39 b5bb
00000030: f6bb 13bc 0d7d 6cbd 4209 883e 4d03 4e3e
00000040: c310 453e 0904 a73e 4245 c03d 1fbd a3bd
00000050: 8c50 fcbd fa40 093c 6450 98be a6f0 33bd
00000060: 933e 58bd c5b4 a1bc f3d4 46bc e5c0 68bc
00000070: 64e0 88bd 9d3c 133e e398 1bbd 7871 1abe
00000080: 64d2 053e daa2 853e 6765 6a3d 0387 c23d
00000090: 2487 113e 4901 8c3d ff25 cf3d de54 c43d
000000a0: 48d7 95be b007 ac3d 6bee 7c3e e26c 313a
000000b0: 205c 7abe 2ae4 5fbe 27d5 c33c 4cdc 70be
000000c0: 58ac 2f3c d540 e8bd e002 803c 5a39 933d
000000d0: aa58 153e 1f8b 393d 2103 b2bc 7875 053e
000000e0: cc11 e4bd a4fa 9fbc 60dc c23d d09a be3d
000000f0: 42ce 003e 7cad 413e 1a4c 97bd 9b0c e43d
00000100: 727f 95bd 9dd5 50be 0464 aabe 9c69 fdbd
00000110: 8b09 6ebe 2330 423e b845 c4be 8daa 8abd
00000120: 0970 fa3c 9c5c e5bd 689d a9be a4e5 66bc
00000130: e9d4 efbc 310b 1abe 9ca6 6c3d be55 33be
00000140: 180f 203d 8b27 d3bd cdd2 84bd 45dc 8c3d
00000150: b27f 42bd 30ef 96bc b40b 5cbd 96a7 6cbe
00000160: c63b 193e 4885 c7bd 5df8 ef3d 90f8 b03d
00000170: 311c 093e 87b8 8fbd 28fa a53e 25a2 6dbd
00000180: cc83 e13d 9854 793e 9785 623c 6536 36bc
00000190: 45dc f8bc bccc 2d3d cffa 15bc e6c6 1c3e
000001a0: cd46 75be 3dbf 5cba 1822 893d dd71 2d3e
000001b0: df20 023e 56e0 9d3d 9425 69be 44db 1c3e
000001c0: ead1 893d b30a 153d b1c5 7a3d 28e6 453d
000001d0: a981 533e 95ae 3fbd bc76 5b3c 873c a7bd
000001e0: a106 023d a36e 963d 2347 943c 9660 74bd
000001f0: 4bda 7fbe e0a4 913d 5111 373e f177 a23c
00000200: 73e9 003e 78bb f13c 0716 35bd 8bb5 90bd
00000210: f6e6 683e 8420 53bd 6c0f cebb f18c 883d
00000220: 61df 673d d6a2 bc3d 6517 333d 282a 29bd
00000230: 937d a5bd d0d8 aabd b627 ec3d 051c 6bbe
00000240: 9114 4ebe 4962 6abd 6974 be3d 2516 1cbe
00000250: a502 d5bd aad8 473d
0.02684229 0.07094717 -0.1654165 -0.12229467 -0.012340593 -0.092671685 -0.07382235 -0.0023543576
0.091186 -0.08118015 0.08545668 -0.0055305804 -0.009016981 -0.057736445 0.26569563 0.20118447
0.19244675 0.32620266 0.0938821 -0.07995056 -0.123200506 0.008377308 -0.29748833 -0.043930672
-0.05279405 -0.019739518 -0.012135732 -0.014206146 -0.06683424 0.14378591 -0.0379876 -0.15082347
0.13068539 0.26100808 0.05722561 0.09498408 0.14211708 0.068361826 0.10114669 0.095865
-0.2926581 0.08399904 0.24700324 0.0006768239 -0.24449205 -0.21864381 0.02390535 -0.23521537
0.010722242 -0.11340491 0.01562637 0.07188673 0.14584604 0.04529869 -0.021730008 0.13033092
-0.11136207 -0.019528694 0.095146894 0.09306872 0.12578681 0.18913835 -0.07387562 0.11135217
-0.07299699 -0.20393987 -0.3327943 -0.12373659 -0.23245828 0.18963675 -0.3833444 -0.06770811
0.030571 -0.111993045 -0.33127904 -0.0140928365 -0.029276328 -0.15043332 0.05777608 -0.17513177
0.039076895 -0.103102766 -0.064855196 0.068779506 -0.04748506 -0.0184246 -0.0537221 -0.23110804
0.14964208 -0.09742218 0.117172934 0.086411595 0.1338966 -0.07017618 0.32417417 -0.05801596
0.110114664 0.24348676 0.013825796 -0.011121367 -0.03037847 0.042431578 -0.009154036 0.15310249
-0.2395279 -0.00084208307 0.06695956 0.16937967 0.12707852 0.07708804 -0.22768241 0.15318018
0.06729491 0.036387157 0.06122369 0.048315197 0.2065493 -0.046797354 0.013395008 -0.081658415
0.031744603 0.07345321 0.018100327 -0.059662424 -0.24985616 0.071115255 0.178777 0.019832583
0.12589054 0.029508337 -0.04421046 -0.070658766 0.22744355 -0.05154468 -0.0062884595 0.066675074
0.056609515 0.09210746 0.043723483 -0.04129997 -0.08080592 -0.08342135 0.11531012 -0.22959907
-0.20125033 -0.05722264 0.09299547 -0.15242822 -0.10400895 0.04879061

conv1.0.bias f4 [6]
00000000: 54a5 26be e03c 55bb 12eb f9bd aed0 033e
00000010: e2b8 91be 4af0 65be
-0.16274005 -0.0032537505 -0.12203039 0.12872574 -0.28461367 -0.22454944

conv2.0.weight f4 [16, 6, 5, 5]
00000000: ce92 753d 4baa e63c 3045 7a3b c40f ccbd
00000010: 9e61 1bbe 3432 dfbc f1bd 6b3d 4436 6f3d
00000020: 84e9 4139 4593 f3bd 09e6 bcbd fe2c eebd
00000030: 6fac 3bbc 0dcf 013d beef 82bd c298 d2bd
00000040: cdd5 cdbd f472 1bbd f9f3 9cbd bce3 11be
00000050: 6096 86bd 7e66 46bd af47 6fbd 3509 e6bd
00000060: e17d 98bd 88f6 13bd 65b0 18be d3b8 2bbe
00000070: 0d80 04be 855d 8cbc 26a0 fb3d c29e c13d
00000080: e362 79bc 6ab5 65bd 3537 00be 33ed 013e
00000090: 277f 143e d890 853d 6033 e4bc dbe6 c6bd
000000a0: 4c32 83bd 0ed0 1ebc 7601 ab3d 811b 993d
000000b0: 8d9b 7dbb 9abe ee3b 272d d6bc f1de 8c3d
000000c0: d5d6 ad3d 41c8 93bd d1e1 a4bd 5fe8 d6bd
000000d0: 3ae0 e5bd 5d6f 9ebd 3593 f63d a0ed 1c3e
000000e0: 50c6 5abd c7a8 6fbe 2ae9 83be f8f3 40be
000000f0: 3e04 be3d a2aa 083e 001b d23d 7702 2ebd
00000100: 0e5f 09be fd81 eabd 27a2 8d3c f312 b538
00000110: 985d 3fbd 0f54 78bc 2637 93bc 75ee b53a
00000120: 3c0b a23c 3523 673d 9bcc cc3d 7ada b83d
00000130: cb24 903d 0408 463c 3c91 95bd 72c8 b4bd
00000140: 11b7 a4bd 4183 ed3c 6cf0 6e3d d946 2ebb
00000150: 9682 ef3b 4b86 20be 94d0 cfbd 4b20 b43b
00000160: 80ae 16bd 87fd 38bd 6d69 89bc 5c3d c2bd
00000170: 533f 32bd 8872 abbd 9e18 22be 85ea 98bd
00000180: bf1c debd 4581 dcbd 3e65 05bd ffef a7bc
00000190: cc40 5b3d 0d9d ebba 28de 963d 1051 983d
000001a0: 7f0d 813b 8abe fb3d c3e2 ad3d 8317 1a3e
000001b0: e99f fd3d 41ed 1cbd 73ff e6bc 7d65 403d
000001c0: bc5a 163e 950e f63d 6614 813d ea40 82bd
000001d0: ff6d fabd 7368 c5bd b128 0bbd 19ea cd3b
000001e0: 1162 9bbd 29dd 62bd 2489 b6bd 8e55 ffbd
000001f0: eb7e 03be fb99 38bd 3022 02be 94ec 0bbe
00000200: d85b e5bc b9d8 3dbc cc28 20bd fdc3 29be
00000210: 364d 54be 5d9e 64be bdb4 58be 6b0c 703d
00000220: 4723 223d a474 843c b3c8 91bd 4a90 0abe
00000230: eb4e 57bd 4054 67bc b936 a43c 78a6 55bb
00000240: 5777 0cbd 45e0 39bd 8da4 e1bd 16c2 82bc
00000250: d4d1 683d 7154 953c dcb7 893d b13e 6cbd
00000260: 09fd c2bd eb06 c0bd 0fa8 3abe b8fe 283b
00000270: fd5f febd 87c8 05be 0440 47be 931d 22be
00000280: 4329 9a3d 3015 b23c 2bf1 c0bc fd69 5fbb
00000290: a6a2 0c3c 2b8c 013e 639e 133e d868 ac3d
000002a0: f5ac 5c3c 2511 4dbc cc3a 163d c9cc d43d
000002b0: 74cf 53bd 0cf2 84bc 36e4 bd3b fed2 abbd
000002c0: 4de1 62bd 4d9f cdbd 44fa 0fbe 4e26 9fbd
000002d0: ab43 a7bd ae61 b03d 940e 57bd 4998 e7bd
000002e0: 3f6a e1bc 36b9 37be 5e88 9dbc 6726 08be
000002f0: 3014 dfbd 1bf6 44bd 9934 aabc 6183 89bc
00000300: 4d3a 483d 8aa8 de3d 463b 9fbc a7b1 c83d
00000310: de75 153c 0803 6d3d 3d99 8e3d 3bdc 32bd
00000320: 7eeb 643d cfb8 18bd 5f62 49be dd63 a0bd
00000330: 2195 093c 3326 513e 80f5 8bbc 9c82 7abe
00000340: b441 cbbd 54df c5bc cc26 f9bd 0258 9bbd
00000350: 6ad4 bbbd 71f6 67be 8a31 6abe 926c 37bd
00000360: 3417 523d 10e1 cebd 5095 ccbc 1888 d7bc
00000370: a1ac 5d3d 97aa 2d3b 123b 173e 5b49 37bd
00000380: 560c 0f3d a871 c03d 4f5d 6d3d 74c8 83bd
00000390: 3b71 dabd d7dc f2bd 1829 cb3c b65a 3a3d
000003a0: 918d 9cbc 6988 d03b 8269 acbd 4d0b b43d
000003b0: 4951 403d a5f7 9c3d f3d8 7fbb 516b 933d
000003c0: f781 c73d 6e51 08bc 7c71 68bc 45de 6ebb
000003d0: 1475 16bd 84e7 88be 0e33 53be 23a8 0dbe
000003e0: 1952 18be 90aa 1dbe 4d3a 0e3c 1ffa eabd
000003f0: e504 e93b 2fc4 63bb 81de 92bd 07b1 4ebc
0.059954457 0.028157374 0.0038188212 -0.099639446 -0.15173957 -0.027245618 0.05755419 0.05840136
0.00018492906 -0.11893324 -0.09223563 -0.11629675 -0.011454686 0.0316916 -0.063933834 -0.102830425
-0.10050545 -0.037951425 -0.076637216 -0.1424703 -0.065716505 -0.048437588 -0.058417972 -0.11232225
-0.074458845 -0.036123782 -0.14911039 -0.16769724 -0.12939472 -0.017134437 0.12286405 0.09454109
-0.01522133 -0.056081213 -0.1252106 0.1268814 0.1450163 0.065217674 -0.027856529 -0.09712001
-0.06406078 -0.009693159 0.08349888 0.07475949 -0.0038697452 0.007285905 -0.026144577 0.0687846
0.084882416 -0.0721593 -0.080508836 -0.1049354 -0.112244084 -0.077360846 0.12039796 0.15325022
-0.05341178 -0.23404227 -0.25763828 -0.18843067 0.09278153 0.13346341 0.10259056 -0.04248282
-0.13415167 -0.114505745 0.017289234 8.634282e-05 -0.046720117 -0.01515676 -0.017970633 0.001388027
0.019780748 0.05643006 0.09999963 0.09026046 0.07038268 0.012086872 -0.07303092 -0.088272944
-0.0804273 0.02899325 0.058334753 -0.0026592521 0.007309268 -0.15676229 -0.10147205 0.0054970137
-0.03678751 -0.045163658 -0.016773904 -0.094843596 -0.043517422 -0.083714545 -0.15829703 -0.07466606
-0.10845327 -0.10766844 -0.032567255 -0.020500181 0.053528592 -0.0017975882 0.07366592 0.074373364
0.0039383764 0.12292202 0.08490517 0.15048032 0.12384016 -0.0383122 -0.02819798 0.046971787
0.1468305 0.120145 0.06302719 -0.063600376 -0.12228011 -0.09639063 -0.033974353 0.00628401
-0.07587064 -0.055386696 -0.08912876 -0.1246749 -0.12841384 -0.045068722 -0.12708354 -0.13664466
-0.027997896 -0.011587315 -0.039101407 -0.1657867 -0.20732579 -0.22326036 -0.21162696 0.058605593
0.039584424 0.0161689 -0.071183585 -0.13531604 -0.052565496 -0.014119208 0.020045625 -0.0032600444
-0.0342935 -0.045379896 -0.11017714 -0.015961688 0.056840733 0.018228741 0.067245215 -0.057676975
-0.09520919 -0.093763195 -0.18228172 0.002578659 -0.12420652 -0.13064776 -0.19458014 -0.15831594
0.07527401 0.021738619 -0.023552498 -0.0034090274 0.0085837 0.12651126 0.14415888 0.08418435
0.013468971 -0.012516295 0.036677167 0.10390622 -0.051711515 -0.016228698 0.005795027 -0.08389853
-0.055390645 -0.1004015 -0.14060313 -0.07770978 -0.081672035 0.08612381 -0.052504137 -0.11308343
-0.027516482 -0.17941746 -0.019230064 -0.132959 -0.10892522 -0.048086267 -0.020777034 -0.01678628
0.048883725 0.1087199 -0.019437443 0.097995095 0.00912234 0.05786422 0.06962822 -0.04366706
0.055888645 -0.037285622 -0.19666432 -0.078315474 0.0083973715 0.20424728 -0.017084837 -0.24463886
-0.09924641 -0.024154343 -0.12165603 -0.075851455 -0.09171374 -0.22652604 -0.2287046 -0.044781275
0.05129166 -0.10101521 -0.024973541 -0.026310012 0.05411971 0.0026499385 0.14768627 -0.04474769
0.034923874 0.09396678 0.057950314 -0.06434718 -0.10666128 -0.11858528 0.024799868 0.045496665
-0.019110473 0.0063639176 -0.084185615 0.08791218 0.04695252 0.07664422 -0.0039039224 0.07198203
0.09741586 -0.008320196 -0.014187213 -0.00364484 -0.03673275 -0.26739132 -0.20624945 -0.1383367
-0.14875068 -0.15397096 0.008680892 -0.11473488 0.007111179 -0.0034754386 -0.071713455 -0.012615449

conv2.0.bias f4 [16]
00000000: c6f3 74be 70ec 59be 976a 9abe 9df7 54be
00000010: 0d21 c2be 00ce a3be 8b8a 22bf 4d7f b1be
00000020: 5dfd 2cbe ce20 58be 529e cabe 781c 35bd
00000030: 0ea7 3bbc c398 09be d0ef 2bbe 4992 14be
-0.23921117 -0.212816 -0.30159447 -0.20797582 -0.3791584 -0.31993103 -0.6349265 -0.34667435
-0.16893525 -0.21106264 -0.39573914 -0.044216603 -0.011453403 -0.1343718 -0.167907 -0.14508928

fc1.0.weight f4 [120, 400]
00000000: 2191 b33c e970 36bd 58d8 d93d 7ad3 953d
00000010: 788d 683d ee02 c43a 59c8 85bd bfcb 1c3d
00000020: 03c4 043e 0652 a03d 5b66 da3c f226 bf3d
00000030: df00 ac3d cdc2 c53c 5826 10bd b7d0 163d
00000040: 0fe2 b3bb 4686 5cbc 00c3 4a3d 1b0a a7bd
00000050: 1695 df3d 59ba b73b 3bdd bcbd de11 b8bb
00000060: b214 e83d 9306 99bc d4d9 cbbc aaa9 3e3d
00000070: 0c1f b93c 0026 5c3d 56b6 103d 91f5 273d
00000080: abe5 df3b bc65 3abb 78ef 4d3d c1a6 76bd
00000090: 1cb4 e6bc 4501 6d3d 011a 583d 1f2f a2bd
000000a0: 2199 a63d fd4b 683d 4822 0d3d 5274 94bb
000000b0: e039 dc3d 4453 e13d 4227 e23c 4457 e1bd
000000c0: d463 4abc 4e8e f13a d7fd 363d 1bda da3d
000000d0: 9325 8a3d f4b8 1c3d 3880 5fbc b009 e23d
000000e0: 8a11 033e 7ab6 aa3d 3dea dbbd 2b77 50bc
000000f0: c466 5b3e 688f e13c 13c5 24bd 07d0 07be
00000100: 302c a43d b1e2 0a3e 8b09 463d c342 35ba
00000110: 53b6 b7bb f7e6 5abd 7a51 89bc 0f19 213d
00000120: 9d4a 883d 0072 aabd b628 3dbd 8bd5 963d
00000130: 07a0 883d 074e 223e d5e7 633e 5eca 9a3d
00000140: 0dba 583e eb94 623e 6a24 a33c 4734 c0bc
00000150: a7e8 dabc 05dd 453e 7a57 fe3c 7f73 83bc
00000160: 1aed 7ebd c5ed 103d b7c0 73bd 49a5 123d
00000170: f148 443d 74e9 39bd 5c01 743d 179a 863d
00000180: 3501 afbc 510d 49bd 4a25 06be 13a8 113c
00000190: 2ee8 033e 3512 cc3d 5cf2 cd3d 38db a93d
000001a0: 1b56 89bc b507 283e 01bf bc3d 064d 543d
000001b0: 4b94 d73c 5c06 313d d08e 6c3d 20e0 f9bc
000001c0: 1563 463d 1934 94bc e540 f3bc 7851 013d
000001d0: e1ab 743d 9252 f63d bbbf 23bd eb5e 353d
000001e0: 77e8 1e3d be13 d0bb 4ea8 6bbd 3bbf 15bd
000001f0: fb78 06bc 1bab 9a3d a70c fcbc 4c05 20be
00000200: a037 67be 357f 8cba a115 733d 7033 d9ba
00000210: 89f0 69bd 27e1 c4bd 9a13 c3bc fb5f b5ba
00000220: e75a 83bd 0d5d abbd 4e14 cebc 67ba df3b
00000230: d332 073e 77e6 10bd ed76 f7bc 59dd 5abc
00000240: ae6a 273b d116 dabd 4e38 40bd 5357 f83c
00000250: 9135 f339 e850 1ebd 4aee e63c f9ba b13d
00000260: 381b 99bd 52f3 25be 9e2d 16bd 620b 15bd
00000270: 3bc7 90bb 06c4 babd 257c ffbd 3dca d6bd
00000280: d47b f63b 43c6 f03a 6ef9 1fbe 18b2 8fbc
00000290: 50cd 3f3d bb6b b83c 09e3 bcbd eee9 5cbb
000002a0: d7e5 18bd eb2e 10bc 1be2 ee3c 6c28 7a3b
000002b0: 7d3b 5e3c b34d 833d a06a e4bd 0c83 04bd
000002c0: 038f 903d 07ee 173e 8533 9a3d 12a8 57bc
000002d0: aca6 c03d a495 0b3e 388f a73d 1500 d93d
000002e0: 7891 3ebd f270 003e 3658 713d ab9f ac3d
000002f0: 46b2 46bd ba87 33bb 6d62 4d3e 9089 463d
00000300: 3b1a 2bbd c771 aa3c 0ab7 fe3d d5b1 fb3d
00000310: b5f6 a23d c7c8 debc df8a ae3b ebac d9bc
00000320: 88e0 103c a0fa 86bd cbe6 07be f8dc 29bd
00000330: 4dfd 993d 8949 92bd 6469 c13d 7338 0e3c
00000340: 5e03 253d 7161 86bc 32d1 5d3d 2b6f 8c3d
00000350: 333a 8fbd 2eb6 aabd b9b4 ac3d d1a6 173e
00000360: 387b 0d3c b1b2 e9bc b26b 63bd 63cd cc3b
00000370: c188 bbbc 7ac9 e03c 3ffe 4b3d 2a62 1d3c
00000380: 9876 7cbd fb69 f1bd 3c13 8cbd 684c 88bd
00000390: 2c88 b4bd 343b e7bd 4383 8c3d b4bd b5bd
000003a0: bbfd d3bd 55f6 84bd b371 193d 68a9 bcbd
000003b0: c2bc 4bbd 9770 80bd adb1 863d 7d36 ae39
000003c0: c34a 703c 3a1e 74bd 22b4 22bd 4d67 6e3c
000003d0: 7928 883d f0da f43b f943 ab3d 245f dfbc
000003e0: 8e78 24bd 6a42 89bd 9018 443d 4cc4 463d
000003f0: 821c 713d 83cd 393c a4ae 8cbc 423e 023e
0.021919789 -0.044541273 0.106369674 0.073157266 0.05677554 0.0014954486 -0.06532354 0.038280245
0.12965398 0.07828145 0.026660135 0.093336 0.08398604 0.02414074 -0.035192817 0.03682014
-0.005489595 -0.013459748 0.049502373 -0.08156224 0.10917108 0.005606931 -0.09221884 -0.0056173643
0.11332072 -0.018679893 -0.024884142 0.046548523 0.022597812 0.053747177 0.03533014 0.041005675
0.0068327985 -0.0028441986 0.050277203 -0.060217623 -0.028162055 0.05786254 0.052759174 -0.07919144
0.08134676 0.056713093 0.03445652 -0.004530468 0.10753226 0.1100221 0.02760661 -0.11002973
-0.012352902 0.0018429251 0.044675674 0.106861316 0.06745448 0.038262323 -0.01364141 0.11037004
0.1279966 0.08335586 -0.10738037 -0.012723724 0.2142592 0.027534202 -0.040227007 -0.1326295
0.080162406 0.13563038 0.048348945 -0.00069145503 -0.0056064515 -0.05344292 -0.016762484 0.03933054
0.06654856 -0.08322525 -0.046181403 0.07364949 0.06671148 0.15850078 0.22256406 0.0755813
0.21164723 0.2212712 0.019914825 -0.023462428 -0.026722265 0.19322594 0.031047571 -0.016046284
-0.062237836 0.035383005 -0.05950996 0.03580216 0.047921125 -0.045388654 0.05957161 0.06572359
-0.02136288 -0.049084965 -0.13100162 0.00889017 0.12881538 0.0996441 0.10055992 0.08293766
-0.016764691 0.1640919 0.092161186 0.051831268 0.026315829 0.043218955 0.057753384 -0.030502379
0.048434336 -0.018091248 -0.02969403 0.031571835 0.05973423 0.12027468 -0.03997777 0.044279974
0.038795915 -0.0063500097 -0.057533555 -0.036559325 -0.008207555 0.07552167 -0.030767752 -0.1562702
-0.22579813 -0.0010719063 0.0593468 -0.0016571116 -0.057114158 -0.09613257 -0.023813058 -0.0013837809
-0.064138226 -0.083673574 -0.025156166 0.006827641 0.13202982 -0.03537604 -0.030208075 -0.013358437
0.0025545764 -0.10648883 -0.046928696 0.030315077 0.00046388482 -0.038651377 0.028189797 0.0867824
-0.07475895 -0.162061 -0.036664598 -0.03638781 -0.0044182814 -0.0911942 -0.124748506 -0.10487793
0.0075220857 0.0018369633 -0.15622494 -0.017540976 0.04682666 0.022512307 -0.09222991 -0.003370877
-0.037328567 -0.008800249 0.02916055 0.0038171066 0.013563988 0.06411304 -0.111531496 -0.03235154
0.07058527 0.14836894 0.07529358 -0.01316263 0.0940679 0.13631302 0.08181614 0.10595719
-0.04652545 0.12543085 0.058922015 0.08428892 -0.04850986 -0.0027394132 0.20057078 0.048471034
-0.041773062 0.020806206 0.12437256 0.12289778 0.07957212 -0.027195347 0.0053266133 -0.026571712
0.008842595 -0.06590772 -0.13271634 -0.041470498 0.075190164 -0.07142932 0.0944393 0.008680451
0.040286414 -0.016403886 0.054154582 0.06857141 -0.069935225 -0.08335529 0.084329076 0.14809729
0.008635335 -0.02852759 -0.055522628 0.00625007 -0.022892358 0.027439822 0.049803015 0.009605924
-0.061636537 -0.11787792 -0.06839606 -0.06655198 -0.08815035 -0.11290589 0.06860974 -0.088740736
-0.103511296 -0.064922966 0.037461948 -0.09211999 -0.04974056 -0.06271475 0.06576858 0.00033228463
0.014666262 -0.05959914 -0.03972257 0.014550996 0.066483445 0.0074723884 0.08362574 -0.027267046
-0.040154032 -0.067021206 0.047874987 0.048527047 0.058865078 0.011340502 -0.017173119 0.12719062

fc1.0.bias f4 [120]
00000000: b993 5f3d d53f 403e 90dc c13d fb15 5cbd
00000010: 04c0 143e f922 20bd 40e3 a73c 1c9b cb3b
00000020: 0bd9 e53d 01ad 133e a778 2a3e aab4 ecbc
00000030: 1f73 8dbd 19d5 f5bd 5ab1 ff3c 63f6 10be
00000040: da77 e9bc 3e8a 163e a641 643e 9688 c9bd
00000050: ed83 943e 1f8f 22bd 7db9 043e a45b 3cbe
00000060: 99f7 c83c 9816 963d 0a74 4d3e b13e 49be
00000070: 987d 72be fa7a 053e a5c3 eebc 9b4d 6dbe
00000080: 3730 dfbc 5de7 84bd f21c 0c3e bec0 0abe
00000090: 22e1 97bd ed51 553d 973e cc3d 5f07 683d
000000a0: 1972 043e 63e8 6abd 770c c2bd 0781 6bbc
000000b0: 3a81 4a3d 213b 613c ea40 6c3e 7a9e 91bc
000000c0: 14fb 173e dc9b f8bd 905e adbb 4d84 27bd
000000d0: 546b c5bd 188a e93c 111e 103d 09ec 94bd
000000e0: 0199 be3d 523a 78be 8a42 ad3d a7c5 d2bc
000000f0: bc03 f7bd 059b 9a3d 8961 d7bd af02 5c3b
00000100: c615 9dbd 36ed 95bd f513 2bbe 4b38 48bd
00000110: 195b c83d ddfc 883d 0b9b a2bc 2915 6dbd
00000120: 7b03 223e 1fde 4c3e 1aef aebd d859 1cbc
00000130: eb02 60be d857 f0bc 94ea e7bd 3456 b73d
00000140: 8d39 593e dc72 6e3d f4ed 0f3e e69b 933d
00000150: 076d 61bc 9332 3dbe aff9 1e3e c7ce 59bc
00000160: df74 1cbd e865 88be 687e 303a f95a ddbd
00000170: ea47 a23c 64d5 593b 639b c83d 4a10 0c3d
00000180: 6e37 4c3e 4bf3 5a3c 461a 27be 2867 f1bd
00000190: f340 a63d a9ba 033d af69 9dbd d755 02bd
000001a0: ed00 ed3d 98fb 2a3c da9d 263e e429 033e
000001b0: 4e68 53bd 1bf5 c23c 3314 bb3d ebf5 7abc
000001c0: 310c 56bd 6226 363d 463a 8c3a 31a6 7ebe
000001d0: fd18 f23d 6bd3 a9bd a42f 85bd 09b0 533e
0.05458424 0.1877435 0.09465897 -0.0537319 0.14526373 -0.039095853 0.020494103 0.006213559
0.11223038 0.14421465 0.16647588 -0.028894741 -0.06906723 -0.12003536 0.031212498 -0.14156489
-0.028499532 0.14701173 0.22290668 -0.09840505 0.290069 -0.039687272 0.12961383 -0.18394333
0.024532126 0.07328528 0.20063797 -0.19652821 -0.23680723 0.13035193 -0.029146025 -0.23174135
-0.02724467 -0.064894415 0.13682917 -0.13550088 -0.074159876 0.052080084 0.099728756 0.056647655
0.1293415 -0.057350527 -0.09475034 -0.014374024 0.049439646 0.013747008 0.23071638 -0.017775763
0.14841872 -0.12139103 -0.0052908137 -0.040897656 -0.09639612 0.028508231 0.035184924 -0.07271583
0.09306527 -0.24240997 0.08459957 -0.025729014 -0.12061259 0.07549099 -0.1051665 0.0033570935
-0.076701686 -0.07320635 -0.16706832 -0.04888181 0.097830005 0.06688855 -0.01984932 -0.057881508
0.1582164 0.20006607 -0.08541699 -0.009542905 -0.21876113 -0.029338762 -0.11324039 0.08951989
0.2121336 0.058215007 0.14055616 0.0720747 -0.013758904 -0.18476324 0.15524934 -0.0132939285
-0.038197394 -0.26640248 0.0006732703 -0.10808367 0.019809682 0.0033238763 0.09795263 0.034195222
0.1994302 0.01336367 -0.16318616 -0.117872536 0.08117857 0.032160435 -0.07686173 -0.031820145
0.11572442 0.010435961 0.16271153 0.12808949 -0.051613145 0.023798516 0.09134712 -0.0153174205
-0.05225772 0.0444702 0.0010698519 -0.24868084 0.118211724 -0.08292278 -0.06503227 0.20672621

fc2.0.weight f4 [84, 120]
00000000: a9d9 c43d 50ea 7d3d 980e 17be 5a34 17bd
00000010: 2fbe dcbc c5fb 2abe 5dba e4bd f54e f53c
00000020: 25b9 18be bb92 9f3d a2ac 28be 6512 cb3d
00000030: 6dce 8b3c 3a88 173e 0e40 42bd 09c4 a93c
00000040: 1203 c7bd 9116 503d 90dc 0cbe b59d b23c
00000050: b0a1 be3d 7b42 5dbd 0067 923d 2587 1cbd
00000060: e5f2 fbbd 997c 9ebd 5c94 32bd 3109 bb3c
00000070: bd0e 5b3d 0b3d 673d 2a94 f4bd c375 ab3d
00000080: ed74 c73d b2a2 b03c 7e78 593c 5105 e1ba
00000090: 172c 58bd b274 53bd 4d07 44bd 4d84 21be
000000a0: b5a4 57bd 79d5 90bd be0f c33b 8eeb b03d
000000b0: d33b f5bd 4f43 02bd 706f 00bd 54ed e7bd
000000c0: e7b1 2a3e 9a9c 5dbd a845 35bd 0bd8 423d
000000d0: 7a83 843d 27b2 ff3d b2de 213e 41f3 25be
000000e0: 4f4c 36bd bd72 06bd d8d7 2d3c 566a 89bd
000000f0: 0b2b bc3d 1084 b1bc 9462 e3bd 2e40 763d
00000100: 9b2b 8bbc aafc 2abe 484c 41bb 160c b83d
00000110: 1b7a ffbc 6400 cb3b d1e9 a3bd 87e9 e3bc
00000120: 558c 11bd c5a0 dabb 4edc c03d 848a 5cbd
00000130: 96b6 423c ed96 983d 0e47 a43d b78c 6d3b
00000140: 848e b8ba 227c ec3d 1b20 40be 7549 e5bd
00000150: fbc0 463e 425e 203e 97b3 bc3d 78c8 49bd
00000160: bf4c 383c 4119 803e 5555 3c3d f854 3fbd
00000170: 4b5c db3c c939 84be c2f3 bdbd 8c27 8f3d
00000180: 71fe 0bbd 342a 1f3d 100d c3bd aa4b c93d
00000190: ff75 4f3c 4460 ff3c b7b4 8c3b 48ee e73d
000001a0: 89bc ffbd 7cc1 f3bc ef56 2c3c ddbb 61bd
000001b0: 0830 d73d 0b7c 75bd ac70 a03d 4372 003e
000001c0: 42cd a23d a9f9 2dbd 87c4 2a3d b560 093e
000001d0: 05cf 93bd a872 1dbc e41e 01be 1df1 c9bd
000001e0: 474c 383e 48f5 763e 78e2 183c 9d3c d83d
000001f0: 5a02 793d ce9e b7bd 4ce3 10be 45c9 81bd
00000200: d8ec 55bd 29a6 73bc c69e 80bb 6532 083e
00000210: 9548 debb d7ec 593e e9df 1dbc 0633 3dbd
00000220: a174 9cbd a0d5 933c 8a2f f93d 2318 34be
00000230: ef09 433d 7f0f 36be 3a21 b23d 6936 09bd
00000240: 9131 093e 33e7 cf3c f1a4 ac3d a49b 41be
00000250: 1d20 dabc 064a a03d 4270 83ba 340d 873c
00000260: bbcb 46bc 0726 9abb f736 393d c3d8 793d
00000270: 6293 3dbe 43dd 09bd 2758 0c3e d7c1 4d3d
00000280: 84ce 07be ff0c 52bd 09ed 313d 947e 5abd
00000290: a3e2 3b3e 0279 3a3d 6153 903d 9bb4 36bd
000002a0: d8e1 523d 066e 943c 4709 3d3d 10b5 27bd
000002b0: 0f74 22bd f687 ee3a 0548 d03d d237 0bbe
000002c0: c618 593d a6c8 153d 37c7 c33b 4961 1fbd
000002d0: 939a 9cba 113b 433d a406 8dbc 2882 34bd
000002e0: ce9c 3fbe 340f 9b3d f281 54bd 1c1e 46be
000002f0: db42 903b 0145 a73d 6c0c eebd 72e7 223c
00000300: f885 24bd b22d 023e 9551 883c 2cd7 15bd
00000310: 9f20 8abe b8be e33d 37e7 37bd d441 17bd
00000320: f7a0 a63c 86f0 853d 6ba9 973d a53a e03c
00000330: 15d6 8ebd f81b c33d 4f9e 3cbd 97da bcbd
00000340: f1ff 513d 62ef 16bd 43b7 c0bd 8ee8 733d
00000350: 1f38 1cbc bbdc 14be 29bf 403d 03c6 173d
00000360: fa19 163e f73a 80bc 6a8e 823c b7e2 003d
00000370: dc76 cd3d 42a5 ff3d 03aa 9a3c bb01 c83d
00000380: debd 01be 187a 293d c130 82bd d454 a53d
00000390: 1c1c 79bd ce65 e8bc 88a2 43bd f4d9 b8bc
000003a0: b6ae 92bd f925 6fbd 83dd 9b3d 71f9 0fbd
000003b0: 2a8a 0b3e 0be3 cdbd 0686 553d 6758 483c
000003c0: 5cae 193d e7e4 0a3e 6f89 c8bd 6b8c d6bc
000003d0: af85 fb3c f6d6 0cbe 3474 cf3d 3f12 8f3d
000003e0: 844a 133e b2ce 073d d217 8fbd 21b4 c23d
000003f0: 03b6 9ebc 7c31 01be cdea e1bb 00ec e0bc
0.09611828 0.061991036 -0.14751661 -0.03691516 -0.026946155 -0.16697605 -0.111683585 0.029944876
-0.14914377 0.077916585 -0.16472104 0.09915618 0.017066205 0.1479806 -0.04742437 0.02072336
-0.097173825 0.05080277 -0.13756013 0.021803716 0.09308183 -0.05401848 0.07148552 -0.03821482
-0.12302188 -0.07738609 -0.043598518 0.022831531 0.053480852 0.0564547 -0.119423226 0.08372071
0.09739099 0.021561954 0.0132733565 -0.0017167722 -0.052776422 -0.05162496 -0.047858525 -0.15773125
-0.05264731 -0.07071967 0.0059528043 0.086386785 -0.11974301 -0.03180247 -0.031356275 -0.113245636
0.16669427 -0.054104425 -0.044255883 0.047569316 0.0647039 0.12485152 0.15807608 -0.16206075
-0.044506367 -0.032824267 0.010610543 -0.06709735 0.09187897 -0.021669418 -0.11102787 0.0601198
-0.016988566 -0.16697946 -0.002949493 0.0898668 -0.031186154 0.006195115 -0.08003581 -0.027821315
-0.03553422 -0.0066719973 0.0941702 -0.053843036 0.011884352 0.07450662 0.08021365 0.0036247203
-0.0014080559 0.11547114 -0.18762247 -0.111956514 0.19409554 0.15660957 0.092139415 -0.049263448
0.011248766 0.25019267 0.045979816 -0.046711892 0.026777407 -0.25825337 -0.09275009 0.06989965
-0.0341782 0.038858607 -0.09523976 0.09828885 0.01266241 0.031173833 0.004294004 0.113247454
-0.12487132 -0.029755346 0.010518773 -0.0551108 0.10507208 -0.05993275 0.078339905 0.12543587
0.07949306 -0.042474423 0.04169133 0.13415797 -0.0721722 -0.009609856 -0.1260944 -0.09860442
0.17997847 0.24117005 0.009331338 0.10558436 0.06079326 -0.089658365 -0.14149207 -0.06337217
-0.052227825 -0.014871159 -0.0039251773 0.13300474 -0.006783555 0.21281753 -0.009635904 -0.046191238
-0.07639433 0.0180462 0.121672705 -0.17587332 0.047616895 -0.17779349 0.08697744 -0.033499155
0.13397814 0.025378799 0.084298976 -0.18907028 -0.02662664 0.07826619 -0.0010027962 0.016485788
-0.012133534 -0.0047042402 0.045218434 0.060997736 -0.18513253 -0.033658277 0.13705502 0.05023369
-0.13262373 -0.051281925 0.043438945 -0.05334337 0.18348174 0.04552556 0.07047153 -0.044605833
0.051484913 0.01811887 0.046151426 -0.04094416 -0.039661463 0.0018198479 0.10169987 -0.13595513
0.05300214 0.036568306 0.005974676 -0.038911138 -0.0011947922 0.047663752 -0.01721508 -0.04406944
-0.1871216 0.07571259 -0.051881738 -0.19347423 0.004402501 0.08167458 -0.11623463 0.009942876
-0.040166825 0.12712744 0.016640464 -0.036582157 -0.26978013 0.11120361 -0.044898238 -0.036928013
0.020340426 0.06540017 0.07405361 0.027371714 -0.06974427 0.09526819 -0.046049412 -0.0922138
0.051269475 -0.036849387 -0.094099544 0.059547953 -0.009534865 -0.14537327 0.047057305 0.037054073
0.14658347 -0.015653117 0.015937049 0.031466212 0.10032436 0.12482692 0.018879896 0.09765955
-0.12670085 0.041376203 -0.06356955 0.0807282 -0.060817823 -0.028368857 -0.047762424 -0.022564866
-0.0716223 -0.058385823 0.076106094 -0.035149995 0.13626924 -0.10053071 0.052129768 0.012228108
0.037519798 0.13563882 -0.097918384 -0.026190003 0.030703394 -0.13753876 0.10129586 0.06985902
0.14383894 0.033156104 -0.06986965 0.09507013 -0.0193739 -0.12616533 -0.0068944455 -0.027456284

fc2.0.bias f4 [84]
00000000: 3f92 54bd 57e4 613d 1a05 b33d 04e2 613d
00000010: 1456 b4bb 8f6f 153e 8e63 853b 21d0 dfbb
00000020: 8dae c93a f743 02be 15f7 c8bd c831 6e3d
00000030: d9ad 2a3d 6d31 5bbd 1a29 363b 1975 8b3d
00000040: 90b3 29bd cda6 adbd 148f 87bc 9767 de3d
00000050: fe90 d63c cb42 33be 791f 07bd 5261 df3c
00000060: 9675 963c 73e0 1a3d 2831 87be 0353 d83c
00000070: a451 81bd cfda 16bd a7f0 28bd 131a 3c3e
00000080: 246e 75be 6f00 333d c6ce c2bd 8472 0b3d
00000090: fcbf 10bd 491f 913d 2667 3d3e a459 3e3e
000000a0: 29df f03d bd83 16bd fa50 d83a 8335 09be
000000b0: 5958 40bc 6aab c23c 19ab 093e 1ffb c13d
000000c0: 0918 86bd 82a8 06be f43b 9f3d 9e21 5dbe
000000d0: f4ea 9ebd 01c6 f33d 0c4f f13c 1695 dabd
000000e0: 7a54 00bd fb60 ccbd c2e8 5a3d 1ad5 89bd
000000f0: 631f bf3c d9ca 15be 382b 32bc 9fe2 acb7
00000100: 1710 a23d 3bf4 dd3d 6a6a 19be 1070 67be
00000110: 3fba dd3b 30ba 25be 0f1e 13be 5f64 913d
00000120: a3fb c5bd 9272 08be d416 de3d 5d99 63bd
00000130: fa60 bd3d 14e4 f03c e8b2 13be 3ad4 6abd
00000140: bd70 62bc eeb0 06bc b4c3 b33d 84e0 81bd
-0.051897284 0.055149402 0.087412074 0.055147186 -0.0055034254 0.14593337 0.0040707057 -0.006830231
0.0015387103 -0.12721239 -0.09812752 0.058152944 0.0416697 -0.053513933 0.0027795495 0.06809444
-0.04143101 -0.0847908 -0.016547717 0.10859602 0.026192185 -0.17505948 -0.032989 0.027268086
0.018366616 0.037811708 -0.2640469 0.02640677 -0.063144 -0.036829766 -0.04124513 0.18369322
-0.23967797 0.043701585 -0.09512095 0.034044757 -0.03533934 0.07086045 0.1849638 0.18588883
0.117613144 -0.03674673 0.0016503625 -0.1339932 -0.011739814 0.023763377 0.13444175 0.09471726
-0.06547553 -0.13150218 0.07775107 -0.21594855 -0.077596575 0.119030006 0.029456638 -0.10672967
-0.031330563 -0.09979435 0.05344463 -0.06730099 0.023330396 -0.14628161 -0.010874562 -2.0609526e-05
0.07913225 0.10837599 -0.14982 -0.22601342 0.006766587 -0.16184306 -0.14366935 0.070992224
-0.096671365 -0.13324955 0.10844198 -0.05556618 0.092470124 0.029405631 -0.14423716 -0.0573313
-0.013820824 -0.008220894 0.08777562 -0.06341651

fc3.0.weight f4 [10, 84]
00000000: 02db 0b3e fe95 80be 7ca9 ccbd 53b7 813d
00000010: ca4d cabd 58b0 f43d 5f7b 1fbe 6c56 323e
00000020: 70b6 b53d 10f2 6a3e 9807 f93d c6d2 12be
00000030: 244e a13e d10e 8d3e 2522 c93d 1c11 973d
00000040: a602 abbd 9bd4 64be 4979 9ebd 6ab4 39be
00000050: f876 b93d 0b69 4a3e 9980 1c3e d96b 47be
00000060: edfb b43e dab5 fabd a41f 433e 3862 39be
00000070: c114 df3d 241d 12be 7c40 71be 381c 54bd
00000080: b758 8d3e 9922 bfbd 1ede 273e dd30 34be
00000090: 402b b03d 7177 aebd 0d5b a13c 4f29 87bd
000000a0: 5977 143e acac 02be 26ab 053e 4e92 3f3e
000000b0: d170 20be 6ddb 413e 755c 74be b111 31be
000000c0: 8263 85be f765 a53d a9ba 823e 1f57 eb3d
000000d0: 6621 a93d 05db 9e3d f904 13be 9e92 a7bd
000000e0: 6a6d a33c 686e 2c3e 5529 38be 98e6 213e
000000f0: e322 ec3c fc6c 8b3c ebde f5bd 4f30 2f3d
00000100: e620 e0bb cda2 e9bd b5cb 66bd a923 7f3e
00000110: cd64 1d3e 4560 963e 59f6 213e 53fc 53be
00000120: b960 bb3d fd72 323e 67fb 1abe b842 3ebe
00000130: eaa3 533e 8efb b6bc 6ee3 013e b0e3 24bc
00000140: 0d48 363e 7098 4b3e bfd9 1fbe c0e3 943e
00000150: a9db 1abe 2cab 6a3d faa9 553e dab0 cbbd
00000160: da65 103e 87f4 babd 6e9a 88be 9728 22be
00000170: 7a2e b0bd 53be 1fbe eb6d 70be 3ef5 033e
00000180: 3a2f 8d3e a244 6f3e e781 8f3e cfe2 783e
00000190: c74e 713e 943d 2bbe b1da 643e 8993 633e
000001a0: 4ca8 843d 2a2d 27be 8ca0 a83d 82d0 5dbe
000001b0: f1d2 593e 74f5 14be 9c31 0dbe 2e59 3f3e
000001c0: 04e0 4dbe bff5 c0bd 71c7 083e 20b1 343d
000001d0: 14b5 5d3e 84d7 243e 3506 4bbe ebf6 113e
000001e0: e441 9fbe ee16 713e 76c5 3dbc 5ff2 fd3d
000001f0: ca38 1dbe 73b3 1fbd daef 503c 3d41 83bd
00000200: ed23 c03d 3b97 223e 7673 523e 4a5d dcbd
00000210: 2548 09be cc83 ec3d 8448 383e 8cd9 23be
00000220: de81 aabe cebe 183e 36eb 543e 1240 46be
00000230: 4adc 143e fe9b d33b e932 513b ebe1 0e3e
00000240: c067 dc3d 2447 f63d 2c43 f43d 18ca 65be
00000250: 6791 dc3c 3213 41bd 974e 6b3e 78f1 d7bd
00000260: fbd7 83be 1445 233e 81d1 0cbe 986a 683e
00000270: a418 53be 399e 14be 0374 463e 10b2 1ebe
00000280: b90e 21be ebb5 1b3e ed4d eabd 9fa5 84be
00000290: b4ef 4bbe 8ae6 bf3d 0b54 0fbe bfaa debd
000002a0: 6d6a e6bd 51fd ef3c 2822 a9bd 16a1 093b
000002b0: d4a5 1abe 0676 083e 36a9 a43d 1e5d 31be
000002c0: 2910 0a3d 96e3 c0bd eaae 32be 9379 47be
000002d0: 5b1d acbd 3b7d 45be 57c7 d5bd 54ba 293e
000002e0: 0a23 d63d 5262 0abe ecf4 eabd 18e5 223e
000002f0: 0aca e4bd 995c 473e 4a28 2abe d5d7 893d
00000300: 7602 5e3e 04d6 11be d7cd f1bd c084 30be
00000310: f0dd 10be e2cb 313d 15c3 033d 780d 333e
00000320: 1f53 f83d 2020 e3bd 78cc 5abe a657 5c3d
00000330: d22c 233e 8053 ed3d e76d ec3d da35 933c
00000340: ab1a 7f3e 557f 6abe 2eb9 44be 61f7 293e
00000350: 9687 493e c05c 183e ebe7 143d 507e 603e
00000360: 9413 20be 302a 36be bfcc 40bd 86d4 3dbe
00000370: 489b 0abe 040e af3d c906 48be c465 ec3d
00000380: 454c 44be 7f20 d33d 0834 473e 24f0 0c3d
00000390: 35c1 ff3d 3e15 f8bd d349 b3bd 98b0 c43c
000003a0: 6637 653e 56f8 37be 3e77 99bd f932 ebbd
000003b0: 4ca8 eb3d d47b 63be b610 78be cece 163d
000003c0: 9814 cd3d 00e2 29be 6c23 81be 9e11 e2bd
000003d0: 43a3 113e 88b8 373e e95f 8d3d db78 7c3e
000003e0: 7578 b6bd 9edc 483e 2786 acbd e284 31be
000003f0: 1d45 e1bd 4740 c6bd 2ddc febd eba4 4c3e
0.13657764 -0.25114435 -0.09993264 0.063337944 -0.09878118 0.119476974 -0.15574406 0.1741578
0.08872688 0.22943902 0.121596515 -0.14338216 0.3150493 0.27550367 0.09820966 0.0737631
-0.083501145 -0.22346728 -0.07737977 -0.18135229 0.090558946 0.19766633 0.15283431 -0.19474734
0.35348454 -0.12241717 0.19055039 -0.18103874 0.1089263 -0.14268929 -0.23559755 -0.051784724
0.27606747 -0.09332771 0.16393325 -0.17596765 0.08601999 -0.085188754 0.019696737 -0.06599676
0.14498653 -0.12761182 0.13053569 0.18708155 -0.15668036 0.1893136 -0.23863395 -0.17291905
-0.2605248 0.08076089 0.25533035 0.114912264 0.08258323 0.077566184 -0.14357366 -0.08182262
0.019949634 0.16838992 -0.17984517 0.15810621 0.028825229 0.017019741 -0.12005409 0.04277068
-0.0068398593 -0.11408005 -0.056346614 0.24915947 0.15370484 0.29370323 0.1581663 -0.20701723
0.09149308 0.17426677 -0.15134965 -0.18580139 0.20667997 -0.022336747 0.12684414 -0.010064051
0.17800923 0.19882369 -0.15610407 0.2908001 -0.15122856 0.05729215 0.20865622 -0.09945841
0.14101353 -0.09128671 -0.2668032 -0.15835796 -0.08602615 -0.15599947 -0.2347943 0.12886521
0.27575094 0.23366025 0.28028795 0.2430527 0.23565207 -0.16722709 0.22349049 0.22224249
0.064774126 -0.16325822 0.08233747 -0.2166157 0.21271874 -0.14546758 -0.13788456 0.18686363
-0.20104986 -0.09421872 0.13357331 0.044114232 0.21651107 0.16097838 -0.19826587 0.14254348
-0.31104958 0.23543903 -0.011582723 0.12399744 -0.15353695 -0.038989495 0.012752498 -0.064089276
0.09381852 0.15878002 0.20551857 -0.10759981 -0.13406427 0.11548576 0.17996413 -0.16000956
-0.33302206 0.14916536 0.20792851 -0.19360378 0.14537159 0.0064578047 0.0031921214 0.13953368
0.10761976 0.12025288 0.119268745 -0.22440374 0.026924802 -0.047137447 0.22979198 -0.105441034
-0.25750718 0.1594432 -0.13751794 0.22696912 -0.20614868 -0.14513482 0.19380192 -0.15497613
-0.15728272 0.15206115 -0.114406444 -0.2590761 -0.19915658 0.09370144 -0.13996904 -0.10872411
-0.11250768 0.029295595 -0.08258468 0.0021000556 -0.15102321 0.13326272 0.08040087 -0.17320678
0.033706818 -0.094184086 -0.17449537 -0.1947997 -0.084040366 -0.19286053 -0.10438412 0.16574985
0.10455902 -0.13514069 -0.114724964 0.15907705 -0.111713484 0.19468917 -0.16616932 0.0673062
0.21680626 -0.14241797 -0.11806839 -0.1723814 -0.14147162 0.04340733 0.032168467 0.17485607
0.12125229 -0.11090112 -0.21367061 0.053794526 0.15935066 0.11588192 0.115444 0.017970014
0.24912517 -0.22900136 -0.19211265 0.16598274 0.19680628 0.14879131 0.036353987 0.21923184
-0.15632468 -0.17789531 -0.04707026 -0.18538103 -0.13535798 0.08547595 -0.19533838 0.11542848
-0.1916972 0.103089325 0.19453442 0.034408703 0.12488023 -0.121134266 -0.08754315 0.024009988
0.22384414 -0.17965826 -0.07493447 -0.11484332 0.115067095 -0.22215205 -0.24225125 0.036818318
0.100136936 -0.16590118 -0.25222337 -0.110385165 0.14222436 0.17941487 0.06903059 0.24655478
-0.08909694 0.19615409 -0.08424025 -0.17335847 -0.109995104 -0.09680229 -0.12444339 0.19984786

fc3.0.bias f4 [10]
00000000: b647 85be d594 9b3c 1f44 6f3e c887 08bd
00000010: 6412 bf3c 103a bd3d c247 72be b099 713e
00000020: fca0 b4bb 3008 a13d
-0.26031274 0.018991867 0.2336583 -0.033332616 0.023324199 0.0923959 -0.23660186 0.23593783
-0.005512355 0.0786289
