save_checkpoints/LeNet5_epoch_27.pth (torch, 249863 bytes, 10 tensors)

conv1.0.weight f4 [6, 1, 5, 5]
0	0xbdb042c0	-0.086064816
1	0xbc8d96b6	-0.017283779
2	0xbe1ea11e	-0.15491149
3	0xbcc6d7a8	-0.024272755
4	0x3eda25bb	0.4260691
5	0xbec2dc75	-0.3805882
6	0xbe73ff85	-0.23827942
7	0xbcf27a96	-0.02959947
8	0x3dc524fd	0.096261956
9	0x3df1b52c	0.11802134
10	0x3e545cfc	0.20738596
11	0x3e4a0acd	0.19730683
12	0x3dfdac56	0.12386386
13	0x3e8654f9	0.26236704
14	0x3e73048d	0.23732205
15	0x3ce548c3	0.027988797
16	0x3dccf3a6	0.1000741
17	0x3e3ed6fb	0.18636696
18	0x3eff9b78	0.499233
19	0xbd2f30ee	-0.042771272
20	0x3e33fa61	0.1757598
21	0x3d64d4d9	0.05586705
22	0xbd5b4648	-0.053533822
23	0x3dd95c1b	0.10613271
24	0xbe70fe85	-0.23534591
25	0xbd8e213e	-0.06939934
26	0x3e72f833	0.23727493
27	0x3e202af1	0.15641381
28	0x3e0ab45b	0.13545363
29	0xbd1feac6	-0.039042257
30	0xbedc1412	-0.42984062
31	0xbf0f034a	-0.55864394
32	0xbe8a2161	-0.2697859
33	0xbe4fc979	-0.202917
34	0xbe811b76	-0.25216264
35	0xbe0d9923	-0.13827948
36	0xbdea09fe	-0.11427687
37	0xbe6fd8eb	-0.23422591
38	0xbdc26611	-0.09492124
39	0xbe61d31c	-0.22053188
40	0x3de69f1f	0.11260819
41	0x3e2917f6	0.16513047
42	0x3e19efdf	0.1503291
43	0x3d5582b8	0.052126616
44	0x3dc4123a	0.09573789
45	0x3c32c01b	0.010910059
46	0xbcbb1c60	-0.022840679
47	0x3d3716fe	0.04469966
48	0x3d7d6dda	0.06187234
49	0x3c3be440	0.011467993
50	0xbda087c6	-0.07838397
51	0xbd8fe53a	-0.07026143
52	0xbe22c032	-0.15893629
53	0x3e6d6eac	0.23186749
54	0xbdf98db1	-0.121852286
55	0xbe375a81	-0.17905618
56	0x3e7fc43b	0.249772
57	0x3e981eec	0.29711092
58	0xbcb22b69	-0.021749215
59	0x3da4c8b1	0.08046091
60	0xbe9f4afb	-0.31111893
61	0x3e5c9f16	0.21545061
62	0x3e7830f7	0.24237429
63	0x3c8d8dca	0.017279524
64	0xbc163dd3	-0.0091700135
65	0x36d304cd	6.288849e-06
66	0x3ec8c3e5	0.39211956
67	0xbd5ca507	-0.05386832
68	0xbd976f7c	-0.07394311
69	0xbdf699de	-0.120410666
70	0x3e7c7e92	0.24657658
71	0x3eb81a00	0.35957336
72	0xbd47eefa	-0.04881189
73	0xbdb1c5cb	-0.08680304
74	0xbe5d483f	-0.21609591
75	0x3e7d948a	0.24763694
76	0x3c2e9dff	0.010657786
77	0x3d2dc5df	0.042425033
78	0x3de10f88	0.109892905
79	0x3e98ca85	0.2984201
80	0x3d1800a4	0.037109986
81	0xbea092b3	-0.31361923
82	0xbeb6e588	-0.35721993
83	0xbdeeb0d8	-0.11654824
84	0xbd88f7c6	-0.06687884
85	0xbde864be	-0.1134734
86	0xbee7bf4f	-0.45263144
87	0xbd14a869	-0.03629342
88	0x3c81836e	0.01580974
89	0x3d00e211	0.031465594
90	0xbed082d9	-0.4072483
91	0xbda40ccb	-0.080102526
92	0x3dab6734	0.08369294
93	0x3e85c90a	0.26129943
94	0x3d36a4d1	0.044590775
95	0xbf16e6f3	-0.5894615
96	0x3daad108	0.08340651
97	0x3deb14f6	0.11478607
98	0xbdfc86b3	-0.12330379
99	0x3e2352ec	0.15949601
100	0x3d570b4d	0.05250101
101	0x3ce243ef	0.027620284
102	0x3d08555e	0.033284537
103	0x3e74376a	0.23849264
104	0x3e02ec91	0.12785555
105	0x3dcedaaa	0.101003006
106	0x3e15d88d	0.14633389
107	0xbcc68337	-0.02423249
108	0xbd4c5b48	-0.04989174
109	0x3db92f6d	0.09042249
110	0x3e874b96	0.26424855
111	0xbd7242de	-0.0591458
112	0x3dc53506	0.09629254
113	0xbe842621	-0.2581034
114	0xbdfa0a67	-0.12209015
115	0xbede7320	-0.43447208
116	0xbec98e56	-0.39366406
117	0xbefcbc37	-0.49362347
118	0xbea405f8	-0.32035804
119	0xbe888eb9	-0.2667139
120	0xbc220ab8	-0.009890251
121	0x3c6ff522	0.014645847
122	0x3ce75635	0.028239349
123	0x3e6b46c8	0.2297622
124	0xbd008345	-0.03137519
125	0xbef2333c	-0.47304714
126	0xbdf4f636	-0.119610235
127	0xbe8847c4	-0.26617253
128	0x3ca42709	0.020038145
129	0x3d4ea481	0.050449852
130	0xbcd0da26	-0.025494646
131	0xbc71676b	-0.014734129
132	0xbe682b7c	-0.22672838
133	0xbe4588d3	-0.19290476
134	0xbd353fa4	-0.044250146
135	0x3d73f5a1	0.05956042
136	0xbe123275	-0.1427706
137	0xbe96ecc6	-0.2947752
138	0x3e0831ad	0.133002
139	0x3e4db86e	0.20089886
140	0x3e9b19ee	0.3029322
141	0xbe2b226c	-0.1671235
142	0xbf1de80d	-0.61682206
143	0xbdc6d41d	-0.09708426
144	0x3e08bfe9	0.13354458
145	0x3d87906e	0.06619345
146	0x3df470ac	0.11935553
147	0xbec2f8db	-0.38080487
148	0xbeb11b1f	-0.34591004
149	0xbe07d49f	-0.13264702

conv1.0.bias f4 [6]
0	0xbeb2a9ea	-0.3489526
1	0xbe4af015	-0.19818147
2	0x3d62bf34	0.055358127
3	0xbdaf6f9b	-0.08566209
4	0xbe2af4f5	-0.16695006
5	0x3db0b96b	0.08629116

conv2.0.weight f4 [16, 6, 5, 5]
0	0xbc2d6db5	-0.010585238
1	0xbc3666de	-0.011132924
2	0x3e0b3103	0.13592915
3	0x3e757cb5	0.23973353
4	0xbd2a64a7	-0.041599896
5	0x3ddb7d14	0.10717216
6	0x3d2b181c	0.04177104
7	0x3e05dc8a	0.1307241
8	0xbcfc5cf2	-0.030806039
9	0xbe8c7e5e	-0.2744016
10	0xbdd63f2a	-0.10461266
11	0xbd5e8fbf	-0.054336306
12	0x3e2087a1	0.15676738
13	0xbdf17acd	-0.117910005
14	0xbec703ad	-0.38869992
15	0x3b5a3485	0.0033295464
16	0x3e19f99b	0.15036623
17	0xbd81df83	-0.063414596
18	0xbebb5fd1	-0.3659654
19	0xbe76211d	-0.24036069
20	0x3e1fcba8	0.15605032
21	0xbd4a4b0d	-0.04938798
22	0xbe6d7ac3	-0.23191361
23	0xbe20d736	-0.15707096
24	0xbe3131aa	-0.17304102
25	0x3e60c47c	0.21949953
26	0xbe17d98c	-0.14829081
27	0xbe403305	-0.18769462
28	0xbcd9ad13	-0.026571786
29	0x3d17afc0	0.037032843
30	0x3dc606a0	0.09669232
31	0x3e30a1e7	0.17249261
32	0x3dcc3dc5	0.09972719
33	0xbe7361bb	-0.2376775
34	0x3c800b68	0.015630439
35	0x3e7bfb19	0.24607505
36	0x3e6f74dc	0.23384422
37	0xbe673c6c	-0.22581643
38	0xbe901bcc	-0.28146207
39	0x3cdcd25e	0.02695578
40	0x3e57098f	0.2099974
41	0xbe246b2b	-0.16056506
42	0xbe67af9d	-0.22625585
43	0xbe5a8770	-0.21340728
44	0x3d8bcfd3	0.06826749
45	0xbe25923b	-0.16169064
46	0xbe8c3cc5	-0.27390113
47	0x3d850bad	0.064963676
48	0x3e488f83	0.19585995
49	0x3da20264	0.07910612
50	0xbd8e84be	-0.06958912
51	0xbda99c38	-0.082817495
52	0x3b907817	0.004408847
53	0x3d199a3c	0.037500605
54	0xbd3c6b1b	-0.04600058
55	0xbe862e03	-0.2620698
56	0xbe883bcf	-0.2660813
57	0xbd8c5241	-0.06851626
58	0x3d2b9032	0.041885562
59	0xbe3ab68e	-0.18233702
60	0xbeb0f8d9	-0.34564856
61	0xbe27e8b8	-0.16397369
62	0xbd073751	-0.03301174
63	0x3d873271	0.06601418
64	0xbeb7783f	-0.35833928
65	0xbd3050c8	-0.04304579
66	0xbe25093c	-0.16116804
67	0xbd7bd060	-0.06147802
68	0xbe5b20e1	-0.21399261
69	0xbf196c9f	-0.5993137
70	0xbd7eb0e1	-0.062180404
71	0xbd060d13	-0.032727312
72	0xbd896680	-0.067090034
73	0xbde9ffdb	-0.11425754
74	0xbe403ef7	-0.18774019
75	0x3e00f54f	0.12593578
76	0x3e80b709	0.25139645
77	0xbd9dffa0	-0.07714772
78	0xbec02f93	-0.37536296
79	0xbe86a381	-0.2629662
80	0xbd844b13	-0.06459632
81	0x3e816350	0.25271082
82	0x3cd4391f	0.025906144
83	0xbdbfd9c3	-0.093677066
84	0xbce862d9	-0.028367447
85	0x3c6a44e0	0.014298648
86	0x3dbbf54c	0.09177646
87	0x3c6d2061	0.014473052
88	0xbe20056a	-0.15627065
89	0x3e49e650	0.19716763
90	0x3cec4140	0.028839707
91	0xbe0b8fad	-0.13629027
92	0xbddcd08a	-0.10781963
93	0x3d8ff2bd	0.070287205
94	0x3e80be55	0.25145212
95	0xbe867557	-0.26261398
96	0x3ce275c4	0.027644046
97	0x3daf0c7f	0.08547305
98	0x3c202931	0.009775446
99	0xbc3c18fd	-0.011480567
100	0x3e5342f4	0.2063101
101	0x3ec9aa1e	0.39387602
102	0xbd5c919c	-0.0538498
103	0xbed652c2	-0.41860014
104	0xbecf2707	-0.40459463
105	0x3e6b2800	0.22964478
106	0xbdb55dd6	-0.088557884
107	0xbec86d23	-0.39145765
108	0xbe95bec7	-0.29247114
109	0xbce7a847	-0.028278483
110	0x3e36fd70	0.17870116
111	0xbe94af9d	-0.29040232
112	0xbe290945	-0.16507442
113	0xbdaf12aa	-0.08548482
114	0x3e098720	0.13430452
115	0xbe036643	-0.12831978
116	0xbeb3b628	-0.35099912
117	0xbdc18e2b	-0.094509445
118	0x3e27c621	0.16384174
119	0xbdad2f0e	-0.084562406
120	0xbebb2366	-0.36550444
121	0xbd59ed1b	-0.053204637
122	0x3e345c62	0.17613366
123	0x3db43fe3	0.08801248
124	0xbe5a14ae	-0.21296951
125	0x3f043779	0.51647145
126	0x3e839326	0.25698203
127	0x3e484468	0.19557345
128	0x3d6d7605	0.05797388
129	0x3d77208f	0.060333785
130	0x3e579528	0.21052992
131	0x3e37dcf9	0.17955388
132	0x3e07a491	0.13246371
133	0x3e167647	0.14693557
134	0x3df4d0a9	0.11953861
135	0xbdc27cfe	-0.094964966
136	0x3e81b854	0.25335944
137	0x3e404b9f	0.18778847
138	0x3d648fa8	0.055801064
139	0x3e324fa1	0.17413189
140	0xbd44b3ba	-0.048022963
141	0xbc3b45e8	-0.011430241
142	0xbd006cf3	-0.031353902
143	0xbccb6e93	-0.024833
144	0xbd176568	-0.036961943
145	0x3cb01fb8	0.0214995
146	0x3d67a7d3	0.056556534
147	0x3d0b2a76	0.03397604
148	0xbda42d38	-0.08016437
149	0x3e001a8b	0.12510125
150	0xbe5a5908	-0.21323025
151	0xbd9885a2	-0.074473634
152	0xbe40a9f5	-0.18814833
153	0xbdfaea86	-0.12251763
154	0xbeafb495	-0.3431746
155	0xbda60bf4	-0.08107749
156	0xbe317ed9	-0.17333545
157	0xbcc0de6f	-0.023543565
158	0x3d5e596f	0.05428451
159	0xbe200624	-0.15627342
160	0xbd978ee4	-0.07400301
161	0xbe3cdb8c	-0.18443125
162	0x3ba1666d	0.00492554
163	0xbe50dad6	-0.2039598
164	0xbead719b	-0.33875737
165	0xbd95a5c4	-0.07307008
166	0xbe286ce8	-0.16447794
167	0xbe4d4143	-0.20044427
168	0xbea47601	-0.3212128
169	0xbe43a516	-0.19105944
170	0xbdba87e5	-0.09107951
171	0xbde98bad	-0.11403594
172	0xbe1ef510	-0.15523171
173	0xbe24fef4	-0.16112882
174	0xbe2c341a	-0.1681675
175	0xbe15ae2b	-0.14617221
176	0xbe4716ea	-0.19442335
177	0x3e01f53c	0.12691206
178	0x3e197d97	0.14989315
179	0x3d4127c4	0.047157064
180	0x3e102867	0.14077912
181	0x3d0d9578	0.034566373
182	0x3e3eb6bb	0.18624394
183	0x3e290e76	0.16509423
184	0x3da9fd6b	0.08300289
185	0xbda39726	-0.07987814
186	0x3d731df9	0.059354756
187	0x3d1ce7d3	0.038307022
188	0xbda378e9	-0.07982046
189	0x3d18fbb4	0.037349418
190	0xbce9a03b	-0.028518787
191	0x3ca40764	0.020023055
192	0xbe8f4761	-0.27984145
193	0xbd6caa11	-0.057779375
194	0x3cacb6c3	0.021083241
195	0xbb065f84	-0.002050371
196	0xbe26aa04	-0.16275793
197	0xbe88ac97	-0.26694176
198	0xbc8cc10c	-0.017181896
199	0x3e9e33d4	0.30898917
200	0x3e3b3008	0.18280041
201	0xbe97bd47	-0.29636595
202	0x3d39b6bb	0.04534028
203	0xbe61dc3b	-0.22056668
204	0xbdaea07b	-0.08526703
205	0x3d3ee394	0.046603754
206	0xbe99c51e	-0.300332
207	0xbe831de5	-0.25608745
208	0x3d8d1467	0.06888657
209	0xbdeca6cd	-0.11555252
210	0xbed336b0	-0.4125266
211	0xbe5cb625	-0.21553858
212	0xbe9b963f	-0.30388066
213	0x3e38d831	0.1805122
214	0xbe4d3d26	-0.20042858
215	0xbed6a917	-0.4192588
216	0xbe4b8336	-0.19874272
217	0xbe86e77a	-0.26348478
218	0xbdfc0713	-0.12306037
219	0xbec6cc0d	-0.38827553
220	0xbd6a222f	-0.057161506
221	0xbddeec82	-0.10884954
222	0xbe2109f9	-0.1572646
223	0xbd508b4a	-0.050914086
224	0xbe11da7b	-0.142435
225	0xbcb02804	-0.021503456
226	0x3e4cb708	0.19991696
227	0x3e73176d	0.23739405
228	0x3e936581	0.2878838
229	0x3d5d6ed1	0.05406076
230	0x3c2caa3c	0.010538634
231	0x3f01d705	0.5071872
232	0x3e92df43	0.2868596
233	0x3dea30e0	0.114351034
234	0xbd94281f	-0.07234215
235	0x3e8dd63e	0.27702516
236	0x3e9f501d	0.3111581
237	0xbdce7cf3	-0.10082426
238	0xbcc1073b	-0.023563018
239	0xbe4c7893	-0.1996787
240	0x3e7eb8bf	0.24875163
241	0x3dd2f67c	0.103009194
242	0xbd6f940a	-0.05849079
243	0xbcc0bb9e	-0.023526963
244	0xbd10ec77	-0.03538176
245	0x3e322012	0.17395046
246	0xbe274674	-0.1633547
247	0xbe24d782	-0.16097835
248	0xbeb012c9	-0.34389332
249	0xbe272086	-0.16321
250	0xbcbef18d	-0.02330854
251	0x3e58b7e7	0.21163903
252	0x3e1b81f4	0.15186292
253	0x3e3f3ad6	0.18674788
254	0x3c80720a	0.015679378
255	0x3e082d8f	0.13298629

conv2.0.bias f4 [16]
0	0xbf060ada	-0.5236031
1	0xbf04046c	-0.5156925
2	0xbf3916c3	-0.72300357
3	0xbf5e5243	-0.8684427
4	0xbfac1009	-1.3442394
5	0xbf910e79	-1.1332542
6	0xbed7e55f	-0.42167184
7	0xbf212751	-0.6295062
8	0xbf6d56bb	-0.92710465
9	0xbf850fff	-1.0395507
10	0xbdbb132f	-0.09134518
11	0xbf4bf711	-0.7967387
12	0xbf424f08	-0.7590184
13	0xbf497239	-0.78689915
14	0xbf7aafa6	-0.9792427
15	0xbef30db7	-0.474714

fc1.0.weight f4 [120, 400]
0	0x3bc7ab23	0.006093399
1	0xbe8633ac	-0.26211298
2	0xbda16657	-0.07880848
3	0xbe465827	-0.19369565
4	0xbe88775d	-0.26653567
5	0x3d353921	0.044243935
6	0xbe3ef506	-0.18648157
7	0xbd0b446a	-0.03400079
8	0xbd9277c1	-0.071517475
9	0x3e20b3ac	0.1569354
10	0xbe51a4a8	-0.20472968
11	0xbd4a659e	-0.049413316
12	0xbdb86f1c	-0.090055674
13	0x3db8cfae	0.09023987
14	0xbd150db5	-0.036390025
15	0x3e23098c	0.1592161
16	0xbe131d5f	-0.14366673
17	0xbe0110d8	-0.12604082
18	0x3df3f98b	0.11912831
19	0x3ef12bb5	0.47103658
20	0xbbb98688	-0.0056617893
21	0xbe594ddb	-0.21221106
22	0x3e453a9f	0.19260643
23	0x3d910f99	0.07083053
24	0x3d3a894d	0.045541096
25	0x3dc19fb5	0.0945429
26	0xbe79abdd	-0.24381967
27	0x3a2397d7	0.00062405824
28	0xbee1d8ce	-0.4411072
29	0xbe599252	-0.21247223
30	0xbe5bee2a	-0.21477571
31	0x3d8889f1	0.06666935
32	0x3e03e89a	0.12881699
33	0xbe771310	-0.24128366
34	0xbeac4e44	-0.33653462
35	0xbdbbc70c	-0.091688246
36	0xbdd4fabb	-0.103993855
37	0x3e094264	0.13404232
38	0xbd03e3c8	-0.03219965
39	0x3e32889f	0.1743493
40	0xbe6e1e10	-0.23253655
41	0xbe9b5aef	-0.30342814
42	0xbe805923	-0.25068006
43	0x3e3ee5bd	0.18642326
44	0xbdb0280b	-0.086013876
45	0xbe80979a	-0.25115663
46	0x3dd6dbd8	0.104911506
47	0x3d0e8c84	0.034801975
48	0xbb28e6d1	-0.0025772343
49	0x3e9d6cb9	0.3074701
50	0xbe386afa	-0.18009558
51	0xbe0d4172	-0.13794497
52	0xbe391b1e	-0.1807675
53	0xbe073357	-0.13203178
54	0xbe2bf077	-0.16790949
55	0x3ddc28b9	0.10749955
56	0x3eb13db3	0.34617385
57	0x3e616e98	0.22014844
58	0xbc08c2ee	-0.008347256
59	0x3b941c06	0.004519942
60	0x3d2c1f5f	0.042022105
61	0xbbac2b6e	-0.0052542007
62	0xbeaa6471	-0.33279756
63	0x3d236ee6	0.039900683
64	0x3e58d408	0.21174634
65	0xbcb7901a	-0.02240758
66	0xbec6a2d6	-0.3879611
67	0x3d9c6f56	0.07638423
68	0xbbbd7caf	-0.0057826857
69	0x3ec32771	0.3811603
70	0x3e3cf712	0.18453625
71	0xbe1fdd5d	-0.15611787
72	0x3d685ce1	0.0567292
73	0x3d6d3d1d	0.05791961
74	0x3eaacf6a	0.3336137
75	0x3e4f8567	0.20265733
76	0xbc2cd76f	-0.01054941
77	0xbd9f380f	-0.07774364
78	0x3e89c5fd	0.26908866
79	0x3dfa0bbe	0.12209271
80	0xbdea0343	-0.114264034
81	0xbdf48386	-0.119391486
82	0xbdc7f1d8	-0.09762925
83	0x3e94f86b	0.29095778
84	0x3e018a61	0.12650444
85	0x3e78816e	0.24268124
86	0xbda6c967	-0.08143883
87	0xbe74c7e9	-0.23904385
88	0xbe394b62	-0.18095163
89	0xbe543316	-0.20722613
90	0xbe1120ce	-0.1417267
91	0x3e39c5ed	0.18141909
92	0xbd6ce7e7	-0.057838347
93	0x3db1b694	0.08677402
94	0xbda4745b	-0.080300055
95	0xbe08f736	-0.13375553
96	0x3e7a01ca	0.24414745
97	0x3dd774ca	0.105203226
98	0x3e0f2dde	0.1398234
99	0xbd643e29	-0.055723343
100	0xbe694807	-0.22781383
101	0xbe1be10d	-0.15222569
102	0xbd3c50f1	-0.04597563
103	0xbc537893	-0.012907165
104	0x3ddd0403	0.10791781
105	0x3dbe5194	0.092929035
106	0x3dc1ed17	0.094690494
107	0x3eaf5347	0.34243223
108	0x3e5b2898	0.21402204
109	0xbe021e04	-0.12706763
110	0xbf099140	-0.5373726
111	0x3dd21fcd	0.10259972
112	0xbd935210	-0.071933866
113	0xbe638cd8	-0.22221696
114	0xbf113462	-0.56720555
115	0xbc4648ed	-0.012102348
116	0xbdd72079	-0.105042405
117	0xbe22ff81	-0.1591778
118	0xbea147af	-0.31500003
119	0xbea1f5e1	-0.31632903
120	0x3e524c77	0.20536982
121	0x3e9228f3	0.28546867
122	0x3ddfdb69	0.10930521
123	0xbc452447	-0.012032575
124	0xbd85f927	-0.06541663
125	0x3cd8a54b	0.026446005
126	0xbe50d6d6	-0.20394453
127	0xbe4e4a3b	-0.20145504
128	0xbe54873e	-0.20754716
129	0xbc031036	-0.00799947
130	0xbe9d1f50	-0.30687952
131	0xbdac2c33	-0.08406868
132	0xbdbcc2ae	-0.0921682
133	0xbe2f7329	-0.17133774
134	0xbe737a78	-0.23777187
135	0x3ea961a8	0.33082318
136	0xbd19685e	-0.037453048
137	0x3dd32c34	0.103111655
138	0xbdc7a73d	-0.09748695
139	0xbdb64b0d	-0.089010336
140	0xbe80a6ec	-0.2512735
141	0xbe982f31	-0.29723504
142	0x3d7e786d	0.062126566
143	0x3cc4a3a4	0.024003811
144	0xbf02aacc	-0.51041865
145	0xbe39c465	-0.18141325
146	0x3e00185c	0.12509292
147	0x3d4ea630	0.050451458
148	0xbafbd189	-0.0019212227
149	0xbe9998d3	-0.29999408
150	0xbdea1682	-0.11430074
151	0xbe16e6cb	-0.14736478
152	0xbf11e20f	-0.56985563
153	0xbe798dc6	-0.24370489
154	0xbecf2e33	-0.40464935
155	0x3ddb64ac	0.10712561
156	0xbe4c0a59	-0.19925822
157	0xbef479c5	-0.47749153
158	0xbe6ebe75	-0.23314841
159	0xbe9420e8	-0.28931355
160	0x3e29ce87	0.1658269
161	0x3e21d60a	0.15804306
162	0x3e1a7acb	0.15085904
163	0xbd9f60d3	-0.0778214
164	0x3be78dc1	0.007066459
165	0x3e88795f	0.266551
166	0xbcf6cd21	-0.03012711
167	0x3df84ab9	0.12123627
168	0x3e80ca64	0.25154412
169	0xbe3206cd	-0.17385407
170	0xbe76a9d7	-0.24088226
171	0x3e3dd889	0.18539633
172	0x3b94c1f1	0.004539721
173	0xbd7dffec	-0.062011644
174	0xbd8fbc8a	-0.07018383
175	0xbe506452	-0.20350769
176	0xbe463680	-0.19356728
177	0xbe50d42e	-0.2039344
178	0x3e72ebf5	0.23722823
179	0xbd06b5f3	-0.032888364
180	0x3e729ac3	0.2369185
181	0x3cd8ed03	0.026480203
182	0x3d984d01	0.07436562
183	0x3f0d635e	0.5522975
184	0x3e5c1a99	0.21494521
185	0xbe02c76c	-0.12771386
186	0x3e66470f	0.22488044
187	0x3e2d41cd	0.16919632
188	0x3d3e08a2	0.04639495
189	0xbeac53a9	-0.33657578
190	0xbea0bbcf	-0.31393287
191	0x3d1ccbf8	0.038280457
192	0xbef183a2	-0.4717074
193	0x3d89666c	0.067089885
194	0xbcb9c633	-0.022677517
195	0xbd86c1e3	-0.0657995
196	0x3e0ef75b	0.13961546
197	0xbe13393f	-0.14377306
198	0xbcfdb59b	-0.030970385
199	0x3d69cf5d	0.057082523
200	0xbe5a4232	-0.21314314
201	0xbdcb58cc	-0.09929046
202	0xbda70453	-0.08155122
203	0xbda0811b	-0.07837125
204	0x3e939608	0.28825402
205	0xbe17ba83	-0.14817242
206	0x3e100a35	0.14066394
207	0xbe489ee1	-0.19591857
208	0x3d8f7ef6	0.07006638
209	0xbb1a97a2	-0.0023588915
210	0xbd82b913	-0.06382956
211	0x3e56d2a2	0.20978788
212	0xbb38864c	-0.002815622
213	0x3f063f0b	0.52439946
214	0xbcb4076d	-0.021976197
215	0x3c0e89d0	0.008699849
216	0x3d1e1609	0.038595233
217	0xbd99e600	-0.07514572
218	0x3dfb182f	0.12260472
219	0xbda18ebe	-0.07888554
220	0xbef50953	-0.47858676
221	0xbedd8b01	-0.43270114
222	0xbe1a09bc	-0.15042776
223	0x3db86c5d	0.09005044
224	0x3e677864	0.22604519
225	0x3d300c55	0.04298051
226	0x3db27ef1	0.087156184
227	0x3e6a10cc	0.2285797
228	0x3e2951d6	0.16535124
229	0x3e6d8736	0.2319611
230	0xbe89e71c	-0.26934135
231	0x3d92fe27	0.07177382
232	0x3e7c92b5	0.2466534
233	0x3e03220c	0.12805957
234	0xbd88bd12	-0.06676687
235	0x3e9158fc	0.28388202
236	0x3eac3e7d	0.33641425
237	0x3e2a56e1	0.16634704
238	0x3e296ef4	0.16546232
239	0xbe167b88	-0.14695561
240	0xbce85846	-0.028362405
241	0x3ea5756a	0.32316142
242	0x3ddc9640	0.107708454
243	0x3debaa5d	0.115071036
244	0xbd7d524c	-0.061846063
245	0xbe45f53b	-0.19331829
246	0xbd71a333	-0.05899353
247	0xbd042421	-0.032261018
248	0xbe381d22	-0.17979863
249	0x3df2b97a	0.11851783
250	0x3e1841b9	0.14868821
251	0x3df22715	0.118238606
252	0x3e818e00	0.2530365
253	0x3dc9531c	0.09830305
254	0xbdbbcebd	-0.091702916
255	0x3ebb0dcd	0.36533967

fc1.0.bias f4 [120]
0	0xbda0ce46	-0.078518435
1	0x3dae30ba	0.085053876
2	0xbe7154db	-0.23567526
3	0xbe01583f	-0.1263132
4	0xbeac18a5	-0.33612552
5	0xbd75a16a	-0.05996839
6	0xbe843cb3	-0.2582756
7	0xbd350b11	-0.044200007
8	0x3c530001	0.012878419
9	0xbe9e210d	-0.3088459
10	0x3d5794f4	0.052632287
11	0xbea28b21	-0.31746772
12	0xbe7e2e29	-0.24822296
13	0xbe78e3fc	-0.24305719
14	0xbef669fd	-0.48127738
15	0x3d24d888	0.040245563
16	0xbe64f3f0	-0.2235868
17	0x3d9160e7	0.07098561
18	0xbe4501be	-0.19238946
19	0x3e000ab0	0.12504077
20	0x3e9d7f53	0.30761203
21	0xbe7aeb76	-0.24503884
22	0xbd336098	-0.04379329
23	0xbd7b6160	-0.06137216
24	0xbd34ecb4	-0.04417105
25	0x3d12530c	0.03572373
26	0xbe4cf766	-0.2001625
27	0x3db2c094	0.087281376
28	0x3e909ce0	0.28244686
29	0x3d9bf550	0.07615149
30	0x3e23748c	0.15962428
31	0xbebff3d5	-0.37490717
32	0xbe926523	-0.28592786
33	0xbdf499d9	-0.119434066
34	0x3f288eef	0.658431
35	0x3e324d3b	0.17412274
36	0xbe9fea0e	-0.31233257
37	0x3dad9561	0.084757574
38	0xbe65d7c3	-0.22445588
39	0xbd55fd9e	-0.05224382
40	0x3e95da25	0.29267994
41	0x3e1b0c8a	0.15141502
42	0x3e489a82	0.1959019
43	0xbddc1b0a	-0.10747345
44	0xbe9a80ac	-0.30176294
45	0xba3f7458	-0.00073034083
46	0x3e5ce916	0.2157329
47	0xbe847f0f	-0.25878188
48	0xbe8f3019	-0.27966383
49	0x3e45c234	0.19312364
50	0xbd50fb85	-0.051021118
51	0x3df95bb5	0.12175695
52	0xbe7f97dd	-0.24960275
53	0x3eae3f36	0.340326
54	0xbe054ff1	-0.13018776
55	0xbe97fb20	-0.2968378
56	0x3f0f801b	0.5605485
57	0x3e92ef58	0.2869823
58	0x3c86718c	0.016411565
59	0xbe14f63c	-0.14547056
60	0xbe17046b	-0.14747779
61	0xbcb234e0	-0.021753728
62	0x3e4b48df	0.19852017
63	0xbde18eba	-0.11013551
64	0x3c96ab7d	0.018392319
65	0x3e8dda57	0.27705643
66	0xbecbb442	-0.39785963
67	0xbd98ce52	-0.074612275
68	0xbeed9468	-0.46402287
69	0xbe99da47	-0.30049345
70	0x3e5f68f4	0.2181738
71	0x3d8ae8db	0.06782695
72	0xbd8a3b23	-0.06749561
73	0xbe472b87	-0.19450198
74	0xbe965947	-0.29364988
75	0xbbd24ed2	-0.0064180875
76	0xbede5aa5	-0.4342853
77	0x3eda4ae0	0.4263525
78	0x3d472d4c	0.048627183
79	0xbe3fa9ae	-0.18717071
80	0xbd538cba	-0.05164788
81	0xbef9a9aa	-0.48762256
82	0xbea54845	-0.322817
83	0x3ef976cc	0.48723447
84	0xbe539d2a	-0.20665422
85	0xbe8b087c	-0.2715491
86	0x3ef65469	0.48111275
87	0xbe8f337d	-0.2796897
88	0x3e72e88e	0.23721525
89	0xbd4eb11c	-0.050461873
90	0x3e7dd455	0.2478803
91	0xbe7516be	-0.23934457
92	0x3f2b0904	0.6681063
93	0x3e6952b2	0.22785452
94	0xbe6454d5	-0.22297986
95	0x3e1fe605	0.15615089
96	0xbd894d84	-0.06704238
97	0x3d0b512f	0.03401297
98	0xbeb484b9	-0.3525751
99	0x3ee90240	0.4550953
100	0x3d092207	0.033479717
101	0xbd45fd8f	-0.048337515
102	0x3dd07d07	0.10180097
103	0x3ea756e5	0.32683483
104	0xbef31669	-0.47478035
105	0x3e53f6f4	0.20699674
106	0xbe7e5d21	-0.24840213
107	0xbe5d2a01	-0.21598054
108	0x3b484038	0.0030555855
109	0x3e260298	0.16211927
110	0x3ce544f4	0.027986981
111	0x3da85a49	0.082203455
112	0x3ecebcbe	0.40378374
113	0x3e85642b	0.26052985
114	0xbe3641f1	-0.17798592
115	0xbe8bdeac	-0.27318323
116	0x3dca2e93	0.098721646
117	0xbe644545	-0.22292049
118	0x3e6f7ded	0.2338788
119	0x3e863fe9	0.26220635

fc2.0.weight f4 [84, 120]
0	0x3e457ff0	0.19287086
1	0x3e50bbe4	0.20384175
2	0xbdf58e99	-0.11990089
3	0x3dc2b020	0.095062494
4	0xbed16cc3	-0.4090329
5	0x3d2da5a5	0.0423943
6	0x3baa7f51	0.0052031656
7	0x3ec0b7d8	0.37640262
8	0x3d58b4f7	0.052906957
9	0xbce6eebb	-0.028190007
10	0x3e78a499	0.24281539
11	0xbc34b295	-0.011028905
12	0xbe31d28e	-0.17365476
13	0x3d8a1582	0.067423835
14	0x3c9a3220	0.01882273
15	0x3efa99a6	0.4894535
16	0x3e3ab900	0.18234634
17	0x3ea20bcc	0.31649625
18	0xbe42fe83	-0.19042401
19	0x3e8d93dc	0.2765187
20	0xbd876ba8	-0.06612331
21	0xbd19b4a3	-0.037525784
22	0xbb1fc516	-0.0024378947
23	0xbe3bd74f	-0.18343852
24	0x3e23bd85	0.15990265
25	0x3d2389ff	0.039926525
26	0xbdba213c	-0.0908837
27	0x3ef6cd6a	0.48203593
28	0x3e6f0c77	0.23344599
29	0xbeddb403	-0.433014
30	0xbec69d1b	-0.38791737
31	0xbb30265e	-0.0026878337
32	0x3de4f801	0.111801155
33	0xbee35b9b	-0.44405827
34	0x3cf42936	0.029804807
35	0x3da34924	0.07972935
36	0x3df2358c	0.118266195
37	0x3c127be9	0.008940675
38	0xbeaa01ea	-0.33204585
39	0xbdd978c7	-0.106187396
40	0xbd335d9e	-0.043790452
41	0xbdc73858	-0.097275436
42	0x3deddfb9	0.11614937
43	0xbe4ee9d8	-0.20206392
44	0x3e1baeeb	0.15203445
45	0x3dcb0eee	0.09914957
46	0x3d9773c0	0.073951244
47	0x3c7ca4cf	0.015420153
48	0x3e08c493	0.13356237
49	0xbd5cebc1	-0.05393577
50	0x3e8d5c55	0.27609506
51	0xbe8e9e15	-0.27854982
52	0x3e49da8a	0.19712272
53	0xbe2c8b9c	-0.16850132
54	0x3e81de06	0.25364703
55	0xbdfb7bcf	-0.12279474
56	0xbcc5f792	-0.024165902
57	0xbd54d03b	-0.051956397
58	0x3dc6f630	0.09714925
59	0xbe204b6f	-0.15653776
60	0xbce2fe68	-0.027709201
61	0x3e16a823	0.14712577
62	0xbd86f0f1	-0.06588925
63	0xbe069545	-0.1314288
64	0xbd3a211a	-0.045441724
65	0xbc94ab01	-0.018147947
66	0xbd895191	-0.06705011
67	0xbe42e1f7	-0.19031511
68	0xbd82cbd7	-0.063865356
69	0xbe3ea2ce	-0.18616793
70	0x3e4a70d8	0.19769609
71	0x3dd2e6be	0.10297917
72	0xbeb49ad6	-0.3527438
73	0x3da804f2	0.08204068
74	0xbe0ca568	-0.13734972
75	0x3d8f7413	0.07004561
76	0x3e46c72a	0.19411913
77	0xbe21e9d3	-0.15811853
78	0xbd9fb6d8	-0.077985466
79	0x3d808d80	0.06276989
80	0x3e487ca5	0.19578798
81	0xbd7f8d06	-0.06239035
82	0x3c8d34cf	0.017237095
83	0xbdfd687c	-0.123734444
84	0xbd63c170	-0.0556044
85	0x3e14e28a	0.14539543
86	0x3dd462de	0.1037042
87	0x3c61beb2	0.013778375
88	0x3bd7cf78	0.0065860115
89	0x3dd92e83	0.106045745
90	0x3e85b210	0.26112413
91	0xbea5e6c2	-0.32402617
92	0x3d6f4a7f	0.058420654
93	0x3cd40b3a	0.02588426
94	0xbe42e0b1	-0.19031025
95	0xbe977e07	-0.2958834
96	0x3eac9201	0.33705142
97	0xbe975a7c	-0.29561222
98	0x3ecc2e58	0.39879107
99	0xbde45d01	-0.111505516
100	0xbe8a16c3	-0.2697049
101	0xbe7cfd8d	-0.24706097
102	0x3dc32cb4	0.09530011
103	0xbe52d029	-0.2058722
104	0x3d046e73	0.032331895
105	0xbe7f9f1c	-0.24963039
106	0xbd57e27b	-0.052706223
107	0x3d9734a0	0.07383084
108	0x3cf10a51	0.029423865
109	0x3a1a0f4c	0.0005876913
110	0xbe1a8e56	-0.1509336
111	0xbb86221c	-0.0040934216
112	0x3e96e601	0.29472354
113	0xbdfa5104	-0.12222484
114	0xbe828378	-0.25490928
115	0xbe90dfe7	-0.28295824
116	0xbd711ea8	-0.058867127
117	0xbe0888a2	-0.13333371
118	0x3ed0b483	0.4076272
119	0x3d8f843a	0.07007642
120	0x3e382174	0.17981511
121	0x3e264f79	0.16241254
122	0x3e9c494e	0.30524677
123	0x3e436826	0.19082698
124	0xbe08adc1	-0.13347532
125	0xbdb609c8	-0.088885844
126	0x3e964e18	0.29356456
127	0x3c8e91c2	0.017403487
128	0xbe133d0f	-0.14378761
129	0x3e070543	0.13185601
130	0x3e2ed313	0.17072706
131	0x3d4d5bd7	0.050136413
132	0x3e918027	0.28418085
133	0x3e9bcd27	0.30429956
134	0x3e8a8757	0.2705638
135	0x3c8481dd	0.016175205
136	0x3e156cde	0.14592311
137	0x3d9a3dc5	0.07531313
138	0x3d4e6ae5	0.05039491
139	0xbe65d36d	-0.22443934
140	0xbd53acd8	-0.05167851
141	0x3e1ebdd7	0.15502106
142	0x3cb0fc8e	0.021604802
143	0x3b9c0957	0.0047618556
144	0xbd9c9087	-0.07644754
145	0xbe9c0bb0	-0.30477667
146	0x3d293d25	0.041318078
147	0x3f0bff02	0.54685986
148	0x3defd2cd	0.11710129
149	0xbd7c768e	-0.0616365
150	0xbcc75ba9	-0.0243357
151	0x3e258c8f	0.161669
152	0x3e92127a	0.28529721
153	0xbe3af56a	-0.1825768
154	0xbddc9d9d	-0.1077225
155	0xbdea1842	-0.11430408
156	0x3e86f061	0.2635527
157	0x3ebbd9e5	0.36689678
158	0x3d62feed	0.055418897
159	0xbe667fc6	-0.22509679
160	0xbe0385f1	-0.12844063
161	0xbe1ebfd7	-0.15502869
162	0xba9dcaee	-0.0012038627
163	0x3e566300	0.20936203
164	0x3d0a54dd	0.03377234
165	0x3e4cbeca	0.19994655
166	0xbe3f560d	-0.1868517
167	0xbd5136ac	-0.05107753
168	0x3ee09a2d	0.43867627
169	0xbe3210f8	-0.17389286
170	0x3e160bd8	0.14652956
171	0xbe12aead	-0.14324446
172	0xbe2671bf	-0.16254328
173	0xbe33d88f	-0.1756308
174	0xbdd0e2fc	-0.10199544
175	0x3e39b17b	0.1813411
176	0x3d4bab38	0.049723834
177	0x3cd5776d	0.026057923
178	0xbc86f1f8	-0.016472802
179	0x3dd700c7	0.10498195
180	0x3d6de327	0.058077957
181	0x3c66977b	0.014074202
182	0xbdf84f1c	-0.12124464
183	0x3e816287	0.25270483
184	0x3c5ad916	0.013357421
185	0xbde6e558	-0.112742126
186	0x3c52e885	0.01287282
187	0x3d1fe544	0.039037004
188	0x3df91c6e	0.12163626
189	0x3da86e9b	0.08224221
190	0x3de4258e	0.111399755
191	0x3ec60830	0.38678122
192	0xbc5e78c8	-0.013578601
193	0x3e0fa41e	0.1402745
194	0x3e9038f8	0.28168464
195	0x3e9c68d5	0.3054873
196	0x3c919ea6	0.017775845
197	0xbe63ce4a	-0.22246662
198	0x3e2e7a23	0.17038779
199	0xbe088d8b	-0.13335244
200	0xbe18d943	-0.14926629
201	0x3eeeddde	0.46653646
202	0x3e47cf88	0.1951276
203	0xbeaed6bb	-0.341482
204	0x3ecd6e5d	0.40123263
205	0x3e078628	0.1323477
206	0xbe46c7f5	-0.19412215
207	0x3d9bb8db	0.07603618
208	0xbe2ee9bc	-0.1708135
209	0x3e1c3a81	0.15256692
210	0x3cbc45fd	0.022982592
211	0x3dcd26c3	0.10017159
212	0xbe238849	-0.15969957
213	0xbec2ae22	-0.38023478
214	0xbe5a100d	-0.21295185
215	0xbd8768e7	-0.066118054
216	0xbdca58a0	-0.09880185
217	0xbe10a8f0	-0.14126945
218	0x3d10eaf4	0.03538032
219	0xbe885b76	-0.2663228
220	0xbe40a9ca	-0.1881477
221	0xbde51d60	-0.111872435
222	0xbcf149ae	-0.029454079
223	0xbdc2688c	-0.09492597
224	0x3e027612	0.12740353
225	0xbeb5e4f6	-0.35526246
226	0x3e273762	0.1632972
227	0xbd795119	-0.060868356
228	0x3d79fe89	0.06103376
229	0xbe59237a	-0.2120494
230	0x3e45ec59	0.1932844
231	0xbd9813c4	-0.07425645
232	0x3cda1070	0.026619166
233	0xbd83e387	-0.06439882
234	0x3cab0320	0.020875514
235	0x3e143d0f	0.14476417
236	0xbe5160d6	-0.20447096
237	0x3e848345	0.258814
238	0xbcb234f3	-0.021753764
239	0x3e045750	0.12923932
240	0x3e293bff	0.16526793
241	0x3e8d72c9	0.27626637
242	0x3e0f431c	0.13990444
243	0x3e01cb9c	0.12675327
244	0x3d816e45	0.0631986
245	0xbe67db16	-0.22642168
246	0x3d8d383c	0.068954915
247	0x3d46fc5f	0.048580524
248	0x3dd7dabc	0.10539767
249	0x3d171f90	0.036895335
250	0xbd8ec516	-0.06971185
251	0xbe22ad84	-0.15886503
252	0x3e57a394	0.21058494
253	0x3e0e0ee3	0.13872866
254	0x3c15cea0	0.0091435015
255	0xbd5a2684	-0.053259388

fc2.0.bias f4 [84]
0	0xbe655be9	-0.22398342
1	0xbf087657	-0.5330557
2	0xbec46ce7	-0.38364336
3	0x3d94ba3d	0.07262085
4	0xbdeb712a	-0.11496194
5	0xbe5fe0f5	-0.21863158
6	0x3e30342e	0.17207405
7	0xbd6ea60e	-0.05826383
8	0xbc88d4aa	-0.016702969
9	0xbed756ef	-0.42058513
10	0x3eee51e3	0.4654685
11	0x3e0a9f23	0.13537268
12	0xbd3a68af	-0.04550999
13	0x3f1159f3	0.56777877
14	0x3d3e7303	0.046496402
15	0xbd795275	-0.060869653
16	0xbd3065db	-0.043065887
17	0xbe679018	-0.22613561
18	0xbe6f4b7c	-0.23368639
19	0x3b44cc17	0.0030028874
20	0xbd7c3adf	-0.06157958
21	0x3e8c6bcd	0.27425995
22	0x3e0550b4	0.13019067
23	0x3e7223a7	0.23646413
24	0xbe1d1a08	-0.15341961
25	0x3ee9c822	0.45660502
26	0x3e05a8fc	0.13052744
27	0x3d4bcf3d	0.049758185
28	0x3dc5b87f	0.096543305
29	0x3d35a670	0.04434818
30	0x3ee1fa42	0.44136244
31	0x3dde5dbf	0.108577244
32	0xbd3a025b	-0.045412403
33	0x3e714e76	0.23565087
34	0xbe8137e0	-0.25237942
35	0xbe1f88bc	-0.15579504
36	0xbe7003ec	-0.23438996
37	0xbea8c0bd	-0.32959548
38	0xbecd5ba8	-0.4010899
39	0x3d9fa94a	0.07795961
40	0x3d561c65	0.052273173
41	0x3f07886f	0.52942556
42	0xbe730e4b	-0.23735921
43	0x3eb3ad50	0.35093164
44	0xbd105c53	-0.035244297
45	0x3eb9b55b	0.36271176
46	0x3d0c4d80	0.034253597
47	0x3e1d5783	0.15365414
48	0xbe6efe81	-0.23339273
49	0xbe3a16a3	-0.18172698
50	0xbdd87d9b	-0.10570832
51	0x3e9a7b76	0.30172318
52	0x3e19d605	0.15023048
53	0x3e575007	0.21026622
54	0xbc1db442	-0.009625496
55	0xbd1dda8d	-0.038538504
56	0xbe965918	-0.29364848
57	0x3ea08853	0.31354007
58	0xbe942a74	-0.2893864
59	0xbe8ca1e4	-0.27467263
60	0x3ec2cb7c	0.3804587
61	0xbe7a9146	-0.2446948
62	0x3ed05e7c	0.40697086
63	0x3d16a4a7	0.03677812
64	0x3e8345e6	0.25639266
65	0x3d84cd52	0.06484474
66	0x3e7fb397	0.24970852
67	0x3d418bd1	0.04725248
68	0xbd09e4ab	-0.03366534
69	0x3e0cc746	0.13747892
70	0xbe8365ca	-0.25663596
71	0xbe2b6d92	-0.16741017
72	0xbecd0b9f	-0.4004793
73	0xbcd16040	-0.02555859
74	0xbe939255	-0.2882258
75	0xbe2787d5	-0.1636041
76	0x3f559ac4	0.8343928
77	0x3dcf21fe	0.10113905
78	0x3e33d4b6	0.17561612
79	0x3c672643	0.014108243
80	0xbef38f97	-0.47570488
81	0xbec494f2	-0.38394886
82	0x3e02b26f	0.1276338
83	0xbce9c095	-0.028534213

fc3.0.weight f4 [10, 84]
0	0xbda695ce	-0.08134042
1	0x3e1c5985	0.15268524
2	0xbe03c912	-0.12869671
3	0xbd681504	-0.056660667
4	0x3e14a99a	0.14517823
5	0x3e96b07c	0.29431522
6	0x3cf3435d	0.029695207
7	0xbe363740	-0.17794514
8	0xbde0a56b	-0.10969051
9	0x3c847f25	0.016173908
10	0x3e4eac74	0.20182973
11	0xbe0c4eaa	-0.13701883
12	0xbdfebaca	-0.12437971
13	0xbe571682	-0.2100468
14	0x3d73fbac	0.059566185
15	0x3de07fbe	0.10961865
16	0xbe274052	-0.1633313
17	0x3e9a39f8	0.30122352
18	0x3e0158aa	0.12631479
19	0xbe934c98	-0.28769374
20	0xbeab1f6b	-0.33422408
21	0x3e390813	0.18069486
22	0x3e9abbbc	0.30221355
23	0x3e071fef	0.13195775
24	0x3e3adc3a	0.18248072
25	0xbe744439	-0.2385415
26	0xbde3ccc4	-0.1112304
27	0x3dd5897b	0.10426613
28	0x3e550c69	0.20805515
29	0x3ddcc2c6	0.107793376
30	0x3e14b5d6	0.1452249
31	0xbca5d57d	-0.0202434
32	0xbe465da7	-0.19371663
33	0xbea10cf9	-0.3145521
34	0x3ec7b795	0.3900725
35	0x3ee910c3	0.455206
36	0xbe2a4eb7	-0.1663159
37	0xbe030c7b	-0.1279773
38	0x3ea05428	0.31314206
39	0x3e35e339	0.1776246
40	0xbdb5189e	-0.08842586
41	0xbe01d64f	-0.12679408
42	0xbd8e04ce	-0.0693451
43	0xbe55e8bb	-0.20889561
44	0xbdf0ebd9	-0.11763734
45	0xbeaa6851	-0.33282712
46	0xbdd0d16f	-0.10196196
47	0x3e7fddcd	0.24986954
48	0xbe0b7404	-0.13618475
49	0x3de54252	0.1119429
50	0xbdb859a8	-0.090014756
51	0x3e5b6671	0.21425797
52	0x3e8ae3d7	0.27126953
53	0x3dcadbdc	0.09905216
54	0x3e482d6e	0.1954858
55	0xbc95b9e6	-0.01827712
56	0x3e927fdd	0.28613177
57	0xbc6ff554	-0.014645893
58	0xbe3c206e	-0.18371746
59	0x3c89c9f1	0.016819926
60	0xbe60cbff	-0.21952818
61	0xbc0f7823	-0.00875667
62	0x3d6a62a8	0.057222992
63	0xbdb3fc68	-0.08788377
64	0xbcd0b396	-0.025476258
65	0x3e56bcf2	0.20970514
66	0x3e908793	0.28228435
67	0x3d3858fd	0.04500674
68	0x3e8f8a48	0.28035188
69	0xbdb894cd	-0.090127565
70	0x3e91ca09	0.28474453
71	0x3e6ee252	0.23328522
72	0x3db387bf	0.08766126
73	0x3dc27420	0.09494805
74	0x3d6449ed	0.055734564
75	0x3c94042f	0.018068401
76	0x3d979d8c	0.074030966
77	0xbcb9ba30	-0.022671789
78	0x3d9be93a	0.07612844
79	0x3e248de8	0.16069758
80	0xbeb821b2	-0.35963207
81	0x3e192a43	0.14957528
82	0xbde9d6ec	-0.11417946
83	0x3d6b10b9	0.057388995
84	0xbdd424ee	-0.10358606
85	0xbe6a6ad1	-0.2289231
86	0xbe19c540	-0.15016651
87	0x3e54e4ef	0.20790456
88	0xbe450512	-0.19240215
89	0xbe132b62	-0.14372018
90	0x3d5e98ba	0.05434487
91	0xbd8d2ccd	-0.06893311
92	0x3e3535b0	0.17696261
93	0xbea61da8	-0.324445
94	0x3ed585b7	0.4170358
95	0x3dbe9cb9	0.09307236
96	0xbe1ef6c9	-0.15523829
97	0x3e083dee	0.13304874
98	0xbe9a1d73	-0.30100593
99	0x3bf1b574	0.007376367
100	0xbe216ab3	-0.15763359
101	0x3c63c069	0.013900855
102	0x3b99607b	0.004680691
103	0xbe1016e0	-0.14071226
104	0xbe3fce71	-0.18731095
105	0xbe2cfcd1	-0.16893317
106	0x3e2ff13a	0.17181864
107	0xbb6e2387	-0.0036337094
108	0x3d8065fd	0.06269453
109	0xbe66d451	-0.2254193
110	0x3e4de701	0.20107652
111	0x3e1d5434	0.15364152
112	0xbe7a7bde	-0.24461314
113	0xbd33ecbd	-0.043926943
114	0x3e764503	0.24049763
115	0x3dea067f	0.1142702
116	0xbe35aecb	-0.1774246
117	0x3cab1307	0.020883096
118	0x3d7a31f2	0.061082788
119	0x3ec1fe03	0.37889108
120	0x3d949bfd	0.07256315
121	0xbc2d565f	-0.0105796745
122	0x3df0bf21	0.11755205
123	0xbe33680f	-0.17520164
124	0x3de07b23	0.109609865
125	0x3e51423f	0.20435427
126	0x3e588aa2	0.21146634
127	0x3e8efb8c	0.2792629
128	0xbdae8bd3	-0.08522763
129	0x3db51c0b	0.088432394
130	0xbe4936fd	-0.19649883
131	0x3e4c384c	0.1994335
132	0xbd972a75	-0.07381145
133	0x3dc99bd0	0.09844172
134	0xbe110daf	-0.14165376
135	0x3e54f200	0.2079544
136	0xbddc727c	-0.10764024
137	0x3d4d2114	0.050080374
138	0xbd426b82	-0.04746581
139	0xbd91183c	-0.070847005
140	0xbdf0be89	-0.11755092
141	0x3e1be540	0.1522417
142	0xbd8815e5	-0.06644801
143	0x3cf8dbc4	0.03037823
144	0xbe025d79	-0.1273097
145	0x3bf0ca3e	0.007348328
146	0xbe69f6f5	-0.22848113
147	0x3dd73a0a	0.10509117
148	0xbdb1f988	-0.086901724
149	0xbe1d999c	-0.15390629
150	0x3ddc105b	0.10745307
151	0xbce11efe	-0.027480599
152	0xbd884871	-0.06654442
153	0xbe107de9	-0.14110531
154	0xbe6eac50	-0.2330792
155	0xbe7fc56e	-0.24977657
156	0xbe12528c	-0.14289302
157	0x3e08ea4c	0.13370627
158	0xbe84ab62	-0.25912005
159	0xbe86f17c	-0.26356113
160	0xbd3b4d62	-0.045728095
161	0x3e9768da	0.29572183
162	0x3e2d3a5f	0.16916798
163	0xbd06c57d	-0.032903183
164	0xbd36f560	-0.0446676
165	0xbea51d2b	-0.32248816
166	0x3eab5036	0.33459634
167	0x3e32aac9	0.17447962
168	0x3e1604bc	0.14650244
169	0xbe1d3480	-0.15352058
170	0xbe4c1782	-0.19930843
171	0x3d8d21fa	0.06891246
172	0xbd055187	-0.032548454
173	0xbd95f993	-0.07322993
174	0x3e7c152c	0.24617451
175	0xbdf2a094	-0.11847034
176	0x3e1ba461	0.15199424
177	0xbe4cb8a4	-0.1999231
178	0xbd8a64a7	-0.06757479
179	0xbe50db81	-0.20396234
180	0xbe3ec26e	-0.18628857
181	0xbcdbb30c	-0.026818775
182	0x3d0a3294	0.03373964
183	0x3db25974	0.08708468
184	0xbe3b8075	-0.18310721
185	0x3e95e4cd	0.29276124
186	0xbd014e0c	-0.031568572
187	0x3e344a4f	0.17606471
188	0x3e78f6ee	0.24312946
189	0x3e561aec	0.20908707
190	0xbbdaa781	-0.0066728
191	0xbe5cc626	-0.21559963
192	0xbdd99e9b	-0.10625955
193	0xbd87cefc	-0.06631276
194	0xbd920843	-0.07130482
195	0xbe1b4627	-0.1516348
196	0xbd6c48bc	-0.057686552
197	0x3e43e076	0.19128594
198	0xbdd9df84	-0.10638335
199	0xbdeb2eb0	-0.11483514
200	0xbe4a5247	-0.19757949
201	0x3d69ad92	0.057050295
202	0xbe301e25	-0.17198999
203	0xbd15cb62	-0.036570914
204	0xbe038832	-0.12844923
205	0xbe8c14bb	-0.27359566
206	0xbde89f86	-0.11358552
207	0xbdad9939	-0.084764905
208	0xbe43827f	-0.19092749
209	0xbdddd472	-0.10831536
210	0xbdb0d6f1	-0.08634747
211	0xbcb84f19	-0.022498654
212	0xbd82d452	-0.06388153
213	0x3e0c96a4	0.1372934
214	0xbc26e0af	-0.010185405
215	0x3ddd7d07	0.10814863
216	0xbe841df5	-0.25804105
217	0xbe1ca9d4	-0.1529916
218	0xbde65de7	-0.11248379
219	0x3e47c550	0.19508862
220	0x3dbb95e6	0.0915945
221	0x3d6cb07a	0.05778549
222	0xbdb5f92d	-0.08885417
223	0x3e72a694	0.23696357
224	0x3e51629e	0.20447776
225	0x3e15f104	0.14642721
226	0xbd8b9ea1	-0.068173654
227	0x3dcd0733	0.10011139
228	0x3e4db980	0.20090294
229	0xb9b8e65f	-0.00035266855
230	0xbe77fe6c	-0.24218148
231	0x3caa81fa	0.02081393
232	0xbe6445fb	-0.2229232
233	0xbd97f560	-0.074198484
234	0xbe6cdab7	-0.23130308
235	0x3e02462f	0.12722085
236	0x3da87953	0.08226266
237	0x3e76ef0d	0.24114628
238	0xbc9cd66b	-0.019145211
239	0x3d2a3951	0.041558567
240	0xbe490981	-0.19632532
241	0xbd925bbe	-0.07146405
242	0xbe59375d	-0.21212526
243	0xbe8f94b5	-0.28043142
244	0x3e937883	0.2880288
245	0x3e18cddf	0.14922284
246	0xbe09a08a	-0.13440147
247	0xbd962e6a	-0.073330715
248	0xbe8054ba	-0.2506464
249	0xbd896432	-0.06708564
250	0xbdffdcde	-0.12493299
251	0x3e13c093	0.1442893
252	0x3e266c7e	0.16252324
253	0x3dfd04fd	0.12354467
254	0x3dfefb28	0.12450248
255	0xbda68a06	-0.08131795

fc3.0.bias f4 [10]
0	0xbf153bbf	-0.5829429
1	0xbccd017d	-0.025025124
2	0x3e2a85ac	0.16652554
3	0xbf021306	-0.5081028
4	0xbd299dcc	-0.041410252
5	0x3d813044	0.06308034
6	0xbf1145af	-0.56746954
7	0x3e45b827	0.1930853
8	0x3eb3b8eb	0.3510202
9	0x3c6a47b2	0.01429932
