save_checkpoints/LeNet5_epoch_68.pth (torch, 249863 bytes, 10 tensors)

conv1.0.weight f4 [6, 1, 5, 5]
-0.0063464516 -0.01419121 -0.09094129 -0.018576749 -0.022726266 -0.011249938 -0.09459291 0.012798398
0.07551087 -0.15602325 0.12156796 -0.039926376 -0.07156662 -0.09588447 0.2892278 0.3433398
0.29060322 0.4680301 0.15692386 -0.012819302 -0.23577876 -0.058064625 -0.29230338 -0.07590403
-0.04224697 -0.07714471 -0.039328787 -0.05392199 -0.134811 0.15550925 -0.011399109 -0.06404996
0.13715325 0.35196614 0.0798562 0.06713466 0.2052648 0.10621456 0.051550396 0.024514444
-0.35603043 0.11367015 0.26166123 -0.016443677 -0.27796772 -0.3178744 0.14439194 -0.13129815
0.07383701 -0.14983225 -0.00041850147 0.062114578 0.18806294 0.06711607 -0.0051527685 0.13021173
-0.03258851 0.002359421 0.062221922 0.10388424 0.20373547 0.2406233 -0.05996219 0.09178137
-0.03920359 -0.14827436 -0.37414613 -0.19076215 -0.21664424 0.26796743 -0.469303 -0.12723896
-0.073076665 -0.14144298 -0.31352773 -0.036694884 0.03213144 -0.13409133 0.028215244 -0.26388997
-0.037398446 -0.13424966 -0.020248892 0.0032828916 -0.17342961 -0.04888931 -0.07115637 -0.11949404
0.15808654 -0.19667138 0.14586759 0.15797184 0.30376977 -0.035397977 0.33163494 0.022742793
0.22143492 0.27695772 0.0037318107 -0.07192615 -0.05340387 0.05456963 0.050474532 0.15221351
-0.2620369 -0.037585378 0.12762147 0.27205524 0.093638115 0.10606477 -0.22688721 0.29655156
0.124836564 -0.109525084 0.07419736 0.049740855 0.2854511 -0.09187125 -0.10303535 -0.044200853
0.07220818 0.031317625 0.07566862 -0.082867414 -0.30121195 0.080285504 0.1867618 -0.009454535
0.10684215 -0.02844164 -0.039636884 -0.0042125233 0.21302728 0.027480192 0.010168799 0.038016483
0.072641835 0.017730774 -0.057083916 -0.17385511 -0.013765806 -0.08509873 0.018589342 -0.44019446
-0.24655494 -0.0755636 -0.038249996 -0.31162483 -0.19526792 0.15625887
00000000: e5f5 cfbb 4082 68bc 6d3f babd 442e 98bc
00000010: 6f2c babc a951 38bc edb9 c1bd 5fb0 513c
00000020: 71a5 9a3d 8fc4 1fbe 9ff8 f83d d789 23bd
00000030: 8591 92bd 145f c4bd ab15 943e 3cca af3e
00000040: f2c9 943e a4a1 ef3e a6b0 203e 0d08 52bc
00000050: fd6f 71be 2cd5 6dbd caa8 95be 9273 9bbd
00000060: 290b 2dbd 0cfe 9dbd 3917 21bd 4edd 5cbd
00000070: e50b 0abe d13d 1f3e 54c3 3abc a02c 83bd
00000080: e771 0c3e e834 b43e a68b a33d e67d 893d
00000090: f030 523e 0587 d93d 8226 533d 84d2 c83c
000000a0: 9f49 b6be e5cb e83d 76f8 853e e4b4 86bc
000000b0: c951 8ebe 6fc0 a2be 7bdb 133e 0673 06be
000000c0: dc37 973d a06d 19be 516a dbb9 db6b 7e3d
000000d0: 9293 403e 2674 893d 8ed8 a8bb 3956 053e
000000e0: 887b 05bd 84a0 1a3b 6adc 7e3d 43c1 d43d
000000f0: 08a0 503e f465 763e ea9a 75bd dff7 bb3d
00000100: f293 20bd 3cd5 17be 1590 bfbe 2757 43be
00000110: fdd7 5dbe 0733 893e 7c48 f0be ee4a 02be
00000120: 38a9 95bd 6ed6 10be b586 a0be 604d 16bd
00000130: 429c 033d 3d4f 09be a823 e73c 961c 87be
00000140: 1d2f 19bd be78 09be 01e1 a5bc c825 573b
00000150: 8897 31be 2840 48bd 6eba 91bd 4bb9 f4bd
00000160: 70e1 213e 3964 49be 505e 153e 5fc3 213e
00000170: b687 9b3e 78fd 10bd 0ecc a93e 184f ba3c
00000180: d6bf 623e 67cd 8d3e 6591 743b 044e 93bd
00000190: 04be 5abd 6884 5f3d 62be 4e3d dcdd 1b3e
000001a0: b329 86be 20f3 19bd 34af 023e d34a 8b3e
000001b0: 57c5 bf3d 7c38 d93d 1f55 68be 9bd5 973e
000001c0: 50aa ff3d b04e e0bd c9f4 973d 11bd 4b3d
000001d0: a626 923e fe26 bcbd 3304 d3bd f40b 35bd
000001e0: e2e1 933d e946 003d 26f8 9a3d 64b6 a9bd
000001f0: 7438 9abe ba6c a43d 7c3e 3f3e 32e7 1abc
00000200: 0fd0 da3d 71fe e8bc 495a 22bd 3509 8abb
00000210: d323 5a3e 241e e13c 099b 263c 2cb7 1b3d
00000220: 3ec5 943d 2140 913c d3d0 69bd 1307 32be
00000230: fa89 61bc 3e48 aebd ad48 983c 2b61 e1be
00000240: e678 7cbe 17c1 9abd 07ac 1cbd 4a8d 9fbe
00000250: 50f4 47be 5302 203e

conv1.0.bias f4 [6]
-0.012889982 -0.07327149 -0.013139432 0.017148795 -0.36295018 -0.2421326
00000000: 8130 53bc 5d0f 96bd c646 57bc a17b 8c3c
00000010: 9bd4 b9be 9cf1 77be

conv2.0.weight f4 [16, 6, 5, 5]
0.111415535 -0.019345107 0.015463978 -0.09768306 -0.1489615 -0.036255542 0.021369876 0.09601688
-0.06809311 -0.161952 -0.1593437 -0.10153292 -0.021139976 -0.03175158 -0.081099525 -0.06737354
-0.13421804 -0.05851924 -0.036607843 -0.12459438 0.06983052 -0.054432426 -0.05116217 -0.06461658
-0.09964436 -0.038178764 -0.1579861 -0.2282631 -0.13087763 -0.08647908 0.0710344 0.081266314
0.008658984 -0.040851608 -0.06219876 0.0006238171 0.17103288 0.103656515 0.022200046 -0.09223333
-0.08446239 -0.032374915 -0.0005982861 0.0065222033 -0.01074847 -0.023095783 -0.04416361 -0.0037766055
-0.033081673 -0.050464753 0.0035998132 -0.08232713 -0.16937676 -0.104538 0.11582959 0.117473096
0.012815591 -0.14982453 -0.3134378 -0.17201582 0.08051108 0.18450586 0.10617081 -0.112721995
-0.09522475 -0.16706218 -0.017615931 0.014785582 0.043800343 -0.0011675062 -0.053314846 -0.030897245
-0.019274967 0.019144123 0.041387323 0.02467688 0.08571082 0.111767344 0.006043016 -0.08275004
-0.1017181 -0.06765206 0.11436927 0.10384538 0.028805811 -0.13045841 -0.19321306 -0.0665292
-0.036976032 0.054108415 0.01778134 -0.09125854 -0.07327872 -0.018230103 -0.055419438 0.013057959
-0.011932245 -0.106346846 -0.06476565 -0.04897229 -0.011468997 0.0042904983 0.02196489 0.100023866
0.026924752 0.09803422 0.08580694 0.050009552 0.071372144 -0.06636692 0.023305142 -8.419125e-05
0.05749578 0.09541259 0.014010851 -0.070688695 -0.099369496 -0.18234561 -0.050650183 -0.0051441626
-0.07096739 -0.06301785 -0.0478786 -0.09963416 -0.10378205 -0.08383706 -0.20072484 -0.10017919
-0.045118533 0.020158658 -0.084728405 -0.28805026 -0.37318397 -0.2565442 -0.13789581 0.08239772
-0.012759596 -0.089361645 -0.16208424 -0.16815132 0.046405826 0.003646334 -0.006748936 -0.030507958
-0.042169936 0.047762614 0.020001413 0.037329175 0.043923277 -0.008506245 -0.04068172 -0.025325492
-0.17384903 -0.09439076 -0.17736508 -0.022571897 -0.05341013 -0.11640142 -0.31956986 -0.2840438
0.044630356 0.040648762 -0.08835995 -0.0880315 -0.09196547 0.002034037 0.09401193 0.06878329
-0.1027792 0.010069202 -0.009730165 -0.08048425 -0.14253096 -0.05117489 -0.07593074 -0.14072171
-0.10342864 -0.11630032 -0.117566325 -0.116820626 -0.053193003 0.11871179 0.055409297 -0.045749437
0.014656064 -0.06066127 -0.07544824 -0.17180322 -0.07880584 -0.015722072 -0.078502156 0.011706068
0.08112211 0.19632958 0.06814425 0.22387633 0.083020985 0.069424845 0.16135551 -0.0365047
0.017820535 -0.08755853 -0.08656317 0.048081886 -0.032172576 0.13997298 -0.08093745 -0.20722389
-0.05285333 0.028216828 -0.040712066 0.02103703 -0.1290257 -0.23934391 -0.2228732 -0.13278784
0.03839353 -0.09602384 -0.061947547 0.03572376 0.056662824 0.004263312 0.18433069 -0.046578072
-0.026068777 -0.0034287847 -0.010616012 0.035275023 -0.10583716 -0.014644523 -0.0249658 0.08438211
0.0067973523 0.004869843 0.039504312 -0.0011909828 0.14550522 0.25241575 0.15410703 0.14113776
0.13270988 0.022392055 0.075918674 0.06525557 -0.046396293 -0.09442685 -0.16906255 -0.11174381
-0.040339436 -0.04850468 0.016156703 -0.14695778 -0.02093064 -0.060431655 -0.15361236 0.19738841
00000000: d42d e43d a179 9ebc a05c 7d3c 0e0e c8bd
00000010: 5d89 18be b180 14bd e10f af3c 7fa4 c43d
00000020: 6774 8bbd bfd6 25be ff2a 23be 7ef0 cfbd
00000030: be2d adbc f20d 02bd 8217 a6bd 23fb 89bd
00000040: 7470 09be dfb1 6fbd 1bf2 15bd 572b ffbd
00000050: 4e03 8f3d 89f4 5ebd 6c8f 51bd b355 84bd
00000060: 5812 ccbd 5661 1cbd 1cc7 21be cdbd 69be
00000070: c904 06be f21b b1bd 7c7a 913d f46e a63d
00000080: 69de 0d3c 0454 27bd 21c4 7ebd a887 233a
00000090: 3e23 2f3e de49 d43d dfdc b53c d4e4 bcbd
000000a0: 9efa acbd 8f9b 04bd 4dd6 1cba 35b8 d53b
000000b0: 5a1a 30bc 5e33 bdbc e7e4 34bd ed80 77bb
000000c0: a680 07bd 21b4 4ebd d8ea 6b3b 209b a8bd
000000d0: 1a71 2dbe 0518 d6bd 1038 ed3d bc95 f03d
000000e0: 7cf8 513c 9a6b 19be eb7a a0be ea24 30be
000000f0: fee2 a43d 1bef 3c3e 1570 d93d cada e6bd
00000100: 3205 c3bd 5912 2bbe 494f 90bc 3a3f 723c
00000110: fd67 333d 0207 99ba ab60 5abd 381c fdbc
00000120: 89e6 9dbc 23d4 9c3c c185 293d 2b27 ca3c
00000130: 2889 af3d 47e6 e43d 7e04 c63b da78 a9bd
00000140: 9451 d0bd 2a8d 8abd 703a ea3d e3ac d43d
00000150: 2afa eb3c e496 05be a5d9 45be 7640 88bd
00000160: 2e74 17bd c9a0 5d3d 2caa 913c c2e5 babd
00000170: 2713 96bd 4c57 95bc 7eff 62bd 0df1 553c
00000180: 777f 43bc 60cc d9bd daa3 84bd 2b97 48bd
00000190: 76e8 3bbc 4f97 8c3b b7ef b33c 50d9 cc3d
000001a0: 4c91 dc3c 2ac6 c83d 8dbb af3d d1d6 4c3d
000001b0: 8f2b 923d 61eb 87bd 6dea be3c d58f b0b8
000001c0: b280 6b3d ad67 c33d c58d 653c 3cc5 90bd
000001d0: 3c82 cbbd cfb8 3abe 9176 4fbd 5d90 a8bb
000001e0: 5a57 91bd 810f 81bd 5a1c 44bd ff0c ccbd
000001f0: af8b d4bd c4b2 abbd d08a 4dbe bf2a cdbd
00000200: 36ce 38bd c523 a53c 1686 adbd 537b 93be
00000210: f811 bfbe c359 83be 8f34 0dbe 23c0 a83d
00000220: a00d 51bc 3d03 b7bd 69f9 25be dc2f 2cbe
00000230: 0914 3e3d 55f7 6e3b 2e26 ddbb d3eb f9bc
00000240: 62ba 2cbd bba2 433d 01da a33c 7ae6 183d
00000250: e5e8 333d c75d 0bbc e0a1 26bd 6877 cfbc
00000260: 7b05 32be f14f c1bd 319f 35be b3e8 b8bc
00000270: 95c4 5abd de63 eebd a99e a3be 306e 91be
00000280: 52ce 363d 517f 263d 10f6 b4bd dc49 b4bd
00000290: 6458 bcbd 7a4d 053b 5489 c03d 41de 8c3d
000002a0: e77d d2bd 4bf9 243c 456b 1fbc edd4 a4bd
000002b0: a3f3 11be c39c 51bd 9381 9bbd 5a19 10be
000002c0: 65d2 d3bd dd2e eebd 9dc6 f0bd a73f efbd
000002d0: e8e0 59bd 2b1f f33d dcf4 623d c363 3bbd
000002e0: fd1f 703c f477 78bd 9b84 9abd 2fed 2fbe
000002f0: f564 a1bd 93cb 80bc bdc5 a0bd cfca 3f3c
00000300: 5923 a63d 9f0a 493e 368f 8b3d d63f 653e
00000310: e806 aa3d 9d2e 8e3d 613a 253e f485 15bd
00000320: 5ffc 913c e351 b3bd 0848 b1bd 83f1 443d
00000330: 64c7 03bd 1455 0f3e 89c2 a5bd 8032 54be
00000340: bc7c 58bd fa26 e73c b2c1 26bd d955 ac3c
00000350: 501f 04be 9216 75be df38 64be 89f9 07be
00000360: 8942 1d3d 26a8 c4bd b6bc 7dbd 1453 123d
00000370: 4717 683d 41b3 8b3b 2fc1 3c3e a6c8 3ebd
00000380: 308e d5bc 76b5 60bb c8ee 2dbc 8b7c 103d
00000390: 27c1 d8bd 95ef 6fbc 1485 ccbc 87d0 ac3d
000003a0: 53bc de3b 3493 9f3b 46cf 213d c01a 9cba
000003b0: 52ff 143e a33c 813e 3cce 1d3e 6b86 103e
000003c0: 19e5 073e 8b6f b73c 407b 9b3d b6a4 853d
000003d0: 0a0a 3ebd dd62 c1bd bc1e 2dbe f0d9 e4bd
000003e0: f73a 25bd d8ac 46bd 105b 843c 1a7c 16be
000003f0: bc76 abbc 2f87 77bd 8f4c 1dbe 3020 4a3e

conv2.0.bias f4 [16]
-0.6933942 -0.6376247 -0.83026856 -0.5599639 -1.0582646 -0.76019645 -1.3516783 -0.7823266
-0.67466927 -0.49493736 -0.9136083 -0.28236088 -0.27975324 -0.45710856 -0.42386198 -0.705551
00000000: 4882 31bf 5f3b 23bf 7b8c 54bf cb59 0fbf
00000010: 3775 87bf 3c9c 42bf cb03 adbf 8e46 48bf
00000020: 20b7 2cbf 6e68 fdbe 3ce2 69bf 9b91 90be
00000030: d13b 8fbe 220a eabe 7004 d9be fe9e 34bf

fc1.0.weight f4 [120, 400]
-0.008687453 -0.10216923 0.16205603 0.070727006 0.09169819 -0.11331813 0.014834491 0.1343707
0.23860317 0.13458364 0.01444981 0.029468913 0.07207324 0.010949638 -0.07370427 0.044549603
0.020336812 -0.023806142 0.057905395 -0.083131246 0.13884297 0.017287485 -0.10975084 0.08538144
0.10677241 -0.028015425 0.030948438 -0.045518085 0.014125672 0.007203927 0.09755223 0.020173017
0.03739087 0.042194076 0.12890671 0.011462127 0.10874124 0.100307554 0.02003013 0.002473951
0.19951852 0.028344901 0.038400527 0.021947289 0.30803367 0.15816936 -0.09339688 -0.10734373
-0.026251083 0.23352951 0.15237586 0.12774822 -0.028069722 0.092974894 -0.086815365 0.1907234
0.06296597 -0.028289545 -0.1890966 0.13111088 0.35323727 0.13878554 -0.07653942 -0.1435048
0.14469431 0.19882077 0.16440766 -0.017573042 -0.12036233 -0.21585068 0.031514093 0.07096513
0.07874095 -0.080358826 -0.14176713 0.013232116 0.04920137 0.229084 0.36457133 0.11117452
0.21696134 0.30644733 0.020951545 -0.13138741 0.073308796 0.36492553 0.14451337 -0.033745486
-0.10261437 0.06242299 0.0057051247 0.03273648 0.04698457 -0.042193927 -0.057271745 0.16936149
0.039548118 0.00041610812 0.039255153 -0.02373554 0.08321609 0.15410401 0.18180698 0.2613884
-0.13556364 0.092622094 0.22035913 0.10996893 -0.07244132 0.064234264 0.06445931 -0.005510607
0.048204236 0.00075028144 -0.09378786 0.06060485 0.25993234 0.25149977 -0.024665747 -0.08512091
-0.052763365 0.023509502 0.09212191 0.09829922 0.07626949 0.09900028 0.028813386 -0.23068309
-0.3727486 -0.085898764 0.014547972 -0.046154883 -0.10482411 -0.19184816 -0.04806548 -0.06417595
-0.049443077 -0.07379323 -0.064470254 0.14572655 0.16741218 -0.02726698 -0.09646781 -0.09978549
0.06693211 -0.07894214 -0.17022492 0.123006746 -0.07848122 0.085040875 -0.023998488 0.205633
-0.06934462 -0.23845862 -0.10615406 -0.03670828 0.0057646153 -0.12738281 -0.11918397 -0.23626068
-0.015527243 0.2263091 0.009914762 -0.08975212 -0.064635426 -0.004470095 0.0049330317 0.059301212
-0.12808667 0.03820347 -0.0902837 -0.13448259 0.019028494 0.14074124 -0.09526503 -0.07109667
0.13088496 0.20707613 0.09993367 0.0049380194 0.15508774 0.1393384 -0.06065697 0.11336874
-0.05070035 0.19155152 0.078544 -0.01579754 -0.058502108 -0.022337213 0.330192 0.07113247
-0.113212936 0.007250058 0.1437826 0.26432392 0.16137476 0.0633266 -0.08444302 -0.08474695
0.096510276 0.046232853 -0.061813407 -0.041817807 0.042654328 -0.061453965 0.120441884 0.0389765
-0.08513732 -0.029715119 0.14050046 0.12941292 -0.051864423 -0.04590933 0.1530675 0.24972145
0.08670292 0.042516027 -0.118872665 -0.017440956 -0.02713714 0.14382248 0.05603651 -0.023195287
-0.1099163 -0.20579605 -0.067238964 -0.16673785 -0.14629184 -0.24986798 0.00025999278 -0.0858961
-0.010203827 -0.15658388 -0.007908544 -0.01637411 -0.017354863 -0.041245002 0.13656045 0.052167375
0.14926706 0.049862064 -0.0018415555 0.00018447159 -0.09992724 0.0055982866 0.046788987 0.09802285
-0.043985702 0.0029386599 0.022655528 0.055898212 0.0971798 0.1992016 0.027125066 0.13400549
00000000: d255 0ebc 1a3e d1bd 04f2 253e 52d9 903d
00000010: 43cc bb3d 5613 e8bd 5d0c 733c 7998 093e
00000020: 6454 743e 4bd0 093e e5be 6c3c ca68 f13c
00000030: 239b 933d 1c66 333c 44f2 96bd a579 363d
00000040: 6399 a63c 1905 c3bc 352e 6d3d b740 aabd
00000050: da2c 0e3e 7c9e 8d3c 0cc5 e0bd 77dc ae3d
00000060: 7eab da3d 9b80 e5bc 9487 fd3c 2c71 3abd
00000070: 5d6f 673c eb0e ec3b 77c9 c73d e241 a53c
00000080: 2b27 193d b2d3 2c3d 1f00 043e a5cb 3b3c
00000090: bab3 de3d 0c6e cd3d 3a16 a43c 0322 223b
000000a0: 954e 4c3e 9133 e83c df49 1d3d cdca b33c
000000b0: 97b6 9d3e 26f7 213e dd46 bfbd 08d7 dbbd
000000c0: 830c d7bc 5c22 6f3e 6b08 1c3e 6ed0 023e
000000d0: 79f2 e5bc 9f69 be3d 41cc b1bd ff4c 433e
000000e0: 4df4 803d 7abf e7bc 8aa2 41be ee41 063e
000000f0: 84db b43e cc1d 0e3e b3c0 9cbd ecf2 12be
00000100: bf2a 143e ac97 4b3e 7b5a 283e 57f5 8fbc
00000110: 8680 f6bd f607 5dbe ec14 013d 2b56 913d
00000120: ef42 a13d 2b93 a4bd 672b 11be 84cb 583c
00000130: 6087 493d ff94 6a3e 18a9 ba3e 77af e33d
00000140: 1d2b 5e3e aae6 9c3e 93a2 ab3c 6c8a 06be
00000150: ec22 963d 85d7 ba3e 50fb 133e b538 0abd
00000160: 7c27 d2bd 40af 7f3d 0ef2 ba3b b016 063d
00000170: e472 403d 8ad3 2cbd c795 6abd 196d 2d3e
00000180: 35fd 213d 1629 da39 03ca 203d 0971 c2bc
00000190: 336d aa3d 71cd 1d3e 9c2b 3a3e b3d4 853e
000001a0: 32d1 0abe a7b0 bd3d d3a5 613e 6437 e13d
000001b0: 1d5c 94bd 418d 833d 3e03 843d 5292 b4bb
000001c0: ce71 453d 89ae 443a d913 c0bd cb3c 783d
000001d0: da15 853e 94c4 803e d20f cabc df53 aebd
000001e0: 661e 58bd 0097 c03c 69aa bc3d 1a51 c93d
000001f0: 2e33 9c3d a9c0 ca3d 0d0a ec3c 3038 6cbe
00000200: e8d8 bebe b1eb afbd 9e5a 6e3c e70c 3dbd
00000210: 06ae d6bd d873 44be 4fe0 44bd ae6e 83bd
00000220: d384 4abd e820 97bd fb08 84bd 5739 153e
00000230: 196e 2b3e 005f dfbc ea90 c5bd 565c ccbd
00000240: b413 893d 6bac a1bd 714f 2ebe f6ea fb3d
00000250: c3ba a0bd e929 ae3d 7a98 c4bc 7591 523e
00000260: 8d04 8ebd 7f2e 74be 4d67 d9bd 6c5b 16bd
00000270: 19e5 bc3b a470 02be ba16 f4bd 52ee 71be
00000280: fa65 7ebc 93bd 673e 8771 223c f6cf b7bd
00000290: 945f 84bd e079 92bb 45a5 a13b d4e5 723d
000002a0: 2729 03be 3e7b 1c3d a9e6 b8bd ceb5 09be
000002b0: a5e1 9b3c 791e 103e 501a c3bd 229b 91bd
000002c0: b506 063e c40b 543e 06aa cc3d 1ccf a13b
000002d0: 52cf 1e3e baae 0e3e 7173 78bd df2d e83d
000002e0: 2cab 4fbd 1526 443e addb a03d d869 81bc
000002f0: e89f 6fbd 88fc b6bc ed0e a93e e7ad 913d
00000300: 2fdc e7bd e591 ed3b bf3b 133e 7755 873e
00000310: 6d3f 253e 60b1 813d 76f0 acbd cf8f adbd
00000320: 2ea7 c53d a95e 3d3d 0e30 7dbd 2649 2bbd
00000330: 4eb6 2e3d 27b7 7bbd 3caa f63d d3a5 1f3d
00000340: 7a5c aebd 1f6d f3bc 5adf 0f3e d284 043e
00000350: ca6f 54bd 6c0b 3cbd babd 1c3e fbb6 7f3e
00000360: 4d91 b13d 4925 2e3d 8373 f3bd 56e0 8ebc
00000370: b54e debc 3346 133e 8a86 653d 0b04 bebc
00000380: cc1b e1bd 33bc 52be 95b4 89bd 54bd 2abe
00000390: 87cd 15be 64dd 7fbe a44f 8839 4bea afbd
000003a0: f42d 27bc 8657 20be d692 01bc ff22 86bc
000003b0: c92b 8ebc 85f0 28bd 81d6 0b3e 75ad 553d
000003c0: 77d9 183e 2a3c 4c3d 5960 f1ba b76e 4139
000003d0: a7a6 ccbd d571 b73b cfa5 3f3d 34c0 c83d
000003e0: 5a2a 34bd 8896 403b 1698 b93c 86f5 643d
000003f0: 3406 c73d 81fb 4b3e 6335 de3c bc38 093e

fc1.0.bias f4 [120]
0.20216915 0.35365415 0.29958817 -0.12545381 0.3570932 -0.14125703 0.065238215 0.02942672
0.17785041 0.37923354 0.35039806 -0.047410537 -0.053751867 -0.17772938 0.019482281 -0.37632376
-0.043492116 0.21575093 0.51126313 -0.10227993 0.55975085 -0.046200063 0.25726888 -0.29081044
0.104603626 0.33873168 0.37763754 -0.47224957 -0.5337134 0.3203865 -0.07237617 -0.49493688
0.037373956 -0.10111326 0.3450569 -0.34689605 -0.21940665 0.29683897 0.34770986 0.09537934
0.13804902 -0.11041598 -0.1990034 -0.0047619087 0.16628966 -0.007991164 0.4765158 0.0530057
0.24474193 -0.25527567 -0.039240494 -0.119850665 -0.16659252 0.043861378 -0.014903681 -0.042835947
0.12463449 -0.5262042 0.30558106 -0.13337845 -0.28943905 0.11101269 -0.18989007 -0.08755688
-0.1943363 -0.06828102 -0.37700474 -0.16308275 0.15493976 0.15248796 0.108824566 -0.18320057
0.32821214 0.43591392 -0.20249775 0.023014091 -0.4732074 -0.061221786 -0.26019624 0.2071877
0.37025934 0.040666286 0.22502962 0.24995919 -0.10529732 -0.41763985 0.36986622 0.00902618
-0.14893174 -0.52908385 -0.08677371 -0.13474557 0.06457579 -0.07924672 0.17845428 0.15275618
0.51788163 0.032378245 -0.38284045 -0.28190744 0.24232678 0.16064367 -0.21275611 0.0076307068
0.2865954 -0.13153988 0.27129054 0.23327614 -0.111845635 0.0077789035 0.21832748 -0.069718055
-0.032286588 0.15889058 0.07235434 -0.55615646 0.26725522 -0.26916698 -0.22698618 0.36233658
00000000: 6e05 4f3e 2812 b53e 9f63 993e f776 00be
00000010: ebd4 b63e afa5 10be 9d9b 853d 4e10 f13c
00000020: 6b1e 363e e62a c23e 6067 b33e 8d31 42bd
00000030: eb2a 5cbd b1fe 35be 4e99 9f3c 82ad c0be
00000040: ca24 32bd d0ed 5c3e 24e2 023f 2478 d1bd
00000050: d54b 0f3f 473c 3dbd bfb8 833e 1be5 94be
00000060: 6d3a d63d 3d6e ad3e b559 c13e b2ca f1be
00000070: 71a1 08bf b309 a43e f539 94bd 5e68 fdbe
00000080: 6f15 193d 7814 cfbd 4cab b03e 5c9c b1be
00000090: 23ac 60be 47fb 973e 0707 b23e 3e56 c33d
000000a0: b95c 0d3e c621 e2bd 8cc7 4bbe c909 9cbb
000000b0: d647 2a3e 5fed 02bc e1f9 f33e 811c 593d
000000c0: a19d 7a3e 7eb3 82be a4ba 20bd 4474 f5bd
000000d0: 3b97 2abe fda7 333d 922e 74bc bf74 2fbd
000000e0: 5e40 ff3d 52b5 06bf 1f75 9c3e 5c94 08be
000000f0: 5b31 94be 9f5a e33d 8b72 42be 0651 b3bd
00000100: 1800 47be ebd6 8bbd c406 c1be 2aff 26be
00000110: 87a8 1e3e ce25 1c3e 6adf de3d ee98 3bbe
00000120: 6c0b a83e 1c30 df3e 925b 4fbe 0c88 bc3c
00000130: 3e48 f2be b2c3 7abd 7138 85be 0329 543e
00000140: a292 bd3e b191 263d 2a6e 663e 4df5 7f3e
00000150: 1fa6 d7bd e4d4 d5be 1b5f bd3e 8be2 133c
00000160: 9081 18be 0a72 07bf 6ab6 b1bd befa 09be
00000170: 5040 843d 1b4c a2bd b8bc 363e 1e6c 1c3e
00000180: e493 043f 0d9f 043d aa03 c4be 2c56 90be
00000190: 8324 783e c67f 243e bddc 59be 020b fa3b
000001a0: a2bc 923e 64b2 06be 98e6 8a3e f1df 6e3e
000001b0: 530f e5bd 2ce6 fe3b 3d91 5f3e 57c8 8ebd
000001c0: f13e 04bd 36b4 223e 832e 943d 4560 0ebf
000001d0: add5 883e 41d0 89be 116f 68be 2e84 b93e

fc2.0.weight f4 [84, 120]
0.027089687 0.03872077 -0.12555748 0.07445303 -0.019972421 -0.26229426 -0.028334836 0.11115091
-0.2686509 0.021305475 -0.12228817 0.18865517 0.00013060901 0.16275086 -0.18182239 0.041302454
-0.08131391 -0.063805774 -0.23007071 -0.05544994 0.1295559 0.044014048 0.21076584 0.06422962
-0.16143805 -0.067511015 -0.13491827 -0.0037911937 -0.022284605 0.11433276 -0.1302641 0.17747946
0.2002963 0.030196473 0.12007598 -0.05283221 -0.068207905 -0.14766282 -0.05444104 -0.19183329
0.07771764 -0.08631944 -0.051569548 0.06722087 -0.13856287 0.011459326 -0.0023596974 -0.22089627
0.18568683 0.0573771 -0.22072718 -0.0013573101 0.13198024 0.2585602 0.076074645 -0.1916039
-0.019418938 0.014235278 -0.025211697 -0.07482515 0.049144275 0.048815716 -0.20710663 0.120739184
-0.017155347 -0.079511866 0.07732455 0.19089696 -0.055385143 0.046639744 -0.038040373 0.050883684
0.041193232 -0.043467827 0.13918932 -0.060126238 -0.047475047 0.046440687 0.09895977 -0.042034563
0.047037646 0.17683583 -0.20138998 -0.16458276 0.12553424 0.1492879 0.15861507 -0.023340784
-0.0019669484 0.257762 0.14868386 0.032448098 0.027848283 -0.12603535 -0.11323851 0.16523255
0.01824533 -0.07174639 0.03450835 0.077998765 -0.056814525 -0.0009954137 -0.11116859 0.17333086
-0.14463212 -0.007857022 -0.032280065 -0.058500383 0.0063448814 0.06885976 0.054056536 0.16402632
-0.010943031 -0.07816524 0.11676931 0.12761222 0.022840908 0.10731212 0.00095444964 -0.17247927
0.26278105 0.27136523 -0.010753926 0.13059336 0.12594725 -0.20606121 -0.24884386 0.014251035
-0.084343955 0.032754004 0.014702097 0.19981274 -0.03075962 0.12848286 0.07182929 0.01636963
-0.00462241 0.12659274 0.16587691 -0.24146378 0.095900856 -0.16812822 0.16163231 -0.035339184
0.0985124 0.06973733 0.06963786 -0.30300543 -0.06943346 0.102716066 -0.08524085 -0.07031858
0.09129973 -0.09961519 0.03833073 0.12235426 -0.17263505 -0.046383753 0.10037043 -0.08883464
-0.15808706 -0.12108176 -0.073299445 -0.024731668 0.21358621 0.08332348 0.1594197 0.022943424
0.10116293 0.11478974 0.048332866 -0.10052717 -0.009951721 0.19640312 0.19169174 -0.15826853
0.18149722 0.16777246 0.07542805 0.03162966 -0.12993552 0.10690066 -0.03018182 0.035799406
-0.37766343 0.10686561 -0.16109289 -0.28029883 -0.01589837 0.10313412 -0.057410445 0.06435578
-0.08098379 0.09181823 -0.044433657 -0.15870109 -0.21393703 0.08046958 -0.09061734 -0.046024933
0.04509894 0.06784554 0.03648093 0.055608004 -0.19051509 0.2207184 -0.026765075 -0.015516186
0.08320073 -0.08277557 0.037038162 0.02708993 0.0021178522 -0.11793403 -0.044286236 0.034081545
0.21312255 -0.05844178 -0.078576766 0.030969843 0.12885313 0.10864292 0.078240454 0.09919335
-0.22668672 -0.087259 -0.114787064 0.044248667 -0.059011158 0.054953553 -0.004126249 -0.027549475
0.024407946 -0.065222085 -0.01201719 -0.025850225 0.16931802 -0.021079557 0.06105468 0.014208196
0.0153673515 0.13760652 -0.061355397 0.04005264 0.00017845303 -0.105498135 0.017744057 0.050659563
0.1150862 0.14989357 -0.113141686 0.051254243 -0.004311165 -0.16417307 -0.022772046 -0.08676811
00000000: 31eb dd3c ac99 1e3d 2492 00be d57a 983d
00000010: 349d a3bc 6f4b 86be 751e e8bc 17a3 e33d
00000020: 9c8c 89be d288 ae3c 3872 fabd d22e 413e
00000030: 17f4 0839 29a8 263e a62f 3abe c32c 293d
00000040: e887 a6bd 9aac 82bd a897 6bbe 7a1f 63bd
00000050: 4daa 043e 1348 343d 00d3 573e d28a 833d
00000060: 0450 25be 3743 8abd 0428 0abe ad75 78bb
00000070: 348e b6bc 4b27 ea3d f463 05be 2dbd 353e
00000080: 791a 4d3e 985e f73c 65ea f53d 9666 58bd
00000090: 96b0 8bbd ec34 17be 91fd 5ebd f26f 44be
000000a0: 6d2a 9f3d 3fc8 b0bd 973a 53bd 18ab 893d
000000b0: 6de3 0dbe e6bf 3b3c 27a5 1abb a232 62be
000000c0: b024 3e3e 4004 6b3d 4e06 62be c5e7 b1ba
000000d0: d425 073e 0162 843e 06cd 9b3d d033 44be
000000e0: 7714 9fbc 153b 693c c388 cebc ee3d 99bd
000000f0: 824b 493d fdf2 473d c313 54be 1b46 f73d
00000100: 5f89 8cbc 1ed7 a2bd 555c 9e3d 7e7a 433e
00000110: 88db 62bd 5109 3f3d 39d0 1bbd 696b 503d
00000120: 3cba 283d 520b 32bd a587 0e3e ee46 76bd
00000130: 3275 42bd 9738 3e3d 6bab ca3d 6f2c 2cbd
00000140: 8caa 403d 7414 353e 2d39 4ebe 6288 28be
00000150: 0c8c 003e edde 183e fd6b 223e 2c35 bfbc
00000160: ebe7 00bb 62f9 833e 9540 183e 4ce8 043d
00000170: 1522 e43c 690f 01be 98e9 e7bd b932 293e
00000180: 3b77 953c c5ef 92bd a158 0d3d d1bd 9f3d
00000190: 59b6 68bd 8b78 82ba 5cac e3bd a57d 313e
000001a0: 711a 14be bdba 00bc 1a38 04bd 199e 6fbd
000001b0: b9e8 cf3b 5906 8d3d 636a 5d3d 84f6 273e
000001c0: 664a 33bc 1915 a0bd bf24 ef3d c7ac 023e
000001d0: db1c bb3c 75c6 db3d 0834 7a3a 689e 30be
000001e0: 3d8b 863e 62f0 8a3e 3c31 30bc 44ba 053e
000001f0: 51f8 003e b601 53be edd0 7ebe 2c7d 693c
00000200: 86bc acbd 1029 063d 10e1 703c b69b 4c3e
00000210: 99fb fbbc 0391 033e 3c1b 933d 9a19 863c
00000220: 9677 97bb 87a1 013e a3db 293e 4842 77be
00000230: ab67 c43d ce29 2cbe f182 253e d2bf 10bd
00000240: dfc0 c93d 72d2 8e3d 4b9e 8e3d 8723 9bbe
00000250: 2133 8ebd cd5c d23d c192 aebd 3003 90bd
00000260: 5afb ba3d 0c03 ccbd af00 1d3d df94 fa3d
00000270: 3ec7 30be e4fc 3dbd 038f cd3d f0ee b5bd
00000280: 93e1 21be b7f9 f7bd 051e 96bd 119a cabc
00000290: 58b6 5a3e 80a5 aa3d eb3e 233e d9f3 bb3c
000002a0: 832e cf3d e216 eb3d aff8 453d 30e1 cdbd
000002b0: 8b0c 23bc e61d 493e d74a 443e 2511 22be
000002c0: 68da 393e 8bcc 2b3e 057a 9a3d 1a8e 013d
000002d0: d10d 05be bcee da3d dd3f f7bc 66a2 123d
000002e0: 1a5d c1be 5bdc da3d 89f5 24be 5483 8fbe
000002f0: 4c3d 82bc fb37 d33d 3727 6bbd f7cc 833d
00000300: d4da a5bd 320b bc3d 1100 36bd 8a82 22be
00000310: 4f12 5bbe 3ccd a43d 9595 b9bd a484 3cbd
00000320: abb9 383d 9af2 8a3d 076d 153d 38c5 633d
00000330: 6316 43be 0104 623e 6e42 dbbc 9a37 7ebc
00000340: 2565 aa3d 3d86 a9bd 54b5 173d b3eb dd3c
00000350: aacb 0a3b 6687 f1bd 7c65 35bd 1799 0b3d
00000360: cc3c 5a3e a660 6fbd dbec a0bd 78b4 fd3c
00000370: 13f2 033e 2e80 de3d 883c a03d e225 cb3d
00000380: 9020 68be d9b4 b2bd 7b15 ebbd 173e 353d
00000390: afb5 71bd fa16 613d 7c35 87bb 70af e1bc
000003a0: 2cf3 c73c 2893 85bd c0e3 44bc dac3 d3bc
000003b0: b461 2d3e 09af acbc 7914 7a3d 7ec9 683c
000003c0: 58c7 7b3c b9e8 0c3e cc4f 7bbd 3d0e 243d
000003d0: 1f1f 3b39 680f d8bd fc5b 913c 6780 4f3d
000003e0: 50b2 eb3d b37d 193e d4b6 e7bd f8ef 513d
000003f0: ac44 8dbb fc1c 28be 718c babc 7bb3 b1bd

fc2.0.bias f4 [84]
-0.03295441 0.16360654 0.26594895 0.16257983 0.038024556 0.16216536 0.048122898 -0.007947787
0.00749305 -0.10927698 -0.19220659 0.19589739 -0.09119628 -0.16360076 0.041347977 0.063119344
-0.13263184 -0.13141674 -0.091016494 0.23948927 0.041566104 -0.293405 -0.077160805 0.058957376
-0.077332534 0.11350401 -0.44566196 -0.017097486 0.018271415 0.029577956 -0.12860382 0.24753621
-0.47580257 0.24812038 -0.10443265 0.1856332 0.011760629 0.020499714 0.38924548 0.32941842
0.13296077 -0.113884404 -0.05416703 -0.15992239 -0.035881616 0.07206531 0.20018992 0.2590706
-0.10274781 -0.2670037 0.06528442 -0.3318392 0.0010259516 0.07241302 0.088683784 -0.179583
-0.13846199 -0.16439031 0.016578345 -0.118342206 -0.039125323 -0.18689995 -0.16858923 0.04496323
0.17662966 0.11368479 -0.37724334 -0.45674342 0.039259557 -0.21271245 -0.43447298 0.10585455
-0.2133223 -0.3521244 0.17390117 0.013928793 -0.006101899 0.043272972 -0.18882675 -0.061895918
0.004922456 -0.010640649 0.13708629 -0.16359183
00000000: 34fb 06bd 7988 273e 762a 883e 547b 263e
00000010: a3bf 1b3d ad0e 263e 841c 453d 6f37 02bc
00000020: 4288 f53b 9ccc dfbd ced1 44be 5399 483e
00000030: 1ec5 babd f586 27be 7f5c 293d b744 813d
00000040: a4d0 07be 1c92 06be db66 babd ad3c 753e
00000050: 3841 2a3d 2e39 96be 7c06 9ebd 4a7d 713d
00000060: 8560 9ebd ca74 e83d ce2d e4be 0710 8cbc
00000070: efad 953c 784d f23c b8b0 03be 227a 7d3e
00000080: 659c f3be 4513 7e3e c9e0 d5bd a116 3e3e
00000090: a7af 403c 04ef a73c 2f4b c73e 88a9 a83e
000000a0: de26 083e 3a3c e9bd 3fde 5dbd b2c2 23be
000000b0: 9af8 12bd fa96 933d 96fe 4c3e e7a4 843e
000000c0: 726d d2bd b5b4 88be d7b3 853d d4e6 a9be
000000d0: 3979 863a 474d 943d d89f b53d 9be4 37be
000000e0: fbc8 0dbe ef55 28be 4fcf 873c 665d f2bd
000000f0: e041 20bd b362 3fbe a8a2 2cbe 5d2b 383d
00000100: 68de 343e 92d3 e83d 0a26 c1be 46da e9be
00000110: a1ce 203d 4bd1 59be 3e73 debe 45ca d83d
00000120: 2971 5abe a649 b4be 2613 323e 9835 643c
00000130: 70f2 c7bb 003f 313d cd5b 41be 9386 7dbd
00000140: 8e4c a13b 1e56 2ebc 5960 0c3e 9e84 27be

fc3.0.weight f4 [10, 84]
0.12954283 -0.29366463 -0.13385391 0.12664863 -0.05981813 0.1327471 -0.13068597 0.06271749
0.069221206 0.273782 0.04829056 -0.078709275 0.2674659 0.27506194 0.17527124 0.1115678
-0.15018184 -0.22048675 -0.042565446 -0.07714039 0.1526438 0.19578548 0.3193915 -0.24657159
0.2778021 -0.11460161 0.19449311 -0.112677164 0.103673756 -0.18543829 -0.1960987 -0.0119718285
0.3208369 -0.034212198 0.19099692 -0.1241174 0.09735694 -0.07815961 -0.07095623 -0.09110147
0.146487 -0.18394926 0.12977448 0.21279186 -0.17401755 0.1738689 -0.24545492 -0.2744912
-0.34582764 0.034735974 0.24182305 0.14794771 0.012235965 0.14686495 -0.15633166 -0.052403536
0.03836768 0.17131355 -0.19054526 0.03684291 -0.00461987 -0.02313508 -0.1300461 0.05414006
0.039699595 -0.13494757 -0.094070464 0.21843806 0.17945637 0.28030497 0.10269677 -0.22809729
0.21408607 0.18842405 -0.19764948 -0.19671592 0.2820805 -0.041029654 0.19653343 0.05155553
0.2411916 0.18325068 -0.19303082 0.26804546 -0.15678199 0.02544994 0.24840693 -0.03333596
0.13775662 -0.15207498 -0.22069675 -0.23743905 -0.11771587 -0.16904166 -0.22564402 0.17548396
0.23275413 0.23274298 0.32607841 0.31129324 0.23532504 -0.19440553 0.1803736 0.22605446
0.16037698 -0.040399823 -0.0057638297 -0.27050778 0.22384126 -0.082493596 -0.06838929 0.1135976
-0.22654483 -0.101367466 0.17139429 -0.014539486 0.26173466 0.16343582 -0.23708293 0.140881
-0.20983464 0.21337305 0.08332478 0.17736602 -0.30263847 0.026131148 0.1223588 -0.18330371
-0.005259364 0.16207905 0.1039146 -0.09967249 -0.13475373 0.17225477 0.21300963 -0.17549494
-0.20203839 0.034962825 0.20790668 -0.17508836 0.13934447 -0.11174926 -0.03955332 0.116521284
0.07252263 0.04256068 0.19258219 -0.25915146 0.093620315 -0.10166393 0.23309144 -0.05619797
-0.18322705 0.15028003 -0.22243571 0.18571983 -0.1595779 -0.110667236 0.25422692 -0.09799666
-0.069624595 0.13437568 -0.1378523 -0.239303 -0.21632387 0.16394934 -0.12875222 -0.089285314
-0.13893925 0.0816957 -0.05689207 -0.08857741 -0.1267945 0.1603565 0.108696714 -0.06367232
-0.0084736245 -0.11822171 -0.11331169 -0.23416752 -0.16296479 -0.21025074 -0.13424852 0.23944108
0.12830922 -0.15261336 -0.082413025 0.1854167 -0.205404 0.07490162 -0.16395801 0.07367556
0.22401455 -0.20426477 -0.1827695 -0.23102842 -0.15998092 -0.0039456123 -0.021378767 0.16652833
0.17058843 -0.07374062 -0.17924535 0.1013287 0.14934318 0.07269173 0.12164998 -0.008282855
0.26835194 -0.23500058 -0.23206885 0.11831602 0.18291132 0.09840925 0.027985703 0.1646299
-0.14032021 -0.16448249 -0.010975293 -0.1959342 -0.20929296 0.1252109 -0.15625417 0.11003757
-0.2112761 0.15001878 0.12951532 0.040022664 0.07831662 -0.15357082 -0.047897946 0.021579066
0.19387515 -0.20591733 -0.023393 -0.113364175 0.1328259 -0.25542346 -0.181235 -0.006945219
0.11461754 -0.154903 -0.24998368 -0.12983288 0.19942842 0.2782995 0.06183857 0.16079277
-0.11897596 0.21405995 -0.09466302 -0.21207744 -0.1461163 -0.08585263 -0.14123547 0.21262854
00000000: e0a6 043e 365b 96be 0011 09be 2eb0 013e
00000010: db03 75bd dbee 073e 8bd2 05be 0772 803d
00000020: d9c3 8d3d 282d 8c3e 52cc 453d 5432 a1bd
00000030: 4af1 883e ebd4 8c3e 4e7a 333e a97d e43d
00000040: 45c9 19be 47c7 61be 1b59 2ebd c8fb 9dbd
00000050: a84e 1c3e fd7b 483e 4887 a33e 437d 7cbe
00000060: 143c 8e3e 40b4 eabd 3429 473e 49c3 e6bd
00000070: e852 d43d 89e3 3dbe 19ce 48be 7d25 44bc
00000080: bc44 a43e 1722 0cbd b294 433e 4331 febd
00000090: 1363 c73d 2512 a0bd 8051 91bd 6893 babd
000000a0: b000 163e 325d 3cbe 9ae3 043e 1ce6 593e
000000b0: a831 32be b00a 323e 8958 7bbe 1c8a 8cbe
000000c0: 5210 b1be 4f47 0e3d 76a0 773e 9b7f 173e
000000d0: 5b79 483c c463 163e 6815 20be 17a5 56bd
000000e0: 6e27 1d3d d26c 2f3e 4c1e 43be 97e8 163d
000000f0: 4762 97bb c785 bdbc ce2a 05be f8c1 5d3d
00000100: 0b9c 223d b22f 0abe 04a8 c0bd 3aae 5f3e
00000110: 69c3 373e 2284 8f3e af52 d23d 5692 69be
00000120: 6139 5b3e 3cf2 403e a064 4abe e66f 49be
00000130: db6c 903e b60e 28bd 0f40 493e e42b 533d
00000140: eefa 763e 11a6 3b3e dfa9 45be 413d 893e
00000150: 758b 20be 647c d03c 635e 7e3e 4a8b 08bd
00000160: 1210 0d3e 8bb9 1bbe 54fe 61be 3923 73be
00000170: 0515 f1bd 4219 2dbe 3a0f 67be 11b2 333e
00000180: 1957 6e3e 2d54 6e3e c0f3 a63e d461 9f3e
00000190: 0cf9 703e 3e12 47be dbb3 383e d27a 673e
000001a0: dd39 243e 497a 25bd 82de bcbb ff7f 8abe
000001b0: a536 653e 67f2 a8bd af0f 8cbd dca5 e83d
000001c0: 5efb 67be bf99 cfbd fc81 2f3e 0637 6ebc
000001d0: 1602 863e b85b 273e dec5 72be 1c43 103e
000001e0: e4de 56be 777e 5a3e 2fa6 aa3d 709f 353e
000001f0: 6ef3 9abe fd10 d63c 4097 fa3d f8b3 3bbe
00000200: be56 acbb 0df8 253e 2ed1 d43d 1721 ccbd
00000210: e2fc 09be 8e63 303e 321f 5a3e f2b4 33be
00000220: 27e3 4ebe 2e35 0f3d 7de5 543e 5d4a 33be
00000230: 51b0 0e3e ccdc e4bd a902 22bd b6a2 ee3d
00000240: bf86 943d 1c54 2e3d 4434 453e 80af 84be
00000250: 02bc bf3d 2e35 d0bd 86af 6e3e d82f 66bd
00000260: df9f 3bbe 02e3 193e 30c6 63be 572d 3e3e
00000270: 6468 23be 81a5 e2bd 082a 823e 79b2 c8bd
00000280: 5797 8ebd c799 093e 2729 0dbe d80b 75be
00000290: 0184 5dbe 56e2 273e 9fd7 03be 38db b6bd
000002a0: 1746 0ebe 1350 a73d a907 69bd 1368 b5bd
000002b0: 6bd6 01be 7f34 243e 629c de3d a266 82bd
000002c0: f5d4 0abc 391e f2bd f60f e8bd 9cc9 6fbe
000002d0: 3ee0 26be f84b 57be 7278 09be 0b30 753e
000002e0: 7e63 033e ad46 1cbe 29c8 a8bd e0dd 3d3e
000002f0: 6d55 52be 0566 993d 9ce4 27be 36e3 963d
00000300: 1264 653e c92a 51be ee27 3bbe b792 6cbe
00000310: 0ad2 23be 324a 81bb 8622 afbc 6786 2a3e
00000320: bcae 2e3e 5205 97bd 188c 37be 6c85 cf3d
00000330: 6bed 183e 67df 943d a023 f93d d0b4 07bc
00000340: 6d65 893e fea3 70be 75a3 6dbe ab4f f23d
00000350: 1b4d 3b3e ca8a c93d 4642 e53c be94 283e
00000360: 1ab0 0fbe 196e 28be b7d1 33bc faa2 48be
00000370: e550 56be 4937 003e 1801 20be 615b e13d
00000380: c358 58be 869e 193e aa9f 043e ceee 233d
00000390: 7764 a03d ab41 1dbe a330 44bd 95c6 b03c
000003a0: 3587 463e fedb 52be ada2 bfbc 7a2b e8bd
000003b0: 8303 083e ddc6 82be ab95 39be b894 e3bb
000003c0: 9abc ea3d e49e 1ebe b9fb 7fbe e9f2 04be
000003d0: f736 4c3e 467d 8e3e 714a 7d3d dca6 243e
000003e0: aba9 f3bd 8832 5b3e afde c1bd d42a 59be
000003f0: 839f 15be 81d3 afbd 08a0 10be 4cbb 593e

fc3.0.bias f4 [10]
-0.5126861 0.06440023 0.28779247 -0.19747847 -0.08173405 0.22541836 -0.47740284 0.35545278
0.115165055 0.17494293
00000000: 653f 03bf 45e4 833d 8959 933e cc37 4abe
00000010: 2e64 a7bd 12d4 663e 256e f4be e8fd b53e
00000020: a8db eb3d 3d24 333e
