save_checkpoints/LeNet5_epoch_24.pth (torch, 249863 bytes, 10 tensors)

conv1.0.weight f4 [6, 1, 5, 5]
000000 3c 65 dd bd 20 82 52 bc f3 39 01 be 71 d2 f1 bc
       -0.108103245 -0.012848407 -0.12619762 -0.029519292
000010 44 67 b6 3e e2 c2 b2 be 28 46 65 be 8b 84 40 3c
       0.3562566 -0.3491431 -0.22390044 0.011750351
000020 42 ae a5 3d f9 5f f4 3c de 1b 6f 3e ec dc 50 3e
       0.08089878 0.02983092 0.23350474 0.20396775
000030 50 4a 13 3e 1b 34 82 3e e4 95 60 3e 5d fd 1a 3d
       0.14383817 0.25430378 0.21932179 0.037839282
000040 89 f0 da 3d 67 2f 99 3e 02 c9 0c 3f c0 17 22 bd
       0.1069041 0.29918978 0.54994214 -0.03957343
000050 25 61 22 3e f6 58 a5 3d 56 0e 8c bc db f1 24 3e
       0.1585737 0.080736086 -0.01709668 0.16107886
000060 bc 9f 40 be 06 aa c9 bc d3 be 4f 3e 94 d2 05 3e
       -0.18810934 -0.024617206 0.20287637 0.1306861
000070 fd ed 9f 3d 78 74 4d bc 0b 8a d0 be be 93 07 bf
       0.078090645 -0.012539975 -0.40730318 -0.5295981
000080 a9 ea 8b be c7 f5 5e be 69 50 53 be fd 20 c4 bd
       -0.2732747 -0.21773444 -0.20636143 -0.095766045
000090 1a 3e f9 bd 22 b6 88 be f0 f8 b3 bd 1d e3 4d be
       -0.12170048 -0.26701456 -0.087877154 -0.20106168
0000a0 2a 5c 25 3e 3e 0b 3b 3e 1d 66 00 3e e7 01 77 3d
       0.16148439 0.18266007 0.12538953 0.06030455
0000b0 46 05 eb 3d fc 1e 2b 3d b6 96 c5 bc 1e 86 41 3a
       0.11475615 0.041777596 -0.024119716 0.0007382351
0000c0 a5 84 b1 3d a0 ac 0c 3d e7 51 f7 bc cb 3c 59 3c
       0.08667878 0.034344316 -0.030190421 0.013259123
0000d0 e7 f9 84 bd ff 1d 82 3e b0 08 a0 bd ae 64 e9 bd
       -0.064929776 0.2541351 -0.07814157 -0.11396156
0000e0 98 1f 92 3e 14 39 80 3e 06 5a 71 bc 2e 3d 5e 3d
       0.2853973 0.25043547 -0.014730936 0.054257564
0000f0 e3 8c 89 be d0 4a 7a 3e 62 7d 41 3e e7 37 84 3b
       -0.268653 0.24442601 0.18895486 0.0040349844
000100 99 6c b8 bc 34 72 32 bc 0a 9c be 3e 31 a2 a0 bd
       -0.02251272 -0.010891486 0.37228423 -0.078434356
000110 6b 53 f1 bd 9c 95 1d be cb 0a 53 3e 33 fc 9c 3e
       -0.11783489 -0.15389103 0.20609586 0.30661163
000120 88 91 c7 bd 0c d7 1e be 1f d2 8b be ae c1 81 3e
       -0.09744555 -0.15511721 -0.27308747 0.25343078
000130 05 2d 0d 3d 41 70 1e 3d 60 c3 6e 3d 78 bb 69 3e
       0.034466762 0.038681272 0.058291793 0.2282542
000140 8e 0c c2 3c 17 6a 9b be 18 ae aa be 49 2c 4b be
       0.023687627 -0.30354378 -0.33335948 -0.19841112
000150 8b 1b 35 be 66 b0 fd bd 71 ae bd be f5 65 02 bd
       -0.17686288 -0.12387161 -0.3704715 -0.031835515
000160 c7 20 38 bd b7 2c 8f bd 80 59 eb be 77 9b 1a bd
       -0.044953134 -0.069909506 -0.4596672 -0.03774592
000170 51 7c 0f 3d c4 e3 2c 3e 52 ec 4c bd 1f 0c 10 bf
       0.035030667 0.1688376 -0.05003006 -0.56268495
000180 d8 f6 c2 3d b4 6a 9f 3d c4 86 40 be f3 84 0e 3e
       0.09519738 0.07784024 -0.18801409 0.13917904
000190 ba 8e e8 3c cb c8 ab 3c 3b 74 33 3d 4c 81 85 3e
       0.02838837 0.020969769 0.043812018 0.26075208
0001a0 80 29 36 3e c0 48 2f 3d f7 f6 0d 3e 06 77 d3 bc
       0.17789268 0.04279399 0.13863741 -0.02581359
0001b0 06 7b 84 bd 21 26 0a 3e 09 9c 67 3e 9e 0f c0 bd
       -0.06468777 0.13491108 0.22618116 -0.09377979
0001c0 23 0d 63 3d 01 bb 7b be ae 3c 42 bd 19 47 e4 be
       0.05543245 -0.24583055 -0.04742115 -0.44585493
0001d0 1f 3b a1 be c2 ee 01 bf 29 b6 96 be a0 7e 5a be
       -0.31490418 -0.5075494 -0.29435852 -0.21337366
0001e0 c9 1d 3f bd 80 b5 6b bc 6d 57 29 3c 36 ad 3c 3e
       -0.046659265 -0.014386535 0.010335785 0.1842545
0001f0 ae da ab bc 63 3b f2 be 4d ee 9e bd 32 59 44 be
       -0.020978298 -0.47310933 -0.07760296 -0.1917465
000200 f1 2e 10 3e a8 29 67 3e b7 15 93 bd a7 18 15 bd
       0.14080407 0.22574484 -0.07181876 -0.036400463
000210 e1 14 4e be 06 a4 e1 bd fa 11 53 3d 0d 48 27 bd
       -0.20125152 -0.11017613 0.051530816 -0.040840197
000220 7e 5e 6a be 95 1b 8f be 92 30 47 3e af 35 5b 3e
       -0.22887608 -0.2795073 0.19452122 0.21407197
000230 89 4f 57 3e 78 87 71 be f7 37 10 bf a6 9a 24 bd
       0.21026434 -0.23586833 -0.56335396 -0.040186547
000240 67 3e 29 3e 52 b2 0e 3d ca 30 92 3d da 35 ab be
       0.16527711 0.03483803 0.07138212 -0.33439523
000250 44 f2 8f be 72 82 cb bd
       -0.28114522 -0.0993699

conv1.0.bias f4 [6]
000000 8d 15 b4 be eb 6e 36 be e2 14 46 3d 33 1c d8 bd
       -0.35172692 -0.1781575 0.04835976 -0.105522536
000010 85 86 0a be 3f db aa 3d
       -0.13527878 0.08342599

conv2.0.weight f4 [16, 6, 5, 5]
000000 3c 8d b1 3d cd 99 84 3d 93 5f 42 3e be 84 4a 3e
       0.086695164 0.06474648 0.18981771 0.197772
000010 0c a4 0f 3d fe ce 09 3e 78 30 ae bd df 1b e4 3d
       0.035068557 0.13457868 -0.085053384 0.111381285
000020 7d 63 d9 bd 1a e1 6b be 80 d2 b1 bd ef 42 98 3b
       -0.10614679 -0.23035088 -0.08682728 0.004646651
000030 f6 2f 3c 3e e4 60 1b be 0b 3f e1 be 61 38 5e 3d
       0.1837767 -0.1517368 -0.4399341 0.054252986
000040 03 35 01 3e 42 d3 c0 bd 94 29 ba be 99 ba 6f be
       0.12617879 -0.09415294 -0.36359847 -0.23411025
000050 4f f4 22 3e 2d ff ae bd b6 60 2a be 69 ef 56 be
       0.15913509 -0.08544765 -0.16638455 -0.20989765
000060 f6 06 09 be d1 17 b3 3e e7 57 26 be 06 f4 0f be
       -0.13381562 0.34979108 -0.1624447 -0.14057931
000070 38 70 d6 3b 98 9a cc bd 22 b9 3f 3d ad 42 5d 3d
       0.0065441392 -0.09990424 0.046807416 0.054018665
000080 73 c4 d1 3d 78 30 6d be 05 18 f0 ba c2 d1 5b 3e
       0.10242548 -0.2316302 -0.0018317705 0.21466735
000090 72 7e 6b 3e 5f 29 42 be f5 d8 78 be bd e8 37 ba
       0.22997454 -0.18961094 -0.24301513 -0.00070155767
0000a0 06 e4 6e 3e 32 4c 50 be f1 59 7e be 72 f8 57 be
       0.23329172 -0.20341566 -0.24838997 -0.21090868
0000b0 10 d7 27 3e 87 47 34 be db ef 85 be 1c af ff bc
       0.16390634 -0.1760541 -0.26159558 -0.031211428
0000c0 e1 ce 48 3e f5 9b 9b 3d de 2f ae bd 12 7c 1f 3c
       0.19610168 0.07598106 -0.08505224 0.0097341705
0000d0 96 14 ed 3c f8 a5 ce 3c 2a 14 a1 bd 33 10 4f be
       0.02894048 0.025225624 -0.07865174 -0.20221023
0000e0 28 a1 46 be 80 6b c4 bd 5c a2 0b 3d f9 d5 64 be
       -0.19397414 -0.095908165 0.034090385 -0.22347249
0000f0 41 35 6a be 96 5b 4d be 94 6b 9d bc 13 03 a2 bc
       -0.22871877 -0.20054469 -0.019216336 -0.019776857
000100 3a 81 d3 be 31 6d 9e bb 27 9e 04 be c8 c1 94 bd
       -0.4130953 -0.004834794 -0.12950955 -0.07263523
000110 6d 4e 35 be aa be 06 bf e1 97 ec bd f6 34 0f 3d
       -0.17705698 -0.5263468 -0.11552406 0.034962617
000120 ee 43 ef bc 9a fb 6a be f1 7f 40 be c3 5f 08 3e
       -0.029207196 -0.22947541 -0.18798806 0.1331778
000130 13 54 53 3e 1c e8 e6 bd b5 c3 a5 be 82 af 72 be
       0.2063754 -0.1127474 -0.32375875 -0.23699763
000140 90 46 c9 bd f4 89 92 3e 4a 4a ec 3b 4b 08 db bd
       -0.09827912 0.28620875 0.0072110044 -0.10694941
000150 85 a7 19 bc 89 21 94 3d 19 52 32 3e 5c 5f 8b 3b
       -0.009378319 0.07232959 0.1741413 0.004253311
000160 f6 11 6f be be aa 1e 3e 20 ba 55 3c 7b 1b d1 bd
       -0.23346695 0.1549482 0.013044864 -0.102103196
000170 a5 d4 fd bd 23 b0 b2 bc cd ee 92 3e 56 fd 38 be
       -0.12394074 -0.021812504 0.28697816 -0.1806539
000180 fb 01 ab bc 38 ae 38 3d fc 8e aa 3d 2c 75 00 3e
       -0.020874968 0.045088023 0.08328053 0.12544698
000190 be 07 c0 3d 5d b0 ad 3e e7 d7 cc bd d0 f6 c8 be
       0.09376477 0.33923617 -0.100021176 -0.39250803
0001a0 27 d3 96 be 79 a9 81 3e 33 e3 25 be 41 4b d6 be
       -0.2945797 0.2532461 -0.16199951 -0.4185429
0001b0 ff f2 82 be 98 54 86 3d 1e 49 0e 3e 32 0c 96 be
       -0.25576016 0.06559104 0.1389508 -0.2930618
0001c0 66 6c 4e be 70 aa 58 bd ce bc 55 3e 82 fc ab bd
       -0.20158538 -0.052896917 0.20872805 -0.083977714
0001d0 3f b4 80 be b9 a8 8b bd b4 f1 66 3e 03 ff 78 3a
       -0.25137517 -0.06819291 0.2255314 0.0009498449
0001e0 f3 5a 8a be fc 55 73 3d 35 c9 32 3e 37 8e 0f 3e
       -0.27022514 0.059408173 0.17459567 0.14019094
0001f0 c8 69 2c be ca 13 dd 3e 9d e8 22 3e 28 65 4c 3e
       -0.16837227 0.4317916 0.15909047 0.19960463
000200 79 88 b5 3d 27 b4 d0 3c 52 31 5e 3e 8b b7 ef 3d
       0.08863921 0.025476528 0.21698502 0.1170493
000210 39 58 f5 3d 3e cc 45 3e 68 0a dc 3d ec 75 71 bd
       0.11979718 0.19316193 0.10744172 -0.05895035
000220 4c c2 0a 3e 56 55 74 3c 3e f5 90 bc 38 de 2d 3e
       0.13550681 0.014912924 -0.017695066 0.16979301
000230 25 dd 4a bd 01 a1 3c bd a6 95 27 be 02 90 4e bd
       -0.049527306 -0.046051983 -0.1636568 -0.050430305
000240 96 12 46 bd dc 8c 9c 3c ee 8a 61 3c df 33 ae bc
       -0.04835757 0.019110136 0.013766034 -0.021264968
000250 8b 5f 19 be 94 58 1b 3e 1f 0a 22 be 41 90 17 be
       -0.14977853 0.15170509 -0.15824173 -0.14801122
000260 ff b1 ca bd 3c 53 01 be 21 6e 74 be 16 11 1c be
       -0.09897231 -0.12629408 -0.23870136 -0.15240893
000270 85 75 16 be 7d 60 32 bc ad e3 d9 3d e0 2b d8 bd
       -0.14693268 -0.010887262 0.10639129 -0.105552435
000280 e8 5b ff bd 4e b6 04 be 81 ce ab bb 77 ff 3d be
       -0.124687016 -0.12960169 -0.005243123 -0.18554483
000290 f4 54 99 be 22 36 0c bd f9 da 83 bd 31 8a cb bd
       -0.29947627 -0.034231313 -0.0643825 -0.09938467
0002a0 48 24 84 be 18 0f 06 be d0 d5 0a bd fe 8a 8d bd
       -0.2580893 -0.13091695 -0.033895314 -0.06911276
0002b0 8d fa 2e be f6 5c 00 be 0c 50 3c be 82 b5 b6 bd
       -0.17087765 -0.12535462 -0.1838991 -0.089213386
0002c0 19 12 47 be 29 03 fb 3d 91 0e 63 3e c8 c8 0c bd
       -0.19440497 0.12256462 0.22173525 -0.034371167
0002d0 4b 37 15 3e a9 19 b8 bc d1 ee 68 3e 67 55 20 3e
       0.14571874 -0.022473173 0.22747351 0.15657578
0002e0 4b 30 b0 3d 49 96 d8 3b 5d 90 2f bc dd 17 81 bd
       0.08602961 0.0066097123 -0.010715571 -0.0630338
0002f0 46 77 fa bd 88 aa 34 bd ec cd 00 3d ea 1e a7 3d
       -0.12229781 -0.044107944 0.031446382 0.08160193
000300 0d d1 41 be ff e4 4d bd a0 9e 3e 3d 78 9e 97 3d
       -0.18927403 -0.050267216 0.046537995 0.074032724
000310 96 e4 3b be a4 8d 5e be 5d 89 bf 3c 74 74 2e 3e
       -0.18348917 -0.21733719 0.02338093 0.17036611
000320 54 97 07 3e dc 09 4c be 84 43 cc bc 8b 3f f9 bd
       0.13241321 -0.19925636 -0.024934538 -0.12170323
000330 18 87 8e ba f5 02 b3 bd 3d 22 7a be eb 40 32 be
       -0.0010874001 -0.087407984 -0.24427123 -0.17407577
000340 cb b0 9e 3d fe cd 1e be c5 9b dd be ee 8f 91 be
       0.07748564 -0.15508267 -0.43282905 -0.28430122
000350 09 42 a0 be 4f 0d 88 3d f9 4f 36 be b6 a3 e1 be
       -0.3130038 0.066431634 -0.17803945 -0.44070214
000360 8e e5 7f be ae 80 8c be 58 47 4e bd 61 15 a6 be
       -0.24989912 -0.27441925 -0.050361007 -0.32438186
000370 0e 5d bc bd e7 ad 1e be d5 bd 27 bd fe 61 5d bd
       -0.09197436 -0.15496026 -0.040952522 -0.05404853
000380 a9 8a 23 be 59 de c5 b8 23 79 56 3e 0e ab 9d 3e
       -0.15970863 -9.4351075e-05 0.20944647 0.30794567
000390 20 43 77 3e 67 6b 98 3d 05 e1 da bc 88 8d de 3e
       0.241467 0.0744236 -0.026718626 0.43467355
0003a0 78 4c 6e 3e 85 6c 41 3c 18 0b 49 bd 12 b8 6d 3e
       0.23271358 0.011805658 -0.049082845 0.23214749
0003b0 42 7d 99 3e 78 af ee bd f5 9d 07 bd 16 66 67 be
       0.29978377 -0.11654562 -0.033109624 -0.22597536
0003c0 4d dd 69 3e fb ae 45 3e f9 09 75 bd 63 70 9a bc
       0.22838326 0.19305031 -0.059823964 -0.018852418
0003d0 72 b7 bd bc 09 36 39 3e ad 80 fe bd 19 c1 36 be
       -0.023158763 0.18087019 -0.12426887 -0.17847098
0003e0 35 43 ad be 10 4d 8b bd 7c 15 5d 3c ea 04 80 3e
       -0.33840337 -0.06801808 0.013493892 0.2500375
0003f0 db 0d f9 3d 6a 54 4c 3e 02 06 e7 bb bf cd a8 3d
       0.12160846 0.19954076 -0.0070502767 0.08242368

conv2.0.bias f4 [16]
000000 e9 b6 fa be eb 03 01 bf 88 0c 15 bf a6 54 4c bf
       -0.48967674 -0.50396603 -0.58222246 -0.79816663
000010 59 51 9b bf 99 7e 80 bf c5 90 bd be 49 72 23 bf
       -1.21342 -1.0038635 -0.37024513 -0.6384626
000020 07 6c 6b bf d2 9e 75 bf 3a 46 86 bd b8 e0 35 bf
       -0.9196171 -0.95945466 -0.065563634 -0.7104602
000030 37 ba 2c bf 8c e2 36 bf f6 09 5f bf 01 c9 e6 be
       -0.6747164 -0.71439433 -0.87124574 -0.4507523

fc1.0.weight f4 [120, 400]
000000 28 27 86 bd a4 3f 72 be b5 23 8f bd b4 ba 9d be
       -0.06550437 -0.2365709 -0.069892325 -0.30806506
000010 b8 73 60 be 7d 72 94 3c 75 0d 43 be 5c 91 fd bd
       -0.21919143 0.018120999 -0.19048102 -0.12381241
000020 39 8a ca bd 0b 0c 50 3e 6f 6a 96 bd 58 1c dd bc
       -0.09889645 0.20317094 -0.07344519 -0.026991054
000030 00 6a 51 be 39 a2 80 3d 10 3a 49 bd 72 83 fb 3d
       -0.20450592 0.062809415 -0.04912764 0.122809306
000040 2e d8 84 be 33 64 d3 bd d0 8a bc 3d e7 6c c6 3e
       -0.25946182 -0.10321846 0.09206164 0.3875496
000050 68 25 b9 bd 90 3b 31 be 80 ba 1c 3e 5b 55 75 3d
       -0.09040338 -0.17307878 0.15305519 0.059895854
000060 96 c8 ba 3c 07 5b 1b bc aa bd 89 be 42 13 e6 bc
       0.022800725 -0.009482152 -0.26902515 -0.028085355
000070 73 69 02 bf da 09 34 be fa d7 96 be 82 60 01 3b
       -0.5094215 -0.17581883 -0.29461652 0.001974136
000080 48 b4 50 3d 0b 7b 6c be d2 7a 8d be 05 d4 2c bb
       0.05095318 -0.23093812 -0.27632767 -0.002637149
000090 bc 7e 13 be d4 67 97 3d dc 7b a2 bd 16 99 2c 3e
       -0.14403814 0.073928505 -0.079337806 0.16855273
0000a0 ea d1 53 be 6f 34 b0 be 4f 76 13 be c1 60 96 3d
       -0.20685545 -0.34415004 -0.144006 0.07342673
0000b0 30 8b c7 bd 88 b6 89 be 8b e2 0d 3e db d3 10 3d
       -0.09743345 -0.26897073 0.1385595 0.03535829
0000c0 a0 e8 8f 3d 37 ab 80 3e 71 12 45 be ec ed 4b be
       0.070267916 0.25130627 -0.19245316 -0.19914979
0000d0 df ed a4 be f4 ac 43 be 3c 12 4b be 25 b5 10 3e
       -0.3221273 -0.19108945 -0.19831175 0.14131601
0000e0 96 b7 b4 3e 84 5a 3f 3e 30 fb d3 bc 42 c6 aa 3b
       0.35296315 0.18686873 -0.025876611 0.0052116225
0000f0 1e 53 02 bd ee 9b be bd 8a a1 c9 be 2d e5 de 3d
       -0.031817548 -0.09307085 -0.39381057 0.108835556
000100 d9 8d 3c 3e e3 54 89 bd e6 78 b2 be a8 6a 1a bd
       0.18413486 -0.06705644 -0.34857863 -0.03769937
000110 0c 44 95 3d b0 38 ca 3e ee 19 e0 3d 69 9e 72 be
       0.072883695 0.39496374 0.10942446 -0.23693241
000120 f3 81 fa 3b a5 10 fd 3c 96 81 b5 3e dd 28 72 3e
       0.0076448857 0.030891726 0.3545043 0.236484
000130 68 c8 36 bd 7e 32 ca bc 5f 03 6b 3e 45 cc e6 3d
       -0.044624716 -0.02468228 0.22950505 0.1126943
000140 b8 a2 89 bd d9 20 b9 bd 6e 37 c2 bc 1a e9 3e 3e
       -0.06720489 -0.09039468 -0.023708072 0.18643609
000150 9f 36 da 3d de b5 21 3e 65 7a 1f be 03 83 9e be
       0.106549494 0.15792033 -0.15574034 -0.3095933
000160 44 09 5f be e6 37 24 be 0c 48 bd bd 95 73 9e 3e
       -0.21780878 -0.16036949 -0.092422575 0.30947557
000170 c8 1e 43 bd b8 d1 88 3c 9e 7a 69 bd af a7 0b be
       -0.047636777 0.016701564 -0.057001702 -0.13638185
000180 0e e7 33 3e 22 1c 2a 3e 4f 28 58 3d 56 36 18 be
       0.17568609 0.16612294 0.052772816 -0.14864478
000190 01 26 94 bd 9a c4 a5 bd 25 a2 21 3d 96 b9 81 3c
       -0.07233811 -0.080941394 0.039461274 0.015835565
0001a0 26 ce 87 3d bd 40 d4 3d e4 f3 1d 3e d4 5e 9c 3e
       0.066311166 0.1036391 0.15425068 0.30541098
0001b0 92 9a 1c 3e 3f 92 06 be d7 ef dc be 8a 77 e3 3d
       0.15293339 -0.13141726 -0.43151733 0.11106785
0001c0 47 64 16 be 64 a0 9c bd bc dc 08 bf 80 6c e9 3c
       -0.1468669 -0.076477796 -0.53461814 0.02849412
0001d0 d8 f2 2a bd 95 e8 6e be 43 03 92 be 72 5f 96 be
       -0.0417355 -0.2333091 -0.28518113 -0.29369694
0001e0 3f 04 2b 3e af 56 7e 3e 10 ab 0e 3e 03 17 e6 3c
       0.16700839 0.24837755 0.13932443 0.028087145
0001f0 77 25 db bd b7 b0 2b 3d 51 23 33 be 2c a3 36 be
       -0.10700505 0.041916575 -0.17493941 -0.17835683
000200 38 5d 81 be 55 a1 1d 3c c7 0d 33 be c6 0b 9a bd
       -0.25266433 0.009620984 -0.17485724 -0.07521777
000210 f4 c9 ae bd 81 56 ca bd c5 49 e2 bd 13 43 84 3e
       -0.08534613 -0.098797806 -0.11049227 0.25832424
000220 55 2f f2 bc 1b 9d e9 3d 8b 41 19 be 5c 2d b9 bd
       -0.029563585 0.114069186 -0.14966409 -0.09041855
000230 a5 76 71 be 8c 69 51 be 98 a4 81 3d 6e 08 55 bc
       -0.23580416 -0.20450419 0.06330222 -0.013002498
000240 55 01 dc be 77 dd 4c be ab 59 27 3e 93 20 2d 3e
       -0.42969766 -0.20006357 0.163428 0.16906957
000250 39 ca 03 bc be f7 8b be 74 f1 54 bd 8b 9c 3e be
       -0.008043819 -0.2733745 -0.05198808 -0.18614404
000260 73 d3 fc be 09 4f 85 be a0 05 e3 be 78 3f 5b 3d
       -0.49380073 -0.26036862 -0.4434023 0.053527325
000270 59 8c 45 be 4e 71 e0 be 95 fe f6 bd 48 f0 4f be
       -0.1929182 -0.43836445 -0.120602764 -0.20306504
000280 de 6f 2a 3e d6 c4 02 3e ba 8f 1b 3d 07 cd a4 bd
       0.16644236 0.127704 0.037978865 -0.08046918
000290 28 de 98 bd 1b d8 48 3e 1e aa 05 3d 0b c6 22 3e
       -0.07464248 0.19613688 0.03263294 0.1589586
0002a0 4f 4a 47 3e d5 7c f0 bd 99 d7 67 be 2d d4 01 3e
       0.1946194 -0.1174256 -0.22640838 0.12678595
0002b0 35 0a 5e bc b9 29 e4 3c 2f 2b 44 3c 9f cc 2d be
       -0.013552238 0.027851926 0.011973186 -0.16972588
0002c0 33 d6 f7 bd d9 4a 36 be 32 93 49 3e 26 3b 45 3d
       -0.12101402 -0.1780199 0.19685057 0.04815211
0002d0 f2 d9 47 3e aa 3d 2a bd fa 5d bf bb f4 8f bb 3e
       0.19516733 -0.041562714 -0.0058400603 0.36633265
0002e0 10 9e 67 3e ed 8a 07 be d4 5e 58 3e ad d0 0a 3e
       0.2261889 -0.1323659 0.21129924 0.13556166
0002f0 2c 20 ea 3c da 82 5b be 7f a6 a3 be c7 2c b5 3d
       0.028579794 -0.21436635 -0.31962964 0.08846431
000300 85 d6 d2 be 4b 37 86 3d ae 84 cb bc a0 eb 69 bc
       -0.4117929 0.06553515 -0.02484354 -0.014277369
000310 b7 a7 53 3d 1a 6e 4a bd 2f 7d 00 3e 16 fb f2 3d
       0.051673617 -0.049421407 0.12547754 0.11864297
000320 8e 1a 08 be f1 83 49 be 8d 78 e3 bd 4e c1 ae bd
       -0.1329138 -0.19679238 -0.111069776 -0.08532964
000330 55 61 98 3e 9c ce d4 bd af 70 40 3d 6b 0a 92 be
       0.29761758 -0.1039097 0.046982463 -0.28523573
000340 5a 9b 10 3e 4e 14 78 3d 43 25 0b bd d1 d2 4c 3e
       0.14121762 0.06056624 -0.033971082 0.20002295
000350 0d ae 48 bd af e5 e3 3e 78 38 e5 3d 26 ee 35 bd
       -0.048994113 0.44511172 0.11192411 -0.04441657
000360 d1 b7 94 bc 4b 18 b1 bd af cf 9a 3d 83 e4 a7 bd
       -0.018154057 -0.08647212 0.07559144 -0.08197882
000370 9e 69 d6 be 6d e8 fe be 69 02 41 be 2d 28 ed 3d
       -0.41877455 -0.49786702 -0.18848576 0.115799285
000380 d7 58 9a 3e a3 58 cd 3d 2e 23 b2 bc fc b5 13 3e
       0.30145904 0.10026672 -0.02174529 0.1442489
000390 eb 85 ee 3d 15 bc 67 3e 0a b7 91 be 3f d1 89 3d
       0.116466366 0.22630341 -0.2845996 0.06729364
0003a0 18 08 74 3e 5b 4d 57 3e ff fa 21 bd 32 f0 8f 3e
       0.23831213 0.21025603 -0.03954601 0.28112942
0003b0 6b 94 be 3e c8 a0 21 3e 96 eb d8 3d b5 3a 4c be
       0.3722261 0.1578399 0.105918095 -0.1994427
0003c0 22 2c b2 bc b6 00 5c 3e 49 bb 16 3e e6 a9 d2 3d
       -0.02174956 0.21484646 0.14719881 0.10286312
0003d0 29 69 43 bd b7 86 06 be c0 f7 ab bd 6f bf a5 3d
       -0.04770771 -0.13137327 -0.08396864 0.08093154
0003e0 fa 2e 9a bd 55 36 76 3e 9e 62 c8 3d da 49 f7 3c
       -0.07528491 0.24044164 0.09784435 0.030186582
0003f0 6f a0 84 3e 02 01 4d 3e 55 85 f0 3b 13 ef b2 3e
       0.2590365 0.20019916 0.007340113 0.34948024

fc1.0.bias f4 [120]
000000 b3 9c 83 bd 82 1f 44 3c 00 78 84 be aa a4 e4 bd
       -0.064263724 0.011970403 -0.25872803 -0.1116422
000010 74 58 a4 be ad 70 98 bd db f3 76 be af 3c 6c 3d
       -0.32098734 -0.07443366 -0.24116461 0.05767506
000020 f9 7f a7 3d 8d de 93 be b5 f7 5a 3d ae b6 94 be
       0.08178706 -0.2888073 0.053458888 -0.29045624
000030 d3 ff 0f be a4 00 4a be cb 27 f3 be ff 83 fa bb
       -0.14062433 -0.19726807 -0.47491297 -0.0076451297
000040 32 d7 65 be 30 76 25 3d a5 98 e1 bd 7a 0f d6 3d
       -0.22445372 0.040395916 -0.11015443 0.10452171
000050 82 cc ad 3e b0 81 33 be 93 46 53 3d a9 d1 a8 bc
       0.3394509 -0.1752994 0.051580977 -0.020607786
000060 b3 66 91 bd 82 3a 7d 3c d3 a1 4b be b8 86 98 3d
       -0.070996664 0.015455844 -0.1988595 0.074475706
000070 ac e1 73 3e 7b dd 97 bb ec 02 b2 3d e5 78 b1 be
       0.23816556 -0.004634557 0.086919636 -0.34662548
000080 e8 5c 95 be 26 41 2c bd 25 e3 0d 3f 5c 3e 0b 3e
       -0.29172444 -0.042054318 0.5542472 0.13598007
000090 eb 88 9c be 74 e2 b2 3d e1 cf 85 be 05 60 f5 bc
       -0.3057321 0.08734599 -0.26135162 -0.029953012
0000a0 f6 8f 90 3e 22 45 1b 3e 93 40 12 3e 5d 92 95 bc
       0.28234833 0.15163091 0.14282446 -0.018258268
0000b0 7f 87 85 be 1c c3 2b 3c 95 e8 30 3e 9c 6e 8b be
       -0.26079938 0.010483529 0.17276223 -0.27232826
0000c0 f8 0a a5 be 3c b7 35 3e 90 90 81 bd ec 44 e9 3d
       -0.3223493 0.1774568 -0.06326401 0.11390099
0000d0 01 5d 69 be 30 d3 ab 3e d6 9d f2 bd 28 2b a9 be
       -0.22789384 0.3355956 -0.11846511 -0.33040738
0000e0 2d bb ef 3e fb 74 92 3e 49 4c a4 3c 1f 6b c5 bd
       0.4682249 0.28604874 0.020055907 -0.09639572
0000f0 0b 68 d5 bd 07 6d c1 bd b6 b9 3a 3e 39 88 fb bd
       -0.10420235 -0.094446234 0.18234906 -0.12281842
000100 d9 04 a8 3d 55 35 5f 3e 87 31 b1 be a5 33 33 bd
       0.082040496 0.21797688 -0.346081 -0.043750424
000110 93 53 ff be a4 4f 84 be a3 28 24 3e 88 e2 94 3d
       -0.4986845 -0.2584201 0.16031127 0.0726977
000120 7b 08 42 bd 18 c9 34 be c7 2c 7d be f1 13 2b 3d
       -0.04737137 -0.17654836 -0.24724112 0.041767064
000130 fa 64 e8 be e3 d1 c1 3e 89 1c 45 3d fa 7d 21 be
       -0.4538954 0.37855443 0.048122916 -0.15770712
000140 7d a2 56 bd 2b 11 e8 be 7f cf b9 be bc 8e ea 3e
       -0.052401055 -0.45325598 -0.3629112 0.45812023
000150 14 3b 75 be 92 7e 98 be d5 77 de 3e 7e be 95 be
       -0.23948318 -0.29784065 0.434508 -0.29246897
000160 8a d4 6d 3e 9e 67 90 bd 5b 4a 31 3e 44 6f 3e be
       0.23225608 -0.070510134 0.1731352 -0.18597132
000170 14 7a 18 3f a8 43 52 3e e8 93 6d be 75 f4 c5 3d
       0.59561276 0.20533621 -0.23200953 0.09665767
000180 15 1f dc bd c7 2f bf 3c 07 e9 af be fa d3 d8 3e
       -0.10748116 0.023338212 -0.34357473 0.42349225
000190 c5 83 73 bd 44 56 58 bd ea d3 f6 3c 1c f5 59 3e
       -0.059451837 -0.052816644 0.030130345 0.21284908
0001a0 fb 38 f0 be d2 ba 5d 3e 12 78 5d be e5 2e 51 be
       -0.46918473 0.21653298 -0.21627834 -0.20428045
0001b0 a3 6f 4c 3d da 6b 45 3e 9a c0 44 3d a4 67 55 3d
       0.049911153 0.19279423 0.04803524 0.052100793
0001c0 b6 16 c6 3e a7 dd 5c 3e b2 cc dd bd 66 28 7f be
       0.38689202 0.21568929 -0.10830058 -0.24917755
0001d0 65 61 bc 3d 3a e5 6d be 10 df 89 3e 1f 59 73 3e
       0.09198264 -0.23231974 0.26927996 0.23764466

fc2.0.weight f4 [84, 120]
000000 5a 43 1b 3e e6 8a d4 3d f4 f1 1b be 15 c6 da 3c
       0.15162411 0.10378055 -0.15229017 0.026705781
000010 60 76 cb be 8f b5 1b 3d c6 d7 63 3d 3d 26 a1 3e
       -0.3973875 0.038014945 0.0556257 0.31474486
000020 df 88 83 3d 42 de 27 bc b2 0f 8b 3e 2c 30 c0 3d
       0.064225905 -0.0102458615 0.27160412 0.09384188
000030 92 4a cc bd b2 7a 89 3d 66 5b 6e bc d0 bf cd 3e
       -0.09975161 0.067128554 -0.014548158 0.40185404
000040 34 b5 2e 3e 1e 35 d1 3e 34 f0 65 be 61 ca 92 3e
       0.17061311 0.40860838 -0.22454911 0.28670028
000050 41 d6 3e bd 52 1b b7 3c cc 3e 4d 3d c1 e2 3d be
       -0.046591047 0.022351895 0.050108716 -0.18543531
000060 17 95 32 3e 62 63 59 39 6c df 1f be f2 c4 05 3f
       0.17439686 0.00020731756 -0.15612572 0.5225364
000070 c5 cd 8d 3e 20 72 d5 be 5e c7 bc be d3 5f b9 bc
       0.27696052 -0.41688633 -0.36870855 -0.0226287
000080 21 4a 12 3e 2e 6c c6 be c6 8b d5 3d 6b fe a1 3d
       0.1428609 -0.3875441 0.1042705 0.079098545
000090 48 13 2a 3d a1 a2 3c 3d 43 55 b9 be bf f5 26 be
       0.041522294 0.046053533 -0.36197862 -0.16304682
0000a0 44 af 73 bd 1b cb fa bd f0 f9 2f 3e 51 b5 69 be
       -0.05949332 -0.122457705 0.17185187 -0.22823073
0000b0 8b 2c 30 3e f5 6d e2 3d 81 e8 1c 3e 3c 1e 32 3b
       0.17204492 0.11056129 0.15323068 0.0027178666
0000c0 67 fd 4e 3e fd 3e 1d 3b a7 7b 2f 3e 3c 42 82 be
       0.20213853 0.0023993843 0.17137013 -0.25441158
0000d0 ee 39 81 3e de 6d 13 be a1 0d 85 3e fc fb 9e bd
       0.2523951 -0.1439738 0.2598696 -0.07762906
0000e0 ad 2b 3e 3d 85 31 d7 3b f5 9e 44 3e db 20 29 be
       0.04642837 0.0065671825 0.19201262 -0.1651644
0000f0 e6 8d 13 bd cd 7b be 3d d6 52 3a 3d 70 48 09 be
       -0.036023997 0.09300957 0.045489155 -0.13406539
000100 10 de b2 bc a6 18 35 3c 29 2a 1d be ee ce 10 be
       -0.021834403 0.01105324 -0.15348114 -0.14141437
000110 71 c3 08 be c8 7e ce bd 0a cf 25 3e e0 db 06 3e
       -0.13355805 -0.10082775 0.1619226 0.13169813
000120 55 8d ba be 42 cb 22 3e d6 8e d2 bd f3 37 9b 3d
       -0.36435953 0.15897849 -0.1028115 0.07579031
000130 dc 7e 02 3e b5 07 b2 bd c1 e5 83 ba ca 0b 04 3e
       0.12743706 -0.08692876 -0.0010062979 0.12895122
000140 0d 66 30 3e 84 0d d9 bd 59 86 f4 bc f6 9b d5 bd
       0.1722643 -0.10598281 -0.029849218 -0.10430138
000150 e8 7c 87 3d d2 96 c8 3d 0b f3 f2 3d 5c ba a2 bc
       0.06615621 0.09794392 0.11862763 -0.019864254
000160 f9 42 fb 3c 61 45 9a 3d 95 99 c4 3d 7c 51 86 be
       0.030671583 0.07532764 0.09599606 -0.26234043
000170 82 1b e2 3d 0e 3a a5 bd 8f d0 5d be 7d 34 6e be
       0.11040403 -0.08067714 -0.2166159 -0.2326221
000180 29 a4 99 3e bf dc 7a be 71 ed 8a 3e dc 97 9f bd
       0.30008057 -0.2449827 0.27134278 -0.07792637
000190 1b 3e 41 be b6 f4 92 be fd 05 5a 3e 01 c3 2c be
       -0.18871348 -0.28702325 0.21291347 -0.16871263
0001a0 8b 89 df bc be d1 94 be 8b d5 86 bd 38 04 3e 3d
       -0.027287265 -0.2906627 -0.06583699 0.046390742
0001b0 45 0f 86 3d 16 16 56 bd 17 9b 74 bd db 34 09 3d
       0.06545881 -0.052267157 -0.059718218 0.033497673
0001c0 61 7a a7 3e 0c 43 64 bc 9b b7 31 be e2 8d 76 be
       0.32710555 -0.013932001 -0.17355196 -0.24077561
0001d0 86 f0 40 bd b1 24 be bc 8e 1a cd 3e d9 46 e4 3d
       -0.04710438 -0.023210855 0.40059322 0.111463256
0001e0 b5 6b 6f 3e f6 99 24 3e 09 d1 9f 3e fc 26 06 3e
       0.2338093 0.16074356 0.3121417 0.13100809
0001f0 c8 2a 1e be 02 5c 82 bd 09 cd 94 3e f0 93 06 3d
       -0.15446007 -0.06365205 0.2906268 0.032855928
000200 3d 8f 20 be e9 f0 2f 3d b7 5f 7a 3e 7e 96 35 3d
       -0.15679641 0.04295436 0.24450575 0.044332974
000210 f9 fe 99 3e e2 da 86 3e f3 15 10 3e f6 9d 8e 3d
       0.3007734 0.2633887 0.14070873 0.069637224
000220 74 9d 50 3e bb c3 e0 3d fe e0 c9 bc a5 95 12 be
       0.20372564 0.109748326 -0.024643417 -0.14314897
000230 8e e3 9a bd 3c ef 12 3e 5e 9b 82 3b bd fa 8b bd
       -0.07562934 0.14349073 0.0039858064 -0.06834934
000240 60 7d d8 bd d6 94 0f be f1 7f 8e 3c 1f 31 07 3f
       -0.105707884 -0.1402162 0.017394992 0.5280933
000250 f0 61 5e 3d d2 07 3e bc 58 c9 89 bd 65 1d 1d 3e
       0.05429262 -0.011598544 -0.067278564 0.15343244
000260 34 ce 2b 3e 8e de 6f be 31 86 e4 bd 05 ad 0b bd
       0.16777879 -0.23424742 -0.111584075 -0.03410055
000270 1d 09 87 3e cb 56 9b 3e b4 23 4d 3c bd 4d 87 be
       0.2637414 0.30339655 0.012520719 -0.26426497
000280 73 7c f3 bd 21 73 c9 bd 86 b3 09 bd 48 2b 0e 3e
       -0.11888971 -0.09836412 -0.033618473 0.13883698
000290 73 10 84 bc 60 c3 2a 3e 7b a1 20 be 8b 47 a5 bd
       -0.016121125 0.16676092 -0.156866 -0.08070286
0002a0 a3 f9 c9 3e e8 70 d6 bd 47 77 3f 3e 4f cc 0c be
       0.3944827 -0.10470754 0.18697844 -0.13749813
0002b0 ea a6 47 be 62 f7 2e be d8 46 45 bd 0a d6 66 3e
       -0.19497266 -0.17086557 -0.048163265 0.22542587
0002c0 26 ad e7 3c d0 d7 9b 3d 86 4e 86 3d 45 6b 1c 3e
       0.028280806 0.07609522 0.06557946 0.15275295
0002d0 ee e7 9f 3d 93 19 48 bd 6d a7 53 bd 31 1d 6d 3e
       0.07807909 -0.048852514 -0.05167334 0.23155667
0002e0 f2 70 0d 3e d0 30 3c be e4 bd 1e bd 79 28 9a bc
       0.13812616 -0.18377995 -0.038755313 -0.018818127
0002f0 41 72 f9 3d 07 ef bb bc 4c 43 19 3e 20 da af 3e
       0.12179995 -0.022941126 0.14967078 0.34346104
000300 da 0d f4 3c e6 32 be 3d 55 79 70 3e 6a f1 91 3e
       0.029791761 0.09287052 0.23483784 0.28504497
000310 60 56 0d 3e 80 1e 40 be ac b3 42 3e a4 e0 c2 bd
       0.1380248 -0.18761635 0.19013852 -0.09515503
000320 9b 81 f3 bd 2d 9c e7 3e df f2 2a 3e 30 3a a0 be
       -0.11889955 0.4523634 0.1669421 -0.31294394
000330 2d 2e d7 3e e2 3c b6 3d 92 61 7c be 4c 49 da 3d
       0.42027417 0.08898331 -0.24646595 0.106585115
000340 e8 24 cd bd 8b 0e 34 3e ea e9 01 bd f7 f7 40 3d
       -0.10016805 0.17583673 -0.03171722 0.047111478
000350 78 c9 6a be ff d4 b9 be 71 d0 1a be 80 0c 35 be
       -0.22928417 -0.36295316 -0.15118577 -0.1768055
000360 7f 1a f5 bd b8 78 3f be 2f f9 ad 3d 87 8f 7e be
       -0.11967944 -0.18698394 0.084947936 -0.24859439
000370 e9 51 56 be 2c aa ea bd 5d fd ab 3c d9 39 ad bd
       -0.20929684 -0.11458239 0.020994836 -0.08458299
000380 68 5e 18 3e c8 28 a8 be e8 ca 0a 3e 3e 59 9d bd
       0.14879763 -0.32843614 0.13553965 -0.07683037
000390 0d 4b d9 bc 9d c6 37 be 1b 2f 00 3e ad b6 83 bd
       -0.026525045 -0.17946859 0.1251797 -0.06431327
0003a0 3e 41 23 3e 82 e3 e2 bd 99 8a e3 3c b4 77 11 3e
       0.15942857 -0.1107855 0.02777605 0.1420582
0003b0 60 e3 50 be 8c 40 30 3e 60 aa 0a be ff ce 0d 3e
       -0.20399237 0.17212123 -0.13541555 0.13848494
0003c0 60 af 03 3e 98 90 5b 3e 50 d8 c6 3d 54 3e eb 3d
       0.12859869 0.21441877 0.09709227 0.114864975
0003d0 bf a6 5c 3d 05 c8 52 be 92 a6 e7 3c f4 c0 87 bb
       0.05386996 -0.20584114 0.02827767 -0.004142875
0003e0 d9 09 c3 3c 48 16 22 bd 1f 3d 0d bd 08 c7 0b be
       0.023808407 -0.03957203 -0.034482118 -0.13650143
0003f0 da da 8c 3e d7 0e 38 3d 6b 36 77 3c a2 9e cc bd
       0.2751072 0.044936027 0.015088658 -0.09991194

fc2.0.bias f4 [84]
000000 26 2a 1f be b9 b6 f7 be f3 aa ba be af 55 95 3d
       -0.15543422 -0.48381594 -0.3645855 0.072917335
000010 0f 4a 1f bd ee 5f 83 be aa 44 1a 3e 69 72 b4 3b
       -0.038888987 -0.25659126 0.15065256 0.005506803
000020 7c 74 db bb 67 db cd be 32 70 e7 3e 11 0e 24 3e
       -0.0066972356 -0.40206453 0.45202786 0.16020991
000030 56 55 37 3d d9 b1 02 3f 9b 94 77 3c ed 02 e1 bc
       0.044759117 0.51052624 0.015111114 -0.027467215
000040 5b ec d6 bd 3f c6 82 be 2c d8 56 be 6c 9a 78 3d
       -0.104943 -0.25541875 -0.209809 0.060694143
000050 23 f5 95 bd 10 2c 82 3e cd d1 e5 3d cd 0f 58 3e
       -0.07322147 0.25424242 0.11221657 0.21099778
000060 c2 41 c9 bd c8 d4 05 3f a9 f5 08 3e d2 03 2e 3d
       -0.098269954 0.52277803 0.13374962 0.042484112
000070 a6 94 c6 3d 0c d9 85 3d 95 ff af 3e d7 1a e5 3d
       0.09696321 0.06535539 0.3437468 0.1118676
000080 f8 aa 0a bd 63 17 6e 3e 80 a7 ab be 8d 15 97 bd
       -0.033854455 0.23251109 -0.3352623 -0.07377157
000090 12 d3 4e be 6d d6 c4 be b1 9a c2 be 9d 69 34 3d
       -0.20197704 -0.38444844 -0.38008645 0.044046033
0000a0 53 e3 a9 3d 63 81 f4 3e 52 ae 8c be 17 9f c7 3e
       0.08295312 0.47754964 -0.27476746 0.38988563
0000b0 b9 23 71 bd f4 6f a9 3e 69 76 73 3d 84 37 2c 3e
       -0.05887196 0.33093226 0.059439097 0.16818053
0000c0 9d fe 2b be 3e a9 38 be 5a e6 d8 bd 17 d9 73 3e
       -0.16796346 -0.18033311 -0.10590811 0.23813282
0000d0 b2 9d d4 3d df 73 10 3e d2 cd 05 bc c3 fe 9f 3b
       0.103816405 0.14106701 -0.008166747 0.004882665
0000e0 4a 58 61 be 13 2c 8b 3e 6f 13 6b be b5 db 79 be
       -0.22006336 0.27182063 -0.22956632 -0.24400218
0000f0 19 d7 d2 3e 00 89 63 be 64 5e c1 3e b6 fc 05 bd
       0.4117973 -0.2222023 0.37767327 -0.032711707
000100 ea e4 34 3e ed e4 ac 3d e1 34 48 3e 6c f7 1e bc
       0.17665449 0.08442102 0.19551422 -0.009702545
000110 1b 9a 86 3c c4 1e ff 3d ee 7b 42 be 6d 55 0b be
       0.016430905 0.1245704 -0.18992588 -0.13606806
000120 c9 c7 c1 be 00 cd a8 bd 18 34 99 be f4 4e 2e be
       -0.37847736 -0.08242226 -0.29922557 -0.17022306
000130 4e 42 42 3f 9c 8f 01 3e 23 4e 5d 3e 57 24 8a 3d
       0.7588242 0.12652439 0.21611838 0.067452125
000140 94 99 ea be 9f f8 b4 be 6d bb d0 3d 38 15 22 bd
       -0.45820296 -0.35345933 0.10191999 -0.039571017

fc3.0.weight f4 [10, 84]
000000 f6 9a ee bd 03 61 c8 3d bd c1 37 be 72 de 98 bd
       -0.1165065 0.097841285 -0.17944999 -0.07464303
000010 d1 27 8b 3d 7a 82 90 3e 46 65 e1 3c 0e 24 26 be
       0.06794704 0.28224546 0.027514111 -0.16224691
000020 35 3f 0c be 8f d2 84 bc c3 d0 37 3e 07 57 3f be
       -0.13695987 -0.016213683 0.1795073 -0.18685542
000030 f2 e5 92 bd 6d 4f 4c be f0 77 ff 3d 9f f5 22 3d
       -0.07172765 -0.19952174 0.12474048 0.039785024
000040 7b 02 36 be f9 49 99 3e f2 a1 20 3e 96 c0 87 be
       -0.17774384 0.2993925 0.15686777 -0.2651412
000050 75 24 b1 be 10 32 83 3e 77 70 88 3e e9 97 ed 3d
       -0.34598127 0.25624132 0.26648304 0.1160124
000060 10 c2 00 3e ee 67 92 be 61 31 b7 bd 0e f9 21 3e
       0.12574029 -0.28594917 -0.08944965 0.15817663
000070 62 b1 0f 3e 45 d2 2e 3e 68 f6 cd 3d 6a 09 27 3c
       0.1403251 0.17072399 0.10056764 0.010195116
000080 58 53 e8 bd 9e b1 9b be a7 d9 9a 3e 2e f6 d7 3e
       -0.113440216 -0.3040895 0.3024418 0.42180008
000090 45 d6 04 be 02 aa bc bd c1 98 9a 3e d1 3c 0f 3e
       -0.12972362 -0.09212114 0.30194667 0.13988043
0000a0 c8 ce 10 be 2f 00 da bd 6b 9c cc bd b4 4c 41 be
       -0.14141381 -0.10644566 -0.09990772 -0.18876916
0000b0 a9 a4 b8 bd 4d cc 98 be 20 85 3f bd 5e fa 5e 3e
       -0.090157814 -0.2984337 -0.046757817 0.21775195
0000c0 42 16 84 bd 7c cd 19 3e 71 4e e1 bd b1 ab 1f 3e
       -0.06449558 0.15019792 -0.1100129 0.15592839
0000d0 a7 37 76 3e c4 10 15 3e dd 7b 63 3e 01 bd 0f 3b
       0.24044667 0.14557177 0.22215219 0.0021932723
0000e0 8f ad 6c 3e c9 41 9d 3c 8e 03 09 be 13 5c 67 3d
       0.23113082 0.019196408 -0.13380262 0.056484293
0000f0 51 2b 58 be 5a 62 83 bb 6a 46 d3 3d 69 5f aa bd
       -0.21110274 -0.004009527 0.10316165 -0.08318979
000100 e6 6b 93 bd df f0 05 3e 19 c2 8e 3e 94 db db 3d
       -0.07198314 0.13080166 0.2788246 0.107352406
000110 4a 73 9d 3e 09 1f 01 be e0 a5 7b 3e e7 37 6d 3e
       0.3075202 -0.12609495 0.24574995 0.23165856
000120 a7 8c 3c 3d f8 30 c9 3d ee 61 fb 3d d1 13 7f 3d
       0.046032574 0.09823793 0.12274538 0.062274758
000130 5c 02 3c 3d c8 81 cb 3c d7 ae ed 3d 68 96 45 3e
       0.045900688 0.024842158 0.11605614 0.19295657
000140 b6 85 85 be fd b4 1b 3e 6c ca ab bd 4c 25 0d 3e
       -0.26078576 0.1520576 -0.08388218 0.13783759
000150 44 4c 9a bd d6 44 37 be 2c 02 66 be 66 d7 8b 3e
       -0.07534078 -0.17897353 -0.22461766 0.27312773
000160 dd d9 51 be 6a 85 09 be 9a 1b 46 3d 8b ee 92 bd
       -0.20493264 -0.134298 0.048366167 -0.07174405
000170 bb 07 3f 3e b8 93 9f be 4f a6 ba 3e 7f ce d0 3d
       0.18655293 -0.31167388 0.36455008 0.10195636
000180 64 9a 02 be 32 85 b7 3d 8b 8c 7c be 3d f0 1e 3c
       -0.12754208 0.08960952 -0.24662988 0.009700832
000190 1e 57 64 be 46 90 4b 3d 72 e0 00 bd dd 12 2f be
       -0.22298858 0.049698137 -0.031464048 -0.1709704
0001a0 47 c2 21 be 2e a6 1c be db e5 37 3e 2b 1a 1c bc
       -0.15796767 -0.15297768 0.17958777 -0.009527723
0001b0 96 ca 4a 3d 5e 22 7f be b8 2f 67 3e fc fe b6 3d
       0.049509607 -0.24915454 0.22576797 0.08935353
0001c0 34 c4 57 be 24 25 28 bd 7b 77 64 3e 77 ba 25 3e
       -0.2107094 -0.041051045 0.22311203 0.16184412
0001d0 bc 3d 53 be 20 1f 06 3d b4 0d 8f 3d 75 6e a9 3e
       -0.20629019 0.032744527 0.069850355 0.33092085
0001e0 fb 54 52 3d e4 d4 0a 3c 35 9c 28 3e 0d d3 34 be
       0.051350575 0.008473609 0.16465838 -0.17658634
0001f0 d5 81 3d 3e d6 5d fc 3d 57 35 82 3e 68 36 86 3e
       0.18506558 0.12322585 0.2543132 0.26213384
000200 99 9b f7 bd aa e2 4d 3d 87 07 39 be 80 da 48 3e
       -0.12090225 0.05026499 -0.18069278 0.19614601
000210 66 6c dd bd 0d c8 f6 3d 36 95 2d be 31 7a ff 3d
       -0.10811691 0.120498754 -0.1695145 0.12474478
000220 3e 78 36 be 6c 63 11 bd 2b 3f bf bd 10 eb e4 bc
       -0.17819306 -0.035495207 -0.0933822 -0.027944118
000230 fc ee 11 bd 83 f3 10 3e 52 cc 95 bc 86 5f a9 3d
       -0.035628304 0.14155392 -0.018285904 0.08270173
000240 c0 0b d6 bd c9 2a a7 bc b9 4d 30 be f0 3c 09 3e
       -0.1045146 -0.020406144 -0.17217149 0.13402152
000250 5c cb f3 bd ac 88 0f be ff cd 6d bb 72 4f e0 bd
       -0.11904022 -0.1401698 -0.0036286113 -0.10952653
000260 c4 a0 89 bd e6 65 eb bd a2 fa 4e be d6 c0 91 be
       -0.06720117 -0.11494045 -0.20212796 -0.28467435
000270 59 2d 48 be d8 08 5e 3e 5c 1e 79 be a2 8e 8a be
       -0.19548549 0.21683061 -0.24327987 -0.27061945
000280 a1 6b 1c 3d e0 92 5a 3e 5d bb 1b 3e 3b 8c 89 bd
       0.03818858 0.21345091 0.15208192 -0.067162
000290 d4 ce 9b 3c 48 f0 6f be 9a 17 94 3e 19 66 2b 3e
       0.019019522 -0.23431504 0.28924257 0.16738166
0002a0 fb 68 13 3e 59 0f 7e be 25 b2 2d be b2 e3 0a bd
       0.14395516 -0.24810542 -0.16962488 -0.033908553
0002b0 d5 bd 64 bb a8 a9 8c bd 8b 31 8b 3e 79 92 a3 bd
       -0.0034903188 -0.06868297 0.27186236 -0.07986922
0002c0 af 90 06 3e 43 c5 3d be 50 df c0 bd 11 51 6a be
       0.1314113 -0.1853228 -0.094175935 -0.22882487
0002d0 71 4a 37 be ac 5f 25 bd ec 58 e7 3d 57 83 48 3d
       -0.17899491 -0.040374443 0.112962574 0.04895338
0002e0 79 16 22 be b1 b4 8f 3e 16 c1 5a bd e1 e0 03 3e
       -0.15828885 0.28067544 -0.053406797 0.12878753
0002f0 d3 4f 3d 3e 06 b4 31 3e 6b 10 44 bc 6f dd 4c be
       0.18487482 0.1735383 -0.011966805 -0.20006345
000300 bb b8 ed bd 37 c3 5b 3c f8 39 90 bd df c8 45 be
       -0.116075 0.013413242 -0.07042307 -0.19314907
000310 22 7f b3 bd 43 22 98 3e df 88 5a bd 59 40 ce bd
       -0.08764483 0.2971364 -0.053353187 -0.10070867
000320 b6 13 44 be b1 24 26 3d a4 3c 36 be a3 64 d0 bc
       -0.19148144 0.040562335 -0.1779657 -0.025438612
000330 01 44 a3 bd f3 67 92 be 02 e8 06 be 6c be 0b be
       -0.07971955 -0.28594932 -0.13174441 -0.13646859
000340 6c ba 4b be 3e 7a f3 bd ce 4d e7 bd 5f c3 62 3d
       -0.19895333 -0.1188855 -0.11294137 0.0553621
000350 98 13 04 bd ad bc 2b 3e 25 0c 13 bc ed 6d f3 3d
       -0.03224525 0.16771193 -0.008975063 0.11886201
000360 32 e8 46 be 91 46 54 be 79 aa 05 be e8 ae 6f 3e
       -0.19424513 -0.20730044 -0.13053311 0.23406565
000370 34 09 95 3d c8 68 d4 3d 6c 01 4f bd cd 56 22 3e
       0.07277146 0.10371548 -0.050538465 0.15853424
000380 f8 99 23 3e 9c 7d 03 3e 45 a4 1d bc 79 94 bc 3d
       0.15976703 0.12840885 -0.009621684 0.092080064
000390 5c f1 39 3e fc ee b5 3c 34 0e 80 be 85 13 b1 3d
       0.18158478 0.022208683 -0.25010836 0.08646301
0003a0 59 10 81 be bd 1d c5 bd 88 ee 56 be f2 1d 28 3e
       -0.25207785 -0.09624813 -0.2098943 0.16417673
0003b0 b4 51 bb 3d 40 00 6e 3e ec 83 7f 3c 1b 92 98 ba
       0.09146443 0.23242283 0.0155954175 -0.0011640223
0003c0 ca 41 2e be ef f2 e3 bd d0 b2 5a be b6 32 29 be
       -0.17017284 -0.1113032 -0.21357274 -0.16523251
0003d0 63 0f a6 3e 8b 53 0f 3e bd 51 d4 bd 2d a6 3c bd
       0.32433614 0.13996713 -0.10367153 -0.046056915
0003e0 c6 c4 68 be 5d ec 1e bd fd 9c d3 bd e3 27 21 3e
       -0.22731313 -0.038799632 -0.103326775 0.15737872
0003f0 af 58 28 3e 6f db 32 3e aa 7c c4 3d 8e 07 8c bd
       0.1644008 0.1746652 0.0959409 -0.068373784

fc3.0.bias f4 [10]
000000 8e 94 0e bf 21 32 dc bc ea b2 48 3e 47 45 f4 be
       -0.55695426 -0.026879372 0.195995 -0.47709104
000010 57 02 85 bd 52 62 90 3d e9 af 02 bf 59 af 46 3e
       -0.06494587 0.07050003 -0.5104967 0.19402827
000020 99 8f ae 3e a0 19 d8 3b
       0.3409393 0.0065948516
