save_checkpoints/LeNet5_epoch_15.pth (torch, 249863 bytes, 10 tensors)

conv1.0.weight f4 [6, 1, 5, 5]
0	0xbd2ce13f	-0.042207
1	0xbca33189	-0.019921081
2	0xbe3a727c	-0.18207735
3	0xbd3d6fd8	-0.04624924
4	0x3eb13f53	0.34618625
5	0xbea92c2c	-0.33041513
6	0xbe985d2d	-0.29758587
7	0xbd7749b6	-0.06037303
8	0x3d872a4e	0.06599866
9	0xbc33d178	-0.010975234
10	0x3de63d65	0.11242179
11	0x3d41516f	0.0471968
12	0xbbcbcc68	-0.0062194355
13	0x3e3a14d2	0.18172005
14	0x3e2fca51	0.17167021
15	0xbcc9005a	-0.0245363
16	0x3d03ce09	0.032178912
17	0x3df47430	0.119362235
18	0x3ed54125	0.41651264
19	0xbd98f24b	-0.07468089
20	0x3e08d994	0.1336425
21	0x3d0dc2ee	0.034609728
22	0x39fe8dfe	0.00048552448
23	0x3e2d083e	0.16897675
24	0xbe5ab9f5	-0.2136
25	0xbcb402e6	-0.021974038
26	0x3ddcebf8	0.10787195
27	0x3df9d5c9	0.121989794
28	0x3df489ff	0.11940383
29	0xbcc11fd9	-0.023574756
30	0xbe736f39	-0.23772897
31	0xbf003e5f	-0.5009517
32	0xbe85fe66	-0.26170653
33	0xbe8f363e	-0.2797107
34	0xbe51c886	-0.2048665
35	0xbe288459	-0.16456737
36	0xbe211804	-0.15731817
37	0xbe19c984	-0.15018278
38	0xbd72f3cf	-0.059314545
39	0xbe2d4fc6	-0.16924962
40	0x3d37c776	0.044867955
41	0x3df898ec	0.121385425
42	0x3d8d48ae	0.06898628
43	0x3d9d0362	0.07666661
44	0x3dd7b009	0.10531623
45	0x3d063317	0.032763567
46	0x3cdc8002	0.026916508
47	0x3d0bd212	0.034135886
48	0x3d53cc61	0.051708583
49	0x3c6ab104	0.01432443
50	0x3c608ff1	0.013706193
51	0xbd28acff	-0.041180607
52	0x3c6cd230	0.0144544095
53	0x3e23958f	0.15975021
54	0xbcf4bab3	-0.029874181
55	0xbde4dbd0	-0.111747384
56	0x3e7e5364	0.24836498
57	0x3e5591ee	0.20856449
58	0xbd839c1f	-0.06426262
59	0x3dc96758	0.098341644
60	0xbe6d22b2	-0.23157766
61	0x3e62b457	0.22139107
62	0x3dc95f3c	0.09832618
63	0x3c952c15	0.018209497
64	0xbbc060c5	-0.005870911
65	0xbbc6a873	-0.006062561
66	0x3eae70af	0.34070346
67	0xbb4657b0	-0.0030264668
68	0x3bee5f92	0.0072745765
69	0xbe162ad1	-0.1466477
70	0x3c02663f	0.007958948
71	0x3eb0b7e9	0.34515312
72	0xbd2ef623	-0.042715203
73	0xbdf63946	-0.12022643
74	0xbe8a47f5	-0.27008024
75	0x3e35c257	0.17749916
76	0xbc0c0180	-0.0085452795
77	0x3c82302b	0.015892109
78	0x3dbbfc78	0.09179014
79	0x3ea3faf8	0.3202741
80	0xbba8b5bc	-0.0051486176
81	0xbed28c2d	-0.4112257
82	0xbe93c7a7	-0.2886326
83	0xbe06e37a	-0.13172713
84	0xbcd4670a	-0.02592804
85	0xbe041d75	-0.12901862
86	0xbeaa570f	-0.33269545
87	0xbcacd577	-0.021097882
88	0x3cd1b729	0.025600033
89	0x3d11abe7	0.03556433
90	0xbecac5d8	-0.39604068
91	0xbda261b7	-0.07928794
92	0x3a412187	0.00073673617
93	0x3e2b6124	0.16736275
94	0xbdc01967	-0.09379845
95	0xbeed7370	-0.46377134
96	0x3d843422	0.06455256
97	0x3df10ab6	0.11769621
98	0xbdfc0e78	-0.12307447
99	0x3d0412c9	0.032244477
100	0x3d8aae4e	0.06771527
101	0x3d168d57	0.036755886
102	0x3dc7098d	0.097186185
103	0x3e6532c8	0.22382653
104	0x3da6ebc1	0.08150435
105	0xbd00522a	-0.031328358
106	0x3e14632f	0.1449096
107	0xbb1b5a50	-0.0023704953
108	0xbd82ddf0	-0.063899875
109	0x3da6ba33	0.081409834
110	0x3e17b545	0.14815243
111	0xbdf688a0	-0.12037778
112	0xbcea1c60	-0.028577983
113	0xbe89a0b8	-0.2688043
114	0xbd0748f2	-0.03302855
115	0xbeec9683	-0.4620858
116	0xbe9e7ce7	-0.30954668
117	0xbecba5b8	-0.3977487
118	0xbe1bd7c4	-0.15219027
119	0xbe556670	-0.20839858
120	0x3ba82444	0.0051312763
121	0xbd0eb092	-0.03483636
122	0x3d558fb9	0.052139018
123	0x3df77dd8	0.1208455
124	0xbd4f5c05	-0.050624866
125	0xbeeb87a6	-0.4600193
126	0xbd70a910	-0.05875498
127	0xbea9f9d5	-0.3319842
128	0x3d00f62a	0.03148476
129	0x3e167b09	0.14695372
130	0x3b520b3b	0.003205015
131	0x3d001fdd	0.031280387
132	0xbe894e3a	-0.26817495
133	0xbe5d03b3	-0.21583442
134	0xbd8c676e	-0.06855665
135	0x3ba6b92b	0.0050879917
136	0xbdb74be2	-0.089500204
137	0xbea22f0c	-0.3167652
138	0x3dd7dd86	0.10540299
139	0x3dde75a2	0.108622804
140	0x3e6d7aa6	0.23191318
141	0xbe840a2d	-0.25789014
142	0xbeef75dc	-0.46769607
143	0xbd655082	-0.05598498
144	0x3db28597	0.087168865
145	0x3dcbec6d	0.09957204
146	0x3d5ba43a	0.053623416
147	0xbea69191	-0.32532933
148	0xbe4fb402	-0.20283511
149	0xbe0246ed	-0.12722369

conv1.0.bias f4 [6]
0	0xbe8fe2be	-0.28102678
1	0xbe5008b2	-0.20315817
2	0x3def31aa	0.116793945
3	0xbe016383	-0.12635617
4	0xbe00bcda	-0.12572041
5	0x3dd53b39	0.104116865

conv2.0.weight f4 [16, 6, 5, 5]
0	0x3dd62d47	0.10457855
1	0x3cabba15	0.020962754
2	0x3e5d4d6e	0.21611568
3	0x3d6df5c2	0.0580957
4	0xbd61e705	-0.055151958
5	0x3c69bd50	0.014266327
6	0x3dbef415	0.09323899
7	0x3e375b42	0.17905906
8	0xbe10185b	-0.14071791
9	0xbe8b605b	-0.2722195
10	0xbe0e5b4e	-0.13902017
11	0xbbabdc8a	-0.005244796
12	0x3dd9e26f	0.10638892
13	0xbe8606f8	-0.26177192
14	0xbee9e2da	-0.45680887
15	0xbd0925e6	-0.03348341
16	0x3daa479a	0.08314438
17	0xbd676b6c	-0.05649893
18	0xbeca77ca	-0.39544517
19	0xbe482d3d	-0.19548507
20	0x3d36dccd	0.044644166
21	0xbe0d91ab	-0.13825099
22	0xbe619651	-0.22029997
23	0xbdf2e3c3	-0.11859848
24	0xbe1b0cb1	-0.1514156
25	0x3e9ba8d6	0.3040225
26	0x3c6402c9	0.01391668
27	0xbe10bc3c	-0.14134306
28	0xbd1be812	-0.038063116
29	0xbde7624e	-0.11298047
30	0x3dee2c21	0.11629511
31	0x3d70f2fe	0.058825485
32	0x3d04d723	0.032431733
33	0xbe26e113	-0.16296797
34	0xbd74fa49	-0.059809003
35	0x3e40e4fc	0.1883735
36	0x3e80c8ce	0.25153202
37	0xbe0206f7	-0.1269797
38	0xbe2cf805	-0.16891487
39	0xbd259730	-0.040427387
40	0x3e85bb27	0.26119348
41	0xbe18655b	-0.14882414
42	0xbe79c6cd	-0.24392243
43	0xbe41e87d	-0.18936343
44	0x3d92ce67	0.071682744
45	0xbe40bdd6	-0.18822417
46	0xbe500bad	-0.20316954
47	0xbdf8f9d8	-0.12157029
48	0x3e6cfc10	0.23143029
49	0x3d3f331c	0.0466796
50	0xbce0b61f	-0.027430592
51	0x3cc7f313	0.024407899
52	0xbe255327	-0.16145001
53	0x3da26f2b	0.0793136
54	0xbd96553d	-0.07340477
55	0xbe27cac1	-0.16385938
56	0xbe6ca941	-0.2311144
57	0xbde5a3cb	-0.11212882
58	0x3d9313f9	0.07181544
59	0xbe89642e	-0.26834244
60	0xbe44cd26	-0.19218883
61	0xbe5413d5	-0.2071069
62	0xbcfca672	-0.030841086
63	0x3d636afc	0.05552195
64	0xbe3d5252	-0.18488434
65	0xbe25f942	-0.16208366
66	0xbe02676f	-0.1273477
67	0xbd089edb	-0.03335462
68	0xbe0432c3	-0.12909989
69	0xbef60b42	-0.48055464
70	0xbda54534	-0.0806984
71	0xbcaf50a0	-0.02140075
72	0xbce67f62	-0.028136913
73	0xbdfb9e4d	-0.12286053
74	0xbe0edde9	-0.1395184
75	0x3e015cb2	0.12633017
76	0x3e8b9e22	0.27269083
77	0xbdaab525	-0.08335332
78	0xbeb8d598	-0.3610046
79	0xbe4a5906	-0.19760522
80	0xbd111812	-0.035423346
81	0x3e1a1e01	0.15050508
82	0x3d22856c	0.039678022
83	0xbcd9ef13	-0.026603257
84	0x3bf57ab5	0.0074914345
85	0xbcbd8789	-0.023135917
86	0x3dcc2048	0.09967095
87	0x3da85905	0.08220104
88	0xbd90f525	-0.070780076
89	0x3dc91b97	0.098197155
90	0xbd061558	-0.0327352
91	0xbe38a8b1	-0.180331
92	0xbdac6e14	-0.08419433
93	0xbd9c10a7	-0.07620364
94	0x3e6d0cd2	0.23149422
95	0xbe25bf9d	-0.16186376
96	0xbc6c0525	-0.014405523
97	0x3c912555	0.017717997
98	0xbd86801d	-0.065674044
99	0x3d914fcf	0.070953004
100	0x3e9b8b56	0.30379742
101	0x3e99c741	0.3003483
102	0xbd594dc0	-0.053052664
103	0xbec61330	-0.38686514
104	0xbe84b9eb	-0.25923094
105	0x3e1d716b	0.15375297
106	0xbdbdcde6	-0.09267788
107	0xbe8080ff	-0.25098416
108	0xbe0f38e6	-0.13986549
109	0xbda50a9f	-0.080586664
110	0x3d2ecbcf	0.042674836
111	0xbe9d7451	-0.30752805
112	0xbe25a77f	-0.16177176
113	0xbc294120	-0.010330468
114	0x3e16c250	0.14722562
115	0x3c8bd846	0.0170709
116	0xbe8e81be	-0.2783336
117	0xbd8836af	-0.06651055
118	0x3e0fd134	0.14044648
119	0xbd3daa03	-0.046304714
120	0xbe94ca11	-0.29060414
121	0xbd490c02	-0.049083717
122	0x3ded0dae	0.11574875
123	0xbc1d2ad0	-0.009592727
124	0xbe48687a	-0.19571105
125	0x3ea679c2	0.3251477
126	0x3d04a308	0.03238204
127	0xbda3d42d	-0.07999454
128	0x3d823d56	0.06359355
129	0x3d3da8d2	0.046303578
130	0x3e68b47c	0.227251
131	0x3e01b9b8	0.12668502
132	0x3b08153c	0.002076461
133	0x3e65eedd	0.224544
134	0x3db2ac3f	0.087242596
135	0x3d5eca3a	0.054392077
136	0x3d8eec75	0.06978694
137	0x3d9f3ee4	0.07775667
138	0x3d82b909	0.06382949
139	0x3dbd4774	0.09242144
140	0xbd28cb6f	-0.041209634
141	0x3d1ee3f7	0.038791623
142	0xbcb91d97	-0.022597117
143	0xbd957035	-0.072967924
144	0xbd184631	-0.037176315
145	0x3d69d80c	0.057090804
146	0x3d7f8302	0.0623808
147	0x3c14a32b	0.009072105
148	0xbd92fafd	-0.071767785
149	0x3e0739e9	0.13205685
150	0xbe1ab143	-0.15106682
151	0xbe03e32e	-0.12879631
152	0xbe453242	-0.19257453
153	0xbe0ab089	-0.13543905
154	0xbe21d764	-0.15804821
155	0xbe9b9b01	-0.30391696
156	0xbe8c806d	-0.2744173
157	0xbb92db4d	-0.004481709
158	0x3ae483be	0.0017434282
159	0xbd7baa69	-0.061441813
160	0xbe46dcfb	-0.19420235
161	0xbe2a8e73	-0.16655903
162	0xbd33fdde	-0.04394328
163	0xbe4441b9	-0.19165696
164	0xbe413889	-0.18869223
165	0xbe1ffc29	-0.15623535
166	0xbcdd7632	-0.027033899
167	0xbe3e1f18	-0.18566549
168	0xbe92a5c2	-0.28642088
169	0xbc9dbafb	-0.019254198
170	0xbe1e0ffe	-0.15435788
171	0x3d35c1f7	0.044374432
172	0xbdcae770	-0.099074244
173	0xbe453171	-0.19257142
174	0xbdf0cfe2	-0.117584005
175	0xbe270bde	-0.1631312
176	0xbe58f0e0	-0.21185637
177	0x3dc53283	0.09628775
178	0x3e1812c0	0.14850903
179	0x3d744239	0.059633467
180	0x3d746db8	0.05967495
181	0x3d9aceb3	0.07558956
182	0x3e736fd6	0.23773131
183	0x3d8c7ff1	0.068603404
184	0x3daf03f6	0.08545677
185	0x3b741c02	0.003724814
186	0xbc88a0d9	-0.01667826
187	0x3d77c2a2	0.06048835
188	0xbe136079	-0.1439227
189	0xbcf27b4f	-0.029599814
190	0xbb805f07	-0.003917578
191	0x3d92ce4a	0.07168253
192	0xbe1abbf3	-0.1511076
193	0xbd6067ba	-0.05478642
194	0x3dd0b614	0.10190979
195	0xbda74134	-0.081667334
196	0xbe18ef33	-0.14934997
197	0xbe27b18c	-0.16376323
198	0x3e0443cc	0.12916487
199	0x3e5c814a	0.21533695
200	0xbcb8a9cf	-0.022541909
201	0xbdb4a0c4	-0.08819726
202	0x3c1d6d6a	0.009608606
203	0xbe37f7ac	-0.17965573
204	0xbd2f81fd	-0.042848576
205	0xbdbeaca6	-0.09310274
206	0xbe1f881c	-0.15579265
207	0xbe3bfd99	-0.18358459
208	0x3dcf2cfa	0.101160005
209	0xbd493bea	-0.049129404
210	0xbef5d6f0	-0.48015547
211	0xbe4e0d58	-0.20122278
212	0xbdea2aad	-0.11433921
213	0x3d38d47d	0.04512452
214	0xbe6d6766	-0.23183975
215	0xbe8da14e	-0.27662128
216	0xbe81ae64	-0.25328362
217	0xbe498a6d	-0.19681711
218	0xbcc5154b	-0.024058005
219	0xbeb15cf4	-0.3464123
220	0xbd2f8ec0	-0.042860746
221	0xbdcf43ec	-0.10120377
222	0xbdeee9b8	-0.11665672
223	0x3d4485f3	0.047979306
224	0xbe44c0ab	-0.19214122
225	0xbdc5d077	-0.09658902
226	0x3c3fc66e	0.011705024
227	0x3ddf391d	0.10899565
228	0x3e8a83f5	0.270538
229	0x3cf0f5b2	0.029414032
230	0x3c90c064	0.017669864
231	0x3ee80e81	0.45323566
232	0x3e2d4eb1	0.1692455
233	0x3db0f455	0.08640353
234	0xbdb56a4c	-0.08858165
235	0x3e1e30bd	0.1544828
236	0x3ebee5b8	0.37284636
237	0xbe14dafa	-0.14536658
238	0xbd80ae10	-0.062832
239	0xbe6e66fe	-0.23281476
240	0x3e2046bd	0.15651985
241	0x3d3c8cba	0.046032645
242	0xbd8b364c	-0.06797466
243	0xbd831d4d	-0.06402073
244	0x3d92d3b5	0.07169286
245	0x3e2039a1	0.15646984
246	0xbd0da969	-0.03458539
247	0xbe104481	-0.14088632
248	0xbe80b0db	-0.2513493
249	0x3b6fbd52	0.003658135
250	0x3cc62c83	0.024191147
251	0x3e1e5d98	0.1546539
252	0x3e4e3fc2	0.20141509
253	0x3e8fa3e4	0.28054726
254	0x3dad385e	0.08458017
255	0x3d66b124	0.05632128

conv2.0.bias f4 [16]
0	0xbe9bddcb	-0.30442652
1	0xbebf3498	-0.37344813
2	0xbee63873	-0.44964942
3	0xbf0d78b9	-0.55262333
4	0xbf676157	-0.90382904
5	0xbf4055b2	-0.7513076
6	0xbe8df640	-0.27726936
7	0xbeeb53cb	-0.45962366
8	0xbf27c818	-0.65539694
9	0xbf357cf9	-0.7089382
10	0xbc834ea9	-0.016028719
11	0xbef938c9	-0.48676136
12	0xbef5c071	-0.47998384
13	0xbf0df023	-0.55444545
14	0xbf2719e9	-0.6527391
15	0xbe88cc49	-0.26718357

fc1.0.weight f4 [120, 400]
0	0x3cfaa275	0.030595044
1	0xbe3acf80	-0.18243217
2	0xbe0ee175	-0.13953193
3	0xbe8a2358	-0.2698009
4	0xbd657d02	-0.05602742
5	0xbd25403a	-0.040344454
6	0xbe143632	-0.14473799
7	0xbe3eebae	-0.18644592
8	0xbe4ea84e	-0.2018139
9	0x3e9569bd	0.29182234
10	0xbe4ee734	-0.20205384
11	0xbe156bc1	-0.14591886
12	0xbe3ec87f	-0.1863117
13	0x3deb75c9	0.11497075
14	0x3d0c80fd	0.0343027
15	0x3c7dc9cc	0.015490007
16	0xbe74c0f5	-0.23901732
17	0xbd0bf2ce	-0.034167103
18	0x3d438517	0.047734346
19	0x3e52e215	0.20594056
20	0xbe73a4f1	-0.23793389
21	0xbe9d0292	-0.30666023
22	0x3dcab501	0.09897805
23	0x3e13b3d1	0.14424063
24	0xbd73303b	-0.059372168
25	0xbd2fd4c8	-0.042927533
26	0xbe28532e	-0.1643798
27	0xbc672871	-0.014108763
28	0xbe9f75ea	-0.3114465
29	0xbe2d9f5a	-0.16955319
30	0xbe84c507	-0.2593157
31	0xbcaffc52	-0.02148262
32	0x3e024d46	0.1272479
33	0xbe494aed	-0.19657488
34	0xbe3c1817	-0.18368565
35	0xbd40f783	-0.047111046
36	0x3bde0fef	0.006776802
37	0x3dea528b	0.11441525
38	0xbcc8a758	-0.024493858
39	0x3dd0acab	0.10189184
40	0xbe3c2beb	-0.18376128
41	0xbe9136b4	-0.28362048
42	0x3d20cd2c	0.039258167
43	0xbda320a6	-0.079652116
44	0x3d11438d	0.035464812
45	0xbe1e871b	-0.15481226
46	0x3e0a082e	0.13479683
47	0x3dcf4568	0.1012066
48	0x3e7a1de2	0.24425462
49	0x3e3012d0	0.17194676
50	0xbe0acc16	-0.13554415
51	0xbe2d25b8	-0.1690892
52	0xbe40b80d	-0.1882021
53	0xbe0a9eb4	-0.13537103
54	0xbe341aaa	-0.17588297
55	0x3ca13f9f	0.019683657
56	0x3df2f66c	0.118634075
57	0x3d75536a	0.059894003
58	0x3d7016eb	0.058615606
59	0x3dd03ac9	0.101674624
60	0x3d38d953	0.04512913
61	0xbe1e9bc4	-0.15489107
62	0xbe826126	-0.25464743
63	0x3dd09fd5	0.101867355
64	0x3e5c6f03	0.21526723
65	0xbd8defa8	-0.069304764
66	0xbe8f2b70	-0.27962828
67	0xbdc2c0b8	-0.095094144
68	0x3e27fd34	0.16405183
69	0x3e660f48	0.22466767
70	0xbd11f9a0	-0.03563845
71	0xbe4aabc7	-0.1979209
72	0xbd38cf34	-0.04511948
73	0x3beb3675	0.0071781226
74	0x3edbd048	0.42932343
75	0x3e093f56	0.13403067
76	0xbd8713bd	-0.06595562
77	0xbdc19eb6	-0.094541
78	0x3e1d6c8e	0.15373442
79	0x3ce836cf	0.028346447
80	0xbde2240f	-0.11042034
81	0xbe2a8202	-0.16651157
82	0xbda0a64a	-0.07844217
83	0x3d8c2ebc	0.068448514
84	0xbc199270	-0.009373292
85	0x3e898b20	0.26863956
86	0xbd0de7ec	-0.034645006
87	0xbe75cc70	-0.24003768
88	0xbd74bde8	-0.05975142
89	0xbdad7c2b	-0.08470949
90	0x3c6a4bd3	0.014300304
91	0x3ec0efd1	0.37682965
92	0xbd3e7495	-0.0464979
93	0xbbf2f40c	-0.0074143466
94	0xbd80bca4	-0.0628598
95	0xbcf8da22	-0.030377451
96	0x3e5e27bd	0.21694846
97	0x3e39acc4	0.18132311
98	0xba94fa4c	-0.0011366098
99	0xbe13619e	-0.14392707
100	0xbd80bb35	-0.06285707
101	0x3c7ad623	0.015309843
102	0x3d31f01e	0.043441884
103	0xbd2e7f43	-0.042601835
104	0xbdd75b25	-0.10515431
105	0x3e09a3de	0.13441417
106	0x3cddcfae	0.027076568
107	0x3e1b1e0f	0.15148185
108	0xbdeb04d9	-0.11475534
109	0xbda88b63	-0.08229711
110	0xbec4091d	-0.38288203
111	0x3d585326	0.05281367
112	0xbe0e8e4c	-0.1392147
113	0xbd9a5b31	-0.07536925
114	0xbec6521c	-0.3873452
115	0x3d8ee386	0.069769904
116	0xbde60398	-0.11231154
117	0xbde745c0	-0.11292601
118	0xbe8749c1	-0.26423457
119	0xbe90aee1	-0.28258422
120	0x3e12040b	0.14259355
121	0x3e82d07f	0.25549695
122	0x3d9343ac	0.07190642
123	0x3def6755	0.11689631
124	0xbde6ea6e	-0.11275183
125	0x3d5816c5	0.05275609
126	0xbd8d0bb9	-0.068870015
127	0xbdd2c9eb	-0.10292419
128	0xbdeb1991	-0.11479486
129	0xbce385b9	-0.027773725
130	0xbe35c1ec	-0.17749757
131	0xb8078b99	-3.231652e-05
132	0x3d1010f8	0.035172433
133	0xbc7f3f42	-0.015579047
134	0xbe3f2607	-0.1866685
135	0x3dbd1870	0.09233177
136	0xbe1eef54	-0.15520984
137	0x3ca8d497	0.020609183
138	0xbdb78931	-0.08961714
139	0xbda298f6	-0.07939331
140	0xbe217cf8	-0.15770328
141	0xbe2f19f9	-0.17099752
142	0x3d5b00d3	0.053467583
143	0xbdc7ec73	-0.09761896
144	0xbe95955f	-0.29215524
145	0xbe1bfaff	-0.15232466
146	0x3e2a4a86	0.16629991
147	0x3e1baeee	0.15203449
148	0xbd2f2aa0	-0.04276526
149	0xbe3ec3a6	-0.18629321
150	0xbda1e5ee	-0.07905184
151	0xbe25cdfd	-0.1619186
152	0xbee1c657	-0.44096634
153	0xbe25daf9	-0.16196813
154	0xbea342d4	-0.31886923
155	0x3cac91b1	0.021065565
156	0xbd912850	-0.07087767
157	0xbe1fb6c0	-0.15597057
158	0xbccb56b7	-0.024821622
159	0xbd99aa8a	-0.07503231
160	0x3d90c79f	0.07069325
161	0x3d592ccf	0.05302125
162	0x3d97615b	0.07391616
163	0xbd314ee4	-0.043288127
164	0x3d6aad03	0.057293903
165	0x3dcc1b10	0.09966099
166	0x3ba129af	0.004918299
167	0x3de76ddc	0.11300251
168	0x3e459442	0.19294837
169	0x3c3db384	0.011578444
170	0xbe819fa4	-0.2531711
171	0x3d7b3477	0.06132933
172	0xbc326087	-0.010887272
173	0x3dac49e7	0.08412533
174	0xbce2ff22	-0.027709547
175	0xbdad328a	-0.08456905
176	0xbdbdcbea	-0.09267409
177	0xbdf21c44	-0.118217975
178	0x3e411fc6	0.18859777
179	0x3e0e69c9	0.13907541
180	0x3e308605	0.17238624
181	0x3d84648d	0.06464491
182	0x3e366f24	0.17815834
183	0x3e80a9d0	0.25129557
184	0x3db5449f	0.08850979
185	0xbdc79274	-0.097447306
186	0x3e2f7946	0.17136106
187	0x3db1e69e	0.08686565
188	0x3e1949c2	0.14969543
189	0xbdfb7cd1	-0.12279666
190	0xbe6cf871	-0.23141648
191	0x3d71ee39	0.059065077
192	0xbe471baa	-0.19444147
193	0xbe30a808	-0.17251599
194	0x3dd20f53	0.10256829
195	0xbdf837d5	-0.12120024
196	0xbdb54a61	-0.08852077
197	0x3d8ecaf5	0.06972305
198	0x3e45e0b1	0.19323994
199	0x3d55b6b0	0.052176178
200	0xbc46df61	-0.012138219
201	0xbe3d9029	-0.18512024
202	0xbe975b24	-0.29561722
203	0xbd15cb19	-0.036570642
204	0x3ea07c64	0.31344903
205	0xbd8c6a2f	-0.068561904
206	0xbcaf6546	-0.021410596
207	0xbe2a84ce	-0.16652223
208	0x3dd377c8	0.10325581
209	0x3dc61565	0.096720494
210	0x3dd4f38a	0.10398014
211	0x3e1f9034	0.15582353
212	0xbd1354ce	-0.035969548
213	0x3e90b8f4	0.28266108
214	0x3e3acc48	0.1824199
215	0x3dbeb678	0.09312147
216	0x3d9305b4	0.07178822
217	0xbdb40f5b	-0.08791991
218	0xbceb205c	-0.028701954
219	0x3d3ba090	0.04580742
220	0xbebd24b6	-0.3694207
221	0xbe92de11	-0.28685048
222	0xbe08f870	-0.13376021
223	0x3dd57761	0.1042316
224	0x3e84aaa2	0.25911433
225	0x3b4e4dd0	0.0031479485
226	0x3c381289	0.011234888
227	0x3e5c33cc	0.21504134
228	0x3dc451fb	0.09585949
229	0x3e0d16ba	0.13778201
230	0xbd8e91af	-0.06961381
231	0x3e0263fb	0.12733452
232	0x3e64a060	0.22326803
233	0x3dd4dd91	0.10393823
234	0xbe358bac	-0.17729062
235	0x3e893d42	0.26804549
236	0x3e96f47d	0.29483405
237	0x3d57b87a	0.052666165
238	0x3d9fcc5b	0.078026496
239	0xbe3ec86b	-0.18631141
240	0x3d812d5f	0.06307482
241	0x3e49c991	0.19705798
242	0xbc80fab3	-0.015744543
243	0x3e251cc6	0.16124257
244	0xbd202111	-0.039094035
245	0xbd49ebfc	-0.049297318
246	0x3da6170c	0.081098646
247	0xbce12539	-0.02748357
248	0xbd43bc90	-0.04778725
249	0x3e31731c	0.17329067
250	0x3caf2608	0.02138044
251	0x3dd72c64	0.10506514
252	0x3dd3c13d	0.10339592
253	0xbbd57f35	-0.0065154084
254	0xbda1c0ce	-0.07898103
255	0x3e2887f4	0.16458112

fc1.0.bias f4 [120]
0	0xbd899d0d	-0.06719408
1	0xbb527542	-0.0032113348
2	0xbe77d999	-0.242041
3	0xbda19add	-0.07890866
4	0xbe551470	-0.20808578
5	0xbd5a350f	-0.053273257
6	0xbe5644d6	-0.20924696
7	0x3ad48a21	0.0016215482
8	0x3dc71479	0.09720702
9	0xbe5b7ddd	-0.21434732
10	0x3bc47167	0.005994964
11	0xbe7b1c15	-0.24522431
12	0xbdf137da	-0.11778231
13	0xbe358f16	-0.17730364
14	0xbeb43dba	-0.35203344
15	0x3c5f2fe9	0.0136222625
16	0xbe093d62	-0.13402322
17	0x3dc218cc	0.09477386
18	0xbded35a0	-0.11582494
19	0x3d339451	0.043842617
20	0x3e6c86f2	0.23098353
21	0xbe02da96	-0.12778696
22	0x3c160b4e	0.009157969
23	0x3bf53e22	0.0074842134
24	0xbd69ef89	-0.057113204
25	0x3c9d1c46	0.01917852
26	0xbe19ea34	-0.15030748
27	0x3d02276b	0.031775873
28	0x3e1fbecb	0.15600125
29	0x3c03738e	0.008023156
30	0x3da45401	0.08023835
31	0xbea70546	-0.3262121
32	0xbe02f56d	-0.12788935
33	0xbd2da34a	-0.042392053
34	0x3ee8f68d	0.45500603
35	0x3da4390e	0.08018695
36	0xbe813867	-0.25238344
37	0x3b0e5b9c	0.0021722084
38	0xbe34fbc7	-0.1767417
39	0xbc004f15	-0.007831355
40	0x3e6441e5	0.22290762
41	0x3db92850	0.09040892
42	0x3d42a24f	0.04751807
43	0xbd23cbaa	-0.03998915
44	0xbe186024	-0.14880425
45	0x3b92cfe2	0.004480348
46	0x3def518e	0.11685477
47	0xbe70db11	-0.23521067
48	0xbe7fe3ec	-0.24989289
49	0x3e07a049	0.13244738
50	0xbd8160ee	-0.06317316
51	0x3e1257d0	0.1429131
52	0xbe7dc5dd	-0.2478251
53	0x3e8a9cde	0.27072805
54	0xbd53dbf6	-0.051723443
55	0xbe8c4fb9	-0.27404574
56	0x3ea28c4f	0.31747672
57	0x3e55e94e	0.2088978
58	0x3c3c8240	0.011505663
59	0xbd6d7cf2	-0.057980485
60	0xbe0307d9	-0.12795962
61	0xbd8bfb1c	-0.06835005
62	0x3dd34798	0.1031639
63	0xbda673c8	-0.08127552
64	0x3d0709ec	0.032968447
65	0x3de5223a	0.11188169
66	0xbe902ed9	-0.28160742
67	0xbcdd6190	-0.02702406
68	0xbe94288b	-0.28937182
69	0xbe3dad88	-0.18523228
70	0x3e41341a	0.18867531
71	0x3e3924bd	0.18080421
72	0xbd9c8b5f	-0.076437704
73	0xbe26fff3	-0.16308574
74	0xbe167758	-0.14693964
75	0x3cc6731c	0.02422481
76	0xbea709d1	-0.32624677
77	0x3eaf81fe	0.34278864
78	0x3c06c899	0.008226537
79	0xbe195f19	-0.14977683
80	0xbd1a2a6d	-0.037638117
81	0xbe99c940	-0.30036354
82	0xbe621fdb	-0.22082464
83	0x3ebec9f8	0.37263465
84	0xbe221c58	-0.15831125
85	0xbe5d2bdc	-0.21598762
86	0x3e810038	0.2519548
87	0xbe45eeb4	-0.1932934
88	0x3e225e4a	0.15856281
89	0xbde4856f	-0.11158263
90	0x3e57ae19	0.21062507
91	0xbe012e6e	-0.12615368
92	0x3ee87114	0.45398772
93	0x3e363017	0.17791782
94	0xbe0704ee	-0.13185474
95	0x3db3dfcb	0.087829195
96	0xbdb3fe06	-0.087886855
97	0x3da1753b	0.07883688
98	0xbe85a99e	-0.2610597
99	0x3e8affc3	0.27148256
100	0x3ca725b6	0.020403724
101	0xbd1ef147	-0.03880432
102	0xbcd8f0ff	-0.026482103
103	0x3e1305b0	0.14357638
104	0xbeaab049	-0.3333762
105	0x3e5d5c17	0.2161716
106	0xbe4fabb4	-0.20280343
107	0xbdeb4eae	-0.11489616
108	0x3cc569f1	0.024098368
109	0x3e4bab4f	0.19889568
110	0x3c042919	0.008066439
111	0x3d13a377	0.036044564
112	0x3e8dd12b	0.27698645
113	0x3e1dd503	0.15413289
114	0xbdcc5703	-0.09977534
115	0xbe5b35a9	-0.21407188
116	0x3d39dfc9	0.045379434
117	0xbde760bd	-0.11297748
118	0x3e46251b	0.19350092
119	0x3e40cecd	0.18828888

fc2.0.weight f4 [84, 120]
0	0x3dcbed86	0.099574134
1	0xbdc6845e	-0.09693216
2	0xbdaa27bb	-0.08308359
3	0xbdaa5bf7	-0.08318322
4	0xbebe693b	-0.3718966
5	0x3ccab38d	0.02474382
6	0x3d7d6967	0.061868098
7	0x3e87d00d	0.26525918
8	0x3cf66a95	0.03008012
9	0x3d98276c	0.07429394
10	0x3e82f1e1	0.25575164
11	0x3e4b102a	0.19830385
12	0xbdb8caf7	-0.090230875
13	0xbde9aaa6	-0.11409502
14	0xbd3f1f52	-0.04666073
15	0x3e5bdd27	0.21471082
16	0x3e197713	0.1498683
17	0x3ef43c07	0.47702047
18	0xbe58acd4	-0.21159679
19	0x3e0bac43	0.13639931
20	0xbbaf2f8d	-0.0053462447
21	0x3d41b916	0.047295652
22	0x3d72b72c	0.059256718
23	0xbdaea7bb	-0.08528086
24	0x3e74f70a	0.23922363
25	0xbc784196	-0.015152356
26	0xbe0d4da1	-0.13799144
27	0x3e8e77d6	0.27825803
28	0x3e1511c8	0.14557564
29	0xbea140f9	-0.31494883
30	0xbe8f3d8f	-0.27976653
31	0xbdf93bb6	-0.12169592
32	0xbad5a78a	-0.0016300541
33	0xbe777a44	-0.24167734
34	0x3d436b17	0.04770955
35	0x3c0e3978	0.008680694
36	0xbc04b7c4	-0.008100454
37	0x39ac6190	0.00032879086
38	0xbec01a47	-0.37520048
39	0xbd706006	-0.058685325
40	0xbd562f3b	-0.052291136
41	0xbe05da53	-0.13071565
42	0x3dcf8182	0.101321235
43	0xbe607fca	-0.21923748
44	0x3d96340d	0.07334147
45	0x3dab94f8	0.08378023
46	0x3dac20b0	0.08404672
47	0xbc37596f	-0.011190756
48	0x3dd52f85	0.10409454
49	0x3e164f23	0.14678626
50	0x3d882936	0.06648485
51	0xbe93e03f	-0.28882024
52	0x3ddb7970	0.10716522
53	0xbe39b1fc	-0.18134302
54	0x3e3fdf33	0.18737487
55	0xbd17613b	-0.03695796
56	0x3c79d688	0.015248902
57	0xbcc15f52	-0.023605023
58	0x3d3699d8	0.04458031
59	0xbdec64d0	-0.11542666
60	0xbc2bce6f	-0.010486229
61	0x3daac13e	0.08337639
62	0xbd1a12b7	-0.037615504
63	0xbdc91467	-0.098183446
64	0xbd217b92	-0.039424486
65	0x3c908ee1	0.017646255
66	0xbdc28fff	-0.09500121
67	0xbd7e5e73	-0.062101793
68	0xbe3e0c1a	-0.18559304
69	0xbd66d38c	-0.05635409
70	0x3dddfa0f	0.108387105
71	0x3ccb3ddd	0.024809772
72	0xbe263a6f	-0.16233228
73	0x3df4b2ea	0.11948188
74	0xbd1232b4	-0.035692886
75	0x3e0f67e8	0.14004481
76	0xbb4de766	-0.0031418442
77	0x3c4ee8af	0.012628718
78	0x3d999d5a	0.075007156
79	0xbca32448	-0.019914761
80	0x3e615d2f	0.22008203
81	0xbde7761d	-0.11301825
82	0x3d36df7d	0.04464673
83	0xbd944bde	-0.07241033
84	0xbd6f9a6a	-0.05849687
85	0x3c4267dd	0.011865583
86	0xbcd152ab	-0.025552114
87	0xbe248586	-0.1606656
88	0x3b2a6196	0.0025998107
89	0xbd8eb5ca	-0.06968267
90	0x3e5b5978	0.21420848
91	0xbe8799b9	-0.2648447
92	0x3c2d5008	0.010578163
93	0xbd86ce87	-0.06582361
94	0xbe6a82e2	-0.2290149
95	0xbe849b9c	-0.2589997
96	0x3e1eeccb	0.15520017
97	0xbe3a268a	-0.18178764
98	0x3e92dc8d	0.28683892
99	0xbbf198e0	-0.0073729604
100	0xbe172cbd	-0.1476316
101	0xbe855119	-0.26038435
102	0x3dd21a0e	0.10258876
103	0xbe3ec8f4	-0.18631345
104	0x3de319db	0.11088916
105	0xbe8661b6	-0.26246423
106	0x3cad07a5	0.02112181
107	0x3d94674a	0.07246263
108	0x3d931c0e	0.071830854
109	0x3d7f9155	0.06239446
110	0x3d293843	0.04131342
111	0xbd7e5f21	-0.06210244
112	0x3e5b9cf9	0.21446599
113	0xbe22a4cc	-0.15883178
114	0xbe13351d	-0.1437573
115	0xbe19ac97	-0.15007244
116	0x3b91cfa2	0.0044498006
117	0x3d1fd30d	0.039019633
118	0x3e9e7362	0.30947405
119	0x3e234733	0.15945129
120	0x3df80206	0.12109761
121	0x3db0cdba	0.08632989
122	0x3e669098	0.22516096
123	0x3dc94c74	0.098290354
124	0xbdfa39ff	-0.12218093
125	0xbc0ad036	-0.008472493
126	0x3e9d1300	0.30678558
127	0x3db8fe4e	0.0903288
128	0xbe2d85da	-0.16945592
129	0x3d9c076a	0.076186016
130	0x3e25fb5f	0.16209172
131	0x3e26aff1	0.16278054
132	0x3e25d4cf	0.16194461
133	0x3e4e6457	0.20155464
134	0x3e86690f	0.26252028
135	0x3d3f7b5f	0.046748515
136	0x3da89193	0.08230891
137	0x3e563dda	0.20922032
138	0xbc853ec0	-0.016265273
139	0xbd7983d6	-0.060916744
140	0xbe20845d	-0.15675493
141	0x3de56aae	0.11201988
142	0xbb599d52	-0.0033205342
143	0xbd6cec7b	-0.057842713
144	0xbe291d0c	-0.16514987
145	0x3cc596cd	0.024119759
146	0x3d89940a	0.06717689
147	0x3eac589d	0.33661357
148	0xbcb87371	-0.022515984
149	0xbd473bf6	-0.048641168
150	0xbd915b96	-0.07097547
151	0x3dc9467e	0.098278984
152	0x3dcf0e83	0.1011019
153	0xbe81a7af	-0.25323245
154	0xbe30216d	-0.17200251
155	0xbaa72a63	-0.0012753721
156	0x3db859ea	0.09001525
157	0x3e6a1b2c	0.22861928
158	0x3da5c645	0.080944575
159	0xbe41cce8	-0.18925822
160	0xbde70bec	-0.11281571
161	0xbdd39fc8	-0.1033321
162	0x3d70c076	0.058777295
163	0x3ddf7c40	0.10912371
164	0xbd812131	-0.06305159
165	0x3e50783a	0.20358363
166	0xbd9b83e5	-0.07593516
167	0xbcd50ada	-0.026006151
168	0x3e9fbbf3	0.3119808
169	0xbe342201	-0.17591096
170	0x3dc0ba09	0.094104834
171	0xbe17c91c	-0.14822811
172	0xbdd2691a	-0.10273953
173	0xbe0d8663	-0.13820796
174	0xbd131464	-0.035908118
175	0x3e4cc51b	0.19997065
176	0x3d1adeb1	0.03781003
177	0xb9e93f21	-0.00044488258
178	0xbccf5ffc	-0.025314324
179	0x3e454c29	0.19267334
180	0xbbcdc42c	-0.006279489
181	0xbe0f37df	-0.13986157
182	0xbd55cdfc	-0.052198395
183	0x3e73700a	0.23773208
184	0x3dea5882	0.11442663
185	0xbe0c2d8f	-0.13689254
186	0xbc7756f7	-0.015096418
187	0x3c88aa2a	0.016682703
188	0x3e5cd8fc	0.21567148
189	0xbd9cf45c	-0.07663795
190	0xbd722495	-0.05911692
191	0x3e895ace	0.2682709
192	0x3c6759c7	0.014120526
193	0x3db708df	0.08937239
194	0x3db54790	0.0885154
195	0x3e79263c	0.24330992
196	0x3e088ea2	0.1333566
197	0xbe0fd785	-0.14047058
198	0xbd1a0837	-0.03760549
199	0x3df212b5	0.11819974
200	0x3d048c99	0.032360647
201	0x3eb34975	0.3501698
202	0x3d59087b	0.052986603
203	0xbe82ad60	-0.255229
204	0x3ebd62df	0.36989495
205	0x3c9cd249	0.01914324
206	0xbe978354	-0.29592383
207	0x3d401e4d	0.046903897
208	0xbdba4faf	-0.0909723
209	0x3d16a3d8	0.036777347
210	0xbe093c21	-0.13401844
211	0x3d9d02c6	0.076665446
212	0xbdd61554	-0.10453287
213	0xbeb16700	-0.34648895
214	0xbdc08e3a	-0.094021276
215	0xbe09ffd8	-0.13476503
216	0xbd190ae1	-0.03736389
217	0xbde73792	-0.11289896
218	0x3d0835b1	0.03325433
219	0xbe3a312e	-0.18182823
220	0xbd9d708f	-0.076874845
221	0xbe055a6a	-0.13022771
222	0x3ca51919	0.020153569
223	0xbdef4984	-0.11683944
224	0x3e5143dc	0.20436043
225	0xbe57ccc8	-0.21074212
226	0x3cebecf9	0.02879952
227	0xbbd7a6de	-0.0065811714
228	0x3c0d46aa	0.008622805
229	0xbe5472de	-0.20746943
230	0x3e066ffc	0.13128656
231	0xbe371486	-0.17878923
232	0x3d0fd618	0.035116285
233	0xbe2b9cc4	-0.1675902
234	0x3de6974c	0.11259326
235	0x3e0f7f93	0.1401351
236	0xbe1bd1f2	-0.15216807
237	0x3e45a303	0.19300465
238	0xbcfadb46	-0.030622136
239	0x3e043623	0.12911277
240	0x3e5b4c96	0.21415934
241	0x3e7efd9f	0.24901436
242	0x3e34f96e	0.17673275
243	0x3e466254	0.19373447
244	0x3d8ecc2e	0.06972538
245	0xbe81a237	-0.25319073
246	0x3e012a47	0.12613784
247	0x3e155286	0.14582261
248	0x3d02355a	0.03178916
249	0x3cfcc8ca	0.030857462
250	0x3c18f71e	0.009336261
251	0xbde07a2d	-0.10960803
252	0x3e2567fb	0.16152947
253	0x3d81a307	0.06329923
254	0xbe1413b8	-0.14460647
255	0xbe1a9f3f	-0.1509981

fc2.0.bias f4 [84]
0	0xbe1f7b24	-0.15574318
1	0xbeb8ad20	-0.36069584
2	0xbe66637f	-0.22498892
3	0x3daa5246	0.08316474
4	0xbdfeb82f	-0.12437474
5	0xbe2eecab	-0.17082469
6	0x3e25f5a0	0.1620698
7	0xbcc182cd	-0.023621941
8	0x3a92b7ea	0.0011193727
9	0xbe311e65	-0.17296751
10	0x3ebe6d9f	0.3719301
11	0x3d38231b	0.044955354
12	0x3de1fdcd	0.11034737
13	0x3eee3d79	0.46531275
14	0xbb497f13	-0.0030745908
15	0x3d2b31cc	0.041795537
16	0xbe04a766	-0.12954482
17	0xbe16fd67	-0.14745103
18	0xbe58e0f4	-0.21179563
19	0x3d80fec2	0.06298591
20	0xbbf060bf	-0.007335752
21	0x3e5645ba	0.20925036
22	0x3def1334	0.116735846
23	0x3e4df2cf	0.20112155
24	0xbd97a158	-0.07403821
25	0x3ec83bfa	0.39108258
26	0x3da18b1c	0.07887861
27	0x3dda1a54	0.10649553
28	0x3c9125a7	0.01771815
29	0x3d59a1fb	0.053132992
30	0x3e8b743c	0.27237117
31	0x3dda2978	0.10652441
32	0x3d03f425	0.032215256
33	0x3e594440	0.21217442
34	0xbe3951e4	-0.18097645
35	0xbdadcf0e	-0.08486758
36	0xbdf6d1b7	-0.12051719
37	0xbe8b39c1	-0.271925
38	0xbeb65f57	-0.35619614
39	0xbbbd36a7	-0.0057743373
40	0xbd1f1cb2	-0.038845725
41	0x3ea33022	0.3187266
42	0xbe6fe350	-0.23426557
43	0x3e6ea2d9	0.23304309
44	0xbd4e3357	-0.05034193
45	0x3eac5204	0.33656323
46	0x3d1a8b15	0.037730295
47	0x3e6c963a	0.23104182
48	0xbe0f2a44	-0.13980967
49	0xbe09b566	-0.13448104
50	0xbdac8d45	-0.084253825
51	0x3e6ad376	0.22932228
52	0x3da8760a	0.08225639
53	0x3df2e4d9	0.118600555
54	0x3c27e2b1	0.010246919
55	0xbd124413	-0.035709452
56	0xbe087406	-0.1332551
57	0x3e3ae952	0.18253067
58	0xbe38eb9c	-0.18058628
59	0xbe1dd7af	-0.15414308
60	0x3e5dc788	0.21658146
61	0xbda5268a	-0.08063991
62	0x3e95404f	0.29150626
63	0xbc88606f	-0.016647546
64	0x3de68924	0.11256626
65	0x3d23675f	0.039893504
66	0x3e77368c	0.24141902
67	0x3d1c423f	0.038149115
68	0xbcbd5308	-0.023110881
69	0x3e422803	0.18960576
70	0xbd84b8eb	-0.06480583
71	0xbcccf7b0	-0.02502045
72	0xbeac1889	-0.3361247
73	0x3c844e63	0.016150659
74	0xbea41a86	-0.32051486
75	0xbe4cbc3f	-0.19993685
76	0x3f1d239d	0.61382467
77	0x3d243152	0.040086098
78	0x3e4b2ac3	0.19840531
79	0x3d93f1e0	0.07223868
80	0xbec569e9	-0.38557366
81	0xbe901b71	-0.28145936
82	0x3ddf0ddc	0.10891315
83	0xbe67d473	-0.22639637

fc3.0.weight f4 [10, 84]
0	0xbdc7ae32	-0.09750022
1	0x3ddc9589	0.10770709
2	0xbe622c61	-0.22087242
3	0xbdf64aac	-0.12025961
4	0x3d048359	0.032351825
5	0x3ea801c2	0.3281384
6	0x393757a6	0.00017484892
7	0xbe1d6d06	-0.1537362
8	0xbd9b8310	-0.075933576
9	0x3cbb71b7	0.022881372
10	0x3e0baed6	0.13640913
11	0xbe30e16a	-0.17273489
12	0xbd654542	-0.055974253
13	0xbe55dd34	-0.20885164
14	0x3dca49b5	0.0987734
15	0x3ddd7e38	0.1081509
16	0xbe42519f	-0.18976448
17	0x3e74a274	0.23890096
18	0x3e093c68	0.1340195
19	0xbe785bc6	-0.24253759
20	0xbe81e624	-0.25370896
21	0x3e5952a4	0.21222931
22	0x3e620be1	0.22074844
23	0x3d47e1ed	0.048799444
24	0x3e2a32b9	0.16620912
25	0xbe6f7c02	-0.23387149
26	0xbdfb5e05	-0.12273792
27	0x3e43face	0.19138643
28	0x3e0eed49	0.13957705
29	0x3e2f1d76	0.17101082
30	0x3d7e4558	0.06207785
31	0xbb5a50a1	-0.0033312219
32	0xbe42eafb	-0.1903495
33	0xbe93b8d6	-0.28851956
34	0x3ea05ebb	0.31322274
35	0x3eb68258	0.3564632
36	0xbdd97421	-0.10617853
37	0xbdabd038	-0.08389324
38	0x3e3dbbc0	0.18528652
39	0x3d8dea21	0.06929422
40	0xbe469ab1	-0.19394948
41	0xbe3b860f	-0.18312858
42	0xbe0904b3	-0.13380699
43	0xbe281ffc	-0.16418451
44	0xbd906dc2	-0.07052185
45	0xbe7106f2	-0.23537806
46	0xbe303684	-0.17208296
47	0x3e2996e9	0.16561474
48	0xbd93553e	-0.07193993
49	0x3e24cec5	0.16094501
50	0xbdf5f002	-0.120086685
51	0x3e389f2a	0.18029466
52	0x3e2f9605	0.17147072
53	0x3e40bfe7	0.18823205
54	0x3e59a219	0.21253242
55	0x3d50001e	0.05078136
56	0x3ea1ea8f	0.31624267
57	0xbcf7bc92	-0.030241285
58	0xbd6921ed	-0.05691712
59	0x3d75ee7f	0.0600419
60	0xbe34df9f	-0.1766343
61	0x3cd2a191	0.025711806
62	0x3daf879b	0.085707866
63	0xbd2e2100	-0.04251194
64	0xbcdff8e1	-0.027340354
65	0x3e202a0d	0.15641041
66	0x3e271005	0.16314705
67	0x3d34eac6	0.04416921
68	0x3e65f117	0.2245525
69	0xbe0582b7	-0.13038145
70	0x3e89477b	0.26812348
71	0x3e23be07	0.15990458
72	0xbceb0546	-0.028689038
73	0x3dba8f7f	0.09109401
74	0x3e299b97	0.16563259
75	0x3d3aa66d	0.045568872
76	0x3dcaeeca	0.09908827
77	0x3cecffac	0.028930508
78	0x3dc33c1d	0.0953295
79	0x3e575bae	0.21031067
80	0xbe568719	-0.20949973
81	0x3e069cd6	0.13145766
82	0xbe38599e	-0.18002936
83	0x3e1fae66	0.15593871
84	0xbdc4329b	-0.09579965
85	0xbe6d37c8	-0.2316581
86	0xbdd18153	-0.10229745
87	0x3e886725	0.26641193
88	0xbe0d56b5	-0.13802607
89	0xbe2e3d90	-0.17015672
90	0xbbc598e9	-0.006030191
91	0xbd51b4bb	-0.05119775
92	0x3e40a117	0.18811451
93	0xbe8d860a	-0.27641326
94	0x3eb1d66d	0.34733906
95	0x3d3860c2	0.04501415
96	0xbe3edf57	-0.18639885
97	0x3dd57abc	0.104238
98	0xbea90083	-0.33008203
99	0xbcadcb50	-0.021215111
100	0xbe69ec05	-0.2284394
101	0xbd99fd32	-0.07518996
102	0xbe079650	-0.13240933
103	0xbe11ab30	-0.14225459
104	0xbe2a196f	-0.16611265
105	0xbe76e0b5	-0.24109156
106	0x3e52a21b	0.20569651
107	0x3cb1570a	0.021647949
108	0x3d879ec7	0.06622081
109	0xbe52bff4	-0.20581037
110	0x3e437dcd	0.19090958
111	0x3e424a1d	0.18973584
112	0xbe46f606	-0.19429788
113	0xbe070f30	-0.13189387
114	0x3e64b553	0.22334795
115	0x3e04941c	0.12947124
116	0xbe6ef043	-0.2333384
117	0x3d91bf1f	0.071165316
118	0x3cf7c340	0.03024447
119	0x3e9d3a52	0.30708557
120	0x3c2c388c	0.010511529
121	0x3c5a878f	0.013337984
122	0x3e357da6	0.17723712
123	0xbe85189c	-0.25995338
124	0x3e231482	0.15925792
125	0x3e3461cf	0.17615436
126	0x3e4aa75f	0.1979041
127	0x3e9ca80c	0.3059696
128	0xbe2503a2	-0.16114667
129	0x3da151c6	0.07876925
130	0xbe86a461	-0.26297286
131	0x3e4c52ad	0.19953413
132	0xbe163746	-0.14669523
133	0x3dd77982	0.10521223
134	0xbe2ffa52	-0.17185333
135	0x3dccb501	0.09995461
136	0xbe61f642	-0.22066596
137	0x3cbbe9ec	0.022938691
138	0xbddeaa5c	-0.10872337
139	0xbdcdd585	-0.10050491
140	0x3cce951e	0.025217589
141	0x3d514c98	0.051098436
142	0xbcfb3aa7	-0.030667616
143	0x3cf55c1d	0.02995115
144	0xbdf294a3	-0.118447565
145	0xbdb8c58d	-0.09022055
146	0xbe5a20c6	-0.21301565
147	0x3db124c5	0.08649591
148	0xbd4dfd35	-0.050290305
149	0xbde17898	-0.110093296
150	0x3e2e4565	0.1701866
151	0xbdbd8442	-0.09253742
152	0xbda1b955	-0.078966774
153	0xbddcbf73	-0.107787035
154	0xbe8428d9	-0.25812414
155	0xbe703707	-0.23458491
156	0xbe2f5e4b	-0.17125814
157	0x3e4d242d	0.20033331
158	0xbe53ed29	-0.20695938
159	0xbe88b9ed	-0.2670435
160	0x3e2a6236	0.16639027
161	0x3e8e0b40	0.27742958
162	0x3dd35457	0.10318821
163	0xbd72d6ec	-0.059286997
164	0x3c2a3f00	0.010390997
165	0xbe4438b4	-0.19162256
166	0x3e3e068a	0.18557182
167	0x3d921f82	0.07134916
168	0x3e1f0c66	0.15532073
169	0xbe43d010	-0.19122338
170	0xbe467f00	-0.19384384
171	0xbcc98bd8	-0.024602816
172	0xbdb2b238	-0.08725399
173	0xbda3f4b4	-0.08005658
174	0x3e487809	0.1957704
175	0xbdf30310	-0.118658185
176	0x3e0ece1b	0.1394581
177	0xbe4905a0	-0.19631052
178	0xbde8976c	-0.113570064
179	0xbe7b0961	-0.24515297
180	0xbdf62048	-0.12017876
181	0xbc46dce2	-0.0121376235
182	0x3e037d7d	0.12840839
183	0x3d8f5d3f	0.07000207
184	0xbe159bf1	-0.14610268
185	0x3e917aa6	0.28413886
186	0xbdfb839c	-0.12280962
187	0x3debb544	0.11509183
188	0x3e49d9a4	0.1971193
189	0x3e6295e7	0.22127496
190	0x3b16f9a3	0.0023036979
191	0xbe5e2430	-0.21693492
192	0xbe132d01	-0.14372636
193	0xbd2b3e9a	-0.04180775
194	0xbdfbb598	-0.12290496
195	0xbe48fcda	-0.19627705
196	0xbd4845bb	-0.048894625
197	0x3e9a67dc	0.30157363
198	0xbdfadd33	-0.12249222
199	0xbdec4796	-0.115370914
200	0xbde27bf0	-0.110587955
201	0xbbf55c9a	-0.0074878456
202	0xbe57ce8d	-0.21074887
203	0xbdab70e8	-0.083711445
204	0xbdfee372	-0.124457255
205	0xbe88df69	-0.26732948
206	0xbdca4836	-0.098770544
207	0xbdc69e5e	-0.09698175
208	0xbd7a4ed1	-0.06111032
209	0xbe888833	-0.26666412
210	0xbe10f581	-0.14156152
211	0x3d58e801	0.05295563
212	0xbd148b6a	-0.036265768
213	0x3df1eb9c	0.11812517
214	0xbe028175	-0.12744696
215	0xbb36f395	-0.0027916182
216	0xbe727686	-0.23678026
217	0xbe1a8d8d	-0.1509306
218	0xbd4e0a8a	-0.05030302
219	0x3e535ec7	0.20641623
220	0x3d0e412c	0.03473012
221	0x3dac013d	0.08398674
222	0xbdd41bfd	-0.10356901
223	0x3e49988a	0.19687095
224	0x3e3a8587	0.18214999
225	0x3dcc32fa	0.099706605
226	0xbd55c8d5	-0.05219348
227	0x3e11ac4d	0.14225884
228	0x3e6af5dc	0.2294535
229	0x3dbbabe2	0.091636434
230	0xbe87a64d	-0.26494065
231	0x3de922ce	0.113835916
232	0xbe7a4ffe	-0.24444577
233	0xbe029283	-0.12751202
234	0xbe7b1a8e	-0.24521849
235	0x3e2e5cd0	0.17027593
236	0x3d2b248c	0.0417829
237	0x3e718c8a	0.23588768
238	0x3d8633f9	0.06552882
239	0xbd926666	-0.07148437
240	0xbe2c420c	-0.1682207
241	0xbd6d01ca	-0.057863034
242	0xbe6a31d5	-0.22870572
243	0xbe59e296	-0.21277842
244	0x3e522ef3	0.20525722
245	0x3e49f54f	0.19722484
246	0xbd6c2e35	-0.057661254
247	0xbdad5c90	-0.084649205
248	0xbe8740b0	-0.2641654
249	0xbb19c147	-0.002346115
250	0xbdab6432	-0.0836872
251	0x3e6e0a87	0.23246203
252	0x3e58d399	0.21174468
253	0x3df9930b	0.12186249
254	0x3e0e5301	0.13898851
255	0xbe084263	-0.13306575

fc3.0.bias f4 [10]
0	0xbedc02a3	-0.42970762
1	0x3d54e98b	0.051980536
2	0x3e209f8d	0.15685864
3	0xbeafa010	-0.34301805
4	0xbd86c2cb	-0.065801226
5	0x3db3097d	0.08742044
6	0xbed73cb4	-0.420385
7	0x3d9b307f	0.07577609
8	0x3e9c2071	0.304935
9	0x3cc7ce1c	0.024390273
