save_checkpoints/LeNet5_epoch_18.pth (torch, 249863 bytes, 10 tensors)

conv1.0.weight f4 [6, 1, 5, 5]
0	0xbd89e394	-0.0673286
1	0xbd7b5628	-0.061361462
2	0xbe5f4722	-0.21804479
3	0xbd730d49	-0.05933884
4	0x3eab4add	0.33455554
5	0xbeb78e24	-0.35850632
6	0xbe98f5d6	-0.29875058
7	0xbd56af15	-0.052413065
8	0x3d067685	0.032827873
9	0xbd30c9d2	-0.04316122
10	0x3e046532	0.12929228
11	0x3dc6213e	0.09674309
12	0x3cfd8438	0.030946836
13	0x3e3b5202	0.18293002
14	0x3e1b973c	0.1519441
15	0xbc769c92	-0.015051978
16	0x3c0e6e60	0.008693308
17	0x3debee65	0.115200795
18	0x3eec2bbe	0.46127123
19	0xbd95875a	-0.07301207
20	0x3dbf8f44	0.093534976
21	0xbc1e2f5f	-0.009654849
22	0xbcc586f4	-0.024112202
23	0x3e382309	0.17982115
24	0xbe6c1aaa	-0.23057047
25	0x3b86e4b1	0.0041166176
26	0x3e3c5c03	0.18394475
27	0x3e40580e	0.1878359
28	0x3e0ccf8e	0.13751051
29	0xbce3b341	-0.027795436
30	0xbe8e827c	-0.27833927
31	0xbee9995f	-0.45624825
32	0xbe592539	-0.21205606
33	0xbe726177	-0.23669992
34	0xbe224c8e	-0.15849516
35	0xbdc3673e	-0.09541176
36	0xbe2adaa2	-0.16684964
37	0xbe60b241	-0.21942998
38	0xbdd1fa73	-0.102528475
39	0xbe4b03e4	-0.19825703
40	0x3e07cdff	0.13262175
41	0x3e2d0077	0.16894709
42	0x3d277062	0.04087866
43	0x3d78f4dc	0.06078039
44	0x3da46a78	0.0802812
45	0x3bb7ab7c	0.0056051593
46	0x3b85875f	0.0040749754
47	0x3d5504e2	0.05200661
48	0x3dbf3c70	0.093376994
49	0xbc732609	-0.014840611
50	0x3c1d129f	0.009586959
51	0xbd4ca8f7	-0.049965825
52	0xbd6aaaf0	-0.057291925
53	0x3e13b1b4	0.14423257
54	0xbd879362	-0.06619908
55	0xbdffa735	-0.12483064
56	0x3e50abd3	0.20378046
57	0x3e27c402	0.16383365
58	0xbcf2af39	-0.029624568
59	0x3df0469a	0.11732216
60	0xbead2a4b	-0.3382133
61	0x3e079e9a	0.13244095
62	0x3de42337	0.11139529
63	0x3d381827	0.04494491
64	0x3d4bf2f3	0.04979224
65	0xbdc5d720	-0.096601725
66	0x3ec0dd00	0.3766861
67	0xbbc6ebe6	-0.0060706018
68	0x3a8007b9	0.0009767927
69	0xbdce6c56	-0.10079257
70	0x3d881005	0.066436805
71	0x3ed2fb1e	0.41207212
72	0xbb891dfb	-0.004184482
73	0xbd7b6802	-0.061378486
74	0xbe6e2c72	-0.23259142
75	0x3e6f27ed	0.23355074
76	0x3d1fece4	0.039044276
77	0x3d65d971	0.05611557
78	0x3e002236	0.1251305
79	0x3eb31446	0.34976405
80	0x3c911a1f	0.01771265
81	0xbebf2417	-0.37332222
82	0xbe888db5	-0.26670614
83	0xbe09c06f	-0.13452314
84	0xbd36facb	-0.04467277
85	0xbddcec4f	-0.1078726
86	0xbea483fe	-0.32131952
87	0x3d1f2ce0	0.038861156
88	0x3d999369	0.074988194
89	0x3caaa433	0.02083025
90	0xbec6f398	-0.38857722
91	0xbd6fed88	-0.058576137
92	0x3d102aca	0.035197057
93	0x3e38ffd3	0.18066339
94	0xbddda620	-0.108227015
95	0xbf063bc9	-0.52434975
96	0x3cd1413f	0.025543807
97	0x3daa1868	0.083054364
98	0xbe330846	-0.17483625
99	0x3d7fd518	0.06245908
100	0x3dae2fec	0.08505234
101	0x3cc969be	0.024586555
102	0x3d1a81dd	0.037721504
103	0x3e5a5850	0.21322751
104	0x3e004747	0.1252719
105	0xbcd08444	-0.025453694
106	0x3dcbb05b	0.099457465
107	0xbd736dbe	-0.05943083
108	0xbd975266	-0.07388763
109	0x3dd96242	0.10614444
110	0x3e2a7596	0.16646418
111	0xbe28a7b1	-0.16470219
112	0xbcf11573	-0.029429173
113	0xbe8d2389	-0.27566174
114	0xbd3f75e2	-0.04674328
115	0xbee08105	-0.43848434
116	0xbeb37c53	-0.3505579
117	0xbefee97c	-0.4978751
118	0xbe544776	-0.20730385
119	0xbe359d46	-0.17735776
120	0xbc84bcdc	-0.016203336
121	0xbd220d4a	-0.039563455
122	0x3d1e209d	0.03860532
123	0x3e1c960f	0.15291618
124	0xbc2ebe43	-0.010665479
125	0xbeed6a28	-0.46370053
126	0xbdc29a8f	-0.09502136
127	0xbe9ae9a5	-0.30256382
128	0x3ddcc0a4	0.10778931
129	0x3e217ff9	0.15771474
130	0xbb9dc35a	-0.0048145475
131	0xbc94fdd7	-0.018187447
132	0xbe3f14e9	-0.1866032
133	0xbe31e6a1	-0.17373134
134	0xbd2d52ab	-0.042315166
135	0xbb241103	-0.0025034554
136	0xbe05a22c	-0.13050145
137	0xbe8e89b4	-0.27839434
138	0x3dbee22b	0.09320482
139	0x3df11d87	0.1177321
140	0x3e738518	0.2378124
141	0xbe742271	-0.23841263
142	0xbee3395c	-0.443797
143	0xbdee8fb6	-0.116485044
144	0x3dd866fc	0.10566518
145	0x3dfcf38a	0.12351139
146	0x3de82e69	0.11336977
147	0xbe94a35d	-0.29030886
148	0xbe91b147	-0.28455564
149	0xbde2ec9c	-0.11080286

conv1.0.bias f4 [6]
0	0xbe96da76	-0.29463547
1	0xbe31ca46	-0.17362317
2	0x3da73709	0.08164794
3	0xbdb9f9a3	-0.090808176
4	0xbdc1e622	-0.094677225
5	0x3d62980e	0.055320792

conv2.0.weight f4 [16, 6, 5, 5]
0	0x3dd3574e	0.103193864
1	0x3da2cff8	0.07949823
2	0x3e20ae16	0.15691409
3	0x3d800130	0.062502265
4	0xbdc4b617	-0.096050434
5	0x3dd560eb	0.10418876
6	0xbc1c9fa4	-0.009559546
7	0x3e23e815	0.16006501
8	0xbe3dbf42	-0.1852999
9	0xbe2a5050	-0.166322
10	0xbdc3de98	-0.09563941
11	0x3d45b143	0.048264753
12	0x3db56877	0.08857816
13	0xbe8e9838	-0.2785051
14	0xbed28d69	-0.41123512
15	0x3ba3dfbf	0.005001038
16	0x3e0a48d3	0.13504343
17	0xbdf08a7f	-0.11745166
18	0xbeeecf9c	-0.46642768
19	0xbd90ef23	-0.07076862
20	0x3d03533c	0.0320618
21	0xbdccba15	-0.0999643
22	0xbe07fbd1	-0.13279654
23	0xbe1778b0	-0.14792132
24	0xbd0badbb	-0.03410123
25	0x3e8ad33d	0.27114287
26	0xbe0638e3	-0.13107638
27	0xbe2e60f4	-0.17029172
28	0xbd9a2542	-0.075266376
29	0xbd88ca20	-0.06679177
30	0x3e3350e1	0.17511322
31	0x3dce8cc1	0.100854404
32	0x3dba09cd	0.090839006
33	0xbe194628	-0.14968169
34	0xbc576b9c	-0.013148215
35	0x3e80722b	0.25087103
36	0x3e5e11f2	0.21686533
37	0xbe00b17c	-0.12567705
38	0xbea83d1a	-0.32859117
39	0xbd126a5b	-0.03574596
40	0x3e532f54	0.20623523
41	0xbe6347f7	-0.22195421
42	0xbe797ca3	-0.24363951
43	0xbe2c1c0a	-0.16807571
44	0x3e45dfe1	0.19323684
45	0xbdf8f641	-0.12156344
46	0xbe0578c4	-0.1303435
47	0xbdfaab55	-0.1223971
48	0x3e6277f9	0.22116078
49	0x3b984763	0.004647182
50	0xbd70714c	-0.0587018
51	0xbd7bb849	-0.061455045
52	0xbe082bc7	-0.1329795
53	0x3bdd95f6	0.0067622615
54	0xbe3a7484	-0.1820851
55	0xbe86d4c1	-0.26334193
56	0xbe6f494b	-0.23367803
57	0xbe0a7b9d	-0.13523717
58	0x3d1ab49f	0.03776991
59	0xbe9afbff	-0.30270383
60	0xbe49e624	-0.19716698
61	0xbe4599e7	-0.1929699
62	0xbcb62467	-0.022234155
63	0xbb8b084a	-0.0042429315
64	0xbe9fc84f	-0.3120751
65	0xbdc9b1b0	-0.09848344
66	0xbdc61ac4	-0.09673074
67	0xbd31cbb6	-0.043407165
68	0xbe3fafa8	-0.18719351
69	0xbede91a8	-0.43470502
70	0xbdb3e859	-0.08784551
71	0xbd0033cd	-0.0312994
72	0xbdb8db6a	-0.09026225
73	0xbdd94ac7	-0.10609966
74	0xbe0e07b0	-0.1387012
75	0xbb36c26c	-0.002788688
76	0x3e0de404	0.13856512
77	0xbdb84b80	-0.089987755
78	0xbe8a8f62	-0.27062517
79	0xbe5a69f6	-0.21329483
80	0xbd9efaea	-0.07762702
81	0x3e50073e	0.20315263
82	0xbd0c286a	-0.03421823
83	0xbc698b15	-0.014254351
84	0x3d1264a2	0.035740502
85	0xbb832559	-0.004002255
86	0x3e1d6c1f	0.15373276
87	0x3c4b00bd	0.012390313
88	0xbe1bd151	-0.15216567
89	0x3e81edd5	0.25376764
90	0xbc2a8f76	-0.01041018
91	0xbe249a22	-0.16074422
92	0xbcfa3910	-0.030544788
93	0xbe0d08c6	-0.13772878
94	0x3ea9f127	0.33191797
95	0xbe81f046	-0.25378627
96	0xbb2f4cce	-0.002674866
97	0x3d89b372	0.067236796
98	0xbd1764b0	-0.036961257
99	0x3d305368	0.043048292
100	0x3e72f993	0.23728018
101	0x3eb0aba3	0.34505948
102	0x3d07705f	0.03306615
103	0xbea765cf	-0.3269486
104	0xbeb2ffed	-0.3496088
105	0x3e6c0dea	0.23052183
106	0xbd95d73a	-0.07316442
107	0xbe3549db	-0.17703955
108	0xbe449c4f	-0.19200252
109	0xbdbf9293	-0.09354129
110	0x3b3179ff	0.0027080772
111	0xbe8b1d8a	-0.27170974
112	0xbe4825fe	-0.19545743
113	0x3d286ef3	0.041121434
114	0x3e3825c5	0.17983158
115	0xbd51c9d5	-0.051217873
116	0xbe628696	-0.22121653
117	0xbd5ddcf9	-0.054165814
118	0x3e47422f	0.19458841
119	0xbcd8864d	-0.026431227
120	0xbe907549	-0.2821448
121	0x3d59180f	0.05300146
122	0x3da116a2	0.07865645
123	0x3d432fcf	0.047653016
124	0xbe4acb27	-0.19804059
125	0x3eba5671	0.36394075
126	0x3d3af4ca	0.045643605
127	0xbb2d1e49	-0.0026415756
128	0x3de63252	0.112400666
129	0x3d7ec13e	0.06219601
130	0x3e5a5d05	0.21324547
131	0x3e29073d	0.16506667
132	0x3d508b7d	0.050914276
133	0x3e97a3fd	0.296173
134	0x3d340460	0.043949485
135	0x3dad5a3d	0.08464477
136	0xbc0d64c5	-0.008629982
137	0x3d9da1a9	0.0769685
138	0x3d6a0c7b	0.05714081
139	0x3d911405	0.070838965
140	0xbd79989a	-0.060936548
141	0x3d6974db	0.056996208
142	0xbdbd909f	-0.092561
143	0xbd39dc4e	-0.045376115
144	0xbd1043a8	-0.035220772
145	0x3cd994c4	0.026560195
146	0xbd2c4943	-0.042062055
147	0x3ce07da3	0.027403658
148	0xbd9f09c2	-0.07765533
149	0x3e2ff167	0.17181931
150	0xbe21250b	-0.15736787
151	0xbe07118d	-0.13190289
152	0xbe0de279	-0.13855924
153	0xbdd60211	-0.10449613
154	0xbd66e63e	-0.05637192
155	0xbe82819f	-0.25489518
156	0xbe8d25e6	-0.27567977
157	0xbdd00f03	-0.10159113
158	0x3c02658d	0.007958782
159	0xbd63d747	-0.055625226
160	0xbe2945d9	-0.16530551
161	0xbdff9034	-0.124786764
162	0xbd1d9928	-0.03847614
163	0xbe05d130	-0.1306808
164	0xbe644263	-0.2229095
165	0xbdfae286	-0.12250237
166	0xbd25989b	-0.04042874
167	0xbe163a7a	-0.14670745
168	0xbe84b550	-0.2591958
169	0xbc206444	-0.00978953
170	0xbd2712c9	-0.0407894
171	0xbc82d687	-0.015971435
172	0xbd62290a	-0.05521492
173	0xbe43d0e9	-0.19122662
174	0xbe376257	-0.17908607
175	0xbe8d27c2	-0.27569395
176	0xbe5d6708	-0.21621335
177	0x3dffee64	0.12496641
178	0x3e1f8c79	0.1558093
179	0x3d845dc0	0.06463194
180	0x3dd00906	0.10157971
181	0x3db1880a	0.086685255
182	0x3e24a741	0.16079427
183	0x3dc05d6c	0.09392819
184	0xbc4c9bbd	-0.012488303
185	0x3cc850de	0.024452623
186	0xbd31054c	-0.043217942
187	0x3d73553b	0.059407454
188	0xbe13c97a	-0.14432326
189	0xbdca281d	-0.09870932
190	0x3c4f1f8c	0.012641799
191	0x3cc07b6a	0.023496348
192	0xbe552505	-0.20814903
193	0x3c0c8886	0.008577472
194	0x3ba821c7	0.0051309797
195	0xbd89c9a9	-0.06727917
196	0xbe2e02df	-0.16993283
197	0xbe80e860	-0.25177288
198	0x3d3b222b	0.045686882
199	0x3e2eda84	0.17075545
200	0xbc7a08a0	-0.015260845
201	0xbd8464d1	-0.06464542
202	0xbd79c5cb	-0.060979646
203	0xbe84e504	-0.25955975
204	0xbcce449d	-0.025179202
205	0xbe1236a5	-0.14278658
206	0xbe51616b	-0.20447318
207	0xbe3cb547	-0.18428527
208	0x3d93e2a0	0.0722096
209	0xbda52b7b	-0.08064934
210	0xbee3651c	-0.44413078
211	0xbe9b8b3d	-0.30379668
212	0xbe17db59	-0.14829768
213	0x3ce789da	0.028263975
214	0xbe2f0501	-0.17091753
215	0xbe95b076	-0.29236192
216	0xbe6cb4d4	-0.23115855
217	0xbe4d82c5	-0.20069416
218	0x3cb67412	0.022272144
219	0xbe7302b1	-0.23731495
220	0x3d666a9f	0.056254026
221	0xbdc09548	-0.09403473
222	0xbdc2cff0	-0.09512317
223	0x3ca126b0	0.019671768
224	0xbe112d2f	-0.14177392
225	0xbd303ba3	-0.043025624
226	0x3d300aea	0.04297916
227	0x3e2eda08	0.1707536
228	0x3e927226	0.28602713
229	0x3d90369a	0.070416644
230	0x3d2ddbd4	0.042445973
231	0x3f0507fa	0.51965296
232	0x3e6f24e0	0.2335391
233	0x3df8beeb	0.1214579
234	0xbdc15662	-0.09440304
235	0x3e207ef7	0.15673433
236	0x3ebb854d	0.36625138
237	0xbdb309c5	-0.08742098
238	0x3bb6a878	0.0055742823
239	0xbe58a59b	-0.21156923
240	0x3e1496c8	0.14510643
241	0x3e1f754e	0.15572092
242	0xbdcffde5	-0.101558484
243	0xbdbf4590	-0.0933944
244	0x3d06c344	0.032901064
245	0x3e28db7a	0.16489974
246	0xbc7fa2b9	-0.015602761
247	0xbdc4c2df	-0.09607481
248	0xbe9904ca	-0.29886466
249	0xbd29aca4	-0.04142441
250	0xbbae09c4	-0.0053112227
251	0x3e574c59	0.21025218
252	0x3e7b81eb	0.24561279
253	0x3e92dd83	0.28684625
254	0x3c5fccf6	0.013659706
255	0x3debb071	0.11508263

conv2.0.bias f4 [16]
0	0xbecd7683	-0.4012948
1	0xbec4ae38	-0.38414168
2	0xbefeca66	-0.49763793
3	0xbf21e63c	-0.63241935
4	0xbf7caf94	-0.9870541
5	0xbf5a296a	-0.8521944
6	0xbebb5c77	-0.36593983
7	0xbf005321	-0.50126845
8	0xbf437b9d	-0.76360494
9	0xbf4a7c1e	-0.7909564
10	0xbdefc187	-0.11706834
11	0xbf12f1cd	-0.5740021
12	0xbf0f802b	-0.56054944
13	0xbf16069c	-0.58603835
14	0xbf42bc2d	-0.76068383
15	0xbeab8ec1	-0.3350735

fc1.0.weight f4 [120, 400]
0	0x3c7caa2c	0.0154214315
1	0xbe5bdd02	-0.21471027
2	0xbd6d0335	-0.057864387
3	0xbe8750cc	-0.2642883
4	0xbd878d34	-0.06618729
5	0x3ba9dc9b	0.005183769
6	0xbddce43b	-0.10785719
7	0xbca11b99	-0.01966648
8	0xbe13c38a	-0.14430061
9	0x3e7d4c61	0.24736167
10	0xbda1197c	-0.07866189
11	0xbdb2c202	-0.0872841
12	0xbe18d911	-0.14926554
13	0x3d5a3a8e	0.0532785
14	0x3d277ae0	0.040888667
15	0x3d59d991	0.053186003
16	0xbe76048a	-0.24025169
17	0xbddc24aa	-0.107491806
18	0x3d3868cd	0.04502182
19	0x3e8a3008	0.2698977
20	0xbe7413e9	-0.2383572
21	0xbe83be43	-0.25731096
22	0x3dd6a27a	0.10480209
23	0x3e4acee8	0.19805491
24	0xbde82b35	-0.11336366
25	0xbe09409f	-0.13403557
26	0xbe46b28e	-0.1940405
27	0xbd6b2651	-0.05740959
28	0xbebf925b	-0.37416348
29	0xbdf0ddc8	-0.117610514
30	0xbe4a89df	-0.19779156
31	0xbcce4188	-0.025177732
32	0x3d93ecd8	0.07222909
33	0xbe6ff59c	-0.23433536
34	0xbe235f92	-0.15954426
35	0xbdde9b56	-0.10869472
36	0xbd86e5b7	-0.065867834
37	0x3d62ebc0	0.05540061
38	0x3c44918f	0.0119975945
39	0x3dd31f98	0.103087604
40	0xbe91f9a9	-0.28510788
41	0xbeb69ca4	-0.35666382
42	0x3d01c04a	0.03167752
43	0xbab65a66	-0.0013912439
44	0x3cfe94f5	0.031076888
45	0xbda0a25f	-0.0784347
46	0x3e3ecd38	0.18632972
47	0x3d33c74f	0.043891247
48	0x3de8107b	0.113312684
49	0x3e3945d4	0.18093044
50	0xbdd90b26	-0.105978295
51	0xbe2f3b69	-0.17112507
52	0xbe443222	-0.19159749
53	0xbe3f7589	-0.1869718
54	0xbde87f1e	-0.11352371
55	0x3c0acb62	0.008471342
56	0x3e447d39	0.19188394
57	0x3ddd436d	0.10803876
58	0x3ddf19ae	0.1089357
59	0x3e08c397	0.13355862
60	0xbd5efc4b	-0.054439824
61	0xbe13ca0c	-0.14432544
62	0xbe830093	-0.25586376
63	0x3dbafb76	0.091299936
64	0x3de25024	0.11050442
65	0xbdbdc0c6	-0.09265284
66	0xbe9dfa1d	-0.30854884
67	0xbd0ea02b	-0.034820717
68	0x3e0b5949	0.13608278
69	0x3e8ef291	0.27919438
70	0xbd67fc0e	-0.056636862
71	0xbe601882	-0.21884349
72	0x3dc352c1	0.095372684
73	0x3d252551	0.04031879
74	0x3eca58cf	0.3952088
75	0x3e118c6c	0.14213723
76	0xbdbe9add	-0.093068816
77	0xbd9a4d72	-0.07534303
78	0x3e39e1b8	0.18152511
79	0x3cb1a455	0.021684805
80	0xbe820e5a	-0.25401574
81	0xbdc198d0	-0.09452975
82	0xbb9065fb	-0.0044066883
83	0x3e011926	0.1260725
84	0xbd0809a5	-0.033212323
85	0x3e3a7c86	0.18211564
86	0xbd99e55d	-0.07514451
87	0xbe847620	-0.25871372
88	0xbe4706d9	-0.19436206
89	0xbddf562c	-0.10905108
90	0x3cd5615c	0.026047401
91	0x3eade51b	0.33963856
92	0x3cd9f70c	0.026607059
93	0x3c6d54f8	0.01448559
94	0xbc27f628	-0.010251559
95	0xbd85d73f	-0.065351956
96	0x3e530d75	0.20610602
97	0x3e09ce03	0.13457493
98	0x3e017058	0.12640512
99	0xbdf42fbc	-0.11923167
100	0x3cbe60ac	0.023239456
101	0xbda74079	-0.08166594
102	0x3da96c8d	0.082726575
103	0x3d1ef243	0.038805258
104	0xbd9ad088	-0.075593054
105	0x3dc18d10	0.09450734
106	0x3d8e3766	0.0694416
107	0x3e8fe307	0.28102896
108	0x3d211cd7	0.039334144
109	0xbd033bf9	-0.032039616
110	0xbea7b45b	-0.32754788
111	0x3e172a76	0.14762291
112	0xbe46db38	-0.19419563
113	0xbe390ba5	-0.18070848
114	0xbed7da18	-0.4215858
115	0x3d7ba86d	0.06143992
116	0xbdb4e650	-0.08832991
117	0xbdfa01f2	-0.12207402
118	0xbe68ff36	-0.22753605
119	0xbe8d7b65	-0.27633205
120	0x3de9a7b3	0.11408939
121	0x3e89a414	0.26882994
122	0x3da475e4	0.08030298
123	0x3d585d2a	0.052823223
124	0xbdf96a5e	-0.12178491
125	0x3d12674c	0.035743043
126	0xbde44c72	-0.11147393
127	0xbe58d4e3	-0.2117496
128	0xbe0e535e	-0.1389899
129	0x3ccfbc18	0.025358245
130	0xbdcd5a63	-0.100270055
131	0x3d39d6e5	0.045370955
132	0xbd3f93ad	-0.046771694
133	0xbdab3a41	-0.083607204
134	0xbdfb0dd1	-0.12258495
135	0x3e315540	0.17317677
136	0xbdf0c321	-0.11755968
137	0xbd248786	-0.040168308
138	0xbe14c2d8	-0.14527452
139	0xbdc5688c	-0.09639081
140	0xbe6306ce	-0.22170565
141	0xbe8b2aec	-0.27181184
142	0x3d36f639	0.04466841
143	0xbd5b13ff	-0.053485867
144	0xbea3bd5d	-0.3198041
145	0xbe2cb7a0	-0.16866922
146	0x3e0ec4d7	0.13942276
147	0x3e07bcdf	0.13255642
148	0xbcf85873	-0.030315613
149	0xbe8576e2	-0.26067263
150	0xbdad2942	-0.08455135
151	0xbe6d39f4	-0.23166639
152	0xbebfa209	-0.3742831
153	0xbe698c46	-0.22807416
154	0xbea60b93	-0.32430705
155	0xbd48114e	-0.048844628
156	0xbdb69119	-0.08914394
157	0xbe5e5741	-0.21712972
158	0xbdbcc86c	-0.09217915
159	0xbcedff8d	-0.02905252
160	0x3a242284	0.0006261247
161	0x3df99af0	0.12187755
162	0x3d971363	0.073767446
163	0xbd8121ce	-0.06305276
164	0x3bf144fa	0.007362959
165	0x3e19e944	0.1503039
166	0x3bae19f9	0.005313155
167	0x3dafd46d	0.08585439
168	0x3e1b6c5b	0.15178053
169	0xbd626dc9	-0.05528048
170	0xbe542171	-0.20715882
171	0x3e0193f5	0.12654097
172	0xbd924989	-0.07142932
173	0x3d6700af	0.056397136
174	0xbcb9d852	-0.022686157
175	0xbe69e028	-0.22839415
176	0xbdfe8c82	-0.124291435
177	0xbd983a13	-0.07432952
178	0x3ea180a2	0.31543452
179	0x3e012217	0.1261066
180	0x3e2df79c	0.16988987
181	0x3d82ec54	0.06392732
182	0x3e293100	0.16522598
183	0x3eccdf90	0.40014315
184	0x3e8e6ee8	0.2781899
185	0xbd912aaf	-0.070882194
186	0x3e7e31c9	0.24823679
187	0x3dfdb86b	0.123886906
188	0x3d4e34e8	0.050343424
189	0xbe1e0bff	-0.15434264
190	0xbe409c3e	-0.18809602
191	0x3defdb23	0.11711719
192	0xbeb3544b	-0.35025248
193	0xbdd7de02	-0.105403915
194	0x3dca6b98	0.09883803
195	0xbd33ce3f	-0.043897863
196	0xbc8c0042	-0.017089967
197	0xbc9813a0	-0.018564045
198	0x3e39f0b6	0.1815823
199	0x3c172f72	0.00922762
200	0xbe265420	-0.16243029
201	0xbe520a1a	-0.20511666
202	0xbe26f3d6	-0.16303954
203	0xbd309eea	-0.043120302
204	0x3e7e966e	0.24862072
205	0xbdf7bb9c	-0.120963305
206	0xbcacb55f	-0.021082578
207	0xbe189c9b	-0.1490349
208	0x3e220a1b	0.15824167
209	0x3da810e9	0.0820635
210	0x3de4b4e3	0.11167314
211	0x3e22f021	0.15911914
212	0x3d5bfa2e	0.053705387
213	0x3ebf47d4	0.37359488
214	0x3e4ac82d	0.19802924
215	0x3e2a16cb	0.16610257
216	0x3d89bc3a	0.067253545
217	0x3ca57459	0.02019708
218	0x3c874471	0.016512128
219	0xbd0461b5	-0.032319743
220	0xbe9c4bba	-0.30526525
221	0xbe67c4e1	-0.22633697
222	0xbddc638f	-0.10761177
223	0x3e1e9192	0.15485218
224	0x3e8a00d9	0.26953772
225	0x3d813574	0.063090235
226	0xbd5ab662	-0.05339659
227	0x3e4db441	0.20088293
228	0x3d18458e	0.037175708
229	0x3e0c6b61	0.13712837
230	0xbdf721fd	-0.120670296
231	0x3e28d6d3	0.16488199
232	0x3e8774b0	0.26456213
233	0x3e817f12	0.2529226
234	0xbdce478b	-0.100722395
235	0x3e80f1fb	0.25184616
236	0x3e9a8916	0.30182713
237	0x3da94db2	0.08266772
238	0x3d8f35bc	0.06992671
239	0xbde03afb	-0.1094875
240	0x3de57a4e	0.112049684
241	0x3ec00d2c	0.3751005
242	0x3e067198	0.1312927
243	0x3e30cb4f	0.17265056
244	0xbe03366d	-0.1281373
245	0xbd86a912	-0.06575216
246	0x3df64d69	0.120264836
247	0xbd364e78	-0.044508427
248	0xbdd1d958	-0.10246533
249	0x3e2f06ae	0.17092392
250	0x3e14d284	0.1453343
251	0x3d9c56be	0.07633732
252	0x3e2d9fff	0.16955565
253	0x3da20f8d	0.07913122
254	0xbd23bd9d	-0.03997575
255	0x3e827e7e	0.2548713

fc1.0.bias f4 [120]
0	0xbdc25cb9	-0.09490342
1	0x3cb3178e	0.021861818
2	0xbe468672	-0.19387224
3	0xbdb9c34e	-0.090704545
4	0xbe82336b	-0.25429854
5	0xbd027877	-0.031853165
6	0xbe3892b9	-0.1802472
7	0x3d1b5285	0.037920494
8	0x3c9223ec	0.017839395
9	0xbe75175f	-0.23934697
10	0x3c3f2805	0.011667256
11	0xbe868cb8	-0.26279235
12	0xbe13e09f	-0.14441155
13	0xbe011c55	-0.12608464
14	0xbeb1f779	-0.3475912
15	0x3d03f4bc	0.03221582
16	0xbe231291	-0.15925051
17	0x3ca2a2dc	0.019853048
18	0xbe20cc96	-0.15703043
19	0x3cf0bc24	0.029386587
20	0x3e823ad0	0.25435495
21	0xbe3147c3	-0.17312531
22	0x3d6efed3	0.058348488
23	0xba4d89d1	-0.00078406656
24	0xbdc5db52	-0.09660973
25	0x3d5f96e5	0.054587264
26	0xbe101e68	-0.14074099
27	0x3cc7b80c	0.024379753
28	0x3e6006f4	0.21877652
29	0x3c8e8b72	0.017400477
30	0x3df0ec45	0.11763815
31	0xbea4401a	-0.32080156
32	0xbe0be885	-0.13662918
33	0xbd3164c8	-0.043309003
34	0x3ee76ed8	0.45201755
35	0x3d73560d	0.059408236
36	0xbe809a21	-0.2511759
37	0x3c8b461e	0.017001208
38	0xbe608f4c	-0.21929663
39	0xbcd11d08	-0.025526538
40	0x3e8b7cf4	0.2724377
41	0x3e349a98	0.17637098
42	0x3e033c19	0.12815894
43	0xbdbb5022	-0.091461435
44	0xbe5e346d	-0.21699686
45	0x3ca7d0f4	0.020485379
46	0x3db744eb	0.08948692
47	0xbe8a6ff1	-0.2703853
48	0xbe88491d	-0.2661828
49	0x3e09d715	0.13460954
50	0xbd91366f	-0.070904605
51	0x3da8db62	0.08244969
52	0xbe78fc60	-0.24315023
53	0x3e9f8cf0	0.31162214
54	0xbdebc157	-0.11511486
55	0xbe958bf3	-0.29208335
56	0x3ebb35b7	0.3656442
57	0x3e845b84	0.2585107
58	0x3c5df137	0.01354628
59	0xbdc63f90	-0.09680092
60	0xbdaee623	-0.08539989
61	0xbd6b181f	-0.05739605
62	0x3e20812c	0.15674275
63	0xbda2d35c	-0.0795047
64	0xbca3c1be	-0.019989844
65	0x3e3637e2	0.17794755
66	0xbe9621d6	-0.2932269
67	0xbd8f350d	-0.069925405
68	0xbebf3df7	-0.37351963
69	0xbe4284fb	-0.1899604
70	0x3e69d826	0.2283636
71	0x3e2234ed	0.15840502
72	0xbd38b08d	-0.045090247
73	0xbe586a58	-0.21134317
74	0xbe10f298	-0.14155042
75	0x3ccdb361	0.025109949
76	0xbeb851db	-0.3599995
77	0x3ea035f4	0.31291163
78	0xbc463fc0	-0.01210016
79	0xbe540131	-0.2070358
80	0x3bd76731	0.0065735807
81	0xbeb139f6	-0.34614533
82	0xbe9d2db5	-0.30698934
83	0x3ecc3eab	0.39891562
84	0xbe2a3954	-0.16623431
85	0xbe83f669	-0.25773934
86	0x3ea5ee40	0.32408333
87	0xbe628ae4	-0.22123295
88	0x3e3f6195	0.18689568
89	0xbe1069f6	-0.14102921
90	0x3e04fc8d	0.12986965
91	0xbdd5445f	-0.104134314
92	0x3f063c95	0.5243619
93	0x3e517d8b	0.20458047
94	0xbe315437	-0.17317282
95	0x3db89905	0.09013561
96	0xbd8fd47a	-0.070229486
97	0x3d8cb353	0.06870141
98	0xbe9bdfb5	-0.30444112
99	0x3e9fb88f	0.31195495
100	0x3c50707b	0.01272213
101	0xbcf7b921	-0.030239644
102	0xbaedf8bd	-0.0018155795
103	0x3e1dff59	0.15429439
104	0xbeb6b8c2	-0.35687834
105	0x3e5f4e75	0.21807273
106	0xbe29166d	-0.16512461
107	0xbe007b12	-0.12546948
108	0x3c2397ee	0.009984953
109	0x3e2d7c46	0.16941938
110	0x3d5995d0	0.053121388
111	0x3d85fd53	0.065424584
112	0x3eabc49f	0.33548447
113	0x3e575d43	0.2103167
114	0xbd99d6d4	-0.07511678
115	0xbe5caec5	-0.21551044
116	0x3dc71dcd	0.09722481
117	0xbe1e9963	-0.154882
118	0x3e6634e7	0.22481118
119	0x3e4d257b	0.20033829

fc2.0.weight f4 [84, 120]
0	0x3db9efef	0.09078967
1	0x3cafc865	0.02145786
2	0xbe3691c2	-0.1782904
3	0xbda7edd7	-0.08199661
4	0xbecd96d8	-0.40154147
5	0x3ddf870a	0.109144285
6	0x3dc58358	0.096441925
7	0x3e537a0d	0.20652027
8	0x3d97e335	0.07416383
9	0xbc93769b	-0.018000891
10	0x3e4f22c9	0.20228113
11	0x3e457d1f	0.19286011
12	0xbd87e697	-0.066357784
13	0xbdbc0baf	-0.09181916
14	0xbbffe8f9	-0.007809755
15	0x3e91bbad	0.28463498
16	0x3dde41e3	0.10852411
17	0x3eecf079	0.46277216
18	0xbe1ff61b	-0.15621226
19	0x3e20a335	0.15687259
20	0x3c9ec305	0.019380102
21	0xbd7e8024	-0.062133923
22	0x3cffe06b	0.03123494
23	0xbd9127e2	-0.07087685
24	0x3e4e37ae	0.20138428
25	0x3d2abef1	0.041686002
26	0xbe0c285f	-0.13687275
27	0x3ec3700c	0.38171422
28	0x3dd5b14d	0.10434208
29	0xbebb8a1e	-0.36628813
30	0xbeaa7377	-0.33291218
31	0xbdff6486	-0.12470345
32	0x3d12ac2c	0.035808727
33	0xbe6c35bc	-0.23067373
34	0x3cca10a1	0.024666132
35	0x3d47011f	0.048585054
36	0xbd1c9aab	-0.03823344
37	0x3cff8bb7	0.03119455
38	0xbea83dab	-0.3285955
39	0xbe09fc96	-0.1347526
40	0xbdbb4e37	-0.09145778
41	0xbde3d611	-0.11124814
42	0x3e742e56	0.23845801
43	0xbe3f4090	-0.18676972
44	0x3e2fbd9d	0.17162175
45	0x3d887b59	0.06664152
46	0x3e431fd5	0.19055112
47	0x3c6af514	0.014340658
48	0x3e1391eb	0.14411132
49	0x3e023800	0.12716675
50	0x3dec6d48	0.11544281
51	0xbe74c2c9	-0.2390243
52	0x3e04fa48	0.129861
53	0xbded840f	-0.11597454
54	0x3e48b8db	0.19601767
55	0xbd77325b	-0.060350757
56	0x3dbc4d60	0.091944456
57	0x3d8df821	0.069320925
58	0x3da4881f	0.080337755
59	0xbdb48548	-0.08814484
60	0xbc9da60c	-0.019244216
61	0x3d9aa711	0.07551397
62	0xbd232ab2	-0.03983564
63	0xbd18d9ef	-0.037317213
64	0xbb6cfe2f	-0.0036162247
65	0x3a78097b	0.0009461862
66	0xbdac8004	-0.084228545
67	0xbdb57a6c	-0.08861241
68	0xbe07c712	-0.13259533
69	0xbd59ed73	-0.053204965
70	0x3e12e87a	0.14346495
71	0x3d0383a3	0.03210796
72	0xbe9bbd7f	-0.30418012
73	0x3d63ba45	0.055597562
74	0xbdfcbd25	-0.12340764
75	0x3e0a8228	0.13526213
76	0x3d969d7a	0.07354255
77	0xbce290a1	-0.027656855
78	0x3dca07f7	0.098648004
79	0xbd317efd	-0.043333996
80	0x3e6de466	0.23231658
81	0xbde37937	-0.11107104
82	0x3cd62e1c	0.026145034
83	0xbe2daa73	-0.16959552
84	0xbb99678d	-0.0046815337
85	0x3bb4c93b	0.0055171526
86	0x3c527e04	0.012847427
87	0xbdf82ebf	-0.12118291
88	0xbbf93daf	-0.00760623
89	0xbd9e9a55	-0.0774428
90	0x3df867f3	0.12129202
91	0xbe74dd9f	-0.23912667
92	0x3dbe4936	0.09291308
93	0xbda5d5db	-0.0809743
94	0xbebb1e32	-0.36546475
95	0xbe7ff65a	-0.2499632
96	0x3e6d86fc	0.23196024
97	0xbe5cc246	-0.21558484
98	0x3e947019	0.28991774
99	0xbd9d14be	-0.07669972
100	0xbdc5a506	-0.09650616
101	0xbead21c9	-0.3381484
102	0x3daf177b	0.085494004
103	0xbe7d328e	-0.24726316
104	0x3c8efd40	0.017454743
105	0xbe5f59b4	-0.21811563
106	0xbd398a19	-0.045297716
107	0x3cace2da	0.021104265
108	0x3c917a7f	0.017758606
109	0x3c8f480d	0.017490411
110	0xbd4d7394	-0.050159052
111	0xbd8bf7ba	-0.068343595
112	0x3e7a6050	0.24450803
113	0xbe02e68c	-0.12783259
114	0xbe5f4396	-0.21803126
115	0xbe1b6035	-0.15173419
116	0xbd746a48	-0.05967167
117	0x3c737bda	0.0148610715
118	0x3eb77b39	0.358362
119	0x3e25bf59	0.16186275
120	0x3de821da	0.11334582
121	0x3df6f463	0.12058332
122	0x3e8f307d	0.2796668
123	0x3c36d376	0.011158815
124	0xbdc1a2ec	-0.09454903
125	0x3c8a4063	0.016876405
126	0x3ea31f3d	0.3185977
127	0xbba45f8f	-0.0050162743
128	0xbe448af3	-0.1919363
129	0x3deb05fb	0.1147575
130	0x3e4694ea	0.19392744
131	0x3d91f528	0.07126838
132	0x3e322e14	0.1740039
133	0x3e323e4e	0.1740658
134	0x3e978795	0.29595628
135	0x3d21bc19	0.039486025
136	0x3da4287d	0.08015535
137	0x3e34f2f0	0.17670798
138	0x3a6fe539	0.00091512833
139	0xbd0acae0	-0.033884883
140	0xbe533759	-0.20626582
141	0x3d963638	0.0733456
142	0xb9f084d3	-0.0004587533
143	0x3b10e7c0	0.002211079
144	0xbe0ec643	-0.13942818
145	0xbd270386	-0.040774845
146	0x3dc98cf7	0.0984134
147	0x3eb344dd	0.35013476
148	0x3c29f58d	0.010373485
149	0xbdacda5d	-0.08440087
150	0xbdebd54c	-0.115152925
151	0x3d2a1ea6	0.041533135
152	0x3e0df8d2	0.13864449
153	0xbe63efa5	-0.22259386
154	0xbdef9673	-0.11698618
155	0x3d830764	0.06397894
156	0x3db2f145	0.08737425
157	0x3e8e09e2	0.27741915
158	0x3d685de4	0.056730166
159	0xbe0a5ed9	-0.13512744
160	0xbdb9828b	-0.09058102
161	0xbdd3b362	-0.10336949
162	0x3d0fd9ef	0.035119947
163	0x3d1def83	0.038558494
164	0xbc8ae504	-0.016954906
165	0x3e675e5e	0.22594592
166	0xbd902166	-0.0703762
167	0xbde73a77	-0.11290448
168	0x3ebab9ad	0.36469784
169	0xbe274c0f	-0.16337608
170	0x3e3769d6	0.17911467
171	0xbe1bcc64	-0.15214688
172	0xbdcaa40b	-0.0989457
173	0xbe308162	-0.17236856
174	0xbd499ee2	-0.049223788
175	0x3de887d7	0.113540344
176	0xbcec7fe4	-0.028869577
177	0x3dd61019	0.10452289
178	0xbd91002a	-0.070801094
179	0x3e3b7b96	0.18308863
180	0x3dc560df	0.09637617
181	0xbe0244ff	-0.12721632
182	0xbdc8a1aa	-0.0979646
183	0x3e56f327	0.20991193
184	0x3e5a2b68	0.2130562
185	0xbe3b7904	-0.18307883
186	0xbb9cd672	-0.004786306
187	0xbc81312c	-0.015770517
188	0x3e4ae27e	0.19812962
189	0xbd65c0ef	-0.0560922
190	0xbd14d087	-0.03633168
191	0x3e9100be	0.2832088
192	0x3d394095	0.045227606
193	0x3c4bea2f	0.01244597
194	0x3ddd7aa2	0.10814406
195	0x3e88c24d	0.2671074
196	0x3e43193e	0.19052598
197	0xbe2d499f	-0.16922615
198	0xbc91c64f	-0.017794756
199	0xbd77fd04	-0.06054403
200	0xbc4682b6	-0.012116125
201	0x3edd1bfe	0.4318542
202	0x3e2fb27b	0.17157929
203	0xbeb5fb7c	-0.3554343
204	0x3ec2626d	0.37965718
205	0x3d711535	0.058858115
206	0xbe9d6c08	-0.30746484
207	0x3da6db7e	0.081473336
208	0xbd6768e6	-0.056496523
209	0x3d8b3282	0.06796743
210	0xbdc6d231	-0.097080596
211	0x3dab75e8	0.08372098
212	0xbe6b6215	-0.22986634
213	0xbeadd3a7	-0.3395054
214	0xbdc39a98	-0.09550971
215	0xbdf9f6c9	-0.12205274
216	0xbdc3ce14	-0.09560791
217	0xbdeb7d56	-0.11498515
218	0x3d957b8c	0.07298955
219	0xbe447b19	-0.19187583
220	0xbe53a5f4	-0.20668775
221	0xbde5d233	-0.11221733
222	0x3d1ffb07	0.039057758
223	0xbd21ea3b	-0.03953002
224	0x3e9777cb	0.29583582
225	0xbe94ba07	-0.29048178
226	0x3d1e254d	0.03860979
227	0x3d096a6b	0.033548754
228	0xbd15766e	-0.036489896
229	0xbe789a5f	-0.24277638
230	0x3db643f0	0.08899677
231	0xbdc024fb	-0.093820535
232	0x3d064274	0.03277822
233	0xbe0dc5ef	-0.13845037
234	0x3cd16a05	0.02556325
235	0x3e01f1d7	0.12689911
236	0xbe0a3074	-0.13495046
237	0x3e7bf545	0.24605282
238	0xbc18b31b	-0.009320046
239	0x3d0bf92e	0.034173183
240	0x3e9838a0	0.297307
241	0x3e2ca94d	0.16861458
242	0x3e387a30	0.18015361
243	0x3e59f57a	0.21285048
244	0xbcd9580f	-0.026531247
245	0xbe4ee008	-0.20202649
246	0x3df6977a	0.120406106
247	0x3d94a74a	0.0725847
248	0xbbe903c3	-0.007111044
249	0x3d9f6d10	0.07784474
250	0x3ced1390	0.028939992
251	0xbe385dc6	-0.18004522
252	0x3e6b4e39	0.22979058
253	0x3d2c0472	0.041996427
254	0xbddbda3d	-0.10734985
255	0xbe4fbbd3	-0.20286493

fc2.0.bias f4 [84]
0	0xbe1a6fa7	-0.15081654
1	0xbee446c1	-0.4458523
2	0xbe5ef321	-0.21772434
3	0x3d9fc92d	0.07802043
4	0xbde5a0e1	-0.11212326
5	0xbe123c78	-0.1428088
6	0x3dd816ff	0.10551261
7	0x3b2b8b1a	0.002617544
8	0xbd3f5e88	-0.04672101
9	0xbe48a360	-0.19593573
10	0x3ec9ed4d	0.3943886
11	0x3c869520	0.01642853
12	0x3ddb11f2	0.10696782
13	0x3efd0cde	0.4942388
14	0x3c2c8be2	0.010531398
15	0x3d3dedf5	0.04636951
16	0xbdd672c5	-0.10471109
17	0xbe236cb9	-0.15959443
18	0xbe760137	-0.24023901
19	0x3d936cec	0.071985096
20	0x3a7c847b	0.0009632778
21	0x3e51dd7f	0.2049465
22	0x3e0614d5	0.13093884
23	0x3e7816eb	0.24227493
24	0x3bba574e	0.005686677
25	0x3ed6ef20	0.41979313
26	0x3d86c1ee	0.06579958
27	0x3de0fd47	0.10985809
28	0x3da6e310	0.081487775
29	0x3d504ff7	0.05085751
30	0x3ea94a36	0.3306443
31	0x3e006eae	0.12542221
32	0x3d2e4f35	0.042556006
33	0x3e45e6b1	0.19326283
34	0xbe6b327b	-0.22968476
35	0xbd9dab40	-0.07698679
36	0xbe18f42a	-0.14936891
37	0xbe8f3435	-0.27969518
38	0xbeab88f1	-0.33502916
39	0x3c88533f	0.016641257
40	0xbdec4ccd	-0.11538086
41	0x3eb582ae	0.35451263
42	0xbe8fcd3c	-0.2808627
43	0x3e2f03e8	0.17091334
44	0xbddabb2c	-0.106802315
45	0x3e9992ba	0.29994756
46	0x3d427349	0.047473226
47	0x3e7d3b92	0.24729756
48	0xbe39ac58	-0.1813215
49	0xbddad35a	-0.10684843
50	0xbd8dd1ca	-0.0692478
51	0x3e6eab7c	0.23307604
52	0x3dff8259	0.12476034
53	0x3daf0615	0.08546082
54	0x3cbe36e0	0.023219526
55	0xbc59712a	-0.013271609
56	0xbe32c6b7	-0.17458616
57	0x3e5832a4	0.21113068
58	0xbe3133c6	-0.17304906
59	0xbe24cf34	-0.16094667
60	0x3e8d6225	0.2761394
61	0xbe35eec1	-0.17766859
62	0x3e82603e	0.25464052
63	0xbbd3cd30	-0.0064636692
64	0x3e322286	0.17395982
65	0x3d803e34	0.06261864
66	0x3e8f2c10	0.27963305
67	0xbc422fd6	-0.011852225
68	0x3bf75e24	0.0075490642
69	0x3ded6af7	0.115926675
70	0xbdafd7a7	-0.08586054
71	0x3ae799fe	0.0017669795
72	0xbe96734e	-0.29384845
73	0x3cabb707	0.020961298
74	0xbe8e04d5	-0.27738062
75	0xbe1cc390	-0.15308976
76	0x3f0ff1dc	0.56228423
77	0x3d90f45c	0.07077858
78	0x3e43a451	0.1910565
79	0x3d5a7a82	0.05333949
80	0xbed61dad	-0.41819516
81	0xbe8ffa4b	-0.28120646
82	0x3e16c56f	0.14723752
83	0xbe058045	-0.13037212

fc3.0.weight f4 [10, 84]
0	0xbde8e869	-0.11372454
1	0x3d74bee1	0.05975235
2	0xbd5f323c	-0.054491267
3	0xbe00e8b9	-0.12588777
4	0x3d94e075	0.07269374
5	0x3e821b6c	0.25411546
6	0x3c6b1e3c	0.01435047
7	0xbdbab3df	-0.09116339
8	0xbd647869	-0.055778895
9	0x3c64dbb6	0.013968399
10	0x3e510a07	0.20413981
11	0xbe4f748e	-0.20259306
12	0xbd5976c2	-0.053091772
13	0xbe72aa9f	-0.236979
14	0x3dbe1b6a	0.092825726
15	0x3de2534b	0.11051043
16	0xbe5baa3f	-0.21451662
17	0x3e4eb3e5	0.20185812
18	0x3e08a891	0.13345553
19	0xbe91f90d	-0.28510323
20	0xbeabf720	-0.3358698
21	0x3e5fb0a0	0.21844721
22	0x3e3a672c	0.1820342
23	0x3d826550	0.0636698
24	0x3e2501cb	0.16113965
25	0xbe6a2077	-0.22863947
26	0xbe4560a9	-0.19275154
27	0x3e192026	0.1495367
28	0x3e0eab3e	0.13932511
29	0x3e29e12c	0.16589803
30	0x3df1494f	0.11781561
31	0xbc0da05b	-0.008644189
32	0xbe2c90c4	-0.16852099
33	0xbe929f34	-0.28637087
34	0x3e887b1a	0.2665642
35	0x3eda0a32	0.42585903
36	0xbe1ec4e0	-0.1550479
37	0xbde43b39	-0.11144108
38	0x3e99e6d2	0.30058914
39	0x3e25bba3	0.16184859
40	0xbe8f09f3	-0.27937278
41	0xbe1fe436	-0.156144
42	0xbda5e07b	-0.08099457
43	0xbe477d35	-0.19481356
44	0xbda1a3f9	-0.078926034
45	0xbe99d071	-0.3004184
46	0xbe0082f3	-0.12549953
47	0x3e515e4e	0.2044613
48	0xbd717f21	-0.05895913
49	0x3defaf32	0.11703338
50	0xbe06228d	-0.13099118
51	0x3e5f3d95	0.21800835
52	0x3e3dc010	0.18530297
53	0x3e519d77	0.20470224
54	0x3e61ba12	0.22043636
55	0x3d5f7be5	0.054561514
56	0x3e8e4154	0.27784216
57	0x3ca537cc	0.020168208
58	0xbdde5311	-0.108556874
59	0x3d2494a0	0.040180802
60	0xbe81e096	-0.25366658
61	0x3cce7732	0.025203321
62	0x3d9b6108	0.075868666
63	0xbd0f9c6c	-0.035061285
64	0xbda1d766	-0.07902412
65	0x3e18ef7e	0.14935109
66	0x3e3bfe55	0.18358739
67	0x3db7a5f7	0.08967202
68	0x3e351343	0.17683129
69	0xbe362f08	-0.17791378
70	0x3e94c7a3	0.2905856
71	0x3e427259	0.18988933
72	0xbc6065f9	-0.013696187
73	0x3e02c097	0.1276878
74	0x3de49842	0.111618534
75	0x3cdc078e	0.026859071
76	0x3d1068bb	0.03525613
77	0x3d19cce2	0.037548907
78	0x3de17abd	0.110097386
79	0x3e83d913	0.25751552
80	0xbe3740c1	-0.17895795
81	0x3e1d19c8	0.15341866
82	0xbe0a9571	-0.1353357
83	0x3e13c327	0.14429913
84	0xbd5f36b0	-0.054495513
85	0xbe3de108	-0.18542874
86	0xbdefb257	-0.117039375
87	0x3e5804d8	0.21095598
88	0xbe4afe58	-0.19823587
89	0xbe0f858c	-0.14015788
90	0xbcbf4e32	-0.023352716
91	0xbdac315e	-0.084078535
92	0x3e86ed60	0.26352978
93	0xbe981d61	-0.29709914
94	0x3ea568b2	0.3230644
95	0x3dd9b6d4	0.10630575
96	0xbe59822b	-0.21241061
97	0x3e24c8c4	0.16092211
98	0xbe74cb72	-0.23905733
99	0xbd3bddc9	-0.045865808
100	0xbe368284	-0.17823225
101	0xbccaec52	-0.02477089
102	0xbdf3eb14	-0.11910072
103	0xbe26f4fc	-0.16304392
104	0xbe287d08	-0.16453946
105	0xbe07f0bd	-0.13275428
106	0x3e60c528	0.21950209
107	0xbc889584	-0.016672857
108	0x3da813d7	0.08206909
109	0xbe4fd183	-0.20294766
110	0x3e2dd534	0.16975862
111	0x3de5126d	0.11185155
112	0xbe66b4b3	-0.22529869
113	0xbdb24340	-0.08704233
114	0x3e8f88d3	0.28034076
115	0x3ded3190	0.11581719
116	0xbe825d8e	-0.25462002
117	0x3dc0f681	0.09422017
118	0x3cf149b2	0.029454086
119	0x3e999052	0.2999292
120	0x3dea6f79	0.11447043
121	0x3d46e51e	0.048558347
122	0x3ded12aa	0.115758255
123	0xbe818992	-0.2530027
124	0x3dfa983f	0.1223607
125	0x3e5d9712	0.2163966
126	0x3e5916ad	0.21200056
127	0x3e967876	0.2938878
128	0xbe114f43	-0.14190392
129	0x3dc4d00b	0.096099935
130	0xbe783924	-0.24240547
131	0x3e27cdf3	0.16387157
132	0xbe1f120a	-0.15534225
133	0x3de371f7	0.111057214
134	0xbe49ce3c	-0.19707578
135	0x3e0b66c2	0.13613418
136	0xbe7a8076	-0.24463066
137	0xbc8316f9	-0.016002165
138	0xbdd34a17	-0.10316866
139	0xbdba7515	-0.09104363
140	0x3d66357e	0.056203358
141	0x3d327e73	0.043577623
142	0xbce10632	-0.027468774
143	0x3d4d4678	0.050116032
144	0xbdabad2d	-0.0838264
145	0xbdaf84aa	-0.085702255
146	0xbe5344aa	-0.20631662
147	0x3d920e14	0.071315914
148	0xbd45a031	-0.048248474
149	0xbddcd260	-0.10782313
150	0x3de9ab9a	0.114096835
151	0xbdc71430	-0.09720647
152	0xbde0f33e	-0.10983895
153	0xbdbb64d1	-0.091500886
154	0xbe6790a1	-0.22613765
155	0xbe8d506b	-0.27600417
156	0xbe3d1a17	-0.18466984
157	0x3e4f06bf	0.20217417
158	0xbe49f216	-0.19721255
159	0xbe9b4dad	-0.303327
160	0x3dd99d87	0.10625749
161	0x3e678cee	0.22612354
162	0x3e11b3cf	0.14228748
163	0xbdd56a0d	-0.10420618
164	0x3d12d4e6	0.035847567
165	0xbe3b01a6	-0.18262348
166	0x3e8ca9ed	0.27473393
167	0x3e21f716	0.15816912
168	0x3e7f214b	0.24915044
169	0xbe596b4b	-0.21232335
170	0xbe8c2478	-0.27371573
171	0xbdd39f6a	-0.1033314
172	0xbd486aad	-0.04892986
173	0xbcfc1885	-0.03077341
174	0x3e6f4379	0.23365583
175	0xbe13b6fa	-0.14425269
176	0x3e023819	0.12716712
177	0xbe4bd260	-0.1990447
178	0xbe353a18	-0.17697942
179	0xbe96ed20	-0.29477787
180	0xbe2ff8b3	-0.17184715
181	0xbcad194b	-0.021130225
182	0x3e250d6b	0.161184
183	0x3da7d28a	0.08194454
184	0xbd8aef17	-0.06783884
185	0x3e7de843	0.24795632
186	0xbbb6c838	-0.005578067
187	0x3de0107c	0.10940644
188	0x3e694b62	0.22782663
189	0x3e7e788d	0.24850674
190	0xbb22defa	-0.0024852143
191	0xbe24d95d	-0.16098543
192	0xbe1e23ac	-0.15443295
193	0x3c98a616	0.018633883
194	0xbe3d0684	-0.18459517
195	0xbe2462a1	-0.16053249
196	0x3c139b77	0.009009234
197	0x3e892ade	0.26790518
198	0xbda17d1d	-0.078851916
199	0xbdffc56c	-0.12488827
200	0xbd84ae6f	-0.06478583
201	0xbd07b868	-0.033134848
202	0xbe4224a4	-0.1895929
203	0xbe0f5523	-0.13997321
204	0xbda22b74	-0.07918444
205	0xbe7c0f71	-0.24615265
206	0xbdf92208	-0.12164694
207	0xbda12141	-0.07867671
208	0xbdd0a782	-0.101881996
209	0xbe83acb3	-0.25717697
210	0xbe08c35d	-0.13355775
211	0x3da00d5c	0.07815048
212	0xbd16206a	-0.036652006
213	0x3e2337d0	0.1593926
214	0xbd801004	-0.06253055
215	0xbc070749	-0.008241483
216	0xbe8ac4bd	-0.27103224
217	0xbe05c00b	-0.1306154
218	0xbe0b734f	-0.13618205
219	0x3e6277c4	0.22116
220	0x3cf41947	0.02979721
221	0x3d8f862e	0.070080146
222	0xbdddd320	-0.108312845
223	0x3e37fa18	0.17966497
224	0x3e113a6d	0.14182444
225	0x3dcea60f	0.10090267
226	0x3c44e137	0.012016586
227	0x3e0b0d41	0.13579275
228	0x3e784d62	0.24248269
229	0x3d438d81	0.04774237
230	0xbe8b4ccc	-0.2720703
231	0x3dd7e029	0.10540802
232	0xbe618f3f	-0.220273
233	0xbe06034c	-0.13087195
234	0xbe76be84	-0.24096113
235	0x3e0f5b76	0.13999733
236	0x3da282d5	0.079351105
237	0x3e6fb68f	0.23409484
238	0x3d1c1023	0.038101327
239	0xbd60909b	-0.054825407
240	0xbe39db6d	-0.1815011
241	0xbdceca60	-0.10097194
242	0xbe5638d5	-0.20920117
243	0xbe4d6781	-0.20059015
244	0x3e6303a9	0.22169365
245	0x3e0d32e4	0.13788944
246	0xbdcc8282	-0.0998583
247	0xbe03e8e2	-0.12881806
248	0xbe6833a8	-0.22675955
249	0xbbb94666	-0.005654144
250	0xbdb0e41d	-0.08637259
251	0x3e445e68	0.19176638
252	0x3e2d9f69	0.16955341
253	0x3e28a414	0.16468841
254	0x3de92c26	0.11385374
255	0xbd231c75	-0.03982206

fc3.0.bias f4 [10]
0	0xbeef0a72	-0.46687657
1	0x3c75e6de	0.015008656
2	0x3e2b0384	0.1670056
3	0xbee00bfd	-0.43759146
4	0xbd881aa7	-0.066457085
5	0x3ddf03d0	0.10889399
6	0xbee0c088	-0.4389689
7	0x3df435d4	0.119243294
8	0x3eabaf03	0.3353196
9	0x3c448075	0.011993517
