save_checkpoints/LeNet5_epoch_84.pth (torch, 249863 bytes, 10 tensors)

conv1.0.weight f4 [6, 1, 5, 5]
0	0xbd17480b	-0.03693394
1	0xbca5308c	-0.02016475
2	0xbd35ff83	-0.044433128
3	0xbba17ea2	-0.004928426
4	0xbd0fe142	-0.035126932
5	0x3d386a47	0.04502323
6	0xbde6b96c	-0.11265835
7	0xbb976b96	-0.0046209795
8	0x3dae5465	0.08512191
9	0xbe1e677b	-0.15469162
10	0x3e18b658	0.14913309
11	0xbd70837d	-0.058719147
12	0xbd888720	-0.06666398
13	0xbdef5a43	-0.11687138
14	0x3e936041	0.28784373
15	0x3eaae42a	0.333772
16	0x3e8bc339	0.2729738
17	0x3efd0c74	0.49423563
18	0x3e16f5bf	0.14742182
19	0xbc30b75f	-0.010785907
20	0xbe9c863b	-0.3057116
21	0xbdd3e5e0	-0.103465796
22	0xbea1fdbc	-0.31638896
23	0xbdbb28d3	-0.09138646
24	0xbd7705fa	-0.060308434
25	0xbdac2b1f	-0.08406662
26	0xbd37e295	-0.04489382
27	0xbd4df878	-0.050285786
28	0xbdb3518e	-0.0875579
29	0x3e3ed29d	0.1863503
30	0xbcbb84a0	-0.022890389
31	0xbd6bab66	-0.057536505
32	0x3e11d863	0.14242701
33	0x3ed14e06	0.4087984
34	0x3df2391b	0.11827298
35	0x3c8d2bbf	0.017232774
36	0x3e1f48a1	0.1555505
37	0x3dcba0e1	0.099427946
38	0x3d46cf23	0.048537385
39	0x3cd899d4	0.026440538
40	0xbed4204d	-0.41430894
41	0x3d8f0b44	0.069845706
42	0x3e74f48b	0.2392141
43	0xbce26887	-0.027637733
44	0xbe96b3bf	-0.2943401
45	0xbea617c1	-0.32439998
46	0x3dfa36bd	0.12217472
47	0xbe1e276e	-0.15444729
48	0x3d8a8177	0.06762975
49	0xbe0cfa62	-0.13767388
50	0xbcede4bd	-0.029039735
51	0x3d1f8c36	0.038952075
52	0x3e3b5d7e	0.18297383
53	0x3d8e6166	0.06952171
54	0x3a83896f	0.0010035465
55	0x3dad9ba3	0.08476951
56	0xbc9763bf	-0.01848018
57	0x3c2b66d0	0.010461524
58	0x3d57427f	0.05255365
59	0x3dd0ee9b	0.102017604
60	0x3e57522a	0.21027437
61	0x3e8c5590	0.2740903
62	0xbd27e63f	-0.040991064
63	0x3d984bf0	0.07436359
64	0xbd668be2	-0.056285746
65	0xbe0d0662	-0.13771966
66	0xbed42d3d	-0.41440764
67	0xbe38437a	-0.1799449
68	0xbe813543	-0.25235948
69	0x3e78196d	0.24228449
70	0xbefacf4a	-0.48986274
71	0xbdfe4ed8	-0.12417382
72	0xbdc43d84	-0.09582046
73	0xbe0d7969	-0.13815846
74	0xbea026da	-0.3127964
75	0xbd381599	-0.044942472
76	0x3d6dfd52	0.058102913
77	0xbe16a75b	-0.14712279
78	0x3c85d934	0.016338922
79	0xbeab403d	-0.33447447
80	0xbd39adba	-0.045331694
81	0xbdc35e17	-0.095394306
82	0xbd8a1eba	-0.06744142
83	0xbd813eb0	-0.06310785
84	0xbe7a644e	-0.24452326
85	0xbd782bdb	-0.0605887
86	0xbdc820c4	-0.097718745
87	0xbe404487	-0.18776141
88	0x3dd81d89	0.105525084
89	0xbe58fa46	-0.21189222
90	0x3e112dbe	0.14177606
91	0x3df272fe	0.11838339
92	0x3e815d6e	0.25266594
93	0xbd9911fa	-0.07474132
94	0x3eb51f1a	0.3537529
95	0x3d8a619b	0.06756898
96	0x3e5e74bf	0.21724223
97	0x3e6965b1	0.22792698
98	0x3cf818f3	0.030285334
99	0xbc8ec252	-0.017426644
100	0xbcd283d2	-0.025697622
101	0x3d7352b4	0.059405044
102	0x3d39911b	0.0453044
103	0x3e2f1cc1	0.17100812
104	0xbe9671da	-0.29383737
105	0xbd2d97c4	-0.042381063
106	0x3e125f49	0.14294161
107	0x3e6f849e	0.23390433
108	0x3d7e0cd0	0.062023938
109	0x3dacbdd2	0.08434643
110	0xbe805a60	-0.2506895
111	0x3eb7296e	0.35773796
112	0x3e07d433	0.13264541
113	0xbe098384	-0.13429075
114	0x3d90e107	0.070741706
115	0x3cd9bd7b	0.02657961
116	0x3e912986	0.28351992
117	0xbd8340d2	-0.06408848
118	0xbdecf67b	-0.1157045
119	0xbd76be15	-0.06023987
120	0x3d225876	0.039635144
121	0xbca34c12	-0.019933734
122	0x3d543ff4	0.051818803
123	0xbdf40ec5	-0.119168796
124	0xbea97f8e	-0.3310513
125	0x3dddf742	0.10838176
126	0x3e1441ca	0.14478222
127	0xbd166d4f	-0.03672534
128	0x3df936e8	0.12168676
129	0xbbfcae45	-0.0077112042
130	0xbd22ce8c	-0.03974776
131	0xbcf60457	-0.030031366
132	0x3e3b35b7	0.1828221
133	0x3d37f61e	0.04491245
134	0xbc4e7994	-0.012602229
135	0x3d4b8cfe	0.049695008
136	0x3dde926c	0.108677715
137	0x3a93a8f3	0.0011265561
138	0xbd886a56	-0.06660907
139	0xbe415ac4	-0.1888228
140	0x3c78b670	0.015180215
141	0xbdd01daf	-0.10161912
142	0xbd2eb612	-0.042654105
143	0xbed81db7	-0.4221017
144	0xbe4bd37a	-0.1990489
145	0xbda9819a	-0.08276673
146	0xbd92f0bd	-0.071748234
147	0xbec6ab18	-0.3880241
148	0xbde240fb	-0.1104755
149	0x3e776901	0.2416115

conv1.0.bias f4 [6]
0	0xbb5c3cc4	-0.0033605555
1	0xbdbce89d	-0.09224055
2	0xbc603a45	-0.013685768
3	0xbc9a863c	-0.018862836
4	0xbeaf76d7	-0.34270355
5	0xbe590f40	-0.21197224

conv2.0.weight f4 [16, 6, 5, 5]
0	0x3db75fde	0.08953832
1	0x3b7aa3ed	0.003824468
2	0x3c9cc454	0.019136585
3	0xbdb375bf	-0.08762693
4	0xbdfc781d	-0.12327597
5	0xbc42a260	-0.0118795335
6	0x3d964a18	0.07338351
7	0x3d90479e	0.0704491
8	0xbd619cee	-0.0550813
9	0xbe0f6ece	-0.14007112
10	0xbdece2eb	-0.11566719
11	0xbdb663f7	-0.089057855
12	0xbd7ea126	-0.062165402
13	0xbd65aef1	-0.05607504
14	0xbdb5774c	-0.08860645
15	0xbcf0de74	-0.029402949
16	0xbde62c0f	-0.11238872
17	0xbd063b35	-0.032771308
18	0x3bed8bd5	0.0072493353
19	0xbde9c502	-0.114145294
20	0x3d49923a	0.04921172
21	0xbd62826d	-0.055300165
22	0xbd0d9a6d	-0.0345711
23	0xbd5beb1a	-0.053691007
24	0xbdb20d78	-0.08693975
25	0xbd8740dc	-0.06604168
26	0xbe25a0e1	-0.16174652
27	0xbe5d6017	-0.21618687
28	0xbded7737	-0.11595004
29	0xbda6cc3b	-0.081444226
30	0x3d2425fc	0.040075287
31	0x3d3ba378	0.045810193
32	0xbcd5e49e	-0.02610999
33	0xbd69e4d5	-0.057102997
34	0xbced1ad2	-0.028943453
35	0x3d40da1d	0.04708301
36	0x3e15f5bd	0.14644523
37	0x3db48597	0.08814543
38	0x3cd077fe	0.025447842
39	0xbda57b71	-0.08080185
40	0xbdc5e2c7	-0.09662395
41	0xbb825cb9	-0.0039783386
42	0xbcb23187	-0.021752132
43	0x3add6d82	0.0016893598
44	0x3c84744e	0.01616874
45	0xbd6bcf8c	-0.05757098
46	0xbbc99681	-0.0061519747
47	0x3c9703dc	0.018434457
48	0xbd002141	-0.031281713
49	0x3a957fb5	0.0011405858
50	0x3b5eaaee	0.0033976394
51	0xbdb086d2	-0.08619465
52	0xbe102c8e	-0.14079496
53	0xbd4320c7	-0.04763868
54	0x3da92749	0.08259446
55	0x3da26144	0.07928708
56	0xbc18d07e	-0.009327052
57	0xbe3bc09a	-0.1833519
58	0xbe652577	-0.22377573
59	0xbd5cdaea	-0.05391971
60	0x3db319a5	0.08745126
61	0x3e4b54c2	0.19856551
62	0x3dae2ee4	0.085050374
63	0xbd8db8e0	-0.06920028
64	0xbdc3a341	-0.095526226
65	0xbe2436b1	-0.16036488
66	0xbd26edbc	-0.040754065
67	0x3c5afaf8	0.0133655
68	0x3d3b9e01	0.04580498
69	0x3ce2b835	0.027675727
70	0xbcc5370e	-0.024074104
71	0xbd2a87b6	-0.04163333
72	0xbc5259f5	-0.01283883
73	0x3d4c629d	0.049898732
74	0x3cf661b0	0.030075878
75	0x3cb6a1f2	0.022294018
76	0x3d95a466	0.07306747
77	0x3e04727b	0.12934296
78	0x3ceb5bb3	0.028730249
79	0xbd8444cb	-0.06458434
80	0xbdfa02a4	-0.12207535
81	0xbd2e8c8c	-0.042614505
82	0x3d95afc9	0.07308919
83	0x3e2d50f0	0.16925406
84	0x3dae361e	0.08506416
85	0xbdebb245	-0.115086116
86	0xbe095be3	-0.13413958
87	0xbdc02e9e	-0.093838915
88	0xbcde7ea7	-0.027160002
89	0x3ce200bf	0.027588246
90	0x3d26ca71	0.040720407
91	0xbd96ec50	-0.07369292
92	0xbd63e40b	-0.0556374
93	0xbd686e47	-0.056745794
94	0xbd4cf11a	-0.05003462
95	0x3d49f6ca	0.049307622
96	0xbceea4c2	-0.029131297
97	0xbe1f93ff	-0.155838
98	0xbe11511c	-0.14191097
99	0xbd39cd1f	-0.045361634
100	0xbd70a7df	-0.058753844
101	0x3d3d9161	0.046281222
102	0xbcedd137	-0.029030425
103	0x3b089b86	0.0020844652
104	0xbc42062f	-0.011842295
105	0x3c1aaacb	0.009440134
106	0x3dadadae	0.084803924
107	0x3d170557	0.036870327
108	0x3daa8649	0.08326394
109	0xbd5e8707	-0.05432799
110	0x3d0939e1	0.033502463
111	0x3ce9100d	0.028450036
112	0x3d04830c	0.03235154
113	0x3dabd9c4	0.08391145
114	0xbc0c42e0	-0.008560866
115	0xbd3999c4	-0.045312658
116	0xbd8271e8	-0.06369382
117	0xbe0dd39b	-0.13850252
118	0xbd4b1f56	-0.04959043
119	0xbc986cfd	-0.018606657
120	0xbd3693a5	-0.0445744
121	0xbdb9b919	-0.09068508
122	0xbda39755	-0.07987849
123	0xbe0529b4	-0.1300419
124	0xbda683e0	-0.08130622
125	0xbe1e6aca	-0.15470424
126	0xbdfd1b64	-0.1235874
127	0xbddbd963	-0.107348226
128	0xbd408d02	-0.047009476
129	0x3d9db206	0.07699971
130	0xbdfaaaaa	-0.12239583
131	0xbe97574f	-0.295588
132	0xbebe1700	-0.37126923
133	0xbe7daf75	-0.24773963
134	0xbe0758bb	-0.13217442
135	0x3d4e1535	0.050313193
136	0x3cec55ae	0.028849449
137	0xbd9f3958	-0.07774609
138	0xbe6bfed5	-0.2304643
139	0xbe30ab66	-0.17252883
140	0x3d4b19ee	0.049585275
141	0x3d3f4ad9	0.04670224
142	0x3cd15871	0.025554867
143	0xbce91e84	-0.028456934
144	0xbd165f1f	-0.03671181
145	0x3d423e6d	0.047422815
146	0x3da78c87	0.081811
147	0x3da46bfd	0.0802841
148	0x3cdb8455	0.0267965
149	0xbd052386	-0.03250458
150	0xbdd102a0	-0.10205579
151	0xbd6d3ac3	-0.057917368
152	0xbe22d007	-0.15899669
153	0xbd866a88	-0.06563288
154	0xbe43ffdf	-0.19140576
155	0xbc802295	-0.01564149
156	0xbd1eaee5	-0.03874101
157	0xbde90818	-0.11378497
158	0xbec06e04	-0.37583935
159	0xbe98ad9d	-0.29819956
160	0x3ccdb443	0.02511037
161	0xbbe4b447	-0.0069794985
162	0xbe13bbb0	-0.14427066
163	0xbdce3fbc	-0.1007075
164	0xbe01b0ba	-0.12665072
165	0x3baf77a5	0.005354839
166	0x3d9d79eb	0.0768927
167	0x3cd6317e	0.026146647
168	0xbddcb729	-0.107771225
169	0xbbe43b4b	-0.006965076
170	0x3c4cd3ed	0.012501699
171	0xbca5bd10	-0.020231754
172	0xbe103a9a	-0.14084855
173	0xbd57ae16	-0.052656256
174	0xbdba29be	-0.09089993
175	0xbdc6aabe	-0.09700535
176	0xbd9c0179	-0.076174684
177	0xbd1fc036	-0.039001666
178	0xbe190d04	-0.14946371
179	0xbe025087	-0.12726031
180	0xbda26e32	-0.07931174
181	0x3e061d00	0.13097
182	0x3e069f22	0.13146642
183	0xbd3df94e	-0.046380334
184	0xbcaa83e0	-0.020814836
185	0xbca4cefc	-0.02011823
186	0xbd9b932f	-0.075964324
187	0xbe0fb8a7	-0.14035283
188	0xbd855822	-0.065109506
189	0xbd0ea53b	-0.034825545
190	0xbda10409	-0.07862098
191	0xbc9b2245	-0.01893724
192	0x3db7cad1	0.08974231
193	0x3e06a5cc	0.13149184
194	0x3dd13e43	0.102169536
195	0x3e20dad0	0.1570847
196	0x3dabe0dc	0.08392498
197	0x3d41c167	0.047303583
198	0x3dec6e4e	0.115444764
199	0xbc0fae5a	-0.008769596
200	0xbc197244	-0.009365622
201	0xbda66345	-0.08124403
202	0xbd9968b9	-0.074906774
203	0x3df7f2dd	0.12106869
204	0x3d6e8ddb	0.058240753
205	0x3e330342	0.17481712
206	0xbd5e809e	-0.054321878
207	0xbe071a67	-0.13193665
208	0x3ca09e15	0.01960663
209	0x3d64449b	0.05572949
210	0xbcafff46	-0.021484029
211	0x3ccdf09a	0.025139142
212	0xbe231ead	-0.1592967
213	0xbe81d2d3	-0.2535616
214	0xbe57d0cf	-0.21075748
215	0xbe793937	-0.24338232
216	0xbd01cd9c	-0.031690225
217	0xbdb0da9c	-0.086354464
218	0xbd3b560a	-0.04573635
219	0x3d9d7a53	0.07689347
220	0x3dc1888d	0.09449873
221	0xbc83ce52	-0.016089592
222	0x3da412f9	0.08011431
223	0xbd033705	-0.032034893
224	0xbd53540f	-0.051593836
225	0xbcf565c5	-0.029955754
226	0x3d6858f1	0.056725446
227	0x3d2c39af	0.0420472
228	0xbd22c345	-0.039737005
229	0x3d0759ca	0.033044614
230	0xbd88aae2	-0.06673218
231	0x3dbab2a1	0.09116102
232	0x3caae912	0.02086309
233	0x3d039644	0.032125726
234	0x3d7b4513	0.06134517
235	0x3b3441cf	0.0027505045
236	0x3e01c84a	0.1267406
237	0x3e76bbeb	0.24095123
238	0x3e29774b	0.16549413
239	0x3e897898	0.26849818
240	0x3e14c1a1	0.14526989
241	0x3c909846	0.017650735
242	0x3da9345a	0.082619384
243	0x3d8b9398	0.06815261
244	0xbd1be2e0	-0.03805816
245	0xbd8f8f34	-0.07009736
246	0xbde0352e	-0.10947643
247	0xbe23c66c	-0.1599366
248	0xbde4ebe8	-0.11177808
249	0xbd3b58cc	-0.04573898
250	0x3c177025	0.009243046
251	0xbddc84fa	-0.10767551
252	0xbd0abcc2	-0.03387142
253	0xbc380acd	-0.011233044
254	0xbdf1aeb7	-0.11800902
255	0x3d9ee933	0.07759323

conv2.0.bias f4 [16]
0	0xbf594c01	-0.848816
1	0xbf498341	-0.787159
2	0xbf7a2711	-0.9771586
3	0xbf22907d	-0.6350172
4	0xbf9ad31b	-1.2095674
5	0xbf59a7aa	-0.8502146
6	0xbfbe2db9	-1.4857703
7	0xbf62fba0	-0.886652
8	0xbf41627a	-0.7554089
9	0xbf141e6d	-0.57858926
10	0xbf827557	-1.0192059
11	0xbeba901d	-0.36438075
12	0xbebcc29b	-0.36867222
13	0xbf123c35	-0.5712312
14	0xbf026dfb	-0.50949067
15	0xbf63bc36	-0.8895906

fc1.0.weight f4 [120, 400]
0	0xbc0a9530	-0.008458421
1	0xbde24890	-0.110489964
2	0x3e497d3c	0.1967668
3	0x3d35c7ae	0.044379883
4	0x3dc19004	0.09451297
5	0xbe11779b	-0.14205782
6	0x3d88881f	0.06666588
7	0x3e1e5bc8	0.154647
8	0x3e5510bd	0.20807166
9	0x3dd1f443	0.10251667
10	0x3b3ae2ce	0.0028516534
11	0xba077b05	-0.00051681726
12	0x3df2ee99	0.11861915
13	0xbb98da48	-0.004664693
14	0xbd8a5bbe	-0.0675578
15	0x3d81d125	0.06338719
16	0x3cb813af	0.022470323
17	0xbcd91ad7	-0.026502056
18	0x3d661f4a	0.056182183
19	0xbd8e4b4d	-0.06947956
20	0x3d1b94f8	0.037983865
21	0x3c7bd22a	0.015369931
22	0xbe4d6b9a	-0.20060578
23	0x3d4c6b25	0.04990687
24	0x3e489d5f	0.19591282
25	0xbda5acf4	-0.08089629
26	0xbd30d6fd	-0.04317378
27	0xbbdb3efc	-0.006690858
28	0x3d2d45a5	0.042302746
29	0xbd16fc8e	-0.03686195
30	0x3e33251e	0.17494628
31	0x3d9560b2	0.07293834
32	0x3dc249c8	0.09486729
33	0x3d9efb94	0.077628285
34	0x3d885dd0	0.06658518
35	0xbcca8c5f	-0.024725137
36	0x3d7165a8	0.058934838
37	0x3d11e2fc	0.03561686
38	0xbd1d63e6	-0.03842535
39	0xbd5b4c68	-0.053539664
40	0x3e0d245e	0.13783404
41	0x3d1bcbce	0.03803616
42	0x3d3c1c6d	0.045925546
43	0x3d486d8c	0.048932597
44	0x3e8ffc17	0.28122017
45	0x3e32609e	0.17419669
46	0xbda71218	-0.08157748
47	0xbdcc8791	-0.09986795
48	0xbdbe34ca	-0.092874125
49	0x3e5218f3	0.2051733
50	0x3e2ee814	0.17080718
51	0x3e40226f	0.18763135
52	0x3cffe0b9	0.031235086
53	0x3df5d4d7	0.120034866
54	0xbca1b813	-0.019741094
55	0x3e4a304a	0.19744983
56	0x3da475e2	0.08030297
57	0xbe02e545	-0.12782772
58	0xbe55b485	-0.20869644
59	0x3e617262	0.2201629
60	0x3eb3ab41	0.35091594
61	0x3e25bd18	0.16185415
62	0xbde67946	-0.112536
63	0x3c2bace0	0.010478228
64	0x3e36ed99	0.17864074
65	0x3e7d3bca	0.24729839
66	0x3e1cce24	0.15313011
67	0xbcd8e4f1	-0.026476355
68	0xbdfcb185	-0.12338547
69	0xbe5c3df8	-0.21508014
70	0xbc82deb1	-0.015975328
71	0x3d93301c	0.071869105
72	0x3d5c93dc	0.053851947
73	0xbc6cc8b5	-0.014452149
74	0xbdbdc352	-0.0926577
75	0x3e48311c	0.19549984
76	0x3e25e402	0.1620026
77	0x3e8711de	0.2638082
78	0x3ecc820f	0.39942977
79	0x3e1d2c5d	0.15348954
80	0x3e827ca5	0.2548572
81	0x3e6b7385	0.22993286
82	0xbc585e62	-0.013206096
83	0xbda19dc9	-0.07891423
84	0x3d6e8081	0.05822802
85	0x3ed33b2f	0.4125609
86	0x3e1c3b9c	0.15257114
87	0x3cf3f8a9	0.029781656
88	0xbe4758ab	-0.19467418
89	0x3ce1d807	0.02756883
90	0xbd35af5f	-0.0443567
91	0x3d93a35b	0.07208892
92	0x3d960669	0.073254414
93	0xbd9e7966	-0.07737999
94	0x3cf4cc51	0.029882582
95	0x3dfe76eb	0.124250256
96	0xbc38d810	-0.011281982
97	0xbd15c32e	-0.03656309
98	0x3bc4aea9	0.0060022664
99	0xbd11c857	-0.03559145
100	0x3db59172	0.08865632
101	0x3e0a1a0c	0.13486499
102	0x3e1fba04	0.15598303
103	0x3e9d6e3c	0.30748165
104	0xbe05bc44	-0.13060099
105	0x3d93089d	0.07179377
106	0x3e3ed6a3	0.18636565
107	0x3dd27aee	0.10277353
108	0xbc2cee24	-0.010554824
109	0x3d92836c	0.07153973
110	0x3cb713f3	0.02234838
111	0xbd0e06ac	-0.03467433
112	0x3dc92fef	0.09823596
113	0xbd3a1304	-0.04542829
114	0xbd922ef3	-0.07137861
115	0xbc2ac8be	-0.010423837
116	0x3e7a6c7f	0.2445545
117	0x3e2a4b17	0.16630207
118	0x3c126119	0.008934283
119	0xbd240735	-0.040045936
120	0xbdbb277c	-0.091383904
121	0x3dfb931a	0.12283917
122	0x3db0446f	0.08606803
123	0x3dbe47f7	0.0929107
124	0x3d9b457a	0.07581611
125	0x3cab8c04	0.020940788
126	0xbcaa55eb	-0.020792922
127	0xbe2f28f1	-0.17105462
128	0xbec7fc36	-0.3905961
129	0xbcbff8a8	-0.023433998
130	0xbd51dfb1	-0.05123872
131	0xbc88386c	-0.016628467
132	0xbd9efd77	-0.07763188
133	0xbe8ae81f	-0.2713022
134	0xbbd7d001	-0.0065860753
135	0xbe391873	-0.18075733
136	0xbdfbc202	-0.122928634
137	0xbc609585	-0.013707523
138	0xbd59af23	-0.05314554
139	0x3dd0521c	0.10171911
140	0x3e53bdf4	0.2067793
141	0xbcbf6310	-0.023362666
142	0xbdaf72a7	-0.0856679
143	0xbd7a391e	-0.061089627
144	0x3ccb577b	0.024821987
145	0xbc16e2ba	-0.009209329
146	0xbde60df7	-0.11233132
147	0x3e058896	0.13040385
148	0xbdb37b44	-0.087637454
149	0x3dbb398c	0.091418356
150	0xbd703a96	-0.058649622
151	0x3e4f81a4	0.20264298
152	0x3d2a2e54	0.04154809
153	0xbe891181	-0.26771167
154	0xbd9edc4b	-0.07756861
155	0xbe00984a	-0.12558094
156	0x3d7d4457	0.061832752
157	0xbddbd722	-0.10734393
158	0xbe7b9252	-0.24567536
159	0xbe4af77d	-0.19820972
160	0xbdb5448d	-0.08850966
161	0x3e80f820	0.25189304
162	0xbc93103d	-0.017952079
163	0xbde7e896	-0.11323659
164	0xbdb1c15f	-0.08679461
165	0xbc9c3d29	-0.019072132
166	0x3db433c1	0.08798934
167	0x3d0bb21a	0.034105398
168	0xbd7aeb1d	-0.061259378
169	0xbdb5a4c3	-0.088693164
170	0xbdc957cf	-0.09831201
171	0xbdcdf9a5	-0.100573815
172	0xbd9559eb	-0.07292541
173	0x3e451849	0.19247545
174	0xbdccb2b4	-0.099950224
175	0xbdd3706e	-0.10324179
176	0x3db53171	0.08847321
177	0x3e50585a	0.20346203
178	0x3e0192c2	0.1265364
179	0x3c6b3701	0.014356376
180	0x3e5a3a92	0.21311405
181	0x3e64b47c	0.22334474
182	0xbce76f86	-0.02825142
183	0x3d21f6a1	0.039541844
184	0x3d633c09	0.055477176
185	0x3e4e1144	0.20123774
186	0x3db22822	0.08699061
187	0xbe13fd06	-0.1445199
188	0xbd1515be	-0.036397688
189	0x3ca68098	0.02032499
190	0x3eb8cbea	0.36093074
191	0x3dace4ff	0.08442115
192	0xbe1dcf2d	-0.15411063
193	0xbcaf3e07	-0.021391882
194	0x3e3923d5	0.18080075
195	0x3e98eacf	0.29866645
196	0x3e0f5764	0.1399818
197	0x3d8cbd0b	0.068719946
198	0xbd715280	-0.05891657
199	0xbda68645	-0.08131079
200	0xbcbf408c	-0.023346208
201	0x3bef34a4	0.0072999764
202	0x3c740530	0.014893815
203	0x3dd0f6d0	0.10203326
204	0xbd04e50d	-0.032445002
205	0xbcf74e2b	-0.03018864
206	0x3da05d25	0.07830266
207	0x3b04a504	0.0020239959
208	0xbe347cb4	-0.17625695
209	0xbbdfdad9	-0.0068315086
210	0x3e1a3935	0.15060885
211	0x3dc673d2	0.0969006
212	0xbd1acbb6	-0.03779193
213	0xbdad6483	-0.08466437
214	0x3e3a834e	0.18214151
215	0x3e980cdb	0.29697308
216	0x3da79389	0.08182437
217	0xbd2b2b70	-0.041789472
218	0xbdffaed7	-0.1248452
219	0xbd26aef8	-0.040694207
220	0xbd99db59	-0.0751254
221	0x3e0d2a54	0.13785678
222	0x3d3c8fd0	0.046035588
223	0xbc929b72	-0.017896388
224	0xbe087cf7	-0.1332892
225	0xbe31f274	-0.17377645
226	0xbcf315d3	-0.029673493
227	0xbe64cfb3	-0.22344856
228	0xbddb1716	-0.10697763
229	0xbe62a3be	-0.22132775
230	0xbb963295	-0.0045836666
231	0xbdb8b518	-0.09018916
232	0xbd845082	-0.06460668
233	0xbdff8ff1	-0.124786265
234	0x3c5f00ed	0.013611061
235	0xbd642cc2	-0.055706747
236	0xbada95cf	-0.0016676727
237	0xbda9f670	-0.08298957
238	0x3de7aa6d	0.11311803
239	0x3daaffc7	0.08349567
240	0x3e02d533	0.12776642
241	0xbc8402c7	-0.016114606
242	0xbd51a786	-0.051185153
243	0xbd058d72	-0.032605596
244	0xbe125d4c	-0.14293402
245	0x3d4237ed	0.047416616
246	0x3d3934f2	0.04521651
247	0x3d898d31	0.06716383
248	0x3ba9516f	0.0051671783
249	0xbd14941e	-0.036274068
250	0x3d562194	0.052278116
251	0x3d9460e4	0.07245043
252	0x3ddde304	0.108343154
253	0x3e2d43c5	0.16920383
254	0x3c572154	0.013130505
255	0x3e49229f	0.19642113

fc1.0.bias f4 [120]
0	0x3e6b91dd	0.23004861
1	0x3eab677c	0.3347739
2	0x3eb087de	0.34478658
3	0xbe1f30de	-0.15545985
4	0x3ecffc64	0.40622246
5	0xbe2e8ba2	-0.17045453
6	0x3dc29b76	0.09502308
7	0x3c0895ec	0.008336525
8	0x3e443ee8	0.19164622
9	0x3ee3a53b	0.44461998
10	0x3ec00a37	0.37507793
11	0xbd751e3e	-0.059843294
12	0xbd8fb439	-0.070167966
13	0xbe62fc39	-0.22166528
14	0x3be1e142	0.006893308
15	0xbedfd424	-0.43716538
16	0xbd2b1aa2	-0.041773446
17	0x3e8a3f0a	0.2700122
18	0x3f10ae11	0.56515604
19	0xbdbe6ffd	-0.09298704
20	0x3f16f47f	0.5896682
21	0xbdadc728	-0.08485252
22	0x3e92a0e3	0.28638372
23	0xbeb18433	-0.34671172
24	0x3dd5b634	0.10435143
25	0x3ed0090c	0.40631902
26	0x3ec867a8	0.39141583
27	0xbefab7ed	-0.4896845
28	0xbf17c87b	-0.59290284
29	0x3eafc856	0.34332532
30	0xbdbe73ce	-0.09299432
31	0xbf08b1d2	-0.5339633
32	0x3d5e3f5f	0.054259654
33	0xbdef11a1	-0.11673284
34	0x3ec1e842	0.3787251
35	0xbec9717a	-0.39344388
36	0xbe6bc4e2	-0.23024324
37	0x3ec1c7f3	0.37847862
38	0x3ed93956	0.42426556
39	0x3de663a4	0.11249474
40	0x3e25f5a6	0.16206989
41	0xbdec21fe	-0.11529921
42	0xbe59aac5	-0.2125655
43	0xbbe42536	-0.0069624437
44	0x3e2ef79e	0.17086646
45	0xbcb3dc86	-0.02195574
46	0x3f06ce19	0.5265823
47	0x3d9b7175	0.075899996
48	0x3e8e7d36	0.27829903
49	0xbe98784a	-0.29779273
50	0xbd064d54	-0.03278859
51	0xbe2bf1e7	-0.16791497
52	0xbe2a439c	-0.16627353
53	0x3d48d64d	0.0490325
54	0xbd2256c9	-0.039633546
55	0xbdba94cf	-0.09110414
56	0x3ded66fd	0.11591909
57	0xbf121014	-0.57055783
58	0x3ebec090	0.3725629
59	0xbe1bdf36	-0.15221867
60	0xbead4133	-0.33838806
61	0x3dcfd985	0.101489104
62	0xbe6e0893	-0.23245458
63	0xbe0939e6	-0.13400993
64	0xbe63107b	-0.22174256
65	0xbd74b33c	-0.059741244
66	0xbee6b302	-0.45058447
67	0xbe21f92a	-0.15817705
68	0x3e03da23	0.12876181
69	0x3e3a0e6e	0.18169567
70	0x3df34442	0.118782535
71	0xbe2e0b32	-0.16996458
72	0x3ebae923	0.36505994
73	0x3f07c14e	0.53029335
74	0xbe810d43	-0.2520543
75	0x3da64f21	0.081205614
76	0xbf0dd3dc	-0.55401397
77	0xbd814279	-0.06311507
78	0xbe7904a3	-0.24318175
79	0x3e4073d6	0.18794188
80	0x3eb5bb3e	0.35494417
81	0x3c768567	0.015046454
82	0x3e85f487	0.26163122
83	0x3e93b8b5	0.28851858
84	0xbe0b7a20	-0.13620806
85	0xbedfa0f1	-0.43677476
86	0x3ed5133f	0.41616246
87	0x3b5f21a7	0.0034047158
88	0xbe582794	-0.21108848
89	0xbf124c46	-0.57147634
90	0xbddc0805	-0.10743717
91	0xbe08025f	-0.13282155
92	0x3e0a88f3	0.13528804
93	0xbdc5fd0a	-0.09667404
94	0x3e46db21	0.19419529
95	0x3e57502b	0.21026675
96	0x3f0e3220	0.55545235
97	0x3d43582e	0.047691517
98	0xbebadc1c	-0.36496055
99	0xbe8d98d1	-0.27655652
100	0x3e929f8a	0.28637344
101	0x3e35c1ae	0.17749664
102	0xbe8b0eb8	-0.27159667
103	0x3cdc31dd	0.026879245
104	0x3ea5b0c2	0.32361418
105	0xbe3aa9d6	-0.1822885
106	0x3ea36c55	0.31918588
107	0x3e6cc03d	0.23120208
108	0xbddace58	-0.10683888
109	0xbc962b7e	-0.018331286
110	0x3e800597	0.25004265
111	0xbdc24b49	-0.09487016
112	0xbbb26787	-0.0054444703
113	0x3e27a27c	0.16370577
114	0x3dce4ea8	0.10073596
115	0xbf1b493a	-0.6065861
116	0x3e97f16b	0.29676375
117	0xbea41936	-0.32050484
118	0xbe86514b	-0.26233897
119	0x3ebb904c	0.36633527

fc2.0.weight f4 [84, 120]
0	0x3d26c801	0.040718082
1	0x3cf3d00b	0.029762289
2	0xbe16b39b	-0.14716952
3	0x3dd36608	0.10322195
4	0xbd74cd07	-0.05976584
5	0xbe8ea0ed	-0.27857152
6	0xbda9de85	-0.08294395
7	0x3de837f0	0.11338794
8	0xbea2468f	-0.31694457
9	0x3c9f28f2	0.019428704
10	0xbe1419a5	-0.14462908
11	0x3e7d3f0c	0.24731082
12	0x3c9170f5	0.017754057
13	0x3e257a0b	0.16159837
14	0xbe090a34	-0.13382798
15	0xbac6d9ea	-0.0015171145
16	0xbe24f749	-0.16109957
17	0xbcd1b569	-0.025599198
18	0xbe36239e	-0.17787024
19	0xbdc76d00	-0.09737587
20	0x3e07d26b	0.13263862
21	0x3dbbd5f4	0.09171668
22	0x3d8cdba5	0.06877831
23	0x3d46445a	0.04840503
24	0xbe04d00f	-0.12969993
25	0xbdf4cd26	-0.119531915
26	0xbe463ae8	-0.19358408
27	0x3cbbeae8	0.02293916
28	0xbbf3f95b	-0.007445497
29	0x3d812e58	0.063076675
30	0xbe36000f	-0.1777346
31	0x3e2e3252	0.17011383
32	0x3e233ec4	0.15941912
33	0x3d6d1f7a	0.057891347
34	0x3e126482	0.14296153
35	0xbd10cf50	-0.03535396
36	0xbdb66f28	-0.0890792
37	0xbe33622d	-0.1751792
38	0xbe0ee458	-0.13954294
39	0xbe8303c8	-0.25588822
40	0xbbea3857	-0.0071478295
41	0x3c66a8d3	0.014078337
42	0xbd5257a7	-0.051353123
43	0x3da5ec3c	0.08101699
44	0xbdd39968	-0.10331994
45	0x3dc89d72	0.09795655
46	0xbc94e140	-0.018173814
47	0xbe61e2d2	-0.22059181
48	0x3e21ef05	0.15813835
49	0x3d938bfe	0.07204436
50	0xbe3df08c	-0.18548793
51	0x3d277035	0.040878493
52	0x3e1f7366	0.15571365
53	0x3e5a8f90	0.21343827
54	0x3e05ed63	0.13078837
55	0xbe79ae7a	-0.24382964
56	0xbc225d6f	-0.009909972
57	0x3dfa2f75	0.12216083
58	0xbdaba35b	-0.08380767
59	0xbd78a309	-0.060702357
60	0x3d8cf3e3	0.06882455
61	0x3db8c832	0.09022559
62	0xbe2d8f32	-0.16949156
63	0x3dd17b6f	0.10228621
64	0xbd54a9a6	-0.0519196
65	0xbe078d08	-0.13237393
66	0x3d937f82	0.072020546
67	0x3e18ed82	0.14934352
68	0xbd8274df	-0.06369948
69	0x3da7c775	0.0819234
70	0xbc8849ae	-0.016636696
71	0x3c9356b7	0.017985685
72	0x3d3791e0	0.04481685
73	0xbd305b2a	-0.04305569
74	0x3e306ccf	0.17229007
75	0xbd79da34	-0.06099911
76	0xbcd461fd	-0.02592563
77	0x3d8b71d2	0.06808819
78	0x3dab313c	0.08359
79	0x3d7d0309	0.061770473
80	0x3ca6292c	0.020283304
81	0x3e8f2ab8	0.2796228
82	0xbe6305a9	-0.22170128
83	0xbdd17ab6	-0.102284834
84	0x3e4bce12	0.19902828
85	0x3df9e78f	0.122023694
86	0x3dda2246	0.106510684
87	0xbda275b2	-0.07932605
88	0x3d4518aa	0.048119225
89	0x3e7f4114	0.24927169
90	0x3e2bd8cf	0.16781925
91	0x3b5fad29	0.003413031
92	0x3d24173f	0.04006123
93	0xbdf08289	-0.117436476
94	0xbdc995d9	-0.09843034
95	0x3e4dc47b	0.20094483
96	0x3ceb7a86	0.028744947
97	0xbd3fb05a	-0.04679904
98	0x3ac5cdb2	0.0015091209
99	0x3d5c086b	0.053718966
100	0xbd8e8c0b	-0.06960305
101	0xbca665c0	-0.02031219
102	0xbe0a6f9e	-0.13519141
103	0x3e381e46	0.17980298
104	0xbe4a0d5b	-0.19731657
105	0xbd02374f	-0.031791028
106	0x3c4ac4ac	0.012375992
107	0xbd9da8f2	-0.076982394
108	0xbd4ea0fa	-0.050446488
109	0x3db5cd0e	0.08877002
110	0xbbf10b87	-0.0073561105
111	0x3e3c852a	0.18410173
112	0xbdbb189a	-0.09135552
113	0xbc0a5283	-0.008442524
114	0x3d55c31d	0.052188028
115	0x3dcf215e	0.10113786
116	0xbcf23fca	-0.029571433
117	0x3da858ad	0.082200386
118	0x3dc5764c	0.09641704
119	0xbe70aa57	-0.2350248
120	0x3ea10645	0.31450096
121	0x3e9e335b	0.30898556
122	0xbab7129b	-0.0013967337
123	0x3e327d48	0.17430604
124	0x3e25298e	0.16129133
125	0xbe494681	-0.19655801
126	0xbe8246aa	-0.25444537
127	0x3a44f836	0.0007513793
128	0xbd282586	-0.04105141
129	0xbc5d1a49	-0.013495036
130	0xbbd85620	-0.006602064
131	0x3e3a4d62	0.18193582
132	0xbd28a745	-0.041175146
133	0x3e230fdb	0.15924017
134	0x3e045b19	0.12925376
135	0xbd517b8a	-0.051143207
136	0x3c7330fd	0.014843223
137	0x3e05db7b	0.13072006
138	0x3e3d2910	0.18472695
139	0xbe8479dd	-0.25874224
140	0x3e226be5	0.15861471
141	0xbe4f634a	-0.2025272
142	0x3e355895	0.17709573
143	0xbd2dc4b5	-0.042423923
144	0x3d671050	0.05641204
145	0x3de8443b	0.11341139
146	0x3dd6220f	0.10455715
147	0xbe42bb5f	-0.19016789
148	0x3aecf069	0.0018077019
149	0x3d30e323	0.043185364
150	0xbe1775c7	-0.14791022
151	0xbda2d3a7	-0.07950526
152	0x3d463d32	0.048398204
153	0xbdc713bd	-0.09720562
154	0x3caa000f	0.020751981
155	0x3de5666e	0.112011775
156	0xbe4e0424	-0.20118767
157	0xbaa3b147	-0.0012488746
158	0x3ddade5d	0.10686944
159	0xbdadd773	-0.08488359
160	0xbe237a50	-0.15964627
161	0xbd791ba1	-0.060817365
162	0xbdb1479e	-0.08656238
163	0x3c3e95fb	0.011632438
164	0x3e3ab999	0.18234862
165	0x3dbda961	0.09260822
166	0x3e386644	0.18007761
167	0xbd23e389	-0.040011916
168	0x3e03bfc0	0.12866116
169	0x3dd62787	0.10456758
170	0x3ddb4ca3	0.10707977
171	0xbdd6159a	-0.10453339
172	0x3ca2858a	0.019839067
173	0x3e3d8324	0.18507057
174	0x3e491815	0.19638093
175	0xbe53e5c7	-0.20693122
176	0x3e16f447	0.14741622
177	0x3d8007f5	0.06251518
178	0x3d74d73c	0.059775576
179	0x3cf5fe55	0.030028502
180	0xbe4b9e41	-0.19884588
181	0x3db806a5	0.08985642
182	0xbd235006	-0.03987124
183	0x3c42f268	0.0118986145
184	0xbeaa85c1	-0.3330517
185	0x3ddea83d	0.10871933
186	0xbe05af1b	-0.13055079
187	0xbe9e8488	-0.30960488
188	0xbd684666	-0.056707762
189	0x3e078661	0.13234855
190	0x3d1707db	0.036872726
191	0x3d7e2490	0.062046587
192	0x3c2faaa1	0.010721833
193	0x3de8657d	0.11347482
194	0xbd1f4d0a	-0.03889183
195	0xbe63a0f7	-0.22229372
196	0xbe80abb8	-0.2513101
197	0x3e13bdd8	0.14427888
198	0xbda65f27	-0.081236176
199	0xbbc9e2ec	-0.0061610844
200	0x3b790486	0.003799708
201	0xbba600fd	-0.005066036
202	0x3d9e85e6	0.07740383
203	0x3e10d989	0.14145483
204	0xbe9a1998	-0.3009765
205	0x3e5ff917	0.21872364
206	0xbc29d37d	-0.010365364
207	0xbd83ff4c	-0.064451784
208	0x3dc71731	0.0972122
209	0xbd427db3	-0.047483157
210	0xbaec4480	-0.0018025786
211	0xbcc6db5c	-0.02427452
212	0xb9f15fdd	-0.00046038526
213	0xbe41cb3c	-0.18925184
214	0x3d0797d8	0.033103794
215	0x3d93609a	0.0719616
216	0x3e1ce411	0.15321375
217	0xbd18e89e	-0.037331216
218	0xbdf9228c	-0.121647924
219	0xbbb66449	-0.005566154
220	0x3e04b81d	0.12960859
221	0x3dbf271d	0.09333632
222	0x3d07cc04	0.03315355
223	0x3d911019	0.070831485
224	0xbe90c153	-0.28272495
225	0xbd741262	-0.059587844
226	0xbdb8587e	-0.090012535
227	0x3d681c3f	0.056667563
228	0xbd7bdd05	-0.061490078
229	0x3dc63f67	0.09680062
230	0x3d599a03	0.053125393
231	0xbc9981a4	-0.018738575
232	0xbd54a672	-0.051916547
233	0xbda05d3e	-0.078302845
234	0x3d2d2af5	0.042277295
235	0xbd3c8e98	-0.046034425
236	0x3e458db7	0.19292341
237	0xbd95fb6a	-0.07323344
238	0x3daf3313	0.085546635
239	0xbd4fdb08	-0.050745994
240	0x3c96ed1a	0.018423606
241	0x3e1bb2cb	0.15204923
242	0xbda70eba	-0.08157106
243	0x3dbcaec1	0.09213019
244	0x3cb12300	0.021623135
245	0xbe0b8385	-0.1362439
246	0x3d366111	0.044526163
247	0x3d931004	0.07180789
248	0x3e0fcb48	0.1404239
249	0x3db77fec	0.08959946
250	0xbdd4d17a	-0.10391517
251	0xbcc26b6b	-0.023732862
252	0x3c038c9d	0.00802913
253	0xbe25cb80	-0.1619091
254	0xbbafe9ff	-0.0053684707
255	0xbc0495d4	-0.008092362

fc2.0.bias f4 [84]
0	0xbd8a6e53	-0.06759324
1	0x3e55c7c0	0.2087698
2	0x3e81bc9a	0.25339204
3	0x3e39f371	0.18159272
4	0x3db2ca0f	0.08729946
5	0x3e2f2102	0.17102435
6	0x3d5844e3	0.05280007
7	0x3b824503	0.003975512
8	0xb97d6e66	-0.00024169087
9	0xbdbea457	-0.09308689
10	0xbe779126	-0.24176463
11	0x3e4bcba2	0.19901899
12	0xbe0557b1	-0.13021733
13	0xbe1e3a5c	-0.1545195
14	0x3d843f2d	0.06457362
15	0x3d992c93	0.07479205
16	0xbe175236	-0.14777455
17	0xbde90766	-0.11378364
18	0xbdc5f56a	-0.0966595
19	0x3e8c9d5a	0.274638
20	0x3d30ac18	0.04313287
21	0xbea8da90	-0.3297925
22	0xbe0e1a4c	-0.13877219
23	0x3dcd1dbf	0.10015439
24	0xbd8f5aac	-0.06999716
25	0x3da20824	0.07911709
26	0xbefa3f33	-0.48876342
27	0xbd9ca2a5	-0.076482095
28	0x3dc05d5c	0.09392807
29	0x3d4c2f72	0.049849935
30	0xbe173fb5	-0.14770396
31	0x3e84f182	0.25965506
32	0xbf0c602d	-0.5483425
33	0x3e9b26dc	0.30303085
34	0xbdddc37c	-0.10828301
35	0x3e43ea07	0.19132243
36	0xbc5f9b6f	-0.013647898
37	0xbcb841cc	-0.022492312
38	0x3edae56f	0.4275317
39	0x3eab4fc4	0.33459294
40	0x3e2e2c26	0.17009029
41	0xbdfec939	-0.12440724
42	0xbceba288	-0.028764024
43	0xbe2c5dd9	-0.16832675
44	0x3d318ee7	0.043349173
45	0x3dd42238	0.10358089
46	0x3e75a44b	0.23988454
47	0x3e945614	0.28971922
48	0xbe094edd	-0.1340899
49	0xbe9d7d55	-0.30759683
50	0x3db15299	0.086583324
51	0xbeb6b3b9	-0.35683993
52	0x3b515b25	0.0031945196
53	0x3dbf8b6e	0.09352766
54	0x3d8ab32e	0.06772457
55	0xbe383db6	-0.17992291
56	0xbe0af07e	-0.13568303
57	0xbe404c38	-0.18779075
58	0x3aa56f2d	0.0012621634
59	0xbe09cd65	-0.13457258
60	0xbcff5f6a	-0.031173427
61	0xbe22fa1b	-0.1591572
62	0xbe41f1b8	-0.18939865
63	0x3d85044c	0.0649496
64	0x3e36d6e5	0.17855413
65	0x3dbe7023	0.09298732
66	0xbed817ce	-0.42205662
67	0xbef0f7e9	-0.4706414
68	0x3c2f4fde	0.010700194
69	0xbe532805	-0.20620735
70	0xbeef3091	-0.4671674
71	0x3dcb4800	0.09925842
72	0xbe838ebe	-0.2569484
73	0xbec54a24	-0.38533127
74	0x3e00f372	0.12592867
75	0x3cdb6853	0.026783144
76	0xbd5f5fba	-0.05453465
77	0xbcfa0c24	-0.030523367
78	0xbe48349f	-0.19551323
79	0xbc4a6883	-0.012354019
80	0xbc6d74bf	-0.0144931665
81	0x3c8f84a0	0.017519295
82	0x3e0b4432	0.13600233
83	0xbe399822	-0.1812444

fc3.0.weight f4 [10, 84]
0	0x3e028cfd	0.12749095
1	0xbe98eaf7	-0.29866764
2	0xbe2d6228	-0.16931975
3	0x3e04c4dc	0.12965721
4	0xbd9ba5e8	-0.076000035
5	0x3e390b8d	0.18070813
6	0xbe04ae6f	-0.12957166
7	0x3de88df1	0.11355198
8	0x3de25b70	0.110525966
9	0x3e89b01c	0.26892173
10	0x3d145d75	0.03622194
11	0xbdfe4be0	-0.12416816
12	0x3e995a87	0.2995188
13	0x3e8b59e3	0.27217016
14	0x3e258d79	0.16167249
15	0x3dcc65ea	0.09980376
16	0xbe142b62	-0.14469674
17	0xbe60bf44	-0.21947962
18	0xbd0e72f9	-0.034777615
19	0xbd6094a7	-0.054829266
20	0x3db8a877	0.09016507
21	0x3e37ab79	0.17936505
22	0x3eaa8cf9	0.3331068
23	0xbe84e865	-0.25958553
24	0x3e93a3fb	0.28836045
25	0xbd96570d	-0.07340822
26	0x3e35aead	0.17742415
27	0xbddc31e0	-0.107517004
28	0x3ddd28ba	0.107987836
29	0xbe52b893	-0.20578222
30	0xbe406693	-0.18789129
31	0xbbd05e89	-0.0063589257
32	0x3e9c5642	0.3053456
33	0xbdcaa5d5	-0.09894911
34	0x3e5c9286	0.2154027
35	0xbe20189c	-0.15634388
36	0x3ddf9e23	0.10918834
37	0xbdb0a9ba	-0.08626123
38	0xbd423361	-0.04741228
39	0xbe4edbe0	-0.20201063
40	0x3d835323	0.064123414
41	0xbe0adb9e	-0.1356034
42	0x3e337073	0.17523365
43	0x3e7b88fe	0.24563977
44	0xbe51261b	-0.20424692
45	0x3e5abf4e	0.2136204
46	0xbe8311b3	-0.2559944
47	0xbe6f2b17	-0.23356281
48	0xbe9956a7	-0.29948923
49	0x3d1e6214	0.038667753
50	0x3e3963da	0.18104497
51	0x3e343fe8	0.17602503
52	0x3c2609ad	0.010134143
53	0x3e35b9fc	0.17746729
54	0xbe33c05d	-0.1755385
55	0xbdd73aa6	-0.10509233
56	0x3ce4eb3b	0.027944198
57	0x3e3575ad	0.17720671
58	0xbe0bde7e	-0.13659093
59	0x3d3765e8	0.04477492
60	0x3cdaac15	0.026693383
61	0xbb703426	-0.0036652177
62	0xbde1342a	-0.10996278
63	0x3c38646e	0.011254413
64	0x3d2b4487	0.0418134
65	0xbe5212ff	-0.20515059
66	0xbd90a466	-0.070626065
67	0x3e64df78	0.22350872
68	0x3e67e184	0.22644621
69	0x3e9abbce	0.3022141
70	0x3ddae755	0.10688654
71	0xbe793137	-0.2433518
72	0x3e51227b	0.2042331
73	0x3e5a7e4f	0.21337245
74	0xbe439932	-0.19101408
75	0xbe21a0f1	-0.1578405
76	0x3e860852	0.26178223
77	0xbcb53925	-0.022121975
78	0x3e1db724	0.15401894
79	0x3d8dbc18	0.06920642
80	0x3e8631ab	0.2620977
81	0x3e34f5b1	0.17671849
82	0xbe37b895	-0.17941506
83	0x3e9d5d85	0.30735412
84	0xbe3e5399	-0.18586577
85	0x3d3bb571	0.045827333
86	0x3e6b1889	0.22958578
87	0xbd2285c3	-0.039678346
88	0x3df4cd13	0.11953177
89	0xbe1b1208	-0.15143597
90	0xbe4a67df	-0.19766186
91	0xbe997463	-0.2997161
92	0xbe0f252b	-0.13979022
93	0xbe3c5ec0	-0.1839552
94	0xbe341fbf	-0.17590235
95	0x3e3108d5	0.17288525
96	0x3e756070	0.23962569
97	0x3e5b4534	0.21413118
98	0x3eab01fa	0.33399945
99	0x3e9fe6cc	0.31230772
100	0x3e7c5f26	0.24645671
101	0xbe62f2af	-0.22162889
102	0x3e56a02d	0.2095954
103	0x3e41eadf	0.18937252
104	0x3e3e5930	0.1858871
105	0xbcee0813	-0.029056584
106	0x3ce51530	0.027964205
107	0xbe95f9c5	-0.29292122
108	0x3e671b7e	0.22569081
109	0xbe0e99d4	-0.13925868
110	0xbd9c9a8e	-0.076466665
111	0x3db2247b	0.08698364
112	0xbe7d034a	-0.24708286
113	0xbdce40fb	-0.10070988
114	0x3e2636d7	0.16231857
115	0x3cd0469e	0.025424298
116	0x3e4cbc0a	0.19993606
117	0x3e389ed1	0.18029334
118	0xbe4a0c60	-0.19731283
119	0x3dca9442	0.09891559
120	0xbe72fff7	-0.23730455
121	0x3e2e44c4	0.1701842
122	0xbba86d37	-0.0051399725
123	0x3e3ff1e3	0.18744616
124	0xbe8a9c11	-0.27072194
125	0x3b6a4d28	0.0035751555
126	0x3df30495	0.11866108
127	0xbe3c3bcb	-0.18382184
128	0xbd853657	-0.06504505
129	0x3e480361	0.19532539
130	0x3e159760	0.14608526
131	0xbdab7d5e	-0.08373521
132	0xbe00f751	-0.12594344
133	0x3e31aab7	0.17350279
134	0x3e6d45d1	0.23171164
135	0xbe21f30c	-0.15815371
136	0xbe914f93	-0.28381023
137	0x3d05055c	0.032475814
138	0x3e74e721	0.23916294
139	0xbe31e34b	-0.17371862
140	0x3e39716b	0.18109672
141	0xbdf8d6ea	-0.121503666
142	0xbd138393	-0.03601415
143	0x3da73f16	0.081663296
144	0x3d4af2dd	0.04954802
145	0x3d904cbc	0.07045886
146	0x3e5d46bc	0.21609014
147	0xbe86aead	-0.26305142
148	0x3d531068	0.051529318
149	0xbe1e039b	-0.15431063
150	0x3e68b490	0.22725129
151	0xbd886cd8	-0.06661385
152	0xbe4e2741	-0.20132162
153	0x3df18202	0.11792375
154	0xbe833906	-0.25629443
155	0x3e2d6e6c	0.16936654
156	0xbe2e72b9	-0.1703595
157	0xbde780ba	-0.113038495
158	0x3e5b2908	0.21402371
159	0xbe03878b	-0.12844674
160	0xbdbcefb5	-0.09225408
161	0x3de56fe7	0.11202984
162	0xbe3900fa	-0.18066779
163	0xbe7050b4	-0.23468286
164	0xbe491b40	-0.19639301
165	0x3e6d9560	0.23201513
166	0xbde6db08	-0.11272246
167	0xbe169c01	-0.14707948
168	0xbe0d5f2a	-0.13805833
169	0x3da4db39	0.08049626
170	0xbd92e40b	-0.07172402
171	0xbc5c60f0	-0.013450846
172	0xbe184fce	-0.14874193
173	0x3e205e48	0.15660965
174	0x3dc95bed	0.098319866
175	0xbc2dca6c	-0.010607343
176	0xbd35db6f	-0.04439872
177	0xbe0a039e	-0.13477942
178	0xbe413b66	-0.18870315
179	0xbe03777d	-0.1283855
180	0xbe646232	-0.22303084
181	0xbe30ad20	-0.17253542
182	0xbe14bd85	-0.14525421
183	0x3e6a91f9	0.22907247
184	0x3e33c04c	0.17553824
185	0xbe25a257	-0.16175209
186	0xbe063941	-0.13107778
187	0x3e34578b	0.1761152
188	0xbe4b7886	-0.19870195
189	0xbc48f98f	-0.012266531
190	0xbe24820b	-0.16065232
191	0x3e0594fc	0.13045114
192	0x3e4921ab	0.1964175
193	0xbe3555e8	-0.17708552
194	0xbe30e9a9	-0.17276634
195	0xbe589609	-0.21150984
196	0xbe43c442	-0.19117835
197	0x3d83840e	0.06421672
198	0xbd1be636	-0.038061343
199	0x3e437ee3	0.19091372
200	0x3e3e0f28	0.18560469
201	0xbcf7d3bc	-0.03025233
202	0xbe20600a	-0.15661636
203	0x3e23df2b	0.160031
204	0x3e128a16	0.14310488
205	0x3d442bc3	0.047893297
206	0x3e31f921	0.17380191
207	0xbcba9b66	-0.022779178
208	0x3e8837b5	0.26605
209	0xbe834b53	-0.25643405
210	0xbe444c34	-0.19169694
211	0x3dc3360d	0.09531794
212	0x3e3cee1c	0.18450207
213	0x3df5aae8	0.119954884
214	0x3c2c9dd2	0.010535674
215	0x3dbb5cf2	0.09148587
216	0xbe0d21b2	-0.13782385
217	0xbe33bb09	-0.17551817
218	0x3cb7e6cc	0.02244892
219	0xbe5e88bd	-0.21731849
220	0xbe1ee9a5	-0.15518816
221	0x3dbed551	0.093180306
222	0xbe256af3	-0.16154079
223	0x3de15a88	0.110035956
224	0xbe3584ab	-0.1772639
225	0x3ddab5b9	0.10679192
226	0x3e10846d	0.14113016
227	0x3d928c5d	0.071556784
228	0x3dc0e3cf	0.09418451
229	0xbe186463	-0.14882044
230	0xbd44d192	-0.048051424
231	0x3cb1e218	0.021714255
232	0x3e26b79b	0.16280977
233	0xbe594fe2	-0.21221879
234	0xbd31292b	-0.04325215
235	0xbdd496b7	-0.10380309
236	0x3e29c81d	0.16580243
237	0xbe8f19d2	-0.27949387
238	0xbe5d581e	-0.21615645
239	0xbca90ee3	-0.020636981
240	0x3decf33c	0.11569831
241	0xbe1adf60	-0.15124273
242	0xbe7ed5b0	-0.24886203
243	0xbe153d4e	-0.14574167
244	0x3e740a52	0.23832062
245	0x3ea48889	0.32135418
246	0x3d7911c7	0.06080797
247	0x3e66d1e1	0.22541
248	0xbe293b22	-0.16526464
249	0x3e24bd93	0.16087942
250	0xbda8c8d4	-0.0824143
251	0xbe4f930a	-0.20270935
252	0xbe2307fb	-0.15921013
253	0xbdb84f60	-0.089995146
254	0xbddcee5e	-0.107876524
255	0x3e4c77d3	0.19967584

fc3.0.bias f4 [10]
0	0xbf17690c	-0.59144664
1	0x3db7b95a	0.089709
2	0x3e97ea1a	0.29670793
3	0xbe84e67b	-0.25957093
4	0xbd9b5729	-0.07584984
5	0x3e727de6	0.23680839
6	0xbf00329a	-0.5007721
7	0x3ec3c635	0.38237157
8	0x3e11c68b	0.14235894
9	0x3e47e45c	0.19520706
