save_checkpoints/LeNet5_epoch_12.pth (torch, 249863 bytes, 10 tensors)

conv1.0.weight f4 [6, 1, 5, 5]
00000000: 3ec5 85bc 0967 f6bb 3485 29be ce05 5cbb
00000010: 30a4 b93e 9ddb 62be 067d 82be 3d84 89bc
00000020: 0c9a 1a3e 986c 073e 0db6 253e 3430 dc3c
00000030: 0301 c93c 1451 3f3e 8325 6e3e f054 77bd
00000040: 2db0 f2ba 47d9 fd3d 37a2 d03e 9c5b bcbc
00000050: 0e6d f23d 6874 8b3d cfeb c73d b020 783e
00000060: f2d3 10be 3eee 47bc ca85 fc3d ab45 f23d
00000070: aeaa 233e e3ca 81bc e718 89be 09e8 e5be
00000080: bd41 9cbe ac0b 6cbe 326c 2bbe 76f9 41be
00000090: 5503 70bd 2c06 08be fd4e dfba f5e2 0bbe
000000a0: 6fa2 163d 51e8 0c3e 09c5 6a3d 3f38 a13d
000000b0: 4d2b b53d 5a88 c93c 60be 9d3c d813 8abc
000000c0: a1a1 46bc fd77 0ebd ebdb 8a3b b96e 583c
000000d0: 4f3f 5d3d 7fd0 d63d f8a3 eabc a2f5 c8bd
000000e0: eac4 863e f210 533e 68ad d6bd eebd 8d3d
000000f0: 8e7c 53be 37f0 543e 4032 783d d4fc b0bc
00000100: b141 8cbd 0e2b bebc f4cd 883e 9186 1abb
00000110: f1f7 4ebc 6e6d 1ebe 4ff2 5e3c bc67 b13e
00000120: 16d3 b8bc bd91 e8bd dfb8 6ebe 608e c43d
00000130: 07f8 98bc 354c 113d 35ef a03d 541e a33e
00000140: ba8c 60bd 7d6f bfbe c655 97be 0190 e1bd
00000150: c6ee cfbb 872f 37be b53f 68be b79c ccbc
00000160: f362 693d cd6a a63d 3501 b6be 3e7d 15bd
00000170: 9f4a d83c ac0f 483e 7333 93bd e3fa fabe
00000180: 8c7d 5b3d 1396 9c3d bc38 04be 1173 9a3d
00000190: 389e b63c 7028 263d 4fd6 9e3d 7302 7c3e
000001a0: 3ed9 b73d cbd0 5ebd fa31 ff3d c131 2cbc
000001b0: eab6 65bd e78d b63d fd1b 393e 0ece 0fbe
000001c0: 7e59 f9bc e8af 88be 2a94 4fbd 833a d1be
000001d0: 8f30 87be 456a c3be 2f7e 0bbe 12be 43be
000001e0: f948 7fbc b880 2dbd 1980 8a3d 9cf8 af3d
000001f0: 55fc 953c 72d5 dabe f03c 07bd 8a2e 90be
00000200: a76c b03c 68ea cc3d 2c32 2fbd c11b 3d3d
00000210: 82e9 23be 858a 82be 40bb 19be 48c0 77bd
00000220: ee61 bebd 993d 9ebe 1fec e63d 5e26 e23d
00000230: 51e3 543e 07b1 91be 65bf c8be e1e1 fcbc
00000240: 17d7 b33d a512 143e abeb f13d a3fe 86be
00000250: a1cb 1fbe 3085 dcbd
-0.016329404 -0.007519607 -0.16554719 -0.0033572796 0.36258078 -0.22154088 -0.2548601 -0.016786689
0.15097827 0.13225019 0.16182728 0.026878454 0.024536615 0.18683273 0.23256497 -0.060383737
-0.0018515639 0.12394958 0.4074876 -0.022992902 0.11837207 0.06809312 0.09761774 0.2423122
-0.1414335 -0.012202797 0.12330206 0.11829694 0.15983078 -0.015843814 -0.2677681 -0.4490359
-0.30518904 -0.23051327 -0.16740492 -0.18942818 -0.058596928 -0.13283604 -0.001703709 -0.13660796
0.036776002 0.13760497 0.057316814 0.07872056 0.088461496 0.02460115 0.019255817 -0.016855165
-0.012123496 -0.0347824 0.004237642 0.013209992 0.054015454 0.10488986 -0.02864264 -0.09812476
0.26322109 0.20611933 -0.10482293 0.06920992 -0.20652983 0.2079476 0.060594797 -0.021604933
-0.06848467 -0.02321389 0.2671963 -0.0023578743 -0.012632356 -0.15471432 0.013607576 0.34649456
-0.022561591 -0.11355922 -0.2331271 0.095974684 -0.018672956 0.035473067 0.07858125 0.31859076
-0.054821707 -0.37389746 -0.29557627 -0.11013795 -0.0063456027 -0.17889224 -0.22680552 -0.024977071
0.05697913 0.081258394 -0.35547796 -0.036496393 0.02640277 0.19537228 -0.071875475 -0.49019536
0.053586528 0.07645812 -0.12912267 0.075414784 0.022292241 0.040565908 0.0775572 0.2461031
0.089769825 -0.05439834 0.12460704 -0.010509909 -0.056082644 0.089137845 0.18077083 -0.14043447
-0.030438181 -0.26696706 -0.05067841 -0.40864953 -0.26404235 -0.38167015 -0.13622354 -0.19115475
-0.015581363 -0.042359084 0.06762714 0.0859234 0.018308798 -0.4274097 -0.0330171 -0.28160506
0.021536184 0.10005647 -0.042772457 0.046169046 -0.16007045 -0.25496307 -0.15012836 -0.060486108
-0.09296022 -0.3090637 0.11275505 0.11042474 0.2078984 -0.28455374 -0.39208522 -0.030869426
0.087812595 0.14460237 0.11812528 -0.26366147 -0.15605022 -0.10767591

conv1.0.bias f4 [6]
00000000: 37c4 84be b639 86be 70fb da3d 0be3 0fbe
00000010: 1c8b f8bd 83f8 113e
-0.2593095 -0.26215905 0.10692489 -0.14051454 -0.12135908 0.14254956

conv2.0.weight f4 [16, 6, 5, 5]
00000000: a901 9a3d e626 bb3d cdcb 123e da5f 083d
00000010: 124f 87bd a748 0abd f5c4 d23d 149f 373e
00000020: e7cb 1bbe 3b35 8fbe b5a7 8dbd 9cb7 c6bc
00000030: 9461 ca3d 4fae 8cbe 2e61 cbbe 0562 79bd
00000040: 2e3e 553d 8ead edbd b284 b4be e053 01be
00000050: 2318 91bb 300a ddbd 1d8a 5fbe 5c42 58bd
00000060: 55dc 23be 1343 863e 75dc 68bc ba24 28bd
00000070: a587 3bbd 84cc 34be cf4e 223e 77f1 c83d
00000080: 1e61 3a3c 1e15 42be 3188 40bd 4821 cc3d
00000090: ef53 5d3e 18fc a7bd 667a 42be e121 f83c
000000a0: 3654 143e 63e8 00be a4a5 43be 77b9 00be
000000b0: 361b 053d 73f2 61be 81bd 3fbe d2ad 89bc
000000c0: 20f0 6b3e 1ad4 cf3d c09b 0ebe 7026 23bb
000000d0: f488 cbbd 21c1 043e cee1 b6bd 54d3 55be
000000e0: f7fd 7cbe c275 80bd 1516 a63c 02f3 25be
000000f0: 0e25 20be 29a8 4cbe 66ea adba 769c 06bc
00000100: fa54 81be 2901 dabd b3c7 d6bd a42a 84bd
00000110: f0f3 e5bd 10d1 e6be 07ee 9ebd 30c2 e4bd
00000120: 3a0a 98bd ff06 21be 34aa 60be d687 273e
00000130: 65a0 8b3e e197 b0bd a5c6 92be cd2d 26be
00000140: 73ea 25bc e7cc 4a3e 9057 9bbb 9edd ebbc
00000150: 40b1 9fbb 3725 8e3b a37c 0c3e 1e9e 0b3d
00000160: 1bd3 84bd 77e8 263e a9c9 bdbd 090e 21be
00000170: 8c0a 2dbd 6640 a6bd 27ba 773e 1402 08be
00000180: 7709 aa3d 31c9 243d a549 babd 686a 083d
00000190: f602 003e 6013 463e 768a 86bd 3ffe abbe
000001a0: 6bbf 4fbe 4156 2a3e 724b 4abd 70dd 46be
000001b0: cf44 3ebe bd00 1abd 5b31 86bd a5b2 8bbe
000001c0: 010f 30be 0a58 3cbc a192 cf3d aa91 87bc
000001d0: 4742 a3be 03bb f33b c941 3e3e a17c 4bbd
000001e0: df39 88be 8d5b 01bd 808f 0d3e 85ed bc3c
000001f0: 7b39 38be 1454 b13e ef0f da38 600a aabd
00000200: 2da0 0f3e 6ea4 3c3d cc94 503e dab2 313e
00000210: 646c 6e3c eef8 5b3e 68a2 1b3e 7800 ba3d
00000220: f6ee 463d c67e 463e 9622 383c b3cc 783d
00000230: 1620 20bd bcef 543d 37cf e9bc 08fe 21bd
00000240: 9893 833b 79c5 8c3d f9b9 4f3d f0fd 22bc
00000250: 29ea 6e3c 14a5 283e 8d83 33be 2c35 00be
00000260: ba9a 62be eee1 08be e363 34be d449 3dbe
00000270: 8439 08be 7768 f33c 3cb4 0bbd 7065 acbd
00000280: 162d 1cbe db99 fbbd ea27 053c 9bc8 64be
00000290: 76cd 89be 9fc3 2bbe bf17 0fbc 574d 63be
000002a0: 3724 67be d4fa 4dbd c319 9abd 6d7b 063d
000002b0: a6f6 bdbd 5a5e e5bd bb23 aabd e39a 41be
000002c0: b36d e4bd 369f b43d 4147 383e bc5d b13c
000002d0: a9b3 0f3e 8b6d 013d fd95 333e 8419 653d
000002e0: 471a 543b e29f 4bbc 00a0 903d 55df c8bd
000002f0: 2376 4abe 6e64 30bd 1cb5 b1bb bb9e 8fbd
00000300: ff66 86be 40f3 04bd 68e4 dd3d b750 1fbb
00000310: 8972 3fbe f222 3bbe 4a78 e83d 2343 3a3e
00000320: e42e de3c a6ad 51bd ea7a 8a3c 1ccc 62be
00000330: d0fe 743c f112 c9bd 906a 2bbe 74d8 3cbe
00000340: 4aa7 c13d 327d 1ebd 19e2 c8be cb3d 44be
00000350: caf6 d9bd 8075 543d 3819 85be dada 6cbe
00000360: f424 6bbe a345 17be 6c47 b9bd 3473 a1be
00000370: 4ff7 1bbd d7fa 7bbd e09b 08be 5c8e 283d
00000380: a748 f8bd e78d 0e3d d221 463c ac8b 363e
00000390: 99e1 603e e00b 963c 58d7 8abc a22e de3e
000003a0: b7c9 773e f430 a33d c374 1bbc 5fe6 2a3e
000003b0: ea8c b83e a3c6 bdbd 28df c0bd a1c4 2bbe
000003c0: f710 2a3e 95c9 0b3d 0449 71bc 0ec7 ffbd
000003d0: a6a0 343d 6f69 403e 5a6d 1439 3d3a ffbd
000003e0: 6af8 8dbe ff56 65bc 2236 d83d e5ee 453e
000003f0: 87b2 823e 0c9e 953e 854c c83d a861 1c3d
0.07519848 0.09138279 0.14335556 0.033294536 -0.06606878 -0.033760693 0.10291473 0.17931777
-0.15214501 -0.279703 -0.06916753 -0.024257474 0.09881893 -0.27476737 -0.3972258 -0.060884494
0.052061252 -0.116053686 -0.35257488 -0.12629652 -0.004427926 -0.10792959 -0.2183003 -0.05279766
-0.16002019 0.2622305 -0.014212717 -0.04105065 -0.045783658 -0.17656142 0.15850376 0.09811681
0.011375694 -0.18953368 -0.047004882 0.099672854 0.2161405 -0.0820238 -0.18992004 0.030289592
0.14485249 -0.12588648 -0.19106156 -0.12570749 0.032496653 -0.22065143 -0.18724634 -0.016806517
0.23040819 0.10147877 -0.13926601 -0.0024894737 -0.09938231 0.12964298 -0.089297876 -0.20881397
-0.24706255 -0.062724605 0.020274201 -0.16205981 -0.15639135 -0.19986023 -0.0013268709 -0.008216014
-0.25260144 -0.106447525 -0.10487308 -0.064534456 -0.11228168 -0.45081377 -0.07760244 -0.11169851
-0.074238256 -0.15725325 -0.21939927 0.16360411 0.2727081 -0.086227186 -0.2866718 -0.16228409
-0.010126698 0.19804727 -0.004740663 -0.028792199 -0.004873425 0.0043379324 0.1371942 0.03408634
-0.06485578 0.16299616 -0.09266979 -0.1572801 -0.042246386 -0.08117752 0.24192105 -0.13282043
0.083025865 0.040230934 -0.09096078 0.033304602 0.1250113 0.19343328 -0.06569378 -0.33592412
-0.20287864 0.16634466 -0.049388357 -0.19420409 -0.18580936 -0.03759836 -0.065523826 -0.27284732
-0.17193224 -0.0114955995 0.10135389 -0.01654895 -0.31886503 0.007438065 0.18579783 -0.049679402
-0.26606652 -0.03158145 0.13824272 0.023062477 -0.17990677 0.3463446 0.00010398018 -0.0830276
0.14025946 0.04605525 0.20369262 0.17353383 0.0145522095 0.21481678 0.15198672 0.09082121
0.048567735 0.19384298 0.011238715 0.06074209 -0.0390931 0.05198644 -0.02854119 -0.039548904
0.0040153973 0.068736024 0.050714467 -0.009948239 0.014582195 0.16469222 -0.17530651 -0.12520283
-0.22129336 -0.13367435 -0.17616229 -0.18485194 -0.1330319 0.029712899 -0.03410743 -0.08417785
-0.15251574 -0.12285205 0.008127192 -0.2234215 -0.26914567 -0.16773842 -0.008733689 -0.22197472
-0.22572409 -0.050288036 -0.07524445 0.03283255 -0.0927556 -0.11199637 -0.08307596 -0.18906741
-0.11153736 0.088194296 0.17995931 0.021651141 0.14033379 0.03159861 0.17537685 0.055932537
0.0032364295 -0.012428256 0.070617676 -0.09808222 -0.19771628 -0.043064527 -0.0054232012 -0.07012697
-0.26250455 -0.032458544 0.10834581 -0.0024309584 -0.18696035 -0.1827505 0.11351068 0.18189673
0.027121969 -0.051190995 0.016904313 -0.22148174 0.01495333 -0.09818066 -0.16739869 -0.18441945
0.09455736 -0.038693614 -0.39235 -0.19164197 -0.106427744 0.05186987 -0.25995803 -0.2313036
-0.22963315 -0.14772658 -0.09046826 -0.31533206 -0.03807765 -0.061518516 -0.13340712 0.04115139
-0.12123232 0.034803297 0.012093024 0.17826718 0.21961059 0.01831621 -0.016948387 0.43394953
0.24198042 0.079683214 -0.009488287 0.16689442 0.3604501 -0.092664026 -0.09417564 -0.16774227
0.16608034 0.03412779 -0.014726881 -0.124891385 0.04409852 0.1879022 0.00014155117 -0.1246228
-0.27728587 -0.013997792 0.105572 0.19329412 0.2552683 0.29222143 0.0978022 0.03817907

conv2.0.bias f4 [16]
00000000: 4419 8bbe f8b3 9ebe 88d5 cfbe f448 e5be
00000010: 67ee 50bf 8014 31bf 245e 5ebe 4c2a b9be
00000020: 0efc 08bf 6544 29bf 6c3e a4bc 87e4 d1be
00000030: 0da1 d5be 351a 0abf 2f37 0fbf d9e4 3bbe
-0.27167714 -0.3099668 -0.405926 -0.4478222 -0.81613773 -0.69171906 -0.217156 -0.36165082
-0.53509605 -0.66119987 -0.020049296 -0.40994665 -0.41724434 -0.5394624 -0.5594358 -0.18349017

fc1.0.weight f4 [120, 400]
00000000: 905b 8f3d 6ee6 e2bd 72d6 f7bd 6838 1ebe
00000010: a85d 1cbd 384f 8cbd 13fc bdbd 91c4 0dbd
00000020: c526 63be e8b3 1f3e 68d5 2abe dbc6 3bbe
00000030: db48 96bd e700 c23c 3d0f 053e 4fd6 9a3d
00000040: 771a 69be 2640 1b3d a11c 763d 2b21 933e
00000050: b6e7 30be 0b07 88be 4843 0f3e 8a4e c93d
00000060: 014c 52bd dd97 8cbc 2b42 02be 7ce2 b53c
00000070: 40e8 92be 2cac 36be 3a8a b0bd bec9 773c
00000080: ced5 e13d c595 a0bd dcfe dcbd cb05 1bbe
00000090: d145 9a3d 094b ef3d 62b8 36bc ffe1 d73d
000000a0: 3f2b edbd 0af4 81be 6a63 eebb 2113 e2bd
000000b0: f89c 06bd 06d9 9cbd 4f12 b53d 513f 653c
000000c0: 0e66 213e aaec 183e 1c6b fabd 145c 9cbd
000000d0: 07dd 51be b52f 39be cf47 a3bd 36c0 843d
000000e0: 0c6c 753d 1936 e83d dd66 293d f670 833d
000000f0: eea9 6f3d a4cb 9abd 4603 42be 8435 82bd
00000100: 130b ac3d 7bc9 6fbd 9ad3 65be e5e4 04bd
00000110: 2ea9 d83d 2995 8e3e f354 1ebd b57d 11be
00000120: f0f7 fdbd 309d 2abd eca6 c13e 2f1c 823d
00000130: 20a9 f9bd bd57 f8bd e8d8 323e fa24 003d
00000140: e9aa ffbb bf7c dcbd 1a7d c7bd 8ecd 413e
00000150: 974d 1bbc 5462 943e 73a8 24bd 32a4 60be
00000160: 6f70 9abc 0c95 c5bd c070 973d ce5e c53e
00000170: a22d c1bb 653b bd3c 5762 15be 898e d73b
00000180: 25b9 3c3e b32d 8f3d 59ac 2e3c 0760 10be
00000190: 8449 c0bd ec16 b1bc b43a 48bd 1fb9 41bd
000001a0: a3ae e6bd 576e cb3d a4d8 2d3d 991c 273e
000001b0: f6db e5ba 1454 adbd 7a45 97be 6f41 53bd
000001c0: b136 b1bc 225a b8bd 6eda a1be 86bf cc3d
000001d0: 63f8 8abd 46d1 a7bd 95e4 68be 90a1 82be
000001e0: cfdd b33d 3d01 1f3e a3a9 7f3d 87e3 e23d
000001f0: b6f1 15be a84e 4cbb ef1d a2bd e5b0 12be
00000200: 601b 80bd fe2b 033d 2f30 98bd eeda ce3d
00000210: 8248 703d 9073 33bd a8c4 1dbe 38de 8f3d
00000220: d131 74bd 7dcc f3bb 522b 79bd 709c 68bc
00000230: 2d02 0cbe 2ea3 70be 7809 e63c 9837 abbd
00000240: 685b bfbe 4334 18be 877f 6d3e 3e2d 523e
00000250: 48eb cd3c c166 53be c204 84bb d83b 2abe
00000260: 96fb babe 2120 86be cf96 b6be f495 d93c
00000270: 0859 ddbd 61f9 38be 692a 9bbd f8dc 97bd
00000280: 95e0 ab3c 94e8 963d 160f 6e3c 390b 6ebc
00000290: f5dd 6dbd b4ca 723d 9436 be3d 7113 263d
000002a0: 3436 d23d 4bfb 72bc b943 23be 1c3f 013e
000002b0: ce90 75bc f026 ad3d 43b8 79bc deae 29bc
000002c0: 5fa5 f6bd 864f 59bd 5578 553e 1eb4 bc3d
000002d0: dc9e f73d cfd6 853d 3019 0e3e 82e4 373e
000002e0: 96f4 5a3d 2542 0dbe a17a 293e 9d8d 9c3d
000002f0: dff2 ea3d e9a2 2fbe 2833 8dbd 1f3a 063c
00000300: c5a4 82be 1eaf 30be fed4 183e 0d53 0dbd
00000310: 9dd8 4dbd 33ad de3b 807a 2c3e 91ce 123e
00000320: 2dbd ac3c ac97 25be 1e1b 74be 1f79 493b
00000330: 2183 5a3e 90ff 5fbd c052 bfbc 529e fdbd
00000340: 7f0e 0c3e e2be 973d c46f 9d3d eee0 133e
00000350: bd7a 9a3c d0df 873e 4deb cf3d 606a 843d
00000360: ac2e 7f3d 13e0 7cbd abde 2f3d 1c4d cb3d
00000370: b1a2 82be 9bcb 61be 4028 0ebe 7695 1b3e
00000380: 0e32 483e e8ac 61bc 59e2 16bd 3726 633e
00000390: 4e96 1e3e cd27 3f3e 0869 17be 93af 3c3d
000003a0: 2e2e 163e 7249 963d 4e68 a7bd 9d60 903e
000003b0: f732 5c3e e8ec 653c 34db 6a3d d8f3 1fbe
000003c0: 1d15 eb3d 26c9 5a3e 7740 f8bc 5721 b33d
000003d0: e3ee aabd a800 9bbd 441f 553d 598d 39bd
000003e0: e8cc 87bc c2bd 533e 0261 e53c 6277 e93a
000003f0: 1719 e13c 16ce 38bc 2831 6ebd 9eb8 3f3d
0.06999886 -0.11079107 -0.12101449 -0.15451205 -0.038175255 -0.06851047 -0.09276595 -0.03461129
-0.22182758 0.15595973 -0.1668297 -0.18337576 -0.07338115 0.02368207 0.12994094 0.07560407
-0.22764002 0.037902974 0.060085896 0.28736243 -0.1727589 -0.26567873 0.1399051 0.09829433
-0.051342014 -0.017162258 -0.12720554 0.022202723 -0.28692818 -0.17839116 -0.086201146 0.015123783
0.11027108 -0.07841066 -0.10790798 -0.15138929 0.07532848 0.11684234 -0.011152359 0.10541152
-0.11580514 -0.253815 -0.0072750347 -0.11038805 -0.03286454 -0.076585814 0.08841383 0.013992147
0.15761587 0.1493403 -0.12227461 -0.0763475 -0.20494471 -0.18084605 -0.07972681 0.06481974
0.059917495 0.11338443 0.041357864 0.0641803 0.058511667 -0.075583726 -0.18946561 -0.063578635
0.0840055 -0.058541756 -0.22444001 -0.032444853 0.105791435 0.27848175 -0.038655233 -0.1420811
-0.12400806 -0.041653812 0.37822664 0.06353032 -0.12190461 -0.1212611 0.17465556 0.031285264
-0.0078023565 -0.10765981 -0.09740658 0.18926069 -0.009478948 0.28981268 -0.04019971 -0.21937636
-0.01885244 -0.09647569 0.07394552 0.38548893 -0.0058953324 0.02309961 -0.14588295 0.006578271
0.18430002 0.06991138 0.010661208 -0.14099132 -0.09389022 -0.021617375 -0.04888411 -0.047295686
-0.11263778 0.09933155 0.042442933 0.16319503 -0.0017536867 -0.08463302 -0.29545194 -0.051576074
-0.021632524 -0.090015665 -0.3161196 0.09997468 -0.06785657 -0.081942126 -0.22743447 -0.25513887
0.08782541 0.15527816 0.062417638 0.11078554 -0.14642987 -0.0031174812 -0.07915866 -0.14325292
-0.06255221 0.032024376 -0.07431065 0.10100351 0.0586629 -0.04381138 -0.1540705 0.07024807
-0.05961782 -0.0074401484 -0.06083233 -0.014197454 -0.13672705 -0.23499748 0.028080687 -0.08360213
-0.37374425 -0.14863686 0.23193179 0.20525071 0.025136605 -0.20644666 -0.0040288875 -0.16624391
-0.3652007 -0.26196387 -0.35661933 0.026560761 -0.10807997 -0.1806388 -0.075764485 -0.07415193
0.020981112 0.073685795 0.014529964 -0.014529043 -0.058073003 0.059275344 0.09287754 0.040545885
0.10264245 -0.014830421 -0.15943803 0.1262173 -0.014988137 0.08454692 -0.015241685 -0.010356633
-0.12043261 -0.053054355 0.20846684 0.09214042 0.12090847 0.06535112 0.13876796 0.17958263
0.05345591 -0.13794763 0.16550685 0.07644198 0.11472105 -0.17151989 -0.06894523 0.008192568
-0.25516334 -0.17254302 0.14925 -0.03450303 -0.050255407 0.0067955493 0.16843605 0.14336611
0.0210863 -0.1617114 -0.2383847 0.003074236 0.21339084 -0.054687083 -0.023354888 -0.12383713
0.13677405 0.07409455 0.07687333 0.14441273 0.018857354 0.26537943 0.10152302 0.06465602
0.06230037 -0.06173713 0.042936962 0.09926817 -0.2551475 -0.22050326 -0.13882542 0.15193734
0.19550344 -0.013774134 -0.036836956 0.22182547 0.15487024 0.18667527 -0.1478616 0.046065878
0.14666054 0.07338227 -0.081741914 0.2819871 0.21503817 0.014033534 0.057337955 -0.15620363
0.114786364 0.21365795 -0.030304177 0.087465934 -0.08346345 -0.075684845 0.05203177 -0.045300815
-0.0165772 0.20677856 0.028000358 0.0017812068 0.027477784 -0.0112796035 -0.058152348 0.046806924

fc1.0.bias f4 [120]
00000000: 4250 3dbd 4e15 8b3a 27b6 22be fd76 c4bd
00000010: 112d 27be e431 dabc 2fe4 6fbe 61ff c53c
00000020: 8589 a13d 3bc8 15be 15e9 3dbc ae9a 30be
00000030: b62d 8fbd 18a6 2dbe e367 a3be 1364 963c
00000040: 431a 17be d1fd 433d b2e5 c5bd 5a90 d33c
00000050: c630 1e3e 09c8 d3bd f7b4 183d 9037 303d
00000060: d391 1bbd 09df 15bc 62d9 08be 9d75 683c
00000070: 73db 143e 891c 1a3c 14f2 cf3d e252 9ebe
00000080: b685 02be b4cb 8abc f0fc d83e 5676 bd3d
00000090: eaed 83be 06c9 c73c 857c 0dbe e4b5 a4bc
000000a0: 5eee 3f3e 457f f43d eeea aa3d f93c 47bd
000000b0: 8c7f 0abe 1869 003c 5f30 cf3d 7d8a 8bbe
000000c0: 8097 7bbe c614 2b3e 95c9 9cbc df8c d13d
000000d0: c00b 85be 054b 8b3e ce45 b5bd b999 87be
000000e0: 11f2 a03e b2b9 393e d0e4 41bd 333b 20bd
000000f0: cb1b eebd 272e 74bd 8043 143e e947 6bbd
00000100: a57a c23c e07f a83d 0c1d 81be 44dd e0bc
00000110: 2a1e 82be 3e37 2bbe 7fa2 033e e4d4 093e
00000120: 2d43 e63a 81e6 0ebe ff95 e7bd f48c 013d
00000130: 01ec 8dbe 2972 9d3e 40d6 0d3d 732a 01be
00000140: 7ad8 4abd a92c 8ebe f4fa 5abe b3ce 9a3e
00000150: febf 15be 6184 4dbe 039b 823e 38c0 0ebe
00000160: a8ab 1b3e 22ef 50bd dec5 2f3e 6bec 03be
00000170: b239 d23e f66a 283e 7374 0ebe cd21 5a3c
00000180: b878 b8bd d091 893d af02 93be 9765 2d3e
00000190: 3af5 853a 212a 49bd 5470 843d e2f6 2d3e
000001a0: 30cc 89be 3e20 3b3e 2bc7 0cbe 0c7a d0bd
000001b0: 245f 683b 832d 373e fe79 713c 536a 913c
000001c0: 9c48 523e d64e 1e3e 39c3 bcbd cfe2 41be
000001d0: 1c7e 533d 02f5 93bd a177 1f3e 4861 2d3e
-0.046219118 0.0010611208 -0.15889798 -0.09593008 -0.16325785 -0.026635118 -0.23426889 0.024169626
0.07887558 -0.14627163 -0.011591216 -0.17246506 -0.069911405 -0.16957891 -0.31915197 0.018358266
-0.14756112 0.04784948 -0.096629515 0.025825668 0.15448293 -0.10340888 0.037281957 0.04302174
-0.037980866 -0.009147414 -0.13364175 0.014188197 0.14536838 0.009406217 0.101535946 -0.3092261
-0.12746319 -0.016942836 0.42380476 0.092510864 -0.25767452 0.024387848 -0.13817032 -0.020106263
0.18743274 0.11938337 0.083455905 -0.048642132 -0.13525218 0.007837556 0.10116648 -0.27254096
-0.24569511 0.16707143 -0.01913909 0.10231947 -0.25985527 0.27205673 -0.08851205 -0.2648447
0.31434682 0.18137243 -0.047337353 -0.039118957 -0.11626395 -0.059614327 0.14478874 -0.057441626
0.023740122 0.08227515 -0.25217474 -0.027449258 -0.25413638 -0.16720292 0.12854956 0.13460118
0.0017567627 -0.13955118 -0.11307906 0.031628564 -0.2771912 0.3075116 0.034628153 -0.1261385
-0.049522854 -0.27768448 -0.21384794 0.30235824 -0.1462402 -0.2007003 0.2550889 -0.13940513
0.152022 -0.051009305 0.17165324 -0.12883155 0.41059643 0.16447052 -0.1391161 0.013313723
-0.090074 0.06717265 -0.28712985 0.16933285 0.0010220178 -0.049112443 0.064667374 0.1698871
-0.26913595 0.18274018 -0.13747852 -0.101795286 0.00354571 0.17888455 0.014738558 0.017750895
0.20535511 0.15459761 -0.09216923 -0.18934177 0.05163394 -0.07224466 0.15572979 0.16931641

fc2.0.weight f4 [84, 120]
00000000: 28f6 083e 4dc5 fdbc 8d45 67bd 2c1f 543d
00000010: e7e6 97be 2d3b 37bc 27aa 1dbd 2232 9c3e
00000020: d5b3 023e 6165 2cbc 5271 a83e c967 8d3c
00000030: b3e7 b9bd 6d43 ebbd 2ded aebd 6f61 633e
00000040: 231f 703e 2106 b23e 08e0 21be 8803 153e
00000050: 4cde dc3c 898b 0a3c cf52 c13d a06e 23bc
00000060: 3b23 643e c133 753d 11c4 f8bd 2c12 873e
00000070: af85 543e 61c9 71be 67da 55be e6c4 57bd
00000080: 7570 2bbd 1b2e 6bbe d542 ebbc a664 dd3c
00000090: 710d 1c3d b290 0b3d a86f cdbe 667b efbd
000000a0: b450 8bbd 4504 20be b5d6 4c3d dfb7 3fbe
000000b0: 7c0c 833d 518e c73d bcc5 f2bb ae39 333d
000000c0: 2c58 d13d 2a83 673d 83e1 e03d 00cb 8bbe
000000d0: 46aa de3d 6259 a2bd 4e70 823e a37b 80bd
000000e0: 62a8 403d 33b0 90bd 2a65 b93c 9ddf 3cbb
000000f0: 5285 d03c 4495 963d fb1e 7ebd c978 acbd
00000100: a361 57bc d744 773c deb3 5ebd a53f 17bc
00000110: 1b14 b8bd b9d2 c0bd 3ecf d43d d71c 123d
00000120: 4873 01be f246 143e 4954 13bc a5fb 033e
00000130: 4f8d b83c c2c8 05bd 115c 353d b4bc ecbb
00000140: 8b42 243e 32ef 80bd 595a 84bd 60a8 73bc
00000150: b800 5cbc 3643 6f3d 175a 1dbc 050d a0bd
00000160: f17e ec3c 916e 72bd e069 6b3e 2104 7abe
00000170: 11eb f23d 37a6 e7bd 36c8 6ebe 07f6 79be
00000180: 1ea9 2c3e 6364 27bd edea 8c3e 474c 223c
00000190: 78cb d7bd aa5e 55be 24b8 dd3d 8e5b 7ebe
000001a0: 0488 e03d 5ea8 2cbe 5965 3e3c 528a 3d3b
000001b0: 3091 033e 53ce 983d e885 b53d 0fa2 eabd
000001c0: a670 2c3e f4d7 d8bd d480 8ebe 6142 c4bd
000001d0: daa9 18bd 15ee d63c 24d9 943e 8b9c cd3d
000001e0: d85b 933d a681 413c 94b7 4b3e 5ebe 6f3d
000001f0: e728 0abe 2250 5ebc bc85 813e 85b1 933d
00000200: a5d9 17be 56fd b33d 591a 063e 1712 a43d
00000210: 78ee 0a3e e23e 843e a2ad 523e eb67 113d
00000220: 2623 d7bc 6763 083e 94aa 233d 181a c0bd
00000230: 8df6 20be 3794 3a3e e362 babd ca65 15be
00000240: 02fd 92bd 0f33 22bc 5616 093d 2277 bd3e
00000250: 27c6 563d 84f9 7abd d4c2 acbd e277 aa3c
00000260: 2eb3 7e3e ba18 5dbe 21b3 35be 2f6d 9a3d
00000270: fda9 b73c ac05 253e 7c40 a23d ea5e 3cbe
00000280: e350 c4bd eae3 ebbd 2cb4 e63c 0fef 953d
00000290: caa7 a7bd 8603 a13e 0832 fbbd 4aa8 62bd
000002a0: 8616 993e 34e3 09be 2d2e 0f3d 78fb f6bd
000002b0: 8b60 bebd b9b7 febd 5054 ffbc cab2 4e3e
000002c0: e975 823c 1fae da3d 2777 3e3d b784 513e
000002d0: a0f0 d23a 690c 2ebe c585 bebc aa7d 6b3e
000002e0: a38a ed3d 198e 24be 164b 543c a58a 46bd
000002f0: c4f1 fc3d 2cdb babd 2db8 9ebd 7378 673e
00000300: fa05 2e3d bd62 d53d 9979 ab3d 379c 773e
00000310: 9069 bb3d 8b1f 3bbe 2135 d0bc 528f 953d
00000320: 128a 523d 6f8f 983e 90f4 c53d 161e 78be
00000330: e2ed 933e c011 e03d a5be 2cbe 1f53 b53c
00000340: b5d2 17bd b73c 1ebd 269c e9bd 1217 b93d
00000350: b802 b0bd d4f7 9abe c9b0 29be 85b9 95bd
00000360: f88e cebc 4a6e 23be 3cec 243d cb2d 70be
00000370: 010f 35bc 3247 27be 6b80 e73b 00a4 acbc
00000380: 5ba6 4f3e aeaa 69be 2600 61bc c2a8 36bc
00000390: 03a6 95bd 7484 fabd 63d1 073e b438 88be
000003a0: b6ea b63d 5480 56be 53cb 3f3d 7af3 023e
000003b0: 67e6 2cbe cecd 3d3e c013 f1ba 6c14 103e
000003c0: 0134 483e ed23 843d dd66 3a3d 9aaf 4d3e
000003d0: e274 ed3d e372 69be 7091 d53d 2312 943d
000003e0: 5d44 c63d 9115 b6bc 9bf9 c4bb 6326 8fbd
000003f0: ac65 9a3d 4c4b 883d e1ed 03be 5897 90bd
0.13375151 -0.03097787 -0.056462813 0.05178754 -0.29668352 -0.011183542 -0.038492348 0.30506998
0.12763913 -0.0105222175 0.32898957 0.017261403 -0.09077396 -0.1148747 -0.085413314 0.22205137
0.23449378 0.347703 -0.15808117 0.14552128 0.026961468 0.008456119 0.094396226 -0.0099751055
0.22279064 0.05986381 -0.12146772 0.26381052 0.20754121 -0.23611976 -0.20884095 -0.05267801
-0.041855294 -0.22966807 -0.028718391 0.027025532 0.038098756 0.03407354 -0.4012425 -0.11693458
-0.06802502 -0.15626629 0.050009448 -0.18722485 0.063988656 0.097439416 -0.0074088257 0.04375618
0.102218956 0.056521572 0.10980513 -0.27303314 0.10872321 -0.07927205 0.25476307 -0.06273582
0.047035582 -0.07064857 0.022631247 -0.0028819807 0.025454197 0.07352689 -0.062041264 -0.084214754
-0.013145837 0.015092096 -0.054370753 -0.009231483 -0.0898821 -0.09415192 0.10391091 0.035672035
-0.12641633 0.14480188 -0.008992263 0.12888964 0.022528319 -0.03266216 0.044277254 -0.0072246436
0.16041009 -0.06295623 -0.06462545 -0.014871687 -0.013427906 0.058413707 -0.009603999 -0.07814983
0.028869124 -0.059187476 0.22989607 -0.24415638 0.118612416 -0.11311 -0.23318562 -0.24410258
0.16861388 -0.04086722 0.27522984 0.009905881 -0.105368555 -0.20836893 0.10826138 -0.24839613
0.10963443 -0.16861102 0.011620843 0.0028921557 0.12848353 0.07461228 0.08863431 -0.114566915
0.16839847 -0.10588065 -0.27832663 -0.09582973 -0.037271358 0.026236573 0.29071915 0.10039624
0.07195252 0.011810696 0.19894248 0.058531158 -0.13492166 -0.01356891 0.25297344 0.072115935
-0.14829119 0.08788554 0.13095988 0.08011263 0.13567531 0.25829226 0.20574048 0.035499495
-0.026261877 0.13319169 0.039957598 -0.09379977 -0.15719052 0.18220602 -0.091008924 -0.1458961
-0.07177164 -0.009899869 0.033468567 0.37004954 0.052435067 -0.061273113 -0.08435598 0.020809118
0.24873039 -0.21591464 -0.17744114 0.07540356 0.022419924 0.16115445 0.07922456 -0.18395582
-0.095857404 -0.115180805 0.028162085 0.073209874 -0.081863 0.31448 -0.12265402 -0.055336274
0.29899997 -0.13465577 0.034956146 -0.120596826 -0.09295758 -0.12437386 -0.031168133 0.2018539
0.015925365 0.10677742 0.04650035 0.20460783 0.001609344 -0.16996922 -0.023257146 0.22997156
0.115987085 -0.16069831 0.012957355 -0.048472065 0.12350801 -0.09123835 -0.077499725 0.22604541
0.04248617 0.104192235 0.08372802 0.24180685 0.09150994 -0.18273751 -0.025415959 0.07302727
0.051401205 0.2979693 0.09665787 -0.24230227 0.28892428 0.109408855 -0.168696 0.022134362
-0.03706618 -0.03863212 -0.11406736 0.090376034 -0.085942686 -0.30267203 -0.16571344 -0.07310776
-0.025214657 -0.1596004 0.040264353 -0.23454969 -0.0110509405 -0.16335753 0.007064869 -0.021074295
0.20278303 -0.22819015 -0.013732946 -0.011148633 -0.07307055 -0.12232295 0.13263468 -0.2660576
0.08931486 -0.20947391 0.046824764 0.12788191 -0.16884767 0.1853554 -0.0018392727 0.1407029
0.19551088 0.06452165 0.045508254 0.20086518 0.11594559 -0.22797732 0.104281306 0.07230022
0.09681008 -0.02222708 -0.0060112006 -0.069897436 0.075389236 0.06654987 -0.12883712 -0.070601165

fc2.0.bias f4 [84]
00000000: d15f 07be 04b7 96be bf25 52be b7d0 393d
00000010: f509 d9bd 3497 42be 2ab8 e23d 2fcc 123c
00000020: 0fa7 22bd 38a4 e7bd c04f b33e 25ca 29bd
00000030: 2bb5 913c def2 da3e c2f1 c5bd 0b6d 3b3c
00000040: c661 bfbd faf8 14be 3e54 3abe ad80 c23d
00000050: bdea 6ebc 172a 4b3e a409 1b3e dfa2 423e
00000060: 1153 9ebc 7ee1 9d3e 43d0 833d 70de bc3d
00000070: acf2 043c 0833 2f3d 26fd 883e 64c8 9b3d
00000080: e1d3 c03c a453 313e c230 0abe be89 e4bd
00000090: 4bcc 12be 2b21 4dbe c7d1 99be 0753 9a3d
000000a0: 57ec e63b 1765 963e 4305 7abe 2727 3d3e
000000b0: 3c6d 4abd d989 753e 8d43 303d fedd 363e
000000c0: a2b3 2bbe 20c0 f9bd 68f8 91bc edcf 533e
000000d0: bbf2 4e3d f387 a5bc 87e1 30bc 43bc af3c
000000e0: 71fc afbd 520f 483e 664d 32be 7227 19be
000000f0: 99f0 433e 8cb5 04be 3f3f a63e 7e8c e53d
00000100: d9b3 bf3d 7b5d c23d ad3b 1a3e 1325 063d
00000110: d1ac 503d 8544 333e e9aa b5bd 50f5 84bc
00000120: 8826 cbbe 15b7 a9bd 43f3 87be 7dd6 efbd
00000130: 2eaa 073f e3f0 08bd 9040 343e b2d3 d63d
00000140: 98f2 b8be c804 62be d517 b93d 8209 79be
-0.13220145 -0.29436505 -0.20522211 0.04536506 -0.10597602 -0.19002992 0.11070283 0.008959814
-0.0397101 -0.11310619 0.35021782 -0.041452546 0.017786583 0.42763418 -0.09665252 0.011439572
-0.09344821 -0.14548102 -0.18196198 0.09497199 -0.014582333 0.19840275 0.15140396 0.19007443
-0.019326719 0.308361 0.06436207 0.09222114 0.008114498 0.042773277 0.26755637 0.07606581
0.023538532 0.17317063 -0.13495162 -0.11159085 -0.14335744 -0.20032184 -0.3004286 0.075353675
0.007047217 0.29374 -0.2441607 0.18471967 -0.04942058 0.23978366 0.04303317 0.17858121
-0.16767743 -0.12194848 -0.017818645 0.20684786 0.050524455 -0.020206427 -0.010795957 0.021452075
-0.08593071 0.19537094 -0.17412338 -0.14956453 0.1913475 -0.1295988 0.32470128 0.112084374
0.09360475 0.09490486 0.15061827 0.0327502 0.05094606 0.17506607 -0.08870489 -0.016230255
-0.39677835 -0.08286873 -0.2655278 -0.11710832 0.5299405 -0.033432852 0.17602754 0.104895964
-0.36122584 -0.22072136 0.09037749 -0.24320033

fc3.0.weight f4 [10, 84]
00000000: 9356 f5bd 2c91 f03d b3d7 2fbe a8c7 04bd
00000010: e117 b73d 5e11 a63e f775 d6bb 03d4 28be
00000020: 9855 9fbd 940c 823a c818 0a3e 69d3 3abe
00000030: aedd 71bd de27 6fbe bf55 d33d 8e83 b13d
00000040: 89b3 23be a890 683e d44f a93d 6d79 a8be
00000050: 54e5 6bbe 779d 383e c97e 203e cbfc 9b3d
00000060: 90a2 1a3e 23fd 73be f93d 29be f7b2 5c3e
00000070: 6698 113e 8793 3c3e 813c 6c3d 201f 6038
00000080: 39c4 24be ab67 8dbe 1bc3 ad3e b71e b13e
00000090: cdab ccbd 020e 08bd 29f7 633e cd04 c43d
000000a0: 7d0e 15be 646c e4bd ba51 50be 04d6 7dbe
000000b0: 5757 01be 5f20 84be 8391 3dbe 1a76 e73d
000000c0: c099 b6bd 299a e03d b2e3 44bd 5dcb 4a3e
000000d0: cc1b 3b3e 2e63 303e ab5c 3f3e dd97 9e3d
000000e0: 5b5a ae3e 939c e5bd b1c6 e7bd 0d81 c73d
000000f0: d20a 65be 88fe 70bc 9492 c63d 4cd2 81bc
00000100: 8f2e 823d 99af 5c3e f471 033e 8c7c b23d
00000110: 0ec2 093e f963 bebd 76f1 893e c2eb 393e
00000120: 1f0a 363b ed25 c43d f7b6 a43d 75c7 8d3d
00000130: 7de3 18bb 9b09 b93c 8214 0f3e 65eb 6c3e
00000140: 477b 7ebe dd81 d13d 3176 59be 17ea 0e3e
00000150: 5ef8 97bd 96bc 5cbe 27fb fdbd a185 663e
00000160: 91ae 08be 8843 4dbe ec17 5e3d 3d88 88bd
00000170: c7e1 3e3e 0b96 8bbe 4f08 c43e b1ca 8f3d
00000180: 71ef e4bd 8e17 143e 3cd5 97be 2701 a9bc
00000190: 8959 aabe 4226 0cbe c2f8 ddbd 3fc6 4dbe
000001a0: 1b46 c9bd 20e1 78be d37c 403e 4cce ff3d
000001b0: fdd3 b63d 3ed8 4fbe e3a6 603e d146 1e3e
000001c0: 6dda 38be 57cf 16be 4d20 813e 385d 013e
000001d0: 4b22 6bbe 51d3 ac3d aed3 633d a7d0 913e
000001e0: 3850 6a3c 651d d6bc 5849 ec3d c45c 31be
000001f0: 0316 153e 8a1a 433e fa0a 213e e0eb 963e
00000200: a7be cdbd 57dc d33d 017e 80be f5c1 6c3e
00000210: 95da f6bd 3693 ba3d c54d 17be 8fe6 b33d
00000220: 833c 2abe f54a 423d 6776 17be 35c1 e7bd
00000230: 1f17 09bd 3112 803d 094d 4dbd 1cea a93d
00000240: ef80 2cbe 563a 83bd e1e0 47be 9b1f b93d
00000250: 6ce2 6cbd 4785 1bbe 96ca cf3d 4a4b 0dbd
00000260: c94d a8bd a9b8 97bd 8a73 75be 3f61 81be
00000270: df77 12be d56c 593e 7e8e 13be 7bce a4be
00000280: 5463 283e fb08 963e 22b2 383e 5b01 54bd
00000290: 2efe 91bc 81f4 16be 5579 653e a9df 6a3d
000002a0: 7cbe 0b3e 9c45 33be e5bb 42be 28e2 6fbd
000002b0: ba02 afbd 7611 82bc 6e47 4a3e 9723 f4bd
000002c0: 1699 d43d d260 2bbe ae93 e5bd 1d8f 51be
000002d0: 5827 3dbe ffa4 e1ba a412 123e 0ddb 013e
000002e0: 756e 8fbd 6b84 7e3e 0ac5 c5bd 604b 613e
000002f0: 471f 343e db67 643e 5626 9d3c 5cda 3bbe
00000300: a8f0 12be 2ff9 3abd a909 e5bd ee11 14be
00000310: 1f7d dcbb 86f2 813e 2a5a 13be f664 57bd
00000320: 64a9 fbbd 3111 973c b3ce f8bd 12bf debd
00000330: 08fe 8dbd e3a5 9fbe 9a7d b8bd 762b ecbd
00000340: 2b0b 5abd c543 61be 3f80 23be 7a21 c93c
00000350: 01db b1bc 0d7f 4c3e 7fdc 91bd dffc e6bc
00000360: d77c 6fbe 18e1 42be 9ed9 3dbd de34 1e3e
00000370: 534c db3d 7f7c 923d 0790 f4bd a895 833e
00000380: 6356 483e 7ad1 9c3d b428 453c 0aa6 1f3e
00000390: db12 813e 1cef 853d 5884 75be 2d36 043e
000003a0: d2dc 59be 44cf d7bd 4921 2dbe 35df 173e
000003b0: ab81 e73d fbc9 4e3e 00ed e53d 6687 5dbd
000003c0: 4f86 11be 00d6 8fbd 77df 2abe 1da9 6bbe
000003d0: b5c7 6a3e e1e0 773e 8721 d6bd 8125 c2bd
000003e0: dc86 6cbe 8ae1 8cbc 5671 2fbe f0c0 4d3e
000003f0: e59f 613e 74e9 b23d 10a7 123e ecb6 16be
-0.11979403 0.11746439 -0.17172126 -0.03241697 0.089401014 0.32435125 -0.006544824 -0.16487126
-0.077799976 0.0009921961 0.13486016 -0.18244709 -0.0590493 -0.23355052 0.10319089 0.0866767
-0.15986456 0.22711432 0.08267179 -0.3290514 -0.230367 0.18028818 0.15673365 0.07616576
0.15101075 -0.23827033 -0.16527547 0.21552645 0.14218292 0.18415652 0.05767489 5.343475e-05
-0.16090478 -0.27618155 0.33937916 0.34593746 -0.09993706 -0.033216484 0.22262253 0.09571228
-0.14556308 -0.11153486 -0.20343676 -0.24788672 -0.12630974 -0.25805947 -0.1851254 0.11301823
-0.08916044 0.10966904 -0.04806871 0.1980414 0.18272322 0.17225334 0.18687694 0.07743809
0.3405331 -0.11211505 -0.11317194 0.09741411 -0.22367409 -0.0147091225 0.09695926 -0.015847348
0.063565366 0.2155136 0.12836438 0.08715162 0.13452932 -0.09296412 0.26942033 0.1815634
0.0027777029 0.09577546 0.0804271 0.06922809 -0.0023328953 0.022587588 0.13972667 0.23136671
-0.24851714 0.102298476 -0.21236493 0.13956486 -0.07420419 -0.21556315 -0.12401419 0.22511913
-0.13347842 -0.20045292 0.054222032 -0.066666104 0.18640815 -0.2726291 0.3828759 0.07021082
-0.11178482 0.1446211 -0.29654872 -0.020630432 -0.33271435 -0.13686469 -0.108384624 -0.20095156
-0.09827825 -0.24304628 0.18797617 0.1249052 0.08927152 -0.20297334 0.21938662 0.15456702
-0.18052073 -0.14727531 0.25219956 0.12633216 -0.229623 0.08438743 0.055621795 0.28479502
0.014301352 -0.026137063 0.11537427 -0.17320544 0.14559178 0.19053093 0.15726843 0.29476833
-0.1004613 0.10344761 -0.25096133 0.23120864 -0.1205341 0.091101095 -0.1477576 0.0878421
-0.16624646 0.047434766 -0.1479126 -0.11316148 -0.033469316 0.0625347 -0.050122295 0.08296606
-0.1684606 -0.06407611 -0.19519378 0.090392314 -0.05783312 -0.1518756 0.10146062 -0.03449563
-0.08217961 -0.07408268 -0.23969856 -0.25269505 -0.1430354 0.21232922 -0.14409825 -0.32188782
0.1644414 0.29303727 0.18036702 -0.051759105 -0.017821398 -0.14741708 0.22409566 0.057342205
0.13646883 -0.17507023 -0.19016989 -0.05856529 -0.08545442 -0.015877467 0.19753811 -0.11920851
0.10380761 -0.16736153 -0.11209808 -0.2046475 -0.1847204 -0.001721531 0.14264923 0.12681217
-0.0700349 0.24855201 -0.09656723 0.2200141 0.17590056 0.22305243 0.019183319 -0.18345016
-0.14349616 -0.045647796 -0.11183483 -0.14459965 -0.006728783 0.25380343 -0.14389864 -0.05258652
-0.12288168 0.018440815 -0.121488 -0.108762875 -0.06933218 -0.3118125 -0.090083316 -0.11531727
-0.053233307 -0.21998508 -0.15966891 0.024552096 -0.021710875 0.19970341 -0.071221344 -0.02819675
-0.23387466 -0.19031179 -0.046350114 0.15449855 0.10707917 0.07152652 -0.119415335 0.25700116
0.19564204 0.07657142 0.01203363 0.15590683 0.25209698 0.06539747 -0.23976266 0.12911291
-0.21275643 -0.1053758 -0.16907229 0.1483124 0.11304029 0.20194237 0.11226845 -0.054084204
-0.14211391 -0.07023239 -0.16686808 -0.2301373 0.22927745 0.24206878 -0.104556136 -0.094798096
-0.2309832 -0.01719739 -0.17133078 0.20093131 0.22033651 0.08735934 0.14321542 -0.14718217

fc3.0.bias f4 [10]
00000000: 5a58 b7be 06df 353d 66f4 0d3e 9edb a7be
00000010: 37d4 3ebd 8944 b43d a2a4 b6be 1869 613d
00000020: 57f7 8f3e 8287 5b3b
-0.35809594 0.044402145 0.13862762 -0.32784742 -0.046589103 0.088021345 -0.3567248 0.055031866
0.28118393 0.0033497517
