save_checkpoints/LeNet5_epoch_78.pth (torch, 249863 bytes, 10 tensors)

conv1.0.weight f4 [6, 1, 5, 5]
0	0xbbcd9505	-0.006273868
1	0xbcc7bd37	-0.024382217
2	0xbd95c67f	-0.07313251
3	0xbc99c92a	-0.01877268
4	0xbd3ce915	-0.04612072
5	0x3d066cd4	0.03281863
6	0xbddfbc2d	-0.109245636
7	0x3b8d9280	0.0043204427
8	0x3d9a96a8	0.07548267
9	0xbe28551a	-0.16438714
10	0x3e10d0a6	0.14142093
11	0xbd9e5ef8	-0.077329576
12	0xbdaa60f5	-0.08319274
13	0xbdd9f519	-0.10642452
14	0x3e952a62	0.29133898
15	0x3eb09748	0.34490418
16	0x3e899940	0.26874733
17	0x3efa79db	0.48921093
18	0x3e284bca	0.16435161
19	0xb9ebc0da	-0.00044966378
20	0xbe8e2b5e	-0.27767462
21	0xbdb4206b	-0.08795246
22	0xbe958eee	-0.2921061
23	0xbdb8456e	-0.08997618
24	0xbd4917ca	-0.049094953
25	0xbd8dd36d	-0.06925092
26	0xbd17c7d5	-0.03705581
27	0xbd97c2a1	-0.074101694
28	0xbe0eed9d	-0.1395783
29	0x3e2d3144	0.16913325
30	0x3b13df5e	0.0022563557
31	0xbce8660a	-0.028368969
32	0x3e1e4d95	0.15459283
33	0x3ec0c98e	0.37653774
34	0x3e03a28a	0.12854972
35	0x3d228e0c	0.039686248
36	0x3e38d7de	0.18051097
37	0x3dd133a8	0.10214931
38	0x3d33be5a	0.043882705
39	0x3d59eec5	0.053206224
40	0xbed39ce9	-0.4133065
41	0x3d925362	0.0714481
42	0x3e8002c4	0.2500211
43	0xbcc42331	-0.023942562
44	0xbe8dbe34	-0.27684176
45	0xbe941184	-0.28919613
46	0x3e1e3d93	0.15453176
47	0xbe02d4d1	-0.12776496
48	0x3d812024	0.063049585
49	0xbe1b29f9	-0.1515273
50	0xbbb51140	-0.005525738
51	0x3d0a37b9	0.033744548
52	0x3e24c14e	0.16089365
53	0x3d5f7c81	0.054562096
54	0xbc2e8c51	-0.010653571
55	0x3dba75ee	0.091045246
56	0xbcceb364	-0.025232024
57	0x3c49520d	0.012287629
58	0x3d57f71d	0.0527259
59	0x3de850c0	0.11343527
60	0x3e3cf564	0.18452984
61	0x3e7c3b1a	0.2463192
62	0xbd69704e	-0.056991868
63	0x3d907c2b	0.07054933
64	0xbd3c8114	-0.046021536
65	0xbe294f2a	-0.16534105
66	0xbeccb244	-0.39979756
67	0xbe4db16a	-0.2008721
68	0xbe803c70	-0.2504611
69	0x3e6f1ebd	0.2335157
70	0xbefc1bb3	-0.49239883
71	0xbde0106f	-0.109406345
72	0xbda53ad6	-0.08067863
73	0xbe38c0db	-0.18042319
74	0xbeb0cca2	-0.34531122
75	0xbd1b62b2	-0.03793592
76	0x3d0add2b	0.03390233
77	0xbe123f61	-0.1428199
78	0x3c35b13c	0.011089619
79	0xbeb2192b	-0.34784827
80	0xbd2da3a6	-0.042392395
81	0xbde665ec	-0.11249909
82	0xbd279d22	-0.040921338
83	0xbd8c41fc	-0.06848523
84	0xbe88c5e7	-0.26713488
85	0xbd473d79	-0.04864261
86	0xbdaab0f6	-0.08334534
87	0xbe1ad54e	-0.15120432
88	0x3dd4edeb	0.10396942
89	0xbe7164e3	-0.23573641
90	0x3e2257bd	0.15853782
91	0x3e095b3b	0.13413708
92	0x3e859901	0.26093295
93	0xbd8d18f2	-0.068895236
94	0x3e9f3c80	0.31100845
95	0x3d777437	0.060413565
96	0x3e43db53	0.19126634
97	0x3e597b4b	0.21238439
98	0x3ba9ab55	0.005177895
99	0xbd549d7b	-0.051907998
100	0xbd0457da	-0.032310344
101	0x3d8dadba	0.06917901
102	0x3dac5ea5	0.084164895
103	0x3e2c98c6	0.16855153
104	0xbe976f7b	-0.2957724
105	0xbd4f4a76	-0.05060812
106	0x3e0917b4	0.13387948
107	0x3e8f2a99	0.27962187
108	0x3db1209d	0.086487986
109	0x3da6bbd4	0.08141294
110	0xbe7cc219	-0.24683417
111	0x3ea0bc59	0.31393698
112	0x3e003fde	0.12524363
113	0xbdfb05a9	-0.12256939
114	0x3d99155a	0.074747756
115	0x3c521317	0.012821934
116	0x3e881001	0.2657471
117	0xbd9807a0	-0.07423329
118	0xbdeb948a	-0.11502941
119	0xbd60bde1	-0.054868583
120	0x3d6ccc3d	0.057811964
121	0x3c778f27	0.015109814
122	0x3db407c4	0.08790544
123	0xbdb46f5d	-0.08810303
124	0xbe9b3e07	-0.3032076
125	0x3df02666	0.11726074
126	0x3e107c57	0.14109932
127	0xbd2554be	-0.04036402
128	0x3e058f20	0.13042879
129	0xbbef2a42	-0.0072987387
130	0xbd207bd1	-0.03918058
131	0xbc4e4f21	-0.012592108
132	0x3e4a8485	0.19777115
133	0x3d06c160	0.03289926
134	0xbc8aaf28	-0.016929224
135	0x3ca4c8cb	0.020115277
136	0x3dcf6170	0.101260066
137	0x3bafa69d	0.005360438
138	0xbda0b334	-0.0784668
139	0xbe473b7f	-0.1945629
140	0x3a518f84	0.0007994103
141	0xbda44626	-0.08021192
142	0xbd05bf7a	-0.03265331
143	0xbeecf584	-0.46281064
144	0xbe801599	-0.25016478
145	0xbd49e5c9	-0.049291406
146	0xbcfcd6d3	-0.030864155
147	0xbeb52cc8	-0.35385728
148	0xbe3c1f10	-0.18371224
149	0x3e3af9c0	0.18259335

conv1.0.bias f4 [6]
0	0xbcc4945e	-0.023996528
1	0xbdb49f92	-0.08819498
2	0xbc45d9e4	-0.012075875
3	0xbc6a6c16	-0.014307996
4	0xbead64a3	-0.33865842
5	0xbe678604	-0.22609717

conv2.0.weight f4 [16, 6, 5, 5]
0	0x3db84905	0.08998302
1	0xba02611f	-0.00049735786
2	0x3c06fe83	0.008239391
3	0xbdc0ea97	-0.094197445
4	0xbe05d6cf	-0.13070224
5	0xbcd87051	-0.026420744
6	0x3d828093	0.0637218
7	0x3da0f33c	0.07858893
8	0xbd74a55f	-0.059728023
9	0xbe0a70db	-0.13519613
10	0xbdba778b	-0.09104832
11	0xbd9cda12	-0.07658781
12	0xbd16301c	-0.036666974
13	0xbd036fba	-0.032088973
14	0xbd9bb0da	-0.07602091
15	0xbd814634	-0.06312218
16	0xbe0976e6	-0.13424262
17	0xbcfccc8a	-0.03085925
18	0x3ab87fdb	0.001407619
19	0xbe0c0076	-0.13672051
20	0x3d5be028	0.05368057
21	0xbd999717	-0.07499521
22	0xbd6221be	-0.05520796
23	0xbd5d53e0	-0.054035068
24	0xbdcce9ab	-0.10005506
25	0xbd5ab214	-0.053392485
26	0xbe0b6792	-0.13613728
27	0xbe54b6fc	-0.20772928
28	0xbe06015b	-0.13086455
29	0xbd94cd0e	-0.072656736
30	0x3d270846	0.040779375
31	0x3dd85c6e	0.105645046
32	0x3c41309a	0.011791373
33	0xbd38ff59	-0.045165394
34	0xbd0d2302	-0.034457214
35	0x3d1e024f	0.03857642
36	0x3df8425f	0.12122034
37	0x3dc9ba7f	0.098500244
38	0x3c54633e	0.012963114
39	0xbdba70db	-0.09103557
40	0xbdf13279	-0.11777205
41	0xbcd23f63	-0.02566499
42	0x3bdaf05c	0.006681485
43	0x3b6a0407	0.0035707967
44	0x3cbe1ecb	0.023208043
45	0xbd046f10	-0.03233248
46	0xbcd4a2a6	-0.025956463
47	0xbbfc4574	-0.007698709
48	0xbd2b072d	-0.04175489
49	0xbc3c5ef6	-0.01149725
50	0x3d1673f4	0.036731675
51	0xbda525b3	-0.08063831
52	0xbe1897bd	-0.14901634
53	0xbd8035ae	-0.062602386
54	0x3e0147f7	0.12625109
55	0x3ddcd8c7	0.107835345
56	0x3cb7d4e8	0.022440389
57	0xbe1c53bd	-0.15266319
58	0xbe85b839	-0.26117113
59	0xbe0a414a	-0.13501468
60	0x3df76a3b	0.12080809
61	0x3e5abd0c	0.21361178
62	0x3d9e3b73	0.07726183
63	0xbdc19122	-0.0945151
64	0xbdd63e72	-0.10461129
65	0xbe0550c3	-0.1301909
66	0xbc6492ef	-0.013951047
67	0x3c6eb92b	0.014570515
68	0x3ce36788	0.027759328
69	0x3d34fcd5	0.044186432
70	0xbdb37d3b	-0.0876412
71	0xbc02c9e6	-0.007982707
72	0x3c1b50c9	0.00947971
73	0x3c400354	0.0117195435
74	0x3d3ac472	0.0455975
75	0x3cc5083e	0.024051782
76	0x3d8ceb57	0.06880825
77	0x3de9c2e5	0.11414126
78	0x3d663103	0.056199085
79	0xbdb03231	-0.08603323
80	0xbddcd994	-0.10783687
81	0xbd41b4c0	-0.047291517
82	0x3daae61d	0.08344672
83	0x3e1a54b7	0.15071379
84	0x3d910b62	0.07082249
85	0xbde51d47	-0.11187225
86	0xbe4632d4	-0.19355327
87	0xbd6ea4ef	-0.05826276
88	0xbd2507e3	-0.040290724
89	0x3c786502	0.015160801
90	0x3d5d1213	0.053972315
91	0xbdc501e8	-0.09619504
92	0xbce8b241	-0.02840531
93	0xbc8046fa	-0.015658844
94	0xbdb8af98	-0.09017867
95	0x3d26341a	0.04057703
96	0xbc8fa438	-0.01753436
97	0xbe094d23	-0.13408332
98	0xbda4f695	-0.08054844
99	0xbd1398e9	-0.0360345
100	0x3c26b7cb	0.010175656
101	0x3d43f41b	0.04784022
102	0x3caf25a0	0.021380246
103	0x3ca327a9	0.019916372
104	0xbc55f7eb	-0.0130595965
105	0x3c79f083	0.015255096
106	0x3df20a43	0.118183635
107	0x3d0905c8	0.03345278
108	0x3ddfa450	0.10920012
109	0xbd81c1cf	-0.06335794
110	0x3d06238a	0.032748736
111	0x3c833018	0.016014144
112	0x3d096a79	0.033548806
113	0x3d78ca51	0.06073982
114	0x3cbdb0c1	0.023155572
115	0xbd153c73	-0.036434602
116	0xbdaf0ac9	-0.08546979
117	0xbe1faf3f	-0.15594195
118	0xbd4957a7	-0.049155857
119	0xbb982803	-0.0046434416
120	0xbdafec75	-0.085900225
121	0xbd9fb9d6	-0.07799117
122	0xbd8bb807	-0.0682221
123	0xbdfa90a1	-0.12234617
124	0xbdde9d68	-0.108698666
125	0xbe09a468	-0.13441622
126	0xbe3cce06	-0.18437967
127	0xbd94d5ab	-0.072673164
128	0xbc26a401	-0.0101709375
129	0x3d9a035e	0.075201735
130	0xbdcdd95b	-0.10051223
131	0xbea5bc63	-0.3237029
132	0xbeba0073	-0.36328468
133	0xbe8044cb	-0.25052485
134	0xbe23909d	-0.15973134
135	0x3d55f428	0.0522348
136	0xbb8c9da7	-0.0042912546
137	0xbdfec2d9	-0.12439508
138	0xbe516fde	-0.2045283
139	0xbe169cea	-0.14708295
140	0x3d5107e9	0.051032934
141	0x3d194fd9	0.037429664
142	0x3beec95f	0.007287189
143	0xbca64a72	-0.02029917
144	0xbce59dec	-0.028029405
145	0x3cf9f6b2	0.030513141
146	0x3db890a5	0.09011964
147	0x3d63ecde	0.055645816
148	0x3d54c65a	0.051946975
149	0x3bbd2a7e	0.0057728877
150	0xbdb141b1	-0.08655108
151	0xbbc66920	-0.0060550123
152	0xbe2b929a	-0.16755143
153	0xbd75228f	-0.05984741
154	0xbe39dd3b	-0.18150799
155	0x3d0676e9	0.032828245
156	0xbc881456	-0.01661126
157	0xbdc4ca41	-0.09608889
158	0xbeaf1884	-0.3419839
159	0xbe8e0285	-0.27736297
160	0x3d6249c0	0.055246115
161	0x3a598dc6	0.0008299019
162	0xbdee46fc	-0.11634633
163	0xbddd0439	-0.10791821
164	0xbe1b1c01	-0.15147401
165	0x3c4bb448	0.012433119
166	0x3ded5f2c	0.11590418
167	0x3d0133c5	0.031543512
168	0xbde165fc	-0.1100578
169	0x3beb4a33	0.007180476
170	0xbcb57b58	-0.022153541
171	0xbd33632c	-0.04379575
172	0xbe2f3091	-0.1710837
173	0xbd7c18ca	-0.06154708
174	0xbdf6a1c7	-0.12042575
175	0xbe046c29	-0.12931885
176	0xbd8db9e1	-0.06920219
177	0xbc9e2fb1	-0.01930985
178	0xbde2dc88	-0.11077219
179	0xbdce652c	-0.10077891
180	0xbd762a38	-0.060098857
181	0x3e06a8ab	0.13150279
182	0x3e08ecd7	0.13371597
183	0xbce259a8	-0.027630642
184	0xbb4abdcb	-0.003093588
185	0x3b896af5	0.0041936585
186	0xbd3bc219	-0.045839403
187	0xbe10907f	-0.14117621
188	0xbd9eb9c0	-0.07750273
189	0xbcf897de	-0.030345853
190	0xbd8fb2f4	-0.070165545
191	0xbb7c6823	-0.0038514219
192	0x3dc8142b	0.09769472
193	0x3e344af3	0.17606716
194	0x3da9f8f7	0.082994394
195	0x3e4c1424	0.19929558
196	0x3dc21044	0.09475759
197	0x3d8156fa	0.063154176
198	0x3dabbc39	0.0838551
199	0xbb39492f	-0.002827238
200	0x3ca027d8	0.019550249
201	0xbde118eb	-0.10991081
202	0xbdd2b24d	-0.102879144
203	0x3db4f42a	0.08835633
204	0x3ca4455c	0.020052604
205	0x3e2ec6d2	0.17068031
206	0xbd9f2cfe	-0.077722535
207	0xbe2a30f9	-0.16620244
208	0xbc9d0675	-0.019168118
209	0x3d2e1753	0.042502712
210	0xbd4ba7d1	-0.04972059
211	0x3d2cd4d8	0.04219517
212	0xbe1c131b	-0.15241663
213	0xbe89e365	-0.269313
214	0xbe54e4c6	-0.20790395
215	0xbe42d21c	-0.19025463
216	0x3c512cf4	0.012767065
217	0xbda9aa4c	-0.08284435
218	0xbd183ae3	-0.037165534
219	0x3d7bd159	0.061478946
220	0x3daff334	0.08591309
221	0xbcf2bf01	-0.029632093
222	0x3da105c6	0.07862429
223	0xbd7c3c5d	-0.061581004
224	0xbd68deda	-0.056853153
225	0xbd097681	-0.03356028
226	0x3d71c438	0.05902502
227	0x3d0eb4ab	0.034840267
228	0xbd99bc5b	-0.07506629
229	0x3c52009f	0.012817531
230	0xbd8535e5	-0.0650442
231	0x3d7ecc19	0.06220636
232	0x3bdca4e3	0.006733523
233	0xbbc9e64c	-0.0061614867
234	0x3cf83544	0.030298837
235	0x3c733544	0.0148442425
236	0x3ddda34e	0.108221635
237	0x3e4d5cd4	0.20054942
238	0x3e0f8dc3	0.14018922
239	0x3e6f83bb	0.23390095
240	0x3e0a359a	0.1349701
241	0x3c9cf810	0.019161254
242	0x3d5faead	0.054609943
243	0x3db2abac	0.0872415
244	0x3ca668a4	0.020313568
245	0xbd5b9b60	-0.053614974
246	0xbe05185c	-0.12997574
247	0xbded03eb	-0.11573013
248	0xbd88cbb4	-0.06679478
249	0xbd8d667e	-0.069043145
250	0xbcae1d6c	-0.021254264
251	0xbe27c7bf	-0.16384791
252	0xbcf13ab6	-0.02944694
253	0xbc54daa8	-0.012991585
254	0xbe17e5b5	-0.1483372
255	0x3e0cdf7d	0.13757129

conv2.0.bias f4 [16]
0	0xbf4620e8	-0.7739396
1	0xbf3db4cb	-0.74103993
2	0xbf6627d4	-0.8990452
3	0xbf187b02	-0.59562695
4	0xbf935330	-1.1509762
5	0xbf54fe15	-0.832002
6	0xbfb5ef70	-1.4213696
7	0xbf56d30a	-0.8391577
8	0xbf3a05f9	-0.72665364
9	0xbf0b5341	-0.5442391
10	0xbf75ada0	-0.95968056
11	0xbea4e06f	-0.3220248
12	0xbeb3c9d9	-0.35114935
13	0xbf03801c	-0.51367354
14	0xbef1a1b2	-0.47193676
15	0xbf52ef45	-0.82396346

fc1.0.weight f4 [120, 400]
0	0xbd0699f3	-0.03286166
1	0xbe17b039	-0.14813317
2	0x3e2b13e2	0.16706803
3	0x3d8aed19	0.06783504
4	0x3d9d9d0b	0.07695969
5	0xbde7babf	-0.11314916
6	0x3c3c5c4b	0.011496614
7	0x3daf8a64	0.08571318
8	0x3e50da7d	0.20395847
9	0x3dd435ce	0.10361825
10	0xbb0ae717	-0.002119487
11	0x3d860353	0.06543603
12	0x3dbfc662	0.093640104
13	0xbce9d233	-0.028542614
14	0xbddb6566	-0.107126996
15	0x3ccb6ebf	0.024833081
16	0x3c04718f	0.008083715
17	0x3c821673	0.015879845
18	0x3dbad455	0.0912253
19	0xbd7e7497	-0.062122907
20	0x3dd298b5	0.10283033
21	0xba2a1479	-0.0006488036
22	0xbe55ef7d	-0.20892139
23	0x3d536b09	0.05161575
24	0x3e366724	0.17812783
25	0xbda3d461	-0.079994924
26	0xbd7b4539	-0.061345313
27	0xbd022eed	-0.031783033
28	0x3cc7fcb3	0.024412489
29	0xbd45514c	-0.048173234
30	0x3df1405b	0.11779853
31	0x3c44ddb5	0.01201575
32	0x3d08d912	0.03341014
33	0x3d2deca1	0.042461995
34	0x3db490fb	0.08816715
35	0xbc8965ed	-0.016772235
36	0x3dce6203	0.10077288
37	0x3e072698	0.13198316
38	0x3cc87f3f	0.024474738
39	0x3cbdadc2	0.023154143
40	0x3e2e3d2f	0.17015527
41	0x3d5b04e2	0.053471453
42	0x3d09421d	0.033510316
43	0x3d13a8ab	0.036049526
44	0x3e98d082	0.2984658
45	0x3df9fb2d	0.12206111
46	0xbdcc2e37	-0.09969752
47	0xbde8d1ea	-0.11368163
48	0xbd98b381	-0.07456113
49	0x3e5680f7	0.20947634
50	0x3e340878	0.17581356
51	0x3e352ce8	0.17692912
52	0xbc59dd64	-0.013297413
53	0x3e074561	0.1321006
54	0xbd46f538	-0.048573703
55	0x3e43afd1	0.19110037
56	0x3d100479	0.035160515
57	0xbd9e0c0c	-0.077171415
58	0xbe410e27	-0.18853055
59	0x3e312f41	0.17303182
60	0x3eb009bd	0.3438243
61	0x3e09015c	0.13379425
62	0xbe10edec	-0.1415326
63	0xbd5b964b	-0.053610127
64	0x3e27b3da	0.16377202
65	0x3e575d82	0.21031764
66	0x3e20dd9f	0.15709542
67	0xbcb7cc20	-0.022436202
68	0xbdacc93c	-0.0843682
69	0xbe6b43c1	-0.22975065
70	0x3c8248fc	0.015903942
71	0x3db61a20	0.08891702
72	0x3d42a292	0.04751832
73	0xbd4ba0bc	-0.049713835
74	0xbe10e6b0	-0.141505
75	0x3df9f2e2	0.12204529
76	0x3de94f07	0.113920264
77	0x3e80b733	0.2513977
78	0x3ecb120a	0.396622
79	0x3deebcc0	0.11657095
80	0x3e5f4f80	0.2180767
81	0x3e74acd0	0.23894048
82	0xbcb968f3	-0.022633051
83	0xbdd60800	-0.10450745
84	0x3d8f9b46	0.07012038
85	0x3ecbcb6f	0.39803645
86	0x3e086e5d	0.1332335
87	0xbcf53553	-0.029932654
88	0xbe24b008	-0.16082776
89	0x3d5c4e63	0.053785693
90	0xbdba66f1	-0.09101666
91	0x3d15daa9	0.036585484
92	0x3d5ba5a0	0.05362475
93	0xbd540f08	-0.051772147
94	0xbc36d66b	-0.01115952
95	0x3e30e1a2	0.17273572
96	0x3cf2ed6a	0.029654223
97	0x3c894c6b	0.016760072
98	0x3cda926b	0.026681146
99	0xbd0ec254	-0.034853294
100	0x3d8b0215	0.067875065
101	0x3e2aecf9	0.1669196
102	0x3e44e903	0.19229512
103	0x3ea361fe	0.319107
104	0xbe134c5d	-0.14384599
105	0x3d8f6772	0.070021525
106	0x3e509ce4	0.20372349
107	0x3dd4fb82	0.10399534
108	0xbd91bb94	-0.07115856
109	0x3d346016	0.044036947
110	0x3d2043c2	0.03912712
111	0xbca19f15	-0.019729177
112	0x3d652857	0.055946674
113	0xbb62177c	-0.003449886
114	0xbd81a8ca	-0.06331022
115	0x3c4fa067	0.01267252
116	0x3e88cbf5	0.26718107
117	0x3e8365fc	0.25663745
118	0x3ca18152	0.019714985
119	0xbd3492e4	-0.0440854
120	0xbd8a983d	-0.067673184
121	0x3de5179b	0.11186143
122	0x3d545421	0.051838044
123	0x3ddc942b	0.10770448
124	0x3d99cb24	0.07509449
125	0x3d384820	0.04499066
126	0xbcb878b7	-0.022518499
127	0xbe6cdd68	-0.23131335
128	0xbec2cfc6	-0.38049144
129	0xbd40fa0d	-0.047113467
130	0xbd83621e	-0.06415199
131	0xbcdeef43	-0.027213698
132	0xbd43b9d5	-0.047784645
133	0xbe4a648a	-0.19764915
134	0x3d0d24e5	0.034459013
135	0xbe1500e6	-0.14551124
136	0xbd9fcc1f	-0.07802605
137	0xbd094d68	-0.033521086
138	0xbd75de75	-0.060026605
139	0x3e19e0fd	0.15027232
140	0x3e4e72fa	0.20161048
141	0xbcb1b32c	-0.021691881
142	0xbe05219b	-0.130011
143	0xbda3100e	-0.079620466
144	0x3d2656cb	0.040610116
145	0xbd80bd23	-0.06286075
146	0xbe15ec0f	-0.1464083
147	0x3e29732d	0.16547842
148	0xbdb6cb4f	-0.08925497
149	0x3dd3ff3c	0.103514165
150	0xbd4a8df4	-0.049451783
151	0x3e39f147	0.18158446
152	0x3d183611	0.037160937
153	0xbe674cc3	-0.22587876
154	0xbc8c7893	-0.017147338
155	0xbdd1b2da	-0.10239191
156	0x3d69f47d	0.057117928
157	0xbdd99854	-0.106247574
158	0xbe33970a	-0.17538086
159	0xbe4868dd	-0.19571252
160	0xbd84c4fa	-0.06482883
161	0x3e87933e	0.26479524
162	0xbba00df8	-0.0048844777
163	0xbe061d48	-0.13097107
164	0xbd9cb5a0	-0.0765183
165	0xbc60ddea	-0.013724783
166	0x3da7e127	0.08197241
167	0x3d6df96d	0.0580992
168	0xbdaa804e	-0.083252534
169	0xbbf5c378	-0.0075001083
170	0xbddec877	-0.108780794
171	0xbe0f477d	-0.13992114
172	0xbc4cd313	-0.012501496
173	0x3e41bef1	0.18920495
174	0xbd9216c4	-0.071332484
175	0xbdb908a7	-0.090348534
176	0x3df5cf42	0.12002422
177	0x3e31abae	0.17350647
178	0x3dba2013	0.09088149
179	0xbd0701ec	-0.032960817
180	0x3e6a23c7	0.2286521
181	0x3e4c7364	0.19965893
182	0xbcd26f7c	-0.025687926
183	0x3db1ffd1	0.08691371
184	0x3cd7ea6a	0.026356895
185	0x3e1f2b2b	0.15543811
186	0x3d44b705	0.048026104
187	0xbdac0e9e	-0.084012255
188	0xbd067ea4	-0.032835618
189	0xbabdb162	-0.001447242
190	0x3ea7def8	0.327873
191	0x3d01de5f	0.03170621
192	0xbe31f303	-0.17377858
193	0xbc5531e0	-0.013012379
194	0x3e3827d1	0.17983939
195	0x3e800d25	0.25010028
196	0x3e0a8623	0.13527732
197	0x3e01b6b4	0.12667352
198	0xbd9ac9c6	-0.075580165
199	0xbdfc0c5a	-0.123070434
200	0xbcb65044	-0.02225507
201	0x3cd0a189	0.025467651
202	0xbc58168c	-0.013188969
203	0x3ce6a238	0.028153524
204	0xbd236761	-0.03989351
205	0xbd361334	-0.044451907
206	0x3df391b2	0.118930236
207	0x3d661887	0.056175735
208	0xbe3a5c24	-0.18199211
209	0xbcceb71d	-0.0252338
210	0x3e0b97b4	0.13632089
211	0x3dc99400	0.09842682
212	0xbd14e07b	-0.036346894
213	0xbd96096f	-0.07326018
214	0x3e249c8d	0.16075344
215	0x3e8bec03	0.273285
216	0x3d88ab97	0.06673353
217	0xbd10dbc5	-0.03536584
218	0xbe14042a	-0.14454713
219	0xbd5515e8	-0.052022845
220	0xbda4e58a	-0.080515936
221	0x3e401a4f	0.18760036
222	0x3d63d39a	0.05562172
223	0x3c0863ee	0.008324606
224	0xbdebb6a1	-0.11509443
225	0xbe34ab54	-0.17643481
226	0xbd3a943b	-0.04555152
227	0xbe4fadf4	-0.20281202
228	0xbd8dc021	-0.06921411
229	0xbe8dfde6	-0.27732772
230	0x3c56c4d2	0.013108449
231	0xbd8aa8c8	-0.06770474
232	0xbd87e64e	-0.06635724
233	0xbe26ba4a	-0.16282001
234	0xbccab495	-0.024744311
235	0xbc290424	-0.010315929
236	0xbd25fb59	-0.040522907
237	0xbda38e75	-0.07986156
238	0x3dd1d182	0.102450386
239	0x3de60038	0.112305105
240	0x3e29f3d9	0.16596927
241	0x3a9f744c	0.0012165396
242	0xbdcf0180	-0.10107708
243	0xbcb08651	-0.021548422
244	0xbdce7eef	-0.100828044
245	0x3d0d4e8a	0.03449873
246	0x3d46ccee	0.04853528
247	0x3d9413bc	0.072303265
248	0xbb38103d	-0.002808585
249	0xbaecba5d	-0.0018060912
250	0x3d266559	0.040623996
251	0x3d92f1bf	0.07175016
252	0x3dc70132	0.09717025
253	0x3e265433	0.16243057
254	0x3c1f2f72	0.009715902
255	0x3e46030f	0.19337104

fc1.0.bias f4 [120]
0	0x3e610338	0.21973884
1	0x3eb56786	0.35430545
2	0x3ea52cdf	0.32260796
3	0xbe1400f6	-0.14453492
4	0x3ec81cab	0.39084372
5	0xbe2a6f64	-0.16644055
6	0x3d888fc2	0.066680446
7	0x3c0fa833	0.008768129
8	0x3e3de0ca	0.18542781
9	0x3ee07cd0	0.43845224
10	0x3eb8737f	0.36025617
11	0xbd2d4d12	-0.042309828
12	0xbd8ac7a9	-0.067763634
13	0xbe47c106	-0.19507226
14	0x3c9ee32c	0.019395433
15	0xbed46a7c	-0.4148749
16	0xbd242759	-0.040076587
17	0x3e7cc7dd	0.24685617
18	0x3f0ccad2	0.5499698
19	0xbda27447	-0.079323344
20	0x3f15be1d	0.58493215
21	0xbd540d0e	-0.051770262
22	0x3e80c7d2	0.2515245
23	0xbea3ea1d	-0.32014552
24	0x3dc42b6c	0.095785946
25	0x3ec48fa6	0.38390845
26	0x3ed017d1	0.4064317
27	0xbef8761b	-0.48527607
28	0xbf14f8fe	-0.5819243
29	0x3ea521a7	0.32252237
30	0xbda87f65	-0.082274236
31	0xbf037e5e	-0.51364696
32	0x3d321810	0.04347998
33	0xbdf5aefc	-0.11996266
34	0x3ec5a67d	0.38603583
35	0xbec649d9	-0.38728216
36	0xbe56e95b	-0.20987456
37	0x3eb5f2db	0.35536847
38	0x3ec46f5c	0.3836621
39	0x3dfb31c4	0.122653514
40	0x3e2b9914	0.16757613
41	0xbdd3805b	-0.10327216
42	0xbe6cc671	-0.23122574
43	0x3b2d2761	0.0026421177
44	0x3e43ef99	0.19134368
45	0xbc22e274	-0.009941686
46	0x3f00e583	0.5035021
47	0x3d8bbb23	0.06822803
48	0x3e8bb0e0	0.27283382
49	0xbe97abb5	-0.2962319
50	0xbd0218e7	-0.03176203
51	0xbe0afe23	-0.13573508
52	0xbe1e8190	-0.15479112
53	0x3d315fa4	0.0433041
54	0xbd1e2abe	-0.03861498
55	0xbd6dd9e0	-0.05806911
56	0x3e0f099d	0.13968511
57	0xbf0b9f85	-0.5454028
58	0x3eab0029	0.3339856
59	0xbe1109db	-0.14163916
60	0xbeb784bb	-0.35843453
61	0x3dda4323	0.106573366
62	0xbe69ad47	-0.22820006
63	0xbe00efc4	-0.12591463
64	0xbe56b08d	-0.20965786
65	0xbd918caf	-0.071069114
66	0xbed91595	-0.42399278
67	0xbe331702	-0.17489246
68	0x3e0d19da	0.13779393
69	0x3e2698aa	0.16269174
70	0x3dd0d475	0.10196773
71	0xbe362141	-0.17786123
72	0x3eb5414d	0.35401383
73	0x3f0049ab	0.5011241
74	0xbe7a56bc	-0.24447149
75	0x3d9195f0	0.071086764
76	0xbf05bf5a	-0.52245104
77	0xbd6cf55c	-0.05785118
78	0xbe84af78	-0.25915122
79	0x3e6a79b3	0.22897987
80	0x3ebc80ac	0.3681692
81	0x3d0f575b	0.034995418
82	0x3e6e154b	0.2325031
83	0x3e8cf5dc	0.27531326
84	0xbe0e08ba	-0.13870516
85	0xbed8ada5	-0.4231998
86	0x3ec0fa2b	0.37690863
87	0x3c9fcd87	0.019507183
88	0xbe25051b	-0.16115229
89	0xbf138052	-0.57617676
90	0xbd997e82	-0.074948326
91	0xbdfd576a	-0.123701885
92	0x3de78538	0.11304706
93	0xbdeccf39	-0.11562962
94	0x3e2674c5	0.16255482
95	0x3e43285c	0.19058365
96	0x3f077a23	0.5292074
97	0x3d269e72	0.04067845
98	0xbebde68f	-0.37089965
99	0xbe87a4c6	-0.264929
100	0x3e8c0073	0.27344093
101	0x3e466cec	0.19377488
102	0xbe84c575	-0.25931898
103	0x3919d709	0.00014671324
104	0x3e9f0961	0.31061843
105	0xbe341a70	-0.1758821
106	0x3e9b7cfc	0.30368793
107	0x3e74d9d8	0.23911226
108	0xbdc8d142	-0.09805538
109	0xbc624085	-0.013809328
110	0x3e63b1d1	0.222358
111	0xbde8cea7	-0.11367541
112	0xbc5789bc	-0.013155397
113	0x3e282159	0.16418971
114	0x3d9b5ad6	0.07585685
115	0xbf1467ce	-0.57970893
116	0x3e88250b	0.26590762
117	0xbe9577bd	-0.29192916
118	0xbe851fab	-0.26000723
119	0x3ecc499f	0.39899918

fc2.0.weight f4 [84, 120]
0	0x3d3c3108	0.045945197
1	0x3d16fa1f	0.036859628
2	0xbdfd2f76	-0.12362568
3	0x3dc8ff77	0.09814351
4	0xbd8617c8	-0.06547505
5	0xbea6b7e8	-0.32562184
6	0xbd49496b	-0.049142282
7	0x3dc341a6	0.09534006
8	0xbeb7a7c6	-0.35870188
9	0xbc741cb0	-0.014899418
10	0xbe0314a2	-0.1280084
11	0x3e49fd3a	0.19725505
12	0x3d2a5e55	0.04159387
13	0x3e1954fb	0.14973824
14	0xbe271169	-0.16315235
15	0x3c82b2be	0.015954372
16	0xbd94b855	-0.07261721
17	0xbd2f40ea	-0.042786516
18	0xbe3f4e3b	-0.18682186
19	0xbdcec15c	-0.10095474
20	0x3de9bdb7	0.11413138
21	0x3d837aa7	0.064198785
22	0x3e20fb68	0.15720904
23	0x3cfb0183	0.03064037
24	0xbe274c89	-0.1633779
25	0xbd8ceba0	-0.068808794
26	0xbe3db9dd	-0.18527932
27	0x3b7eeba0	0.0038897768
28	0xbd7bc895	-0.061470587
29	0x3ded61b0	0.11590898
30	0xbe19be85	-0.15014084
31	0x3e22854d	0.15871163
32	0x3e3a2e4c	0.18181723
33	0x3cf79f79	0.03022741
34	0x3e0735ca	0.13204113
35	0xbd8d7f4e	-0.06909047
36	0xbd559a3b	-0.05214904
37	0xbe1a43fc	-0.15064996
38	0xbdeed718	-0.116621196
39	0xbe46e2ed	-0.19422503
40	0x3d14e803	0.036354076
41	0xbd6ccaf2	-0.05781073
42	0xbd18baf2	-0.03728766
43	0x3d9fa8e2	0.07795884
44	0xbde0c65d	-0.10975335
45	0x3d2c71ed	0.042100836
46	0x3c1921d7	0.009346447
47	0xbe78df69	-0.24303974
48	0x3e3e945e	0.18611285
49	0x3d803c5d	0.062615134
50	0xbe407592	-0.1879485
51	0xbca3b6a7	-0.019984556
52	0x3e1989ce	0.14993975
53	0x3e71b240	0.23603153
54	0x3d75981f	0.059959527
55	0xbe76d552	-0.24104813
56	0xbc1927e5	-0.0093478905
57	0x3dbfe2f0	0.09369457
58	0xbd8a36dc	-0.06748745
59	0xbd8f0f30	-0.06985319
60	0x3d802ff1	0.06259144
61	0x3d7db6d7	0.061941948
62	0xbe5f1c24	-0.21788079
63	0x3da72db6	0.081630155
64	0xbca5d941	-0.020245196
65	0xbdccf58a	-0.1000777
66	0x3d7d903a	0.061905123
67	0x3e5394dc	0.20662254
68	0xbddec0ce	-0.10876618
69	0x3d99ab49	0.07503373
70	0xbccb9ba2	-0.024854485
71	0x3cca05d2	0.024660978
72	0x3d731eb6	0.05935546
73	0xbd1367ad	-0.035987545
74	0x3e16ee5b	0.14739363
75	0xbdb8ca4e	-0.090229616
76	0xbc8c7f09	-0.017150419
77	0x3d5644f0	0.052311838
78	0x3dce6f96	0.10079877
79	0x3d5adc25	0.053432602
80	0x3b004273	0.0019570857
81	0x3e66fd71	0.22557618
82	0xbe77abb3	-0.24186592
83	0xbdfb8dc1	-0.12282897
84	0x3e1444ea	0.14479414
85	0x3dd9a5f7	0.106273584
86	0x3dfe13eb	0.12406143
87	0xbd0c471e	-0.03424751
88	0x3cd2acce	0.025717165
89	0x3e5bb8ea	0.21457258
90	0x3e28c94d	0.1648304
91	0x3c1db979	0.00962674
92	0x3d3177a1	0.043326978
93	0xbe009c23	-0.12559561
94	0xbda6a82e	-0.081375465
95	0x3e52e59a	0.20595399
96	0x3cba222f	0.022721378
97	0xbdbd1be1	-0.09233833
98	0x3d053985	0.032525558
99	0x3d48f3a7	0.04906049
100	0xbd028bad	-0.031871486
101	0xbd01811d	-0.031617273
102	0xbde62862	-0.11238171
103	0x3e294e25	0.16533716
104	0xbe19fc61	-0.15037681
105	0xbd36c3cf	-0.04462033
106	0xbcd63b90	-0.026151448
107	0xbe05b391	-0.1305678
108	0xbcc0ebe1	-0.023549976
109	0x3de12447	0.109932475
110	0x3d332d62	0.043744452
111	0x3e18a6e8	0.1490742
112	0xbd365551	-0.044514958
113	0xbd7bd171	-0.061479036
114	0x3d98a05d	0.07452462
115	0x3db5364c	0.08848247
116	0xbaaedb09	-0.0013340424
117	0x3dba0e03	0.09084704
118	0x3d8fa9c3	0.07014801
119	0xbe1c4526	-0.15260753
120	0x3e8f9d05	0.28049484
121	0x3e98e4bf	0.2986202
122	0x3c30a3af	0.010781213
123	0x3e227d81	0.15868188
124	0x3e14d1d6	0.14533171
125	0xbe3f0e40	-0.1865778
126	0xbe87c1ae	-0.26514953
127	0x3cbe5df9	0.023238169
128	0xbd1de427	-0.03854766
129	0xbc810507	-0.015749468
130	0x3c8d56c9	0.017253296
131	0x3e44c75c	0.19216675
132	0xbd84b92b	-0.064806305
133	0x3e1ddcf3	0.15416317
134	0x3df03648	0.11729103
135	0xbcfad400	-0.030618668
136	0x3d219df4	0.039457276
137	0x3dde0202	0.10840227
138	0x3e05b2d0	0.13056493
139	0xbe84885d	-0.25885287
140	0x3e28d348	0.16486847
141	0xbe75e690	-0.24013734
142	0x3e201b17	0.15635334
143	0xbc7d05b4	-0.015443254
144	0x3d59fd53	0.053220104
145	0x3ddbd3dd	0.10733769
146	0x3dea1dd2	0.11431469
147	0xbe5b94de	-0.21443507
148	0xbcebae8e	-0.028769758
149	0x3d95acb3	0.073083304
150	0xbd9265a6	-0.07148294
151	0xbd19f2a8	-0.03758493
152	0x3ddcf9ea	0.10789855
153	0xbe222e47	-0.15837966
154	0x3cb8c338	0.022554025
155	0x3dd1e62f	0.10248982
156	0xbe2251f1	-0.1585157
157	0xbd46e114	-0.048554495
158	0x3db681a5	0.089114465
159	0xbdf193b5	-0.11795751
160	0xbe2a337a	-0.16621199
161	0xbdec7c48	-0.11547142
162	0xbd7001c9	-0.058595452
163	0xbd096c59	-0.033550594
164	0x3e4f45c7	0.20241462
165	0x3d88771f	0.066633455
166	0x3e1d8958	0.15384424
167	0xbd25a6ac	-0.040442154
168	0x3e03db65	0.12876661
169	0x3dd74003	0.10510256
170	0x3d824335	0.06360475
171	0xbdd7c816	-0.1053621
172	0xbc4dbaab	-0.012556712
173	0x3e541d95	0.2071441
174	0x3e3641ed	0.17798586
175	0xbe3a937b	-0.18220322
176	0x3e3d8403	0.1850739
177	0x3d8b1f63	0.06793096
178	0x3d0e3d7d	0.03472661
179	0x3d329b9f	0.043605443
180	0xbe4d9ac6	-0.20078573
181	0x3d92071a	0.07130261
182	0xbd8c87bb	-0.06861826
183	0x3ce593e5	0.028024623
184	0xbebb8c10	-0.36630297
185	0x3dfd7b13	0.1237699
186	0xbdd4a41a	-0.103828624
187	0xbe88144f	-0.26577994
188	0xbd546007	-0.05184939
189	0x3debda00	0.115161896
190	0xbc38b09a	-0.011272574
191	0x3da2a814	0.079422146
192	0xbb940b3a	-0.00451794
193	0x3ddde008	0.10833746
194	0xbdac8588	-0.084239066
195	0xbe491971	-0.19638611
196	0xbe70de7d	-0.23522373
197	0x3e1ddf51	0.1541722
198	0xbbccd5ed	-0.006251088
199	0xbbd87151	-0.0066053052
200	0x3c7b3157	0.015331588
201	0x3cb25f25	0.021773884
202	0x3d66cf0c	0.0563498
203	0x3e024aee	0.12723896
204	0xbe8b0523	-0.27152357
205	0x3e6a9c28	0.22911131
206	0xbcea7812	-0.028621707
207	0xbccfab15	-0.025350133
208	0x3d922204	0.07135394
209	0xbd38c630	-0.04511088
210	0x3b5e6052	0.0033931923
211	0x3d28c3ae	0.04120224
212	0xbd1ba265	-0.03799667
213	0xbe41e1ef	-0.18933843
214	0x3ce35bb5	0.02775369
215	0x3d2b4415	0.041812975
216	0x3e291ab3	0.16514091
217	0xbd5a1ee0	-0.0532521
218	0xbddac408	-0.10681921
219	0xbcdbe06c	-0.026840411
220	0x3e02edf9	0.12786092
221	0x3dddf694	0.10838047
222	0x3d9dddc4	0.07708314
223	0x3dc75793	0.097335
224	0xbe839b72	-0.25704533
225	0xbd75fcd7	-0.06005558
226	0xbdac1a98	-0.0840351
227	0x3d36adf3	0.044599485
228	0xbdc73f3e	-0.09728859
229	0x3dba1756	0.09086482
230	0x3c889158	0.016670868
231	0xbb9e567d	-0.0048320876
232	0xbce8f2fb	-0.028436175
233	0xbdcfa5c8	-0.10139042
234	0x3cf844b2	0.030306194
235	0xbc51c525	-0.012803351
236	0x3e509a7f	0.20371436
237	0xbd511375	-0.051043946
238	0x3dc86b2b	0.09786066
239	0xbcd91fe6	-0.026504468
240	0x3c647219	0.013943219
241	0x3e060a72	0.13089922
242	0xbd679e8d	-0.05654769
243	0x3d8c2a57	0.06844013
244	0xbcd6cef5	-0.026221732
245	0xbdedda36	-0.11613886
246	0x3d118638	0.03552839
247	0x3d6f68b4	0.058449462
248	0x3e1b6c9f	0.15178154
249	0x3db71231	0.089390166
250	0xbdb782ee	-0.0896052
251	0x3d16fa04	0.036859527
252	0xbc046a58	-0.008081995
253	0xbe3af1cd	-0.18256302
254	0xbcd9b35a	-0.02657478
255	0xbd60c2ae	-0.05487316

fc2.0.bias f4 [84]
0	0xbd1590b9	-0.03651497
1	0x3e59e149	0.21277346
2	0x3e901263	0.28139028
3	0x3e1b02e1	0.15137817
4	0x3d9132f8	0.070898
5	0x3e392b14	0.18082839
6	0x3d44d34e	0.04805308
7	0x3c5d8c10	0.013522163
8	0x3bee3310	0.0072692707
9	0xbdf83b32	-0.121206656
10	0xbe52f310	-0.20600533
11	0x3e76262f	0.24038003
12	0xbdefdd2a	-0.117121056
13	0xbe10ec4f	-0.14152645
14	0x3d62fe52	0.05541832
15	0x3d4edf33	0.050505828
16	0xbe18686f	-0.14883588
17	0xbdf6e0fe	-0.120546326
18	0xbdc9de97	-0.09856909
19	0x3e889845	0.26678672
20	0x3b5fe59c	0.0034163957
21	0xbe9f1d81	-0.31077197
22	0xbdf287c5	-0.11842302
23	0x3db97786	0.090560004
24	0xbda92980	-0.082598686
25	0x3dbd993a	0.09257741
26	0xbef1c692	-0.4722181
27	0xbd1f2266	-0.038851164
28	0x3d95a4a3	0.073067926
29	0x3d592c8b	0.053020995
30	0xbe1dbe0c	-0.15404528
31	0x3e862404	0.26199353
32	0xbf0bfdf3	-0.5468437
33	0x3e93ea78	0.28889823
34	0xbe03391c	-0.12814754
35	0x3e34855b	0.17628996
36	0xbc2e6cf9	-0.010646098
37	0xbc935b01	-0.01798773
38	0x3ed81e43	0.42210588
39	0x3eb2d119	0.34925154
40	0x3e203654	0.15645725
41	0xbe0d2003	-0.13781743
42	0xbd73d78a	-0.059531726
43	0xbe0d2f50	-0.1378758
44	0x3c0b02a4	0.008484516
45	0x3da5c820	0.080948114
46	0x3e53be15	0.2067798
47	0x3e956797	0.29180595
48	0xbde7108e	-0.112824544
49	0xbe965587	-0.29362127
50	0x3db450bb	0.088044606
51	0xbeb3d8ce	-0.35126346
52	0x3ce51a9e	0.027966794
53	0x3d9e5a48	0.077320635
54	0x3d742217	0.059602823
55	0xbe4c3d25	-0.199452
56	0xbde58011	-0.11206067
57	0xbe3dea55	-0.18546422
58	0x3d107b74	0.035273984
59	0xbe0b2acc	-0.13590544
60	0xbd6bd63b	-0.057577353
61	0xbe2f2937	-0.17105566
62	0xbe59e4c3	-0.21278672
63	0x3dbc68b3	0.09199657
64	0x3e4188ca	0.18899837
65	0x3dfd9e8a	0.123837546
66	0xbeca6809	-0.39532498
67	0xbee85f1f	-0.45385072
68	0x3c3b716c	0.011440616
69	0xbe6777bb	-0.22604267
70	0xbee13508	-0.43985772
71	0x3dcbe073	0.0995492
72	0xbe8ca759	-0.27471426
73	0xbeb83f0d	-0.35985604
74	0x3e2905b1	0.16506077
75	0x3a82dd36	0.0009984139
76	0xbccafb3a	-0.024777997
77	0xbb92a652	-0.0044753933
78	0xbe534254	-0.20630771
79	0xbced69ab	-0.02898105
80	0xbb11ac71	-0.0022228027
81	0xbbcd41f4	-0.0062639657
82	0x3df67fac	0.1203607
83	0xbe39ff36	-0.18163761

fc3.0.weight f4 [10, 84]
0	0x3dfe2566	0.12409477
1	0xbe929c3f	-0.2863483
2	0xbe13e310	-0.14442086
3	0x3e17119e	0.14752814
4	0xbd1e6cec	-0.038678095
5	0x3e439b9e	0.19102332
6	0xbdf4a4e9	-0.119455166
7	0x3dcbc05e	0.099488005
8	0x3db0112e	0.08597027
9	0x3e8dd963	0.27704915
10	0x3d6e0ee8	0.058119684
11	0xbda4591d	-0.080248095
12	0x3e8d63e5	0.27615276
13	0x3e871e58	0.26390338
14	0x3e3ae679	0.18251981
15	0x3dbca436	0.09211008
16	0xbe209f67	-0.15685807
17	0xbe5329fc	-0.20621485
18	0xbd3c207f	-0.04592943
19	0xbd0ac912	-0.03388316
20	0x3deb3e7a	0.11486526
21	0x3e291e30	0.16515422
22	0x3eaca13f	0.3371677
23	0xbe99fd44	-0.3007604
24	0x3e90dce0	0.28293514
25	0xbdd0919d	-0.101840235
26	0x3e342977	0.17593943
27	0xbdf27cb1	-0.11840189
28	0x3e18f0ef	0.14935659
29	0xbe3f317b	-0.18671219
30	0xbe629c86	-0.22130021
31	0x3b778a86	0.0037771775
32	0x3ea532f5	0.3226544
33	0xbd8b1092	-0.0679027
34	0x3e70bfca	0.23510662
35	0xbdf6869f	-0.12037396
36	0x3de23218	0.11044711
37	0xbd71c5e0	-0.0590266
38	0xbc70cf9c	-0.014697935
39	0xbe0ef3a9	-0.13960136
40	0x3d96c6bb	0.073621236
41	0xbe1fb199	-0.15595092
42	0x3e281920	0.16415834
43	0x3e6fdf42	0.2342501
44	0xbe326996	-0.1742309
45	0x3e66ce4d	0.22539635
46	0xbe914263	-0.28370962
47	0xbe6e6272	-0.23279741
48	0xbeb1e0bc	-0.3474177
49	0x3d18aa41	0.03727174
50	0x3e58d7e5	0.21176107
51	0x3e335bd6	0.17515501
52	0x3ad29478	0.0016065976
53	0x3e3db2f4	0.18525296
54	0xbe302e12	-0.17205074
55	0xbe082207	-0.1329423
56	0x3cedea12	0.029042277
57	0x3e247a2a	0.16062227
58	0xbe03eff5	-0.12884505
59	0x3d4f5a9f	0.050623532
60	0xbab6ab46	-0.0013936542
61	0xbcd29f56	-0.025710743
62	0xbe0595bc	-0.130454
63	0x3d487ff6	0.048950158
64	0x3d0e62b4	0.0347621
65	0xbe344d76	-0.17607674
66	0xbde40c89	-0.111352034
67	0x3e6b44da	0.22975484
68	0x3e3c6290	0.18396974
69	0x3ea67cca	0.32517081
70	0x3dc994d0	0.09842837
71	0xbe7474cc	-0.2387268
72	0x3e3f9c84	0.1871205
73	0x3e6c6052	0.23083618
74	0xbe2ad050	-0.16681027
75	0xbe1b53e5	-0.15168722
76	0x3e91b590	0.28458834
77	0xbd22d95b	-0.039758068
78	0x3e39b980	0.18137169
79	0x3d68bf5d	0.056823123
80	0x3e81cfbd	0.25353804
81	0x3e15b910	0.14621377
82	0xbe45a59d	-0.19301458
83	0x3e94ea61	0.29085067
84	0xbe193f4f	-0.14965557
85	0x3d4e3ba4	0.050349846
86	0x3e5b7d07	0.21434413
87	0xbce3989e	-0.027782734
88	0x3e089a54	0.13340122
89	0xbe0d8080	-0.1381855
90	0xbe64dfd6	-0.22351012
91	0xbe82773d	-0.25481597
92	0xbdd14ce8	-0.10219747
93	0xbe2817cb	-0.16415326
94	0xbe455956	-0.1927236
95	0x3e1efbc0	0.15525723
96	0x3e81527a	0.25258237
97	0x3e82a432	0.25515896
98	0x3e955004	0.2916261
99	0x3ea01914	0.31269133
100	0x3e70da25	0.23520716
101	0xbe56931f	-0.2095456
102	0x3e6b7c58	0.22996652
103	0x3e524509	0.20534147
104	0x3e3f30ef	0.1867101
105	0xbc8e754d	-0.017389918
106	0x3c38e1dd	0.011284319
107	0xbe8c14b1	-0.27359536
108	0x3e5fcc4a	0.21855274
109	0xbe092eb4	-0.13396722
110	0xbd0a5b1b	-0.03377829
111	0x3dd4674c	0.10371265
112	0xbe7cacad	-0.24675246
113	0xbd92dc37	-0.07170909
114	0x3e45f122	0.19330266
115	0x3cdc83be	0.026918288
116	0x3e3ffa1f	0.18747757
117	0x3e538e0e	0.20659658
118	0xbe5582cd	-0.20850678
119	0x3de76483	0.11298468
120	0xbe5e7eaf	-0.21728013
121	0x3e29ca9c	0.16581196
122	0x3ca49160	0.020088851
123	0x3e3c3d96	0.18382868
124	0xbe8ea9b7	-0.27863857
125	0x3c321e08	0.010871418
126	0x3e1b0169	0.15137257
127	0xbe2fb20a	-0.1715776
128	0xbd46342d	-0.048389602
129	0x3e2d4207	0.16919719
130	0x3dda2ee2	0.106534734
131	0xbe05237f	-0.13001822
132	0xbe01a59d	-0.12660833
133	0x3e379468	0.17927706
134	0x3e389702	0.18026355
135	0xbe03e0ea	-0.12878767
136	0xbe7dee59	-0.24797954
137	0x3cc1d551	0.023661288
138	0x3e80974c	0.2511543
139	0xbe16113b	-0.1465501
140	0x3e2eac53	0.17057924
141	0xbe0e869d	-0.13918538
142	0xbd7a9dc7	-0.061185624
143	0x3deb48c5	0.11488489
144	0x3d572ce4	0.052533045
145	0x3d7cf4a2	0.061756738
146	0x3e66e667	0.22548829
147	0xbe78c134	-0.24292451
148	0x3d708ade	0.058726184
149	0xbe0bcf89	-0.13653387
150	0x3e4fc985	0.20291717
151	0xbd81f631	-0.063457854
152	0xbe6308fb	-0.22171395
153	0x3dffe480	0.12494755
154	0xbe5ef0b6	-0.21771511
155	0x3e50e8f4	0.20401365
156	0xbe1f1568	-0.1553551
157	0xbdccaea3	-0.09994247
158	0x3e69dc2a	0.22837892
159	0xbde276cd	-0.11057816
160	0xbd7fe6ad	-0.06247585
161	0x3dcbbbb2	0.099479094
162	0xbdf6b1fe	-0.12045668
163	0xbe5b6df1	-0.21428658
164	0xbe38e6cb	-0.1805679
165	0x3e324fa9	0.174132
166	0xbdb97a49	-0.09056527
167	0xbe1e320a	-0.15448776
168	0xbe0a283b	-0.13491909
169	0x3d80e724	0.062940866
170	0xbd6c1dab	-0.05764548
171	0xbd7a7219	-0.06114397
172	0xbe0d3a9c	-0.13791889
173	0x3e2b184c	0.16708487
174	0x3e0b7278	0.13617885
175	0xbd93d2d8	-0.0721795
176	0xbcc47afa	-0.023984421
177	0xbdeabd0b	-0.11461838
178	0xbe13b3db	-0.14424078
179	0xbe5331d0	-0.2062447
180	0xbe4ebbe2	-0.20188859
181	0xbe3dc1a8	-0.18530905
182	0xbe06b913	-0.13156538
183	0x3e873461	0.2640715
184	0x3e3114e9	0.17293133
185	0xbe452556	-0.19252524
186	0xbde70792	-0.11280741
187	0x3e4ac2e6	0.1980091
188	0xbe4e036a	-0.2011849
189	0x3cc0b3d5	0.02352325
190	0xbe17b8c8	-0.14816582
191	0x3dc569b0	0.09639299
192	0x3e4b9e6c	0.19884652
193	0xbe4f9763	-0.20272593
194	0xbe1fda4e	-0.1561062
195	0xbe549d99	-0.20763244
196	0xbe4c801b	-0.19970743
197	0x3d065309	0.032794032
198	0xbc7591f8	-0.014988415
199	0x3e495c4a	0.19664112
200	0x3e4d45d0	0.20046163
201	0xbd96bfec	-0.07360825
202	0xbe4e2588	-0.20131505
203	0x3e21b90a	0.15793243
204	0x3df67458	0.120339096
205	0x3d98d028	0.07461578
206	0x3e054549	0.13014711
207	0xbc05e432	-0.008172082
208	0x3e842f9e	0.2581758
209	0xbe6bbf1d	-0.23022123
210	0xbe4694c2	-0.19392684
211	0x3db91bf2	0.09038533
212	0x3e34ee09	0.17668928
213	0x3debba57	0.11510151
214	0x3d5f988b	0.054588836
215	0x3df9cddc	0.12197468
216	0xbe24fe52	-0.1611264
217	0xbe03e8d5	-0.12881787
218	0x3d068e6b	0.032850664
219	0xbe546793	-0.20742635
220	0xbe2711dd	-0.16315408
221	0x3df43b64	0.1192539
222	0xbe085a87	-0.13315783
223	0x3ddcd5ae	0.10782944
224	0xbe4f0a1f	-0.20218705
225	0x3e0ce150	0.13757825
226	0x3dd859bf	0.10563993
227	0x3d9223b8	0.07135719
228	0x3ddf6044	0.10907033
229	0xbe076ce8	-0.13225138
230	0xbd88adbf	-0.066737644
231	0x3cce93e6	0.025217008
232	0x3e3ab0de	0.18231532
233	0xbe56a7e1	-0.20962478
234	0xbd1dc0c0	-0.0385139
235	0xbdf69833	-0.120407484
236	0x3e128457	0.14308296
237	0xbe9b8056	-0.3037135
238	0xbe5dfe5f	-0.21679066
239	0xbcfdf545	-0.031000743
240	0x3dff1179	0.124545045
241	0xbe29e1a1	-0.16589977
242	0xbe742171	-0.23840882
243	0xbe0e8dfe	-0.13921353
244	0x3e79b42f	0.24385141
245	0x3e93b59d	0.28849497
246	0x3d4c8227	0.04992881
247	0x3e43b961	0.19113685
248	0xbe2a6de1	-0.16643478
249	0x3e3eb1de	0.18622538
250	0xbddc261c	-0.10749456
251	0xbe5bc3c6	-0.214614
252	0xbe355753	-0.17709093
253	0xbd92a70a	-0.071607664
254	0xbe17924c	-0.14801902
255	0x3e6b9169	0.23004688

fc3.0.bias f4 [10]
0	0xbf10711d	-0.564226
1	0x3da1e9d2	0.07905926
2	0x3e972029	0.29516724
3	0xbe6eebd4	-0.23332149
4	0xbd9527a8	-0.072829545
5	0x3e7998ae	0.24374649
6	0xbf02ecb9	-0.5114246
7	0x3eb880c3	0.36035737
8	0x3e064c6e	0.13115093
9	0x3e45dfcd	0.19323654
