save_checkpoints/LeNet5_epoch_22.pth (torch, 249863 bytes, 10 tensors)

conv1.0.weight f4 [6, 1, 5, 5]
0	0xbdcff287	-0.1015368
1	0xbd7018ab	-0.058617275
2	0xbe299c10	-0.1656344
3	0xbc914d6b	-0.017737111
4	0x3eacc0c8	0.3374083
5	0xbeac0fcf	-0.3360581
6	0xbe902c17	-0.28158638
7	0xbce4bc27	-0.02792175
8	0x3dc4c76e	0.09608351
9	0xbcab6773	-0.020923352
10	0x3e53c75e	0.20681521
11	0x3e187a7a	0.14890471
12	0x3da59936	0.08085863
13	0x3e89af88	0.26891732
14	0x3e36bb9a	0.17845002
15	0x3d0f7123	0.035020005
16	0x3d516e4c	0.051130578
17	0x3e31d6a9	0.17367043
18	0x3f083321	0.53203017
19	0xbd44099f	-0.047860738
20	0x3e228df6	0.15874466
21	0x3d0ea852	0.03482849
22	0xbd618e80	-0.05506754
23	0x3e16ef7a	0.1473979
24	0xbe552e22	-0.2081838
25	0xbd007b9d	-0.031367887
26	0x3e40ddda	0.1883463
27	0x3e1d539f	0.1536393
28	0x3d9be140	0.076113224
29	0xbcd33096	-0.025780004
30	0xbed022e1	-0.4065161
31	0xbef8d013	-0.48596248
32	0xbe5a7752	-0.2133458
33	0xbe4b528e	-0.19855711
34	0xbe6c2897	-0.23062359
35	0xbdf6ff92	-0.12060465
36	0xbe06d123	-0.13165717
37	0xbe80f94f	-0.25190207
38	0xbd82aeb8	-0.06380981
39	0xbe37a532	-0.17934111
40	0x3e18bd52	0.1491597
41	0x3e44f6d1	0.19234778
42	0x3df8adab	0.121424995
43	0x3d8d7e6d	0.069088794
44	0x3de2ee0d	0.11080561
45	0x3d65879c	0.05603753
46	0x3bad223c	0.005283622
47	0x3d1ebc2c	0.038753673
48	0x3db401db	0.087894164
49	0xbc682ebf	-0.014171301
50	0xbcd9ef92	-0.026603494
51	0x3b6b0a23	0.0035864196
52	0xbca4df68	-0.02012606
53	0x3e809a48	0.25117707
54	0xbd7adaad	-0.0612437
55	0xbde03cf5	-0.10949127
56	0x3e9064e1	0.28201964
57	0x3e949648	0.29020905
58	0x3ce3363e	0.027735826
59	0x3de58522	0.11207034
60	0xbe918dc0	-0.2842846
61	0x3e6301b4	0.22168618
62	0x3e5cbc09	0.21556105
63	0x3d66c3ad	0.056338955
64	0x3d5a61d5	0.053315956
65	0xbcadd329	-0.021218853
66	0x3ecd480c	0.4009403
67	0xbc8d81b5	-0.017273763
68	0xbd2fd0d2	-0.042923756
69	0xbda8fb04	-0.082510024
70	0x3e51ee86	0.20501146
71	0x3eb9b770	0.36272764
72	0xbd0c0f68	-0.03419438
73	0xbdca1309	-0.09866912
74	0xbe4d1432	-0.20027235
75	0x3e558ce6	0.2085453
76	0x3cbea27c	0.023270838
77	0x3dc36188	0.09540087
78	0x3e038c6b	0.12846534
79	0x3ea3155d	0.31852236
80	0xbd14729d	-0.036242116
81	0xbec24a44	-0.37947285
82	0xbe79a04e	-0.24377558
83	0xbdf8568e	-0.12125884
84	0xbd832a39	-0.06404538
85	0xbe67b48c	-0.22627467
86	0xbec3b159	-0.38221243
87	0x3d110e95	0.035414297
88	0x3d74b71b	0.059744935
89	0x3bf9aa0e	0.007619149
90	0xbee0cc22	-0.4390574
91	0xbc6e45f5	-0.014543046
92	0x3dad7fa5	0.08471612
93	0x3e63423a	0.22193232
94	0xbd85ecf0	-0.06539333
95	0xbf036e29	-0.51339966
96	0x3dc73891	0.09727586
97	0x3dd6d463	0.10489728
98	0xbe545efd	-0.2073936
99	0x3d92c235	0.07165948
100	0x3da95c75	0.08269588
101	0x3d7b70a1	0.06138671
102	0x3db64ef9	0.089017816
103	0x3e9240e9	0.28565148
104	0x3e1ceaf6	0.15324005
105	0x3ce49cab	0.027906736
106	0x3e089c4c	0.13340873
107	0xbb959934	-0.0045653824
108	0xbd62faf7	-0.05541512
109	0x3de27b64	0.11058691
110	0x3e60b89f	0.21945427
111	0xbdd01fb2	-0.101622954
112	0x3d545418	0.05183801
113	0xbe889d7d	-0.26682654
114	0xbd54f626	-0.051992558
115	0xbed3e9d4	-0.41389334
116	0xbea7ba05	-0.3275911
117	0xbf05203f	-0.5200233
118	0xbe7ebc2c	-0.2487647
119	0xbe49bea7	-0.19701634
120	0xbd984fc4	-0.07437089
121	0xbc124610	-0.008927837
122	0x3cce664c	0.025195263
123	0x3e22208c	0.15832728
124	0xbd048bed	-0.032360006
125	0xbef342f8	-0.4751203
126	0xbe09190e	-0.13388464
127	0xbe4a5e3b	-0.19762509
128	0x3e084a91	0.13309695
129	0x3e1d12f7	0.15339266
130	0xbd97631c	-0.073919505
131	0xbcd0def0	-0.02549693
132	0xbe43d839	-0.19125451
133	0xbdfdf830	-0.12400854
134	0x3ad34a73	0.001612021
135	0xbcf862ed	-0.030320609
136	0xbe51f51b	-0.20503657
137	0xbea1e00f	-0.31616256
138	0x3e1cf34c	0.15327185
139	0x3e3dded8	0.1854204
140	0x3e815dbe	0.25266832
141	0xbe7d5778	-0.24740398
142	0xbf19b397	-0.6003966
143	0xbdcb098e	-0.09913932
144	0x3e0f24b9	0.13978852
145	0x3dccdf5e	0.100035414
146	0x3d920c8c	0.071312994
147	0xbea6ba39	-0.32563952
148	0xbe80f502	-0.25186926
149	0xbdef65b5	-0.11689321

conv1.0.bias f4 [6]
0	0xbebe6e53	-0.37193546
1	0xbe4029d8	-0.18765962
2	0x3d4f1d63	0.050565135
3	0xbd9e04ba	-0.07715745
4	0xbdeb3d26	-0.114862725
5	0x3db74118	0.089479625

conv2.0.weight f4 [16, 6, 5, 5]
0	0x3e1ad290	0.15119386
1	0x3dff14b3	0.1245512
2	0x3e518410	0.20460534
3	0x3db988a9	0.09059269
4	0xba96c1c3	-0.0011501837
5	0x3e1c6e65	0.15276487
6	0x3d196fd2	0.037460156
7	0x3e2ea7b3	0.1705616
8	0xbe2f05e4	-0.17092091
9	0xbe5407af	-0.20706056
10	0xbdb55b83	-0.08855345
11	0x3c36e87e	0.011163829
12	0x3e3ea1f5	0.18616469
13	0xbe1c307d	-0.15252872
14	0xbee7250c	-0.45145452
15	0x3db5246e	0.08844839
16	0x3e118674	0.14211446
17	0xbdda7205	-0.10666279
18	0xbec8e6f2	-0.39238697
19	0xbe23b420	-0.15986681
20	0x3da68ea3	0.081326745
21	0xbc43daf7	-0.011954061
22	0xbe1fe024	-0.15612847
23	0xbe2f5d72	-0.1712549
24	0xbdb24b0f	-0.087057225
25	0x3e9f2838	0.31085372
26	0xbe691510	-0.22761941
27	0xbe536530	-0.20644069
28	0xbd867cd5	-0.065667786
29	0xbda6c704	-0.08143428
30	0x3d21c577	0.039494958
31	0x3d182540	0.0371449
32	0xbcb9be63	-0.022673791
33	0xbe538307	-0.20655452
34	0x3a59ed05	0.0008313212
35	0x3e44908d	0.19195767
36	0x3e764038	0.24047935
37	0xbe246b68	-0.16056597
38	0xbe5383c5	-0.20655735
39	0xba9885c9	-0.0011636551
40	0x3e59a7a4	0.21255356
41	0xbe59ef1a	-0.21282616
42	0xbe82f013	-0.25573787
43	0xbe741f26	-0.23840007
44	0x3e259ee3	0.16173892
45	0xbe0ea01d	-0.13928266
46	0xbe5f8f3a	-0.2183198
47	0x3caf44df	0.021395145
48	0x3e80621e	0.25074857
49	0x3d8feb39	0.07027287
50	0xbd9f1809	-0.07768256
51	0x3d61a594	0.05508955
52	0xbd15d9b4	-0.03658457
53	0x3cd92e2c	0.026511274
54	0xbe0621e3	-0.13098864
55	0xbe3a9073	-0.18219166
56	0xbe1ee5d1	-0.15517356
57	0xbda63d2f	-0.081171386
58	0x3d606239	0.054781172
59	0xbe9341ed	-0.28761235
60	0xbe5eb3b6	-0.21748242
61	0xbe0a2349	-0.13490023
62	0x3c1fe879	0.009760016
63	0x3c463aa1	0.012098939
64	0xbed146d5	-0.40874353
65	0xbd2edf27	-0.042693283
66	0xbd6bea55	-0.057596523
67	0xbdcb80b8	-0.099366605
68	0xbe6712ab	-0.22565715
69	0xbefa4c54	-0.4888636
70	0xbdf5a581	-0.11994458
71	0xbc59325c	-0.0132566355
72	0xbdba21be	-0.09088467
73	0xbe65e946	-0.22452268
74	0xbdff015a	-0.1245143
75	0x3d2adfb8	0.04171726
76	0x3e31f4e5	0.17378576
77	0xbdf19f79	-0.11797995
78	0xbead9c96	-0.33908528
79	0xbe4c82e3	-0.19971804
80	0xbda55f06	-0.08074765
81	0x3e911cee	0.28342384
82	0xbc9027a6	-0.01759703
83	0xbd8a72d8	-0.06760186
84	0xbd48162d	-0.048849273
85	0x3e261080	0.16217232
86	0x3e607de9	0.21923031
87	0x3d10f4dd	0.03538977
88	0xbddd117e	-0.10794352
89	0x3e1fff1f	0.15624665
90	0x3d4ba3c5	0.04971673
91	0xbdafa955	-0.085772194
92	0xbdd2d33a	-0.102941945
93	0xbd2b79b6	-0.04186412
94	0x3ea7d782	0.32781607
95	0xbe505cdb	-0.20347922
96	0xbd6bda6a	-0.057581343
97	0x3debcc7b	0.11513611
98	0x3d4b84cd	0.049687196
99	0x3da353c8	0.079749644
100	0x3ddecb1f	0.10878586
101	0x3ea8d5ef	0.32975718
102	0xbdf8cfd4	-0.12149015
103	0xbed785cb	-0.42094263
104	0xbe9928fb	-0.29914078
105	0x3e8c8bbf	0.27450368
106	0xbda785ef	-0.08179843
107	0xbead189c	-0.33807838
108	0xbe6262fb	-0.2210807
109	0x3c856df7	0.016287787
110	0x3e39f020	0.18158007
111	0xbe8b2c20	-0.27182102
112	0xbe4d9e8c	-0.20080012
113	0xbd8a7ff4	-0.06762686
114	0x3e23ad09	0.15983976
115	0xbca25b29	-0.01981886
116	0xbe8b7d7a	-0.2724417
117	0xbd252f96	-0.040328585
118	0x3e709e93	0.23497991
119	0xbdb4e4cb	-0.08832701
120	0xbea688df	-0.325263
121	0x3a20f738	0.0006140354
122	0x3c664c14	0.014056224
123	0x3da04b5f	0.07826876
124	0xbe4b2058	-0.19836557
125	0x3edde073	0.43335304
126	0x3e088c26	0.13334712
127	0x3e2cdfce	0.1688225
128	0x3dc4bf9d	0.0960686
129	0x3d73fe65	0.05956878
130	0x3e743092	0.23846653
131	0x3e23a082	0.15979198
132	0x3de983bd	0.1140208
133	0x3e3a8a37	0.18216787
134	0x3d179fdd	0.037017692
135	0xbc998205	-0.018738756
136	0x3df6ef72	0.12057389
137	0x3c270a7c	0.010195371
138	0x3d66186a	0.056175627
139	0x3dfda6a8	0.12385303
140	0x3c3091f7	0.010776988
141	0x3d33053c	0.043706164
142	0xbdcd8fe7	-0.10037213
143	0xbd886dd2	-0.066615716
144	0xbd81736f	-0.06320845
145	0x3d517cb3	0.051144313
146	0x3caccd13	0.02109388
147	0xbd180f03	-0.03712369
148	0xbd85c0a2	-0.065308824
149	0x3e4bb524	0.19893318
150	0xbe285cf5	-0.1644171
151	0xbe1580b3	-0.14599876
152	0xbdbc9699	-0.09208412
153	0xbdcd7c1e	-0.10033439
154	0xbe5acb71	-0.21366669
155	0xbe51332b	-0.20429675
156	0xbe26b764	-0.16280895
157	0xbd62894e	-0.055306725
158	0x3dd1e802	0.1024933
159	0xbd9d02f9	-0.076665826
160	0xbe3fbb3e	-0.18723771
161	0xbd86a008	-0.06573492
162	0x3d1c38dc	0.038140163
163	0xbe397b53	-0.1811345
164	0xbe81315d	-0.25232974
165	0xbcf6117b	-0.030037632
166	0xbcf706cd	-0.03015461
167	0xbdfac0a2	-0.12243773
168	0xbe743bff	-0.23851012
169	0xbd6d064d	-0.057867337
170	0x3b6e6e1a	0.0036381544
171	0x3c09f964	0.008421276
172	0xbe03c470	-0.12867904
173	0xbdf72a1d	-0.12068579
174	0xbe332810	-0.17495751
175	0xbe2a8df3	-0.16655712
176	0xbdc8b19d	-0.09799502
177	0x3e526f8f	0.20550369
178	0x3e8c5673	0.27409706
179	0x3d22e74b	0.03977136
180	0x3e5e6b32	0.2172058
181	0x3dea48dd	0.11439679
182	0x3e67b77b	0.22628586
183	0x3e69f465	0.22847135
184	0x3d82f333	0.06394043
185	0x3c50d0bd	0.01274508
186	0x3aab52ec	0.0013070977
187	0x3b82d70c	0.0039929207
188	0xbd6bf0e1	-0.057602767
189	0xbd0204a9	-0.031742726
190	0x3d2d6e95	0.042341787
191	0x3c2fdb74	0.010733474
192	0xbe67dbf0	-0.22642493
193	0xbc54dcf8	-0.012992136
194	0xbc6b0ef3	-0.014346826
195	0x3da99876	0.08281033
196	0xbe20ef19	-0.15716209
197	0xbe4e67aa	-0.20156732
198	0x3ce49de1	0.027907314
199	0x3e2278b4	0.15866357
200	0x3d1d5991	0.038415495
201	0xbe6b4819	-0.22976722
202	0xbda776ac	-0.08176932
203	0xbe5ded91	-0.21672656
204	0xbae895eb	-0.0017744874
205	0xbe5af880	-0.21383858
206	0xbe98d66a	-0.29851085
207	0xbe367b6c	-0.17820519
208	0x3da0b06b	0.07846149
209	0xbe632138	-0.2218064
210	0xbef7f693	-0.4843031
211	0xbe850063	-0.25976858
212	0xbe55d192	-0.20880726
213	0x3cec51af	0.028847544
214	0xbe315d5d	-0.17320772
215	0xbec29251	-0.38002256
216	0xbe609664	-0.2193237
217	0xbe6de4e2	-0.23231843
218	0xbd5f612d	-0.054536033
219	0xbea36b84	-0.31917965
220	0xbced6807	-0.028980268
221	0xbdb9d727	-0.0907424
222	0xbd87cfed	-0.066314556
223	0x3c6f2729	0.014596739
224	0xbe049ad1	-0.12949683
225	0xbd992bd7	-0.07479065
226	0x3dcf7c6a	0.10131152
227	0x3e803f6a	0.2504838
228	0x3e8c9136	0.27454537
229	0x3c5fe56c	0.013665538
230	0x3c0410bb	0.0080606295
231	0x3ee21821	0.44159034
232	0x3e71e023	0.23620658
233	0x3c39ffcf	0.011352493
234	0xbde3f219	-0.11130161
235	0x3e6101cd	0.21973343
236	0x3ebbcb9d	0.36678782
237	0xbdcb0d94	-0.09914699
238	0xbdd00f3f	-0.10159158
239	0xbe61db7f	-0.22056387
240	0x3e922e9f	0.28551194
241	0x3e434426	0.19068965
242	0xbdea4c3a	-0.1144032
243	0xbd773b0a	-0.06035904
244	0x3c4d5345	0.01253206
245	0x3e316670	0.17324233
246	0xbd7b44a2	-0.06134475
247	0xbe495ea5	-0.1966501
248	0xbeb20db4	-0.3477608
249	0xbddf875b	-0.10914489
250	0x3d485ddb	0.048917633
251	0x3e4be039	0.19909753
252	0x3e30a75c	0.17251343
253	0x3e3b3bb9	0.18284501
254	0x3d30f1b9	0.043199275
255	0x3dbe8c67	0.09304123

conv2.0.bias f4 [16]
0	0xbef7027b	-0.4824408
1	0xbef1af97	-0.47204277
2	0xbf105a27	-0.5638756
3	0xbf38b57e	-0.72151935
4	0xbf9292a8	-1.1451006
5	0xbf7b07df	-0.98058885
6	0xbebfb977	-0.37446186
7	0xbf13923a	-0.57645
8	0xbf53b876	-0.8270334
9	0xbf6a063a	-0.9141575
10	0xbd93f57e	-0.07224558
11	0xbf2d059e	-0.67586696
12	0xbf1f4866	-0.62219846
13	0xbf3352b7	-0.7004809
14	0xbf50dcbf	-0.8158683
15	0xbeccdd96	-0.40012807

fc1.0.weight f4 [120, 400]
0	0xbd85e58a	-0.06537922
1	0xbe99f3be	-0.30068773
2	0xbcda0ba4	-0.026616879
3	0xbe45dc12	-0.19322231
4	0xbe3f88cb	-0.18704526
5	0x3cde1557	0.027109785
6	0xbdffda00	-0.12492752
7	0xbd7b4e2b	-0.061353844
8	0xbdf4c990	-0.119525075
9	0x3e60efec	0.21966523
10	0xbd84866c	-0.064709514
11	0x3cd808ea	0.026371438
12	0xbe30d055	-0.17266972
13	0xb9ef87c6	-0.0004568679
14	0xbd4c8d7b	-0.049939614
15	0x3dde5ecd	0.108579256
16	0xbe9a77d7	-0.30169556
17	0xbddb40b9	-0.10705704
18	0x3d1e03e8	0.038577944
19	0x3eb261ed	0.34840336
20	0xbda204c0	-0.07911062
21	0xbe2e3fd0	-0.1701653
22	0x3e196741	0.14980794
23	0x3db63b9c	0.08898088
24	0xbd53aae1	-0.051676635
25	0xbda06952	-0.07832588
26	0xbe4e14d6	-0.20125136
27	0xbd774887	-0.0603719
28	0xbef160e4	-0.47144234
29	0xbdaf2c44	-0.08553365
30	0xbeae9362	-0.3409682
31	0xbd42d4be	-0.047566168
32	0x3bb68a64	0.0055706967
33	0xbe83061b	-0.25590596
34	0xbe5c0ac9	-0.21488489
35	0xbd2f1622	-0.042745717
36	0xbe2d430b	-0.16920106
37	0x3e2d5582	0.1692715
38	0xbcacb4a5	-0.021082232
39	0x3e20eea9	0.15716042
40	0xbe27b0f0	-0.1637609
41	0xbeab6dec	-0.334823
42	0xbd13835f	-0.036013957
43	0x3d5214ba	0.051289298
44	0xbe0f1182	-0.13971522
45	0xbe3ad95e	-0.18246982
46	0x3e3e5d3a	0.1859025
47	0x3ce8377c	0.02834677
48	0x3db39685	0.08768944
49	0x3e46d960	0.1941886
50	0xbe082e00	-0.13298798
51	0xbe519175	-0.20465644
52	0xbeb88392	-0.3603788
53	0xbe3cb1bc	-0.18427175
54	0xbe4801d7	-0.19531952
55	0x3d235ac4	0.039881483
56	0x3e7ff43b	0.2499551
57	0x3e480264	0.19532162
58	0x3d769cb5	0.06020804
59	0x3dabb42f	0.08383977
60	0xbd3aa0c6	-0.04556348
61	0xbdcf15c0	-0.1011157
62	0xbe9c8c6c	-0.30575883
63	0x3db9045b	0.09034034
64	0x3e359319	0.17731895
65	0xbda2752a	-0.079325035
66	0xbe9f40c8	-0.31104112
67	0x3c920c5a	0.017828155
68	0x3d9550c6	0.07290797
69	0x3eaab5dd	0.33341876
70	0x3c84eff7	0.016227705
71	0xbe3644ca	-0.17799678
72	0x3d988f1a	0.074491695
73	0xbcc8ea82	-0.024525885
74	0x3eaba8fb	0.3352736
75	0x3e39f2fd	0.18159099
76	0xbb7b5332	-0.0038349149
77	0xbbb88099	-0.0056305644
78	0x3e8fc100	0.28076935
79	0x3d933c32	0.07189216
80	0xbddd33ee	-0.108009204
81	0xbcb4a1ba	-0.022049773
82	0x3d8f0b10	0.06984532
83	0x3e37ded2	0.17956093
84	0x3d6b4db5	0.057447154
85	0x3e8da7a3	0.2766696
86	0xbe2c4fcf	-0.1682732
87	0xbea90f96	-0.33019704
88	0xbe3bd654	-0.18343478
89	0xbd49508a	-0.049149074
90	0xbd6c2c00	-0.05765915
91	0x3eb0d5d8	0.3453815
92	0x3ccfb113	0.02535299
93	0x3b6a3ab9	0.0035740568
94	0xbc568add	-0.013094631
95	0xbe0c8fa4	-0.1372667
96	0x3e54930a	0.20759216
97	0x3e0d429e	0.13794944
98	0x3cbccf73	0.023048138
99	0xbe30b225	-0.17255457
100	0xbdc0102f	-0.09378087
101	0xbe24fc43	-0.16111855
102	0xbc533e88	-0.012893327
103	0xbd28d2bf	-0.041216608
104	0xbd434159	-0.047669742
105	0x3dd8eb5e	0.10591768
106	0x3e2369d2	0.15958336
107	0x3e88f2fb	0.2674788
108	0x3d7bacde	0.061444156
109	0xbdeb1c0f	-0.11479961
110	0xbeb3d070	-0.35119963
111	0x3dd56496	0.10419576
112	0xbe07428e	-0.13208982
113	0xbd9bc6cd	-0.076062776
114	0xbf0f1160	-0.5588589
115	0x3dd65d4d	0.104670145
116	0xbc87fca2	-0.016599957
117	0xbe782549	-0.24232973
118	0xbe7226eb	-0.23647659
119	0xbe6c444d	-0.2307293
120	0x3e3873eb	0.18012969
121	0x3e90790d	0.28217354
122	0x3dd5ca00	0.10438919
123	0x3d8113fb	0.06302639
124	0xbca4fde3	-0.020140594
125	0x3d6faef7	0.05851647
126	0xbdad8aa7	-0.084737115
127	0xbe67794a	-0.22604862
128	0xbe978807	-0.29595968
129	0xbd893545	-0.066996135
130	0xbdf4e069	-0.11956865
131	0xbdad6170	-0.0846585
132	0xbdf0fccb	-0.117669664
133	0xbdc0f635	-0.0942196
134	0xbe2f2812	-0.1710513
135	0x3e7d1f91	0.24719073
136	0xbd19ebc4	-0.03757836
137	0xbd0a8859	-0.033821438
138	0xbe4bbe7d	-0.19896884
139	0xbdb54075	-0.08850185
140	0xbe14a73a	-0.14516917
141	0xbe827266	-0.25477904
142	0x3d9be9c8	0.076129496
143	0xbd4b5d59	-0.04964957
144	0xbee48e72	-0.44639927
145	0xbe4dce52	-0.20098236
146	0x3df7e074	0.12103358
147	0x3e3e4c20	0.18583727
148	0x3cd269ef	0.025685279
149	0xbea9297a	-0.33039457
150	0xbcda4156	-0.026642483
151	0xbe913da7	-0.2836735
152	0xbef766c7	-0.483206
153	0xbe774c10	-0.2415011
154	0xbef6e521	-0.48221686
155	0xbbbc3250	-0.0057433024
156	0xbe2e4aab	-0.17020671
157	0xbeab844f	-0.3349938
158	0xbdcf2c33	-0.10115852
159	0xbe09c555	-0.13454182
160	0x3db2bbcd	0.087272264
161	0x3e230703	0.15920644
162	0x3dc521c4	0.09625581
163	0xbdd7513b	-0.1051354
164	0xbd6ad629	-0.057333145
165	0x3e37c34e	0.17945597
166	0x3d4099d3	0.0470217
167	0x3da409be	0.08009671
168	0x3df332a0	0.1187489
169	0xbdd97714	-0.106184155
170	0xbe841c2e	-0.2580275
171	0x3e10c6bd	0.14138313
172	0xbd0417b2	-0.03224916
173	0x3c935d39	0.017988788
174	0xbc215756	-0.009847483
175	0xbe6bb73a	-0.23019114
176	0xbd36d5c6	-0.044637464
177	0xbe0c7b88	-0.13718998
178	0x3e6bc845	0.23025616
179	0x3d8d040b	0.06885537
180	0x3e21809d	0.15771718
181	0x3b07a193	0.002069567
182	0x3d6d4fad	0.057937313
183	0x3ec2a71e	0.38018125
184	0x3e92ad8d	0.28648034
185	0xbd2df5e6	-0.042470835
186	0x3e6c4620	0.23073626
187	0x3e15257c	0.1456508
188	0xbda09084	-0.07840064
189	0xbe4cb339	-0.19990243
190	0xbe986ff3	-0.2977291
191	0x3e4f3389	0.20234503
192	0xbedf0d33	-0.43564758
193	0xbd717128	-0.058945805
194	0xbd76ba25	-0.060236115
195	0xbcecf8bf	-0.028927205
196	0x3c682982	0.0141700525
197	0xbd52a510	-0.051426947
198	0x3e6a6c38	0.22892845
199	0x3df60107	0.12011915
200	0xbd9ea812	-0.077469006
201	0xbe161f62	-0.14660409
202	0xbdb05ef4	-0.08611861
203	0x3caf0ba6	0.02136786
204	0x3e7affed	0.2451169
205	0xbde2c5b7	-0.11072867
206	0x3c9a88e8	0.01886411
207	0xbe870c02	-0.2637635
208	0x3e266749	0.16250338
209	0x3c7c2510	0.015389696
210	0x3ce0972d	0.027415836
211	0x3e419e8e	0.1890814
212	0x3c82c76a	0.015964229
213	0x3ef15304	0.47133648
214	0x3e5656ec	0.20931596
215	0xbcc172dc	-0.02361434
216	0xbccf2085	-0.025284061
217	0xbd02a05b	-0.03189121
218	0x3dac7d3c	0.08422324
219	0xbe35c7df	-0.17752026
220	0xbeaa54dd	-0.3326787
221	0xbeb0e73f	-0.34551427
222	0xbe0b394d	-0.13596077
223	0x3e028656	0.12746558
224	0x3e93f8ae	0.28900665
225	0x3de90a13	0.11378875
226	0xbd040ea0	-0.03224051
227	0x3e31d88a	0.1736776
228	0x3d1d4057	0.038391437
229	0x3e3f4ceb	0.18681686
230	0xbe10eb33	-0.14152221
231	0x3e361079	0.17779721
232	0x3ea0ff93	0.31444988
233	0x3e827f70	0.25487852
234	0xbd2c3289	-0.04204038
235	0x3e69abb8	0.22819412
236	0x3ec10f45	0.37706962
237	0x3e0a1eed	0.1348836
238	0x3e18cbb3	0.14921455
239	0xbe1ee09a	-0.15515366
240	0x3d0e34b1	0.03471822
241	0x3eadf7f0	0.33978224
242	0x3e25376c	0.16134423
243	0x3ded2e16	0.11581056
244	0xbdd94cb6	-0.106103346
245	0xbded1492	-0.11576189
246	0xbca52584	-0.02015949
247	0x3da8ee49	0.08248574
248	0xbd572e2c	-0.052534267
249	0x3e6ff815	0.2343448
250	0x3ddfc9a1	0.109271295
251	0x3ca04505	0.019564161
252	0x3e9c3875	0.30511823
253	0x3e5216bf	0.2051649
254	0xb8a24171	-7.7369514e-05
255	0x3eab2a03	0.3343049

fc1.0.bias f4 [120]
0	0xbe00769f	-0.1254525
1	0x3c0dbcb3	0.008650946
2	0xbe4ddd17	-0.2010387
3	0xbdc1fc25	-0.09471921
4	0xbe81904a	-0.25305396
5	0xbc5ebd68	-0.013594963
6	0xbe65cfdc	-0.22442573
7	0x3c5d92cb	0.013523768
8	0x3d61bddd	0.05511271
9	0xbe8c39c2	-0.27387816
10	0x3dc3a746	0.09553389
11	0xbe9dc8c1	-0.30817226
12	0xbe061ca5	-0.13096865
13	0xbe4147c0	-0.18875027
14	0xbedf4515	-0.43607393
15	0xbc76cbd3	-0.015063244
16	0xbe2c3484	-0.16816908
17	0x3dc59d4d	0.09649143
18	0xbdfdac26	-0.1238635
19	0x3da47117	0.08029383
20	0x3e8e119c	0.2774781
21	0xbe3a5f15	-0.18200333
22	0x3cdf3674	0.027247645
23	0xbd4177ce	-0.047233395
24	0xbd57a7a8	-0.052650124
25	0x3d2c3649	0.042043958
26	0xbe2ac971	-0.16678406
27	0x3db139c9	0.086536
28	0x3e34967c	0.1763553
29	0xbc4b71fc	-0.012417313
30	0x3db0500c	0.08609018
31	0xbecf6570	-0.40507078
32	0xbe7421ee	-0.23841068
33	0xbda80fc9	-0.08206136
34	0x3f0e4ba7	0.55584186
35	0x3ddc6a99	0.107625194
36	0xbe947af6	-0.29000062
37	0x3e01c20a	0.12671676
38	0xbe88fc74	-0.26755106
39	0xbc8649ef	-0.016392676
40	0x3e7a8293	0.24463873
41	0x3deed37a	0.1166143
42	0x3dcbdb65	0.099539556
43	0xbda1fe6f	-0.079098575
44	0xbe3adcea	-0.18248335
45	0x3cdc8210	0.026917487
46	0x3e1026a4	0.1407724
47	0xbe938524	-0.28812516
48	0xbe97a767	-0.29619905
49	0x3e4fad89	0.20281042
50	0x3b5a1ea4	0.0033282423
51	0x3ddf0198	0.10888976
52	0xbe820d17	-0.25400612
53	0x3e955839	0.2916887
54	0xbe27f87c	-0.16403383
55	0xbe8de921	-0.27716926
56	0x3ee4c723	0.4468318
57	0x3e8e1625	0.2775127
58	0x3c95ceef	0.01828715
59	0xbd0eae6f	-0.03483432
60	0xbdc0b37d	-0.09409235
61	0xbd4d287c	-0.050087437
62	0x3e05be3c	0.1306085
63	0xbd48ce4d	-0.04902487
64	0x3d4e647b	0.050388794
65	0x3e7735cb	0.24141614
66	0xbea761d7	-0.32691833
67	0xbd0018cb	-0.031273644
68	0xbed592a0	-0.41713428
69	0xbe8bdf26	-0.27318686
70	0x3e5927ff	0.21206664
71	0x3dceb163	0.100924276
72	0xbd642af8	-0.05570504
73	0xbe3babce	-0.18327257
74	0xbe70a5d0	-0.23500752
75	0x3b7ab179	0.0038252755
76	0xbed14a37	-0.40876934
77	0x3eb39504	0.35074627
78	0x3cca7f30	0.02471885
79	0xbe34d94b	-0.17661016
80	0xbd83da35	-0.06438104
81	0xbebe3099	-0.37146452
82	0xbea21d3c	-0.3166293
83	0x3ede8246	0.43458766
84	0xbe68e1d2	-0.22742394
85	0xbea30931	-0.3184295
86	0x3ecb95e9	0.3976281
87	0xbe8af6c1	-0.27141383
88	0x3e46526a	0.19367376
89	0xbd93b3c0	-0.07212019
90	0x3df51061	0.11966015
91	0xbe263062	-0.16229394
92	0x3f188119	0.5957199
93	0x3e42765d	0.18990465
94	0xbe52cada	-0.20585194
95	0x3d963462	0.0733421
96	0xbe058768	-0.13039935
97	0x3d0f4619	0.03497896
98	0xbea4d77f	-0.3219566
99	0x3eba0215	0.36329713
100	0xbd13d10c	-0.036088035
101	0xbb831afc	-0.0040010195
102	0x3c8e8b31	0.017400356
103	0x3e2c9237	0.16852652
104	0xbecd31c6	-0.40077037
105	0x3e6037ea	0.2189633
106	0xbe4274a9	-0.18989815
107	0xbe20bc65	-0.15696867
108	0x3d11add3	0.035566162
109	0x3e2d93ae	0.16950867
110	0xbbb1e163	-0.0054284795
111	0x3d5afae4	0.053461924
112	0x3eb752f8	0.35805488
113	0x3e2b01ae	0.1669986
114	0xbe39b6e5	-0.18136175
115	0xbe866a8c	-0.26253164
116	0x3dbdf9d1	0.09276164
117	0xbe1d369e	-0.15352866
118	0x3e861b30	0.26192617
119	0x3e5f6e81	0.21819498

fc2.0.weight f4 [84, 120]
0	0x3e11ba27	0.14231168
1	0x3cbe7953	0.023251211
2	0xbdaddb31	-0.08489073
3	0x3c156422	0.009118112
4	0xbed36269	-0.41286018
5	0x3d8a723e	0.06760071
6	0xbc3029ee	-0.010752184
7	0x3e89ce9e	0.2691545
8	0x3d6fa122	0.058503278
9	0x3c13157f	0.008977293
10	0x3e67fa0c	0.22653979
11	0x3df3eb79	0.11910147
12	0xbe0b8f8a	-0.13628975
13	0xbc35f35b	-0.011105384
14	0x3cab69dd	0.020924503
15	0x3ecdcc2a	0.40194827
16	0x3dd0cf73	0.10195818
17	0x3eb2ede7	0.3494713
18	0xbe76560f	-0.24056266
19	0x3e5b6deb	0.21428649
20	0xbd8cd177	-0.0687589
21	0xbd941c23	-0.07231929
22	0x3cefafeb	0.029258689
23	0xbdce8159	-0.10083265
24	0x3e4e04ca	0.20119014
25	0x3d212de7	0.039350417
26	0xbe3ef6b5	-0.18648799
27	0x3ed63f93	0.41845378
28	0x3e649312	0.22321728
29	0xbedc7356	-0.43056744
30	0xbed59ffb	-0.41723618
31	0xbc65fba0	-0.014037043
32	0x3df491fe	0.11941908
33	0xbe9a0869	-0.3008454
34	0x3dab527f	0.08365344
35	0x3d9390f2	0.072053805
36	0x3d5b3657	0.05351862
37	0xbd13d086	-0.036087535
38	0xbea8b593	-0.3295103
39	0xbdc0ddfb	-0.094173394
40	0xbddb5d00	-0.10711098
41	0xbde345c6	-0.110972926
42	0x3e40dc6d	0.18834086
43	0xbe890a3b	-0.26765618
44	0x3e3a69c9	0.18204416
45	0x3ceb4abe	0.028722163
46	0x3e3e5f8c	0.18591136
47	0x3d089de4	0.0333537
48	0x3e2d733f	0.16938494
49	0x3dae0c0c	0.084983915
50	0x3e0b4811	0.1360171
51	0xbea880fa	-0.329109
52	0x3e94ffbf	0.2910137
53	0xbe4b51ad	-0.19855376
54	0x3e739a7d	0.23789401
55	0xbe1ddc01	-0.15415956
56	0x3c20a9da	0.009806121
57	0x3c8e11e6	0.017342519
58	0x3df205eb	0.11817535
59	0xbdb0dd8c	-0.08636007
60	0xbd859e03	-0.06524279
61	0x3e3f478c	0.18679637
62	0xbc9c39c8	-0.019070521
63	0xbe0bf3d2	-0.13667229
64	0xbda64b4e	-0.08119832
65	0xbd3161e6	-0.043306254
66	0xbdda826d	-0.10669408
67	0xbdedbd9d	-0.116084315
68	0xbdbb5f1c	-0.09149
69	0xbdb0d0ff	-0.08633613
70	0x3e6758fa	0.22592536
71	0x3d39ddea	0.04537765
72	0xbeae7023	-0.3406993
73	0x3dd633fd	0.10459135
74	0xbdc1d3b6	-0.09464209
75	0x3dcdc9c6	0.10048251
76	0x3e06bef6	0.13158783
77	0xbd4b6971	-0.049661104
78	0x3cb09729	0.021556454
79	0x3d1ebebe	0.038756125
80	0x3e2fb6c4	0.17159563
81	0xbce3ac7b	-0.027792206
82	0x3dbb4d7c	0.09145638
83	0xbd88397d	-0.0665159
84	0x3d9ce7ed	0.07661424
85	0x3c999b99	0.018750953
86	0x3d07f44f	0.033191975
87	0xbddba791	-0.1072532
88	0xbd264a14	-0.04059799
89	0xbcf414ba	-0.02979504
90	0x3dcd2d99	0.10018463
91	0xbe115169	-0.14191212
92	0x3cbde1d3	0.02317897
93	0xbdb01ae6	-0.085988805
94	0xbe8664a0	-0.26248646
95	0xbe9b6a4d	-0.3035454
96	0x3e8ffc8b	0.28122362
97	0xbe3a80e3	-0.18213229
98	0x3e99616c	0.2995714
99	0xbd78c843	-0.06073786
100	0xbe8d5d4b	-0.2761024
101	0xbe9dded6	-0.30834073
102	0x3dff23e1	0.12458015
103	0xbe176a5e	-0.1478667
104	0x3d322ff4	0.043502763
105	0xbeb3bd54	-0.35105383
106	0xbdd471db	-0.10373279
107	0x3de53066	0.11190872
108	0x3dd82ecb	0.105558
109	0xbd1b38a3	-0.03789581
110	0xbde07497	-0.10959738
111	0xbd395fc4	-0.045257345
112	0x3e8a7d03	0.270485
113	0xbdb681c6	-0.08911471
114	0xbe92f1f3	-0.28700218
115	0xbe42b95f	-0.19016026
116	0xbb590f57	-0.0033120716
117	0x3ce36ee0	0.02776283
118	0x3eb7c268	0.35890508
119	0x3de1ff7f	0.1103506
120	0x3e28dd20	0.16490602
121	0x3dd9676d	0.1061543
122	0x3e9dbc5b	0.30807766
123	0x3d01c881	0.031685356
124	0xbdb64beb	-0.08901199
125	0xbd7a5c55	-0.06112321
126	0x3ead8773	0.33892402
127	0x3d19b1d0	0.03752309
128	0xbe2e80a6	-0.17041263
129	0x3df1e84c	0.11811885
130	0x3e926ed7	0.2860019
131	0x3dd639bb	0.1046023
132	0x3e4acce8	0.19804728
133	0x3e4c7090	0.19964814
134	0x3e472d5f	0.19450901
135	0x3d4699d0	0.04848653
136	0x3e02a51b	0.12758295
137	0x3e6ca5d0	0.23110127
138	0xbdbed0af	-0.09317147
139	0xbd8d181f	-0.06889366
140	0xbe0628ec	-0.13101548
141	0x3d94db91	0.072684415
142	0xbd2e66cd	-0.042578507
143	0xbce04eaf	-0.02738127
144	0xbd682f21	-0.05668557
145	0xbe0ca00e	-0.13732931
146	0x3ccf2514	0.025286235
147	0x3efac1b6	0.48975915
148	0x3d1fd06a	0.03901712
149	0xbd85ec61	-0.06539226
150	0xbdd86e36	-0.10567896
151	0x3dfa813a	0.12231679
152	0x3e1a5750	0.1507237
153	0xbe68b1e8	-0.22724116
154	0xbdd9bdac	-0.1063188
155	0x3d2e9538	0.042622775
156	0x3e62c25a	0.22144452
157	0x3e81498a	0.25251418
158	0xbd9391f5	-0.072055735
159	0xbe4d58e8	-0.20053446
160	0xbe0641a1	-0.13110973
161	0xbdc0c44e	-0.09412442
162	0x3c43fd11	0.011962191
163	0x3d0b0fdc	0.03395067
164	0xbcabe4be	-0.020983096
165	0x3e16ba5e	0.14719531
166	0xbdec45b1	-0.1153673
167	0x3c1089f4	0.008821953
168	0x3ebb604c	0.36596906
169	0xbda7accb	-0.081872545
170	0x3e07e724	0.13271767
171	0xbde1a40e	-0.11017619
172	0xbe341b57	-0.17588554
173	0xbe829c96	-0.2551009
174	0x3c8c7b02	0.017148498
175	0x3e54fcbe	0.20799538
176	0xbc4d470d	-0.012529147
177	0x3dc82749	0.09773118
178	0x3db39e58	0.08770436
179	0x3e3a79f7	0.18210588
180	0x3d92210e	0.07135211
181	0xbdce2b53	-0.10066857
182	0xbd3ffbf5	-0.046871144
183	0x3e351703	0.1768456
184	0x3e33f046	0.17572126
185	0xbe4bf297	-0.1991676
186	0xbd36c849	-0.0446246
187	0x3cd56252	0.02604786
188	0x3e3ab0dc	0.18231529
189	0xbd9b8168	-0.07593042
190	0x3dc744a6	0.097298905
191	0x3ea13b68	0.31490636
192	0xbd8a043f	-0.06739091
193	0x3dc1a1da	0.09454699
194	0x3e3565ab	0.17714565
195	0x3e8d28f6	0.27570313
196	0x3e22ef6f	0.15911649
197	0xbe63a4c4	-0.22230822
198	0x3ddef72a	0.108869866
199	0xbdf11bda	-0.117728904
200	0xbdb52fd5	-0.08847014
201	0x3ef125f0	0.47099257
202	0x3e25a210	0.16175103
203	0xbea907eb	-0.33013853
204	0x3ec01abe	0.37520403
205	0x3e0a822a	0.13526216
206	0xbe84084a	-0.25787574
207	0x3dab907e	0.08377169
208	0xbdd3881e	-0.10328697
209	0x3d883bf4	0.0665206
210	0xbd0fe073	-0.03512616
211	0x3ce0c3ab	0.027437052
212	0xbe6010e3	-0.21881442
213	0xbeb8321a	-0.35975724
214	0xbd9559fc	-0.07292554
215	0xbe8932b6	-0.26796502
216	0xbd1092d8	-0.03529629
217	0xbe22467a	-0.15847197
218	0x3d9351c0	0.07193327
219	0xbe6dddef	-0.23229192
220	0xbe6b7767	-0.22994767
221	0xbe0b71ea	-0.13617674
222	0x3d8e0b33	0.0693573
223	0xbdc1af41	-0.09457255
224	0x3e30f141	0.17279531
225	0xbeb2b981	-0.34907153
226	0x3da63ad3	0.081166886
227	0xbd0fc767	-0.035102274
228	0xbbea81dc	-0.0071565937
229	0xbe6fc3b0	-0.23414493
230	0x3e443b61	0.19163276
231	0x3c8ff03e	0.017570611
232	0x3e17a831	0.14810254
233	0xbe095e39	-0.1341485
234	0x3ddaa058	0.106751144
235	0x3df5ce75	0.12002269
236	0xbe2ea81a	-0.17056313
237	0x3e588420	0.21144152
238	0xbdb59ca0	-0.088677645
239	0x3e49bb68	0.19700396
240	0x3e6ee4e2	0.233295
241	0x3e3f1584	0.18660551
242	0x3e154b22	0.14579442
243	0x3e155432	0.14582899
244	0x3d53b1c0	0.051683187
245	0xbe1cbe89	-0.15307058
246	0x3e06b56d	0.13155146
247	0xbbfec899	-0.007775378
248	0x3da91452	0.08255829
249	0x3cff963a	0.031199563
250	0xbd06520e	-0.032793097
251	0xbe0ffd19	-0.14061393
252	0x3ea64a35	0.3247849
253	0x3d750f73	0.059829187
254	0xbd51cf7e	-0.05122327
255	0xbe1051e2	-0.14093736

fc2.0.bias f4 [84]
0	0xbe63114d	-0.22174568
1	0xbef662c4	-0.48122227
2	0xbe51a419	-0.20472755
3	0x3d5fe2c8	0.054659635
4	0xbd91cb49	-0.07118852
5	0xbe63e9ec	-0.22257203
6	0x3e3378a5	0.17526491
7	0x3cba61a5	0.022751639
8	0xbd2b8fcc	-0.041885182
9	0xbe8b7749	-0.27239445
10	0x3ec79d27	0.38987085
11	0x3dd044fa	0.10169406
12	0xbcbbc42a	-0.022920687
13	0x3f06a4fa	0.52595484
14	0xbd8e5fe9	-0.06951887
15	0xbd65c6c0	-0.056097746
16	0xbd88a404	-0.066719085
17	0xbe760666	-0.24025878
18	0xbe70566b	-0.23470466
19	0x3dc930e8	0.09823781
20	0xbb522988	-0.0032068212
21	0x3e55e516	0.2088817
22	0x3e0ba12e	0.13635704
23	0x3e74f035	0.23919757
24	0xbde87089	-0.113495894
25	0x3ed8eb7f	0.4236717
26	0x3d82f478	0.06394285
27	0x3d766a0c	0.060159728
28	0x3e207456	0.15669379
29	0x3d46773b	0.04845355
30	0x3ec7f901	0.39057162
31	0x3e22147d	0.15828128
32	0xbcbb784d	-0.022884512
33	0x3e3f036d	0.1865365
34	0xbe852d36	-0.26011056
35	0xbdcd5434	-0.10025826
36	0xbe46d799	-0.19418181
37	0xbeb99b9b	-0.3625153
38	0xbeb5d1f9	-0.3551176
39	0x3cbe7fd1	0.023254307
40	0x3cdc53d1	0.026895436
41	0x3ed70c63	0.42001638
42	0xbe8ac35f	-0.2710218
43	0x3eb0139e	0.34389967
44	0xbdbec2eb	-0.093145214
45	0x3e9ca79d	0.3059663
46	0x3d1cd7db	0.038291793
47	0x3e52bd82	0.20580104
48	0xbde01e08	-0.10943228
49	0xbe139944	-0.14413935
50	0xbd047a7e	-0.03234338
51	0x3e843d8d	0.2582821
52	0x3e1ddd91	0.15416552
53	0x3db7ef19	0.08981151
54	0xbcf2cf1c	-0.029639773
55	0x3d23e3a4	0.040012017
56	0xbe21e0ae	-0.15808365
57	0x3e8677df	0.2626333
58	0xbe6acd83	-0.22929959
59	0xbe0fd4fc	-0.14046091
60	0x3eaa1219	0.33216932
61	0xbe377089	-0.17914023
62	0x3ea58ddb	0.3233479
63	0xbd57ebb5	-0.052715022
64	0x3e057ad1	0.13035132
65	0x3d663f2a	0.05621258
66	0x3e729922	0.23691228
67	0x3d1a6e68	0.037702948
68	0x3c9eeeda	0.019401003
69	0x3e0b4e46	0.13604078
70	0xbe5345d9	-0.20632114
71	0xbdb2f41d	-0.08737967
72	0xbec2c458	-0.38040423
73	0xbd70eb70	-0.05881828
74	0xbe46b88f	-0.19406341
75	0xbe541134	-0.20709687
76	0x3f328f33	0.69749755
77	0x3e195d8b	0.1497709
78	0x3e58282c	0.21109074
79	0x3d852521	0.065012224
80	0xbedf8c6d	-0.43661824
81	0xbea9d855	-0.3317286
82	0x3e23972b	0.15975635
83	0xbdda4919	-0.106584735

fc3.0.weight f4 [10, 84]
0	0xbde66b08	-0.11250883
1	0x3d5b819f	0.053590413
2	0xbe0cdd17	-0.13756214
3	0xbd6d5af3	-0.057948064
4	0x3d3a483c	0.045479044
5	0x3e87147b	0.26382813
6	0xbbd97524	-0.0066362787
7	0xbd9f38d0	-0.07774508
8	0xbdf7d79b	-0.1210167
9	0xbd908292	-0.07056154
10	0x3e38fba0	0.18064737
11	0xbe6d2e50	-0.23162198
12	0xbd77f613	-0.06053741
13	0xbe589fdb	-0.2115473
14	0x3d9a8252	0.07544388
15	0x3d7a1e4f	0.06106406
16	0xbe7f29b1	-0.24918248
17	0x3e6c60db	0.23083822
18	0x3dd9b07a	0.10629363
19	0xbea2dbf3	-0.31808433
20	0xbea0048e	-0.31253475
21	0x3e8b2c31	0.27182153
22	0x3e7d5fae	0.2474353
23	0x3e11d4ad	0.14241286
24	0x3e03434d	0.12818642
25	0xbe6bc3e8	-0.23023951
26	0xbe1e6f42	-0.15472129
27	0x3e378a08	0.17923748
28	0x3e28c417	0.16481052
29	0x3e1a8aeb	0.15092055
30	0x3ddbb8bb	0.10728594
31	0xbccffcf9	-0.025389181
32	0xbe250432	-0.16114882
33	0xbe9f6191	-0.31129125
34	0x3e922e4c	0.28550947
35	0x3ee790d8	0.45227695
36	0xbe13e926	-0.14444408
37	0xbd9b3807	-0.07579046
38	0x3ead60d2	0.3386293
39	0x3df35cc1	0.11882926
40	0xbe1f1ec7	-0.15539084
41	0xbdd2845a	-0.1027915
42	0xbdd4bd9e	-0.10387729
43	0xbe1bc9b0	-0.15213656
44	0xbd55649e	-0.05209791
45	0xbe903c99	-0.28171232
46	0xbdde0550	-0.10840857
47	0x3e0d95dc	0.13826698
48	0xbdc09568	-0.09403497
49	0x3e07078f	0.13186477
50	0xbe0f882b	-0.14016788
51	0x3e4a21f3	0.19739513
52	0x3e688265	0.22705992
53	0x3e33f29c	0.17573017
54	0x3e6951ae	0.22785065
55	0x3d0c1099	0.034195516
56	0x3e8d45bd	0.2759227
57	0x3c7b3fd0	0.015335038
58	0xbe2dd889	-0.16977133
59	0x3c94c0a2	0.01815826
60	0xbe67cf96	-0.22637782
61	0xbb363df3	-0.002780792
62	0x3dda64fe	0.10663794
63	0xbdb78c7e	-0.08962344
64	0xbd4fa522	-0.050694592
65	0x3d8ec42e	0.06971012
66	0x3e93fe25	0.28904834
67	0x3de93dbf	0.1138873
68	0x3e6b8f0c	0.23003787
69	0xbe252331	-0.16126706
70	0x3e6dab8f	0.23209976
71	0x3e812ff2	0.25231892
72	0x3d0c8d9f	0.034314748
73	0x3dc2ac74	0.09505549
74	0x3d23eca1	0.04002059
75	0x3d844c03	0.064598106
76	0x3d94ac87	0.072594695
77	0x3bf7cf1d	0.0075625316
78	0x3dbee437	0.09320872
79	0x3e00816e	0.12549374
80	0xbe765c56	-0.24058661
81	0x3e10325a	0.14081708
82	0xbdf0c2dd	-0.11755917
83	0x3dbe07f1	0.092788585
84	0xbdd16a6b	-0.10225376
85	0xbe44d7b9	-0.19222917
86	0xbe23b3fc	-0.15986627
87	0x3e97adc8	0.29624772
88	0xbe3b1302	-0.1826897
89	0xbe2e3989	-0.17014135
90	0x3d7fa7a8	0.06241575
91	0xbced7d82	-0.02899051
92	0x3e4d4619	0.20046271
93	0xbe85ef38	-0.26159072
94	0x3ec39310	0.38198137
95	0x3e0aa5d6	0.13539824
96	0xbe5bf2c8	-0.21479332
97	0x3e2b5aa9	0.16733803
98	0xbe88bf30	-0.26708364
99	0x3c68785e	0.014188854
100	0xbe83e4ed	-0.25760594
101	0x3c16b943	0.009199443
102	0xbd1b0a30	-0.037851512
103	0xbe6508c4	-0.22366625
104	0xbe2933cc	-0.16523665
105	0xbe44e70c	-0.19228762
106	0x3e4d3fec	0.20043916
107	0xbc1c063e	-0.009522973
108	0x3ce77096	0.028251927
109	0xbe7e6f83	-0.24847226
110	0x3e4691ce	0.19391558
111	0x3e129969	0.14316334
112	0xbe6f985e	-0.23397967
113	0xbda7463a	-0.081676915
114	0x3e8e0971	0.27741578
115	0x3e3f7056	0.18695197
116	0xbe56ef88	-0.20989811
117	0x3dc570a1	0.09640623
118	0x3d79d9ed	0.060998846
119	0x3ea98e05	0.33116165
120	0x3d46400b	0.04840092
121	0x3b9c132f	0.004763029
122	0x3e1a1392	0.15046528
123	0xbe2bdb83	-0.16782956
124	0x3e1ddd2d	0.15416403
125	0x3e52cb7b	0.20585434
126	0x3e73e27c	0.23816866
127	0x3e80677e	0.25078958
128	0xbdde62af	-0.10858666
129	0x3d2b20b4	0.041779235
130	0xbe62028e	-0.22071287
131	0x3e5c7f4a	0.21532932
132	0xbdb8b032	-0.090179816
133	0x3e0874c2	0.1332579
134	0xbe50ba36	-0.20383534
135	0x3e079558	0.13240564
136	0xbe5cdffc	-0.21569818
137	0xbdb90787	-0.09034639
138	0xbdb71760	-0.08940005
139	0xbcdfa0e3	-0.027298396
140	0xbc947b78	-0.01812528
141	0x3e050aaa	0.1299235
142	0xbbc22640	-0.00592497
143	0x3d32c3f7	0.043643918
144	0xbe190671	-0.14943863
145	0xbc19da49	-0.009390422
146	0xbe30cff1	-0.17266823
147	0x3e036aed	0.12833758
148	0xbdd7c21f	-0.105350725
149	0xbdabf7cc	-0.08396873
150	0x3c39c55d	0.011338559
151	0xbe117d98	-0.14208066
152	0xbe0bb413	-0.13642912
153	0xbe0b3719	-0.13595237
154	0xbe35c8eb	-0.17752425
155	0xbe8dcd7f	-0.27695844
156	0xbe67229e	-0.22571799
157	0x3e3b3694	0.18282539
158	0xbe659b81	-0.22422601
159	0xbeb0c940	-0.34528542
160	0x3d5fde56	0.054655395
161	0x3e9f4736	0.31109017
162	0x3e19722e	0.14984962
163	0xbdec951f	-0.1155188
164	0xbc84f9d3	-0.016232407
165	0xbe829f2e	-0.2551207
166	0x3e8fba47	0.28071806
167	0x3e440698	0.1914314
168	0x3e149747	0.14510833
169	0xbe825578	-0.25455832
170	0xbe5a0f45	-0.21294887
171	0xbda2a138	-0.07940906
172	0xbd6b252f	-0.057408508
173	0xbc8b4497	-0.01700048
174	0x3e792788	0.24331486
175	0xbdfc6e47	-0.12325721
176	0x3e16d8ce	0.14731142
177	0xbe301a02	-0.17197421
178	0xbde65c71	-0.112481005
179	0xbe6725ca	-0.22573009
180	0xbe326ee9	-0.17425121
181	0xbd4b9975	-0.049706895
182	0x3dc7a34b	0.097479425
183	0x3da1e7d5	0.079055466
184	0xbddc18ee	-0.107469425
185	0x3e92005b	0.28515896
186	0x3b9a7b79	0.004714426
187	0x3e19d976	0.15024361
188	0x3e5c5057	0.21515022
189	0x3e7bdcee	0.24595997
190	0x3d0d3859	0.034477565
191	0xbe41f89e	-0.18942496
192	0xbdbf340c	-0.09336099
193	0xbd415adb	-0.047205787
194	0xbda2326d	-0.07919774
195	0xbe4531ef	-0.1925733
196	0xbdac7f5e	-0.08422731
197	0x3e84cee7	0.25939104
198	0xbe00a631	-0.12563397
199	0xbdeca836	-0.11555521
200	0xbe1c0428	-0.1523596
201	0xbca84999	-0.020542907
202	0xbe2f2d7c	-0.17107195
203	0xbc19ea5b	-0.009394254
204	0xbdf3fcfd	-0.11913488
205	0xbe8150d0	-0.25256968
206	0xbe03dd61	-0.12877418
207	0xbe02b5ef	-0.12764715
208	0xbe35fc7f	-0.17772101
209	0xbe47853c	-0.19484419
210	0xbe17fb88	-0.14842045
211	0x3d122d28	0.035687596
212	0xbd554a7a	-0.05207298
213	0x3e1682bf	0.14698313
214	0x3c081524	0.008305822
215	0x3d2470bf	0.040146586
216	0xbe7a6f08	-0.24456418
217	0xbe1e1ea9	-0.15441383
218	0xbe08c457	-0.13356148
219	0x3e6a3731	0.22872616
220	0x3db24047	0.08703666
221	0x3d935df7	0.07195657
222	0xbd9b0539	-0.075693555
223	0x3e2d57d3	0.16928034
224	0x3e29b80c	0.16574115
225	0x3dbed9a4	0.093188554
226	0x3d915a94	0.070973545
227	0x3e03d99a	0.12875977
228	0x3e1f700b	0.15570085
229	0x3d999795	0.07499615
230	0xbe69ce28	-0.22832549
231	0x3db6b9f3	0.08922186
232	0xbe765a23	-0.24057822
233	0xbdc2bb1f	-0.09508347
234	0xbe85a72e	-0.2610411
235	0x3e29bfdd	0.16577096
236	0x3de126bc	0.10993716
237	0x3e787966	0.2426506
238	0xbba67f1e	-0.0050810715
239	0x3d1bf54d	0.038075734
240	0xbe15d090	-0.14630342
241	0xbd7ba20f	-0.061433848
242	0xbe3c978b	-0.18417184
243	0xbe29075a	-0.1650671
244	0x3e719910	0.23593545
245	0x3df1cebb	0.11807009
246	0xbdb67d27	-0.0891059
247	0xbd6ef581	-0.0583396
248	0xbe27765f	-0.16353749
249	0xbd41afd3	-0.04728682
250	0xbdd4191a	-0.1035635
251	0x3e260071	0.16211106
252	0x3e355548	0.17708313
253	0x3e2f5802	0.17123416
254	0x3debb9bd	0.11510036
255	0xbe19bc5d	-0.15013261

fc3.0.bias f4 [10]
0	0xbf0934d6	-0.53596246
1	0xbbf63188	-0.007513229
2	0x3e3314a1	0.17488338
3	0xbee50829	-0.44732788
4	0xbd84d0fe	-0.064851746
5	0x3dad4df5	0.08462135
6	0xbeffd5cd	-0.49967805
7	0x3e3713bb	0.1787862
8	0x3eac0697	0.33598778
9	0x3b6fa49d	0.0036566623
