save_checkpoints/LeNet5_epoch_59.pth (torch, 249863 bytes, 10 tensors)

conv1.0.weight f4 [6, 1, 5, 5]
0.0077220616 -0.020117778 -0.09815805 -0.02163973 -0.009204208 -0.01221449 -0.055752635 0.03247733
0.07377604 -0.15194438 0.12831213 -0.005619484 -0.026258184 -0.06842788 0.29463577 0.3165399
0.25252768 0.46203205 0.15318505 -0.009706623 -0.22976033 -0.073594585 -0.2951432 -0.06734931
-0.032000136 -0.032585878 -0.015775304 -0.03438685 -0.12515007 0.19165362 -0.02013919 -0.085231215
0.1437613 0.32440984 0.09417193 0.042859998 0.13992074 0.054082714 0.036205243 0.035429064
-0.37553665 0.056120954 0.24187317 -0.033665918 -0.29034954 -0.3246435 0.10577609 -0.16475527
0.03199628 -0.18052052 -0.009746374 0.08026145 0.21851973 0.097831696 0.008491428 0.09386156
-0.04647079 0.003405233 0.08672385 0.13356483 0.1411442 0.20951009 -0.07217657 0.09277941
-0.03568648 -0.21883255 -0.36760998 -0.17938931 -0.2140319 0.26222193 -0.45825204 -0.08276917
-0.023436934 -0.09598293 -0.30722076 -0.03502301 -0.00065742305 -0.11893013 0.04609606 -0.22772722
-0.020106707 -0.13668585 -0.023282016 0.00555718 -0.13506706 -0.055318013 -0.11944338 -0.162802
0.16008893 -0.15974611 0.11395615 0.076046355 0.26773494 -0.0021860255 0.4020505 -0.028881894
0.17163509 0.28855205 0.042950545 -0.04115561 -0.027759993 0.049307805 0.03151447 0.14676902
-0.27820817 -0.0037581217 0.11868861 0.25843495 0.0890153 0.09442627 -0.2239757 0.24115734
0.11015741 -0.08830478 0.07661595 0.038146477 0.25550827 -0.10194278 -0.1056311 -0.08769794
0.074460775 0.023040367 0.057224162 -0.089348905 -0.313783 0.09110071 0.21062298 0.019829582
0.111941926 -0.020418223 -0.03040902 0.002920934 0.22928856 -0.0040140543 -0.039053988 0.050179202
0.076639526 0.02437887 -0.057031885 -0.19240691 -0.019418687 -0.07819331 0.07598756 -0.38141817
-0.24793307 -0.03799161 0.009645848 -0.2357579 -0.121303864 0.19552848
00000000: 5909 fd3b 0ace a4bc 1607 c9bd ce45 b1bc
00000010: 3fcd 16bc 491f 48bc e05c 64bd f306 053d
00000020: e417 973d 4f97 1bbe 4164 033e a623 b8bb
00000030: 671b d7bc eb23 8cbd 80da 963e 8511 a23e
00000040: 4f4b 813e 778f ec3e 8bdc 1c3e 8708 1fbc
00000050: 4b46 6bbe c2b8 96bd 021d 97be 6fee 89bd
00000060: 9312 03bd c578 05bd 363b 81bc 3ad9 0cbd
00000070: 5727 00be d940 443e f1fa a4bc b48d aebd
00000080: 2a36 133e 0c19 a63e 36dd c03d f78d 2f3d
00000090: 6247 0f3e d685 5d3d f34b 143d 111e 113d
000000a0: 5746 c0be 16df 653d 9aad 773e 46e5 09bd
000000b0: b2a8 94be ac37 a6be 22a1 d83d 9bb5 28be
000000c0: 880e 033d 5fda 38be 41af 1fbc 1d60 a43d
000000d0: a3c3 5f3e fc5b c83d a11f 0b3c 7d3a c03d
000000e0: 2858 3ebd 542a 5f3b 469c b13d 38c5 083e
000000f0: 1b88 103e d089 563e 4fd1 93bd 2203 be3d
00000100: fd2b 12bd a415 60be 6037 bcbe d5b1 37be
00000110: 2e2b 5bbe f441 863e 03a0 eabe e282 a9bd
00000120: d0fe bfbc b392 c4bd 0a4c 9dbe 4a74 0fbd
00000130: ea56 2cba a491 f3bd 39cf 3c3d 5331 69be
00000140: d2b6 a4bc 60f7 0bbe edb9 bebc 0119 b63b
00000150: 054f 0abe 2495 62bd bb9e f4bd 91b5 26be
00000160: 5aee 233e 7c94 23be d861 e93d 31be 9b3d
00000170: 8e14 893e 6c43 0fbb 90d9 cd3e b999 ecbc
00000180: 1cc1 2f3e 18bd 933e e9ec 2f3d c992 28bd
00000190: ed68 e3bc fbf6 493d 5115 013d 9e4a 163e
000001a0: 4d71 8ebe d24a 76bb 0413 f33d 9651 843e
000001b0: a74d b63d 8f62 c13d e359 65be f3f1 763e
000001c0: 359a e13d 23d9 b4bd d3e8 9c3d 7b3f 1c3d
000001d0: fbd1 823e 60c7 d0bd 1e55 d8bd fa9a b3bd
000001e0: e47e 983d 27bf bc3c e263 6a3d 8ffc b6bd
000001f0: 2aa8 a0be 0293 ba3d 8dad 573e a671 a23c
00000200: cf41 e53d 1e44 a7bc 561c f9bc 246d 3f3b
00000210: 9fca 6a3e 5488 83bb 13f7 1fbd b588 4d3d
00000220: 2ff5 9c3d 32b6 c73c 449a 69bd 5106 45be
00000230: f013 9fbc d023 a0bd 5e9f 9b3d 3e49 c3be
00000240: 2be2 7dbe 179d 1bbd 9e09 1e3c 856a 71be
00000250: 296e f8bd 9e38 483e

conv1.0.bias f4 [6]
-0.032451585 -0.070879444 -0.01349898 0.045158893 -0.38974172 -0.24351214
00000000: f4eb 04bd 3e29 91bd d32a 5dbc 88f8 383d
00000010: 3a8c c7be 3f5b 79be

conv2.0.weight f4 [16, 6, 5, 5]
0.16029687 0.0634877 0.023414973 -0.10237235 -0.18902187 -0.023361852 0.059296723 0.08658359
-0.053014982 -0.1258519 -0.16271324 -0.13942046 -0.044175025 -0.020024901 -0.08401917 -0.05934536
-0.17539285 -0.104001306 -0.07411995 -0.13222294 0.018032396 -0.04377803 -0.044627536 -0.078562416
-0.12262239 -0.04600821 -0.17300573 -0.23861273 -0.13464823 -0.015894262 0.102633834 0.10145082
-0.030102313 -0.09413201 -0.10700069 0.029230427 0.17330568 0.107759185 -0.020237567 -0.08087646
-0.11089542 -0.04905606 0.014642187 -0.029275078 -0.023175728 -0.008096841 -0.045429938 0.009701028
-0.0006310958 -0.040252186 -0.030007856 -0.09680841 -0.17970137 -0.07772975 0.123902895 0.07433554
0.014061922 -0.19753695 -0.32731846 -0.16778174 0.057551764 0.1294324 0.09998232 -0.14628871
-0.0728744 -0.16403641 -0.0044774045 0.009045637 0.045126095 0.014623866 -0.036105696 -0.058090102
0.013366097 0.0389433 0.075100124 -0.019734118 0.059502155 0.07725559 0.012431964 -0.10340344
-0.09076017 -0.053629763 0.13223326 0.098195516 -0.009345417 -0.13831097 -0.179513 -0.045378093
-0.005804903 0.03868868 0.009084294 -0.07097243 -0.04462314 -0.050088067 -0.049278013 0.004587073
-0.094952956 -0.15734257 -0.10957234 -0.028826572 -0.012581627 0.0043129707 0.02847375 0.0909898
0.038418792 0.07225781 0.06542244 0.06741091 0.10034778 -0.077260055 0.041481636 0.037160166
0.071383215 0.09215858 0.0003066195 -0.045899875 -0.07971314 -0.1150812 -0.012901299 -0.026542168
-0.04971137 -0.07177844 -0.078016564 -0.09127178 -0.1164899 -0.052496605 -0.15865712 -0.08332786
-0.0021440596 0.07441297 -0.11904817 -0.29162994 -0.36354873 -0.21638995 -0.12522364 0.06011821
-0.006683456 -0.08576951 -0.1290014 -0.14848158 -0.011282807 -0.038126305 -0.029540583 -0.05296922
-0.047165062 0.0393785 0.04534937 -0.008933058 0.00019761358 0.063072614 0.0010446968 -0.0049417284
-0.16448778 -0.12573655 -0.18485832 -0.047198556 -0.06875679 -0.15438494 -0.31421676 -0.30090237
0.019287229 0.03351196 -0.083136044 -0.06609419 -0.079833 0.04374633 0.097407326 0.046244167
-0.10246856 0.022749964 0.011095584 -0.031245854 -0.10425152 -0.094684154 -0.042230766 -0.08712799
-0.09456866 -0.09689858 -0.055135813 -0.10314267 -0.04468692 0.13952513 0.06772537 -0.06527642
0.010298043 -0.07710402 -0.044466477 -0.1673439 -0.11209275 -0.05870019 -0.07153726 0.023047224
0.03961084 0.17863189 0.055426996 0.23373863 0.09394212 0.07633669 0.19453919 0.0051067313
0.028148688 -0.030592125 -0.10733342 0.036381576 -0.013393979 0.17997544 -0.05126693 -0.21921892
0.010761414 -0.010938603 -0.037570603 0.018599672 -0.12496575 -0.23784994 -0.2415594 -0.16813321
0.032490697 -0.11677173 -0.08835273 -0.0041870726 -0.009832388 -0.012997481 0.17033158 -0.08989851
-0.09215948 -0.0066886144 -0.028519487 -0.014447465 -0.12553683 -0.061523918 -0.051654674 0.013058231
0.005078885 -0.02932324 0.029818948 -0.033857733 0.12929553 0.21382552 0.15444647 0.1402718
0.11654637 0.030440046 0.038595837 0.07719705 0.009919448 -0.1364796 -0.20348895 -0.117116764
-0.055411916 -0.051494993 0.0036063397 -0.16217312 -0.031122025 -0.046523105 -0.16844271 0.19155195
00000000: dd24 243e d705 823d c2d0 bf3c 98a8 d1bd
00000010: f38e 41be 5b61 bfbc 1fe1 723d bd52 b13d
00000020: 3d26 59bd 52df 00be 4d9e 26be 3dc4 0ebe
00000030: dff0 34bd 430b a4bc 3e12 acbd 1f14 73bd
00000040: 2f9a 33be a3fe d4bd 33cc 97bd 7365 07be
00000050: adb8 933c 9750 33bd 5dcb 36bd 55e5 a0bd
00000060: 7321 fbbd 1b73 3cbd 6a28 31be e556 74be
00000070: 3ae1 09be af34 82bc b031 d23d 73c5 cf3d
00000080: 2099 f6bc 49c8 c0bd 2e23 dbbd a674 ef3c
00000090: 0b77 313e d9b0 dc3d 41c9 a5bc 8fa2 a5bd
000000a0: 231d e3bd 02ef 48bd c9e5 6f3c 4ad2 efbc
000000b0: 06db bdbc 9da8 04bc be14 3abd 0ff1 1e3c
000000c0: 1f70 25ba 7adf 24bd 09d3 f5bc 7d43 c6bd
000000d0: a303 38be c630 9fbd cdc0 fd3d 3b3d 983d
000000e0: fa63 663c 2047 4abe 4996 a7be face 2bbe
000000f0: 66bb 6b3d ed89 043e 88c3 cc3d b5cc 15be
00000100: 2c3f 95bd 29f9 27be 31b7 92bb 2734 143c
00000110: 24d6 383d f198 6f3c 91e3 13bd e3ef 6dbd
00000120: 79fd 5a3c 0283 1f3d 18ce 993d 72a9 a1bc
00000130: 88b8 733d 2e38 9e3d 70af 4b3c 2fc5 d3bd
00000140: 78e0 b9bd e2aa 5bbd 2868 073e bb1a c93d
00000150: 851d 19bc 64a1 0dbe 42d2 37be 61de 39bd
00000160: 0e37 bebb 0578 1e3d 4ad6 143c fe59 91bd
00000170: c1c6 36bd 2529 4dbd bed7 49bd 284f 963b
00000180: b276 c2bd 691e 21be 7767 e0bd b425 ecbc
00000190: 2b23 4ebc d253 8d3b c841 e93c dc58 ba3d
000001a0: 065d 1d3d e7fb 933d 33fc 853d bb0e 8a3d
000001b0: 2383 cd3d 853a 9ebd a6e8 293d 4235 183d
000001c0: 5d31 923d a3bd bc3d c6c1 a039 8201 3cbd
000001d0: a540 a3bd b1af ebbd f85f 53bc f66e d9bc
000001e0: 269e 4bbd 9300 93bd 26c7 9fbd b3ec babd
000001f0: 4292 eebd ae06 57bd 0377 22be cca7 aabd
00000200: 5a83 0cbb d465 983d 87cf f3bd 8550 95be
00000210: 0f23 babe 5495 5dbe a03a 00be 833e 763d
00000220: e400 dbbb eda7 afbd f118 04be 8e0b 18be
00000230: 86db 38bc 542a 1cbd 18ff f1bc 41f6 58bd
00000240: 2730 41bd 5a4b 213d 43c0 393d f65b 12bc
00000250: 7e36 4f39 372c 813d 35ee 883a 39ee a1bb
00000260: 7c6f 28be 15c1 00be 804b 3dbe 4653 41bd
00000270: 5cd0 8cbd 1617 1ebe 05e1 a0be e00f 9abe
00000280: 4000 9e3c d643 093d 3b43 aabd 645c 87bd
00000290: 7c7f a3bd 5a2f 333d 7e7d c73d 866a 3d3d
000002a0: 09db d1bd 225e ba3c 41ca 353c 4ef7 ffbc
000002b0: d281 d5bd c4e9 c1bd 2bfa 2cbd 2970 b2bd
000002c0: 37ad c1bd c372 c6bd 17d6 61bd 773c d3bd
000002d0: a209 37bd addf 0e3e 99b3 8a3d a5af 85bd
000002e0: 1fb9 283c b6e8 9dbd 7b22 36bd 335c 2bbe
000002f0: e290 e5bd 9c6f 70bd 2182 92bd 88cd bc3c
00000300: fa3e 223d 47eb 363e 6b07 633d 2e59 6f3e
00000310: ba64 c03d 6956 9c3d 4835 473e 5e56 a73b
00000320: 1498 e63c 569c fabc a0d1 dbbd d904 153d
00000330: 6b72 5bbc 7b4b 383e 46fd 51bd ed7a 60be
00000340: a450 303c d437 33bc a2e3 19bd 575e 983c
00000350: 0bee ffbd ef8e 73be 595b 77be 1d2b 2cbe
00000360: f714 053d 0426 efbd 47f2 b4bd b633 89bb
00000370: 0618 21bc 63f3 54bc 676b 2e3e b61c b8bd
00000380: 1cbe bcbd 2a2c dbbb b3a1 e9bc 0fb5 6cbc
00000390: ba8c 00be 8100 7cbd da93 53bd 31f2 553c
000003a0: c66c a63b 4b37 f0bc de46 f43c 68ae 0abd
000003b0: 0c66 043e 14f5 5a3e 3727 1e3e 69a3 0f3e
000003c0: ddaf ee3d 675d f93c ab16 1e3d 7d19 9e3d
000003d0: 2e85 223c 4fc1 0bbe 685f 50be eada efbd
000003e0: 9bf7 62bd 6aec 52bd 5758 6c3b b610 26be
000003f0: 9ef3 febc 038f 3ebd 3f7c 2cbe 3226 443e

conv2.0.bias f4 [16]
-0.59940666 -0.5519445 -0.73432046 -0.49973005 -0.9269726 -0.71914834 -1.2497776 -0.7131283
-0.5964373 -0.46307293 -0.80091447 -0.24194247 -0.2636231 -0.4093366 -0.38409394 -0.60642815
00000000: b772 19bf 3c4c 0dbf 6dfc 3bbf 9edc ffbe
00000010: 144e 6dbf 1b1a 38bf b6f8 9fbf 948f 36bf
00000020: 1db0 18bf e517 edbe bb08 4dbf c4bf 77be
00000030: 9bf9 86be 9194 d1be f6a7 c4be e03e 1bbf

fc1.0.weight f4 [120, 400]
0.04709752 -0.08300341 0.17790112 0.09080028 0.04146205 -0.107270494 0.0569265 0.07214755
0.22423998 0.16602951 0.06460437 0.053025022 0.11129763 0.053904023 -0.09928387 -0.032595605
0.012597295 -0.04502096 0.070175454 -0.06520133 0.12064063 0.04820437 -0.082386635 0.08399133
0.16929756 -0.035885982 0.044019725 -0.06328396 0.049792275 -0.010133776 0.10937254 0.07667494
0.047271665 0.06985172 0.15970923 -0.02757096 0.05490905 0.057480346 0.0171411 -0.032266904
0.14711444 -0.022068718 0.042811617 0.02580528 0.3336748 0.16682109 -0.067539975 -0.11222286
-0.035466794 0.17391317 0.1400448 0.12190862 0.052286047 0.073068015 -0.04293465 0.19276318
0.042788427 -0.09638797 -0.26751077 0.12576625 0.34303558 0.072648 -0.09658249 -0.13456675
0.1814798 0.23257159 0.15353477 -0.008306092 -0.096583046 -0.23680909 0.026931792 0.036869824
0.030843662 -0.12147573 -0.11314526 0.0209019 0.042407107 0.28252232 0.30583322 0.09320528
0.19995143 0.2704943 -0.0037337763 -0.1168748 0.07759179 0.3328614 0.107772924 -0.04850555
-0.09355537 0.08387937 0.00021690647 0.01655422 0.010731323 -0.012496912 -0.0085356 0.15014435
-0.01989523 -0.046964366 -0.0017979718 -0.00026922888 0.09589462 0.10795471 0.16972771 0.1776432
-0.102420375 0.04745876 0.16590318 0.0871092 -0.10366916 0.05602578 0.09413247 0.016182285
0.10682412 0.00031705413 -0.08162255 0.046687264 0.1491407 0.22693777 -0.10412108 -0.0709727
-0.040709507 0.026456151 0.033377152 0.080258556 0.08153333 0.065376274 0.059426706 -0.23409112
-0.33993027 -0.055897348 0.012554673 -0.013594982 -0.11971823 -0.23224841 -0.03756727 -0.053366136
-0.013741874 -0.05505523 -0.07672706 0.12994228 0.14039755 0.0016642462 -0.077780634 -0.06416587
0.10548008 -0.08205216 -0.11993447 0.15637197 -0.066969045 0.038712785 -0.06488487 0.2406933
-0.07963415 -0.20547877 -0.056597676 -0.030724948 0.056579724 -0.15265289 -0.07738634 -0.23234622
-0.021226302 0.1686815 -0.026385149 -0.0748778 0.00014213199 -0.01035867 -0.0077370373 0.010314286
-0.10038074 -0.028296849 -0.086746685 -0.10659424 0.0109243505 0.15042533 -0.11579403 -0.031211471
0.08980877 0.16012423 0.030626189 0.009083992 0.14830299 0.09741028 -0.052802965 0.10533485
-0.050688427 0.19039732 0.0419026 -0.04099644 -0.13510585 -0.0029252963 0.30724835 0.031814538
-0.15805072 0.02267211 0.16669843 0.24614432 0.13752896 0.03210663 -0.09173394 -0.11718758
0.02846535 0.06527174 -0.11557784 -0.058084447 0.047777712 -0.09111894 0.1310022 0.0509736
-0.06443432 -0.029560782 0.1323822 0.07763101 -0.12836753 -0.07718117 0.1821284 0.2349485
0.068595745 -0.041311305 -0.09009389 -0.037650306 0.0019564028 0.1401204 0.052983228 -0.045093928
-0.17058937 -0.19831766 -0.08811156 -0.08421565 -0.14168361 -0.21481703 -0.019608717 -0.09841633
-0.054011777 -0.15198041 -0.026172927 -0.031340566 -0.06654457 -0.07419824 0.110846385 0.035738483
0.13581401 0.016550748 0.01787997 0.0071902205 -0.064834185 -0.0093019195 0.03799595 0.052923955
-0.07829072 -0.008032203 0.04232867 0.0574634 0.066423066 0.095257446 -0.04515948 0.1545716
00000000: 54e9 403d b1fd a9bd b62b 363e 7ff5 b93d
00000010: 1cd4 293d a2b0 dbbd c32b 693d 18c2 933d
00000020: 2a9f 653e a403 2a3e 4c4f 843d c430 593d
00000030: 03f0 e33d 77ca 5c3d 5755 cbbd f882 05bd
00000040: e364 4e3c e667 38bd 26b8 8f3d 4688 85bd
00000050: 6f12 f73d f271 453d 53ba a8bd a503 ac3d
00000060: 575c 2d3e 2efd 12bd 074e 343d 059b 81bd
00000070: fcf2 4b3d 2308 26bc b6fe df3d c007 9d3d
00000080: ef9f 413d 6b0e 8f3d d18a 233e 7edc e1bc
00000090: 50e8 603d 8370 6b3d 7e6b 8c3c 4d2a 04bd
000000a0: 2ba5 163e 75c9 b4bc 3c5b 2f3d 9865 d33c
000000b0: 6cd7 aa3e 26d3 2a3e 6652 8abd 19d5 e5bd
000000c0: a145 11bd 4b16 323e e767 0f3e 3aab f93d
000000d0: e529 563d afa4 953d 3edc 2fbd b663 453e
000000e0: eb42 2f3d 0e67 c5bd 2cf7 88be dec8 003e
000000f0: 5ca2 af3e 7ac8 943d 0acd c5bd decb 09be
00000100: d7d5 393e 3f27 6e3e 3838 1d3e 4616 08bc
00000110: 55cd c5bd 157e 72be 10a0 dc3c d004 173d
00000120: d9ab fc3c 44c8 f8bd b4b8 e7bd 763a ab3c
00000130: 13b3 2d3d c4a6 903e 2c96 9c3e 69e2 be3d
00000140: 11c0 4c3e 3b7e 8a3e 5fb2 74bb 0e5c efbd
00000150: 72e8 9e3d cf6c aa3e 0db8 dc3d c1ad 46bd
00000160: f599 bfbd f2c8 ab3d 6371 6339 b79c 873c
00000170: 6ed2 2f3c d9bf 4cbc e7d8 0bbc 71bf 193e
00000180: 52fb a2bc b55d 40bd eca9 ebba 4a27 8db9
00000190: 6664 c43d 5c17 dd3d 1acd 2d3e 19e8 353e
000001a0: c6c1 d1bd 1e64 423d 86e2 293e 4f66 b23d
000001b0: 7f50 d4bd 4a7b 653d 86c8 c03d b690 843c
000001c0: 9bc6 da3d 493a a639 b929 a7bd 253b 3f3d
000001d0: 57b8 183e 6062 683e 6f3d d5bd 235a 91bd
000001e0: 03bf 26bd 92ba d83c 7bb6 083d 995e a43d
000001f0: f2fa a63d ffe3 853d 6b69 733d 95b5 6fbe
00000200: 570b aebe 9ef4 64bd 1db2 4d3c 7dbd 5ebc
00000210: d52e f5bd 87d2 6dbe 23e0 19bd 7396 5abd
00000220: 9925 61bc 9881 61bd 1423 9dbd 970f 053e
00000230: 60c4 0f3e d622 da3a 744b 9fbd 6569 83bd
00000240: f105 d83d f60a a8bd 34a0 f5bd f91f 203e
00000250: 1127 89bd 4c91 1e3d 5ce2 84bd 4e78 763e
00000260: 3b17 a3bd 0769 52be f7d2 67bd e3b2 fbbc
00000270: 24c0 673d 0a51 1cbe bb7c 9ebd 2bec 6dbe
00000280: c8e2 adbc d8ba 2c3e ab25 d8bc 8859 99bd
00000290: 4409 1539 69b7 29bc f986 fdbb 40fd 283c
000002a0: 6b94 cdbd cbce e7bc 3fa8 b1bd 154e dabd
000002b0: 0cfc 323c 1909 1a3e 6c25 edbd 33af ffbc
000002c0: a9ed b73d 9bf7 233e c6e3 fa3c 06d5 143c
000002d0: bddc 173e 0a7f c73d ec47 58bd ccb9 d73d
000002e0: ab9e 4fbd 84f7 423e 10a2 2b3d e2eb 27bd
000002f0: 3059 0abe 54b6 3fbb a84f 9d3e f64f 023d
00000300: 0cd8 21be dcba b93c feb2 2a3e 420d 7c3e
00000310: 64d4 0c3e 3e82 033d 01df bbbd 0b00 f0bd
00000320: 2a30 e93c 31ad 853d 13b4 ecbd f5e9 6dbd
00000330: 90b2 433d 919c babd 7125 063e b2c9 503d
00000340: 24f6 83bd 7429 f2bc 338f 073e 02fd 9e3d
00000350: c772 03be 2911 9ebd de7f 3a3e 5796 703e
00000360: ed7b 8c3d 0b36 29bd 2583 b8bd 3537 1abd
00000370: fe36 003b b97b 0f3e f104 593d 69b4 38bd
00000380: fbae 2ebe c913 4bbe d573 b4bd 4179 acbd
00000390: 8215 11be fff8 5bbe 76a2 a0bc 808e c9bd
000003a0: 743b 5dbd c1a0 1bbe 9b68 d6bc f75e 00bd
000003b0: 8548 88bd 3ff5 97bd 6e03 e33d 8462 123d
000003c0: d412 0b3e 6f95 873c 0479 923c f19b eb3b
000003d0: c9c7 84bd 1467 18bc a4a1 1b3d cac6 583d
000003e0: e356 a0bd 8099 03bc d460 2d3d be5e 6b3d
000003f0: d108 883d 5616 c33d 26f9 38bd 0448 1e3e

fc1.0.bias f4 [120]
0.18248789 0.31660742 0.25793985 -0.14736527 0.34238172 -0.11495847 0.088507384 0.06135988
0.1665041 0.34581107 0.30975464 -0.059916377 -0.054986745 -0.15248077 -0.006768411 -0.32782638
-0.04636709 0.21930538 0.45518795 -0.09695324 0.4918237 -0.0747119 0.22218977 -0.27739328
0.1023334 0.2623344 0.355267 -0.43148732 -0.49952403 0.26003298 -0.10039754 -0.44533378
0.018108616 -0.0758384 0.31458437 -0.31973284 -0.18964475 0.24248303 0.30019426 0.09276639
0.1577543 -0.14104988 -0.19012895 -0.0285004 0.13563001 -0.0033681262 0.42569593 0.058507793
0.22645368 -0.26917267 -0.024993313 -0.08955635 -0.16692536 0.012660599 0.009058172 -0.04229287
0.12373295 -0.48717403 0.27014816 -0.118788026 -0.28531888 0.101889275 -0.17559332 -0.09221124
-0.21314159 -0.081662305 -0.33590645 -0.146446 0.14749154 0.15352166 0.07351396 -0.1417359
0.26690218 0.4042862 -0.20829798 0.004231941 -0.47083536 -0.060244735 -0.25114524 0.17317703
0.33365417 0.048031107 0.20615923 0.2055339 -0.1192671 -0.35774833 0.346709 0.011777277
-0.12855853 -0.48161253 -0.067221306 -0.12031512 0.07611207 -0.05564113 0.14036894 0.11619964
0.46625802 0.010215615 -0.33027887 -0.23858643 0.2427266 0.13839214 -0.17693003 0.015211805
0.26699433 -0.13181196 0.28772348 0.19784912 -0.09168802 -0.016450306 0.18185288 -0.066832386
-0.041236404 0.13871127 0.050551448 -0.4850472 0.24306312 -0.23285867 -0.22925517 0.33673432
00000000: 1bde 3a3e 5e1a a23e b110 843e ece6 16be
00000010: a84c af3e 596f ebbd 5c43 b53d 7f54 7b3d
00000020: 0d80 2a3e 260e b13e 2998 9e3e e06a 75bd
00000030: c839 61bd eb23 1cbe 8cc9 ddbb dcd8 a7be
00000040: 6beb 3dbd 9791 603e 650e e93e 6c8f c6bd
00000050: 51d0 fb3e 8d02 99bd b785 633e 7e06 8ebe
00000060: 2c94 d13d b250 863e 8ee5 b53e e8eb dcbe
00000070: 9dc1 ffbe 0b23 853e 3a9d cdbd ca02 e4be
00000080: 8558 943c 2a51 9bbd 3411 a13e 06b4 a3be
00000090: 3c32 42be 794d 783e 10b3 993e 4efc bd3d
000000a0: 588a 213e 616f 10be 2ab1 42be ac79 e9bc
000000b0: 98e2 0a3e c8bb 5cbb d1f4 d93e dea5 6f3d
000000c0: 79e3 673e 00d1 89be c7be ccbc 5269 b7bd
000000d0: 7bee 2abe 676e 4f3c ba68 143c 4a3b 2dbd
000000e0: b367 fd3d e06e f9be dc50 8a3e 2347 f3bd
000000f0: 5115 92be 53ab d03d bcce 33be 3fd9 bcbd
00000100: ca41 5abe 913e a7bd eefb abbe f1f5 15be
00000110: 0608 173e c834 1d3e 7d8e 963d 3723 11be
00000120: 67a7 883e 9afe ce3e 114c 55be 18ac 8a3b
00000130: 5511 f1be 2fc3 76bd 1c96 80be 5255 313e
00000140: b8d4 aa3e 44bc 443d 681b 533e 7b77 523e
00000150: 4f42 f4bd ca2a b7be d883 b13e 7bf5 403c
00000160: d9a4 03be eb95 f6be 53ab 89bd c667 f6bd
00000170: a5e0 9b3d f4e7 63bd e0bc 0f3e 14fa ed3d
00000180: 5fb9 ee3e 655f 273c 501a a9be 0050 74be
00000190: 528d 783e abb6 0d3e 252d 35be ef3a 793c
000001a0: 7bb3 883e b7f9 06be 7e50 933e f698 4a3e
000001b0: eec6 bbbd cbc2 86bc a437 3a3e 6bdf 88bd
000001c0: 81e7 28bd 540a 0e3e 090f 4f3d 1b58 f8be
000001d0: 8ae5 783e 8172 6ebe dec1 6abe 7168 ac3e

fc2.0.weight f4 [84, 120]
0.049283266 0.068715885 -0.1239469 0.018036507 -0.03304351 -0.18892628 -0.043046277 0.14784582
-0.2649073 0.008040924 -0.12806112 0.2220345 -0.010260556 0.16766803 -0.17085423 0.00717309
-0.09881556 -0.06323594 -0.13186842 -0.018280903 0.17837654 0.08182975 0.20789665 0.058440838
-0.13034661 -0.10216047 -0.12789002 0.0061231046 -0.044260878 0.13639747 -0.14532982 0.19885801
0.16586936 0.0012689314 0.071281366 -0.024524258 -0.11981918 -0.15706265 -0.048554774 -0.25303704
-0.006558239 -0.10393721 -0.06630473 0.0919084 -0.1624154 0.036648296 -0.0032650328 -0.2831902
0.2050288 0.07407271 -0.13743208 0.015945902 0.14171456 0.16542801 0.13231654 -0.21649736
-0.03564571 -0.0072957803 -0.041937757 -0.09787761 0.050144885 0.03403024 -0.22463757 0.15603864
-0.022749437 -0.12257961 0.05761304 0.16743664 -0.073209524 0.09532564 -0.023912346 -0.01528252
0.030181382 -0.04398381 0.0783199 -0.024712777 -0.005161912 0.005906967 0.07256909 -8.898025e-05
0.025306053 0.14414833 -0.1464993 -0.16263445 0.17080633 0.07060317 0.18585628 0.009131668
-0.020326992 0.19779138 0.1318033 0.0035646907 0.034344934 -0.15265368 -0.069001436 0.16666846
-0.03976497 -0.020302521 0.017782463 0.03720095 -0.042268414 -0.026087454 -0.094576515 0.14822958
-0.12765567 0.007942727 0.06048105 -0.029022055 -0.03249267 0.02253486 0.09466799 0.1499954
0.00065735355 -0.025420256 0.09222596 0.11425855 0.005360831 0.08012082 -0.051208463 -0.14059015
0.3117981 0.34266672 -0.0014341618 0.18323484 0.0890112 -0.14309369 -0.2199547 -0.015932767
-0.086074136 0.025203228 0.0008925605 0.1380174 -0.034644157 0.17729796 0.081203245 0.053617183
0.009354826 0.05126968 0.18326803 -0.2078419 0.091901705 -0.13800713 0.12266015 -0.030716985
0.09704163 0.06252069 0.08743653 -0.2191592 0.01137685 0.09164254 -0.024100624 -0.06602767
0.11388799 -0.07416638 0.05471881 0.06397676 -0.17405386 -0.012836204 0.14325641 -0.07326035
-0.15781155 -0.10900512 -0.01316056 -0.012502011 0.19584036 0.068510115 0.1597096 -0.021804128
0.083884 0.099919826 0.044486385 -0.02683757 0.00052562996 0.19189918 0.1653486 -0.22787832
0.2513366 0.12926532 0.05051037 -0.01187913 -0.11963033 0.07992774 -0.0457822 0.061720826
-0.35450843 0.121114664 -0.15199508 -0.25213656 -0.0042050737 0.15005405 -0.06907779 0.11061362
-0.0809086 0.14095652 -0.03252357 -0.106462196 -0.23587616 0.14260991 -0.065044165 -0.020348448
0.045335952 0.0436741 0.065065205 0.09527706 -0.18833175 0.19370878 -0.005677945 -0.039892185
0.10985782 0.0029226386 0.039752692 -0.000629915 -0.05745008 -0.12614475 -0.019886402 0.079975784
0.20466928 -0.07603245 -0.04079763 -0.033893116 0.11832196 0.09301098 0.070901565 0.12810388
-0.2287093 -0.118924975 -0.13711517 0.07470709 -0.06223971 0.030639695 0.014015002 -0.050927404
-0.028416937 -0.057241663 0.0048435186 -0.035550855 0.16646554 -0.029777072 0.012667157 -0.0032643985
0.0107648065 0.1526274 -0.09710129 0.047178082 -0.041285947 -0.10950925 -0.05264587 0.08076116
0.14868297 0.0942937 -0.07860823 0.058287065 -0.028963523 -0.12057668 -0.02507862 -0.06382754
00000000: 40dd 493d eaba 8c3d dfd7 fdbd 4cc1 933c
00000010: a258 07bd e475 41be 4b51 30bd e564 173e
00000020: eea1 87be 14be 033c 7422 03be 035d 633e
00000030: e41b 28bc 2bb1 2b3e 69f4 2ebe 3d0c eb3b
00000040: d05f cabd d881 81bd 8408 07be d5c1 95bc
00000050: 57a8 363e 5b96 a73d dce2 543e a95f 6f3d
00000060: 9579 05be 8239 d1bd 9af5 02be 53a4 c83b
00000070: e54a 35bd c7ab 0b3e 57d1 14be 6fa1 4b3e
00000080: a8d9 293e 4652 a63a f7fb 913d 19e7 c8bc
00000090: c263 f5bd 08d5 20be 5fe1 46bd 128e 81be
000000a0: 7fe6 d6bb 08dd d4bd c6ca 87bd 793a bc3d
000000b0: 3950 26be 861c 163d 29fa 55bb 4efe 90be
000000c0: 12f3 513e 6fb3 973d ffba 0cbe fba0 823c
000000d0: 9f1d 113e f665 293e fd7d 073e 7cb1 5dbe
000000e0: 3c01 12bd 7111 efbb edc6 2bbd 0e74 c8bd
000000f0: b964 4d3d 4b63 0b3d 6407 66be 98c8 1f3e
00000100: 075d babc 050b fbbd a7fb 6b3d 8374 2b3e
00000110: e0ee 95bd 173a c33d d3e3 c3bc 8963 7abc
00000120: f23e f73c 5e28 34bd 2f66 a03d 7372 cabc
00000130: 4225 a9bb 3b8f c13b 1a9f 943d e89a bab8
00000140: a44e cf3c 9f9b 133e ea03 16be a589 26be
00000150: dbe7 2e3e 6598 903d 1c51 3e3e fe9c 153c
00000160: cb84 a6bc d389 4a3e 72f7 063e 969d 693b
00000170: 46ad 0c3d 3f51 1cbe a050 8dbd 23ab 2a3e
00000180: 98e0 22bd 7951 a6bc 87ac 913c 0660 183d
00000190: a521 2dbd 5bb5 d5bc 55b1 c1bd 7fc9 173e
000001a0: 2bb8 02be 3622 023c faba 773d a9bf edbc
000001b0: 0917 05bd 079b b83c 4be1 c13d 6598 193e
000001c0: 4052 2c3a 243e d0bc f7e0 bc3d 6300 ea3d
000001d0: e9a9 af3b 6216 a43d f7bf 51bd ddf6 0fbe
000001e0: 00a4 9f3e 0372 af3e 7cfa bbba eaa1 3b3e
000001f0: 814b b63d 2787 12be ce3b 61be 6f85 82bc
00000200: a347 b0bd 0077 ce3c b9fa 693a 6f54 0d3e
00000210: 08e7 0dbd 998d 353e e34d a63d b19d 5b3d
00000220: fc44 193c 2800 523d 9daa 3b3e 82d4 54be
00000230: f636 bc3d be51 0dbe 3f35 fb3d 30a2 fbbc
00000240: c3bd c63d d90a 803d ec11 b33d 456b 60be
00000250: f865 3a3c 16af bb3d ac6e c5bc 8439 87bd
00000260: 1b3e e93d 8be4 97bd d520 603d 3f06 833d
00000270: 2d3b 32be f14e 52bc cfb1 123e 8609 96bd
00000280: 5a99 21be 143e dfbd 649f 57bc 3cd5 4cbc
00000290: 608a 483e 084f 8c3d ea8a 233e 929e b2bc
000002a0: 60cb ab3d c4a2 cc3d 5b37 363d 77da dbbc
000002b0: 6eca 093a 3881 443e 2551 293e ef58 69be
000002c0: 31af 803e 215e 043e f6e3 4e3d afa0 42bc
000002d0: bf00 f5bd 28b1 a33d 1e86 3bbd face 7c3d
000002e0: 2182 b5be f70a f83d 99a4 1bbe 0b18 81be
000002f0: b7ca 89bb c5a7 193e a878 8dbd 6589 e23d
00000300: 68b3 a5bd e856 103e 6f37 05bd da08 dabd
00000310: 8589 71be 5508 123e e035 85bd cab1 a6bc
00000320: 31b2 393d 9de3 323d e840 853d 9f20 c33d
00000330: 0ada 40be 985b 463e 0e0e babb fd65 23bd
00000340: 23fd e03d bd89 3f3b b8d3 223d e120 25ba
00000350: c650 6bbd 172c 01be cfe8 a2bc 58ca a33d
00000360: d394 513e e7b6 9bbd 6a1b 27bd 82d3 0abd
00000370: c952 f23d 8a7c be3d d734 913d aa2d 033e
00000380: c532 6abe f08e f3bd eb67 0cbe 0800 993d
00000390: 11ef 7ebd 1900 fb3c 2e9f 653c 4199 50bd
000003a0: a3ca e8bc 3c76 6abd 61b6 9e3b c69d 11bd
000003b0: f175 2a3e 0cef f3bc e889 4f3c 85ef 55bb
000003c0: df5e 303c 5b4a 1c3e 0bdd c6bd ce3d 413d
000003d0: 741b 29bd 6346 e0bd 32a3 57bd 1b66 a53d
000003e0: 5940 183e 0e1d c13d 5afd a0bd 6bbe 6e3d
000003f0: e944 edbc e8f0 f6bd ae71 cdbc 03b8 82bd

fc2.0.bias f4 [84]
-0.032279946 0.15393332 0.21730128 0.11041099 0.021899344 0.15557787 0.049646378 -0.0061515565
8.1135266e-05 -0.11497512 -0.15393594 0.19552128 -0.04511842 -0.13008219 0.060246285 0.08760619
-0.14704047 -0.101920374 -0.014264928 0.25166747 0.021860925 -0.29158467 -0.08804348 0.061204698
-0.082584135 0.08695926 -0.43097866 0.016357135 0.049746443 0.061725903 -0.123934865 0.26237658
-0.47832245 0.20119931 -0.11146781 0.1719048 -0.011300336 0.024210801 0.30766624 0.3193233
0.117147096 -0.092044644 -0.030614683 -0.17496084 -0.0015320167 0.07702541 0.20256084 0.22998649
-0.09541728 -0.23180696 0.09907001 -0.33170342 -0.03989095 0.08165188 0.045515735 -0.1774743
-0.11562562 -0.16824004 0.024929764 -0.14403798 -0.06387896 -0.19165266 -0.14631592 0.07354017
0.19863519 0.07887367 -0.3035244 -0.418718 0.026769614 -0.19717884 -0.3815009 0.11815824
-0.2253421 -0.29737356 0.184562 0.0075675296 -0.026706386 0.053058416 -0.19873829 -0.061739348
-0.030594198 -0.02082266 0.14876142 -0.13455586
00000000: fa37 04bd b2a0 1d3e 3a84 5e3e 281f e23d
00000010: 4166 b33c ce4f 1f3e 005a 4b3d ff92 c9bb
00000020: 2a27 aa38 1378 ebbd 62a1 1dbe bb36 483e
00000030: 18ce 38bd 4434 05be cfc4 763d e06a b33d
00000040: c791 16be a1bb d0bd 72b7 69bc 8fda 803e
00000050: af15 b33c 964a 95be 2450 b4bd c7b1 7a3d
00000060: df21 a9bd b217 b23d 3ca9 dcbe 66ff 853c
00000070: edc2 4b3d 4dd4 7c3d 90d1 fdbd 3956 863e
00000080: aee6 f4be 3107 4e3e 3c49 e4bd d007 303e
00000090: 0b25 39bc bb55 c63c 6e86 9d3e 587e a33e
000000a0: d1ea ef3d e781 bcbd a5cb fabc ef28 33be
000000b0: f3cd c8ba 80bf 9d3d 1c6c 4f3e 9481 6b3e
000000c0: 236a c3bd ce5e 6dbe 38e5 ca3d 08d5 a9be
000000d0: b164 23bd 1a39 a73d b56e 3a3d d3bb 35be
000000e0: 20cd ecbd 1e47 2cbe 8139 cc3c b17e 13be
000000f0: f9d2 82bd 9840 44be d7d3 15be 3b9c 963d
00000100: 0667 4b3e 8588 a13d 8d67 9bbe 3562 d6be
00000110: f34b db3c 40e9 49be 1654 c3be f3fc f13d
00000120: 14c0 66be 5941 98be d2fd 3c3e 0af9 f73b
00000130: 5ac7 dabc c853 593d 0d82 4bbe 66e2 7cbd
00000140: afa0 fabc 4894 aabc ea54 183e 03c9 09be

fc3.0.weight f4 [10, 84]
0.113139175 -0.2975601 -0.14703564 0.13436703 -0.076268405 0.16870093 -0.1255073 0.05381352
0.07915232 0.28354204 0.09754253 -0.14196394 0.26063034 0.29038432 0.16900843 0.10691563
-0.12792985 -0.21382932 -0.03315003 -0.09940599 0.17974311 0.2400699 0.30605888 -0.22866404
0.28116122 -0.10000247 0.1733399 -0.12200421 0.11652335 -0.19170615 -0.19009502 -0.013012476
0.2886914 -0.051886316 0.18384331 -0.17185311 0.11712812 -0.10529988 -0.06276645 -0.14132126
0.1097022 -0.19133522 0.14806671 0.21095271 -0.1856783 0.16477326 -0.25316453 -0.25116742
-0.34011474 0.06646526 0.2523745 0.12761925 0.018741516 0.12227564 -0.16547517 -0.06432263
0.013685933 0.14240868 -0.18480128 0.10801004 0.033469137 -0.0008906567 -0.16009156 0.08799079
0.0520922 -0.15729004 -0.10023581 0.25762722 0.16516247 0.2907102 0.117178924 -0.19965693
0.21261968 0.16944632 -0.16806641 -0.2057246 0.267775 -0.036945786 0.19223952 0.035529353
0.23950839 0.2331356 -0.1669993 0.2795009 -0.1585612 0.031104887 0.24482688 -0.061374184
0.06425796 -0.12332397 -0.21774118 -0.21767695 -0.087476484 -0.20046756 -0.21113262 0.14893417
0.24601384 0.20568079 0.29838246 0.31045935 0.22253104 -0.23578116 0.19126 0.22590475
0.15283395 -0.0935689 0.03332287 -0.3077627 0.3198165 -0.09347891 -0.10203302 0.13350931
-0.24908778 -0.078590505 0.15010402 -0.008167444 0.24032575 0.1697436 -0.20010921 0.14456142
-0.25347054 0.19825494 0.08775802 0.18381333 -0.27302215 0.025170585 0.1074226 -0.1649078
0.009353069 0.17727287 0.102689005 -0.1564128 -0.1814465 0.116747186 0.22159709 -0.17739151
-0.23531848 0.029286845 0.19408028 -0.13259086 0.1434847 -0.08436636 -0.05248566 0.07674324
0.083421275 0.086002894 0.21123569 -0.24906874 0.07421965 -0.084973805 0.21367814 -0.09988015
-0.26560166 0.17706594 -0.1914177 0.2088538 -0.21099377 -0.11994514 0.23189025 -0.10208452
-0.08825021 0.15829685 -0.1849153 -0.18350081 -0.17486161 0.13867255 -0.14833081 -0.10851088
-0.12460265 0.07632748 -0.071756735 -0.025161397 -0.09968523 0.15355521 0.08094607 -0.07978399
-0.023777772 -0.107664555 -0.13804267 -0.20165555 -0.16895065 -0.17653224 -0.10804522 0.20732692
0.14521453 -0.14299706 -0.10080984 0.18197034 -0.23875462 0.10760803 -0.16661346 0.12666723
0.19524895 -0.1986067 -0.17886513 -0.20983544 -0.17637792 0.010661403 -0.0068193018 0.13848296
0.17333706 -0.05663242 -0.21354133 0.11617451 0.17693931 0.044825025 0.15606542 0.018675406
0.24624595 -0.2441595 -0.20143951 0.12942229 0.15255979 0.15275678 0.043958493 0.16339654
-0.12382664 -0.16169326 0.033355 -0.23921102 -0.1450297 0.09501709 -0.15820405 0.14201881
-0.20730755 0.14058776 0.11399679 0.06086474 0.06877118 -0.19610973 -0.05752415 0.04396026
0.20240206 -0.24014302 -0.0545115 -0.10124844 0.13360204 -0.27217755 -0.22680505 0.056444958
0.1483598 -0.15370217 -0.22525956 -0.09961599 0.19214034 0.27861893 0.06440813 0.16745318
-0.101517186 0.21274552 -0.07104361 -0.21070313 -0.099077836 -0.105052136 -0.14389658 0.20818624
00000000: 83b5 e73d cc59 98be 8390 16be 8397 093e
00000010: 9c32 9cbd f0bf 2c3e fc84 00be 916b 5c3d
00000020: 9d1a a23d 6c2c 913e 61c4 c73d ff5e 11be
00000030: 5771 853e 41ad 943e 8c10 2d3e 95f6 da3d
00000040: 0b00 03be 13f6 5abe 53c8 07bd 5e95 cbbd
00000050: 940e 383e e2d4 753e c0b3 9c3e e826 6abe
00000060: 5df4 8f3e 18ce ccbd 0480 313e 58dd f9bd
00000070: cba3 ee3d 9e4e 44be 45a8 42be 4832 55bc
00000080: 5ccf 933e bf86 54bd 6c41 3c3e 43fa 2fbe
00000090: dee0 ef3d 77a7 d7bd b28b 80bd 85b6 10be
000000a0: 8cab e03d 61ed 43be cd9e 173e fd03 583e
000000b0: 7422 3ebe 52ba 283e c89e 81be 0499 80be
000000c0: 8523 aebe f01e 883d 3b37 813e 9fae 023e
000000d0: cf87 993c a76b fa3d 5372 29be 95bb 83bd
000000e0: f73a 603c 95d3 113e 8c3c 3dbe 5e34 dd3d
000000f0: ef16 093d f67a 69ba 0bef 23be 8434 b43d
00000100: a15e 553d a410 21be 6f48 cdbd b7e7 833e
00000110: 5a20 293e f8d7 943e 81fb ef3d de72 4cbe
00000120: f9b8 593e 5683 2d3e 9a19 2cbe 78a9 52be
00000130: ce19 893e 7754 17bd 70da 443e 3a87 113d
00000140: b041 753e 19bb 6e3e dd01 2bbe be1a 8f3e
00000150: de5d 22be adcf fe3c e6b3 7a3e 7f63 7bbd
00000160: ad99 833d 4791 fcbd 8bf7 5ebe b5e6 5ebe
00000170: df26 b3bd 5e47 4dbe 2633 58be 3382 183e
00000180: 0deb 7b3e fc9d 523e 96c5 983e 87f4 9e3e
00000190: 2ddf 633e 9e70 71be a9d9 433e 9353 673e
000001a0: 8180 1c3e 0da1 bfbd 907d 083d 1393 9dbe
000001b0: fdbe a33e df71 bfbd b0f6 d0bd aab6 083e
000001c0: de10 7fbe 0ff4 a0bd deb4 193e bed0 05bc
000001d0: f417 763e 44d1 2d3e 6ee9 4cbe e907 143e
000001e0: e4c6 81be 5803 4b3e 7aba b33d 9039 3c3e
000001f0: 8fc9 8bbe 8b32 ce3c 6100 dc3d 97dd 28be
00000200: 9d3d 193c 0587 353e 9d4e d23d ad2a 20be
00000210: 1ccd 39be 2619 ef3d 59ea 623e 1fa6 35be
00000220: 54f7 70be f7ea ef3c fbbc 463e e6c5 07be
00000230: a7ed 123e 45c8 acbd 34fb 56bd 8f2b 9d3d
00000240: c6d8 aa3d 4922 b03d 2b4e 583e e00b 7fbe
00000250: 7900 983d bf06 aebd 71ce 5a3e f78d ccbd
00000260: f1fc 87be c650 353e 0003 44be c5dd 553e
00000270: c00e 58be cca5 f5bd a374 6d3e b011 d1bd
00000280: 87bc b4bd 9218 223e 705a 3dbe a3e7 3bbe
00000290: ec0e 33be 2d00 0e3e 08e4 17be f43a debd
000002a0: ad2f ffbd 9551 9c3d 32f5 92bd 461f cebc
000002b0: c527 ccbd 943d 1d3e 0ec7 a53d ca65 a3bd
000002c0: 9ac9 c2bc 3c7f dcbd 0f5b 0dbe cb7e 4ebe
000002d0: 6601 2dbe dec4 34be d046 ddbd 824d 543e
000002e0: 1eb3 143e d26d 12be 6475 cebd 6f56 3a3e
000002f0: 177c 74be 9961 dc3d b89c 2abe 0eb5 013e
00000300: 57ef 473e 8e5f 4bbe 6c28 37be 1adf 56be
00000310: 6a9c 34be 2aad 2e3c 7374 dfbb 7ace 0d3e
00000320: 457f 313e 65f7 67bd 94aa 5abe e7ec ed3d
00000330: 942f 353e 729a 373d 9dcf 1f3e 2afd 983c
00000340: e627 7c3e f304 7abe 2946 4ebe 4787 043e
00000350: a238 1c3e 466c 1c3e d20d 343d 6c51 273e
00000360: d298 fdbd eb92 25be 419f 083d bcf3 74be
00000370: aa82 14be 5298 c23d 3e00 22be 616d 113e
00000380: 6e48 54be 3df6 0f3e 2677 e93d 4e4d 793d
00000390: e8d7 8c3d fdd0 48be 719e 6bbd ac0f 343d
000003a0: 7c42 4f3e 0de8 75be 7347 5fbd 585b cfbd
000003b0: f9ce 083e db5a 8bbe 953f 68be d432 673d
000003c0: a2eb 173e 1a64 1dbe 71aa 66be 7803 ccbd
000003d0: 70c0 443e 24a7 8e3e 69e8 833d d978 2b3e
000003e0: 3ee8 cfbd f6d9 593e 507f 91bd 90c2 57be
000003f0: 52e9 cabd 9325 d7bd a059 13be c62e 553e

fc3.0.bias f4 [10]
-0.46434605 0.04453427 0.27871606 -0.1695341 -0.06252607 0.21534066 -0.45848563 0.3430986
0.07787017 0.1722871
00000000: c4be edbe 9169 363d dfb3 8e3e 599a 2dbe
00000010: ab0d 80bd 4382 5c3e a1be eabe 9faa af3e
00000020: 657a 9f3d 086c 303e
