save_checkpoints/LeNet5_epoch_45.pth (torch, 249863 bytes, 10 tensors)

conv1.0.weight f4 [6, 1, 5, 5]
000000 64 bc 07 3d 76 ce 14 3c de d0 0d be 8f 59 0e bd
       0.033138648 0.009082427 -0.13849208 -0.03475338
000010 e2 b1 bb bc 5e 03 a4 bd 8f 50 b2 bd b4 2b 1a 3d
       -0.02291197 -0.08008455 -0.087067716 0.037639335
000020 ce c6 f6 3d 5e 00 1d be fa 94 d2 3d 47 cc f2 bc
       0.12049638 -0.15332171 0.10282321 -0.029638423
000030 68 ad 01 bd 17 17 52 bd 16 c3 91 3e c9 14 92 3e
       -0.031659514 -0.05129155 0.2846915 0.28531483
000040 6d d8 75 3e 1f 2c cc 3e 02 54 07 3e 45 cf 0c bd
       0.24008341 0.39877412 0.1321564 -0.034377355
000050 74 7f 41 be 67 e7 94 bc c5 b9 97 be 78 d6 54 bd
       -0.18896276 -0.018176747 -0.29633918 -0.051962346
000060 b3 ce f8 bc 02 0f 6b bd ed 92 49 bc 0e 10 07 bd
       -0.030372 -0.05738736 -0.012303096 -0.032974295
000070 b0 60 e7 bd f6 3e 28 3e a2 c6 03 bc 3e e0 aa bd
       -0.112977386 0.16430268 -0.008042963 -0.08343552
000080 4d f9 21 3e 66 82 9a 3e 01 10 8f 3d 60 3c 85 3d
       0.15817757 0.3017761 0.069854744 0.06505656
000090 59 39 10 3e 43 89 ca 3d 65 76 e7 3d 32 8f a1 3d
       0.14084376 0.09889462 0.11301879 0.078886405
0000a0 de d7 b4 be d1 eb 92 3d 1c 17 90 3e e0 67 d0 3c
       -0.35320944 0.07173885 0.2814263 0.025440156
0000b0 20 e5 75 be cb c6 92 be 8c 1f eb 3d 42 c4 1a be
       -0.24013186 -0.28667292 0.114806265 -0.15113929
0000c0 96 b9 67 3d 5f f3 18 be 94 14 05 3c f5 20 b9 3d
       0.056573473 -0.14936589 0.008122582 0.09039489
0000d0 4b 0f 5e 3e d8 50 85 3d ec 33 76 bb 5c 16 eb 3d
       0.21685521 0.0650956 -0.003756757 0.11478874
0000e0 7b 13 74 bd 2f cf c3 3b de 40 51 3d 61 c7 d1 3d
       -0.05958889 0.005975626 0.051087253 0.10243107
0000f0 ec e8 da 3d ec b5 54 3e 55 e8 79 bd 67 eb 98 3d
       0.106889576 0.20772523 -0.061012585 0.074667744
000100 2b 59 77 bd 38 bb 81 be a3 e7 b7 be fe 02 19 be
       -0.06038777 -0.2533815 -0.35918912 -0.14942548
000110 63 19 86 be 99 d0 77 3e f9 4a c7 be e6 89 be bd
       -0.26191244 0.24200667 -0.38924387 -0.09303646
000120 f8 42 32 bd 43 7a 06 be ac e1 9f be 27 da 5e bc
       -0.043520898 -0.13132577 -0.3122686 -0.013601816
000130 ff 4c 58 bb 57 51 1e be 0e a8 31 3d 8b ee 5c be
       -0.0033004878 -0.15460716 0.04337316 -0.21575372
000140 dd ec a7 3b 7d 23 09 be df c1 3c bd 80 e2 eb 3c
       0.005124672 -0.13392444 -0.046083327 0.028794527
000150 9d 9e f7 bd 28 46 28 bd 59 4e e4 bd c2 43 55 be
       -0.120908 -0.04108253 -0.11147756 -0.20826629
000160 53 31 06 3e e3 ee 23 be f4 12 e4 3d 4f 7c 8e 3d
       0.13104753 -0.16009097 0.111364275 0.06957304
000170 56 ef 47 3e 00 b7 4c bd 05 f6 c7 3e d9 3f d9 bc
       0.19524893 -0.04997921 0.39054886 -0.026519703
000180 d5 a8 12 3e 11 70 73 3e e2 7e 9a 3c 5c 86 43 bd
       0.14322217 0.23773219 0.01885933 -0.047735557
000190 e5 4d f8 bc c7 38 76 3d bb 1e 51 3d 50 1d 35 3e
       -0.03031058 0.06011274 0.051054697 0.17686963
0001a0 c2 84 7d be dc f0 1f 3b 47 38 ed 3d c2 2d 85 3e
       -0.24757674 0.0024405038 0.11583 0.26011473
0001b0 99 04 e6 3d 2a d5 a0 3d 6c 37 6b be b7 3f 46 3e
       0.11231346 0.07853158 -0.2297036 0.19360243
0001c0 75 4d f3 3d 62 ca 04 bd ec dc 0f 3d 58 3a fa 3a
       0.11880008 -0.03241957 0.035122797 0.0019090874
0001d0 92 45 67 3e 0f b0 84 bd 52 60 67 bd d4 8e f1 bd
       0.22585133 -0.06478893 -0.056488343 -0.117948204
0001e0 fe e1 c5 3c da 55 a2 3c 81 81 26 3d 60 f7 9c bd
       0.024155613 0.019816328 0.04065085 -0.076643705
0001f0 d6 56 9e be 54 86 92 3d e3 4c 26 3e 5c c1 38 bc
       -0.30925626 0.07154527 0.16240267 -0.011276569
000200 b8 0e d0 3d 54 6e f2 bb f7 41 55 bd 12 d0 34 bd
       0.101590574 -0.007398406 -0.052064862 -0.044143744
000210 d2 3c 5e 3e ab b1 6d bc ee 64 0a bc fd 5f 7a 3d
       0.21702889 -0.014507691 -0.008446915 0.061126698
000220 71 45 90 3d 1d 96 25 3d 0a dd ef bc 30 b6 f0 bd
       0.07044495 0.040426362 -0.029280204 -0.117534995
000230 0a f2 37 bd d6 62 9f bd b2 6e 9e 3d 0c ff b0 be
       -0.04490856 -0.07782523 0.07735957 -0.34569585
000240 e3 55 85 be a6 cd 08 bd f9 a3 58 3d d9 99 77 be
       -0.2604209 -0.033399247 0.05289075 -0.24179782
000250 6a 49 30 be d0 cf 07 3e
       -0.17215505 0.13262868

conv1.0.bias f4 [6]
000000 06 26 47 bd f4 15 e9 bc 7b 84 cf bc 30 40 e2 3d
       -0.048620246 -0.02845285 -0.025331726 0.11047399
000010 11 29 c6 be 7d 3a 82 be
       -0.38703206 -0.25435248

conv2.0.weight f4 [16, 6, 5, 5]
000000 4e 69 c2 3d 64 84 48 3c fd a7 e2 b7 b9 9e e4 bd
       0.094927415 0.012238596 -2.7019525e-05 -0.111630864
000010 cf 0f 34 be 06 24 82 3b a5 13 36 3d 61 13 9d 3d
       -0.17584155 0.0039715795 0.04445233 0.07669712
000020 fb d9 53 bd 71 f9 0a be 53 f7 26 be 1c 17 21 be
       -0.051721554 -0.13571717 -0.16305284 -0.15731472
000030 87 fd 34 bd 0c 2e 0e bd 91 51 a9 bd 39 d3 c1 bd
       -0.044187095 -0.034711882 -0.08267511 -0.09464116
000040 6a 7d 3d be 4f 05 92 bd 35 56 de bd 41 bf 15 be
       -0.18504873 -0.07129919 -0.108562864 -0.14623739
000050 1f 1c f2 bc 2f 63 4c bd 31 bb 2f bd dc 1c e7 bd
       -0.029554425 -0.049899276 -0.04290313 -0.11284801
000060 1f 37 05 be 14 44 97 bd f2 4f 76 be 38 51 9a be
       -0.13009308 -0.07386032 -0.24053934 -0.3014009
000070 6c f1 0d be 9f 1a a5 bc c4 58 9d 3d 23 3b 76 3d
       -0.13861626 -0.020154295 0.07682946 0.06011499
000080 a6 3c ca bc 62 e0 c9 bd 8f 10 ac bd a2 77 33 3d
       -0.024687123 -0.09857251 -0.08401596 0.043815263
000090 b0 e4 28 3e 06 1b b9 3d c4 cf ad 3c c1 08 98 bd
       0.16493487 0.090383574 0.021217234 -0.07423545
0000a0 af b3 d9 bd 69 9e 8b bd 05 47 27 3d 14 0c 10 3d
       -0.10629975 -0.06817324 0.040839214 0.03516777
0000b0 39 94 54 bc f0 c2 2c 3d f0 65 38 bc 45 b1 c7 3c
       -0.012974792 0.042178094 -0.011254773 0.02437652
0000c0 97 67 55 3d 40 d3 09 bd 28 7a df bc 83 3b d3 bd
       0.052100744 -0.03364873 -0.027279928 -0.10314085
0000d0 55 09 d2 bd fb fc b5 bd fa 53 05 3e a6 f6 f7 3d
       -0.10255686 -0.08886143 0.13020316 0.12107591
0000e0 ea ad d0 bc eb 2b 38 be 5b da 91 be 92 79 16 be
       -0.025473554 -0.17985503 -0.28486905 -0.14694813
0000f0 06 7a 3e 3d c1 0c 18 3e 1d cc 90 3d 86 03 83 bd
       0.04650309 0.14848615 0.070701815 -0.063971564
000100 19 ad 1c be 18 19 ca bd 90 df a0 bc 81 85 44 3d
       -0.15300407 -0.098680675 -0.019637853 0.04797888
000110 3f e6 4a 3c fe 92 63 ba 03 4d 8e 3a 90 84 95 bc
       0.0123839965 -0.00086812663 0.0010856692 -0.018251687
000120 76 be 88 bc db 53 cb 3c e2 76 1e 3d 7d d8 d4 3c
       -0.016692381 0.024820259 0.038687594 0.025982136
000130 08 88 b8 3d e6 8e a7 3c a9 85 fa bc dc 0c 71 bd
       0.09010321 0.020453881 -0.030581312 -0.058850154
000140 05 f2 a9 bd 6d 02 4e 3b 9f 1f 04 3e 14 3c 1b 3d
       -0.08298115 0.0031434551 0.12902687 0.03789909
000150 d1 f1 f6 ba 3d 8e d6 bd 64 f9 0c be c8 99 3f bc
       -0.0018840377 -0.104763485 -0.1376701 -0.011694379
000160 13 96 29 bc 3a 49 2e 3d ca 72 24 bc 77 fe b1 bd
       -0.010350722 0.042550303 -0.0100371335 -0.086911134
000170 a1 01 85 bd 02 39 27 bd 74 f0 93 bd b0 b6 7e bd
       -0.06494451 -0.04082585 -0.07223597 -0.062185943
000180 3b 8c b6 bd 31 af 0b be 90 c5 07 be 58 c2 98 bc
       -0.089134656 -0.13641049 -0.13258958 -0.018647358
000190 e4 23 04 3c 3a 2d 0c 3c 67 63 e0 ba 71 bd 8c 3d
       0.008065198 0.008555705 -0.0017119468 0.068720706
0001a0 1c 10 e8 3c ec a1 5f 3d a1 62 c6 3d d4 2a cf 3d
       0.028327994 0.05459778 0.09686781 0.10115591
0001b0 3b 3a db 3d 69 23 0d bc 77 a1 02 3a 02 ed 80 3d
       0.10704466 -0.0086143995 0.00049831666 0.06295206
0001c0 5d 76 94 3d 1f 65 8c 3d a5 be b3 3c d4 56 36 bd
       0.072491385 0.06855225 0.021941492 -0.0445164
0001d0 14 43 aa bd a1 74 0b be c0 97 63 bc e2 47 40 3c
       -0.083135754 -0.13618709 -0.0138911605 0.011735888
0001e0 f8 59 68 bd ea 32 a6 bd 7e de ad bd 5e bc 04 be
       -0.056726426 -0.0811518 -0.08489703 -0.12962481
0001f0 1d 19 bd bd 56 b5 88 bd 30 52 09 be f6 36 e5 bd
       -0.092333056 -0.06675212 -0.13410258 -0.111921236
000200 3c d8 c6 3b 6b ff 2a 3d 38 9e b4 bd 08 0f 82 be
       0.0060682576 0.04174749 -0.0881924 -0.25402093
000210 09 6a b0 be 43 11 65 be 40 62 1e be 1c d4 8d 3d
       -0.34455898 -0.22369866 -0.15467167 0.06925222
000220 4d b7 e1 3c f7 b8 c9 bd bd b0 21 be f2 01 18 be
       0.027553225 -0.09849732 -0.15790077 -0.14844492
000230 f6 f2 3b bc 01 28 af 3a c2 88 7e 3d 8d 43 50 bd
       -0.011471501 0.0013363363 0.06214214 -0.05084567
000240 bd 89 36 bc 25 98 76 3b 42 18 0d 3c 9d 1e 69 b8
       -0.011141238 0.0037627306 0.008611741 -5.558004e-05
000250 c1 3d e2 3c f5 3a 8c 3d 9f 8b 64 3c a2 f5 5a bd
       0.027617337 0.06847183 0.013949304 -0.05345691
000260 b2 02 e5 bd c5 53 e1 bd cc ab 82 be 66 7b 2a bd
       -0.11182155 -0.11002306 -0.25521696 -0.04162159
000270 ad 7a d0 bd fa 4c 17 be f3 be b2 be 68 24 84 be
       -0.101796485 -0.14775458 -0.34911308 -0.25809026
000280 5c b8 93 3c e7 51 26 3c ba 9b e7 bd 4d f4 9f bd
       0.018032245 0.010151363 -0.11308999 -0.078102686
000290 4b 40 9d bd f1 07 9d 3d a4 97 b6 3d 7e b4 8e 3d
       -0.076782785 0.0766753 0.08915642 0.0696802
0002a0 b4 ab 43 ba 0b c9 16 bc 26 cb b1 bc d4 45 95 bb
       -0.00074642454 -0.009203206 -0.021703314 -0.0045554433
0002b0 5d bf 0f be 74 84 aa bd f1 77 2e bd 23 fc 5a bd
       -0.14037843 -0.08326045 -0.042594854 -0.053463113
0002c0 01 91 bf bd 5b e6 96 bd 66 30 97 bd 3b 26 2d bd
       -0.09353829 -0.073681556 -0.07382278 -0.042272788
0002d0 1e 4f b6 bd 47 f7 f5 3d 03 63 66 bb 86 5f 09 be
       -0.08901809 0.12010055 -0.003515423 -0.13415346
0002e0 7e 39 a6 3b b2 e3 e1 bd ef 0a 08 bd 63 9d 3c be
       0.0050727716 -0.110297576 -0.033213552 -0.18419413
0002f0 7f 0d 00 be e1 da d0 bd 8c 76 dc b9 6b 3d 05 3c
       -0.12505148 -0.10197998 -0.00042049994 0.008132319
000300 94 8b 10 3d 49 81 10 3e cb 7d a8 3c 2b c3 53 3e
       0.035289362 0.14111818 0.020567795 0.2067992
000310 6b 24 69 3c 00 45 b2 3c 3c 43 35 3e 72 55 3a bd
       0.014229874 0.021761417 0.17701429 -0.045491643
000320 60 e8 12 3d 4c 31 68 bc 3b de bc bd 3b 79 ca 3b
       0.03586614 -0.01417191 -0.092220746 0.0061790026
000330 36 16 ac 3c 52 1f 61 3e 19 67 71 bd 21 d3 93 be
       0.021006685 0.21984604 -0.058936212 -0.28872016
000340 97 2b cb bb 99 1e a3 3b d2 44 36 3c e2 24 a7 3c
       -0.0062002647 0.0049780128 0.0111248065 0.02040333
000350 fc 76 c3 bd 0c 70 71 be 75 ed 69 be f3 99 0e be
       -0.09544179 -0.23577899 -0.22844489 -0.13925914
000360 85 77 4f 3d c3 4a 0a be 8d 2f be bc 77 83 9a bb
       0.050651092 -0.13505082 -0.023216033 -0.004715379
000370 12 df ff 3b 9d 1e 59 3d 85 03 09 3e 62 e0 ce bd
       0.0078085745 0.05300771 0.13380249 -0.101013914
000380 e7 9c 5c bd 70 99 b0 3c 20 20 0b 3d 90 60 f7 3b
       -0.05386057 0.02155754 0.033966184 0.007549353
000390 ff 72 d9 bd 3a bf 47 bd 0f 2b 1e bd 0f 44 64 3d
       -0.10617637 -0.048766352 -0.038615283 0.05572897
0003a0 d7 23 02 3c f6 ac b1 bc 39 79 3f bd 8e 69 08 3c
       0.007943115 -0.02168892 -0.046746466 0.008325947
0003b0 9f b0 b3 3d 21 12 05 3e 4c 06 de 3d 61 80 a3 3d
       0.08773922 0.12995197 0.10841045 0.07983471
0003c0 e8 7f c8 3d af 45 c9 3c 4b 02 d5 bc 23 2a 20 3d
       0.09790021 0.02456936 -0.02600207 0.039102685
0003d0 0e 76 d4 bb 60 55 48 be 98 a5 86 be 3a 79 e0 bd
       -0.0064838 -0.19563818 -0.26298213 -0.10960622
0003e0 e2 21 ac bd da fa 89 bd a5 e6 89 3c 54 d0 e9 bd
       -0.084049 -0.06737299 0.016833613 -0.114166886
0003f0 fc c1 c0 bc 41 e5 31 3a 0b bc 1e be 6b 15 b7 3d
       -0.023529999 0.00067861757 -0.1550142 0.08939632

conv2.0.bias f4 [16]
000000 bc bb 01 bf 97 ec ed be cb fa 17 bf 45 96 c0 be
       -0.50677085 -0.46469566 -0.59367055 -0.37614647
000010 47 b8 3d bf dc 96 19 bf d0 ad 8f bf 07 80 1b bf
       -0.7410931 -0.5999582 -1.1224918 -0.6074223
000020 02 dc f0 be 2d 08 c8 be 3a 8d 2c bf 83 f0 46 be
       -0.47042853 -0.39068738 -0.67402995 -0.19427685
000030 b2 0e 47 be b7 c0 ac be 5f ac 98 be 05 e1 e6 be
       -0.194392 -0.3374078 -0.2981901 -0.4509355

fc1.0.weight f4 [120, 400]
000000 95 90 07 3d 07 98 27 bd ed 77 14 3e df 25 bc 3d
       0.03309687 -0.04091647 0.14498873 0.09186911
000010 de 37 18 3d b1 91 25 bd 44 59 45 3c 74 76 03 3e
       0.037162654 -0.040422145 0.012045208 0.12838155
000020 e5 3f 65 3e 4b 54 f6 3d 46 97 84 3d 06 3c b8 3d
       0.22387655 0.12027796 0.064741656 0.089958236
000030 01 a1 cc 3c 9d 32 8e 3d 9e 43 d2 bd fc 20 7c 3a
       0.024979116 0.069432475 -0.10266803 0.0009617952
000040 fa b9 00 3d 88 55 0b 3b c0 80 be 3d 26 52 35 bd
       0.03142736 0.0021260697 0.09301901 -0.044267796
000050 e8 6e 32 3e 72 97 9b 3d 60 97 c2 bd 5e 13 9d 3d
       0.1742512 0.07597245 -0.09501529 0.076697096
000060 32 3a ce 3d cc a7 9e bd 0d c8 35 3d 92 a3 2f bc
       0.100696936 -0.077468485 0.044380236 -0.010720151
000070 e2 2b de ba 2a 9a b6 3c 98 9e 8f 3d dc f9 70 3d
       -0.0016950334 0.022290308 0.07012671 0.058832034
000080 79 3c 1d 3d 42 e0 97 bc 65 af a5 3d 43 b5 24 bd
       0.03838775 -0.018539552 0.080900945 -0.040211927
000090 43 e4 9a bc 86 71 2e 3d 99 8c 19 3d ce a8 33 bc
       -0.018907672 0.042588733 0.0374876 -0.010965539
0000a0 09 34 26 3e 09 b9 1b 3c 6d f5 92 3d 72 97 ec 3c
       0.16230787 0.009504565 0.071757175 0.028880809
0000b0 2b 2e 92 3e 8e 95 08 3e 75 46 59 bc 71 0c fe bd
       0.28550848 0.133383 -0.013261427 -0.12404717
0000c0 4a f9 3c bd d8 78 14 3d 3c 22 f2 3d 90 fc 3a 3e
       -0.046136178 0.036248058 0.11822936 0.18260407
0000d0 34 a7 1a 3d ac 5f c2 3d e4 d7 ba bd 39 67 1d 3e
       0.037757114 0.09490904 -0.09123209 0.15371408
0000e0 ce e2 b3 3d 9e 1f 00 bc 8c b6 36 be ed ba 56 3d
       0.08783494 -0.007820038 -0.17843074 0.05242436
0000f0 91 33 9d 3e 66 57 99 3d ec c2 45 3a 87 47 c6 bd
       0.30703405 0.07487373 0.0007543999 -0.096816115
000100 6b 9e fb 3d 4c f3 17 3e dc 8d 12 3e 33 1f 44 bc
       0.12286075 0.14838904 0.14311928 -0.011970329
000110 11 52 5d bd e8 4e 07 be 6d 69 93 3d ac 86 8a 3d
       -0.054033343 -0.13213694 0.07197843 0.06763968
000120 da f9 75 3d 7d 48 8c bd 49 4c 19 be 5a cd da 3c
       0.06005273 -0.068497635 -0.14970507 0.026709247
000130 c6 b8 5a 3d 8b 3c 6f 3e 98 11 8c 3e 56 56 47 3d
       0.05339887 0.23362939 0.27357173 0.04866632
000140 1f 8d 67 3e b6 8a 91 3e 72 68 0a 3d de f3 aa bd
       0.22612427 0.2842614 0.033791013 -0.08347295
000150 bb e0 45 3c 1c 9c 98 3e 1f a2 eb 3d b7 90 82 bd
       0.012077506 0.29806602 0.115055315 -0.063752584
000160 39 db c6 bd 23 e8 bb 3d 48 11 1d bd f8 ef f9 ba
       -0.09709782 0.09175136 -0.03834656 -0.0019068709
000170 2a e4 71 3d bc b4 4d 3c 6c bd 20 3c 4e 0d 1c 3e
       0.059055485 0.012555297 0.009810787 0.1523945
000180 bb cc 30 bd 70 ec 66 bd 94 7f c4 bd d1 78 9e ba
       -0.043163996 -0.056377828 -0.09594646 -0.001209045
000190 5c 42 cb 3d 24 5f ec 3d 28 34 12 3e 7a fb 48 3e
       0.099247664 0.11541584 0.14277709 0.1962718
0001a0 d1 b1 de bc 6c d1 97 3d 2f a9 86 3e 09 c1 f2 3d
       -0.027184399 0.07412991 0.26300952 0.11853225
0001b0 89 5b 27 3c 88 54 39 3d 08 e4 dc 3d 2d 5a 75 3d
       0.010214695 0.04524663 0.10785681 0.05990045
0001c0 7d a4 a0 3d 43 be 57 bc 67 f2 73 bd 32 00 72 3d
       0.07843874 -0.0131679205 -0.059557345 0.059082218
0001d0 c7 cf db 3d 04 af 4a 3e 3c c2 d8 bd 47 2b dd bc
       0.1073299 0.19793326 -0.10583922 -0.026998175
0001e0 6a c9 5c 3d ca 15 03 3c f9 e7 db bb 23 43 3e bc
       0.05390302 0.0080008 -0.006711003 -0.011612686
0001f0 05 43 2a 3d 67 f6 a6 3d 73 d1 e0 3c 20 bf 95 be
       0.04156782 0.08152466 0.027443623 -0.2924738
000200 08 b4 a7 be 3b db 95 bd 4f 02 6c 3d a7 7e e7 bb
       -0.3275454 -0.073172055 0.05761939 -0.0070646587
000210 6e 50 15 be 46 b2 60 be a0 67 83 bd 3e 01 96 bd
       -0.14581463 -0.21943006 -0.06416249 -0.07324456
000220 df 1c 02 bd fb 6f 21 bd a0 ef 64 bd 66 a4 85 3d
       -0.031765815 -0.039413434 -0.055892587 0.06525497
000230 4a 1e 0f 3e c2 f0 2d bb aa a2 c1 bd a0 1e 39 bd
       0.13976398 -0.0026541208 -0.09454854 -0.045195222
000240 5d 8f a4 3d 4f 3b 29 3b 75 91 f8 bd 11 9c cb 3d
       0.08035157 0.0025822704 -0.12137119 0.09941877
000250 96 22 20 bc 26 cf 46 bd 99 64 a3 bd e5 2c 5d 3e
       -0.009773871 -0.048537396 -0.07978172 0.21599157
000260 6c 95 82 bd bc e2 83 be b9 c2 3e bd 57 7e aa bc
       -0.06376156 -0.25758922 -0.04657242 -0.020812197
000270 de 63 8b 3d 3a 93 dd bd 53 95 ea bd 69 94 24 be
       0.068061575 -0.10819097 -0.114542626 -0.16072239
000280 1a 11 6d bd 30 68 66 3d ad 4f 4c bd b7 90 aa bd
       -0.057877637 0.056251705 -0.049880672 -0.083283834
000290 12 b6 08 3c 53 16 b5 bc 0a 53 ca bc 28 12 4e bc
       0.00834419 -0.022105372 -0.0246978 -0.012577571
0002a0 de a9 b0 bd c3 31 9b 39 da 14 58 bd f3 77 ca bc
       -0.086261496 0.0002960098 -0.05275426 -0.0247154
0002b0 82 64 3d 3d 7e 8c 1c 3e 8c 09 e6 bd 8d a9 56 bb
       0.04623843 0.15287969 -0.1123229 -0.0032754869
0002c0 ca 93 ad 3d f0 7c 17 3e fa c0 23 3e 02 5e fb 3c
       0.08475454 0.14793754 0.15991583 0.030684475
0002d0 ae 79 18 3e 3f b6 2d 3e 4e 51 fc bc 52 12 27 3d
       0.14890167 0.16964053 -0.030800488 0.040788956
0002e0 f6 3a 68 bd 39 82 11 3e e8 20 b8 3d 58 b9 6c 3d
       -0.056696855 0.14209832 0.08990651 0.057793945
0002f0 86 f9 15 be 17 d1 80 bc d6 e5 46 3e d4 d4 e4 3c
       -0.14645967 -0.015724702 0.19423613 0.027933516
000300 de e7 02 be f8 03 22 3d 5c 13 34 3e 40 74 3b 3e
       -0.12783763 0.039554566 0.1758551 0.18306065
000310 e7 c7 fa 3d fe d1 24 bc 72 17 e7 bc 76 0c eb bc
       0.122451596 -0.010059832 -0.028209422 -0.028692465
000320 f2 64 5f 3d 7f dc 85 3c e2 2d ab bd 70 d1 72 bd
       0.05453963 0.016340492 -0.08358361 -0.059281766
000330 d8 e5 2e 3d 4c 38 a2 bd a3 e8 34 3e c8 d0 a1 3d
       0.042699665 -0.07920894 0.17666869 0.0790115
000340 b4 70 5e 3c bd cd 29 3b 29 47 d7 3d fe 04 bd 3d
       0.013576675 0.0025909983 0.105116196 0.09229468
000350 c7 6f 11 bd 21 43 27 bd 91 16 12 3e 1b 53 40 3e
       -0.03550699 -0.040835503 0.14266421 0.18781702
000360 a0 7a 85 3d 11 2f 34 bd a5 32 97 bd 29 1b 8d bd
       0.065175295 -0.0439902 -0.073827066 -0.06889946
000370 9f 0a 56 bd 45 c0 aa 3d ca 55 b5 3d 67 e1 e7 bc
       -0.052256223 0.08337454 0.088542536 -0.028305722
000380 4a ea 0e be c8 a8 34 be a9 8f 0f be 84 ea 20 be
       -0.13956562 -0.1764251 -0.14019646 -0.1571446
000390 6a 79 a5 bd 91 9b 1b be bc ca 04 3d e5 35 f5 bd
       -0.080797985 -0.15196063 0.032419905 -0.1197317
0003a0 7a d8 53 bd 7d 5f 0d be f5 94 c3 3c fb 0c 5d bd
       -0.05172012 -0.13805957 0.02387474 -0.053967457
0003b0 dd b7 58 3d cb 8b b6 bc 11 6a bb 3d ff 68 ae 3d
       0.05290972 -0.022283455 0.0915109 0.0851612
0003c0 f6 8c a2 3d 3b 37 85 3c d5 ee 6d bd 21 4e 0a bb
       0.079370424 0.016261688 -0.058089096 -0.0021103697
0003d0 b4 02 a4 bd 4f 80 43 bc 95 cb 6f 3c 62 4b 3a 3d
       -0.08008328 -0.011932447 0.01463594 0.045482047
0003e0 3c e7 3e bd dc 0a ac bd c6 8e 62 3d bc 9b 98 3d
       -0.04660724 -0.08400509 0.05531194 0.07451579
0003f0 ad 99 44 3d 39 d7 92 3d e4 30 d9 bc e3 84 19 3e
       0.04799812 0.07169957 -0.02651257 0.14992099

fc1.0.bias f4 [120]
000000 6e 42 15 3e 10 7a 97 3e 86 44 3b 3e 71 ff e9 bd
       0.14576122 0.29585314 0.18287858 -0.11425675
000010 49 12 8e 3e ca c0 ae bd 60 38 90 3d 35 2a 9f 3c
       0.27748325 -0.08532865 0.07042003 0.019429306
000020 09 8e 1d 3e 7a 70 96 3e bb 23 87 3e a9 11 02 bd
       0.15386213 0.29382688 0.26394448 -0.031755123
000030 a5 22 91 bd 40 9e 21 be 24 bc d1 3c d3 fd 90 be
       -0.07086686 -0.15783024 0.025602408 -0.28318653
000040 86 f0 24 bc 29 e4 5f 3e fc 6a e0 3e 4d 1e b5 bd
       -0.010067111 0.2186438 0.43831623 -0.0884367
000050 cc 87 ea 3e 6c c4 45 bd 2d 4f 57 3e 56 99 84 be
       0.4580673 -0.048283026 0.21026297 -0.25898236
000060 29 f8 9c 3d 67 e1 63 3e e5 ae 9e 3e 8e a8 b3 be
       0.0766452 0.22253953 0.3099281 -0.35089535
000070 f7 37 d4 be db 60 72 3e 12 5e 95 bd 94 53 c3 be
       -0.41448948 0.2366976 -0.07293333 -0.38149703
000080 0b 68 78 3c ee 82 a7 bd 89 41 90 3e f3 fd 8a be
       0.0151615245 -0.0817927 0.28175 -0.27146873
000090 b1 82 1d be 18 89 46 3e 9f 0e 7d 3e ca e3 95 3d
       -0.15381886 0.19388235 0.24712609 0.07318838
0000a0 c5 c1 10 3e 73 14 ee bd 3d 00 27 be e8 3b 61 bc
       0.14136417 -0.11624994 -0.16308685 -0.013747193
0000b0 30 6c 04 3e 1c 92 db 3c e1 d7 c5 3e 00 bf e9 3c
       0.12931895 0.026803069 0.38641265 0.028533459
0000c0 f4 f1 57 3e 9d cd 4f be b1 ec 21 bd df 39 40 bd
       0.21088392 -0.20293279 -0.039532367 -0.04693019
0000d0 f1 d9 07 be 84 97 0e 3d ec 62 bd 3c a3 fc 59 bd
       -0.13266732 0.034812465 0.023118459 -0.05321945
0000e0 2d fb d8 3d c5 65 e4 be 77 e9 53 3e 98 0c a7 bd
       0.10594783 -0.44608894 0.20694529 -0.08156699
0000f0 9f 8a 68 be aa 50 e7 3d 46 6b 13 be ae be 24 bd
       -0.2270913 0.11294682 -0.1439639 -0.04022091
000100 da cc 3b be 04 ec 95 bd 0a e6 9a be 9f a2 ee bd
       -0.18339863 -0.07320407 -0.3025363 -0.11652111
000110 13 d6 1b 3e 8e ab 01 3e a0 1a 21 3d de bb 08 be
       0.15218382 0.12663099 0.039332032 -0.13352916
000120 67 89 84 3e 2d 64 b3 3e 9f 15 31 be 6a f7 32 3c
       0.2588608 0.35037366 -0.17293404 0.010923246
000130 69 4f be be a1 a2 c4 bc 8b 77 53 be bc bb 34 3e
       -0.3716996 -0.024003329 -0.20651071 0.1764974
000140 1b d0 9a 3e 0b 32 25 3d 40 93 2a 3e da de 32 3e
       0.30236897 0.040330928 0.16657734 0.17467824
000150 66 07 a3 bd 86 d9 a2 be 05 93 a0 3e 22 19 b6 3c
       -0.079603955 -0.31806582 0.31362167 0.022228781
000160 6d 8d f4 bd da c1 d6 be 4a de 4d bd ce e6 fc bd
       -0.11941037 -0.41944772 -0.05026082 -0.1234871
000170 73 94 00 3d 3a b4 b7 bc e2 bf 0e 3e 1d 9f c9 3d
       0.031391572 -0.022424806 0.13940385 0.098448016
000180 d0 17 bd 3e a3 fe 02 3c fd 87 9a be 68 4c 4e be
       0.3693223 0.00799528 -0.30181876 -0.20146334
000190 24 3c 46 3e 4a c1 0b 3e b7 89 05 be e4 d4 e5 bc
       0.1935888 0.13647953 -0.13040815 -0.028055616
0001a0 1c 18 68 3e 05 63 b3 bd d2 2c 7a 3e 19 a8 31 3e
       0.22665447 -0.08759121 0.2443116 0.1734928
0001b0 f5 9e 9b bd 2b ed 66 3c e8 a3 43 3e 7b 65 85 bd
       -0.07598678 0.014094631 0.19105494 -0.065134965
0001c0 3e 36 71 bd 7e 53 01 3e 93 fb ef 3c fa 5d d3 be
       -0.05888962 0.12629506 0.029294765 -0.41282636
0001d0 6b 37 4e 3e fe 22 31 be 91 25 4b be a7 46 9e 3e
       0.20138328 -0.17298505 -0.19838549 0.30913278

fc2.0.weight f4 [84, 120]
000000 ec 56 ba 3d e7 e0 c5 3c 85 53 1b be 02 a4 03 3c
       0.0909861 0.024155093 -0.15168579 0.008034708
000010 5d aa a9 bd 6d 32 23 be d3 25 7d bd c3 cb dc 3d
       -0.08284447 -0.15937205 -0.06180365 0.10781052
000020 1f 6d 81 be 3a 7d 07 3d e0 ba c3 bd d9 ad 26 3e
       -0.25278565 0.03307841 -0.09557128 0.16277255
000030 a5 ee ab 3c 51 94 0f 3e 55 5d d0 bd 06 72 cb 3c
       0.020987818 0.14021422 -0.10174052 0.024834644
000040 c4 36 08 be 8b 8e 4b bd 67 96 39 be 04 58 45 bd
       -0.13302141 -0.049696486 -0.1812378 -0.04817964
000050 ec f9 3d 3e a6 83 1c 3d b6 9a 02 3e dc dd 43 bc
       0.18552369 0.038211487 0.1275433 -0.011954751
000060 b3 c4 d1 bd 62 05 b9 bd 3a 07 e9 bd dc 2a c8 bc
       -0.102425955 -0.0903423 -0.113783315 -0.0244345
000070 bb 64 4f 3c e3 a5 04 3e 3d e6 12 be 79 fb 42 3e
       0.012658293 0.12953906 -0.14345641 0.19041242
000080 0d 56 bd 3d 03 d7 aa 3c 3c 49 66 3d ec ef a3 bc
       0.092449285 0.020854479 0.056222185 -0.020011865
000090 2e dc f1 bd 9f c0 f0 bd da 4e 58 bd 20 ea 64 be
       -0.11809574 -0.117554896 -0.052809574 -0.22354937
0000a0 71 b6 1c bc ec d9 a4 bd 6d 5c 48 bd f4 3e b9 3d
       -0.009564982 -0.08049378 -0.04891627 0.090452105
0000b0 a5 78 e8 bd 98 10 7f bc 2e c2 19 ba 74 cb e1 bd
       -0.11351136 -0.015567921 -0.0005865422 -0.11025134
0000c0 67 7a 3d 3e 26 65 99 3d c6 0b e5 bd de bf 81 3d
       0.18503724 0.07489996 -0.11183886 0.06335424
0000d0 09 c1 14 3e d5 f4 36 3e 95 39 09 3e 2b 31 65 be
       0.14526762 0.17866834 0.13400872 -0.22382037
0000e0 85 1c e9 bc 87 f8 ef bc a2 f7 7c bd 23 d3 01 be
       -0.028455982 -0.029293312 -0.0617596 -0.12678199
0000f0 d8 08 8a 3d 57 17 a0 3d f4 32 47 be cf a5 1a 3e
       0.06739968 0.07816952 -0.19453031 0.15102313
000100 e5 08 22 bd 24 66 15 be dd d2 88 3d 1b 27 02 3e
       -0.039559264 -0.14589745 0.06680844 0.1271023
000110 a5 be 67 bd 29 9b 3b 3d ee c2 82 bd e8 5f 2b bd
       -0.056578297 0.04580227 -0.06384836 -0.04183951
000120 aa a0 89 bc 17 79 0b bd cf 35 cc 3d ec be 97 bc
       -0.016800243 -0.034051027 0.09971201 -0.018523656
000130 75 ac a5 3c 4d 22 24 3d 16 f3 9e 3c 48 e1 2f 3c
       0.020223835 0.040071774 0.019403022 0.010734864
000140 c3 f1 87 3d 28 ab 05 3e 03 db 07 be c1 e0 46 be
       0.06637909 0.13053572 -0.1326714 -0.19421674
000150 a2 cf 49 3e 4f 8c e1 3d 50 30 2e 3e 4e f4 1b bd
       0.19708112 0.1101309 0.17010617 -0.038074784
000160 e2 d5 77 bd 17 7b 51 3e 46 2a a9 3d 0b 16 0d bd
       -0.06050671 0.20457111 0.08260016 -0.03444485
000170 d6 a0 00 bb f5 10 80 be 33 cd b2 bd 0f 21 0a 3e
       -0.0019627116 -0.25012937 -0.08730545 0.13489173
000180 0e 09 88 bd 84 07 09 3d 83 ac ba bd 00 4b f4 3c
       -0.06642352 0.033454433 -0.09114935 0.029820919
000190 d2 fe 55 bd 60 7d fe 3c eb 9a 46 bd 3f 03 0c 3e
       -0.05224497 0.031065643 -0.048487585 0.13673113
0001a0 e7 87 0c be 49 48 ed 3b ce d7 29 bc 29 14 80 bd
       -0.13723718 0.007241283 -0.010366393 -0.06253845
0001b0 0a be 73 ba c9 28 b2 bc bc c1 dc 3d b0 25 3c 3e
       -0.00092980324 -0.021747964 0.107791394 0.18373752
0001c0 68 a3 f8 3b 38 98 3a bd 2b 76 cd 3d 07 ca b1 3d
       0.007587839 -0.045555323 0.100323044 0.08681112
0001d0 81 0e 8e bd e2 0b 33 3d c4 dd d9 bc c3 1e cc bd
       -0.0693636 0.043712504 -0.026595004 -0.09966805
0001e0 bf 01 7c 3e 4a d2 a0 3e cb 8f 64 bd 8c 4b 42 3e
       0.24610041 0.31410438 -0.055801194 0.18974131
0001f0 94 74 a3 3d 34 41 17 be 39 dd 15 be ed 74 a8 3a
       0.0798122 -0.14770967 -0.14635171 0.0012852229
000200 03 27 92 bd 50 bd 0c 3d 28 a9 19 bc 5a e5 6d 3d
       -0.07136347 0.03436023 -0.009378709 0.058080055
000210 9e ee 41 bd 93 f4 2e 3e e9 6f 92 3d 42 50 ee 3c
       -0.047346704 0.17085485 0.071502514 0.029091004
000220 df c4 7d bb 4c 5b 08 3d 3a 56 24 3e 78 dd 5c be
       -0.003872208 0.033290192 0.16048518 -0.21568859
000230 b9 69 04 3e 29 62 1a be d2 81 ab 3d 56 e7 42 bd
       0.12930955 -0.15076508 0.08374371 -0.0475839
000240 32 c0 de 3d df 89 01 3d 54 08 75 3d ab 34 45 be
       0.10876502 0.031625625 0.059822395 -0.19258372
000250 cc fe 7b bc f2 46 c0 3d 92 86 9a bc 78 fd 85 bd
       -0.0153805725 0.09388532 -0.018862996 -0.06542486
000260 c7 66 a9 3d c5 df 48 bd 80 1e ab 3d 3e 91 85 3d
       0.08271556 -0.04904153 0.08355427 0.065218434
000270 25 0f 0f be 86 37 39 bd d4 e8 11 3e d7 b0 a9 3b
       -0.13970621 -0.045218967 0.14248973 0.0051785517
000280 b6 7a 2d be 44 b3 1b be b9 c8 c1 bc 0c 2a 14 3d
       -0.16941342 -0.15205103 -0.023655282 0.03617291
000290 4c a0 5e 3e 3b f7 51 3d d5 a1 03 3e bc d5 8f 3c
       0.21740836 0.051261168 0.12854703 0.017557971
0002a0 6b 4b 5f 3d 11 bf d1 3d 2a 47 29 bb 7d fb d2 bc
       0.054515284 0.10241521 -0.002582977 -0.025754685
0002b0 e8 20 b2 3c 12 8b fb 3d b8 b1 1d 3e f4 56 20 be
       0.021744207 0.12282385 0.15399826 -0.1565817
0002c0 10 bd 32 3e a4 49 71 3d b6 0a 15 3c eb 51 77 bc
       0.17454934 0.05890812 0.009096792 -0.015095214
0002d0 0c ab c8 bd 23 b5 fe 3c c7 48 40 bd 1d 1a e6 bc
       -0.097982496 0.031092232 -0.046944406 -0.028088624
0002e0 93 77 9b be de 23 f4 3d f9 f7 26 be 23 19 93 be
       -0.30364665 0.119209036 -0.16305532 -0.28730115
0002f0 66 a0 1c bd c0 df de 3d b8 b3 b2 bd 31 35 5d 3c
       -0.038238905 0.10882521 -0.08725685 0.013501451
000300 19 d8 ee bd c5 58 1a 3e fd 60 ff 3c 89 60 99 bd
       -0.11662311 0.15072925 0.031174177 -0.07489116
000310 e9 76 69 be ab 96 ce 3d 9e 5b c4 bd 8c e2 23 bd
       -0.22799267 0.100873314 -0.09587787 -0.040010974
000320 45 51 a7 3d 20 46 90 3d cf 16 22 3d ac e4 85 3d
       0.08169798 0.07044625 0.039572533 0.06537756
000330 e1 d0 1d be f1 44 54 3e fd 49 2a bd db c7 b0 bc
       -0.15411712 0.20729424 -0.041574467 -0.021579674
000340 7f 94 90 3d 9d 6b 97 3a 1b 35 fb 3c 35 f5 ee bc
       0.070595734 0.0011552457 0.030664971 -0.029169658
000350 38 0e 93 bd 54 30 21 be 39 da 03 3d 24 89 ad 3d
       -0.071804464 -0.15741092 0.032190535 0.08473423
000360 6a f3 1c 3e f9 53 75 bd 5a 87 0c bd 10 12 2c bc
       0.1532723 -0.059894536 -0.03430877 -0.010502353
000370 46 8d d0 3d 44 85 d2 3d 39 7e 2a 3c 17 f8 5b 3d
       0.10183196 0.10279325 0.01040607 0.053703394
000380 f4 85 64 be 85 5a 91 bd 69 b4 e1 bd d5 1d d8 3d
       -0.22316724 -0.07097343 -0.11020739 0.10552565
000390 9a 34 98 bd ff d9 13 3d 3e af 83 3c e0 62 4e bc
       -0.07431908 0.03609657 0.016074773 -0.012596816
0003a0 a1 6e 5b bc 08 86 fc bc ea 43 de 3c 5f 09 98 bd
       -0.013393075 -0.03082563 0.027131993 -0.074236624
0003b0 a9 33 3e 3e 39 73 99 bd 55 31 35 3d b3 5c 2c bd
       0.18574394 -0.0749268 0.0442365 -0.042080592
0003c0 6a 57 bb 3d 55 13 2c 3e 6f 22 82 bd e2 d6 be 3c
       0.09147532 0.1680425 -0.06354224 0.023295823
0003d0 ef 12 0a 3d 34 54 16 be 96 81 11 bd b6 76 c3 3d
       0.033709463 -0.14680558 -0.035523973 0.09544127
0003e0 5b d4 2b 3e da 7b 85 3d 95 9d 93 bd d9 78 97 3d
       0.16780226 0.065177634 -0.07207791 0.07396097
0003f0 68 95 43 3b bb 67 93 bd 35 ae 36 bd 00 eb a6 bd
       0.0029843692 -0.071975194 -0.04459973 -0.081502914

fc2.0.bias f4 [84]
000000 fd d9 6d bd d0 b7 10 3e ec 01 30 3e ee ef c1 3d
       -0.058069218 0.14132619 0.17188233 0.09469591
000010 f3 ec 00 3d 28 c5 52 3e e3 70 f3 3c 00 b2 ba bc
       0.031475972 0.20583022 0.029716915 -0.022789955
000020 44 78 07 bb d1 2f 0e be c5 07 0e be 35 d3 18 3e
       -0.002067105 -0.13885428 -0.13870151 0.14924319
000030 65 2b 13 3c 40 7f ab bd d7 9a 7c 3c c6 c0 8e 3d
       0.008982514 -0.083738804 0.015417776 0.06970362
000040 17 2c b3 bd 7a 69 ed bd 4b 0a 2c bc ea 7f 4a 3e
       -0.08748644 -0.11592384 -0.010500501 0.19775358
000050 61 73 a9 3a 4c 1f 8e be 94 cd 3d bd 2f 5e a3 3c
       0.0012928062 -0.27758253 -0.046338633 0.019942371
000060 76 43 16 bd ad 34 74 3d 86 70 c7 be fd fd 97 3c
       -0.03668543 0.059620548 -0.38953036 0.018553728
000070 18 e5 17 3c fc de 84 3d 6d 21 c7 bd 51 5a 75 3e
       0.009270929 0.064878434 -0.09723172 0.23960234
000080 04 67 ce be 04 0c 49 3e 81 74 f7 bd 56 b7 24 3e
       -0.4031297 0.1963349 -0.12082768 0.16085562
000090 f9 39 36 3c 85 7c f3 3c 84 19 9a 3e 47 00 8f 3e
       0.01112222 0.029722461 0.30097592 0.279299
0000a0 88 bf ee 3d 96 12 89 bd 71 f3 06 bd b8 d5 3e be
       0.116576254 -0.06692998 -0.032947008 -0.18636215
0000b0 51 5f 9b bc 68 cf 44 3d bf 82 3b 3e 73 be 5a 3e
       -0.018966349 0.04804936 0.18311594 0.21361713
0000c0 a0 56 84 bd e7 37 4c be af 8f 96 3d da 0a 9d be
       -0.06461835 -0.199432 0.07351624 -0.30672342
0000d0 de 23 2e bc f5 4c 60 3d 8f cf 35 3d 0c db 21 be
       -0.010628669 0.054760892 0.044387396 -0.15806216
0000e0 98 7f c4 bd e3 97 13 be b0 e6 89 3d 49 81 09 be
       -0.09594649 -0.14413409 0.06733453 -0.13428225
0000f0 f5 a3 29 bd d5 16 23 be a4 23 c8 bd 6f 7f 1a 3d
       -0.041416127 -0.15926678 -0.09772423 0.037719186
000100 51 81 1b 3e c1 61 b8 3d 67 ce 8f be 25 4b bf be
       0.15186049 0.0900302 -0.2808716 -0.37362018
000110 43 d2 f1 3c 20 c1 3f be fc 5a 9c be 45 c0 d1 3d
       0.029519206 -0.18726015 -0.30538166 0.10241751
000120 d5 c3 2d be 86 a8 84 be 1a 40 25 3e 7f 05 79 bc
       -0.16969235 -0.25909823 0.16137734 -0.015199064
000130 3b cf cc 3c 81 24 2d 3d c9 84 4e be 64 0c 54 bd
       0.025001159 0.04227114 -0.20167841 -0.05176963
000140 18 71 83 bc a2 1c e3 bc c6 3e 02 3e a3 34 0e be
       -0.016045138 -0.027723614 0.12719259 -0.13887267

fc3.0.weight f4 [10, 84]
000000 97 49 a2 3d c6 ef 89 be fa ac 0a be 97 ad c0 3d
       0.079241924 -0.26940745 -0.13542548 0.0940811
000010 cb dc 22 bd 60 aa 17 3e 43 57 f1 bd 7a 10 b8 3d
       -0.039761346 0.14811087 -0.11784222 0.08987518
000020 bd 52 c3 3d a1 5f 5d 3e e0 06 e3 3d 2c 24 12 be
       0.095372654 0.21618511 0.11085296 -0.14271611
000030 59 11 98 3e d8 84 90 3e 1a 5a 12 3e 62 32 02 3e
       0.29700735 0.28226352 0.14292184 0.12714532
000040 26 42 17 be 5e 63 65 be 4b 9c 81 bd c9 af f1 bd
       -0.14771327 -0.22401187 -0.06328639 -0.118011065
000050 17 78 0b 3e 67 63 3a 3e 06 30 88 3e f0 d7 5a be
       0.1362003 0.18201981 0.2659914 -0.21371436
000060 32 ad 95 3e 3f 95 2d be 28 59 22 3e 26 4d 0a be
       0.292337 -0.16951464 0.15854323 -0.13505992
000070 99 b3 cc 3d e2 71 45 be 30 41 33 be d1 e8 7b bd
       0.09995193 -0.19281724 -0.17505336 -0.061501328
000080 a2 20 94 3e 60 05 ac bd bc 08 3c 3e 06 d4 34 be
       0.28931147 -0.08399463 0.18362707 -0.17659006
000090 a3 a7 e1 3d 98 80 9c bd d4 86 e2 bc 2f 33 ef bd
       0.11018302 -0.07641715 -0.027652182 -0.11679684
0000a0 89 ea e0 3d 07 99 0d be e5 b6 04 3e 5c cf 5a 3e
       0.10982234 -0.13827907 0.12960394 0.21368164
0000b0 dc 3c 2b be 58 46 1e 3e ae 28 88 be 6b c9 82 be
       -0.16722435 0.15456522 -0.26593536 -0.25544295
0000c0 3e d4 a9 be b9 81 a2 3d ac c6 61 3e 22 09 d5 3d
       -0.3316974 0.07934899 0.22048444 0.104021326
0000d0 5a 1e 27 3d 24 c7 c3 3d 48 85 51 be 1c ad bb bd
       0.04080043 0.095594674 -0.20460999 -0.09163877
0000e0 b8 8a f2 bb c6 96 3d 3e 7c 89 1c be 8e 5e de 3d
       -0.0074017905 0.18514547 -0.15286821 0.108578786
0000f0 bf 76 87 3c cd 5e a6 3c 0e 71 02 be ed fe 9b 3d
       0.016536115 0.020308876 -0.1273844 0.076169826
000100 03 e7 1d 3d 98 ae bc bd 4c b2 c6 bd 78 0d 85 3e
       0.038550388 -0.092129886 -0.09701976 0.25986838
000110 b8 62 11 3e b5 00 8c 3e 24 a5 c9 3d 4d 3d 57 be
       0.14197814 0.2734429 0.09845951 -0.21019478
000120 da 80 50 3e 99 b4 57 3e bf f3 1a be b7 05 5e be
       0.20361653 0.21064986 -0.15132044 -0.21681868
000130 41 c4 78 3e ac de 2d bc 06 3a 24 3e d7 92 bb 3c
       0.24293615 -0.010612171 0.16037759 0.022897167
000140 bc 2a 48 3e 82 9b 3b 3e c6 ce 2b be b2 4c 93 3e
       0.19547552 0.1832104 -0.16778097 0.2876945
000150 7e 8d 0b be c4 d5 3c 3d f8 6b 4d 3e 98 7e a6 bd
       -0.13628194 0.0461023 0.20060718 -0.081296146
000160 1a 8a c7 3d 1e 9c 0c be a4 07 42 be f3 93 4b be
       0.09743138 -0.13731429 -0.18948227 -0.19880657
000170 bc f1 a7 bd 2a 59 29 be b8 35 3b be d0 d7 17 3e
       -0.08200404 -0.1653792 -0.18282211 0.1482842
000180 12 45 63 3e f5 50 62 3e 3d 0d a0 3e 80 aa 8a 3e
       0.22194317 0.22101195 0.312601 0.27083206
000190 2e 02 89 3e 9e 5d 75 be b6 3e 63 3e d8 de 4c 3e
       0.26759475 -0.23961493 0.22191891 0.20006883
0001a0 ec 08 c8 3d 88 fa a0 bd 96 7f 55 3c 56 51 9a be
       0.09767327 -0.07860285 0.013030907 -0.3014018
0001b0 81 d5 99 3e 3b 92 ed bd 43 6b d2 bd a3 e8 e6 3d
       0.30045703 -0.11600157 -0.10274365 0.11274841
0001c0 a9 fe 39 be 01 73 8f bd 9a 16 ff 3d 12 5f c6 bc
       -0.18163551 -0.07004357 0.12455483 -0.024215255
0001d0 0f 21 84 3e 2f 52 5b 3e 24 c6 88 be 8b 51 47 3e
       0.25806472 0.2141807 -0.2671367 0.194647
0001e0 f9 9e 83 be 7d d1 5c 3e 12 82 7c 3d d8 bf 17 3e
       -0.25707224 0.21564288 0.061647482 0.14819276
0001f0 07 8d 57 be 1d 74 f3 3c 49 ce c1 3d a7 15 e0 bd
       -0.21049891 0.029718453 0.09463174 -0.1094163
000200 2f d1 86 3d 31 46 3a 3e ab cd 39 3e 60 60 f6 bd
       0.06582867 0.18190838 0.18144862 -0.12030101
000210 6f 02 e5 bd 31 6f 0b 3e 07 c0 65 3e d9 a8 47 be
       -0.11182105 0.13616635 0.22436534 -0.19498004
000220 11 4d 80 be da be c3 3c 7f 35 6d 3e ce 14 23 be
       -0.25058797 0.023894716 0.23164938 -0.15925905
000230 91 97 17 3e 9e 89 91 bd 8a 65 ac bc 7f 8c f9 3d
       0.14803912 -0.071063265 -0.021044511 0.12185001
000240 5f b7 ac 3d 56 db d8 3d 1e 54 4c 3e 8d fd 86 be
       0.08433413 0.1058871 0.19953963 -0.2636532
000250 9c 44 f3 3c fc 04 03 be 7a 57 41 3e a1 e0 e0 bd
       0.029695801 -0.1279487 0.18881026 -0.109803446
000260 76 46 80 be 10 ff 10 3e 4f 20 1c be f4 cf 72 3e
       -0.25053757 0.14159799 -0.152467 0.2371214
000270 6c eb 6a be bd 81 d9 bd 13 24 5a 3e ab f0 a0 bd
       -0.22941369 -0.10620449 0.21302824 -0.07858404
000280 eb 14 ce bd 09 42 00 3e d5 82 f5 bd 35 5d 4e be
       -0.100625835 0.1252519 -0.11987845 -0.20152743
000290 7a f1 3a be 48 cb ff 3d 76 74 bf bd 7d c0 aa bd
       -0.18256178 0.12489945 -0.09348385 -0.083374955
0002a0 da 42 09 be d7 48 bf 3d 6c ae 86 bd 43 9c 0e bd
       -0.13404408 0.09340065 -0.06576237 -0.03481699
0002b0 3f 8f 13 be 4b f1 16 3e b2 5a bc 3d 95 83 02 be
       -0.14410113 0.14740483 0.09196986 -0.12745507
0002c0 95 bf 79 bd ea cc fc bd c4 6d 0f be 32 4e 4c be
       -0.060973722 -0.12343772 -0.14006716 -0.19951704
0002d0 54 ae e8 bd 11 a1 52 be 68 b5 03 be b2 2b 47 3e
       -0.113613755 -0.20569254 -0.1286217 0.19450262
0002e0 14 da d8 3d 0b 49 14 be fa e1 09 be 02 bf 6f 3e
       0.1058847 -0.14480989 -0.1346511 0.23412707
0002f0 a5 fe 23 be b5 0b d4 3d f3 c2 31 be 5b 01 c2 3d
       -0.16015108 0.103537954 -0.17359523 0.09472915
000300 d2 be 56 3e 2d 83 47 be e7 bd 1f be 77 b9 40 be
       0.2097123 -0.19483633 -0.15599786 -0.18820749
000310 45 46 0d be c0 a9 81 3c 58 55 6e 3a f9 82 41 3e
       -0.13796337 0.015828013 0.00090916967 0.18897618
000320 6d 5c 21 3e de 11 09 be 10 cd 35 be f9 a6 af 3d
       0.15757914 -0.13385722 -0.17754006 0.085767694
000330 66 0f 21 3e e5 bc a3 3d 46 9c 1b 3e 34 4f 2d 3d
       0.1572853 0.07995013 0.15196332 0.042311862
000340 59 81 92 3e 95 99 90 be b0 aa 5a be b8 bb 0e 3e
       0.2861431 -0.28242174 -0.21354175 0.13938797
000350 43 1a 19 3e 25 27 29 3e 49 66 1c 3c 9a b0 4c 3e
       0.14951424 0.16518839 0.009545871 0.19989243
000360 ba 2b 1f be 0f be 1b be f0 6a 9f bc f1 d5 5a be
       -0.15544024 -0.1520922 -0.019460171 -0.21370675
000370 e3 bb 25 be 35 f9 ad 3d 80 e9 1b be a3 b0 c5 3d
       -0.16184954 0.08494798 -0.15225792 0.096528314
000380 61 ed 5b be 49 82 15 3e ad 29 21 3e d4 7d 9b 3c
       -0.21477272 0.14600481 0.15738554 0.018980898
000390 43 ae 1a 3e bc e4 44 be 1e 89 a8 bd b9 3b 8c 3d
       0.15105538 -0.1922788 -0.08229278 0.06847329
0003a0 3e 84 77 3e 6d df 70 be 82 27 15 bd 9c 08 be bd
       0.2417154 -0.2352273 -0.03641463 -0.09278986
0003b0 3f a8 cf 3d 0d fd 8b be 82 9f 7c be c3 ae 21 3d
       0.10139512 -0.273415 -0.24670222 0.039473306
0003c0 63 90 11 3e e4 c6 0d be fe 5d 82 be 84 98 0e be
       0.14215235 -0.13845402 -0.25462335 -0.13925368
0003d0 52 2a 2d 3e f5 bc 89 3e e6 97 5a 3d 93 f9 86 3e
       0.16910675 0.26901975 0.053367518 0.26362285
0003e0 0e ab cf bd 35 2e 54 3e 25 f5 e0 bd c7 51 56 be
       -0.10140048 0.20720752 -0.109842576 -0.20929633
0003f0 75 ce 19 be d0 e0 a3 bd 07 4d 0c be 51 e0 61 3e
       -0.15020163 -0.08001864 -0.13701259 0.22058226

fc3.0.bias f4 [10]
000000 b7 b3 c6 be 4a 94 35 3d db 7f 84 3e 04 32 02 be
       -0.38808987 0.044330873 0.25878796 -0.12714392
000010 e6 11 f3 bc 64 f5 2b 3e be eb ce be 28 15 a7 3e
       -0.02967162 0.16792828 -0.40414232 0.32633328
000020 23 f7 5a 3d b9 e2 0a 3e
       0.053458344 0.1356305
