save_checkpoints/LeNet5_epoch_9.pth (torch, 249863 bytes, 10 tensors)

conv1.0.weight f4 [6, 1, 5, 5]
0	0x3caadd8d	0.020857597
1	0x3e0a6c84	0.13517958
2	0xbe0abdf2	-0.13549021
3	0xbe047a98	-0.12937391
4	0x3d8f7fcd	0.07006798
5	0xbde7642a	-0.11298402
6	0xbda9d00a	-0.082916334
7	0xbb45a98d	-0.0030160875
8	0x3d7ca253	0.061678242
9	0xbda4770a	-0.080305174
10	0x3d98cacd	0.07460556
11	0xbd0c276a	-0.034217276
12	0xbcda8376	-0.026674014
13	0xbcb361b0	-0.021897167
14	0x3e89cf93	0.2691618
15	0x3e2fc21c	0.1716389
16	0x3e0da976	0.13834175
17	0x3e9d970d	0.30779305
18	0x3e0f989d	0.14023061
19	0xbd280f3c	-0.041030154
20	0xbdbe1213	-0.09280791
21	0x3d2e02f1	0.042483274
22	0xbe7f4994	-0.24930412
23	0xbc3c96b6	-0.011510542
24	0xbd503f70	-0.05084175
25	0xbd3079d3	-0.04308493
26	0xbd08f1ed	-0.033433843
27	0xbc5c61b6	-0.0134510305
28	0xbd856c52	-0.06514801
29	0x3dc5e829	0.09663422
30	0xbd14c4b6	-0.03632041
31	0xbe1d4594	-0.15358573
32	0x3e285f59	0.16442622
33	0x3e782fe6	0.24237022
34	0x3ca005ba	0.01953398
35	0x3e112fbd	0.14178367
36	0x3e292102	0.16516498
37	0x3d973ebd	0.07385013
38	0x3da59f01	0.08086968
39	0x3dab20de	0.08355878
40	0xbe880990	-0.26569796
41	0x3db2097d	0.08693216
42	0x3e5bca14	0.21463805
43	0xbb0acd04	-0.0021179328
44	0xbe7c0a0f	-0.24613212
45	0xbe431883	-0.19052319
46	0x3c8421e9	0.01612945
47	0xbe709d7c	-0.23497576
48	0x3d22ebea	0.039775766
49	0xbde1b881	-0.110215195
50	0x3d729c62	0.05923117
51	0x3df1d71f	0.11808609
52	0x3e325618	0.17415655
53	0x3d63c674	0.05560918
54	0xbc8f68e8	-0.017506078
55	0x3e127c3f	0.14305209
56	0xbdec8205	-0.11548237
57	0xbd01d533	-0.031697463
58	0x3df7138e	0.12064277
59	0x3da7f53d	0.08201072
60	0x3e1c0861	0.15237571
61	0x3e422f2c	0.18963307
62	0xbda0a15f	-0.07843279
63	0x3df42df7	0.119228296
64	0xbdd88fcf	-0.10574304
65	0xbe1b8d59	-0.15190639
66	0xbeab2c61	-0.33432296
67	0xbe16b143	-0.14716057
68	0xbe75528d	-0.23957272
69	0x3e4e6414	0.20155364
70	0xbe9f2797	-0.31084892
71	0xbdcf5ca2	-0.1012509
72	0x3caa9f8a	0.020828027
73	0xbdb9b2cf	-0.09067308
74	0xbe81ce9b	-0.2535294
75	0xbc5001c5	-0.012695734
76	0xbb929f22	-0.0044745365
77	0xbdedee77	-0.11617749
78	0x3d97e5ef	0.07416903
79	0xbe3f0eb4	-0.18657953
80	0x3d0da75a	0.034583427
81	0xbda27d8e	-0.07934104
82	0xbd3ebb1c	-0.04656516
83	0x3d8a3313	0.06748023
84	0xbd4168be	-0.04721903
85	0xbd01c6a3	-0.031683575
86	0xbd1f6747	-0.038916852
87	0xbe5f6709	-0.21816649
88	0x3e2cd68c	0.16878718
89	0xbdaf0a06	-0.08546834
90	0x3dfd8590	0.12378991
91	0x3da37153	0.07980599
92	0x3e009142	0.12555411
93	0xbd76299a	-0.060098268
94	0x3e9760ae	0.29565948
95	0xbd195fcf	-0.037444886
96	0x3dec1739	0.11527867
97	0x3e678a8d	0.22611447
98	0x3c7b9b91	0.015356914
99	0xbb91ab3e	-0.0044454625
100	0xbd25fc1f	-0.040523645
101	0x3cd8ed6b	0.026480397
102	0xbc90f4fa	-0.017694939
103	0x3e35e6ec	0.17763871
104	0xbe6135ae	-0.21993133
105	0x3c8315d3	0.016001618
106	0x3d52b1b8	0.051439017
107	0x3def6b5c	0.11690399
108	0x3dbbb728	0.09165794
109	0x3d512fbc	0.051070914
110	0xbe510b9d	-0.20414586
111	0x3df0696d	0.11738858
112	0x3d089555	0.03334554
113	0x3cfc39f3	0.030789351
114	0x3c854366	0.01626749
115	0x3d9f2cb2	0.07772197
116	0x3e1f3a70	0.15549636
117	0xbd64cc04	-0.055858627
118	0x3c24c36e	0.01005636
119	0xbdfc9a88	-0.12334162
120	0x3c913ddc	0.017729692
121	0x3dc5683e	0.09639023
122	0x39f3100b	0.00046360525
123	0xbd7e5efa	-0.062102295
124	0xbe886516	-0.26639622
125	0x3daed511	0.08536733
126	0x3e2dd773	0.16976719
127	0x3c66e80a	0.014093408
128	0x3ddc097d	0.10743997
129	0x3d324ca6	0.04353013
130	0xbcaaa0ff	-0.020828722
131	0xbdc1df83	-0.094664596
132	0x3e5b25cb	0.21401136
133	0xbd9d3f8b	-0.076781355
134	0xbcb70498	-0.022341058
135	0x3dac2651	0.08405746
136	0x3d0ec288	0.03485349
137	0x3d86eac6	0.06587748
138	0x3d32cd73	0.043652963
139	0xbd5d103d	-0.053970564
140	0xbdbba924	-0.091631204
141	0xbdab5c65	-0.08367232
142	0x3dbac0de	0.09118818
143	0xbe45deb3	-0.19323234
144	0xbe3879c5	-0.18015201
145	0xbda838e3	-0.08213975
146	0x3dc7748f	0.09739029
147	0xbe1bfd02	-0.15233234
148	0xbd5c69fc	-0.053812012
149	0x3d0d32e0	0.034472346

conv1.0.bias f4 [6]
0	0xbe592cf3	-0.21208553
1	0x3d1bc1c5	0.03802659
2	0xbe22dd3c	-0.15904707
3	0x3de942c5	0.113896884
4	0xbe55b314	-0.20869094
5	0xbe5391f6	-0.20661148

conv2.0.weight f4 [16, 6, 5, 5]
0	0x3d180045	0.037109632
1	0x3d437829	0.047722016
2	0xbb5cd51a	-0.0033696354
3	0xbda4a6c8	-0.080396235
4	0xbdd16f40	-0.102262974
5	0xbdafb052	-0.08578552
6	0x3cd60070	0.026123255
7	0x3d2ecafa	0.042674042
8	0x3c5475f4	0.012967575
9	0xbdda3150	-0.10653937
10	0xbd8e1484	-0.06937507
11	0xbdc87296	-0.097874805
12	0xbcd12b99	-0.025533484
13	0x3c836d7f	0.016043423
14	0xbd95bc42	-0.07311298
15	0xbd871f87	-0.0659781
16	0xbda3b22b	-0.07992967
17	0xbc56e09d	-0.013115075
18	0xbda4876e	-0.08033644
19	0xbdedf3c2	-0.11618759
20	0xbd5ef982	-0.054437168
21	0xbd0a00ea	-0.033692278
22	0xbd99845f	-0.07495951
23	0xbe140d4d	-0.14458199
24	0xbd94dc4a	-0.07268579
25	0xbd1d6bfd	-0.038433064
26	0xbe14af7d	-0.14520068
27	0xbe3e025c	-0.18555588
28	0xbdf0302c	-0.11727938
29	0xbbf9d8bc	-0.0076247137
30	0x3df0c3e4	0.11756113
31	0x3dbb4935	0.091448225
32	0x3b768df1	0.0037621225
33	0xbcb2441f	-0.021760998
34	0xbdfbd8d0	-0.12297213
35	0x3e0d917f	0.13825034
36	0x3e398b92	0.18119648
37	0x3d951169	0.07278711
38	0xbc612ea3	-0.013744029
39	0xbda9b709	-0.08286864
40	0xbc931eb4	-0.017958976
41	0x3d7af819	0.06127176
42	0x3dac6572	0.08417787
43	0x3dad42ab	0.084599815
44	0xbd95ea0c	-0.073200315
45	0x3d639cb7	0.055569377
46	0xbd4e4f20	-0.05036843
47	0x3da83dbd	0.08214901
48	0x3d64fa7b	0.05590294
49	0xbe158a6d	-0.14603586
50	0xbdf398b0	-0.11894357
51	0xbd0e342f	-0.034717735
52	0xbde18108	-0.11010939
53	0xbd206a85	-0.039164085
54	0x3d915f41	0.07098246
55	0x3dd227f8	0.1026153
56	0xbde7bc6e	-0.11315237
57	0xbe8badcf	-0.27281043
58	0xbe5ec661	-0.21755363
59	0xbe2bc4fd	-0.16774364
60	0x3e0508e2	0.1299167
61	0x3df1c548	0.118052065
62	0x3db0866b	0.08619388
63	0xbc7af243	-0.015316549
64	0xbdc0bc0f	-0.09410869
65	0xbdb829e2	-0.089923635
66	0x3c063bde	0.008192984
67	0xbc84acc7	-0.016195668
68	0x3c545449	0.012959548
69	0xbce23a3f	-0.027615665
70	0xbc732832	-0.014841126
71	0x3aa920b7	0.0012903427
72	0x3d185963	0.03719462
73	0xbc271333	-0.010197449
74	0x3d907bfa	0.07054897
75	0x3da7870d	0.08180056
76	0x3dd7e287	0.105412535
77	0xbc3e901d	-0.011631039
78	0xbdfbc92e	-0.12294231
79	0xbd99a0dd	-0.07501385
80	0xbdb88866	-0.09010391
81	0x3d2ffe35	0.04296704
82	0x3d90d82d	0.07072482
83	0x3b8baad1	0.0042623063
84	0xb9f1b6ab	-0.000461032
85	0xbe3e00f9	-0.18555059
86	0xbdbe244a	-0.09284265
87	0x3c913347	0.017724646
88	0xbda42e46	-0.080166385
89	0xbd51311e	-0.051072232
90	0xbd768831	-0.060188476
91	0xbda64083	-0.081177734
92	0xbdc8b5ab	-0.098002754
93	0xbe0e7375	-0.13911231
94	0xbdf09dd1	-0.11748851
95	0xbdce56cb	-0.10075148
96	0xbd8b6a24	-0.06807354
97	0xbdd26178	-0.10272497
98	0xbd323321	-0.04350579
99	0xbca6c037	-0.020355327
100	0x3d021970	0.03176254
101	0xbc08e2df	-0.0083548715
102	0x3daf3e59	0.08556814
103	0x3dd271b1	0.10275591
104	0x3d21a35b	0.03946243
105	0x3e18b356	0.14912161
106	0x3e06ac21	0.131516
107	0x3e2af86c	0.16696328
108	0x3e0c2ece	0.1368973
109	0xbd343662	-0.043997176
110	0x3b590ce7	0.0033119263
111	0x3db96e95	0.09054295
112	0x3e0275bd	0.12740226
113	0x3def36f6	0.11680405
114	0x3da4bdb6	0.08043997
115	0xbdab14a4	-0.08353546
116	0xbd4ff2ce	-0.050768666
117	0xbc31cf3a	-0.010852629
118	0x3bdd4cdf	0.0067535485
119	0xbace8ccd	-0.0015758515
120	0xbdaa763e	-0.08323334
121	0xbdaaebc6	-0.083457515
122	0xbd8458cb	-0.064622484
123	0xbcf9c504	-0.030489452
124	0xbe059d84	-0.13048369
125	0xbd0614f6	-0.032734834
126	0xbde3ad72	-0.111170664
127	0xbda67adf	-0.081289046
128	0xbd274f7a	-0.04084728
129	0xbc0de874	-0.008661378
130	0xbc7e94a9	-0.015538373
131	0xbddfb0b6	-0.10922377
132	0xbe05972f	-0.13045953
133	0xbe5d5f29	-0.21618332
134	0xbe5623cf	-0.20912097
135	0x3d16b029	0.036789093
136	0x3ceff76b	0.029292783
137	0x3ca83a4e	0.020535614
138	0xbcdd237b	-0.026994457
139	0xbdbaa566	-0.091135785
140	0xbd8f2e2c	-0.069912285
141	0xbd3e4d06	-0.046460174
142	0x3adcc52f	0.0016843433
143	0xbb613315	-0.0034362723
144	0xbcace36c	-0.021104537
145	0xbdacb910	-0.08433735
146	0xbe1e12c4	-0.15436846
147	0xbc84df1c	-0.016219668
148	0x3d382bae	0.04496353
149	0xbce0eb5a	-0.027455974
150	0x3ce2e052	0.027694855
151	0xbd2f3415	-0.04277428
152	0xbda265fa	-0.07929607
153	0xbe00bda8	-0.12572348
154	0xbe5f39f6	-0.21799454
155	0xbcb2d88f	-0.021831779
156	0xbdac6e4a	-0.084194735
157	0xbd85ce3f	-0.06533479
158	0xbdd2939b	-0.1028206
159	0xbe112263	-0.14173274
160	0x3e09e991	0.13468005
161	0x3d70f8d7	0.058831062
162	0xbcb11a95	-0.02161912
163	0xbc203952	-0.009779291
164	0xbc005f20	-0.00783518
165	0x3d967546	0.07346587
166	0x3daf02d2	0.0854546
167	0x3d0ea458	0.0348247
168	0x3d6f00b7	0.05835029
169	0xbd23b082	-0.039963253
170	0x3ce9b62c	0.02852925
171	0x3dc8c2b8	0.09802765
172	0x3c66f7f4	0.014097203
173	0xbd1e7087	-0.038681533
174	0x3cbfcd03	0.023413187
175	0xbd6557cf	-0.055991944
176	0xbcd4bd4a	-0.025969166
177	0xbd8a12ad	-0.067418434
178	0xbe0f42d7	-0.13990341
179	0xbdcfeef1	-0.10152996
180	0xbcf29e25	-0.029616425
181	0x3d84a4ef	0.06476771
182	0xbcbde24c	-0.023179196
183	0xbd0ac28e	-0.033876948
184	0xbdbb5f46	-0.09149031
185	0xbe01a146	-0.12659177
186	0x3c9f4de9	0.01944633
187	0xbde95776	-0.11393635
188	0xbdc469f5	-0.09590522
189	0xbd8c0e19	-0.068386264
190	0xbcc0bf3e	-0.023528691
191	0xbd04d3b6	-0.032428466
192	0x3d5e5239	0.054277632
193	0x3da21337	0.07913821
194	0xbd8d9f78	-0.06915182
195	0xbbd102b0	-0.006378494
196	0xbcb5dcd2	-0.022200022
197	0x3ca04d96	0.019568246
198	0x3d80fcf9	0.06298251
199	0xbd721140	-0.059098482
200	0x3d218adb	0.039439064
201	0xbdb759fb	-0.08952709
202	0xbe26b958	-0.1628164
203	0xbd5a58a8	-0.053307205
204	0x3bb85053	0.00562481
205	0x3e2736d8	0.16329515
206	0xbdd1d3ba	-0.10245462
207	0xbe83b580	-0.2572441
208	0xbdafae51	-0.0857817
209	0xbd2a995a	-0.041650154
210	0xbdc46e41	-0.09591342
211	0xbddbb3c5	-0.10727648
212	0xbe3bb01e	-0.18328902
213	0xbe308026	-0.17236385
214	0xbe5239f0	-0.20529914
215	0xbd5ef73e	-0.054435007
216	0x3d2660bd	0.0406196
217	0xbdbc641a	-0.0919878
218	0x3c15ee50	0.009151056
219	0x3cacaf8e	0.021079805
220	0x3d4172eb	0.047228735
221	0x3d463817	0.048393335
222	0x3e241bef	0.16026281
223	0xbe003ad6	-0.12522444
224	0x3cc501ee	0.024048772
225	0x3dde39eb	0.10850891
226	0x3d05e318	0.032687277
227	0xbd67ed3a	-0.05662272
228	0xbdef3224	-0.116794854
229	0xbe163ad6	-0.14670882
230	0x3d31d07b	0.043411713
231	0x3d954b0e	0.07289706
232	0x3cddf09e	0.027092274
233	0x3cd0733c	0.025445573
234	0xbd9f2e71	-0.0777253
235	0x3e0bf1d7	0.13666473
236	0x3d88fb53	0.06688561
237	0x3deddedc	0.11614773
238	0xbd228510	-0.03967768
239	0x3ce9ba48	0.028531209
240	0x3dddbe86	0.10827355
241	0x3d49fe43	0.04931475
242	0xbcca7ba0	-0.024717152
243	0x3cea87dd	0.028629238
244	0xbb95fe46	-0.004577431
245	0xbe80ef4c	-0.2518257
246	0xbe062810	-0.1310122
247	0xbe4860ac	-0.19568127
248	0xbe0ad0d5	-0.13556226
249	0xbdd2d336	-0.102941915
250	0xbc8bafa7	-0.017051531
251	0xbdaefebc	-0.085446805
252	0xbcc9e7d5	-0.024646679
253	0xbcddfda6	-0.027098488
254	0xbd18a2e3	-0.037264716
255	0xbd183372	-0.037158437

conv2.0.bias f4 [16]
0	0xbe242877	-0.16031061
1	0xbdf00b81	-0.11720944
2	0xbe40dfcb	-0.1883537
3	0xbe284f33	-0.16436462
4	0xbe6e0f6f	-0.23248075
5	0xbe3be514	-0.18349105
6	0xbec4b3a0	-0.38418293
7	0xbe88f100	-0.26746368
8	0xbd2d3042	-0.04228235
9	0xbe169ba2	-0.14707807
10	0xbe8c29a8	-0.2737553
11	0x3c271ed4	0.010200221
12	0x3d3a800c	0.04553227
13	0xbd965689	-0.07340724
14	0xbe18cc60	-0.14921713
15	0xbd24a7d7	-0.040199127

fc1.0.weight f4 [120, 400]
0	0xbcb26681	-0.021777393
1	0xbd55ac13	-0.052166056
2	0x3d9a1d86	0.075251624
3	0x3d54e53e	0.051976435
4	0x3ba2186b	0.0049467585
5	0xbc8912c1	-0.016732575
6	0xbd381c05	-0.044948597
7	0x3c47f42a	0.012204209
8	0x3df26172	0.118349925
9	0x3d32bb61	0.04363573
10	0xbc9d6a82	-0.019215826
11	0x3dafe139	0.0858788
12	0x3d8fcde3	0.07021692
13	0x3d9518a4	0.072800905
14	0xbcf8eeee	-0.030387368
15	0x3a3b197d	0.0007137282
16	0xbd5f3ff8	-0.054504365
17	0xbc7446e3	-0.014909479
18	0x3cbbf65d	0.022944624
19	0xbd47a424	-0.04874052
20	0x3cd3f760	0.025874794
21	0x3bb0bb47	0.005393419
22	0xbd3c21aa	-0.045930542
23	0x3c49d209	0.012318143
24	0x3d329bf6	0.043605767
25	0x3ce78d20	0.028265536
26	0xbbe03e3b	-0.006843356
27	0x3d52e3d9	0.051486824
28	0x3d46acf7	0.048504796
29	0x3d4c28a8	0.04984346
30	0x3c144f83	0.00905216
31	0x3d08aaba	0.033365943
32	0xba267c66	-0.0006350934
33	0x3c193451	0.009350852
34	0x3d940a3f	0.07228517
35	0xbd86cb20	-0.06581712
36	0xbd1345a7	-0.035955098
37	0x3d0c4e7f	0.034254547
38	0x3d56738f	0.0523563
39	0xbd19cd53	-0.037549328
40	0x3ca7499b	0.02042084
41	0x3d58a41a	0.052890874
42	0x3b7a1e03	0.003816486
43	0x3ce28c2b	0.027654728
44	0x3dceb856	0.10093753
45	0x3dc32060	0.095276594
46	0x3d07ce78	0.03315589
47	0xbd1737c7	-0.036918428
48	0x3c785f11	0.015159384
49	0x3d9d2f53	0.07675042
50	0x3cd4523c	0.025918119
51	0x3d374290	0.044741213
52	0x3d88eedf	0.06686186
53	0x3bdd28e1	0.006749258
54	0xbc9fdf38	-0.019515619
55	0x3d71412e	0.05890005
56	0x3ddc935d	0.10770295
57	0x3d71b203	0.059007656
58	0xbd7f4318	-0.062319845
59	0x3c94b845	0.018154273
60	0x3e1f60ce	0.15564272
61	0xbb67c620	-0.0035365894
62	0xbd684849	-0.05670956
63	0xbdb4852f	-0.08814465
64	0x3cf7a41e	0.030229624
65	0x3d38fa90	0.04516083
66	0x3aea9f7d	0.0017900314
67	0x3ca3a287	0.01997496
68	0xbc944766	-0.018100452
69	0xbd35f632	-0.044424243
70	0x3b952057	0.0045509744
71	0x3c0a86da	0.008455003
72	0x3d864aa4	0.06557205
73	0xbd1745b3	-0.036931705
74	0xbd80a767	-0.062819295
75	0x3d127a61	0.03576124
76	0x3cfbb8a0	0.030727684
77	0x3db13179	0.08652014
78	0x3e2bb82b	0.16769473
79	0x3d2b3806	0.041801475
80	0x3e4f8750	0.20266461
81	0x3e0c8fb5	0.13726695
82	0x3bddfa04	0.006774189
83	0x3c118323	0.008881363
84	0x3d823ffd	0.06359861
85	0x3e4cb4c2	0.19990829
86	0x3db80292	0.08984865
87	0x3cc01949	0.023449557
88	0xbd916522	-0.07099368
89	0xbc8480f0	-0.016174763
90	0xbd3eb2f2	-0.046557374
91	0x3c7d9b3c	0.015478905
92	0x3c6e171f	0.01453188
93	0xbd526c86	-0.051373027
94	0x3d10f8a6	0.03539338
95	0x3d7a7834	0.06114979
96	0xbc038128	-0.008026399
97	0xbcf11bcb	-0.029432198
98	0xbdb3df46	-0.087828204
99	0x3ab53826	0.0013825938
100	0x3e039680	0.1285038
101	0x3d89d8d4	0.0673081
102	0x3dbaea04	0.09126666
103	0x3da0d9cc	0.078540415
104	0xbba05638	-0.0048930906
105	0x3e17a881	0.14810373
106	0x3d915dd0	0.070979714
107	0x3d39c421	0.04535306
108	0x3c8881ce	0.016663458
109	0x3ca27535	0.01983128
110	0x3caa5814	0.020793952
111	0x3d09602e	0.03353899
112	0x3d8e9be1	0.06963325
113	0xb9a6d13d	-0.00031817882
114	0xbd189bf2	-0.037258096
115	0xbbde5be5	-0.006785857
116	0x3ca7a3c5	0.020463834
117	0x3dc9da66	0.09856109
118	0xbd2c9d26	-0.042142056
119	0x3aa69951	0.0012710487
120	0x3d81d9d4	0.063403755
121	0x3c97d17f	0.018532513
122	0xbdac3c4e	-0.0840994
123	0xbb66b49f	-0.0035202873
124	0xbcbcf97c	-0.023068182
125	0x3c84bc7f	0.016203163
126	0xbcdf4fa0	-0.027259648
127	0xbdcec1df	-0.10095572
128	0xbe48e4c7	-0.19618522
129	0xbcf4aaea	-0.029866654
130	0x3baa7ab3	0.005202615
131	0x3d221e3a	0.039579608
132	0xbd859145	-0.065218486
133	0xbd8b9600	-0.068157196
134	0x3b8425ff	0.00403285
135	0x3c26a239	0.010170513
136	0xbbf34db0	-0.0074250326
137	0xbda4f71e	-0.08054946
138	0xbcc75443	-0.024332171
139	0x3d1e7ac9	0.038691316
140	0x3e006d1c	0.12541622
141	0xbcb1a544	-0.02168525
142	0xbc03ae57	-0.008037171
143	0xbcb894cb	-0.022531888
144	0xbb516cad	-0.0031955645
145	0xbdaa6a48	-0.08321053
146	0x3ca93313	0.020654237
147	0x3d850c50	0.06496489
148	0x3d222533	0.039586257
149	0xbd551087	-0.052017715
150	0xbcebfe82	-0.028807882
151	0x3ccff668	0.02538605
152	0xbd905345	-0.070471324
153	0xbe2a1855	-0.16610844
154	0xbd6464c1	-0.05576015
155	0xbbbc030a	-0.005737667
156	0x3c52516d	0.012836796
157	0xbda2d0ff	-0.07950019
158	0xbde1c2b3	-0.11023464
159	0xbd083611	-0.033254687
160	0x3d8b0148	0.06787354
161	0xbd1d0621	-0.038335923
162	0xbe043784	-0.12911803
163	0xbc1dc3d2	-0.009629207
164	0x3ddbe7d9	0.10737581
165	0x3d1193be	0.03554129
166	0xbda51a3d	-0.08061645
167	0x3cb2e95a	0.021839786
168	0xbd800a11	-0.0625192
169	0xbb2550a7	-0.0025225074
170	0x3d4a1da4	0.049344674
171	0x3b90fc66	0.0044246195
172	0xbc95307b	-0.018211594
173	0x3d6f563e	0.058431856
174	0xbde3488f	-0.11097824
175	0xbcc8d7dc	-0.024516992
176	0x3d9f7840	0.07786608
177	0x3e21c826	0.15799007
178	0x3d86d1e3	0.065830015
179	0x3bf26800	0.0073976517
180	0x3cad30fa	0.021141518
181	0x3d62e711	0.055396143
182	0x3d41bc11	0.047298495
183	0x3d9c02fa	0.07617755
184	0xbd2008cd	-0.039070893
185	0x3dcd6bb3	0.100303076
186	0x3d8d35e8	0.068950474
187	0x3d6c9bfc	0.057765946
188	0xbcd37fb3	-0.025817728
189	0x3cef6aeb	0.029225787
190	0x3e30845a	0.17237988
191	0x3cd7afe5	0.02632899
192	0xbcff128d	-0.031136775
193	0xbd1a0109	-0.037598643
194	0x3df65230	0.12027395
195	0x3daf4311	0.08557714
196	0x3d6138e5	0.0549859
197	0x3b6ad28d	0.0035831064
198	0xbba295f9	-0.004961726
199	0x3cb37713	0.021907365
200	0x3d2399bf	0.039941546
201	0xbd8e496b	-0.06947597
202	0xbdea5256	-0.114414856
203	0xbcd53577	-0.02602647
204	0x3dabdab4	0.08391324
205	0xbd7309f7	-0.059335675
206	0x3ccc30b2	0.024925563
207	0xbd08544a	-0.03328351
208	0x3ca400de	0.020019945
209	0xbba74d51	-0.0051056524
210	0x3d0f8730	0.035041034
211	0x3c6245e2	0.013810607
212	0xbdc1864d	-0.09449444
213	0xbdaf64ce	-0.08564149
214	0x3d9f45f5	0.07777015
215	0x3e0e4db6	0.13896832
216	0x3c55448c	0.013016831
217	0xbc495c56	-0.012290081
218	0xbd3c2b5d	-0.045939792
219	0x3d7f4908	0.062325507
220	0xbb9e647f	-0.0048337574
221	0x3d777266	0.060411833
222	0x3b89b5a3	0.004202561
223	0xbd19b5a9	-0.03752676
224	0xbd9ade5d	-0.07561944
225	0xbd4d3648	-0.050100595
226	0xbd95d4ea	-0.07316001
227	0xbd77dc21	-0.060512666
228	0xbd89f6d9	-0.067365356
229	0xbd3b7c56	-0.045772873
230	0x3d127956	0.035760246
231	0xbd3992d9	-0.04530606
232	0xbd9bb2c0	-0.07602453
233	0xbda293b3	-0.07938328
234	0x3d8f0840	0.069839954
235	0xbd9a81ed	-0.075443126
236	0xbd5ab46c	-0.05339472
237	0xbd7a3c0c	-0.06109242
238	0x3cda05fa	0.026614178
239	0x3a7e6498	0.00097043207
240	0x3d106986	0.035256885
241	0xbd1c6293	-0.038179945
242	0xbdb721fc	-0.08942029
243	0xbc813708	-0.015773311
244	0x3d211409	0.039325748
245	0xbc8dacda	-0.017294336
246	0x3cb7b868	0.022426799
247	0x3bfb8fa4	0.0076770354
248	0xbd0cf5d3	-0.034414124
249	0xbcb5364d	-0.02212062
250	0x3d9a1a3f	0.07524537
251	0x3dba167d	0.090863205
252	0x3d0cdbc5	0.034389276
253	0x3c53c5d0	0.01292558
254	0xbbbd6daf	-0.0057808976
255	0x3d9ee73a	0.07758947

fc1.0.bias f4 [120]
0	0x3cc06436	0.023485284
1	0x3e13f1d7	0.14447723
2	0x3d8b00ce	0.06787263
3	0xbd17c758	-0.037055343
4	0x3dc39603	0.09550097
5	0x3b0f6fd0	0.0021886714
6	0x3c72ba0e	0.014814867
7	0x3b159535	0.002282453
8	0x3d6c1895	0.05764063
9	0x3db57a70	0.08861244
10	0x3dce7413	0.10080733
11	0xbd6e87cb	-0.05823497
12	0xbd477339	-0.04869387
13	0xbdbddad8	-0.09270257
14	0x3c9a02bc	0.018800132
15	0xbdcd800e	-0.1003419
16	0x3bca35ac	0.006170949
17	0x3dce8911	0.10084737
18	0x3e0e7437	0.1391152
19	0xbdbbc578	-0.091685236
20	0x3e4edd05	0.202015
21	0xbd22139f	-0.039569493
22	0x3daf7f52	0.08569206
23	0xbdf2ed5a	-0.118616775
24	0xbbc14247	-0.0058977935
25	0x3c409872	0.011755096
26	0x3e228e4a	0.15874591
27	0xbe0351b6	-0.12824139
28	0xbe251ef7	-0.16125093
29	0x3da4b037	0.08041423
30	0xbbc8c8db	-0.0061274595
31	0xbdd88b8d	-0.10573492
32	0xbcdefaba	-0.027219165
33	0xbd8a0114	-0.06738487
34	0x3d9b070c	0.075697035
35	0xbdd28522	-0.10279299
36	0xbd61cda6	-0.055127762
37	0x3c0fdfcf	0.0087813875
38	0x3d32b7f4	0.043632463
39	0x3d02292a	0.03177754
40	0x3ddd2af6	0.1079921
41	0xbd2146ca	-0.03937415
42	0xbd48c430	-0.049015224
43	0xb8df299f	-0.00010641221
44	0x3cf71e0e	0.030165698
45	0x3c498e5f	0.01230201
46	0x3e0b6bed	0.13615389
47	0xbd0b46a3	-0.03400291
48	0x3dfdf9df	0.12401175
49	0xbdb0f136	-0.08639757
50	0xbb688ecf	-0.0035485511
51	0xbd0eb2f0	-0.034838617
52	0xbd8f4b2f	-0.06996762
53	0x3d467a6d	0.048456598
54	0x3d29782d	0.041374374
55	0xbd89386e	-0.06700216
56	0x3db5305b	0.08847114
57	0xbe2fe9ba	-0.17179003
58	0x3d094515	0.033513147
59	0xbcb1b177	-0.021691067
60	0xbd6be8ab	-0.057594936
61	0x3d3d1452	0.046161957
62	0xbdab2fd4	-0.08358732
63	0x3ce05221	0.027382912
64	0xbcf598d0	-0.029980093
65	0xbd7e1272	-0.06202931
66	0xbdeb5eb0	-0.114926696
67	0xbd1679d5	-0.03673728
68	0x3d802f5d	0.06259034
69	0x3d22be8b	0.039732497
70	0xbc91041f	-0.01770216
71	0xbd8ce6e1	-0.06879974
72	0x3ddedb50	0.10881674
73	0x3e089977	0.13339792
74	0xbd488dbe	-0.0489633
75	0x3cd17565	0.025568673
76	0xbe142d81	-0.14470483
77	0xbcc7b723	-0.024379319
78	0xbd44c36c	-0.04803793
79	0x3d378a30	0.04480952
80	0x3e1fac0c	0.15592974
81	0x3d0732da	0.03300748
82	0x3dacd867	0.08439713
83	0x3d4cd1a9	0.050004635
84	0xbc55d95f	-0.013052314
85	0xbe1b86cb	-0.15188138
86	0x3db67597	0.08909147
87	0xbcb1adf6	-0.021689396
88	0xbca0aef5	-0.019614676
89	0xbe448ccb	-0.19194333
90	0x3c1c9c8e	0.00955881
91	0xbd9a3a56	-0.07530658
92	0x3cad5111	0.02115682
93	0xbad324ca	-0.0016108986
94	0x3d5e58d4	0.05428393
95	0x3ccd9abe	0.0250982
96	0x3deb45f4	0.11487952
97	0x3b7a2a03	0.0038172014
98	0xbdddfbc1	-0.10839034
99	0xbd8a7b33	-0.0676178
100	0x3d3c597f	0.045983788
101	0x3bac6c42	0.005261929
102	0xbd0eefa2	-0.0348965
103	0xbca627c2	-0.02028263
104	0x3d70a9be	0.05875563
105	0x3d139057	0.036026325
106	0x3dd9ca50	0.10634291
107	0x3ddde4df	0.10834669
108	0xbd45230b	-0.048129123
109	0x3b13fb5a	0.0022580237
110	0x3d3e5a15	0.046472628
111	0xbc90b59d	-0.017664725
112	0xbd2afe62	-0.041746505
113	0x3b89e53b	0.0042082346
114	0xbc04b253	-0.008099156
115	0xbe299186	-0.16559419
116	0x3d9dbdfb	0.077022515
117	0xbd56ba82	-0.05242396
118	0xbcd052c6	-0.025430094
119	0x3e1b5f74	0.15173131

fc2.0.weight f4 [84, 120]
0	0x3ddf5b34	0.109060675
1	0x3d784357	0.060611095
2	0xbe09f062	-0.13470605
3	0x3c235f35	0.00997143
4	0xbccbf5b5	-0.024897436
5	0xbe38589a	-0.18002549
6	0xbdf724b0	-0.120675445
7	0x3c8aad46	0.016928326
8	0xbddffa1a	-0.10936375
9	0x3dcbbdb6	0.09948294
10	0xbdd4240c	-0.10358438
11	0x3dc8d1c0	0.09805632
12	0x3cc2db81	0.023786308
13	0x3e11c30c	0.1423456
14	0xbd918541	-0.07105494
15	0x3c24a768	0.010049678
16	0xbdbb9b63	-0.09160497
17	0x3c8ae18f	0.016953258
18	0xbdec7cd8	-0.115472496
19	0xbb170b25	-0.0023047414
20	0x3d95f41a	0.07321949
21	0xbd362a08	-0.044473678
22	0x3d82efb8	0.06393379
23	0xbd828c41	-0.063744076
24	0xbdf0e399	-0.11762161
25	0xbd6cc338	-0.057803363
26	0xbd26cb7f	-0.040721413
27	0xbb7b3c42	-0.0038335477
28	0x3dc4e0f1	0.09613217
29	0x3cff61da	0.031174589
30	0xbdd9a2c1	-0.10626746
31	0x3d433c07	0.04766467
32	0x3d730d8a	0.059339084
33	0x3d8a4ebc	0.06753299
34	0x3d2f2de6	0.04276838
35	0xbc12e8b4	-0.008966614
36	0xbd3c3729	-0.045951042
37	0xbdd04991	-0.10170282
38	0xbd7a9d7a	-0.061185338
39	0xbe38f10d	-0.18060704
40	0xbc1c3fc6	-0.009536689
41	0xbd1b232c	-0.03787534
42	0xbcdbdb7a	-0.026838053
43	0x3dc8b09e	0.09799312
44	0xbe1135e2	-0.14180711
45	0xbd997e5a	-0.07494803
46	0xbce6515e	-0.02811497
47	0xbdfa5614	-0.12223449
48	0x3daa45d9	0.08314104
49	0xbd70b95f	-0.058770534
50	0x3c3bae2d	0.011455101
51	0x3be30770	0.006928377
52	0x3dc7d504	0.097574264
53	0x3df1a143	0.11798336
54	0x3e07d698	0.13265455
55	0xbe0e86f0	-0.13918662
56	0xbce546eb	-0.027987918
57	0xbd68cabd	-0.05683397
58	0x3cbca1fc	0.023026459
59	0xbdaa48fd	-0.08314703
60	0x3de73c64	0.112908155
61	0xbcb26839	-0.021778213
62	0xbdb2e144	-0.08734372
63	0x3d9121f8	0.07086557
64	0x3c98da6c	0.01865884
65	0xbdfaf3e5	-0.122535504
66	0xbcf224e3	-0.029558605
67	0x3d423b60	0.047419906
68	0xbd4cbd51	-0.049985234
69	0xbd0d2159	-0.03445563
70	0xbdc3a3aa	-0.09552701
71	0xbd1b05c7	-0.037847307
72	0xbd565a9e	-0.052332513
73	0xbd288f8e	-0.04115253
74	0x3def3930	0.116808295
75	0xbda4e636	-0.08051722
76	0xbd10bf1f	-0.035338517
77	0x3de1c09c	0.110230654
78	0x3d6a7d06	0.057248138
79	0xbc81461c	-0.015780501
80	0x3bc62251	0.0060465713
81	0x3d89c375	0.067267336
82	0xbe2c4f75	-0.16827185
83	0xbd5d5f51	-0.05404598
84	0x3e2ef5fa	0.1708602
85	0x3e12402a	0.14282289
86	0x3de3fb84	0.11131957
87	0xbce4f35b	-0.027948072
88	0xbd219d87	-0.03945687
89	0x3e6f90f9	0.23395146
90	0x3d0d05ec	0.034429476
91	0xbdc2130f	-0.094762914
92	0x3d07e455	0.03317674
93	0xbe3dec96	-0.18547282
94	0xbd9093ec	-0.07059464
95	0x3d206446	0.03915813
96	0xbd33bff9	-0.04388425
97	0x3d24fdc2	0.040281065
98	0xbde6f969	-0.1127804
99	0x3d73f2cc	0.05955772
100	0xbb31a1a5	-0.0027104404
101	0x3d31a169	0.043366823
102	0xbbc4dee6	-0.006008017
103	0x3de83dbb	0.11339899
104	0xbe00becb	-0.12572782
105	0x3c5129d8	0.012766324
106	0x3c183c1b	0.009291674
107	0xbd8f232d	-0.06989131
108	0x3dbc82f9	0.092046686
109	0xbcfb46a3	-0.03067333
110	0x3d5eb4dd	0.054371703
111	0x3daf6621	0.085644014
112	0x3daf85d6	0.08570449
113	0xbd626a5b	-0.05527721
114	0x3cfd6db9	0.030936109
115	0x3deb4412	0.11487593
116	0xbd20c818	-0.039253324
117	0xbd5dfdeb	-0.054197233
118	0xbdac1ad5	-0.08403555
119	0xbdb9991c	-0.090624064
120	0x3e25045d	0.16114946
121	0x3e634fd1	0.22198416
122	0x3d8f4d6c	0.06997189
123	0x3de40ed6	0.11135642
124	0x3d9a7995	0.07542721
125	0xbe16696e	-0.14688656
126	0xbe028562	-0.12746194
127	0xbbcf6fbd	-0.006330459
128	0xbd8ca6dd	-0.06867764
129	0x3c2128d5	0.009836395
130	0x3c855fa3	0.016280955
131	0x3e02ed3b	0.12785809
132	0x3ad21d23	0.0016030412
133	0x3e3c27fa	0.18374625
134	0x3b8e52b4	0.004343355
135	0xbd2e2afd	-0.042521466
136	0xbd4b1665	-0.049581904
137	0x3d835d76	0.06414311
138	0x3de27ac3	0.11058571
139	0xbe0b127a	-0.13581267
140	0x3d6dc46a	0.058048643
141	0xbe176e05	-0.14788063
142	0x3d9093cb	0.07059439
143	0xbd4c4839	-0.049873564
144	0x3d86782e	0.06565891
145	0x3d02486e	0.031807356
146	0x3d83f87d	0.0644388
147	0xbe2d8f14	-0.16949111
148	0xbbe13987	-0.006873313
149	0x3d9e91a6	0.07742624
150	0xbc91a384	-0.017778166
151	0x3c36a8de	0.0111486595
152	0xbdca7cf1	-0.09887112
153	0x3d6ee441	0.05832315
154	0x3dd7ef20	0.10543656
155	0xbb5a7a38	-0.0033337008
156	0xbe02ffc7	-0.12792884
157	0xbd8c761d	-0.06858466
158	0x3e03b547	0.1286212
159	0x3d0d22f5	0.034457166
160	0xbe2c3c3a	-0.1681985
161	0xbd45e525	-0.048314232
162	0x3c248832	0.010042237
163	0xbd903426	-0.070411965
164	0x3dfcaaca	0.12337263
165	0x3d8cd4ae	0.06876503
166	0x3d3b8237	0.04577848
167	0xbd8e4c0e	-0.069481
168	0x3d5297b3	0.051414203
169	0xbbd00637	-0.006348397
170	0x3d666c9b	0.056255918
171	0xbd15dcda	-0.036587574
172	0x3c87f4b8	0.016596183
173	0xbc68361b	-0.014173056
174	0x3ddf2fb5	0.10897771
175	0xbd9a8938	-0.07545704
176	0x3cd1ac8b	0.02559497
177	0xbc9dae17	-0.019248052
178	0x3d51aa13	0.051187586
179	0xbd3f03b5	-0.046634395
180	0x3cea5248	0.028603688
181	0x3d588a9e	0.05286657
182	0x3bb42149	0.005497132
183	0xbc406b97	-0.011744401
184	0xbdeab38b	-0.11460026
185	0x3da46e21	0.08028818
186	0xbd083f58	-0.033263534
187	0xbe2adcff	-0.16685866
188	0x3d741f9f	0.05960047
189	0x3ca6d862	0.020366851
190	0xbded095c	-0.11574051
191	0xbcc9bd1f	-0.024626313
192	0xbda36899	-0.07978935
193	0x3dc96975	0.098345675
194	0x3d577078	0.052597493
195	0xbca178cc	-0.01971092
196	0xbe598995	-0.2124389
197	0x3dc4956e	0.09598814
198	0xbd4a52c4	-0.049395338
199	0xbcf6beff	-0.03012037
200	0x3d030a0d	0.031992007
201	0x3d5d9e39	0.05410597
202	0x3cde8641	0.027163627
203	0x3cdd05fb	0.02698039
204	0xbd1b07a2	-0.037849076
205	0x3de66d52	0.1125132
206	0xbd0d89fb	-0.034555417
207	0xbd23354b	-0.039845746
208	0x3c6683a8	0.014069475
209	0xbd6498d4	-0.05580981
210	0xbd183974	-0.037164167
211	0x3c91343c	0.017725103
212	0x3bfa39a9	0.007636268
213	0xbde29cee	-0.11065088
214	0x3d868a41	0.065693386
215	0x3d606750	0.054786026
216	0x3e052a7b	0.13004486
217	0xbae3a95b	-0.0017369197
218	0xbc207ce4	-0.009795401
219	0x3d1894e4	0.03725137
220	0x3dc35e4c	0.0953947
221	0x3d25cf77	0.040481057
222	0x3bda06ce	0.006653643
223	0x3d534889	0.051582847
224	0xbdb8e177	-0.09027379
225	0x3b9a7d08	0.004714612
226	0xbda5061a	-0.080578044
227	0x3cd98d04	0.0265565
228	0xbd4a8fbf	-0.049453493
229	0x3c905de0	0.017622888
230	0xbd005417	-0.031330194
231	0xbcd2dc64	-0.025739856
232	0xbd605dc8	-0.054776937
233	0xbd013474	-0.031544164
234	0x3d82e3e8	0.06391126
235	0xbbc8c4fa	-0.006126997
236	0x3df83dce	0.12121163
237	0xbe16d377	-0.14729105
238	0x3da5db77	0.080985
239	0x3cf89c11	0.030347856
240	0x3c6bb635	0.014386703
241	0x3e3409df	0.1758189
242	0xbdd6c828	-0.104873955
243	0xbcf28d2e	-0.029608335
244	0x3dbb6003	0.09149172
245	0xbe06ca88	-0.13163197
246	0x3da63050	0.08114684
247	0x3d9bdef1	0.07610882
248	0x3d9bada2	0.07601477
249	0x3dd8e922	0.105913416
250	0xbc649f5a	-0.013954008
251	0x3d80d305	0.06290249
252	0xbd2ec175	-0.042664964
253	0xbd985b69	-0.0743931
254	0xbd41a031	-0.04727191
255	0x3cbb1c44	0.022840627

fc2.0.bias f4 [84]
0	0xbd5eb40a	-0.054370917
1	0x3bc556dc	0.0060223173
2	0x3d5aad00	0.053387642
3	0x3cbac741	0.02280009
4	0xbaac9ef3	-0.0013169929
5	0x3ddc6d10	0.107629895
6	0x3ca759ae	0.020428505
7	0x3bd2993b	0.006426958
8	0x3cc87d6e	0.024473872
9	0xbdd40d15	-0.10354058
10	0xbd7470af	-0.059677776
11	0x3a925d50	0.0011166725
12	0x3da67275	0.081273
13	0xbcc4b3b5	-0.024011472
14	0xbc8ee4d6	-0.017443102
15	0x3d23fca0	0.040035844
16	0xbcc1b2a3	-0.023644751
17	0xbdb8adaa	-0.09017499
18	0xbcedbce9	-0.029020743
19	0x3da8c125	0.082399644
20	0x3d15548e	0.03645759
21	0xbdfc50cf	-0.123201005
22	0xbcc81430	-0.024423689
23	0x3c01dece	0.007926656
24	0x3d7f271f	0.06229317
25	0x3d37837b	0.044803124
26	0xbe49b1e6	-0.19696769
27	0x3c28cab0	0.010302231
28	0xbcac0b55	-0.021001497
29	0xbd3ad07f	-0.045608994
30	0xbd4b6b95	-0.049663145
31	0x3e07d985	0.13266571
32	0xbe26ec16	-0.16300997
33	0x3ca0236e	0.019548144
34	0xbd8d39b9	-0.06895775
35	0xbcdcfd04	-0.026976116
36	0xbd12b4d9	-0.035817
37	0x3d8dbd8d	0.069209196
38	0x3df90534	0.121591955
39	0x3de07459	0.109596916
40	0x3deb78c4	0.114976436
41	0x3c997b39	0.018735515
42	0x3c384efb	0.011249299
43	0xbde8906e	-0.11355673
44	0xbce31b43	-0.02772296
45	0x3ca0fed0	0.019652754
46	0x3df744f2	0.12073697
47	0x3d4a7f8a	0.049438037
48	0xbd44eb2a	-0.048075832
49	0xbda13590	-0.07871544
50	0x3d4cd7a1	0.050010327
51	0xbe3310fd	-0.1748695
52	0xbd8a1f86	-0.06744294
53	0x3dfab642	0.12241794
54	0xba0b206c	-0.00053072604
55	0xbdcbb720	-0.09947038
56	0x3c754b7c	0.01497161
57	0xbdd8ea6e	-0.10591589
58	0x3d171ba2	0.036891587
59	0xbd5fdd3f	-0.054654356
60	0x3d2c26c9	0.042029176
61	0xbdc5db51	-0.09660972
62	0xbb8a93a9	-0.0042290282
63	0xbc766919	-0.015039706
64	0x3d51c2d4	0.051211193
65	0x3d8ce7aa	0.06880124
66	0xbdce803a	-0.10083051
67	0xbe3394a7	-0.17537175
68	0x3cedbc23	0.029020375
69	0xbdc313f3	-0.095252894
70	0xbd81f9d4	-0.06346479
71	0x3cec623b	0.028855434
72	0xbd823384	-0.06357482
73	0xbdb460d3	-0.0880753
74	0x3e01a2de	0.12659785
75	0xbda8e8e3	-0.082475446
76	0x3d887df5	0.066646494
77	0x3d075d2e	0.033047847
78	0xbde25de0	-0.110530615
79	0xbd5d4699	-0.054022405
80	0x3cecc933	0.028904533
81	0xbc86e754	-0.016467728
82	0x3d3d6847	0.046242025
83	0xbd3ab977	-0.04558703

fc3.0.weight f4 [10, 84]
0	0x3ddf676b	0.10908397
1	0xbe76a924	-0.2408796
2	0xbdfbfac5	-0.1230369
3	0x3cf96161	0.030441942
4	0xbded41af	-0.11584794
5	0x3d9983c0	0.074958324
6	0xbdd49c96	-0.10381429
7	0x3e3a2221	0.18177082
8	0x3dee131e	0.1162474
9	0x3e44eb5f	0.19230412
10	0x3dd50f5f	0.104033224
11	0xbe0d2bc2	-0.13786224
12	0x3e8d56b4	0.27605212
13	0x3e8d8e97	0.2764785
14	0x3db6853b	0.089121304
15	0x3d0fd9bb	0.035119753
16	0xbdf6cf52	-0.12051262
17	0xbe5f24d8	-0.21791399
18	0xbdb9f501	-0.09079934
19	0xbe61c444	-0.22047526
20	0x3e00f46b	0.12593238
21	0x3e36a2d6	0.17835554
22	0x3e3925ed	0.18080874
23	0xbe28d8c3	-0.16488938
24	0x3e9ff70a	0.31243163
25	0xbde2d84b	-0.11076411
26	0x3e1604e6	0.14650306
27	0xbe48f24e	-0.19623682
28	0x3e017441	0.12642004
29	0xbe257054	-0.16156131
30	0xbe3bb84c	-0.18332022
31	0xbd4a2f8f	-0.04936176
32	0x3e8956cc	0.26824033
33	0xbe07adf3	-0.1324995
34	0x3e2da7c3	0.16958527
35	0xbe32bf6c	-0.17455834
36	0x3dfc2675	0.123120226
37	0xbdfa2c9b	-0.12215539
38	0xbab0eb37	-0.0013497834
39	0xbd36b5f3	-0.044607114
40	0x3e34ba3d	0.1764917
41	0xbde615cb	-0.112346254
42	0x3e0695ea	0.13143125
43	0x3e2da4a3	0.16957335
44	0xbe2b2443	-0.16713051
45	0x3e12e227	0.14344083
46	0xbe46d5dd	-0.1941752
47	0xbe18f039	-0.14935388
48	0xbe7c7ad8	-0.24656236
49	0x3d89a9de	0.06721853
50	0x3e844d03	0.25840005
51	0x3de74911	0.11293233
52	0x3def8914	0.116960675
53	0x3d68df39	0.056853507
54	0xbe263c1f	-0.16233872
55	0xbd940e13	-0.07229247
56	0xbc4d7058	-0.012538992
57	0x3e2406e5	0.16018255
58	0xbe474e1f	-0.19463395
59	0x3e2d2ab7	0.16910826
60	0x3c36904f	0.011142804
61	0x3cd3290e	0.025776412
62	0xbe05260a	-0.13002792
63	0x3cde098f	0.027104167
64	0xbc1141cb	-0.008865784
65	0xbdfe06d2	-0.124036446
66	0xbdaf4ae5	-0.08559207
67	0x3e86c516	0.2632224
68	0x3e240a0e	0.1601946
69	0x3e8ddad3	0.27706012
70	0x3e304d9f	0.1721711
71	0xbe5159aa	-0.2044436
72	0x3d7620cf	0.060089882
73	0x3e3aa9c3	0.18228821
74	0xbe1c2b4d	-0.15250893
75	0xbe500d93	-0.20317678
76	0x3e393fba	0.18090716
77	0xbdad034d	-0.08447895
78	0x3df8a7ab	0.12141355
79	0x3cbbaa3f	0.022908328
80	0x3e3a5f2b	0.18200366
81	0x3e334c68	0.17509615
82	0xbe5e68a9	-0.21719612
83	0x3e87dcdd	0.26535693
84	0xbe1d10db	-0.15338461
85	0x3d0c4d48	0.03425339
86	0x3e442ea9	0.19158424
87	0xbdcbf421	-0.09958673
88	0x3e154051	0.14575316
89	0xbe104783	-0.1408978
90	0xbe7644a7	-0.24049626
91	0xbe46dcb4	-0.19420129
92	0xbdc6cef7	-0.09707444
93	0xbe3d0a4f	-0.18460964
94	0xbe360c0a	-0.1777803
95	0x3e0dde4c	0.13854331
96	0x3e907a37	0.28218243
97	0x3e7fdcc2	0.24986556
98	0x3e796dd7	0.24358307
99	0x3e66a16f	0.2252252
100	0x3e681cc8	0.22667229
101	0xbe101d95	-0.14073785
102	0x3e7414ae	0.23836014
103	0x3e467188	0.19379246
104	0x3d479725	0.048728127
105	0xbe33c58d	-0.17555828
106	0x3dffdc6f	0.12493216
107	0xbe5dda86	-0.21665391
108	0x3e20fc67	0.15721284
109	0xbde88cf2	-0.11355008
110	0xbe2c3b88	-0.16819584
111	0x3e55f3ef	0.20893835
112	0xbe26d66a	-0.1629273
113	0xbdfd382d	-0.1236423
114	0x3e1981d8	0.14990938
115	0x3d0f491e	0.03498184
116	0x3e6a1974	0.22861272
117	0x3e1d309b	0.15350573
118	0xbe37cb23	-0.17948584
119	0x3e2c5368	0.16828692
120	0xbe750af4	-0.2392996
121	0x3e44a191	0.19202258
122	0xbc456e06	-0.012050157
123	0x3e03ad4f	0.1285908
124	0xbdbb8667	-0.091564946
125	0xbdbd92f8	-0.09256548
126	0xbd603c34	-0.054744914
127	0xbd8239b9	-0.06358666
128	0x3da3b43d	0.07993362
129	0x3e309b0f	0.1724665
130	0x3e76d279	0.24103726
131	0xbd2fd776	-0.04293009
132	0xbe2007f9	-0.15628041
133	0x3de70038	0.112793386
134	0x3e179667	0.14803468
135	0xbe12e5c0	-0.14345455
136	0xbe8f08aa	-0.27936298
137	0x3e04e6d3	0.12978677
138	0x3e482358	0.19544733
139	0xbe4d676f	-0.20058988
140	0x3e248f58	0.16070306
141	0xbc7d748e	-0.015469683
142	0xbb95e8b1	-0.004574858
143	0x3e17e483	0.14833264
144	0x3e036384	0.12830931
145	0x3df0440e	0.117317304
146	0x3d88e8d4	0.066850334
147	0xbe333acb	-0.17502896
148	0x3aa32d2d	0.0012449377
149	0x3c8cd4b6	0.017191272
150	0x3e6cd39a	0.23127595
151	0xbd8b9237	-0.06814998
152	0xbe8b48b7	-0.27203915
153	0x3df0c83d	0.117569424
154	0xbdd48517	-0.103769474
155	0x3e4cd95a	0.20004788
156	0xbe69203c	-0.22766203
157	0xbe1f4438	-0.15553367
158	0x3e489fbd	0.19592185
159	0xbe2cbde3	-0.16869311
160	0xbe1bfd4d	-0.15233345
161	0x3e430381	0.19044305
162	0xbe0671ae	-0.13129303
163	0xbe3ea026	-0.1861578
164	0xbe514778	-0.2043742
165	0x3d9914e6	0.07474689
166	0xbe195be9	-0.14976467
167	0xbe06863e	-0.13137147
168	0xbe0052d6	-0.125316
169	0x3d712512	0.058873244
170	0xbdc6114f	-0.0967127
171	0x3bfdaaa7	0.0077412906
172	0xbe35e7db	-0.17764227
173	0x3e009a05	0.12558754
174	0x3d9953e8	0.07486707
175	0xbe44ec27	-0.1923071
176	0x3d1444eb	0.036198538
177	0xbdda7e71	-0.10668648
178	0xbe5d1f9f	-0.21594094
179	0xbe32fa86	-0.1747838
180	0xbdb38d73	-0.08767214
181	0xbe3bc47e	-0.18336675
182	0xbe242dae	-0.1603305
183	0x3e18aef9	0.14910497
184	0x3e1191c4	0.14215761
185	0xbe03a837	-0.12857138
186	0xbd992e85	-0.07479576
187	0x3deb5250	0.11490309
188	0xbe08f73c	-0.13375562
189	0x3e38ae61	0.1803527
190	0xbddc276e	-0.10749708
191	0x3dc40332	0.09570922
192	0x3e58c124	0.21167427
193	0xbe1e9408	-0.15486157
194	0xbe0a1f46	-0.13488492
195	0xbe372c49	-0.17887987
196	0xbe2382f9	-0.15967931
197	0x3cae3c4a	0.021268982
198	0x3db055f5	0.08610145
199	0x3e3030bd	0.17206092
200	0x3e040671	0.12893082
201	0xbdedde25	-0.11614636
202	0xbe455420	-0.19270372
203	0x3d3b4a1d	0.045724977
204	0x3e2acfe7	0.16680871
205	0x3e268ca8	0.16264594
206	0x3e004a82	0.12528422
207	0xbb66851a	-0.003517455
208	0x3e7f5278	0.24933803
209	0xbe36587a	-0.17807189
210	0xbe4a9ba1	-0.1978593
211	0x3e3f312b	0.186711
212	0x3e5a0936	0.21292576
213	0x3dd56eb3	0.10421505
214	0x3d2cc610	0.042181075
215	0x3e529b2a	0.20567003
216	0xbe388bb6	-0.18022045
217	0xbdf70124	-0.120607644
218	0xbce60b14	-0.028081454
219	0xbe5437f4	-0.2072447
220	0xbde57273	-0.1120347
221	0x3db16902	0.08662607
222	0xbe4bb2d2	-0.19892433
223	0x3df30d0b	0.11867722
224	0xbe23c28d	-0.15992184
225	0x3da9993e	0.08281182
226	0x3e71b87c	0.23605531
227	0x3be4ff99	0.0069884774
228	0x3e23abb7	0.15983473
229	0xbdcb3b79	-0.09923453
230	0xbddae4cd	-0.106881715
231	0x3da23611	0.079204686
232	0x3e6607e6	0.2246395
233	0xbe33b38a	-0.17548957
234	0xbd5c5136	-0.053788386
235	0xbdc862b9	-0.09784455
236	0x3e0c5345	0.1370364
237	0xbe2e3c4a	-0.17015186
238	0xbe704130	-0.23462367
239	0x3db6e260	0.08929896
240	0x3db59757	0.088667564
241	0xbe046fa6	-0.12933215
242	0xbe68d2b8	-0.22736633
243	0xbd49c290	-0.049257815
244	0x3e034bf4	0.12821943
245	0x3e30ad31	0.17253567
246	0x3dbd9b64	0.09258154
247	0x3e6f8180	0.23389244
248	0xbdaec2cc	-0.08533248
249	0x3e4809b4	0.19534951
250	0xbdf41aee	-0.11919199
251	0xbe31aaab	-0.17350261
252	0xbdee7401	-0.1164322
253	0xbde9f3c8	-0.11423451
254	0xbe03578d	-0.12826367
255	0x3e26acec	0.16276902

fc3.0.bias f4 [10]
0	0xbe137b92	-0.14402607
1	0x3bb5344d	0.0055299164
2	0x3e4a2257	0.19739662
3	0xbc3f25f2	-0.011666762
4	0x3d8e82be	0.06958531
5	0x3d9e8680	0.077404976
6	0xbe344622	-0.17604879
7	0x3e2a188e	0.1661093
8	0xbca68597	-0.020327372
9	0x3d37f4fa	0.044911362
