save_checkpoints/LeNet5_epoch_2.pth (torch, 249863 bytes, 10 tensors)

conv1.0.weight f4 [6, 1, 5, 5]
000000 99 5e a7 bc d6 3e 4d 3d 24 b4 06 be db a8 19 bc
       -0.02043085 0.050108753 -0.13154656 -0.009378637
000010 ef f6 8a 3e 94 f4 3e be 49 41 43 be d6 11 2b 3d
       0.2714152 -0.18647987 -0.19067873 0.041765057
000020 a2 e3 37 3e 71 95 49 3d 5d dc 0e 3e d1 24 a7 bc
       0.17957929 0.049214784 0.1395125 -0.020403298
000030 c8 4d 0d 3c 5a d4 e3 3d 4d 4c 7b 3d b7 a2 e2 bd
       0.0086245015 0.11124487 0.061352063 -0.11066192
000040 c8 cf bb bd b9 2b 87 3d 14 59 59 3e 7e 09 ad bd
       -0.091704905 0.06600136 0.21225387 -0.08449076
000050 da 02 cb 3d a7 f9 43 3c a0 41 68 3c ab eb 63 3e
       0.09912653 0.011961377 0.0141758025 0.22257869
000060 fb e0 f8 bd fe e0 6a bd bd cd b8 3d c9 33 93 3d
       -0.121522866 -0.057343476 0.090236165 0.071876116
000070 21 33 ae 3b 4b 50 db 3c 55 51 91 bc f5 2f 7d be
       0.0053161536 0.026771685 -0.017738977 -0.24725325
000080 37 4b 3a be 55 dc 5f be 05 5d 12 be 02 fd 36 be
       -0.18192755 -0.21861394 -0.14293297 -0.17869952
000090 33 f1 a4 3c 11 de 93 bd 4e 0b fb 3c 61 9f 0d be
       0.020134544 -0.0722009 0.030645039 -0.1383033
0000a0 fe 2b 5f 3c 4d 6a f5 3d 0a 39 12 3d 53 64 c8 3d
       0.013621328 0.11983166 0.035698928 0.0978476
0000b0 37 db 9b 3d 3c 3a 63 3d 51 30 a1 3d 83 fc ed bc
       0.07610171 0.05547546 0.07870544 -0.029051071
0000c0 fc 16 e1 3c a8 73 28 3d 38 8e a0 bc 7b ae 5d 3d
       0.02747678 0.041125923 -0.019599065 0.054121476
0000d0 43 8b fa 3d e9 cd a8 3d 3f 17 99 bd 87 55 88 3c
       0.12233593 0.08242399 -0.07475137 0.016642345
0000e0 2d bc 77 3e ff 4c b6 3d f1 e8 02 be 52 c7 df 3d
       0.24192877 0.089014046 -0.12784173 0.10926689
0000f0 45 cf 23 be b0 44 18 3e 0f 7c 7b bd a4 08 1f be
       -0.15997036 0.14869952 -0.06139761 -0.1553064
000100 97 4d f1 bc 46 8a b0 3d 9f 0d 0b 3e 71 74 aa 3c
       -0.029455943 0.086201236 0.13579415 0.020807477
000110 5f b3 a3 bd cf 69 4e bd 4d f4 26 bd 18 66 42 3e
       -0.07993197 -0.050393876 -0.040760327 0.18984258
000120 27 6a 27 bc 03 87 36 bc aa 35 3e bd 12 67 a3 3d
       -0.01021818 -0.011140588 -0.046437897 0.079786435
000130 f5 43 6d 3a 5b ed 12 3d 6e 52 89 bd 27 a3 53 3e
       0.0009050959 0.03587089 -0.06705175 0.20667706
000140 2c 33 34 be 05 87 bb be ac 14 45 be d5 6d 2e be
       -0.17597646 -0.3662645 -0.19246167 -0.17034085
000150 d6 ff 4f bd c6 64 47 be 27 07 b7 bc 83 45 f9 bb
       -0.050781094 -0.19472036 -0.022342278 -0.0076071634
000160 d7 7a be bc 3b f3 4d 3d dc 74 80 be 92 96 95 bd
       -0.023251934 0.05028079 -0.25089157 -0.0730411
000170 2b 9a db ba 18 d2 3e 3e 96 cf f6 bd 46 be 95 be
       -0.001675432 0.18634832 -0.120513126 -0.2924673
000180 25 6e b7 3d 4a 84 8e 3d f9 84 d5 bd e4 14 04 3e
       0.08956555 0.06958826 -0.10425753 0.12898594
000190 12 c4 fb 3c 71 0b 72 3d 3e 38 a4 3d a6 1f 07 3e
       0.030733142 0.059092943 0.0801854 0.13195667
0001a0 7f f8 1d bd 72 25 09 be 41 60 a2 3d 15 94 d9 3d
       -0.038567062 -0.1339319 0.07928515 0.106239475
0001b0 5c ba 4b bd 6d f6 99 3d e8 c8 dc 3d 3b be 67 be
       -0.049738273 0.07517705 0.10780507 -0.22631161
0001c0 83 54 30 3e e0 8d d9 bd a4 eb c7 bc 7d c1 96 be
       0.17219739 -0.10622764 -0.024404354 -0.29444495
0001d0 f1 38 36 be cb 7a 22 be 49 07 46 3d b5 24 19 be
       -0.17795159 -0.15867154 0.04834679 -0.14955409
0001e0 60 bc 05 be f6 97 ae bd 50 39 0f 3d 6f af 49 bd
       -0.1306014 -0.08525078 0.034966767 -0.049239572
0001f0 79 62 4b 3d 51 6f ca be bd 6b 5f bd b1 20 24 be
       0.049654458 -0.39538053 -0.054546107 -0.16028096
000200 cb af 9a bd b1 8f 8d bc 20 cc dd bd 08 66 2c 3d
       -0.07553061 -0.017280431 -0.108299494 0.042089492
000210 a3 14 ce bc e8 d9 f2 bd 25 26 87 be c7 bb 53 be
       -0.025156325 -0.118579686 -0.2639629 -0.206771
000220 8e 7c 48 be 05 ab e6 bd 7f eb 5c 3e 61 27 c3 3d
       -0.19578764 -0.11263088 0.2157421 0.09528995
000230 53 d1 14 3e da d0 91 be 4b ac 8d bd ac 7b 5d bd
       0.14532976 -0.28479654 -0.06917628 -0.05407302
000240 8b 51 98 3d ee 47 dc 3d 45 a3 62 bc 80 79 40 be
       0.07437428 0.10755907 -0.013832872 -0.18796349
000250 df 08 e8 bd 2b 3f 1d bd
       -0.11329817 -0.03839032

conv1.0.bias f4 [6]
000000 69 0e 88 be aa 98 52 be 11 66 fa 3d 32 b7 b7 bd
       -0.26573494 -0.20566049 0.12226499 -0.089704886
000010 ca 61 3c be ec 79 64 3e
       -0.18396679 0.22312135

conv2.0.weight f4 [16, 6, 5, 5]
000000 73 86 fc 3d a0 9f 9c 3d da d6 54 bd 94 ce 99 bc
       0.12330332 0.076476336 -0.05196271 -0.018775262
000010 28 9f a4 bd d7 ca 1a bd 15 79 29 3c 3e e5 86 3d
       -0.08038169 -0.0377911 0.01034381 0.06586693
000020 43 53 45 3a ae 90 16 be a5 1b 6d bd cf 4d 86 bd
       0.00075273606 -0.14703628 -0.057887692 -0.065578096
000030 62 7b 67 3d 27 78 00 be 6f af 08 be ff 28 24 bd
       0.05651415 -0.12545834 -0.13348173 -0.04007816
000040 95 7e 1d 3d a3 61 34 bd c4 c7 e7 bd db 92 04 be
       0.038450796 -0.044038426 -0.11317399 -0.12946646
000050 fe 6e 49 bd e3 dc b5 b9 b4 3e 9d bd d6 b9 db bd
       -0.049178116 -0.00034687584 -0.07677975 -0.10728805
000060 d1 1c 17 be 8f 27 ce 3d f1 a5 e6 3d f1 2e 5d bd
       -0.14757086 0.10066139 0.112621196 -0.053999845
000070 8d 0f af bc ff 7a 14 be ff f2 39 3e 11 76 3c 3e
       -0.02136972 -0.14500044 0.18159102 0.18404414
000080 6e 69 82 3c 32 93 2c be c3 f7 d0 bd e9 e5 fe 3b
       0.015919413 -0.16853026 -0.10203507 0.0077788723
000090 8d c7 0a 3e b0 d6 cd bd 2a fd 43 be 33 d3 b5 3c
       0.13552685 -0.10050714 -0.19139543 0.022195434
0000a0 94 da 69 bb 4b c8 29 be e3 6e 3a be b4 d5 ee bd
       -0.0035683261 -0.16580312 -0.18206362 -0.116618544
0000b0 81 9e 5d 3d 0d bf 47 be 20 ac 65 be 1f d7 28 be
       0.05410624 -0.19506474 -0.22428942 -0.16488312
0000c0 60 e4 80 3d cf 62 91 3d fb 41 94 bd e1 71 07 be
       0.06293559 0.07098924 -0.07239147 -0.13227035
0000d0 ef b0 56 3d 5f 01 98 3d fc 83 e0 bb 7d fd 10 be
       0.05241483 0.074221365 -0.0068516713 -0.14159198
0000e0 e6 8a 15 be ce 16 a2 bd 3d 66 6e 3d 0c dd 41 bd
       -0.14603767 -0.07914506 0.05820297 -0.047329947
0000f0 4e 05 cf bd 81 77 80 bd 14 28 84 bc dc 53 d8 ba
       -0.10108434 -0.062727936 -0.016132392 -0.0016504484
000100 41 db 2b be 18 15 db bd 74 ae 9a bd df b4 78 bd
       -0.16782857 -0.10697383 -0.075528055 -0.060719367
000110 3d 85 84 bd 97 d4 76 be 81 ba b4 bd c8 5f bd bc
       -0.06470726 -0.24104534 -0.08824635 -0.023116961
000120 50 2e a8 bd 32 52 2a bd 9d 21 cd bd a6 00 69 3e
       -0.082119584 -0.041582294 -0.10016177 0.22754154
000130 27 48 2d 3e 65 46 36 3b 0f e4 18 be 14 58 c6 bd
       0.16922055 0.0027812955 -0.14930747 -0.09684768
000140 1d 87 6b 3d b5 08 c2 3d 5c ec 6d 3d 5b 16 ad bd
       0.0575019 0.09474317 0.058086738 -0.084515296
000150 bf a9 ce bd 47 bf 10 3c 97 2c b4 3d 49 e6 c6 3c
       -0.1009097 0.008834667 0.08797567 0.02427973
000160 bc f7 cb 3b f3 67 81 3d 08 0a 14 3c da 63 0b 3c
       0.0062246006 0.06318655 0.009035595 0.008507693
000170 15 96 6d bd 75 bc 16 bd e9 7c be 3d 6e 0a 34 bd
       -0.058004458 -0.03680082 0.093011685 -0.04395526
000180 30 da c9 3b c2 a3 0a bd 31 53 9e bd 11 30 6e bc
       0.006160043 -0.033847578 -0.07730711 -0.014537827
000190 70 9a b7 3d bd 29 0b ba 1f d3 6d 3d ca 79 ba bd
       0.089650035 -0.00053086487 0.05806267 -0.09105261
0001a0 1f 8c 83 be 93 05 3d bd 6a 0a 98 bd 21 88 c6 bd
       -0.2569284 -0.046147894 -0.07423861 -0.09693933
0001b0 5b e6 53 bd ce b7 83 bc 69 11 b7 bd b0 e1 05 be
       -0.051733356 -0.016078856 -0.089388676 -0.13074374
0001c0 1a 8c 9d bd 65 74 07 bd c5 88 4a bc 0d 25 41 3d
       -0.07692738 -0.033069987 -0.01236171 0.047154475
0001d0 5c 81 30 be 26 a0 c0 3c 1a c2 16 3e f8 18 7a bc
       -0.17236847 0.023513865 0.14722481 -0.015264742
0001e0 7b 73 a0 be f7 7d c9 bd e9 3a 4a 3d c7 9f 54 3c
       -0.31338105 -0.09838479 0.049372587 0.012977547
0001f0 ad f9 4b be 8e 38 7a 3d 60 0f c4 3d c8 98 ad bc
       -0.19919463 0.06108909 0.09573245 -0.021191016
000200 b2 f6 82 bc 23 3d f7 3c 5b c7 35 3e 87 6a 8a 3d
       -0.015986774 0.03018052 0.1775183 0.067586
000210 55 29 7b bc c7 1a 0d 3e 52 ee 67 bd 55 4c e8 3d
       -0.015329679 0.13779746 -0.056623764 0.11342684
000220 c0 17 f5 3d e1 8d 92 bc 0f ed 66 3d 90 cd 04 be
       0.119674206 -0.017889919 0.05637842 -0.12969041
000230 c9 0a f4 3d 61 b1 89 3d 01 19 f4 bc c3 b4 b6 3b
       0.119161196 0.067232855 -0.029797079 0.0055757477
000240 11 18 11 3d 55 78 11 bb 4a 14 c1 3c 1a 3e 28 3a
       0.035423342 -0.0022196968 0.023569245 0.0006417945
000250 41 f8 ba 3d 72 0a a7 3d a7 32 af bc 23 63 c4 bc
       0.09129382 0.08156289 -0.021386458 -0.023973053
000260 9a 5f 6e bd 47 1b 29 bd 0a 98 4d bb 22 36 0e be
       -0.05819664 -0.04128578 -0.003137114 -0.13887838
000270 5a 06 3e bd 72 b7 4c 3c db 54 5f 3b 30 70 ab bd
       -0.046392776 0.012494909 0.0034077677 -0.083710074
000280 5b 52 a7 bd b9 29 c3 bd 91 31 53 bc 2a c2 71 bd
       -0.08170005 -0.09529442 -0.0128902355 -0.05902306
000290 0c 93 13 be a9 89 a2 bd a7 7c 31 3d 14 26 e9 bd
       -0.14411563 -0.07936413 0.04333177 -0.11384216
0002a0 80 3c 18 be ad 70 92 bd a0 ed 52 bd 34 62 c7 3c
       -0.14866829 -0.071503974 -0.051496148 0.02433882
0002b0 65 07 b5 bc 4d 2f a2 bd 62 65 38 3d d8 b9 29 be
       -0.022098253 -0.07919178 0.04501856 -0.165748
0002c0 57 98 36 bd 04 f1 a4 3d b7 ef 96 3d fa 2f a2 3c
       -0.044578876 0.080537826 0.07369941 0.019798268
0002d0 07 c3 50 3d 95 67 94 bd 5f 02 b4 3d 39 9e 0c bd
       0.050967243 -0.07246319 0.08789515 -0.03433058
0002e0 21 a3 7d 3c e3 18 89 bd ce 62 5d bc c5 9a 25 be
       0.0154807875 -0.066942 -0.013512326 -0.16172321
0002f0 93 af 5f be 67 cb 9d bd 8c 1e 06 be 01 ca 70 bd
       -0.2184432 -0.077048115 -0.1309759 -0.058786396
000300 a4 32 8b be f5 b8 16 bd 1d 82 38 3c 09 98 63 bd
       -0.27187073 -0.036797483 0.01126149 -0.055564914
000310 4a 5c 40 be c0 f2 3f be 23 93 fe 3c b1 94 0e bc
       -0.18785205 -0.18744946 0.03107602 -0.008702443
000320 ab ae 1a bd 8b 61 65 3d 34 79 b1 3c e9 b1 f5 bd
       -0.037764233 0.056001227 0.02166424 -0.11996824
000330 57 bf 01 bc 2c 68 20 3d d6 18 b2 bd 03 30 dd bd
       -0.007919154 0.039161846 -0.08696143 -0.10800173
000340 b3 68 c3 bd 4d 68 a5 3a 3f 83 76 be b0 99 06 be
       -0.09541454 0.0012619585 -0.24073504 -0.13144565
000350 d5 98 20 be 4a 38 42 bd 66 4f 1a be 1b f7 77 be
       -0.15683301 -0.047416963 -0.1506935 -0.24215357
000360 fe 93 a5 bd 07 71 18 bd 81 38 28 bd f3 8e 6d be
       -0.08084868 -0.037217166 -0.04106951 -0.23199062
000370 90 87 64 bd 7a 23 7e bd 93 dc eb bd 7b ff cb bc
       -0.055793345 -0.06204555 -0.115166806 -0.024902096
000380 89 91 02 be 87 2f 98 bd d5 23 e5 bb 75 4c 7f 3d
       -0.1275083 -0.0743094 -0.006992797 0.062328774
000390 cd b6 77 3d 2b df 26 bc c9 0c bc 3d 50 29 93 3e
       0.060477067 -0.010185043 0.09182126 0.28742456
0003a0 12 8a e7 3d 30 15 36 3b 51 75 f7 bc 15 47 66 3e
       0.11305632 0.0027783625 -0.030207308 0.22488053
0003b0 19 4f 20 3e 85 86 93 bd d3 39 39 bd 53 87 33 bb
       0.15655173 -0.07203392 -0.04522116 -0.0027393892
0003c0 ff 96 64 3e ee 67 1a 3e eb 9a 51 bd d1 29 e0 3b
       0.22323225 0.15078709 -0.051173132 0.0068409224
0003d0 ca 38 13 3d fc 2d 3b 3e d5 96 87 39 ce 41 08 be
       0.03594283 0.1827926 0.00025861585 -0.13306352
0003e0 b9 46 46 be a5 c0 fd bd 91 63 3a 3d 2c a2 53 3e
       -0.19362916 -0.1239026 0.04550511 0.20667332
0003f0 17 5c ef 3d 19 a7 e2 3d a3 a6 ea 3c 81 1c 16 3d
       0.116874866 0.110670276 0.028643912 0.036648277

conv2.0.bias f4 [16]
000000 c5 59 cf bd 4e a9 2f be 71 12 fb bd dd 2a 44 be
       -0.10124544 -0.17154428 -0.12259377 -0.19156976
000010 55 9d 92 be 4b 89 2f be 59 6e fc bd 02 c1 1e be
       -0.2863566 -0.17142217 -0.12325735 -0.15503314
000020 c8 da 3b be c6 2c 99 be 03 05 25 3d a9 c4 b2 bd
       -0.18345177 -0.29916972 0.040287983 -0.08728916
000030 8d 88 06 be e4 82 7c be 51 de 7f be 4d 55 e3 bc
       -0.13138027 -0.24659306 -0.2498715 -0.027750636

fc1.0.weight f4 [120, 400]
000000 a2 07 95 bc e9 48 c3 bc 26 7c 15 be f9 ec ba bd
       -0.018192116 -0.023838477 -0.1459814 -0.0912723
000010 21 98 ab bd ce cd 37 3c df 09 c5 3d be bb d3 bd
       -0.08378626 0.011218501 0.096210234 -0.10338543
000020 a2 39 f6 bd bb b8 54 3c ce d3 be bc c2 1a 9d bc
       -0.12022711 0.012983496 -0.023294356 -0.019177798
000030 dc fb 92 bc ff f3 d8 bc 83 f7 28 3d 27 42 0f 3d
       -0.017942362 -0.026483534 0.04125167 0.034975197
000040 25 1b f6 bd f0 c0 9a bc 73 5b b3 3d 6f 39 ea 3d
       -0.12016896 -0.018890828 0.08757677 0.11436736
000050 26 c9 a8 bd a8 1a 00 be 23 ef 0e 3d 91 86 fe 3d
       -0.08241491 -0.12510169 0.034896027 0.1242801
000060 53 78 88 bc 8d f1 c9 bc 23 19 7d bd 77 18 4b bd
       -0.016658938 -0.024651313 -0.06179155 -0.04958388
000070 b3 0b 03 be 90 fe f3 bd 65 4d 37 bc 3d 46 06 bd
       -0.12797432 -0.11913788 -0.011187886 -0.03278183
000080 be 86 27 bb 75 6d d0 bc 35 8b 59 bd 8e 8f cc bd
       -0.002556249 -0.025442818 -0.053111274 -0.099883184
000090 5b 41 74 bc fe 19 f0 3c 99 4e 8e 3d 6e 6b 94 3d
       -0.01490816 0.029309269 0.06948585 0.07247053
0000a0 45 87 cf bd 1f ff 33 be 29 db 04 bd 16 69 fe bc
       -0.101332225 -0.1757779 -0.03243557 -0.031055968
0000b0 5c e0 48 bd d8 a7 f7 bc b5 12 0c 3d 90 d0 59 3d
       -0.04904209 -0.030231401 0.034197528 0.053177416
0000c0 42 12 1e 3e e4 96 e0 3b b4 72 d5 b9 24 c1 11 bd
       0.15436652 0.006853925 -0.00040711986 -0.035584584
0000d0 bc fe 06 3d d0 74 04 bc 9e 53 b2 bc 0f f3 29 bd
       0.032957777 -0.008084491 -0.021768387 -0.041491564
0000e0 3c f2 05 3d 1a 03 b7 3a b5 60 86 bd 8f cb 3d 3d
       0.032701716 0.0013962716 -0.06561414 0.046336707
0000f0 a4 ab af bc 2c 38 b3 bc e5 ac 8d bd 80 81 0c bc
       -0.02144415 -0.02187737 -0.06917743 -0.008575797
000100 95 44 96 3d 34 63 98 bd 8c 16 e6 bd 4f 46 bb bc
       0.073373 -0.074407965 -0.11234769 -0.022860674
000110 70 43 b1 3d 45 ee 8b 3c 3a 29 30 3d 06 18 0e bb
       0.08655441 0.01708139 0.043008067 -0.00216818
000120 83 8e f4 bd 7d 3a 50 bd 34 4d ae 3d 5b 3d 67 bc
       -0.119412445 -0.05083703 0.08510819 -0.014113749
000130 dc ba 94 bd 3c 3d 73 3d 98 46 40 3d cd 0e 1f 3c
       -0.07262203 0.05938457 0.046942323 0.009708119
000140 4b 06 e0 3d 62 32 ba 3a a1 be 79 bd 93 1b 88 3d
       0.109387 0.0014205689 -0.060972814 0.06645884
000150 2b 51 2b 3c 22 e5 8c 3d a8 b0 86 3d 08 7e f0 bd
       0.010456364 0.06879641 0.06576663 -0.117427886
000160 8a 13 35 bc e2 a4 80 bd 37 80 14 bd 25 16 45 3e
       -0.011052022 -0.06281449 -0.036255088 0.19246729
000170 8f d2 35 bd 28 d7 f4 bd fa 34 f3 bb c8 c3 99 3c
       -0.044390257 -0.119551 -0.007422087 0.018770114
000180 11 b9 ef 3d 93 a9 86 bd b1 e9 22 bd 54 c7 05 bd
       0.117052205 -0.065753125 -0.039773647 -0.032660797
000190 ef 7e 37 3d fe 24 0c bd c1 13 a5 bc 07 8a 38 3d
       0.044798788 -0.034214966 -0.020151021 0.045053508
0001a0 fa ca cc 3c 0e 64 70 bc 70 bb 3e 3d 76 32 c5 3c
       0.02499913 -0.014672292 0.046565473 0.024071913
0001b0 6d b6 46 bb 1f 38 e8 bc e4 8b 53 bd 5a ce a1 3c
       -0.0030321137 -0.028347073 -0.051647082 0.019751716
0001c0 10 ff cb 3c 82 1f 3a 3d ff 06 89 bd 14 93 90 3d
       0.024901897 0.045440204 -0.066907875 0.07059303
0001d0 1a 74 72 3d c7 23 43 bd e2 f5 ec bd ca 79 3c be
       0.059192754 -0.04764154 -0.11570336 -0.18405834
0001e0 d6 e5 d2 3d cb 4b 37 3d ec f9 b5 3d d2 f6 73 ba
       0.10297744 0.044750016 0.088855594 -0.00093064934
0001f0 68 63 cd ba b3 27 4b 3d 5b d8 68 bd 84 a1 48 bd
       -0.0015669884 0.049598407 -0.056846958 -0.04898216
000200 15 5b 56 bd a1 28 42 bc e4 32 27 3d 8c 6a d3 ba
       -0.052332956 -0.011850507 0.040820017 -0.0016129776
000210 79 4d 88 bd 8b b1 a3 3c 8c 57 27 bc 56 20 ce 3d
       -0.06655402 0.01998212 -0.010213744 0.10064761
000220 45 db 49 b8 db 15 6a 3d 49 8e c0 bc d0 5e 98 bd
       -4.8126345e-05 0.05714975 -0.023505347 -0.07439959
000230 eb ba e5 bc 32 f2 1a be d7 91 e3 bc ad ce ca 3d
       -0.028043231 -0.15131453 -0.027779503 0.099027015
000240 5e f4 8f bd d7 ab 30 3c 83 9f 4a 3e ae 0d 1f 3e
       -0.07029031 0.010783157 0.19787411 0.15532562
000250 dd cb bf 3d 70 a5 13 bd bb 8c 21 bd ff 03 91 bd
       0.09365056 -0.036046445 -0.03944085 -0.0708084
000260 97 f0 58 be 06 10 4d be b1 a6 c6 bd 2a c6 d3 bc
       -0.21185528 -0.20025644 -0.096997626 -0.025851328
000270 2b 71 a9 bd e9 ab 4e bd 02 da eb bd c6 f5 07 bd
       -0.08273538 -0.050456915 -0.11516191 -0.033193372
000280 b3 f6 bc 3c ad fe 73 bd 1e 70 d7 3a 85 d2 60 3d
       0.023066854 -0.05956905 0.0016436612 0.054888267
000290 ff fb 98 bd 18 02 4e bd f3 9a 02 3d 60 54 eb 3d
       -0.074699394 -0.050294966 0.031886052 0.11490703
0002a0 c0 38 59 3d e9 b0 b6 bc 35 d2 8e bd 88 1b 65 bb
       0.053032637 -0.022301154 -0.069736876 -0.0034959037
0002b0 22 f3 3c 3d 84 d7 70 3d 9a fa 52 bd b2 77 0f bd
       0.046130307 0.05879928 -0.051508524 -0.03502626
0002c0 58 a4 99 bb 23 f0 11 bd 36 c6 85 3c 0a 19 67 bd
       -0.0046887808 -0.035629403 0.016329866 -0.056420363
0002d0 64 6d d1 bc fb 2c e7 3c 78 a2 a3 bd c6 83 bf 3d
       -0.025564857 0.02821969 -0.07989973 0.09351306
0002e0 17 ca 34 3d 26 df 2d 3a 64 65 1b 3a 13 c5 13 3b
       0.04413804 0.0006632678 0.0005927889 0.0022547885
0002f0 00 b7 5f 3d 73 d9 66 bd a2 5f bc bd 23 76 68 3c
       0.05461788 -0.05635972 -0.09197928 0.014188322
000300 92 54 22 bd fe f4 07 bd ea 56 42 bd 6e 88 4f bd
       -0.039631434 -0.033192627 -0.04744617 -0.05066722
000310 a1 5e 3d bc 3f cf 8b 3d 37 ec c6 3d ae 45 eb bc
       -0.011558206 0.068266384 0.09713023 -0.02871975
000320 b7 a3 38 bc 28 55 76 bd ba f2 e1 bd 05 30 9f bc
       -0.011269501 -0.060139805 -0.110326245 -0.019432077
000330 da a0 d7 3c 02 24 5a 3d bf 83 0c bb 4e 2c 45 bd
       0.026321817 0.053256996 -0.0021440831 -0.048137955
000340 bf 2d 0b 3d 26 7a 64 bc f8 bb da ba 57 fa 7c 3d
       0.033979174 -0.013945138 -0.0016688099 0.06176218
000350 2e 2c 47 bd 9a 23 d4 3d 6e 56 e0 3d bd 97 b4 bd
       -0.048626117 0.10358353 0.10953985 -0.08818004
000360 4a 5c ef ba a5 3b 17 3d 2c 34 a6 3c b3 50 92 bc
       -0.0018261757 0.036922116 0.02028855 -0.017860746
000370 12 4c 45 be c0 05 a3 bd 14 36 99 3c eb ab ce 3d
       -0.192673 -0.07960081 0.018702544 0.100913845
000380 0b 06 87 3d 41 06 bc 3c e8 ac bc 3d b5 e0 85 3d
       0.065929495 0.0229522 0.09212667 0.06537
000390 4a 97 94 3d f3 07 fb 3d eb ec ac bd 12 14 43 3d
       0.072554186 0.122573756 -0.08443626 0.047626562
0003a0 ac 85 27 3e 54 87 ea 3d cc 5e af 3c b1 5d 84 3d
       0.16359586 0.11451593 0.021407507 0.06463183
0003b0 9b 1e 47 3d f1 85 ab 3d 94 36 df 3c ac 86 c1 3b
       0.048613172 0.08375157 0.027247705 0.0059059467
0003c0 1c 16 ce 3d 89 8f a6 3d d9 a1 99 3d f1 be 16 3d
       0.10062811 0.08132846 0.07501573 0.03680319
0003d0 1c c4 ce bd 6b ab 49 3c 6e ac 2f bd f8 a1 a1 bc
       -0.10095999 0.012308936 -0.04288905 -0.019730553
0003e0 d1 99 5c bd 37 d8 80 3d 01 35 3d 3d 13 d8 29 bb
       -0.05385763 0.0629124 0.046193127 -0.0025916144
0003f0 43 e3 39 3d 21 48 72 3d 53 fc 2a bd e3 b2 58 3c
       0.04538275 0.05915082 -0.04174454 0.013226244

fc1.0.bias f4 [120]
000000 14 94 5a 3a 60 fc 07 3b 70 07 8b 3c 2c bb 19 bd
       0.00083381054 0.0020749792 0.01697132 -0.037532017
000010 60 08 f1 bc 4a 67 43 bc f0 56 b4 bd 12 44 8a bb
       -0.029422939 -0.0119264815 -0.088056445 -0.0042195404
000020 ec 2b 54 3c d6 9b 0a bd 0e 21 a4 3c 56 c0 b2 bc
       0.012949925 -0.033840023 0.020035293 -0.021820229
000030 f7 10 10 bd 1d 07 b5 bd 4c 1a be bd f0 74 b3 bc
       -0.03517243 -0.088392474 -0.092823595 -0.021906346
000040 0d da 22 bd f6 8e 34 bd 15 0f f7 3b a8 ec db bb
       -0.03975873 -0.04408165 0.0075396397 -0.006711561
000050 1a 8f 63 3d c0 02 db bc 14 4d 05 3d a3 3c 09 3d
       0.055556394 -0.02673471 0.03254421 0.033505093
000060 07 24 e7 bb 6c de db bc 57 aa dd 3c 87 23 fe bc
       -0.0070538553 -0.026839457 0.027058763 -0.0310228
000070 ea 36 cb bc ce db 19 bd 8c 26 ba 3c 94 5e f0 bd
       -0.024806459 -0.037563138 0.022723459 -0.11736789
000080 5c 33 84 bd e4 e6 68 bc 8d 03 26 3e 56 b4 47 3d
       -0.064551085 -0.014215205 0.16212292 0.048755966
000090 2d 2e d2 bd dd a6 bc bc f7 4a 24 bd c4 0f 5b 3d
       -0.102627136 -0.023028785 -0.040110555 0.053481832
0000a0 c1 24 30 3c 38 8f e9 bb ff 30 b5 3b 12 23 11 3b
       0.01075095 -0.0071276687 0.0055295224 0.0022146148
0000b0 23 c7 a1 bd 7f 48 7f 3b 2f 5b a7 3a b8 1b f7 bd
       -0.078993104 0.0038953123 0.0012768264 -0.12065834
0000c0 e8 fe 36 bd 2d 39 40 3d 6a 08 49 bc 50 ed 40 3d
       -0.04467669 0.046929527 -0.0122700725 0.04710132
0000d0 d2 68 c3 bd 86 e0 f0 3d 33 85 af bc 97 9b e1 bd
       -0.09541477 0.117615744 -0.021425819 -0.110160045
0000e0 ca cb a5 3d b3 cc 27 3d a4 73 b3 bc dc 9c f9 bb
       0.0809551 0.0409667 -0.021905728 -0.007617576
0000f0 b5 e1 f7 bc 91 ef 98 bb c1 48 75 3d 22 97 5f bd
       -0.030258993 -0.0046672304 0.059883837 -0.05458749
000100 92 98 69 3c 92 88 b0 bc 3d 93 44 bd 2a 5a ce b8
       0.014257567 -0.021549497 -0.04799198 -9.83964e-05
000110 ce 2e 3e bd 12 16 83 bd e6 b0 41 3b 8c 5c b1 3c
       -0.046431355 -0.06400694 0.0029554903 0.021650575
000120 ad 89 e0 3a 94 bc 60 bd 29 f2 04 bd da 30 5e 3c
       0.0017130874 -0.054867342 -0.032457504 0.013561452
000130 8b 70 93 bd a8 b9 6f 3d 94 80 8a bd bf be be 3b
       -0.071992 0.058526665 -0.067628056 0.0058210786
000140 99 c9 60 bc 13 78 c6 bd 8b 6a 58 bd 2f a4 92 3d
       -0.01371994 -0.09690871 -0.052835982 0.07160222
000150 df a9 8d bd 5c ad 35 bd b8 5f 5c 3d 49 d0 cf bc
       -0.06917166 -0.04435478 0.053802222 -0.025367873
000160 e4 8d 5f 3d 9e 3f 66 bd 60 93 89 3d ff d7 91 bd
       0.054578677 -0.056213014 0.06717563 -0.07121276
000170 9e 56 c6 3d 58 0b ed 3d c4 01 85 bd d9 4d 55 3c
       0.0968449 0.11574429 -0.064944774 0.013019049
000180 8a 25 87 bd 92 01 f6 3c 36 3f c6 bd ba 13 fe 3c
       -0.06598957 0.030030046 -0.09680025 0.031015266
000190 b8 c8 1b 3c fd 46 8d bc 11 44 4e bc 4c f5 c9 3d
       0.009508304 -0.017245764 -0.0125894705 0.0986124
0001a0 cf c3 38 bd 50 fa 03 3e 38 ef 91 bd c8 4c d1 bc
       -0.045108613 0.12888455 -0.071257055 -0.025549307
0001b0 14 ae b9 bd 92 46 b2 3d 45 2d bc bc 8e 1a 99 3b
       -0.09066406 0.087048665 -0.022970805 0.004672355
0001c0 28 8d 90 3d 4a 1f 11 3d 9b d4 5e bd a0 b7 87 bd
       0.070581734 0.03543023 -0.054401975 -0.066268206
0001d0 e1 95 8f bd b8 2c 79 bb df e3 bb 3d 9c 7f 32 3d
       -0.07011009 -0.003802104 0.09174322 0.04357873

fc2.0.weight f4 [84, 120]
000000 a6 ec 1b 3e 00 a0 18 3c 50 ba 09 be 3c 02 a8 bc
       0.15226993 0.009315491 -0.13449979 -0.020508878
000010 17 cd e3 bd 70 b5 a3 3d ac 69 34 3c 67 1f 39 3e
       -0.11123102 0.07993591 0.011011522 0.18078385
000020 59 2f a2 3d 4b c5 dd 3d 36 8e 58 3e 59 08 8d bd
       0.07919187 0.10828646 0.21147999 -0.06886358
000030 3d a5 95 bd 47 bd 96 3c 95 f2 9a bd 98 d1 bb 3d
       -0.07306907 0.018400801 -0.075658 0.09170836
000040 b1 88 01 3e ba 55 4e 3e 41 d3 05 be 13 21 3c 3d
       0.126498 0.2014989 -0.13068868 0.04592998
000050 c8 79 2f 3d e0 d1 36 bc a1 ce ef 3d 23 4e a2 bd
       0.04284075 -0.011158437 0.11709333 -0.0792506
000060 c4 00 bd 3d c5 a2 ab bd 27 2d 28 bd 88 90 0d 3e
       0.09228662 -0.08380655 -0.041058686 0.13824666
000070 ef 3b fa 3c fb 2a 2f be d6 dd f2 bd 4f 49 bc 3a
       0.030546157 -0.1710624 -0.11858718 0.0014365109
000080 22 07 69 3d ac 0c 22 be 55 77 95 bd 50 28 9b 3c
       0.056891568 -0.15825146 -0.072981514 0.018940121
000090 d7 fc 0f 3c 96 5b c0 3c 41 35 27 be 90 5b 1c bd
       0.008788309 0.023481172 -0.16328909 -0.03817326
0000a0 93 3f e2 3b a3 63 9d bc 12 20 0a 3e e6 9d 13 be
       0.0069045513 -0.01921255 0.13488796 -0.14415702
0000b0 9a 9b 2a 3d f4 73 15 3d 0c 25 85 3d 09 7a 6d 3d
       0.0416523 0.036487535 0.06501207 0.05797771
0000c0 b3 9d 26 3d 48 74 a9 3d 08 4d d5 3c b8 59 c6 bd
       0.040677737 0.08274132 0.026037708 -0.09685081
0000d0 73 ae 21 3d 06 52 14 be 0b 13 30 3c 34 4d 0a bb
       0.03947301 -0.14484414 0.010746728 -0.0021103146
0000e0 6d 28 28 bd 96 5d 0e bd 94 d7 e3 3b 23 a3 9f bc
       -0.041054178 -0.03475722 0.006953189 -0.01948697
0000f0 1e 6a 2d 3d ab 04 1f 3d 3f bf 16 be ad 13 d2 bd
       0.04233753 0.03882281 -0.14721392 -0.10257659
000100 f4 ab 05 bd 71 23 8d bd 38 8e cb 3d 66 2e 4a bd
       -0.03263469 -0.068915255 0.099392354 -0.049360655
000110 2a 75 05 3d 85 9a d7 bd e6 fb ac 3b 8f 4d 87 3d
       0.03258244 -0.10527519 0.005279052 0.0660659
000120 f9 73 3a bd a7 25 93 3d db 5e b8 bd f9 89 36 bc
       -0.045520756 0.07184916 -0.09002467 -0.011141294
000130 c1 98 a3 3d 47 e7 4e bb f2 62 06 bd 96 17 5b bd
       0.0798812 -0.0031570958 -0.032809205 -0.05348929
000140 4f ef 87 3d 42 0d 88 bd 22 9f 2a bb 48 db 68 bd
       0.06637441 -0.06643154 -0.0026034792 -0.056849748
000150 f3 00 09 ba 3a 72 0d 3d a4 8d 89 bd 48 62 84 3c
       -0.00052262767 0.034532763 -0.06716469 0.016160145
000160 20 ee 4b 3d cf 16 9f bd 6d 3b c1 3d e6 62 15 be
       0.04978764 -0.07768022 0.09435163 -0.14588508
000170 80 8c be 3d da 0e f2 bd a2 33 5d be fd 62 39 bd
       0.09304142 -0.11819239 -0.21601728 -0.04526042
000180 e3 4e d1 3d d8 2c a2 bd d4 95 21 3e a4 1f c4 3d
       0.102201246 -0.079187095 0.15779811 0.095763475
000190 9c 52 d2 bc 31 55 ac bd cf 18 e0 3c cc c9 e5 bd
       -0.025674157 -0.084146865 0.02735558 -0.1122013
0001a0 f4 4d 50 3d 26 10 b0 bd 73 cb df 3b 5e 94 8a bd
       0.050855592 -0.0859683 0.006829673 -0.0676658
0001b0 30 d7 03 3d 2c 84 74 3c 09 c3 fa 3c 82 a1 b5 bd
       0.03218764 0.01492409 0.030610578 -0.08868696
0001c0 f9 ce cc 3c 9d 70 5b bc d8 36 f2 bd 83 60 ae bd
       0.025001036 -0.013393548 -0.11826867 -0.08514502
0001d0 09 e7 4c 3d c2 7c eb 3c 95 3f 3f 3e 9c f8 a5 3d
       0.05002502 0.028746013 0.18676598 0.08104059
0001e0 01 57 65 bd 0b fd 99 bc 07 a8 8a bc 75 e9 25 3d
       -0.055991177 -0.018797418 -0.016925825 0.040505845
0001f0 06 92 0f bd 7e 45 38 3d 4d ef 32 3e 4e 31 3f bd
       -0.03505137 0.044988148 0.17474099 -0.04667788
000200 d1 64 00 be 95 51 b9 3d 17 ef 06 3e 40 77 09 3d
       -0.12538458 0.09048764 0.13177143 0.03356099
000210 8b f4 bf 3d 9a a0 0e 3e a0 d3 80 3e dd 55 b7 3c
       0.09372815 0.13928452 0.25161457 0.02237981
000220 be b2 ef 3c 15 aa a0 3d 8c 7e 5c 3d 87 31 39 bd
       0.029260036 0.078449406 0.053831622 -0.04521325
000230 d7 95 cc bd 3e fa d0 3d 85 aa 4e bd 9f 7f fa bd
       -0.09989517 0.1020398 -0.05045559 -0.12231373
000240 78 a7 18 3d 50 5b 54 bd c3 89 32 3c 4d ed 7d 3d
       0.037269086 -0.051844895 0.010897103 0.061993886
000250 72 02 69 3d 3b 3f 12 bd 4c 69 cb bd a0 f4 1f 3d
       0.056887098 -0.035704833 -0.09932193 0.039051652
000260 74 30 1c 3e 9a 02 c1 bd 74 32 31 3d a3 88 78 bd
       0.15252858 -0.09424324 0.043261006 -0.060677182
000270 8b f1 c4 3c ab 94 13 3e ae 0e dd 3d 6a 82 52 bd
       0.024040958 0.14412181 0.107938156 -0.051393904
000280 0a 20 72 bd a9 41 b2 bd 13 60 50 3d 75 b0 08 3e
       -0.059112586 -0.0870393 0.050872874 0.13348563
000290 fc 2b 99 bd 9c 16 8b 3d a0 ea cb bd 2e cd a4 3d
       -0.074790925 0.06791422 -0.099568605 0.080469474
0002a0 7f 3d aa 3d e4 61 9d bd 33 ff 88 3c 0e c1 3f bc
       0.08312511 -0.07684687 0.016723251 -0.011703743
0002b0 5a 1f 35 3d 4a 07 13 be 4e ad 4f 3c 75 79 21 3e
       0.044219352 -0.1435825 0.012675596 0.15768988
0002c0 55 17 aa bc 4c 34 c5 3c 67 90 bd bc 8d 21 4c 3d
       -0.020763079 0.024072789 -0.023140145 0.049836684
0002d0 c6 46 fc 3c e8 02 d0 bb ae 92 03 be 72 53 31 3d
       0.030795466 -0.0063480027 -0.12848923 0.04329247
0002e0 fd a3 e9 ba c1 73 d1 bd 99 a6 6e bc c7 71 75 3a
       -0.0017825362 -0.102271564 -0.014566087 0.00093629624
0002f0 37 aa e0 3d 64 d8 87 bd 94 df ef bc 38 b0 fb 3d
       0.10969966 -0.0663307 -0.029281415 0.122894704
000300 2d 2f 01 3d 9e 1c 4b bc 00 4e a3 3d c8 b2 23 3e
       0.03153913 -0.01239696 0.07973862 0.15986168
000310 ba f6 8e 3d db 84 c6 bd 02 b2 6e 3d 69 55 f1 3d
       0.06980653 -0.09693309 0.05827523 0.11783869
000320 ce d9 b6 bd 9f ba 3d 3e 4e c9 f3 3d 2c bc 59 be
       -0.08928262 0.18528222 0.1190363 -0.21263188
000330 00 c7 60 3e 34 d4 59 3d d6 2b a0 bd 6d eb 14 bd
       0.21950912 0.05318089 -0.07820861 -0.036357332
000340 c4 c6 3d bd ce 0f 49 bb 01 44 23 bd 25 bd 01 3e
       -0.046332136 -0.0030679586 -0.039859775 0.12669809
000350 0c b4 91 bd e5 43 fa bd de 24 ac bd 96 1a c3 bd
       -0.07114419 -0.12219981 -0.08405469 -0.09526555
000360 3f 5d 7a 3b b1 ba d8 bd 8f b5 95 3d 8b 9d 32 bd
       0.0038202552 -0.105824836 0.0731002 -0.043607276
000370 e2 65 ab bc ce 6d c1 3d 1e 77 b1 bc 89 21 f0 bd
       -0.020922605 0.09444772 -0.021663245 -0.11725146
000380 37 47 63 3e 81 8f dc bd b5 ec 3a bc 8f c6 52 bd
       0.22195135 -0.10769559 -0.011408974 -0.05145889
000390 a5 62 66 3c 40 04 d3 bc 73 00 9f 3d 8b 66 1e be
       0.014061605 -0.025758862 0.077637576 -0.15468805
0003a0 3a ce e4 3d ff e5 7c bd 7e 6a b6 ba dc 4e 37 3e
       0.11172147 -0.06174278 -0.0013917235 0.17901176
0003b0 7f 84 f4 bc 9c cc 13 3e 7d 61 a5 bd 49 72 ae 3d
       -0.029848335 0.14433521 -0.08075235 0.08517892
0003c0 ae cf c3 3d 26 90 35 3d af de 98 3c 64 2c 3e 3d
       0.09561096 0.044326924 0.018660871 0.046429053
0003d0 d4 6c 50 3d 2d cd 35 be ef c5 be 3d b5 dc 89 bd
       0.050885037 -0.1775405 0.093150966 -0.0673155
0003e0 bf ba e4 3d 5a f5 4a be b5 a7 69 bd 1d ea f4 bd
       0.111684315 -0.19820157 -0.057044704 -0.11958716
0003f0 74 a2 f3 3d 48 b9 c2 3c 70 6a c5 3c 5f 3b b4 bb
       0.1189622 0.02376999 0.024098605 -0.0055002416

fc2.0.bias f4 [84]
000000 d3 3e 89 bd 8d cb d1 bc 85 8e c7 bd 19 6d af bc
       -0.06701436 -0.025609756 -0.0974398 -0.021414327
000010 96 5a 97 3c 6a 9c 08 be e8 10 8c bc 40 43 9e bd
       0.018475812 -0.13340917 -0.017097905 -0.07727671
000020 cc c0 27 bd 63 82 85 39 d6 03 21 3e e0 1f 6a 3d
       -0.04095535 0.00025464882 0.1572412 0.057159305
000030 87 d4 a0 bc b7 c3 1b 3e 58 85 a7 3c ef d6 6d 3d
       -0.019632591 0.15211378 0.020449325 0.058066305
000040 96 29 2e bd 5c 04 a4 3d 9d ee a2 bd 53 78 bc 3c
       -0.04252013 0.08008644 -0.07955668 0.023006594
000050 b6 e3 10 3d 02 b4 60 3d 70 15 49 3d 7e a2 ed 3d
       0.035373412 0.05485917 0.04909271 0.116032586
000060 ca 41 71 3d 29 7e db 3d b4 7c 37 3d e7 b1 9c bb
       0.058900632 0.107174225 0.04479666 -0.00478195
000070 4a e0 22 3d 95 b9 50 3d 0e 2a fb 3d 1e 39 f8 3d
       0.03976468 0.050958235 0.12263881 0.12120269
000080 98 5c a5 3c f5 d3 b8 3d c0 0d ac bd 95 cc c2 bd
       0.020185754 0.090248026 -0.0840106 -0.09511677
000090 82 34 a6 bd 7a be 84 bd ba 28 f0 bc 69 ee 07 3d
       -0.08115484 -0.06481643 -0.029316295 0.03318635
0000a0 5d 13 4a bd dd 0a 62 3d dd c8 0c be 00 35 d9 3b
       -0.049334873 0.05518614 -0.13748498 0.0066286325
0000b0 50 c7 93 3b c5 2b ad 3d 0d bc b8 3d 61 3d cb 3d
       0.004509844 0.08455614 0.09020243 0.099238165
0000c0 d2 74 42 bd aa eb 28 bd 9a 65 9b bc 8b 92 8a 3d
       -0.04747469 -0.04124037 -0.018969346 0.06766232
0000d0 38 65 d6 bc ad e5 85 3d 38 95 7a bd 28 c2 27 bd
       -0.026171312 0.06537948 -0.061177462 -0.040956646
0000e0 82 65 95 b7 58 41 b9 3d 7b 3d 12 be 10 e6 86 3c
       -1.7809452e-05 0.090456665 -0.14281265 0.016467124
0000f0 a9 8d d7 bc cd 79 fa bd 1d ed 0d 3e be ba b7 3d
       -0.026312666 -0.12230263 0.13859983 0.08971165
000100 d5 9f 8b 3b 2c 01 f7 3c 80 51 d1 3d 9b c4 bf 3d
       0.004260997 0.030151926 0.10220623 0.093636714
000110 ac 6c 10 3d ff f5 b5 3d f3 a2 b8 3d 9f fb 00 3d
       0.035259888 0.08884811 0.09015455 0.031489965
000120 23 cd c7 bd a6 4f f3 3c bf 32 77 bd 01 44 a5 bd
       -0.097559236 0.029701065 -0.06035113 -0.08069611
000130 76 6d 35 3e 19 3a 5a bd 80 60 dc 3d b9 52 3a bc
       0.17717537 -0.053278062 0.107605934 -0.011372262
000140 c7 34 12 be bd 82 82 bd 9f a6 5a 3d cb a3 09 be
       -0.14277945 -0.063725926 0.05338156 -0.13441388

fc3.0.weight f4 [10, 84]
000000 90 6d d6 bd af c2 29 3e f4 a6 0b be 63 e6 16 3c
       -0.10470116 0.16578172 -0.13637906 0.009210202
000010 b5 24 e8 3d a5 9b 8d 3e fd 6e bc bd d7 d9 24 be
       0.11335126 0.2765781 -0.09200857 -0.16098724
000020 4e 8d ed bd ec 48 7e bd f3 e5 ae 3d 68 24 20 be
       -0.11599217 -0.062081262 0.08539953 -0.15638888
000030 2c 07 6f 3a 15 51 2b be 84 be fc 3d 76 68 44 3d
       0.0009118195 -0.16730149 0.123410255 0.047951184
000040 44 24 71 be 2a 72 37 3e 11 e7 17 3e 1c 4d 94 be
       -0.2354899 0.17914644 0.14834239 -0.2896508
000050 b5 d7 bb bd 3e c2 3b 3e 24 4e 28 3e af ce 27 3d
       -0.09172002 0.18335816 0.16436058 0.040968593
000060 f5 d2 b4 3d db ec 35 be 06 a3 62 be 8c 14 22 3e
       0.08829299 -0.17766134 -0.22132501 0.1582815
000070 a8 e1 e9 3d 19 f0 63 3e 55 e1 ad 3d e5 a8 42 3d
       0.11419994 0.22259559 0.08490244 0.04752435
000080 ea 1a dc bd e8 32 77 be 86 44 9e 3e 63 37 a3 3e
       -0.10747321 -0.24140513 0.30911654 0.31878194
000090 87 bf 19 be 29 87 1f be f6 cc 25 3e 43 28 19 3d
       -0.15014468 -0.15578903 0.16191468 0.037391912
0000a0 cd fe 2d be fb b6 31 be a9 8c 39 be 2d 69 52 be
       -0.1699173 -0.17354958 -0.18120064 -0.20547934
0000b0 22 5b e2 bd a2 17 61 be 31 59 2a be 85 01 19 3e
       -0.110525385 -0.21981671 -0.16635586 0.14941986
0000c0 a9 46 1b be ec 83 0a 3e 0d 54 01 bd 97 fb 48 3e
       -0.15163673 0.13526887 -0.031574298 0.19627224
0000d0 ba bc 0b 3e 12 32 75 3e d0 6f 85 3e a2 c6 22 3b
       0.13646212 0.23944882 0.2606187 0.0024837633
0000e0 16 e3 9c 3e 15 c1 c1 bc b9 2b e9 bd e3 a5 2a 3e
       0.30642003 -0.023651639 -0.113852926 0.16664843
0000f0 a4 66 38 be db 8e 9c bd dc e1 1b 3e 3a d3 c7 3c
       -0.18007904 -0.07644435 0.15222877 0.024392713
000100 0a dd d5 3d b9 2b 17 3e be 02 0a 3e e3 c7 90 3d
       0.104425505 0.14762773 0.13477609 0.07069375
000110 88 d3 20 3e 52 ef 04 be 26 cf 07 3e 98 68 2b 3e
       0.15705693 -0.12981918 0.13262615 0.16739118
000120 71 7e a2 3c dd a2 01 3e 5b 5e a2 3d a7 8d 1a 3e
       0.019835683 0.12659784 0.07928153 0.15093099
000130 10 c9 db bd dc 2b 8f bd 4f d2 09 3e 8f 13 a4 3d
       -0.10731709 -0.069907874 0.13459133 0.08011543
000140 ba ab 34 be d9 0d 64 3d c6 6a 2f be 45 c2 0f 3e
       -0.17643633 0.05567727 -0.17130575 0.14038952
000150 a7 d8 77 bd a0 ec 5c be 24 61 f8 bd 4b 57 6b 3e
       -0.06050935 -0.2157464 -0.12127903 0.22982518
000160 22 7f 6b be 47 f1 57 be e5 9e aa 3d 46 71 82 bc
       -0.22997716 -0.21088134 0.08331088 -0.015923154
000170 4d 58 75 3e b4 fd 90 be 7d 50 7a 3e 2d c4 56 3e
       0.23959465 -0.2831856 0.24444766 0.20973273
000180 df 5e 9f bd 54 34 eb 3d 0b ba 68 be ac 0a 25 3e
       -0.07781767 0.1148459 -0.2272722 0.16117352
000190 52 fb 5d be 5e ef 34 be fc a6 13 be 39 c0 08 be
       -0.21677902 -0.17669436 -0.14419168 -0.13354577
0001a0 ed 83 2d be 03 c6 34 be 7c 44 54 3e 98 b9 83 3d
       -0.16944857 -0.1765366 0.2072925 0.064318836
0001b0 d4 d4 8d bc ea ae 75 be 5e 4c 47 3e 00 4c 41 3e
       -0.017313398 -0.23992506 0.19462726 0.18876648
0001c0 d3 b5 61 be 0a c8 41 bd 42 05 6a 3e 06 1c 4a 3e
       -0.22042017 -0.047309913 0.22853568 0.19737253
0001d0 e1 11 90 be 20 c7 ca 3d 83 86 90 bb 44 f6 90 3e
       -0.2813864 0.09901261 -0.0044105663 0.28312886
0001e0 db 68 24 3d 54 69 e3 3d c5 fc 07 3e c4 2d fe bd
       0.04013906 0.11104074 0.13280018 -0.12411073
0001f0 16 08 3b 3e 97 1e 3a 3e 37 33 74 3e b5 07 5b 3e
       0.18264803 0.18175732 0.23847662 0.21389659
000200 b5 a0 0e be 9d 32 20 3e e5 eb 5c be 76 b8 91 3d
       -0.13928492 0.15644307 -0.21574362 0.07115261
000210 8b 06 48 be c5 d2 c6 bd 7e d6 50 bd 52 a8 09 3e
       -0.19533746 -0.0970817 -0.050985806 0.13443115
000220 5d f9 8a be d7 12 b9 bd 77 06 79 bd 64 fd e6 bd
       -0.27143374 -0.090367965 -0.06079718 -0.11278799
000230 93 c1 dc 3c c4 18 98 3d d5 2b 28 be 8b 4e 75 3e
       0.026947772 0.07426599 -0.1642297 0.23955743
000240 27 21 a5 bc c7 3e 6c bd 01 9e 4c be 17 79 cd 3d
       -0.02015741 -0.057677057 -0.19982149 0.10032862
000250 eb e1 e7 bd 0e fe 1b be b9 9b 6e 3d 56 00 82 bd
       -0.11322387 -0.15233633 0.058253977 -0.0634772
000260 c3 68 9c bd 78 e6 b7 bd 8d c2 59 be 2d b7 43 be
       -0.07637169 -0.08979505 -0.21265621 -0.19112845
000270 59 ab 85 bd d5 36 31 3e 34 fb 50 be f6 dd 88 be
       -0.065268226 0.17306073 -0.20408326 -0.26731843
000280 68 dd ff 3d c0 10 a2 3e 40 70 2a 3e 9c 03 c6 bd
       0.12493402 0.31653404 0.16644382 -0.09668657
000290 2b e5 d0 3d ab 23 42 be 02 2d 26 3e c4 82 e1 3a
       0.1019996 -0.18958919 0.16228107 0.0017205109
0002a0 30 ff 23 3e 5d ed 37 be 2c b9 2b be 52 bf 83 bd
       0.16015315 -0.1796164 -0.16769856 -0.06432976
0002b0 1c 7e c4 bd 96 57 d9 bc 43 ad 63 3e 85 bf 1c be
       -0.09594366 -0.026531022 0.22234063 -0.15307434
0002c0 84 ae 1d 3e 6b 48 c0 bd ed 6f b4 bd 56 ca d3 bd
       0.15398604 -0.09388813 -0.08810411 -0.10341327
0002d0 70 75 38 be 4e ea 0b bc 0b 7c 0e 3e 18 db 6a 3d
       -0.18013549 -0.008539749 0.13914506 0.05733785
0002e0 a7 15 9e bd 96 39 8a 3e 70 1d 1b be 31 6b 79 3e
       -0.077189736 0.2699706 -0.15147948 0.24357297
0002f0 31 4b e8 3d 16 df 90 3e a9 76 01 3d 5f 39 cb bd
       0.113424666 0.282952 0.031607304 -0.09923052
000300 5a 3c 16 be a5 31 14 be 2d 1d 11 bd f0 e4 a9 bd
       -0.1467146 -0.14472063 -0.035428215 -0.082956195
000310 ba e8 0a bd eb 7d 75 3e 8e d6 15 be 02 e6 20 be
       -0.03391335 0.23973815 -0.14632627 -0.15712741
000320 70 d1 bb bd 0f 57 fa bd 32 81 30 be 5e 32 06 be
       -0.091708064 -0.12223636 -0.17236784 -0.13105151
000330 f3 58 a7 bd 87 f2 70 be dd 0d 99 bd 02 12 55 be
       -0.081712626 -0.23530017 -0.07473347 -0.2080765
000340 a8 f9 70 bd 64 da 3b be cb c0 45 be 0f 69 c8 3b
       -0.05883184 -0.18345028 -0.19311826 0.0061160396
000350 8f ff 89 bd 68 bc 32 3d 9d a7 30 bd 21 ff 82 3d
       -0.06738197 0.04363671 -0.0431286 0.06396318
000360 96 f9 32 be 83 a6 16 be bf 23 01 be 3e 4c db 3d
       -0.17478022 -0.14711957 -0.12611292 0.107079014
000370 c9 ff 87 3c 6c d3 9b 3d 8f 61 a9 bd ca 1b 22 3e
       0.01660146 0.07608685 -0.08270561 0.15830913
000380 3d e1 3c 3e c5 63 a6 bc ff 48 f7 bb 92 7f e6 3d
       0.18445297 -0.020311246 -0.0075465436 0.11254801
000390 14 b6 22 3e 0c 5e 58 bd 51 c6 76 be 44 a5 8e 3d
       0.1588977 -0.052824065 -0.24099089 0.06965116
0003a0 f1 a6 3f be 84 4e 12 be 71 f8 6f be 46 75 43 3e
       -0.18716027 -0.14287764 -0.23434617 0.19087705
0003b0 67 a2 ed 3d 9e cd 56 3e 2a 0e 00 3e 00 37 8e bd
       0.116032414 0.20976874 0.12505403 -0.06944084
0003c0 58 d8 06 be ed fe 9f bd e9 6d 35 be 3b 8a 86 be
       -0.13168466 -0.07812295 -0.17717709 -0.26277336
0003d0 e1 de 4a 3e 83 47 00 3e 8e 31 74 bd 48 25 f7 bd
       0.19811584 0.1252728 -0.05961757 -0.12067658
0003e0 27 a0 67 be 80 15 c7 3d 09 aa d6 bd d9 59 17 3e
       -0.22619687 0.09720898 -0.104816504 0.14780368
0003f0 2f 4a 2c 3e 69 ab 1c 3e 94 48 ea 3d 8e cd f4 bd
       0.16825174 0.15299763 0.114396244 -0.11953269

fc3.0.bias f4 [10]
000000 87 50 cb bd cd 31 23 3b 19 8c 7c 3d c5 57 9e bd
       -0.09927469 0.002490151 0.061657045 -0.077315845
000010 91 60 95 bd da 87 93 3c 67 97 2c be 89 11 d9 bc
       -0.07293809 0.018009115 -0.1685463 -0.02649762
000020 bb 83 e1 3d e0 b4 3e 3d
       0.11011454 0.046559215
