save_checkpoints/LeNet5_epoch_55.pth (torch, 249863 bytes, 10 tensors)

conv1.0.weight f4 [6, 1, 5, 5]
000000 4c 56 f6 bd 41 a7 fa bc a6 f2 3a be aa 93 2e be
       -0.120281786 -0.030597331 -0.18256626 -0.17048517
000010 73 7e f6 3e 82 99 09 bf fd 27 c2 be 94 2e 69 be
       0.48143348 -0.5374986 -0.37921134 -0.22771674
000020 d9 0a 9e bb 5a 02 3d 3e 22 1b 05 bd d5 e9 73 3d
       -0.0048230705 0.18457928 -0.03249658 0.05954917
000030 40 93 01 be df 0d bf 3e 1d 2d 9a 3e 99 ac 90 bd
       -0.12653828 0.3731527 0.30112544 -0.070641704
000040 0b 72 54 3a a5 d4 04 3d 88 56 2c 3f 28 3f 46 3e
       0.0008104152 0.032429356 0.67319536 0.1936003
000050 e5 74 23 3e 07 c9 b2 bd a6 02 18 bd b2 58 58 3e
       0.1596256 -0.08729749 -0.0371119 0.21127585
000060 5d fc 9d bd 73 c0 91 bd 9a 08 b5 3e 4e c9 42 3e
       -0.0771415 -0.07116785 0.35358125 0.19022104
000070 2b b2 86 3e 7d 7f b9 bc ae 9f 1e bf 9f 59 1f bf
       0.26307806 -0.022643799 -0.619624 -0.62246126
000080 d3 9d 55 be ad 65 22 be 81 32 54 be c9 00 92 bd
       -0.20860986 -0.15859099 -0.2072239 -0.07129056
000090 af 49 3c be 8f e4 09 bf cc 1d 94 be f2 f5 5e be
       -0.18387483 -0.5386438 -0.28928983 -0.21773508
0000a0 90 a5 4b 3e 2a 58 d9 3d 72 b5 7a 3c 01 14 07 3d
       0.19887376 0.10612519 0.015302049 0.03297806
0000b0 d6 e4 14 3e 48 82 86 3d f1 75 a3 bc 42 61 f4 bc
       0.14540419 0.06567818 -0.0199537 -0.029831532
0000c0 e8 68 22 3e 32 3c 5b bd a8 4b c2 bd ef 2f 7c bd
       0.15860331 -0.053524204 -0.094870865 -0.06156915
0000d0 6a 28 8d bd 34 d4 96 3e 8f 9c 20 be 92 7f 81 bd
       -0.06892474 0.29458773 -0.15684722 -0.0632316
0000e0 79 31 d5 3e f3 5d 98 3e bf 2e a3 bd 4b 25 be 3d
       0.41639307 0.29759178 -0.079679005 0.09284457
0000f0 fe d3 79 be ce 82 e1 3e 80 3f 86 3d 59 3b 9a 3c
       -0.24397275 0.4404511 0.065550804 0.018827127
000100 2b bd 10 3d 2d e4 84 bd c9 cd f9 3e e6 f0 83 be
       0.035336655 -0.064888336 0.48789814 -0.25769728
000110 96 d5 46 be 5d 9d ee bd 7a 39 c8 3e 5d 4a f2 3e
       -0.19417414 -0.116511084 0.3910635 0.4732236
000120 af a6 55 be 04 8f 4c be 76 ee 8e be cd 51 7c 3e
       -0.20864366 -0.19976431 -0.27916306 0.2464058
000130 6c 13 62 3d 12 64 cd bd 6f 2c 5a 3d 88 02 c0 3e
       0.055194303 -0.100288525 0.05326503 0.3750193
000140 5d 28 38 3d 03 7d c7 be 6e 61 ff be c7 15 c2 bd
       0.04496037 -0.38962564 -0.4987902 -0.0947681
000150 52 07 17 bc 81 82 17 be a2 46 33 bf 0d a1 90 3b
       -0.009218054 -0.14795877 -0.7002965 0.00441373
000160 95 e3 68 3d 7c 24 af bc 50 78 14 bf 1d 36 10 bc
       0.056857664 -0.021379702 -0.5799608 -0.008801964
000170 e4 85 27 3e ea 52 84 3e b0 12 b1 bc 03 53 65 bf
       0.16359669 0.25844508 -0.021615356 -0.8957979
000180 3f 26 99 3d a5 2c 59 3d 16 48 52 be 48 3d 82 3d
       0.07477998 0.053021092 -0.20535311 0.06359345
000190 a2 d9 15 3e d1 37 72 3d f8 b7 9b 3d ce 8d bf 3e
       0.14633802 0.059135262 0.07603449 0.37412876
0001a0 6f 4a 2d 3e 67 9e f3 3d 3d 41 4e 3e 4a 1a 2c 3c
       0.16922925 0.11895447 0.20142074 0.010504315
0001b0 81 63 ee 3c a8 91 17 3e a5 bc 68 3e 6c 2d 3b be
       0.029100182 0.14801657 0.22728212 -0.18279046
0001c0 a4 81 e5 bd 3f 97 99 be ca ef ce bd 3c aa 0d bf
       -0.112063676 -0.29998204 -0.1010433 -0.5533788
0001d0 5e f3 0c bf bc 4d f4 be 03 39 d6 be ae ac 7d be
       -0.5505885 -0.47715557 -0.4184037 -0.24772903
0001e0 f4 36 04 bd b1 1d 94 3d a3 93 be 3d 86 ea 84 3e
       -0.03227897 0.07232226 0.09305503 0.25960177
0001f0 8b 7f 61 bc 93 f3 c4 be 2c 03 6d be 10 5a 01 be
       -0.013763319 -0.38467082 -0.23145741 -0.12632012
000200 40 e7 9b 3e cf e3 90 3e cd 41 d7 bd 24 52 ad be
       0.30449867 0.28298804 -0.105105974 -0.3385173
000210 8c a2 29 be 2c e1 8f bb 43 f1 a9 3c c2 42 f3 bd
       -0.16565913 -0.0043908563 0.020744925 -0.118779674
000220 6e 77 df be c8 21 c3 be e5 56 90 3e 73 99 0c 3e
       -0.43645805 -0.3811171 0.28191295 0.13730411
000230 cd fd 4c 3e 47 f7 99 be 89 56 60 bf ed 0d 5c bd
       0.20018692 -0.3007147 -0.8763204 -0.05372422
000240 ff d3 26 3e ce f7 90 3c 45 01 21 3e 2c a6 c5 be
       0.16291808 0.017696287 0.1572314 -0.38603342
000250 ab 0c d3 be ea ac 04 be
       -0.41220602 -0.12956586

conv1.0.bias f4 [6]
000000 fc 9f 89 be 40 ef 20 be 52 66 dc bc 01 14 e8 bd
       -0.2687987 -0.15716267 -0.026904259 -0.113319404
000010 f9 ba 3c be b0 b1 bb 3d
       -0.184307 0.091647506

conv2.0.weight f4 [16, 6, 5, 5]
000000 69 e6 0f 3e 9e 5b a3 3d 0b 10 97 3e 57 e5 44 bd
       0.14052738 0.07976459 0.29504427 -0.048070278
000010 44 fb 28 be a1 74 f2 3b 6d 73 f5 3d d4 9a 82 3e
       -0.165021 0.007399157 0.11984906 0.2550875
000020 fe c8 a4 be 56 a4 aa be 67 f6 11 bd dd 7e 10 3c
       -0.32184595 -0.33328503 -0.03563538 0.008819309
000030 67 8d 19 3e 71 16 9f be 3b 30 e0 be 14 5e 1f 3e
       0.14995347 -0.3107181 -0.43786797 0.15563232
000040 45 d3 49 3b 8c a7 2d bc 05 49 32 bf 6d 8f 82 be
       0.0030796092 -0.010599028 -0.6964267 -0.2550005
000050 77 c7 cb 3b bd e5 8d bd da ab 7a be 28 82 2f bc
       0.0062188464 -0.06928585 -0.24479619 -0.010712184
000060 99 b4 07 be 8e 77 1d 3e a8 98 29 be c2 12 2d be
       -0.13252486 0.15377638 -0.1656214 -0.16901687
000070 04 92 59 3c 78 85 3c 3e 77 3d 6e 3e 8e 35 6a bd
       0.013279442 0.1841029 0.23265634 -0.05717998
000080 8e 8f 90 bd be 09 44 be 83 84 88 3d bd 31 52 3e
       -0.07058631 -0.19144341 0.066658996 0.20526786
000090 3e 5b 9e 3e cc 9d 35 be fb 8b 8d be 15 0d 8a bd
       0.30928987 -0.17735976 -0.2764586 -0.067407764
0000a0 7a 71 0b 3e b8 d6 37 be aa fc 42 be f5 5b f8 bd
       0.13617507 -0.17953002 -0.19041696 -0.121269144
0000b0 a9 f4 35 bc a1 24 ba be 93 17 80 be ac ec 06 3e
       -0.011105695 -0.3635607 -0.25017986 0.1317622
0000c0 a5 ef ad 3e 8a c0 b2 3d 32 27 44 3c 7b 90 ee bd
       0.33971897 0.0872813 0.0119722355 -0.11648651
0000d0 7b f6 46 3d 3a 53 a2 bd 09 1f 68 3b 75 15 4d bd
       0.048574906 -0.079260305 0.003541889 -0.05006929
0000e0 81 9c e3 be d7 9c 90 bd 57 1b 4a 3c 2c bb 4b be
       -0.4445534 -0.07061165 0.01233562 -0.19895619
0000f0 77 5b 15 bf 8a 5e 86 be 0b 08 ce 3d ed be 27 be
       -0.5834269 -0.26244003 0.10060128 -0.16381426
000100 c7 d0 c5 be 01 c9 74 bd b3 27 b1 bb 59 a1 f2 bd
       -0.38635847 -0.059762005 -0.005406344 -0.11847181
000110 78 ca 04 be 03 d5 1c bf fa 8f 13 be a0 10 58 3d
       -0.1296786 -0.6126253 -0.14410391 0.05275023
000120 df 99 46 bc 66 89 bc bc e7 7e 0c be ef 98 3b 3e
       -0.012121647 -0.023014735 -0.13720284 0.18320058
000130 8a a9 8f 3e 14 10 b8 be 61 f3 c8 be 1b 61 81 be
       0.28059036 -0.35949767 -0.39248183 -0.25269398
000140 cb 80 37 be 35 2d 89 3e 9e 67 9a 3c 9a ef be 3d
       -0.17920224 0.26792303 0.018848237 0.09323044
000150 2e 5b cc bd 59 8f b7 bd bb c0 92 3d fb e9 2d 3c
       -0.09978329 -0.08962888 0.07165667 0.010614867
000160 d6 ef 1b be d8 41 c7 3e 6a 74 12 3e 1d d2 46 be
       -0.15228209 0.38917422 0.14302221 -0.1941609
000170 29 b0 b3 bd ea c5 a3 3d 76 56 c7 3e 6a b7 62 be
       -0.08773834 0.079967335 0.38933152 -0.2214028
000180 55 37 30 be f0 2a 7a 3d 37 a2 b6 3d e7 95 28 3e
       -0.17208607 0.061076105 0.08917659 0.16463433
000190 97 41 e7 3e 6a 47 ba 3e c7 d0 9d be 5e 2c 06 bf
       0.4516723 0.3638261 -0.30823347 -0.5241145
0001a0 f4 02 0b bf 8f fe d9 3e c9 53 16 3e 25 fa 62 be
       -0.5430138 0.42577025 0.14680399 -0.22165735
0001b0 4a 76 a2 be b3 42 fa bd 40 8b 20 3e 13 a5 a0 be
       -0.31730872 -0.12219753 0.1567812 -0.31375942
0001c0 b2 fe 88 be f7 fc 32 3c fc ff e2 3d 67 07 3f be
       -0.26756817 0.010924569 0.110839814 -0.18655168
0001d0 6a c2 c4 be 1c 66 41 3e b9 d8 d3 3d 23 58 97 bd
       -0.38429576 0.18886608 0.10344071 -0.073898576
0001e0 82 2f a9 be 51 ed 20 be 56 be 0d 3e 88 51 1a 3e
       -0.33044058 -0.15715529 0.13842139 0.15070164
0001f0 05 af 61 be c5 99 19 3f 86 f6 98 3e 2b 3f 70 3e
       -0.22039421 0.6000026 0.29875582 0.23461597
000200 a7 4b 47 3e 52 52 56 3b 94 98 05 3f 7d 46 8e 3d
       0.19462453 0.0032702875 0.5218594 0.06947038
000210 ff 5a 2f 3e bf 86 d5 3e 93 67 45 bd 97 79 f4 bd
       0.17124556 0.41704366 -0.04819448 -0.11937254
000220 b8 a0 96 3e 6a 5e 27 3e fc 32 fe 3c 56 df 8b 3e
       0.29419494 0.1634461 0.03103017 0.2731883
000230 0a f8 27 be 85 ea 9a 39 ed c0 88 bd 5d 81 70 3d
       -0.16403213 0.000295479 -0.06677423 0.05871712
000240 ed 46 50 3e 91 e8 fb bd 5e ff b2 3d 85 9a a7 3d
       0.20339556 -0.12300218 0.08740114 0.08183769
000250 53 39 cc bc 0c f8 03 3e d9 54 3d be ee 49 73 be
       -0.024929678 0.12887591 -0.18489398 -0.2375867
000260 a7 8d e1 be 21 8f a4 be d8 72 37 be 29 4b 8b be
       -0.44053385 -0.3214045 -0.17914903 -0.2720578
000270 a0 1d 62 be e3 c0 15 be 1f 9a 5f 3d 25 b7 48 be
       -0.22081614 -0.14624362 0.05459034 -0.19601114
000280 36 f5 3a be 45 95 be bd ea 7f 9a 3a 8a f7 9c be
       -0.18257603 -0.09305815 0.0011787389 -0.30657607
000290 4f 2d cd bd 1c 1e 0d be 5d 55 01 be 54 65 88 be
       -0.100184076 -0.13781017 -0.1263022 -0.26639807
0002a0 a9 77 d4 be e1 d8 51 be 55 34 a7 bd af 24 d9 bb
       -0.41497543 -0.20492889 -0.081642784 -0.0066266875
0002b0 48 c4 31 be 7c eb 36 bd cd 30 71 be 13 2a f5 bc
       -0.17360032 -0.04465817 -0.23553772 -0.02992729
0002c0 7a 23 e8 bc 0b 21 b4 3d 47 8d 02 3e 22 66 1b 3e
       -0.028337229 0.08795365 0.12749206 0.1517568
0002d0 74 a8 31 3d 9f 59 ed 3c bd c3 fb 3d 15 64 fd 3d
       0.04337354 0.028973399 0.122931935 0.12372605
0002e0 2c 18 e1 bc 79 c2 b4 bd af 7d 7f 3d f4 83 6a 3e
       -0.027477346 -0.08826155 0.06237572 0.22901899
0002f0 f9 00 71 3c 4c 35 52 3c 88 88 a6 bb fc 77 d5 bc
       0.014709705 0.01283009 -0.0050821938 -0.02605819
000300 67 db 7f be b5 0b 54 3d 6d ca ac 3d 51 99 ed bd
       -0.24986039 0.051768977 0.08437047 -0.116015084
000310 d1 46 f0 bd 9f c0 09 bf 28 db d9 3d 2b 73 a5 3e
       -0.11732257 -0.5380954 0.10637504 0.3231443
000320 14 52 0f 3e bd 0e af be 18 6d 9a be 7a bb af be
       0.13996154 -0.34190932 -0.30161357 -0.3432272
000330 b6 f7 aa bb 91 6c 9a bc df 8c f2 be ce 64 a5 be
       -0.0052175177 -0.018850597 -0.473731 -0.3230347
000340 a7 79 01 be 1f 18 77 3b fa eb be be ba 66 f0 be
       -0.12644063 0.0037703586 -0.3728941 -0.46953374
000350 c6 70 a4 be be 86 39 3d b7 65 95 be cb fc e0 be
       -0.3211729 0.045294516 -0.29179165 -0.43942866
000360 51 8f f6 be ca 3f b8 be 09 f7 b3 bd 67 d3 0c bf
       -0.48156217 -0.35986167 -0.087873526 -0.55010074
000370 b2 e7 49 bd a2 10 d4 bd 4b ac 43 be 9a af 5d 3d
       -0.049293227 -0.10354735 -0.19108693 0.054122545
000380 4d f9 40 be ad 46 4b be c8 4f 31 3e 24 a5 89 3e
       -0.188451 -0.1985118 0.1731559 0.26883805
000390 a4 2c 91 3e d7 4f 81 3e 9e 44 e8 3d ae 14 1e 3f
       0.2835437 0.25256225 0.11341213 0.61750305
0003a0 72 3f 37 3e 1b 94 e5 3c 30 6d 04 be fa 13 b6 3d
       0.17895296 0.028024724 -0.12932277 0.08890529
0003b0 5f 8b e9 3e 49 6b 58 bd dd 83 f8 bd 94 c8 8a bd
       0.45614144 -0.05283669 -0.12134526 -0.067765385
0003c0 42 87 d3 3e c5 67 80 3e 38 77 94 bd 4d fd 7c bd
       0.4131413 0.2507917 -0.07249302 -0.061765004
0003d0 cd 09 4a 3e 7c fd 6d 3d 99 ef f8 bd 2d 78 c6 be
       0.19730301 0.05810307 -0.121550746 -0.38763562
0003e0 52 82 c2 be 64 45 6e be a9 66 36 be 40 36 9f 3e
       -0.37990052 -0.23268658 -0.17812599 0.31096077
0003f0 6d 89 c5 3e 92 4f 27 3e 86 c7 d0 3d 73 a3 3b 3c
       0.3858141 0.16338947 0.10194306 0.011452544

conv2.0.bias f4 [16]
000000 45 5a 8a bf 1e 0b 4c bf 0b 38 99 bf 89 c2 b5 bf
       -1.0808798 -0.79704463 -1.1970228 -1.4199992
000010 bd 96 04 c0 17 fc db bf f7 fc 30 bf 34 68 8c bf
       -2.0717003 -1.7186307 -0.69135994 -1.09693
000020 9b fd ac bf 3c 09 df bf 3d 1d eb be 4f f2 8f bf
       -1.3514894 -1.7424693 -0.45920745 -1.1245822
000030 71 9d b2 bf eb a4 a4 bf 76 c1 da bf c1 04 5b bf
       -1.3954297 -1.2862829 -1.709029 -0.8555413

fc1.0.weight f4 [120, 400]
000000 5d cd e3 bc 38 f1 84 be 0b 48 a8 be fd 29 9d be
       -0.027807886 -0.25965285 -0.32867464 -0.30696097
000010 07 2b d3 be 94 64 da 3c 95 be 16 be de ac 05 be
       -0.41243765 0.026659288 -0.14721139 -0.13054225
000020 58 94 ec bd 4e a1 ba bd 8e 5b d5 bd 40 4a 1c bc
       -0.11551732 -0.09112798 -0.10417853 -0.009539187
000030 73 56 1f be 24 17 f4 3e 9d bc d4 bd fa c7 e5 3d
       -0.15560322 0.47673905 -0.10387538 0.11219783
000040 34 62 0e bf 68 27 57 be 57 e7 85 3e 70 4e 0d 3f
       -0.55618596 -0.21011126 0.2615306 0.5519781
000050 2f 23 1f 3e d6 6b c0 be 06 1d 30 3e 2d db 86 3e
       0.15540765 -0.37582272 0.17198572 0.26339093
000060 eb c1 bf 3d a9 db 2b be ca 2d fa be e2 9f de be
       0.09363159 -0.16783012 -0.4886306 -0.43481356
000070 3b a1 37 bf ef 41 b8 be 1f 45 c1 bd 42 04 2f 3d
       -0.71730393 -0.35987803 -0.09437012 0.04272867
000080 a4 51 70 3e 70 26 90 39 46 0b bf be dd 21 31 3e
       0.23468643 0.00027494458 -0.37313288 0.17298074
000090 74 88 da bc 45 d6 32 3e 1b d6 59 3e 80 59 81 3e
       -0.026676394 0.1746455 0.21273081 0.25263596
0000a0 e6 0a c9 3d ba 0f 17 bf 25 95 09 bd 64 90 bb bb
       0.09816532 -0.5900837 -0.0335895 -0.005724
0000b0 58 40 01 3c ea 82 c5 bd eb 2f 92 3c ff aa 29 3e
       0.007888876 -0.096441105 0.017845115 0.16569136
0000c0 8c 3e 36 3e 51 3e 5f 3e 02 16 89 be ea 0a b3 be
       0.17797297 0.21801116 -0.26774603 -0.34969264
0000d0 97 70 b6 be 7a 53 b1 be bc e1 81 be e9 84 07 3e
       -0.35632774 -0.34634 -0.25367534 0.13234295
0000e0 06 94 bb 3e cd e7 b5 3e 2b 3f e1 be 67 62 46 bd
       0.3663637 0.35528412 -0.43993506 -0.048433688
0000f0 60 c4 fe 3d 9d 8b 28 bb 3f 49 98 be 5f 41 9c 3e
       0.12439799 -0.0025717982 -0.29743382 0.30518624
000100 7d f4 36 3e 7a 2e 24 be 46 bb dd be 25 09 c7 3c
       0.17866702 -0.16033354 -0.4330694 0.024296353
000110 b3 d8 2a 3e fc 94 b5 3e 4b 30 14 3e 3a b8 fd bd
       0.16684227 0.3546523 0.14471547 -0.12388654
000120 79 49 0b be 4b 50 81 3d 92 26 df 3e 6e c2 8d 3e
       -0.13602246 0.06314143 0.43584114 0.276874
000130 14 c7 11 3e 97 f9 73 3d 60 12 0a 3f 91 4a 6f 3e
       0.14236099 0.0595642 0.5393429 0.23368289
000140 6a 18 b5 be ff 0d 88 be 33 9d 96 bc b4 e0 83 3e
       -0.3537019 -0.26573178 -0.018385505 0.25757372
000150 57 52 02 3f aa 04 5f 3e 2c e1 6c bd 78 6a 88 be
       0.5090689 0.21779123 -0.057831928 -0.2664373
000160 cd 21 8e be 7b 18 6e be 5f 99 a2 bd d5 c5 ad 3e
       -0.27760163 -0.23251526 -0.079394095 0.33939996
000170 57 a5 05 3e 74 1b d9 bd 60 c7 7d 3c 16 cb 47 be
       0.13051353 -0.106009394 0.015489429 -0.19511065
000180 55 70 81 3e 75 b3 2c be b1 13 60 3e b2 0a 01 be
       0.25281015 -0.16865332 0.21882512 -0.12601736
000190 86 ad 2f 3e 69 8a 01 bc 4f 74 79 3e bf 30 97 3c
       0.17156038 -0.007906535 0.24360774 0.018455861
0001a0 86 b5 34 3e 2e ae b2 3e 7b 8a 95 3e 0e 68 d5 3e
       0.1764737 0.34898514 0.29207215 0.4168095
0001b0 4e c9 46 3e 25 20 d6 bc 66 16 46 bf a6 06 0d be
       0.19412729 -0.026138375 -0.7737793 -0.13772067
0001c0 8b f5 18 be 7a e8 11 bf 84 4f 16 bf cc dd c0 3d
       -0.14937417 -0.56995356 -0.5871508 0.094173044
0001d0 f1 c0 46 bd 74 4a 75 be 1e d4 5f be 31 63 91 be
       -0.048523847 -0.23954183 -0.2185826 -0.2839599
0001e0 a6 c7 a8 3e 2e 6a db 3e c1 11 51 3e d0 91 89 3d
       0.3296482 0.42854446 0.20416929 0.06717265
0001f0 5d f5 34 bd 18 58 cc be 4f c1 43 be 06 10 2f be
       -0.04417931 -0.3991096 -0.1911671 -0.17095956
000200 49 04 d4 3d e4 81 1b 3d 72 3e ac be 07 37 ac 3d
       0.1035238 0.03796567 -0.33641392 0.08408933
000210 71 3e 8f 3b 7c 68 3c 3c c3 d8 b5 3d 46 36 9d 3e
       0.0043714573 0.01149952 0.08879235 0.3070547
000220 bc e5 15 be e4 9d 19 bd 7d e0 93 bc 43 6d 39 bd
       -0.14638418 -0.03750409 -0.01805138 -0.045270216
000230 dc 92 91 be 7d 8f 8c be 8e d8 a3 3e d1 a2 e8 bc
       -0.28432357 -0.27453223 0.32001156 -0.02839795
000240 b3 89 14 bf 02 96 e7 3d 18 6b 8c 3e 90 ae 73 bd
       -0.5802261 0.113079086 0.27425456 -0.059492648
000250 d5 60 1c be 3f 03 02 bf 6e d5 63 be ec 08 cf be
       -0.15271313 -0.50786203 -0.22249386 -0.40436494
000260 6e 4d 3d bf 68 26 07 bf f3 03 24 bf 2b f0 86 3d
       -0.73946273 -0.5279298 -0.64068526 0.06588777
000270 c2 c2 ec bd cb 33 c5 be a8 f6 c5 be 3e 15 15 bf
       -0.115605846 -0.38516077 -0.38664746 -0.5823554
000280 f1 c9 5a 3e e2 43 9a 3e 69 13 63 3e 3b 8c 09 bd
       0.21366097 0.30129915 0.22175373 -0.033581
000290 62 fa 85 bd 0a 2d 82 3d 32 f3 4b be fd 41 93 3e
       -0.06541897 0.06356247 -0.1991699 0.28761283
0002a0 24 66 2c 3e 21 3e e1 bd df 9d 87 be be d9 65 3e
       0.16835839 -0.10998178 -0.26487634 0.22446343
0002b0 e1 c9 97 bd b5 8b c7 bd 25 bb 78 bd f7 41 bc be
       -0.07411552 -0.09743444 -0.06072535 -0.36769077
0002c0 bf d9 7d be df 92 9b be a5 f8 b0 3e d6 bf 48 be
       -0.24790095 -0.3038549 0.345647 -0.1960443
0002d0 86 c3 1d 3f 39 84 ba 3e 0d 38 61 bc 6c 17 f6 3e
       0.6162647 0.36429003 -0.013746274 0.48064744
0002e0 d9 f4 5c 3e d5 01 c2 bd f6 15 14 3e 10 a8 64 be
       0.21577777 -0.09473006 0.14461502 -0.22329736
0002f0 33 18 89 bd 44 a4 8c be 24 02 b1 be 7b a6 2d 3d
       -0.06694069 -0.27469075 -0.34571946 0.042395096
000300 c2 5b 3f bf 0a ee 17 be b5 49 03 be ed 77 02 be
       -0.74749386 -0.14836898 -0.12821086 -0.1274106
000310 af 82 bb 3e c0 98 a2 be 4c 1a 85 bd f8 39 0c be
       0.3662314 -0.31757164 -0.06499156 -0.13693988
000320 0b c0 07 bf e5 72 3c be 86 aa cd bd c7 55 64 be
       -0.5302741 -0.18403204 -0.100422904 -0.22298346
000330 7b 38 8b 3e f0 e1 6e bd c2 b1 d2 bd d4 d4 09 be
       0.2719153 -0.05832094 -0.10287811 -0.13460094
000340 1f 9b 7e 3e 11 77 97 bd 8c 6b 83 3d fa 3b d7 3e
       0.24863862 -0.07395757 0.06416997 0.42037946
000350 49 ea bc 3d c4 32 36 3f 50 34 8e 3e db 8c 23 3e
       0.09224374 0.7117121 0.27774286 0.15971701
000360 be 64 56 3d a6 a9 13 be b4 c3 26 3e 85 2f 4f be
       0.05234217 -0.14420184 0.16285592 -0.20232971
000370 2b a3 dc be a8 83 01 be e6 82 d5 bc 12 1d 4e 3e
       -0.43093237 -0.12647879 -0.026063394 0.20128277
000380 5f c5 10 3e fe 6c d8 3c 1f 4d 38 3d 9e 25 7c 3e
       0.14137791 0.026419159 0.044995423 0.24623725
000390 91 80 9f 3e 68 55 c7 3d 59 c3 7f be 4d de 78 be
       0.31152776 0.09733087 -0.24976863 -0.24303551
0003a0 10 8c 35 3d 4c 17 fe 3e 22 d2 07 be ed 19 0b 3f
       0.044323027 0.4962715 -0.13263753 0.54336435
0003b0 f9 4a 86 3e b0 cd d8 3e 15 9c 4d 3e 22 9d b0 be
       0.26229075 0.42344427 0.20079072 -0.34494883
0003c0 01 36 e2 3c 91 97 01 3f 6a f8 cb 3b c0 85 a7 bd
       0.027613642 0.50621897 0.0062246816 -0.08179808
0003d0 86 29 8d be d3 46 95 bd 75 18 01 3e 0e a1 91 be
       -0.27570742 -0.07288899 0.12606986 -0.28443187
0003e0 76 8d 13 bf ed f5 cf bd f5 3f 9c 3e 98 76 9a 3e
       -0.5763773 -0.101543285 0.30517545 0.30168605
0003f0 1f 06 a7 3e 76 54 4d 3e 8b 7d 4c bd cf 3d c6 3e
       0.32621858 0.2005175 -0.049924415 0.3871903

fc1.0.bias f4 [120]
000000 c8 bc 42 be 96 91 0c 3e 3e 72 d0 be 46 34 40 be
       -0.19017327 0.13727412 -0.4071216 -0.1876994
000010 28 99 fe be f2 43 19 be b3 b8 a2 be ff 2a 35 be
       -0.49726224 -0.14967325 -0.3178154 -0.17692183
000020 5e 08 1c 3e 6a 17 7d be 85 08 18 bc ad 65 d6 be
       0.15237567 -0.24715963 -0.009279375 -0.41874447
000030 6d 2c a4 be 41 88 9f be 72 7c 32 bf 0c d8 3d 3e
       -0.32065144 -0.3115864 -0.6972114 0.18539447
000040 87 79 c0 be f4 05 28 3d a3 4c 83 be a1 fa 23 3e
       -0.37592718 0.041021302 -0.25644407 0.16013576
000050 a2 dd f2 3e 31 0e 68 be 54 b9 8e be 8f 31 85 bd
       0.47434717 -0.22661664 -0.2787577 -0.06503593
000060 3e de 57 bd 56 3a 63 3e 2d 11 79 be 61 c6 33 3e
       -0.05270218 0.22190222 -0.24322958 0.17556144
000070 71 a9 d4 3e 5d e3 a1 3d 66 4c 79 3e 05 94 28 bf
       0.41535524 0.07904694 0.2434555 -0.6585086
000080 57 fc df be 71 81 d6 bd e1 9f 81 3f 3e bf 1e 3e
       -0.43747208 -0.10473908 1.0126916 0.1550264
000090 32 06 14 bf d8 2b 26 3e e0 43 97 be 85 98 26 be
       -0.57821953 0.16227663 -0.29543972 -0.16269119
0000a0 11 35 ad 3e 61 a0 0f 3e 4e 49 ac 3e 71 bd 24 bd
       0.3382955 0.14026023 0.33649677 -0.040219728
0000b0 ce c9 e4 be 04 a6 11 be eb 9f 32 3e 16 39 92 be
       -0.44685215 -0.14223486 0.17443816 -0.28559178
0000c0 9b 2f bd be 31 00 11 3e d0 ec a0 bd 68 51 40 3e
       -0.36950383 0.1416023 -0.078576684 0.18781054
0000d0 cf 83 f6 be bc c8 ea 3e 05 7c 48 be 0f 72 c1 be
       -0.48147437 0.45856273 -0.1957856 -0.37782332
0000e0 2f 76 34 3f 6d 53 f5 3e d5 bc 99 3d d4 9b bf be
       0.70492834 0.4791521 0.0750672 -0.37423575
0000f0 ef 82 0c be c8 1d 58 bd b6 0e 72 3e 0a 81 ba bd
       -0.13721822 -0.052762777 0.23638424 -0.091066435
000100 8d 64 71 bc 39 cb 0f 3f 68 9b 1e bf 86 f7 e8 bd
       -0.014733446 0.5616947 -0.6195588 -0.11375336
000110 d9 21 2b bf 4d b9 cd be 29 74 9e 3e ec b9 3b 3e
       -0.6684852 -0.40180436 0.30947998 0.18332642
000120 f7 a7 9f bd f4 c7 89 be f3 0c c8 be f5 e2 07 3d
       -0.077957086 -0.26910365 -0.3907238 0.033175427
000130 5d 25 14 bf f2 4a 01 3f 5a bd f5 3d c5 9b a0 be
       -0.5786951 0.5050498 0.119990066 -0.31368843
000140 6d d5 8d bd 9d 88 3c bf b5 a5 0c bf f1 d5 42 3f
       -0.06925473 -0.73645955 -0.5494035 0.761077
000150 03 22 93 be b0 ad be be 6c d9 2b 3f dd 0b bb be
       -0.28736886 -0.37241888 0.67128634 -0.36532488
000160 e9 6b 88 3e 62 17 aa bd fb da a5 3e 4e d5 b0 be
       0.2664483 -0.08305241 0.3239363 -0.3453774
000170 ac 41 80 3f eb a8 75 3e 84 6f d8 be 02 1c 01 3e
       1.0020041 0.23990218 -0.4227258 0.1260834
000180 52 aa 6e be d6 d3 39 bd 9a 10 02 bf 3e b6 27 3f
       -0.2330716 -0.045368038 -0.5080658 0.65512455
000190 fd 1c bb bb 07 fa a3 3d d1 b8 16 3e a7 95 b9 3e
       -0.005710243 0.08006673 0.1471894 0.36246988
0001a0 dd e4 52 bf 03 89 c3 3e 8b 60 bc be 78 3e 15 bf
       -0.8238047 0.3819047 -0.36792406 -0.58298445
0001b0 90 21 04 3e a4 c1 25 3e c6 44 8b 3d d2 64 ba 3d
       0.12903428 0.1618715 0.06800227 0.09101261
0001c0 25 43 0b 3f a5 8b c4 3e a1 26 11 be 4c c4 98 be
       0.5439933 0.3838779 -0.14174892 -0.29837263
0001d0 f8 b1 8e 3e b4 0f ed be 02 68 66 3e 8d 49 b6 3e
       0.27870154 -0.46301043 0.22500613 0.3560299

fc2.0.weight f4 [84, 120]
000000 aa a2 67 3e f6 03 c4 3c 97 76 61 bd 6d 4a d3 3d
       0.22620645 0.02392767 -0.055044737 0.1031693
000010 f4 31 17 bf 0e c2 41 3d c0 8e ed 3d 5b 48 0d 3f
       -0.590606 0.047304206 0.11599493 0.5518853
000020 e4 00 cc 3d e8 4f b4 be ff 6c ad 3e 5d f2 10 be
       0.099611074 -0.35217214 0.3387222 -0.14154954
000030 28 c2 09 bd da ea 1e bd 41 f6 b9 3c 0a f4 15 3f
       -0.033632427 -0.03879819 0.02270043 0.585755
000040 fc e6 03 3f 9f 84 3c 3f 54 fa 7e be 64 4a 1d 3e
       0.5152433 0.73639864 -0.2490018 0.15360409
000050 62 53 0b bd 1c 4b 68 be 07 58 dc bd a3 3d 9b be
       -0.034015067 -0.22684902 -0.107589774 -0.30320463
000060 c1 01 a9 3e d8 f0 19 bd 5c 78 99 3c d5 c9 16 3f
       0.3300915 -0.037583202 0.01873415 0.5890172
000070 0c 7e c9 3e fe 81 a2 be c0 0a 67 be 6c 50 77 be
       0.3935398 -0.317398 -0.22562695 -0.24151772
000080 66 98 99 3e b3 10 18 bf 9b 97 db 3e fc c6 99 3d
       0.29999083 -0.5940048 0.42889103 0.075086564
000090 d8 ee 55 3e 51 30 13 3e 39 dd 08 bf 2b 49 4a be
       0.20891893 0.143739 -0.5346256 -0.19754474
0000a0 f7 47 a1 3d de d2 71 be fb 4f 87 3e 4e e6 86 be
       0.07875054 -0.23615596 0.26428208 -0.26347584
0000b0 35 45 46 3e 84 e9 93 3e ee f9 e4 bd 1f 76 86 3c
       0.19362338 0.28889096 -0.11180483 0.016413746
0000c0 be 15 b7 3e 70 3d fc 3a 99 79 b6 3e 76 e7 47 be
       0.35758775 0.0019244384 0.35639647 -0.19521889
0000d0 18 e7 cf bb 7c 21 d8 bd 63 9c b0 3e 26 90 90 be
       -0.006344687 -0.10553262 0.34494314 -0.28234977
0000e0 66 23 29 3e 19 03 44 3e de ed f3 3d 17 29 88 3d
       0.1651741 0.19141807 0.11910604 0.06648462
0000f0 8e a0 71 bc 84 cc 15 3e b6 70 4e 3e 1f 32 f0 be
       -0.014747752 0.14628798 0.20160183 -0.4691324
000100 22 64 d3 3d bf 04 a7 3d 8c da 02 bf 1e 63 85 be
       0.10321833 0.08155202 -0.51114726 -0.26052183
000110 7a 82 ea bd 3f 81 2b 3e a5 e5 44 3e c8 42 2a 3e
       -0.11450668 0.16748522 0.19228227 0.16627038
000120 88 c6 a2 be 4d 50 3f 3e 2b c7 8e bd 8c 24 5c 3c
       -0.31792092 0.18682976 -0.06971582 0.013436448
000130 32 d3 ef 3d 61 35 2c 3c f9 98 7a be f0 19 66 3d
       0.11710204 0.010510773 -0.24472417 0.05617708
000140 f9 9e 05 bd 75 3f 8f bd a7 f3 ab bd e2 87 43 3e
       -0.03262231 -0.06994525 -0.08396082 0.19094804
000150 fc 43 0d be e4 12 91 bc fd b8 f4 3d 47 ed fd bc
       -0.13795465 -0.017709203 0.11949346 -0.030996932
000160 0c 8c 22 3d 43 bd 07 3e 6e 91 ba 3e 72 f5 dd be
       0.03968434 0.13255791 0.3643908 -0.43351322
000170 b7 1b e0 3d 17 30 1c 3e 5a 69 4d bd 11 c2 0a bf
       0.10942786 0.1525272 -0.0501493 -0.5420237
000180 b6 21 1a 3e 95 83 f5 be 73 89 b8 3e 9f 53 28 3d
       0.15051922 -0.47951952 0.36042365 0.041095372
000190 67 e0 36 be 01 f0 3f be e0 52 99 3d 1f 44 13 be
       -0.1785904 -0.18743898 0.0748651 -0.14381455
0001a0 f8 1a 39 bd c4 59 37 be f5 9a e9 bd 35 39 79 3e
       -0.045191735 -0.17905337 -0.11406509 0.24338229
0001b0 72 85 6f 3e 42 53 8e bd 97 e7 0b bd 65 3f 73 be
       0.23390749 -0.06949474 -0.03415641 -0.23754652
0001c0 cd a2 44 3e f0 21 15 be 9f 36 62 be df cc 11 bf
       0.19202729 -0.14563727 -0.22091149 -0.56953233
0001d0 04 2c 3a bd 3f 0f 3b bd db cf 01 3f 04 88 ce 3d
       -0.045452133 -0.045668837 0.5070779 0.10084537
0001e0 34 4b 5a 3e ee 8c 8f 3e 01 f2 b1 3e 92 6d 0b 3e
       0.2131775 0.28037208 0.34754947 0.13616017
0001f0 d0 e9 50 be 08 70 52 3e e4 d2 a0 3e c2 69 d0 bb
       -0.20401692 0.20550549 0.31410897 -0.0063602636
000200 c0 69 c1 bc 26 e9 e1 3d 13 07 dd 3e 30 c8 0b 3e
       -0.023609996 0.11030798 0.4316946 0.13650584
000210 5f c6 f9 3e 88 0a a4 3e 45 db dd 3e 56 9a b9 3c
       0.48784158 0.32039285 0.43331352 0.0226566
000220 3f 04 7b 3e 1b 36 35 bd 12 41 30 bc a5 5a 48 be
       0.24513339 -0.044241052 -0.0107577015 -0.19565828
000230 29 71 9c bc 1f 14 bd 3d a7 62 6f be d6 1d e8 bd
       -0.019096928 0.092323534 -0.23377477 -0.11333816
000240 f2 1b 93 be 7b 39 82 bd 69 7d 3d 3e c1 fd 04 3f
       -0.28732258 -0.0635862 0.18504871 0.519497
000250 d5 d5 4a 3e 6f c2 84 bd 28 d7 ad 3c 4f 46 63 3e
       0.19808133 -0.06482398 0.021220759 0.2219479
000260 fc 38 ed 3e 45 a0 19 bf 85 a6 7e bd 72 a7 a0 be
       0.46332538 -0.60010177 -0.062170524 -0.3137775
000270 3f 5d 54 3e 23 ce ad 3e 85 b2 38 3d b7 c6 76 be
       0.20738696 0.33946332 0.045092124 -0.24099241
000280 68 25 66 be 02 e2 61 be ca 8f 0c be 02 24 cc 3c
       -0.22475207 -0.22058871 -0.13726726 0.024919514
000290 65 bd 7f 3b dc c4 aa 3e ab 5e 19 3b f6 14 86 3e
       0.00390228 0.33353317 0.0023402374 0.26187867
0002a0 56 a9 38 3f 11 6d dd bd 7d 4a 12 3d 4f 80 8c 3e
       0.72133386 -0.108118184 0.03571557 0.27441642
0002b0 e5 7a 8b bd f6 a3 67 bd 62 a2 dd bd a4 3b 98 3d
       -0.0681055 -0.05655285 -0.10821988 0.074332505
0002c0 93 03 82 3d 48 53 42 3e 4c 68 0d 3e d1 f6 b0 3d
       0.06348338 0.18977082 0.13809317 0.086408265
0002d0 b2 04 48 3e f7 f7 45 be af 65 89 3d f1 5a 76 3e
       0.19533041 -0.19332872 0.06708848 0.24058129
0002e0 da c2 2b bc 99 7e 04 be 3c 3e 25 bd f2 71 a4 3c
       -0.010483468 -0.12938918 -0.040342554 0.020073865
0002f0 48 bf ab bd 75 a3 c7 3d 46 39 e2 3d 1b 8f f7 3e
       -0.083860934 0.09747974 0.1104608 0.48351368
000300 10 7c d8 3d cb f4 ef 3e f5 73 45 3e a0 1e 5d 3e
       0.10570538 0.4686645 0.19282515 0.21593714
000310 89 82 ac 3d 7c 7e ac be a4 01 61 bd 33 07 8a be
       0.08423335 -0.3369025 -0.054933205 -0.26958618
000320 25 58 03 be 96 4f f2 3e d4 8b 47 3e f4 ce 25 be
       -0.12826593 0.47326344 0.19486934 -0.16192228
000330 6d 9c d6 3e e2 8d 0f bd 6f 95 10 be 20 74 5e 3e
       0.41916218 -0.03504742 -0.14119504 0.21723986
000340 53 33 77 be e7 e4 47 3e bc bd c1 bd 38 75 39 3e
       -0.24140672 0.19520913 -0.09460017 0.18111122
000350 85 ad 47 be 89 9f 64 bf fa e3 e8 bd 1b 8b 23 be
       -0.19499786 -0.8930593 -0.11371608 -0.15971033
000360 7f 0c 60 bd b3 cf 09 be e4 d4 ca 3d cd e4 9c be
       -0.054699417 -0.13458137 0.09903887 -0.3064331
000370 c5 f6 e9 bd 5f 83 21 be 06 3a 09 3d 89 47 08 be
       -0.11424021 -0.1577277 0.0335026 -0.13308538
000380 f2 33 9c 3e 83 69 3d be 21 64 19 3d e0 fc 4b be
       0.3050838 -0.18497281 0.037449006 -0.19920683
000390 62 10 9b bd ef 0d a5 be 20 07 00 be cb eb 14 be
       -0.07571484 -0.32237193 -0.12502718 -0.14543073
0003a0 48 2c 49 be df 47 6a be a7 19 88 3e a9 a1 02 bd
       -0.19645798 -0.22878979 0.2658207 -0.031892452
0003b0 4d 3b 5c be a1 c3 f5 3e 68 21 0d 3c 6a 5c 0a 3e
       -0.21506996 0.48000816 0.008613922 0.13511816
0003c0 a4 d7 b6 3e 6b 9f 36 3e 38 12 c4 3d 5c b7 f9 3d
       0.35711396 0.1783425 0.095737875 0.12193176
0003d0 cf bd a1 3e 48 0d d0 be c9 49 8c 3e 98 9c b5 3d
       0.31590125 -0.40635133 0.27400044 0.088677585
0003e0 81 bc d7 3e 10 fe 71 3e 34 42 28 be 51 fd 4d be
       0.42136005 0.23632073 -0.16431504 -0.20116164
0003f0 a9 0d ff 3e 04 f9 6c 3d 82 60 96 be a2 51 94 3e
       0.4981511 0.057854667 -0.29370505 0.2896853

fc2.0.bias f4 [84]
000000 23 78 8f bc 6d 29 44 bf 86 bf ff be 23 1e b0 3e
       -0.01751334 -0.7662571 -0.49950808 0.34397992
000010 69 a0 09 be 05 2e a5 be aa cc ae 3e 08 24 29 be
       -0.13440098 -0.32261673 0.3414052 -0.16517651
000020 3d cd b2 3c be 70 2c bf 23 ca 4c 3f 5a ac 8c 3e
       0.02182638 -0.6735953 0.79995936 0.27475244
000030 93 c9 18 3d 1b 17 59 3f 08 9f fc 3d a0 ff 1b be
       0.03730161 0.8480088 0.1233502 -0.15234232
000040 63 b2 17 be 6a 96 fa be 18 46 ce be 1b 43 d4 bb
       -0.14814143 -0.48942882 -0.40287852 -0.006477726
000050 1a 7b 23 be 48 2e bf 3e 6e c9 4c 3e f9 dc ca 3e
       -0.15964928 0.37339997 0.19998714 0.39621714
000060 c0 2b f6 be 89 85 1f 3f ac 17 05 3e ef 10 86 3d
       -0.48080254 0.62313133 0.12997311 0.065461986
000070 b0 30 aa 3e f9 7a c5 ba 98 af 10 3f e3 6b c0 3d
       0.3324027 -0.0015066556 0.56517935 0.09395578
000080 1b dc 3a 3a dc 92 45 3e 59 47 98 be 82 6f 19 be
       0.0007128135 0.19294304 -0.29741934 -0.14983943
000090 a4 8e 7a bd ab f6 ee be 9e 14 39 bf c9 71 f2 3d
       -0.06117119 -0.46672568 -0.72297084 0.11838109
0000a0 17 2f 4d bd 6b e6 29 3f 35 f7 b2 be e7 95 b8 3e
       -0.050093736 0.66367215 -0.3495423 0.36051866
0000b0 67 33 50 be bf e8 0e 3f 17 69 4a 3e 76 1e 01 3e
       -0.20332108 0.5582389 0.19766651 0.12609276
0000c0 d1 02 11 bf 68 71 e2 bd 72 e8 6f be 4c 00 4a 3f
       -0.5664492 -0.11056787 -0.23428515 0.78906703
0000d0 b3 20 84 3e 82 9f c4 3e 85 74 54 be e1 e0 e1 3c
       0.25806198 0.38402945 -0.20747574 0.02757305
0000e0 d4 6f f4 be 3e ec 07 3f 3e 6c 0a bf 20 79 9f be
       -0.47741568 0.5309485 -0.54071414 -0.311471
0000f0 ba cb 24 3f 77 7a 86 be 72 f8 b2 3e fa b3 cd 3c
       0.6437336 -0.26265308 0.34955174 0.025110234
000100 f9 00 a1 3e 4d 82 a0 3d af 2e 99 3e 55 29 80 be
       0.31446055 0.07837353 0.2991843 -0.25031534
000110 60 96 58 3e 76 c1 59 bd 0b 37 f3 be 19 06 f2 be
       0.21151114 -0.053163014 -0.47502932 -0.47270277
000120 f0 22 4e bf b0 69 39 bd 45 6c d8 be b1 2c 23 be
       -0.8052206 -0.045266807 -0.42270103 -0.15935017
000130 96 41 9e 3f 15 eb b5 3e 82 93 a6 3e 8c aa 31 3d
       1.2363765 0.35530916 0.32534415 0.043375537
000140 df d0 1c bf 66 d8 e7 be f6 0c 29 3e 2e 7e 58 3e
       -0.6125621 -0.45282286 0.1650885 0.21141884

fc3.0.weight f4 [10, 84]
000000 18 21 e9 bc 8a cd a4 3c 86 14 2d be d9 fc c7 bc
       -0.028458163 0.02011754 -0.1690236 -0.02441256
000010 ea 02 28 3e ff 6e 91 3e b8 ec e8 3d 6c 5b 61 be
       0.16407362 0.28404996 0.113732755 -0.22007531
000020 49 8d 11 be 8a f0 4a bb 7c 59 32 3e 98 bc 8a be
       -0.14214052 -0.0030966126 0.17416948 -0.2709701
000030 f1 20 4a be f9 8a 35 be 06 62 b7 bc b1 ba a0 3d
       -0.19739129 -0.17728795 -0.022385608 0.078481086
000040 de 52 a7 be ec 4e 39 3e 48 9b af 3d 3c e2 d0 be
       -0.3268041 0.18096513 0.085745394 -0.40797603
000050 08 86 e6 be 2b b8 38 3e 6a 30 4d 3e 13 1f 03 3e
       -0.45024133 0.18039005 0.20038 0.12804823
000060 50 f9 8a 3e 2f 1f a3 be 8d 57 e1 bd 67 46 27 3e
       0.27143335 -0.3185973 -0.11003027 0.1633545
000070 5c 55 04 3e 81 0d 0d 3e 59 d7 29 3e f9 bc 81 bd
       0.12923187 0.13774683 0.16586055 -0.06334872
000080 8e e9 a1 bd a9 05 9e be e1 7e b6 3e f7 bf e5 3e
       -0.07905875 -0.30863693 0.35643676 0.4487302
000090 84 91 11 be 77 01 40 be 51 eb ae 3e 15 91 8a 3e
       -0.14215666 -0.18750559 0.34163907 0.27063814
0000a0 31 4d cb bd 63 50 53 bd c2 8b 20 be d4 59 4d be
       -0.099268325 -0.051590335 -0.15678313 -0.20053798
0000b0 56 0d fa bd 71 1f a7 be c5 4d f1 bd 9b 49 59 3e
       -0.12209575 -0.32641175 -0.117824115 0.21219485
0000c0 e3 4d af bd d9 8c 0a 3e fa 73 8c bd 18 6e 80 3e
       -0.085597776 0.13530292 -0.06858058 0.25083995
0000d0 c1 77 7f 3e 99 59 6b 3e e2 d3 37 3e 2e f2 19 bd
       0.24948026 0.22983398 0.1795192 -0.037584476
0000e0 0c e5 ab 3e d0 eb 92 bd fd 72 35 be 7c c9 73 bc
       0.33573186 -0.07173884 -0.17719646 -0.014879581
0000f0 ff b9 31 be 7d 65 8e bd 95 8c d6 3d b4 79 a0 bd
       -0.17356108 -0.06952951 0.10476033 -0.07835713
000100 62 6e 88 bd 5a 51 5a 3e 9c 82 3f 3e 52 28 84 3c
       -0.06661679 0.21320096 0.18702167 0.016132507
000110 ae a3 89 3e fb 45 80 bc 91 49 b7 3e f5 13 80 3e
       0.2688269 -0.01565837 0.35798314 0.25015226
000120 b8 b2 ba bc 39 8b 43 3e 51 b5 56 3d 59 27 7f bd
       -0.022790298 0.19096078 0.05241901 -0.062293384
000130 a1 a8 5b 3d 51 7a 13 3d ab c0 e0 3a 12 61 57 3e
       0.053627614 0.036005322 0.0017147263 0.21033123
000140 55 6e a6 be a1 56 9a 3d 3d e9 34 be 49 d6 c3 3d
       -0.32506052 0.075360544 -0.17667098 0.09562356
000150 00 09 67 bd 2a 47 7a be e3 69 27 be f0 a7 a4 3e
       -0.056405067 -0.2444121 -0.16348986 0.32159376
000160 dc 1f 5a bd 0a 0f 06 be 8f 2c fa 3d f5 f4 82 bd
       -0.05325304 -0.13091674 0.1221553 -0.06394378
000170 ac 02 2d 3e 97 22 be be e3 15 b1 3e e9 07 9f bd
       0.1689555 -0.37135765 0.3458701 -0.077651806
000180 39 fe 85 be 35 69 2b 3e 40 fb 87 be 94 66 d7 bd
       -0.2617052 0.16739352 -0.26558876 -0.10517612
000190 2f bf 60 be 20 0d 47 3c 6e 91 54 bd 17 43 1a be
       -0.21947931 0.012149125 -0.051896505 -0.15064655
0001a0 62 49 32 be 1e 5d 8a bd 77 94 02 3e b6 a6 ee bc
       -0.17410806 -0.06756042 0.12751947 -0.029132228
0001b0 d1 26 f7 3d 56 ab 70 be 27 2b 16 3e 8c ef 1e 3e
       0.120679505 -0.2350286 0.14664899 0.15521067
0001c0 1e e9 85 be 81 b0 6f bd b3 62 75 3e 7a 12 76 3e
       -0.26154417 -0.058517937 0.23963432 0.24030486
0001d0 01 6f c7 bd 63 fe 9b bc dc 7f 58 3e 31 8a b2 3e
       -0.09737969 -0.0190422 0.21142524 0.34871057
0001e0 bb 07 36 3e 18 e7 22 bc 42 43 04 3e 01 0d 04 be
       0.17776386 -0.009942792 0.12916282 -0.12895586
0001f0 ba 1f 03 3e 7e 1c 10 3e b0 67 83 3e cb a0 4e 3e
       0.12805071 0.14073369 0.25665045 0.20178525
000200 15 d1 e3 bd 97 f1 30 3c cc d8 64 be 89 04 15 3e
       -0.111238636 0.010799787 -0.22348326 0.14552511
000210 26 1f c3 bd 71 18 87 3d 22 14 39 be 2c 03 de 3d
       -0.095274255 0.06596459 -0.18074086 0.10840449
000220 99 bb c9 bd f4 ea 26 3d 22 21 c2 bd 55 a2 42 bd
       -0.098502345 0.040751413 -0.09478976 -0.047518093
000230 a5 7a 9f bc 86 64 58 3e a8 a9 2d be 5c be 55 3d
       -0.019467661 0.21132097 -0.1695925 0.052183494
000240 31 cd 0a be 50 81 88 3c 31 b5 59 be 50 c8 20 3d
       -0.13554837 0.016663224 -0.21260525 0.039253533
000250 d5 a9 00 be 1f f7 fe bd e0 bf 1f 3d 75 c6 29 bd
       -0.12564786 -0.12449478 0.039001346 -0.04144903
000260 57 29 f2 bd e9 6e a8 bd 51 ef 1a be f9 03 fa bd
       -0.11824291 -0.082242794 -0.15130354 -0.12207789
000270 57 4c 20 be f7 c6 3a 3d 0d 1e 92 be 8c 99 c2 be
       -0.15654121 0.045599904 -0.28538552 -0.38007772
000280 5f d4 ad 3d 5b 59 73 3e 43 9f f7 3d fc 1a 3c 3d
       0.08487772 0.23764555 0.12090924 0.04592417
000290 45 5e cb bd 72 57 8f be f5 e2 71 3e c9 52 33 3e
       -0.0993009 -0.27996403 0.23621733 0.17512049
0002a0 7d 21 1e 3e f3 b9 22 be 1a 86 2c be a7 5b 78 bd
       0.15442462 -0.15891246 -0.1684803 -0.06063428
0002b0 5d 80 c8 bd 6b b7 39 bd b5 40 a1 3e a1 0e 20 be
       -0.09790108 -0.045340937 0.3149468 -0.1563058
0002c0 72 6c 03 3e 19 7e 7d be d1 af 16 bd b6 55 66 be
       0.12834337 -0.24755134 -0.036788765 -0.22493634
0002d0 7b 17 59 be b1 05 81 3c 0e 08 a7 3c d8 6c a3 3d
       -0.21200363 0.015749784 0.020389583 0.07979745
0002e0 b2 10 8b be 26 2c 6e 3e 82 1f e9 3c d5 c7 b1 3c
       -0.27161175 0.23259029 0.028457407 0.021701733
0002f0 f6 b7 26 3e cd c4 7a 3e 1e ef b6 bd bc 3f a0 be
       0.16281113 0.24489136 -0.08932327 -0.31298625
000300 1c 0a 6a be 2d 85 d0 bd dd 0b 6d bd 5a 8f 0d be
       -0.22855419 -0.10181651 -0.05787264 -0.13824216
000310 e2 c5 fe bd c9 ab 74 3e fc fd 51 bc 63 69 93 bd
       -0.12440087 0.23893656 -0.012816902 -0.07197835
000320 09 a4 3d be 6d 00 bc 3c 8b f7 42 bd e4 d2 2d 3d
       -0.18519606 0.022949422 -0.047599357 0.04243745
000330 d8 e8 03 be bd dc 93 be 81 3c 18 bd c2 3a 43 bd
       -0.12881792 -0.28879347 -0.037167076 -0.047663458
000340 14 fd 52 bd 6e 2e 20 be 0c a3 d4 bc 26 da b6 bd
       -0.051510885 -0.15642712 -0.025956653 -0.08928327
000350 b7 31 d6 3b a6 b2 e7 3b 21 b6 ca bc f0 bd 23 bc
       0.006536688 0.007070857 -0.024745049 -0.009994015
000360 53 f4 88 be e7 85 44 be 35 49 9d bd c4 bc 8b 3e
       -0.26748905 -0.19191705 -0.07679979 0.27292454
000370 82 a4 fa 3d 1e 69 a4 3d 6f 13 6e bd 22 3a 89 3e
       0.122384086 0.08027862 -0.058124002 0.26802164
000380 5e 31 3c 3e 4c c0 25 3e f4 8b bb 3c 3b be e9 3d
       0.18378207 0.16186637 0.022893883 0.11413237
000390 77 04 77 3e cb 42 ef bc 00 ba 98 be ca 9e 45 bd
       0.24122797 -0.029206654 -0.29829407 -0.048247136
0003a0 f8 13 90 be 38 35 2e bd fd 43 45 be 17 a6 60 3e
       -0.28140235 -0.042531222 -0.19264217 0.21938358
0003b0 41 aa a7 3d e2 f7 91 3e d3 99 45 3d 60 0f ac 3c
       0.0818677 0.28509432 0.0482424 0.021003425
0003c0 9a a2 5d be 82 90 4a bd a7 83 9c be 08 49 88 be
       -0.21644059 -0.04945422 -0.30569193 -0.26618218
0003d0 c0 79 58 3e d8 c4 96 3e a3 e9 32 be b8 34 12 be
       0.21140194 0.29447055 -0.17471938 -0.14277923
0003e0 a5 44 54 be 79 2e 16 be 92 9f bc bd 2a 17 62 3e
       -0.20729311 -0.14666165 -0.09210123 0.22079149
0003f0 5a a4 7d 3e e0 04 20 3e ed 13 3b 3d c7 3d ba bd
       0.24769726 0.1562686 0.0456733 -0.09093814

fc3.0.bias f4 [10]
000000 8c 9f 64 bf 3e 35 85 bd a1 b5 c2 3d b0 68 2e bf
       -0.8930595 -0.06504296 0.09507299 -0.6812849
000010 ad a7 8d 3c 38 3f 85 3d a4 77 49 bf 54 60 93 3e
       0.017291868 0.06506199 -0.7869818 0.2878443
000020 bd 19 8f 3e 46 fc 93 bc
       0.27949324 -0.01806463
