save_checkpoints/LeNet5_epoch_93.pth (torch, 249863 bytes, 10 tensors)

conv1.0.weight f4 [6, 1, 5, 5]
-0.018847087 -0.0137049835 -0.027366847 0.009657 -0.026592677 0.042915612 -0.15101258 -0.018358715
0.08803622 -0.15487309 0.14342721 -0.091745965 -0.109417774 -0.118154645 0.29838887 0.37592736
0.30760217 0.5025268 0.16444716 0.011705938 -0.3014051 -0.081892446 -0.27910444 -0.06878046
-0.037117455 -0.10404804 -0.073413536 -0.09099929 -0.11070601 0.1986691 -0.02753617 -0.06177131
0.11862925 0.36821496 0.10561023 0.032864746 0.14897451 0.10573443 0.035811666 -0.010340734
-0.45025393 0.053701058 0.23172095 -0.042941462 -0.32230607 -0.35138202 0.1141995 -0.14925788
0.09975483 -0.09829929 -0.045040987 -0.01821892 0.142313 0.038773585 0.0069358354 0.066860415
0.011236602 0.00811702 0.034055747 0.08929315 0.21657944 0.32258746 -0.0136684375 0.081478246
-0.07557833 -0.13747488 -0.3772943 -0.19605972 -0.25146824 0.20592244 -0.48400006 -0.13230918
-0.18472281 -0.1746515 -0.35789463 -0.038314078 0.036254626 -0.1667553 0.010056106 -0.27775973
-0.059159543 -0.13131055 -0.12244134 -0.09476125 -0.21331015 -0.07191874 -0.17567116 -0.23959184
0.11047531 -0.20345457 0.13873674 0.06198051 0.21941873 -0.056096863 0.364968 0.09255066
0.20641986 0.22690707 0.04942079 -0.025738467 -0.010537636 0.08491849 0.0816607 0.21641852
-0.25013563 -0.04458673 0.16433665 0.2596824 0.09672475 0.11958954 -0.24125941 0.38950884
0.13685401 -0.12915416 0.105584174 0.041807164 0.28353065 -0.05349559 -0.09740136 -0.039668426
0.070125975 -0.012206764 0.0663782 -0.10894134 -0.32665506 0.1283427 0.195875 -0.019102037
0.14109603 -0.012365911 -0.024254411 0.00261037 0.21400683 0.10280068 -0.011090911 0.055361792
0.1510843 0.016130034 -0.05971848 -0.20102748 0.023918318 -0.058803506 0.0044087833 -0.47126564
-0.238792 -0.08953273 -0.042652138 -0.34888375 -0.08702078 0.211592
00000000: 3565 9abc de8a 60bc 7030 e0bc 6538 1e3c
00000010: e3d8 d9bc 48c8 2f3d 0ba3 1abe 0465 96bc
00000020: 554c b43d 0d97 1ebe 95de 123e 4fe5 bbbd
00000030: 6d16 e0bd 10fb f1bd 6dc6 983e 8d79 c03e
00000040: 087e 9d3e 99a5 003f d664 283e 43ca 3f3c
00000050: c551 9abe 3ab7 a7bd c7e6 8ebe c5dc 8cbd
00000060: 7908 18bd 2417 d5bd d659 96bd d65d babd
00000070: d5b9 e2bd ea6f 4b3e 8993 e1bc ea03 7dbd
00000080: e4f3 f23d ac86 bc3e 2d4a d83d 2f9d 063d
00000090: c68c 183e 4b8b d83d 41af 123d 2f6c 29bc
000000a0: af87 e6be a4f5 5b3d 4248 6d3e 63e3 2fbd
000000b0: 4d05 a5be 58e8 b3be 6de1 e93d 0fd7 18be
000000c0: 434c cc3d 2351 c9bd e67c 38bd d83f 95bc
000000d0: 80ba 113e 0dd1 1e3d 0146 e33b 1dee 883d
000000e0: ba19 383c 40fd 043c 0a7e 0b3d 54df b63d
000000f0: 00c7 5d3e 2f2a a53e 95f1 5fbc 11de a63d
00000100: d0c8 9abd 37c6 0cbe b82c c1be e1c3 48be
00000110: 72c0 80be 55dd 523e dbce f7be 0f7c 07be
00000120: fa27 3dbe d8d7 32be f73d b7be 39ef 1cbd
00000130: bb7f 143d e7c1 2abe 5ec2 243c 8636 8ebe
00000140: 4751 72bd 4676 06be 86c2 fabd 3012 c2bd
00000150: fa6d 5abe 224a 93bd 24e3 33be 9057 75be
00000160: e140 e23d 6556 50be 0111 0e3e 46df 7d3d
00000170: 4eaf 603e d3c5 65bd 16dd ba3e 338b bd3d
00000180: ba5f 533e 545a 683e 746d 4a3d 7ad9 d2bc
00000190: 0ca6 2cbc bfe9 ad3d ba3d a73d d19c 5d3e
000001a0: c711 80be 93a0 36bd de47 283e 17f5 843e
000001b0: a017 c63d 5ceb f43d b50c 77be b46d c73e
000001c0: 7523 0c3e fd40 04be 843c d83d fd3d 2b3d
000001d0: ee2a 913e 311e 5bbd 5d7a c7bd 5c7b 22bd
000001e0: 359e 8f3d e1fe 47bc 4bf1 873d a31c dfbd
000001f0: 553f a7be 456c 033e 7593 483e e07b 9cbc
00000200: 7a7b 103e 649a 4abc 30b1 c6bc be12 2b3b
00000210: 9b24 5b3e 2a89 d23d a7b6 35bc 0cc3 623d
00000220: d8b5 1a3e 2223 843c 5d9b 74bd 26da 4dbe
00000230: 59f0 c33c f2db 70bd 8e77 903b bb49 f1be
00000240: e485 74be f05c b7bd 02b4 2ebd e4a0 b2be
00000250: f337 b2bd 93ab 583e

conv1.0.bias f4 [6]
-0.026927693 -0.10227267 -0.018742774 -0.04965688 -0.31789437 -0.23081413
00000000: 7797 dcbc 5574 d1bd 728a 99bc 0365 4bbd
00000010: 0dc3 a2be 8a5a 6cbe

conv2.0.weight f4 [16, 6, 5, 5]
0.122316346 -0.0012540978 -0.0021696838 -0.061503902 -0.11291113 0.00664493 0.07740405 0.087018766
-0.022729136 -0.14370653 -0.15701278 -0.10050366 -0.034841083 -0.027130406 -0.06635681 -0.030645087
-0.10292099 -0.057055745 -0.021207953 -0.09411144 0.07656556 -0.059899203 -0.021875905 -0.06316401
-0.03832094 -0.06442127 -0.16888294 -0.13130432 -0.0670142 0.00078754895 0.04387052 0.022333711
-0.04502581 -0.05764174 -0.022595143 0.07587618 0.19185162 0.09945821 0.03320357 -0.039958384
-0.06796866 0.045569554 0.02880382 0.06991618 0.029161125 -0.04608957 -0.027210148 0.025156252
0.012407543 0.024388775 0.017104859 -0.09976967 -0.10529786 -0.037210856 0.11273476 0.111413814
0.05667279 -0.13160346 -0.26096317 -0.079398565 0.09017444 0.19808298 0.06764403 -0.06618677
-0.086740226 -0.13829762 -0.06491011 0.04114573 0.026280183 0.052087706 2.1505522e-05 -0.04203624
0.0046194247 0.03358933 0.011153748 0.02928566 0.06719353 0.13395223 0.010842171 -0.041469887
-0.14798796 -0.066798724 0.022893274 0.19739977 0.10091848 -0.14222893 -0.19263408 -0.11340869
-0.011000763 0.009347293 0.026600135 -0.04539133 -0.05480448 -0.082404 -0.04176204 0.10804533
0.0028718365 -0.108140096 -0.14348264 -0.064571224 -0.022049524 0.037579045 -0.011187599 0.022245096
-0.04555024 0.053197056 0.0919755 0.036074013 0.07399058 -0.07816917 0.02705471 0.03739529
0.022516718 0.07978362 0.0093089435 -0.10145568 -0.08837578 -0.1207179 -0.060908377 0.007149285
-0.006502355 -0.101279505 -0.11196671 -0.08080088 -0.06826146 -0.13251261 -0.13997327 -0.14102915
0.014432591 0.065898225 -0.15112399 -0.32418498 -0.37498078 -0.30859727 -0.14835304 0.07391326
0.022503935 -0.10613206 -0.22998212 -0.1256588 0.014672454 0.052825138 0.041803926 -0.023440605
-0.03614696 0.01002884 0.0044888835 0.086716376 -0.006581756 0.012977542 -0.040599708 -0.022730418
-0.15312923 -0.08935565 -0.1896483 0.054604493 -0.02530993 -0.086157516 -0.31907478 -0.26979464
0.052268818 0.047857236 -0.13547657 -0.10534365 -0.12787624 0.018795831 0.04069553 0.032820888
-0.112347014 0.0010765505 -0.030079477 -0.05735011 -0.1169379 -0.07808787 -0.113224655 -0.13987564
-0.084632665 -0.048695292 -0.116677165 -0.11173033 -0.0958394 0.13980283 0.14721835 -0.057163022
0.05435077 0.027078032 -0.08650888 -0.19230331 -0.1068142 0.05146265 -0.03736999 -0.068696894
0.08241506 0.14104205 0.11775006 0.145761 0.071923316 0.07308831 0.109757446 0.024107995
-0.032617442 -0.068224624 -0.080296665 0.13934824 0.055121556 0.10584922 -0.11220146 -0.114499055
0.015555959 0.07752378 0.008597452 0.05438525 -0.1759616 -0.27996054 -0.19107746 -0.20503771
0.016971026 -0.083426215 -0.023773974 0.049564395 0.10974333 0.018649112 0.068749815 -0.021490868
-0.0188777 0.015056666 0.061338224 0.03651626 -0.087168016 0.041148167 -0.025601821 0.13844499
0.008992057 0.058543086 0.08368381 0.057721302 0.10479388 0.24044506 0.19739777 0.24683213
0.11462087 0.03910348 0.123870045 0.047428317 -0.006811341 -0.046346564 -0.11744084 -0.24950181
-0.08682376 -0.017798817 -0.027451562 -0.18992063 -0.029103098 0.005305017 -0.11205794 0.061326623
00000000: fe80 fa3d 8a60 a4ba 4131 0ebb 84eb 7bbd
00000010: f33d e7bd b7bd d93b 0486 9e3d e536 b23d
00000020: 7432 babc ce27 13be f5c7 20be ddd4 cdbd
00000030: 86b5 0ebd 9640 debc 14e6 87bd 680b fbbc
00000040: 3dc8 d2bd 49b3 69bd 4dbc adbc 80bd c0bd
00000050: 68ce 9c3d de58 75bd 1935 b3bc 225c 81bd
00000060: 6bf6 1cbd 4cef 83bd a6ef 2cbe a474 06be
00000070: be3e 89bd 8473 4e3a 93b1 333d 30f5 b63c
00000080: fc6c 38bd bf19 6cbd 7319 b9bc f864 9b3d
00000090: c074 443e bfb0 cb3d 7700 083d 67ab 23bd
000000a0: 2733 8bbd 24a7 3a3d fdf5 eb3c 3730 8f3d
000000b0: 50e3 ee3c 6bc8 3cbd d1e7 debc 7c14 ce3c
000000c0: 0249 4b3c f8ca c73c 7d1f 8c3c 0a54 ccbd
000000d0: 68a6 d7bd 696a 18bd 7be1 e63d ed2c e43d
000000e0: ba21 683d 0fc3 06be f79c 85be b79b a2bd
000000f0: 60ad b83d 44d6 4a3e f488 8a3d ee8c 87bd
00000100: dca4 b1bd e49d 0dbe 97ef 84bd 6d88 283d
00000110: 8a49 d73c eb59 553d c266 b437 312e 2cbd
00000120: 8b5e 973b f794 093d 36be 363c 7be8 ef3c
00000130: c39c 893d c62a 093e 5ca3 313c 54dc 29bd
00000140: 288a 17be c5cd 88bd ad8a bb3c 2a23 4a3e
00000150: 59ae ce3d 76a4 11be de41 45be d142 e8bd
00000160: 8b3c 34bc 6325 193c 87e8 d93c 42ec 39bd
00000170: aa7a 60bd 6ec3 a8bd ac0e 2bbd df46 dd3d
00000180: 6c35 3c3b 8e78 ddbd 1ded 12be eb3d 84bd
00000190: 34a1 b4bc 7cec 193d 314c 37bc 593b b63c
000001a0: e392 3abd 28e5 593d a75d bc3d 58c2 133d
000001b0: 6088 973d 2817 a0bd d7a1 dd3c ce2b 193d
000001c0: fb74 b83c 9865 a33d 8a84 183c ffc7 cfbd
000001d0: 5cfe b4bd f23a f7bd 107b 79bd 8d44 ea3b
000001e0: b511 d5bb a16b cfbd cd4e e5bd ef7a a5bd
000001f0: aacc 8bbd 63b1 07be 2755 0fbe f269 10be
00000200: ad76 6c3c a6f5 863d 3fc0 1abe 93fb a5be
00000210: 7bfd bfbe 7600 9ebe dce9 17be d65f 973d
00000220: 2c5a b83c c45b d9bd 6f80 6bbe b3ac 00be
00000230: bc64 703c 2c5f 583d 983a 2b3d 8306 c0bc
00000240: d60e 14bd 0150 243c 7c17 933b 5b98 b13d
00000250: c5ab d7bb c29f 543c e14b 26bd 2435 babc
00000260: e9cd 1cbe 1800 b7bd 2a33 42be f6a8 5f3d
00000270: c556 cfbc 5a73 b0bd c55d a3be 8622 8abe
00000280: d417 563d f305 443d 5fba 0abe 69be d7bd
00000290: fdf1 02be b7f9 993c 5bb0 263d 326f 063d
000002a0: 3116 e6bd 0a1b 8d3a 3c69 f6bc f3e7 6abd
000002b0: 237d efbd 88ec 9fbd 54e2 e7bd 8f3b 0fbe
000002c0: e453 adbd b774 47bd 70f4 eebd dfd2 e4bd
000002d0: 7347 c4bd 7928 0f3e 68c0 163e c623 6abd
000002e0: ea9e 5e3d c0d2 dd3c 912b b1bd 29eb 44be
000002f0: 67c1 dabd 80ca 523d 4611 19bd f5b0 8cbd
00000300: 3ac9 a83d 546d 103e f226 f13d 5f42 153e
00000310: 884c 933d 53af 953d 83c8 e03d 217e c53c
00000320: de99 05bd 5ab9 8bbd 9472 a4bd 4eb1 0e3e
00000330: 24c7 613d 7ac7 d83d e1c9 e5bd 7b7e eabd
00000340: 6cde 7e3c cac4 9e3d 54dc 0c3c 11c3 5e3d
00000350: 472f 34be fd56 8fbe cfa9 43be 68f5 51be
00000360: d206 8b3c 5ddb aabd a3c1 c2bc 0904 4b3d
00000370: 1cc1 e03d 06c6 983c b4cc 8c3d 9e0d b0bc
00000380: 68a5 9abc 3cb0 763c ca3d 7b3d 1392 153d
00000390: 2585 b2bd fb8a 283d e9ba d1bc 86c4 0d3e
000003a0: 6c53 133c e0ca 6f3d 6b62 ab3d 2c6d 6c3d
000003b0: 2c9e d63d 3b37 763e a422 4a3e 90c1 7c3e
000003c0: 59be ea3d f82a 203d 94af fd3d 3244 423d
000003d0: ab31 dfbb e5d5 3dbd d384 f0bd 677d 7fbe
000003e0: a8d0 b1bd d3ce 91bc 19e2 e0bc 8e7a 42be
000003f0: 9f69 eebc b5d5 ad3b a27e e5bd a031 7b3d

conv2.0.bias f4 [16]
-0.8863149 -0.83104825 -1.038063 -0.68599445 -1.3163216 -0.9097499 -1.5496806 -0.9585845
-0.8197568 -0.63554406 -1.0669737 -0.42195445 -0.41919708 -0.62064767 -0.5719388 -0.9657752
00000000: 89e5 62bf 94bf 54bf 40df 84bf 559d 2fbf
00000010: 3a7d a8bf 5fe5 68bf ef5b c6bf cb65 75bf
00000020: 95db 51bf 04b3 22bf 9892 88bf 6a0a d8be
00000030: 00a1 d6be c4e2 1ebf 956a 12bf 0b3d 77bf

fc1.0.weight f4 [120, 400]
-0.05857992 -0.119211145 0.14573863 0.121656306 0.07089781 -0.13726464 0.058640648 0.13725115
0.18237971 0.2069765 0.07474385 0.020507447 0.11605044 -0.03048003 -0.09468409 -0.004480692
0.055552825 -0.029875385 0.053572185 -0.109667405 -0.040739406 0.021147285 -0.212677 0.09083889
0.24478926 -0.026558341 -0.018230392 -0.018179448 0.008197548 0.0018480772 0.14586753 0.06204222
0.08898746 0.13237762 0.07530646 -0.017474936 0.074422106 0.08754673 -0.049108587 -0.16536026
0.10345168 0.028214129 0.07921402 0.015004118 0.2841719 0.21058254 -0.019294418 -0.13339268
-0.041008778 0.1785002 0.19351229 0.15190598 0.05117131 0.12784049 -0.024973663 0.19411841
0.07083978 -0.14483179 -0.16680199 0.23070146 0.32658792 0.13550901 -0.13100116 0.01829978
0.18026902 0.25787577 0.17388968 -0.069019355 -0.09824864 -0.24740092 0.010051335 0.12568721
0.046731394 -0.05393985 -0.07653848 0.22270972 0.09768856 0.28269646 0.40043268 0.10875788
0.2587427 0.19342886 -0.04948526 -0.058679614 0.11682229 0.41354045 0.21027708 -0.0076454044
-0.21450846 0.015382598 -0.0027223753 0.0665631 0.06364114 -0.07571944 -0.01797037 0.092307635
-0.025479 -0.07168122 0.015173382 -0.010829214 0.08847883 0.10478061 0.17723645 0.3371328
-0.13541204 0.07940819 0.2001983 0.062151108 0.04137835 0.11015343 0.025129622 -0.08653009
0.11315557 -0.028022861 -0.1379811 -0.039106596 0.21648426 0.15055786 0.008957308 -0.12595582
-0.1033479 0.11393251 0.12192944 0.12974316 0.13772586 0.06572799 0.008194329 -0.16862373
-0.41007778 -0.06770657 -0.0903868 -0.032217678 -0.07013863 -0.25451705 -0.00026908622 -0.22521517
-0.16866213 -0.048756078 -0.04240151 0.11177784 0.20297925 0.0016788153 -0.073906526 -0.049179554
0.0077769496 -0.017798595 -0.10668017 0.11949619 -0.12657484 0.018114986 -0.020025954 0.15193707
0.04667196 -0.26017264 -0.13345133 -0.15887627 0.024194727 -0.086109035 -0.29094577 -0.18505932
-0.1517145 0.23234507 -0.008611643 -0.08575434 -0.08082677 -0.0008323725 0.07214863 0.0062766033
-0.08910532 -0.12677126 -0.10982925 -0.11140025 -0.07279179 0.15632348 -0.13731177 -0.07435685
0.079329036 0.1918271 0.1053165 0.059242174 0.21354486 0.15842438 0.00616999 0.039108418
0.023877712 0.18572962 0.07374109 -0.17367463 -0.04943562 0.058898635 0.34157178 0.06685172
-0.18142271 -0.017431427 0.136589 0.33513522 0.15004441 0.114552945 -0.059716966 -0.12883902
-0.014226888 -0.025121199 -0.033588473 0.06980543 0.017028911 -0.038582075 0.13264757 0.019950533
-0.20221937 0.0013429716 0.14873292 0.09373409 -0.037777837 -0.07147924 0.24251413 0.3312656
0.11176048 -0.035861395 -0.12595972 -0.047483154 -0.04668254 0.17059803 0.12096627 0.011662322
-0.117287874 -0.1854489 -0.0112859765 -0.23898217 -0.12267954 -0.2487347 -0.048189245 -0.108629875
-0.06493307 -0.17102847 -0.025543746 -0.040319167 0.0068848715 -0.036486123 0.11808699 0.064420454
0.12594004 -0.007809666 -0.113649175 0.0061164116 -0.13616286 0.07095715 0.13685551 0.06952388
0.013672903 -0.06686 0.04270127 0.083213046 0.13021363 0.16635858 0.020892102 0.22927344
00000000: 80f1 6fbd f924 f4bd 823c 153e f126 f93d
00000010: df32 913d 1a8f 0cbe 2d31 703d 918b 0c3e
00000020: bfc1 3a3e a6f1 533e 4e13 993d 3cff a73c
00000030: daab ed3d 42b1 f9bc bbe9 c1bd c5d2 92bb
00000040: 5c8b 633d 39bd f4bc 826e 5b3d 4e99 e0bd
00000050: 5dde 26bd 123d ad3c 00c8 59be bd09 ba3d
00000060: 09aa 7a3e e190 d9bc e757 95bc 11ed 94bc
00000070: 024f 063c 2e3b f23a 4c5e 153e fc1f 7e3d
00000080: 0f3f b63d 008e 073e 463a 9a3d 9927 8fbc
00000090: 9e6a 983d b34b b33d 1626 49bd 3354 29be
000000a0: 79de d33d 5121 e73c f63a a23d d5d3 753c
000000b0: fb7e 913e f3a2 573e 540f 9ebc 1798 08be
000000c0: d2f8 27bd c2c8 363e 1628 463e 3e8d 1b3e
000000d0: 0299 513d 9ee8 023e 9195 ccbc fac6 463e
000000e0: 7214 913d c94e 14be 24ce 2abe 013d 6c3e
000000f0: 8836 a73e e0c2 0a3e 2b25 06be 6ce9 953c
00000100: 7198 383e 4b08 843e 2310 323e 055a 8dbd
00000110: 9536 c9bd ab56 7dbe 5bae 243c 26b4 003e
00000120: 6b69 3f3d 08f0 5cbd 35c0 9cbd 040e 643e
00000130: f110 c83d 97bd 903e 8305 cd3e 74bc de3d
00000140: ec79 843e 3712 463e 0eb1 4abd 095a 70bd
00000150: 8640 ef3d 93bb d33e e052 573e 4d86 fabb
00000160: 1ba8 5bbe 4b07 7c3c e169 32bb 3c52 883d
00000170: 4956 823d cb12 9bbd 9936 93bc c90b bd3d
00000180: 56b9 d0bc 9acd 92bd c799 783c 046d 31bc
00000190: 6434 b53d 3797 d63d 797d 353e ac9c ac3e
000001a0: 74a9 0abe c3a0 a23d c800 4d3e 2992 7e3d
000001b0: 587c 293d 1f98 e13d a3dc cd3c b036 b1bd
000001c0: 1cbe e73d 3390 e5bc eb4a 0dbe 3d2e 20bd
000001d0: 0dae 5d3e d72b 1a3e acc1 123c 90fa 00be
000001e0: 10a8 d3bd 7355 e93d 24b6 f93d 64db 043e
000001f0: 0208 0d3e 659c 863d 8241 063c b3ab 2cbe
00000200: b7f5 d1be bea9 8abd b71c b9bd aff6 03bd
00000210: d8a4 8fbd 0f50 82be 2414 8db9 ce9e 66be
00000220: c4b5 2cbe 74b4 47bd 35ad 2dbd c8eb e43d
00000230: cbd9 4f3e b20b dc3a 4e5c 97bd 8070 49bd
00000240: c8d5 fe3b 5cce 91bc 227b dabd 6bba f43d
00000250: d69c 01be e165 943c 780d a4bc 6495 1b3e
00000260: 192b 3f3d 5935 85be 77a7 08be 76b0 22be
00000270: 0534 c63c ef59 b0bd d8f6 94be 3180 3dbe
00000280: 0c5b 1bbe deeb 6d3e d917 0dbc f99f afbd
00000290: 8188 a5bd 9333 5aba a9c2 933d f7ab cd3b
000002a0: da7c b6bd 53d0 01be 28ee e0bd d025 e4bd
000002b0: dd13 95bd 4313 203e 759b 0cbe 6748 98bd
000002c0: 4377 a23d 536e 443e 2db0 d73d eca7 723d
000002d0: 81ab 5a3e 003a 223e a12d ca3b 2630 203d
000002e0: 319b c33c e82f 3e3e 9205 973d c3d7 31be
000002f0: 017d 4abd b23f 713d 7fe2 ae3e 8ee9 883d
00000300: e0c6 39be 5acc 8ebc fddd 0b3e d896 ab3e
00000310: 3ea5 193e bc9a ea3d c799 74bd 60ee 03be
00000320: e517 69bc f9ca cdbc 1194 09bd 26f6 8e3d
00000330: 3780 8b3c 3d08 1ebd c4d4 073e 4d6f a33c
00000340: 9812 4fbe a606 b03a 714d 183e a9f7 bf3d
00000350: efbc 1abd b563 92bd a055 783e a59b a93e
00000360: aee2 e43d 66e3 12bd 96fb 00be b27d 42bd
00000370: 3136 3fbd 40b1 2e3e 2abd f73d 5313 3f3c
00000380: a034 f0bd 51e6 3dbe d1e8 38bc beb7 74be
00000390: 693f fbbd 4fb4 7ebe 1662 45bd 5779 debd
000003a0: a1fb 84bd 1622 2fbe 1e41 d1bc b625 25bd
000003b0: 7d9a e13b 7972 15bd 98d7 f13d dfee 833d
000003c0: 6df6 003e 3ae8 ffbb e6c0 e8bd 2e6c c83b
000003d0: 476e 0bbe fb51 913d da23 0c3e 8962 8e3d
000003e0: 5004 603c e5ed 88bd 87e7 2e3d 9a6b aa3d
000003f0: b956 053e e759 2a3e ea25 ab3c a8c6 6a3e

fc1.0.bias f4 [120]
0.24858673 0.39199242 0.37273255 -0.1597584 0.416666 -0.1982073 0.086242475 0.02106121
0.1897714 0.4403271 0.4340968 -0.0566366 -0.06618268 -0.20742527 0.0030829082 -0.45243523
-0.03078243 0.27504116 0.58465683 -0.11190281 0.5941581 -0.0773946 0.2997408 -0.37298948
0.14183967 0.43573236 0.41900125 -0.5221306 -0.64035 0.3758602 -0.11247131 -0.56187147
0.036606435 -0.1402345 0.39481172 -0.39881322 -0.2277141 0.3944851 0.4379426 0.11318663
0.1795557 -0.10560653 -0.22353864 -0.015387941 0.20681217 -0.014516091 0.5398868 0.08409906
0.2649262 -0.31895903 -0.048431195 -0.1528782 -0.17963092 0.015091577 -0.060556322 -0.064119056
0.1552875 -0.6272543 0.3757618 -0.16709559 -0.36265215 0.118381135 -0.24307735 -0.16966234
-0.21150951 -0.037474502 -0.4949025 -0.17012456 0.095122844 0.19098666 0.15364894 -0.19327065
0.37207595 0.5506014 -0.23783877 0.084314965 -0.54804873 -0.08972858 -0.27292782 0.21051788
0.38160437 -0.020939022 0.25380316 0.29620084 -0.1867545 -0.47991768 0.41652033 0.0034805108
-0.21694584 -0.6039069 -0.09890381 -0.13857484 0.1528914 -0.12915932 0.19024791 0.21575136
0.58865196 0.022940028 -0.37823203 -0.2945032 0.26933524 0.21520802 -0.28803113 0.037131295
0.38015023 -0.19434768 0.3248299 0.24408899 -0.0845489 -0.022907097 0.24041748 -0.13189572
-0.023597317 0.19382238 0.07143873 -0.6241516 0.31411374 -0.3625831 -0.2792815 0.39928365
00000000: 858d 7e3e 3bb3 c83e cdd6 be3e b597 23be
00000010: 3f55 d53e dbf6 4abe e59f b03d 8f88 ac3c
00000020: 6f53 423e 8e72 e13e f041 de3e c8fb 67bd
00000030: c98a 87bd 4a67 54be 9e0a 4a3b 97a5 e7be
00000040: 6f2b fcbc 32d2 8c3e 12ac 153f 4d2d e5bd
00000050: bf1a 183f 0f81 9ebd a077 993e 7af8 bebe
00000060: 6b3e 113e 5018 df3e 5587 d63e 5aaa 05bf
00000070: faed 23bf c070 c03e 5c57 e6bd cfd6 0fbf
00000080: a1f0 153d a299 0fbe c324 ca3e 3f31 ccbe
00000090: e32d 69be f3f9 c93e 033a e03e 64ce e73d
000000a0: 73dd 373e 3d48 d8bd 50e7 64be b41d 7cbc
000000b0: 92c6 533e e6d4 6dbc 0536 0a3f 213c ac3d
000000c0: 68a4 873e 994e a3be ca5f 46bd 1a8c 1cbe
000000d0: 2bf1 37be a942 773c e809 78bd da50 83bd
000000e0: b003 1f3e bd93 20bf da63 c03e 1b1b 2bbe
000000f0: 8bad b9be cf71 f23d 45e9 78be f7bb 2dbe
00000100: f395 58be dd7e 19bd dc63 fdbe 2235 2ebe
00000110: c4cf c23d 0292 433e 2656 1d3e bee8 45be
00000120: bd80 be3e 37f4 0c3f 028c 73be 53ad ac3d
00000130: ec4c 0cbf 9ec3 b7bd 32bd 8bbe 0092 573e
00000140: a661 c33e 5088 abbc 7df2 813e a3a7 973e
00000150: 923c 3fbe c5b7 f5be 2742 d53e 4819 643b
00000160: 0d27 5ebe a599 1abf 158e cabd 90e6 0dbe
00000170: 908f 1c3e 5742 04be 59d0 423e eded 5c3e
00000180: e5b1 163f baec bb3c a1a7 c1be 20c9 96be
00000190: 4fe6 893e 7e5f 5c3e d178 93be fc16 183d
000001a0: 0da3 c23e 1403 47be 1b50 a63e 77f2 793e
000001b0: f927 adbd aaa7 bbbc 0030 763e ac0f 07be
000001c0: 294f c1bc 6079 463e 784e 923d 66c8 1fbf
000001d0: 84d3 a03e 7ea4 b9be fcfd 8ebe e86e cc3e

fc2.0.weight f4 [84, 120]
0.047279958 0.077629946 -0.122213125 0.10633785 -0.038103346 -0.28250843 -0.09334728 0.13029887
-0.34635764 0.0860617 -0.122329496 0.20276545 0.089537695 0.17370032 -0.2085363 0.055540804
-0.07485896 0.04266905 -0.1522362 -0.057264663 0.13568316 0.098209314 0.0927689 0.054747444
-0.15331402 -0.031324312 -0.13596226 -0.05846298 -0.058067437 0.09545371 -0.12797935 0.18580312
0.17846999 0.07183864 0.17540325 -0.10005444 -0.09138397 -0.13587564 -0.07581639 -0.26119217
-0.000598107 -0.010715898 -0.081003614 0.07724281 -0.12033123 0.10970901 -0.014568443 -0.20250063
0.2289422 0.050897036 -0.24837022 0.0062489156 0.15886359 0.2905948 0.14512323 -0.25138524
-0.046095043 0.09287501 -0.06482763 -0.06298155 0.10353713 0.036036897 -0.17836276 0.10650441
-0.008574899 -0.17288552 0.086759746 0.19242948 -0.06603123 0.096718036 0.02048957 0.03521631
0.06226629 0.004303889 0.10623874 -0.03963831 -0.047076896 0.075669624 0.0667751 0.03569594
0.08568956 0.2797402 -0.19926916 -0.17275131 0.15041456 0.12990631 0.115293846 -0.027596695
0.022858677 0.25272942 0.19891939 0.06005142 0.049069352 -0.16730474 -0.090518445 0.2013188
0.04358316 -0.01770312 0.051279627 0.08518932 -0.033838812 0.0031336483 -0.16223836 0.16062784
-0.1253986 -0.07918565 0.075156 -0.063118376 0.015388464 0.072372735 -0.03181027 0.15742385
-0.04376488 0.037403177 0.11230742 0.10413625 0.020915981 0.032706857 0.026089111 -0.17566745
0.2687236 0.3190531 0.026900442 0.20665962 0.1269163 -0.20600785 -0.26123843 0.0120426845
-0.05840754 0.0019038988 0.02379723 0.23379195 -0.022476895 0.21336904 0.11106666 -0.043505114
0.08417741 0.1638771 0.19926393 -0.23935981 0.12545915 -0.24237521 0.21118672 0.02852141
0.13775092 0.17685005 0.066438705 -0.188773 0.011016569 0.074155934 -0.10469874 -0.05458476
0.10339308 -0.07126206 0.024458505 0.09630377 -0.18558706 -0.049698368 0.12184003 -0.17179574
-0.21109924 -0.014261651 -0.10485191 -0.0018597386 0.19510294 0.11619226 0.20999134 -0.09050359
0.06342698 0.109802485 0.1278885 -0.08196927 0.025373923 0.23474973 0.20109604 -0.16948478
0.11132364 0.07246239 0.07357741 0.012243166 -0.19002345 0.10232607 -0.054023895 0.06520253
-0.34183794 0.08813194 -0.13814975 -0.2783857 -0.05087297 0.11518498 0.0029020603 0.09739215
0.02026323 0.11246304 -0.10756834 -0.24240991 -0.22709805 0.12632482 -0.11354724 0.022823393
0.042659394 -0.027055321 0.029948255 0.18356693 -0.24603431 0.23042096 -0.05708309 -0.04791172
0.14191349 -0.055298902 0.01531402 0.0016356049 -0.014065033 -0.14747377 0.023107342 0.0034822894
0.16208163 -0.06655178 -0.13719359 -0.03889275 0.12961069 0.07040491 0.05999157 0.11058765
-0.30218962 -0.021150451 -0.056132436 -0.014213316 -0.06472962 0.061658803 0.041326538 -0.086981446
-0.06335491 -0.12400213 -0.008167402 -0.04102293 0.17109756 -0.03594707 0.109563604 -0.014090873
-0.021753049 0.21821201 -0.10734447 0.10099483 -0.029147657 -0.12586273 0.048237406 0.124107674
0.101959735 0.100643516 -0.111549355 -0.034088667 0.005707766 -0.13244155 -0.025183147 -0.0018733793
00000000: a1a8 413d 73fc 9e3d e04a fabd a9c7 d93d
00000010: 4112 1cbd f2a4 90be dc2c bfbd 116d 053e
00000020: ca55 b1be 1e41 b03d e387 fabd bfa1 4f3e
00000030: 8a5f b73d 7fde 313e 8a8a 55be c17e 633d
00000040: a84f 99bd bec5 2e3d cee3 1bbe 5a8e 6abd
00000050: 87f0 0a3e f721 c93d 9ffd bd3d db3e 603d
00000060: 5afe 1cbe ec4d 00bd b139 0bbe e176 6fbd
00000070: 1fd8 6dbd 3c7d c33d 050d 03be 2c43 3e3e
00000080: d6c0 363e 2320 933d e99c 333e 58e9 ccbd
00000090: 8527 bbbd fc22 0bbe a045 9bbd fbba 85be
000000a0: 48ca 1cba bc91 2fbc 39e5 a5bd 7a31 9e3d
000000b0: 3870 f6bd 1eaf e03d 7bb0 6ebc 535c 4fbe
000000c0: d36f 6a3e 6979 503d c354 7ebe b4c3 cc3b
000000d0: 23ad 223e d7c8 943e 2f9b 143e 91b5 80be
000000e0: 28ce 3cbd 4135 be3d 59c4 84bd 79fc 80bd
000000f0: 460b d43d 6d9b 133d baa4 36be fc1e da3d
00000100: bc7d 0cbc e708 31be 18af b13d 3c0c 453e
00000110: 623b 87bd 1b14 c63d bed9 a73c fa3e 103d
00000120: f00a 7f3d a307 8d3b b293 d93d c85b 22bd
00000130: b4d3 40bd adf8 9a3d 62c1 883d e835 123d
00000140: 027e af3d 1c3a 8f3e 370d 4cbe b8e5 30be
00000150: 4606 1a3e 2906 053e 2e1f ec3d 7712 e2bc
00000160: 1f42 bb3c c065 813e 86b1 4b3e 7af8 753d
00000170: f2fc 483d ef51 2bbe bc61 b9bd 8426 4e3e
00000180: 4184 323d 2206 91bc 960a 523d bd77 ae3d
00000190: 919a 0abd e55d 4d3b d021 26be a07b 243e
000001a0: 7e68 00be 162c a2bd 64eb 993d 3544 81bd
000001b0: e51f 7c3c 2838 943d 7c4b 02bd b833 213e
000001c0: ce42 33bd 1334 193d 6f01 e63d 6345 d53d
000001d0: fe57 ab3c a0f7 053d d5b8 d53c 2be2 33be
000001e0: 2496 893e ee5a a33e 515e dc3c 949e 533e
000001f0: 59f6 013e b9f3 52be 0bc1 85be ae4e 453c
00000200: bf3c 6fbd 3e8c f93a 69f2 c23c 2867 6f3e
00000210: 7721 b8bc 6a7d 5a3e eb76 e33d 6b32 32bd
00000220: 3565 ac3d 66cf 273e d80b 4c3e bd1a 75be
00000230: 5d78 003e 3531 78be 5541 583e bba5 e93c
00000240: 940e 0d3e 2e18 353e 0411 883d b64d 41be
00000250: d77e 343c 11df 973d 4b6c d6bd 4594 5fbd
00000260: c0bf d33d d8f1 91bd 345d c83c e93a c53d
00000270: 890a 3ebe 8490 4bbd 4487 f93d 39eb 2fbe
00000280: 662a 58be b3a9 69bc 99bc d6bd 79c2 f3ba
00000290: 11c9 473e 35f6 ed3d f807 573e f259 b9bd
000002a0: 01e6 813d 20e0 e03d 34f5 023e 81df a7bd
000002b0: f9dc cf3c 3c62 703e 1fec 4d3e 6b8d 2dbe
000002c0: a6fd e33d 2967 943d c1af 963d 8f97 483c
000002d0: 8295 42be 5590 d13d 2948 5dbd e788 853d
000002e0: 6205 afbe 857e b43d 2177 0dbe 9288 8ebe
000002f0: 2d60 50bd 1ae6 eb3d 7e30 3e3b 8975 c73d
00000300: 13ff a53c 0653 e63d ca4c dcbd 4e3a 78be
00000310: 648c 68be 4b5b 013e 758b e8bd 20f8 ba3c
00000320: 9ebb 2e3d 1fa3 ddbc 0b56 f53c f8f8 3b3e
00000330: 6bf0 7bbe 79f3 6b3e f5cf 69bd 143f 44bd
00000340: c551 113e 1a81 62bd a8e7 7a3c cb61 d63a
00000350: 0671 66bc 5d03 17be 9c4b bd3c 1f37 643b
00000360: baf8 253e 4d4c 88bd 7a7c 0cbe 014e 1fbd
00000370: aab8 043e 7330 903d b8b9 753d c77b e23d
00000380: 99b8 9abe b643 adbc 20eb 65bd f8de 68bc
00000390: f790 84bd f18d 7c3d 0446 293d 5423 b2bd
000003a0: 38c0 81bd d4f4 fdbd 91d0 05bc a907 28bd
000003b0: 3334 2f3e 3c3d 13bd e262 e03d 68dd 66bc
000003c0: 7333 b2bc f872 5f3e 6bd7 dbbd 61d6 ce3d
000003d0: 11c7 eebc 29e2 00be 9694 453d 2a2c fe3d
000003e0: 44d0 d03d 301e ce3d fd73 e4bd 8fa0 0bbd
000003f0: 3608 bb3b c29e 07be e34c cebc 2e8c f5ba

fc2.0.bias f4 [84]
-0.024324121 0.2131646 0.2279583 0.18315631 0.087167464 0.122825585 0.029846497 0.008103462
0.0076960996 -0.12445664 -0.25930366 0.22330372 -0.16018072 -0.18509914 0.054145206 0.06494396
-0.12848641 -0.10156911 -0.11095615 0.28242758 0.034952447 -0.33410776 -0.16543552 0.081889294
-0.057322577 0.09469823 -0.5084839 -0.089165024 0.0713819 0.09180423 -0.16175663 0.27280524
-0.5668535 0.33470047 -0.11407279 0.21547756 -0.04425231 -0.023619689 0.44247198 0.33889985
0.22279836 -0.119241536 -0.06715141 -0.1513274 0.028584374 0.11389599 0.23305978 0.30060044
-0.1596308 -0.31324285 0.07149463 -0.3826773 -0.012795286 0.12750226 0.10513691 -0.17099163
-0.16839565 -0.20987877 -0.01575992 -0.13506268 -0.009819657 -0.15503167 -0.2294864 0.09989472
0.22041802 0.06218703 -0.44427174 -0.5353218 -0.028663823 -0.25461113 -0.5457579 0.0813963
-0.305501 -0.37330574 0.15417394 0.042497423 -0.02881708 -0.0443779 -0.19934493 -0.019581357
-0.008177828 0.056320567 0.17498125 -0.17035212
00000000: 6143 c7bc d247 5a3e e76d 693e 548d 3b3e
00000010: db84 b23d fb8b fb3d a480 f43c 62c4 043c
00000020: 902f fc3b 1fe3 febd 73c3 84be bba9 643e
00000030: 6a06 24be a18a 3dbe 5dc7 5d3d 5701 853d
00000040: f191 03be 7703 d0bd fa3c e3bd 599a 903e
00000050: 4c2a 0f3d 2c10 abbe ee67 29be 93b5 a73d
00000060: 14cb 6abd 25f1 c13d 002c 02bf 279c b6bd
00000070: ac30 923d db03 bc3d 88a3 25be 21ad 8b3e
00000080: 501d 11bf dc5d ab3e ff9e e9bd 26a6 5c3e
00000090: e941 35bd 147e c1bc b08b e23e 4884 ad3e
000000a0: 4125 643e e834 f4bd ae86 89bd 92f5 1abe
000000b0: c729 ea3c 4d42 e93d 39a7 6e3e 4de8 993e
000000c0: 4276 23be 5e61 a0be c76b 923d 47ee c3be
000000d0: 52a3 51bc f48f 023e 0552 d73d 6e18 2fbe
000000e0: e96f 2cbe 76ea 56be f31a 81bc df4d 0abe
000000f0: a0e2 20bc 9fc0 1ebe 7cfe 6abe 9a95 cc3d
00000100: 43b5 613e d4b7 7e3d 9677 e3be d90a 09bf
00000110: 65d0 eabc 645c 82be cab6 0bbf 1ab3 a63d
00000120: a16a 9cbe ee21 bfbe c6df 1d3e c711 2e3d
00000130: cc11 ecbc 9ac5 35bd 1421 4cbe 1569 a0bc
00000140: 4cfc 05bc 65b0 663d 492e 333e c970 2ebe

fc3.0.weight f4 [10, 84]
0.110554054 -0.33766246 -0.13696557 0.13739184 -0.040063433 0.1777204 -0.081682086 0.1351757
0.08464899 0.3065799 0.022165386 -0.1315567 0.29700175 0.3077643 0.19865762 0.10219915
-0.12785679 -0.18845345 -0.05022881 -0.06863009 0.13322432 0.17106329 0.31887317 -0.22575799
0.30573452 -0.11124653 0.16433437 -0.07524433 0.12338116 -0.23064321 -0.19708623 0.013602751
0.32320115 -0.10050997 0.21042663 -0.13802263 0.10294797 -0.09849765 -0.0055693006 -0.22879471
0.09280883 -0.09809844 0.22206289 0.23248534 -0.17449711 0.22105189 -0.27090564 -0.22574154
-0.30952543 0.030671721 0.1331753 0.15779263 -0.024105864 0.14337853 -0.1860249 -0.16095051
0.03342733 0.16004834 -0.14531888 0.028079718 0.05591425 -0.014953839 -0.14416887 0.02005847
0.06041178 -0.18107237 -0.06894904 0.234862 0.24698573 0.2813984 0.060159765 -0.2202374
0.20971271 0.20461762 -0.21089463 -0.15945424 0.30866927 -0.025902173 0.18516268 0.095487885
0.23239894 0.18323502 -0.18385334 0.27033415 -0.17158782 0.02216431 0.2184042 -0.03726808
0.08383735 -0.13816142 -0.25389823 -0.26194078 -0.12437865 -0.17593196 -0.16938478 0.13387652
0.20715973 0.21007453 0.35762337 0.28900096 0.2412739 -0.2045753 0.18516208 0.16483176
0.15583599 -0.034559906 0.023955865 -0.31530347 0.23796102 -0.11149068 -0.04850437 0.10325769
-0.27247778 -0.112319075 0.15075599 0.015215321 0.19520219 0.15537657 -0.19281627 0.08005331
-0.22861159 0.15724015 0.032814328 0.14941789 -0.25120884 0.0016380444 0.13889231 -0.2090929
-0.08064689 0.20161483 0.118110955 -0.09930515 -0.12628505 0.16399913 0.1950019 -0.15065633
-0.24913436 0.0041290596 0.22303559 -0.122604534 0.18448153 -0.14671406 -0.014046018 0.08558978
-0.015887285 0.0696458 0.22705907 -0.26518026 0.015079656 -0.12302226 0.2078573 -0.07551588
-0.17838268 0.12608433 -0.24209113 0.114671044 -0.16791776 -0.11392299 0.184047 -0.099453636
-0.08337826 0.08476612 -0.18122733 -0.1917837 -0.20902319 0.22944267 -0.11150254 -0.10505008
-0.14151871 0.05601652 -0.0728925 -0.0034069987 -0.14957258 0.16175738 0.11593194 -0.030802857
-0.028969435 -0.14733563 -0.17486298 -0.17985351 -0.21365516 -0.21376161 -0.13996993 0.23234601
0.16075847 -0.12910329 -0.119908914 0.17887782 -0.20418197 -0.0029212132 -0.13710478 0.13039006
0.21044666 -0.2127803 -0.16850923 -0.24238285 -0.2043103 0.09741471 0.011158752 0.19328894
0.21699116 -0.030027801 -0.18174501 0.15680477 0.14437173 0.04688467 0.17445348 0.027221203
0.27575633 -0.265455 -0.22052164 0.11367455 0.17656903 0.09335826 0.020898424 0.06459463
-0.13451757 -0.17868204 0.01572114 -0.22606637 -0.1825735 0.13335127 -0.14037897 0.08202929
-0.17175737 0.10063359 0.15465967 0.06088734 0.111366145 -0.15402807 -0.07798386 0.018170211
0.18393181 -0.22372945 -0.0077177663 -0.058639653 0.15625955 -0.24907643 -0.23361659 -0.028887676
0.12679203 -0.15500501 -0.22167611 -0.13333762 0.2576671 0.32051164 0.101954855 0.17119087
-0.17037849 0.16234356 -0.07916975 -0.1872545 -0.12565735 -0.09178116 -0.12036576 0.23182955
00000000: 2a6a e23d 18e2 acbe b440 0cbe 72b0 0c3e
00000010: 8e19 24bd 56fc 353e f048 a7bd 806b 0a3e
00000020: 735c ad3d 0af8 9c3e 2f94 b53c cdb6 06be
00000030: 9d10 983e 4893 9d3e e76c 4b3e ca4d d13d
00000040: e4ec 02be f1f9 40be babc 4dbd ef8d 8cbd
00000050: f56b 083e 372b 2f3e 5843 a33e 1a2d 67be
00000060: 3c89 9c3e 39d5 e3bd 4547 283e b319 9abd
00000070: 43af fc3d bc2d 6cbe f9d0 49be 13de 5e3c
00000080: 9f7a a53e 2cd8 cdbd 147a 573e ce55 0dbe
00000090: 63d6 d23d 23b9 c9bd ae7e b6bb 2949 6abe
000000a0: 8e12 be3d d6e7 c8bd 7464 633e a310 6e3e
000000b0: 5faf 32be 6d5b 623e 25b4 8abe ca28 67be
000000c0: 1e7a 9ebe 4343 fb3c 1b5f 083e 6494 213e
000000d0: a979 c5bc d2d1 123e 507d 3ebe 36d0 24be
000000e0: 19eb 083d b6e3 233e 79ce 14be 7007 e63c
000000f0: 5706 653d f200 75bc 01a1 13be a951 a43c
00000100: 5872 773d 096b 39be 2735 8dbd aa7f 703e
00000110: d4e9 7c3e 7313 903e 166a 763d ea85 61be
00000120: eebe 563e 4887 513e c3f4 57be f947 23be
00000130: e609 9e3e cb30 d4bc 499b 3d3e 278f c33d
00000140: fdf9 6d3e f6a1 3b3e 0d44 3cbe 3d69 8a3e
00000150: b8b4 2fbe ed91 b53c 5aa5 5f3e 6aa6 18bd
00000160: ebb2 ab3d 307a 0dbe f3fe 81be 1a1d 86be
00000170: 3cba febd 8227 34be 3473 2dbe ed16 093e
00000180: ae21 543e c71d 573e 691a b73e eff7 933e
00000190: 8110 773e 307c 51be 219b 3d3e a8c9 283e
000001a0: 7893 1f3e b08e 0dbd 173f c43c 756f a1be
000001b0: 0eac 733e 3a55 e4bd 85ac 46bd c578 d33d
000001c0: 3582 8bbe 8b07 e6bd c75f 1a3e af49 793c
000001d0: 15e3 473e 091b 1f3e a171 45be fdf2 a33d
000001e0: 2819 6abe 9003 213e 5168 063d 0101 193e
000001f0: 729e 80be a6b3 d63a c939 0e3e 731c 56be
00000200: 322a a5bd 1e74 4e3e 28e4 f13d 8060 cbbd
00000210: de50 01be 63ef 273e 94ae 473e a745 1abe
00000220: 141d 7fbe 104d 873b 7163 643e 1618 fbbd
00000230: bae8 3c3e 363c 16be 4521 66bc b249 af3d
00000240: 0d26 82bc 75a2 8e3d 2c82 683e b5c5 87be
00000250: a910 773c 18f3 fbbd 8bd8 543e 12a8 9abd
00000260: f3a9 36be 401c 013e bde6 77be a7d8 ea3d
00000270: a2f2 2bbe 7550 e9bd d176 3c3e 59ae cbbd
00000280: 39c2 aabd dc99 ad3d a893 39be f262 44be
00000290: 2d0a 56be 05f3 6a3e 725b e4bd 7f24 d7bd
000002a0: 48ea 10be 9471 653d aa48 95bd f447 5fbb
000002b0: 8e29 19be baa3 253e ba6d ed3d 4656 fcbc
000002c0: 4f51 edbc 27df 16be 480f 33be 852b 38be
000002d0: 6bc8 5abe 53e4 5abe 4754 0fbe 1dec 6d3e
000002e0: de9d 243e a733 04be ce92 f5bd bf2b 373e
000002f0: 1415 51be d371 3fbb 3265 0cbe f984 053e
00000300: 547f 573e 14e3 59be af8d 2cbe 3633 78be
00000310: b836 51be 5d81 c73d 33d3 363c 89ed 453e
00000320: ee32 5e3e ddfc f5bc 5d1b 3abe 6e91 203e
00000330: 2fd6 133e 240a 403d efa3 323e 00ff de3c
00000340: ef2f 8d3e b8e9 87be 6dd0 61be 34ce e83d
00000350: 83ce 343e 9e32 bf3d 2c33 ab3c 304a 843d
00000360: f9be 09be 6df8 36be 9fc9 803c f17d 67be
00000370: 8cf4 3abe 3c8d 083e 81bf 0fbe f9fe a73d
00000380: 2ae1 2fbe fc18 ce3d 1b5f 1e3e 0165 793d
00000390: ef13 e43d 89b9 1dbe 01b6 9fbd b2d9 943c
000003a0: 9f58 3c3e 5519 65be 51e5 fcbb 2230 70bd
000003b0: 8102 203e e40d 7fbe 3039 6fbe d9a5 ecbc
000003c0: c5d5 013e a2b9 1ebe 10ff 62be a889 08be
000003d0: f1ec 833e 1a1a a43e b5cd d03d a94c 2f3e
000003e0: b377 2ebe 643d 263e c023 a2bd a5bf 3fbe
000003f0: 52ac 00be c3f7 bbbd 5382 f6bd ba64 6d3e

fc3.0.bias f4 [10]
-0.61706686 0.08769945 0.30439857 -0.28290305 -0.10061098 0.2656069 -0.5075914 0.39505574
0.15987712 0.19216774
00000000: 18f8 1dbf c59b b33d 21da 9b3e abd8 90be
00000010: 210d cebd a1fd 873e 83f1 01bf bf44 ca3e
00000020: d4b6 233e 9fc7 443e
