save_checkpoints/LeNet5_epoch_81.pth (torch, 249863 bytes, 10 tensors)

conv1.0.weight f4 [6, 1, 5, 5]
0	0xbe77aee0	-0.24187803
1	0xbd55d8f8	-0.05220887
2	0xbdde4ead	-0.1085485
3	0xbe2e63e6	-0.17030296
4	0x3ef74041	0.4829121
5	0xbf04c795	-0.5186704
6	0xbed58933	-0.41706237
7	0xbe39b9c3	-0.18137269
8	0x3df151fc	0.117832154
9	0x3ea73c6c	0.32663286
10	0xbd1c8036	-0.03820821
11	0x3d782f04	0.060591713
12	0xbd882b98	-0.0664894
13	0x3ef4c078	0.47803092
14	0x3e7e04dd	0.24806543
15	0xbe5e47d8	-0.21707094
16	0x3c943501	0.01809168
17	0x3e2952bb	0.16535465
18	0x3f40a6dd	0.75254613
19	0x3d9fbc11	0.07799543
20	0x3d33b51a	0.043873884
21	0xbd2a314e	-0.041550927
22	0x3e8755a0	0.26432514
23	0x3eabcdd5	0.33555475
24	0xbe75b1e7	-0.23993646
25	0xbcfdbc7e	-0.03097367
26	0x3ee6f4eb	0.45108733
27	0x3e9af1e9	0.30262688
28	0x3e947ef0	0.29003096
29	0xbc8a0cc8	-0.016851798
30	0xbf0fcb60	-0.561697
31	0xbf48bb2d	-0.7841061
32	0xbe66ec54	-0.2255109
33	0xbe21fa5e	-0.15818164
34	0xbe5ed874	-0.21762258
35	0xbbff755e	-0.0077959737
36	0xbd767c92	-0.060177393
37	0xbed4895b	-0.41511044
38	0xbeb341b4	-0.35011065
39	0xbeb77b75	-0.35836378
40	0x3e4ba8a3	0.19888549
41	0x3e3bf7fe	0.1835632
42	0x3deb46d0	0.11488116
43	0xbd09f54e	-0.033681206
44	0x3e32bb31	0.1745422
45	0x3d527506	0.051381133
46	0xbc216bb4	-0.009852339
47	0x3c32487c	0.010881539
48	0x3e5a65f8	0.2132796
49	0xbccbf28f	-0.024895934
50	0xbe082062	-0.13293603
51	0x3d4c2f76	0.04984995
52	0x3d6992b2	0.057024665
53	0x3e872ff5	0.26403776
54	0xbea5ed17	-0.32407448
55	0xbe11f4d6	-0.14253554
56	0x3ee20b86	0.44149417
57	0x3f0b3adb	0.5438668
58	0xbd0e73db	-0.034778457
59	0x3deb8de0	0.1150167
60	0xbe4c694b	-0.19962041
61	0x3eb7844a	0.35843116
62	0xbafe396b	-0.0019395774
63	0xbe09ddb7	-0.13463484
64	0x3c9c844d	0.019106055
65	0x3d3eb059	0.046554897
66	0x3ee2b9c5	0.44282356
67	0xbe9e7a94	-0.30952895
68	0xbe70516e	-0.23468563
69	0xbe706e0c	-0.2347948
70	0x3f159f2f	0.5844602
71	0x3f1272a8	0.572062
72	0xbe51ff70	-0.20507598
73	0xbe031967	-0.12802659
74	0xbe8e4d22	-0.27793223
75	0x3e806e9e	0.25084394
76	0x3dcac5d8	0.09901017
77	0xbd86bf29	-0.0657943
78	0x3e0b1e0b	0.13585679
79	0x3eec9374	0.46206248
80	0x3dad237f	0.08454036
81	0xbee91e57	-0.4553096
82	0xbf085cfd	-0.5326689
83	0xbd696754	-0.056983307
84	0xbce06113	-0.027390039
85	0xbe0f98b3	-0.14023094
86	0xbf80332d	-1.0015618
87	0x3cab8633	0.020938015
88	0x3d6959b5	0.056970317
89	0xbcd0c0f9	-0.025482642
90	0xbef4d72f	-0.47820422
91	0xbe60cb19	-0.21952476
92	0x3dd752ff	0.10513877
93	0x3e59b501	0.21260454
94	0xbd9ba8ce	-0.07600556
95	0xbf7cdd7a	-0.98775446
96	0x3d5ded9a	0.054181673
97	0x3dee5023	0.116363786
98	0xbe5cb7e5	-0.21554525
99	0x3db1f548	0.08689362
100	0x3e9b3800	0.30316162
101	0x3e58dce7	0.21178018
102	0x3dbc5afa	0.0919704
103	0x3e97dd6b	0.29661116
104	0x3ddb8315	0.10718361
105	0x3e81ac0b	0.2532657
106	0x3e44c7ba	0.19216815
107	0x3d438d9d	0.047742475
108	0xbbf8267b	-0.0075729466
109	0x3dce6055	0.100769676
110	0x3e7d69b5	0.24747355
111	0xbe12a940	-0.14322376
112	0xbda905cc	-0.08253059
113	0xbe8a87e5	-0.27056804
114	0xbe2d19d2	-0.16904381
115	0xbf4e1f7e	-0.80516803
116	0xbef88783	-0.48540887
117	0xbf022bc2	-0.5084802
118	0xbeced6b6	-0.40398186
119	0xbe776c33	-0.24162368
120	0xbe45d524	-0.19319588
121	0x3c736288	0.014855035
122	0x3da9899d	0.08278201
123	0x3eafe76d	0.3435625
124	0x3ca947a7	0.02066405
125	0xbeb5931c	-0.35463798
126	0xbe203f5e	-0.15649173
127	0xbcf5c343	-0.030000335
128	0x3eaa8ff4	0.33312953
129	0x3e612d90	0.21990037
130	0xbe1b4894	-0.15164405
131	0xbf0d243f	-0.5513343
132	0xbe004030	-0.12524486
133	0x3dc4c423	0.096077226
134	0xbbeb8eff	-0.0071886773
135	0xbd8cfa7f	-0.06883716
136	0xbf56fc97	-0.8397917
137	0xbea63744	-0.3246404
138	0x3eadc1c0	0.33936882
139	0x3d634e90	0.055494845
140	0x3ea416a5	0.32048526
141	0xbf03d369	-0.5149446
142	0xbf70c310	-0.9404764
143	0x3cfe4f26	0.0310436
144	0x3e471747	0.19442473
145	0x3e041d00	0.12901688
146	0x3e242657	0.1603025
147	0xbe9182de	-0.28420156
148	0xbebc65d5	-0.36796442
149	0xbdb042ff	-0.086065285

conv1.0.bias f4 [6]
0	0xbe521c4c	-0.20518607
1	0xbdf72cec	-0.12069115
2	0xbd89eaca	-0.067342356
3	0xbe087c26	-0.13328609
4	0xbe2cd9c7	-0.1687995
5	0x3c0f114d	0.008732152

conv2.0.weight f4 [16, 6, 5, 5]
0	0x3e902f57	0.28161117
1	0x3ea91741	0.33025554
2	0x3edb7063	0.42859182
3	0xbda62f34	-0.08114472
4	0xbe3e02a5	-0.18555696
5	0x3dfb2165	0.12262229
6	0x3d45f728	0.04833141
7	0x3e150713	0.1455348
8	0xbece5e2a	-0.40306216
9	0xbeea83c5	-0.45803657
10	0xbbed99f7	-0.00725102
11	0x3c9a5bc1	0.01884258
12	0x3e058c1a	0.13041726
13	0xbea5549c	-0.32291114
14	0xbf092938	-0.5357852
15	0x3dc6ab45	0.09700636
16	0xbc97ab51	-0.018514307
17	0xbe0e56a5	-0.1390024
18	0xbf313c36	-0.692325
19	0xbea29646	-0.31755275
20	0x3bc0b5bf	0.005881041
21	0xbe4ba00d	-0.19885273
22	0xbe413e4a	-0.18871418
23	0xbe6da639	-0.2320794
24	0xbe3a7300	-0.18207932
25	0x3e412c37	0.18864523
26	0xbe097c21	-0.13426258
27	0xbd92121d	-0.07132361
28	0x3cd0f6c5	0.025508294
29	0x3d9763e0	0.073920965
30	0x3eb8dec1	0.36107448
31	0x3def9aea	0.116994694
32	0x3c44ca06	0.012011057
33	0xbe4f4231	-0.20240094
34	0xbd3a7619	-0.045522783
35	0x3f0dffff	0.55468744
36	0x3e7adb83	0.244978
37	0xbe5fc836	-0.21853718
38	0xbeab8af0	-0.33504438
39	0x3c7366fd	0.014856097
40	0x3d21ec15	0.039531786
41	0xbe879e89	-0.2648814
42	0xbe3978fa	-0.18112555
43	0xbe54e0f8	-0.20788944
44	0xbdea0386	-0.11426453
45	0xbec802eb	-0.39064726
46	0xbea26c14	-0.31723082
47	0xbcacb745	-0.021083483
48	0x3e5c322e	0.21503517
49	0x3e2bb7d3	0.16769342
50	0xbdcb3691	-0.09922517
51	0xbdf02e93	-0.11727633
52	0xbda97b0f	-0.08275425
53	0x3d3c3b99	0.045955274
54	0xbd96895b	-0.07350417
55	0xbcbd08e8	-0.023075536
56	0xbef48c7b	-0.47763428
57	0xbe29be46	-0.1657649
58	0xbe4eb7b1	-0.2018726
59	0xbefc3b5e	-0.49264044
60	0xbeeddea6	-0.4645893
61	0xbeb45429	-0.3522046
62	0x3d90b3e0	0.070655584
63	0xbdc003df	-0.09375738
64	0xbf01f355	-0.5076192
65	0x3e0dd2d8	0.13849962
66	0xbd1c98e9	-0.038231764
67	0xbd084541	-0.03326917
68	0xbe47b8c5	-0.19504078
69	0xbf129d9b	-0.57271737
70	0x3c4f8cfa	0.012667889
71	0xbe4ced05	-0.20012291
72	0x3d1ad009	0.037796054
73	0xbe225a07	-0.15854655
74	0xbe4be83e	-0.19912812
75	0x3df28bca	0.11843069
76	0x3e8a93cc	0.27065885
77	0xbf06396b	-0.5243136
78	0xbe9afd89	-0.30271557
79	0xbe8196db	-0.25310406
80	0x3dd32f6e	0.10311781
81	0x3e89ef3f	0.26940343
82	0x3e109962	0.14121011
83	0xbde0582e	-0.10954319
84	0xbd132987	-0.035928275
85	0xbd58f1aa	-0.052964844
86	0xbd59d4fb	-0.05318163
87	0x3d14c3d7	0.03631958
88	0xbe8fc4e2	-0.28079897
89	0x3e86d43a	0.2633379
90	0x3e33375c	0.17501587
91	0xbe467275	-0.193796
92	0x3d4bca0e	0.04975324
93	0x3e829585	0.255047
94	0x3e977db8	0.29588103
95	0xbe9dfcb7	-0.3085687
96	0xbdaf37b3	-0.08555546
97	0xbe1a04dc	-0.15040916
98	0x3d24bf66	0.040221594
99	0x3cb40511	0.021975072
100	0x3ef8324e	0.4847588
101	0x3e3bcbd4	0.18339473
102	0xbeee1ed3	-0.46507892
103	0xbefaa888	-0.48956704
104	0xbf134968	-0.57533884
105	0x3e754096	0.23950419
106	0x3e21a7b1	0.15786625
107	0xbedcf70a	-0.43157226
108	0xbef5cd2d	-0.480081
109	0xbe56f4e1	-0.20991851
110	0x3e87c723	0.26519117
111	0xbed9bbc5	-0.4252607
112	0xbe85d766	-0.26140898
113	0x3b1188eb	0.0022206854
114	0x3e9244c5	0.28568092
115	0xbe9be088	-0.3044474
116	0xbeafb833	-0.3432022
117	0x3d8a1f48	0.06744248
118	0x3e3b57b8	0.18295181
119	0xbb488199	-0.0030594824
120	0xbe1f66b8	-0.15566528
121	0x3b97f026	0.004636782
122	0x3e60f722	0.21969274
123	0x3e6cba68	0.23117983
124	0xbef9c8e9	-0.48786095
125	0x3f0339e7	0.51260227
126	0x3ee4bf12	0.44677025
127	0x3e9c7698	0.3055923
128	0x3e9e6f21	0.3094416
129	0x3dabfb33	0.08397522
130	0x3f115679	0.5677257
131	0x3ea9e470	0.33182096
132	0x3ed4ae28	0.4153912
133	0x3eb8b41a	0.36074907
134	0xbe31176f	-0.17294095
135	0x3d8a9e14	0.06768432
136	0x3eab5b36	0.33468026
137	0x3e6854fc	0.22688669
138	0xbdbfb8b7	-0.093614034
139	0x3d41fcbf	0.047360178
140	0xbe4991de	-0.1968455
141	0x3dd88b04	0.1057339
142	0xbe7e047b	-0.24806397
143	0xbe22f2ea	-0.15912977
144	0x3c91eb98	0.017812535
145	0xbea2f14c	-0.3182472
146	0xbe0ddcd6	-0.13853773
147	0x3da6e7ba	0.08149667
148	0xbcf03424	-0.029321738
149	0x3d0f1275	0.03492971
150	0xbe02672c	-0.1273467
151	0xbeeca0e7	-0.4621651
152	0xbee55aa8	-0.44795728
153	0xbed01db5	-0.40647665
154	0xbe9f8ac4	-0.31160557
155	0xbe9d983d	-0.3078021
156	0xbe95e2b1	-0.29274514
157	0x3d992c3d	0.07479141
158	0xbe10a438	-0.14125144
159	0xbdd08f2e	-0.10183559
160	0xbe91099e	-0.2832765
161	0x3d1d750d	0.038441706
162	0x3e0490b9	0.12945832
163	0xbe95b4b0	-0.29239416
164	0xbe63332b	-0.22187488
165	0xbdfdeb7b	-0.1239843
166	0xbe289154	-0.16461688
167	0xbebea0a9	-0.3723195
168	0xbefac14d	-0.48975602
169	0xbe42a004	-0.19006354
170	0xbd627ec6	-0.05529668
171	0x3d51ba10	0.051202834
172	0xbe84c2a3	-0.25929746
173	0xbe647a5a	-0.22312298
174	0xbe3bb830	-0.1833198
175	0xbd4542e0	-0.04815948
176	0x3d87fb4a	0.066397265
177	0x3df230d7	0.11825722
178	0x3d90add8	0.07064408
179	0xbc72183c	-0.014776286
180	0x3e094422	0.13404897
181	0x3ce49633	0.027903652
182	0x3ead0986	0.33796328
183	0x3e321d1b	0.17393915
184	0xb95bb352	-0.0002095227
185	0xbd46fbc2	-0.04857994
186	0x3ce23a71	0.027615758
187	0x3eaacf8d	0.33361474
188	0xbe634c28	-0.2219702
189	0x3e9e93d1	0.3097215
190	0xbce7f465	-0.028314779
191	0xbd4b5a96	-0.049646936
192	0xbeedcc99	-0.46445158
193	0x3c8331dc	0.016014986
194	0x3e5d26f6	0.21596894
195	0xbcaa9d6f	-0.020827023
196	0xbe8dd372	-0.27700382
197	0xbf2f91c3	-0.6858179
198	0x3e8a5e6c	0.27025163
199	0x3ea1bee5	0.31590953
200	0x3ee6140f	0.44937178
201	0xbe5fe4d4	-0.21864635
202	0xbeb55740	-0.3541813
203	0xbe57a57a	-0.21059218
204	0xbdf8acdd	-0.12142346
205	0xbdd9e2b2	-0.10638942
206	0xbf091018	-0.5354018
207	0xbe9637e7	-0.29339525
208	0xbe541c1f	-0.20713852
209	0xbc93895d	-0.018009836
210	0xbecf56fc	-0.4049605
211	0xbeda57b2	-0.4264503
212	0xbef07538	-0.4696443
213	0x3d148695	0.03626116
214	0xbea3b6ae	-0.3197531
215	0xbee85656	-0.4537837
216	0xbebb0f07	-0.36534902
217	0xbef1d39e	-0.47231764
218	0x3c310975	0.010805477
219	0xbf159af5	-0.5843957
220	0xbd1e7c10	-0.038692534
221	0xbe85ed60	-0.26157665
222	0xbe4b82bc	-0.1987409
223	0xbd71f30e	-0.059069686
224	0xbe81d450	-0.25357294
225	0xbe8825de	-0.2659139
226	0x3eaba7d9	0.33526495
227	0x3eda724a	0.4266532
228	0x3e601326	0.21882305
229	0x3cb2ff2c	0.021850191
230	0x3dbcae51	0.09212936
231	0x3f330ff5	0.69946223
232	0x3e434165	0.19067915
233	0xbc41638b	-0.011803518
234	0xbdfe1f3d	-0.12408302
235	0x3ed2e5c8	0.41190934
236	0x3ed9f34e	0.4256844
237	0xbd02e59b	-0.03195725
238	0xbd83704d	-0.06417904
239	0xbd0f6c6e	-0.035015516
240	0x3e907b3c	0.2821902
241	0x3e04a7ed	0.12954684
242	0xbd25cace	-0.040476613
243	0x3c59f37d	0.013302681
244	0x3de9abb9	0.114097066
245	0xba5db671	-0.0008457667
246	0xbe90fabd	-0.28316298
247	0xbe0f12d2	-0.13972023
248	0xbf005cb5	-0.5014146
249	0xbe345bf4	-0.17613202
250	0xbdc81acc	-0.09770736
251	0x3f074f77	0.5285563
252	0x3e85c5ea	0.2612756
253	0x3e093217	0.13398014
254	0xbde76517	-0.11298578
255	0xbd1d196b	-0.03835432

conv2.0.bias f4 [16]
0	0xbfab3e39	-1.3378364
1	0xbf64b288	-0.8933492
2	0xbfaf9009	-1.3715831
3	0xbfdfe05a	-1.7490342
4	0xc025500f	-2.5830114
5	0xc00cd20d	-2.2003205
6	0xbf83b865	-1.0290648
7	0xbfb0c32c	-1.3809562
8	0xbfc55b9b	-1.5418581
9	0xc014be2c	-2.3241072
10	0xbf173844	-0.5907023
11	0xbfcf9574	-1.6217484
12	0xbfd80e75	-1.6879412
13	0xbfe3abbe	-1.7786787
14	0xc009e952	-2.1548657
15	0xbf89e2cf	-1.0772341

fc1.0.weight f4 [120, 400]
0	0xbe5d123c	-0.21588987
1	0xbec2e861	-0.38067916
2	0xbf2734c7	-0.65314907
3	0xbe46d0de	-0.19415614
4	0xbeda2825	-0.42608753
5	0x3d403681	0.04692698
6	0xbe37a397	-0.17933498
7	0xbe2b9e81	-0.16759683
8	0xbe9ff50a	-0.31241637
9	0xbb2d61d2	-0.002645601
10	0xbd6fd890	-0.05855614
11	0x3dce8775	0.1008443
12	0xbdebf111	-0.11520589
13	0x3ea3d6ac	0.3199972
14	0x3d3fcbda	0.046825267
15	0x3eae952b	0.3409818
16	0xbef202f5	-0.4726788
17	0xbcba6e58	-0.022757694
18	0x3f14e922	0.5816823
19	0x3f65b9bf	0.8973655
20	0x3dac4532	0.084116355
21	0xbe436ce2	-0.19084504
22	0xbd8a59b4	-0.06755391
23	0x3e10066a	0.14064947
24	0x3de008be	0.109391674
25	0xbec1e67d	-0.3787116
26	0xbef10885	-0.47076812
27	0xbeaa0ed1	-0.3321443
28	0xbeccc417	-0.39993355
29	0xbee7dc0b	-0.45285067
30	0xbd895b05	-0.06706814
31	0x3ed0123f	0.4063892
32	0x3ea68fb9	0.32531527
33	0xbe3f99f1	-0.18711068
34	0xbea1b2ba	-0.3158167
35	0x3e8fd969	0.28095558
36	0x3ebd425a	0.36964685
37	0x3e861021	0.2618418
38	0x3e2d0ac1	0.16898634
39	0x3e9ff6aa	0.31242877
40	0x3d197ccd	0.037472535
41	0xbef7820e	-0.4834141
42	0x3e0eb86b	0.13937537
43	0x3e88c3d5	0.26711908
44	0xbdf83bca	-0.12120779
45	0x3d6706d8	0.05640301
46	0x3e0fa590	0.14028001
47	0x3e6a0151	0.22852065
48	0x3e984e7c	0.2974738
49	0x3e415907	0.18881617
50	0xbe563332	-0.20917967
51	0xbe097e2e	-0.1342704
52	0xbec10b10	-0.37703753
53	0xbefd8c1f	-0.49520966
54	0xbeb4a9e5	-0.3528587
55	0x3b94ce0e	0.004541165
56	0x3ea56d31	0.3230987
57	0x3eb5956e	0.35465568
58	0xbeb9bace	-0.36275333
59	0xbe0850ea	-0.13312116
60	0x3e1bb86e	0.15207073
61	0xbd5c95b7	-0.053853717
62	0xbe58b8e9	-0.21164288
63	0x3f040085	0.5156329
64	0x3e7a5cc4	0.2444945
65	0xbe8e6a62	-0.2781554
66	0xbea8252c	-0.3284086
67	0xbdef1659	-0.11674184
68	0x3f20bafa	0.62785304
69	0x3efa278a	0.4885829
70	0x3da299a2	0.079394594
71	0xbe623c62	-0.22093347
72	0xbe82bac5	-0.2553312
73	0x3e89ef0d	0.26940194
74	0x3ea53d81	0.32273486
75	0xbca05d10	-0.019575626
76	0xbe46e821	-0.19424488
77	0x3e0e9374	0.13923436
78	0x3f112d49	0.56709725
79	0x3c987eed	0.01861521
80	0xbeaefb83	-0.34176263
81	0xbea75ce0	-0.32688046
82	0xbdc0385e	-0.09385751
83	0x3e5700a1	0.20996334
84	0x3f218048	0.63086367
85	0x3ea3b77e	0.3197593
86	0xbe63dece	-0.22252962
87	0xbe302055	-0.17199834
88	0xbedfdc54	-0.43722785
89	0x3e020216	0.12696108
90	0xbe42599f	-0.189795
91	0x3ebd1b77	0.36935017
92	0x3dc714b1	0.097207434
93	0xbea0066a	-0.31254894
94	0xbdfee51b	-0.12446042
95	0x3d5ec4c9	0.054386888
96	0x3f457654	0.7713368
97	0xbe412c20	-0.18864489
98	0x3e64747c	0.2231006
99	0xbe6a3c17	-0.22874485
100	0x3e7bcc54	0.24589664
101	0x3d4c27bf	0.049842592
102	0x3e7ed12b	0.24884479
103	0x3e5d3eba	0.2160596
104	0xbc32aadd	-0.010904995
105	0x3e7afd12	0.24510601
106	0x3e980976	0.29694718
107	0x3f129030	0.5725126
108	0x3edce38c	0.43142354
109	0x3cabbcd0	0.020964056
110	0xbf0f9d82	-0.5609971
111	0x3d09fa31	0.033685867
112	0xbe532dfa	-0.20623007
113	0xbe90408f	-0.28174254
114	0xbe8fe5d5	-0.28105035
115	0x3e596079	0.21228208
116	0x3e0469d7	0.12931
117	0xbe37a507	-0.17934047
118	0xbe2a161f	-0.16610001
119	0xbdc41af2	-0.09575452
120	0x3eb8baae	0.36079925
121	0x3ef105eb	0.47074828
122	0x3ed7d65a	0.42155725
123	0x3d0820f7	0.033234563
124	0xbc98131c	-0.0185638
125	0xbeafabf2	-0.3431087
126	0xbe83a07a	-0.2570837
127	0xbe9730b8	-0.29529357
128	0x3d9b3352	0.07578148
129	0x3d9bd66d	0.07609258
130	0xbe9ae167	-0.30250093
131	0xbddb8047	-0.10717826
132	0xbd679c9b	-0.056545835
133	0xbea98a83	-0.3311349
134	0x3d390a14	0.045175627
135	0x3e6920bb	0.22766392
136	0xbc2cf6af	-0.010556861
137	0x3cd1c490	0.025606424
138	0xbc23f87b	-0.010007973
139	0xbe5f13e7	-0.21784936
140	0xbf170e48	-0.59006166
141	0xbf00ae2b	-0.5026576
142	0x3e9642ef	0.2934794
143	0xbb87b0e4	-0.00414096
144	0xbf5317d1	-0.82458216
145	0x3d82eb73	0.063925646
146	0x3eda77f9	0.42669657
147	0xbd444d30	-0.047925174
148	0xbe545d17	-0.20738636
149	0xbf10aed4	-0.56516767
150	0xbf040e9e	-0.51584804
151	0xbf08140d	-0.53155595
152	0xbf585916	-0.84510934
153	0xbf274a7d	-0.65348035
154	0xbec114c1	-0.37711146
155	0x3e2d2aaf	0.16910814
156	0xbe7143c5	-0.23561008
157	0xbe619e4b	-0.2203304
158	0xbf170cfe	-0.590042
159	0xbf5ff725	-0.8748649
160	0x3ece4f2e	0.40294784
161	0x3e83df94	0.25756514
162	0x3ed3d81a	0.4137581
163	0x3df4b44b	0.11948451
164	0xbea7089c	-0.32623756
165	0x3d82600d	0.063659765
166	0xbdc2a88d	-0.09504805
167	0x3eacf67f	0.33781812
168	0x3dd4cb53	0.103903435
169	0xbdfd2e07	-0.12362295
170	0xbe863387	-0.26211187
171	0x3e04e502	0.12977985
172	0x3dd6febc	0.104978055
173	0xbe3f6954	-0.18692523
174	0x3da2e309	0.0795346
175	0xbe7f7676	-0.24947533
176	0xbddb7e49	-0.10717446
177	0xbf0444c9	-0.5166746
178	0x3edf4d62	0.43613726
179	0x3d6cebb4	0.05784197
180	0x3f0a1f5f	0.5395412
181	0x3e03db9c	0.12876743
182	0xbe2d1e33	-0.16906051
183	0x3e744d47	0.23857604
184	0x3e63d931	0.2225082
185	0xbab9776a	-0.0014149968
186	0x3d28dc48	0.0412257
187	0xbea23d92	-0.316876
188	0xbedf2fca	-0.43591148
189	0xbeaf6955	-0.3426005
190	0xbec2f6bd	-0.3807887
191	0xbd981297	-0.07425421
192	0xbf4516e9	-0.76988083
193	0xbe39a8d7	-0.18130814
194	0xbe35ad8a	-0.17741981
195	0xbee22033	-0.4416519
196	0x3ed99b39	0.42501238
197	0xbe1e4603	-0.15456395
198	0xbe19a24b	-0.15003316
199	0xbd8b1fe3	-0.06793191
200	0xbe61d4ca	-0.22053829
201	0xbe9dcdd7	-0.30821106
202	0xbe71d812	-0.2361758
203	0x3e0567fb	0.13027947
204	0x3d126a4a	0.035745896
205	0x3ca0f387	0.019647373
206	0xbeaa5cbc	-0.33273876
207	0xbe1a428e	-0.15064451
208	0x3e5fe669	0.21865238
209	0x3e061cbb	0.13096897
210	0x3dea7299	0.11447639
211	0x3ebee668	0.3728516
212	0x3ea83571	0.32853273
213	0x3f7443fb	0.9541623
214	0x3eb68e64	0.3565551
215	0x3db8fcc3	0.090325855
216	0xbdb40dad	-0.08791671
217	0xbe397f1c	-0.18114895
218	0x3e8495fc	0.2589568
219	0xbeed6986	-0.4636957
220	0xbf2103ff	-0.6289672
221	0xbdc48d8c	-0.095973104
222	0xbe442af9	-0.19157018
223	0x3d506377	0.050876107
224	0x3e82752c	0.2548002
225	0x3e5f36bd	0.21798225
226	0xbc173407	-0.009228713
227	0x3d186d3c	0.03721355
228	0x3e867e6d	0.2626833
229	0xbc034f6b	-0.00801454
230	0xbe1e836e	-0.15479824
231	0x3e2fa980	0.17154503
232	0x3e2cca56	0.1687406
233	0x3ea6a4f9	0.3254774
234	0xbb5617c8	-0.0032667983
235	0x3eb1b5ea	0.34709102
236	0x3e73e69b	0.23818438
237	0x3f05f8cd	0.52332765
238	0x3ebbcacb	0.36678156
239	0xbed98460	-0.42483807
240	0x3ec909cb	0.39265284
241	0x3f06e9d1	0.52700526
242	0xbe2f82c4	-0.17139727
243	0xbe98081a	-0.2969368
244	0xbed7c827	-0.42144892
245	0x3d506fa1	0.050887708
246	0xbe5f9159	-0.2183279
247	0xbeeb3c8e	-0.45944637
248	0xbec1785d	-0.37787142
249	0xbe8e303f	-0.27771184
250	0x3efc0168	0.49219823
251	0x3f2bf477	0.671699
252	0x3ead05ab	0.33793387
253	0x3e885b76	0.2663228
254	0xbd2fa269	-0.042879496
255	0x3ec66027	0.38745233

fc1.0.bias f4 [120]
0	0xbed5901e	-0.41711515
1	0x3dff4c02	0.12465669
2	0xbf0267d1	-0.5093966
3	0xbe99bb32	-0.3002563
4	0xbf303f9a	-0.6884705
5	0xbe300f9a	-0.17193452
6	0xbeeef0b4	-0.46668017
7	0xbe35ce31	-0.17754437
8	0x3eb2b426	0.34903067
9	0xbeb87f3a	-0.36034566
10	0xbd922e75	-0.07137767
11	0xbf37ff6d	-0.71874124
12	0xbeee0175	-0.46485487
13	0xbed086d9	-0.4072788
14	0xbf424ecb	-0.7590148
15	0x3e1d9165	0.15387495
16	0xbee6016b	-0.44922957
17	0x3d382439	0.04495642
18	0xbeac050b	-0.33597597
19	0x3e21d832	0.15805128
20	0x3f22c495	0.6358121
21	0xbea0ac5d	-0.31381503
22	0xbebc3490	-0.36758852
23	0xbdd245a1	-0.10267187
24	0xbe064215	-0.13111146
25	0x3e3ce43e	0.18446442
26	0xbe50baa1	-0.20383693
27	0x3e696fc6	0.22796544
28	0x3f1090df	0.56471056
29	0x3d7003e8	0.058597475
30	0x3ed0c51c	0.40775383
31	0xbf39432e	-0.72368133
32	0xbf27a8d1	-0.6549197
33	0xbe1fdf5a	-0.15612546
34	0x3fa07595	1.2535883
35	0x3e3de9c1	0.18546201
36	0xbf3beb9d	-0.7340639
37	0x3e6cf8b0	0.23141742
38	0xbe8cbbfd	-0.27487174
39	0xbe80305b	-0.25036892
40	0x3f0743e4	0.5283797
41	0x3dd85fce	0.10565148
42	0x3eb61479	0.35562494
43	0xbd369c1a	-0.044582464
44	0xbee70892	-0.45123726
45	0xbdda0adb	-0.10646602
46	0x3e8bcb0b	0.27303347
47	0xbea50164	-0.32227623
48	0xbeccd1de	-0.40003866
49	0x3df35878	0.118821084
50	0x3d8e8611	0.06959165
51	0x3e6b3087	0.2296773
52	0xbf0a7733	-0.54088134
53	0x3f2b09c2	0.66811764
54	0xbe8aee2f	-0.27134845
55	0xbec371e2	-0.38172823
56	0x3f8299e9	1.020322
57	0x3f3bc035	0.7334016
58	0x3cec9080	0.028877497
59	0xbf0a1615	-0.53939945
60	0xbcd6abef	-0.026205031
61	0xbc9462f8	-0.018113598
62	0x3ea15049	0.31506565
63	0xbdaf5915	-0.08561913
64	0xbda15565	-0.07877616
65	0x3f37ed31	0.718463
66	0xbf4c943d	-0.79913694
67	0xbe224eb9	-0.15850343
68	0xbf49bdf4	-0.7880547
69	0xbf065528	-0.5247369
70	0x3eacee80	0.3377571
71	0x3e53671e	0.20644805
72	0xbde3f128	-0.11129981
73	0xbea27b88	-0.31734872
74	0xbed09370	-0.40737486
75	0x3e04e8ec	0.12979478
76	0xbf3ffde9	-0.7499681
77	0x3f35bf4f	0.7099504
78	0x3df5242b	0.11969789
79	0xbed18ce2	-0.40927798
80	0xbe12db6e	-0.14341518
81	0xbf8520e3	-1.0400661
82	0xbf448f42	-0.76781094
83	0x3f781362	0.96904576
84	0xbe8ec311	-0.278832
85	0xbf114eed	-0.56761056
86	0x3f5a1bd5	0.8519872
87	0xbf09e574	-0.5386574
88	0x3e497944	0.19675165
89	0xbe4397f4	-0.19100934
90	0x3ed5f579	0.41788843
91	0xbf024335	-0.508838
92	0x3fa6a148	1.3017969
93	0x3dedd0eb	0.116121136
94	0xbedcd948	-0.43134522
95	0x3e20cbca	0.1570274
96	0xbe282383	-0.16419797
97	0xbdb611f1	-0.08890141
98	0xbf2237b8	-0.6336627
99	0x3f58dc70	0.8471136
100	0xbe251110	-0.1611979
101	0x3dfd79ce	0.12376748
102	0x3e571236	0.2100304
103	0x3ecc4d39	0.39902666
104	0xbf83d000	-1.0297852
105	0x3efeb506	0.49747485
106	0xbe8b4f9f	-0.27209184
107	0xbf1e73fb	-0.6189572
108	0x3e35ad83	0.1774197
109	0x3e454a4f	0.19266628
110	0x3dfcccd9	0.12343759
111	0x3c715c58	0.014731489
112	0x3f309ac8	0.6898618
113	0x3f0e22cd	0.5552185
114	0xbdbea1fd	-0.093082406
115	0xbe8bb384	-0.27285397
116	0x3eaef44c	0.3417076
117	0xbf122ba6	-0.5709785
118	0x3eabe37f	0.33572003
119	0x3ee47c70	0.44626188

fc2.0.weight f4 [84, 120]
0	0x3d53ab1c	0.051676854
1	0x3dd666c0	0.10468817
2	0xbec69621	-0.38786414
3	0x3d7c0bbb	0.061534625
4	0xbf2d78bc	-0.6776235
5	0xbd8eac4a	-0.06966455
6	0x3d52f633	0.051504325
7	0x3f248415	0.6426404
8	0x3f046528	0.5171685
9	0xbe2da107	-0.16955958
10	0x3f0cba66	0.5497192
11	0xbe927785	-0.2860681
12	0x3dea0bba	0.11428018
13	0xbdb33ad1	-0.08751453
14	0xbd6c901d	-0.057754625
15	0x3f2fc093	0.6865322
16	0x3edc27b4	0.4299904
17	0x3f8d48ef	1.1037883
18	0xbea12824	-0.31475937
19	0x3d5ecec5	0.05439641
20	0x3d5a1ab5	0.053248126
21	0xbd8ccf26	-0.06875448
22	0xbda108d3	-0.07863011
23	0xbe5bb5be	-0.21456048
24	0x3ee92686	0.45537204
25	0xbececc29	-0.40390137
26	0xbe0cbb6a	-0.13743368
27	0x3f292355	0.6606954
28	0x3e36f209	0.17865767
29	0xbf0d29c3	-0.5514185
30	0xbec0d480	-0.37662125
31	0xbe952955	-0.29133096
32	0x3ea7ba9e	0.32759565
33	0xbefda559	-0.49540213
34	0x3ec7b22a	0.39003116
35	0x3e012f50	0.12615705
36	0x3e089b25	0.13340433
37	0x3e4c820c	0.19971484
38	0xbef7f5b0	-0.48429632
39	0xbe31ed5b	-0.173757
40	0x3da63373	0.08115282
41	0xbec2994d	-0.38007584
42	0x3ea74b7f	0.32674786
43	0xbef74f4b	-0.48302683
44	0x3ec59591	0.38590673
45	0x3e850c27	0.25985834
46	0xbdf3dbee	-0.11907183
47	0x398c1684	0.00026719656
48	0x3e937d57	0.28806564
49	0x3d99190c	0.074754804
50	0x3e67bbae	0.22630188
51	0xbe81b1b5	-0.25330892
52	0x3e144995	0.14481194
53	0xbe5a7f9d	-0.21337743
54	0x3f020bb0	0.50799084
55	0xbee45448	-0.44595551
56	0x3ea2e66e	0.3181643
57	0x3e321696	0.17391428
58	0x3e8e9e0e	0.2785496
59	0xbd0484ad	-0.032353092
60	0xbe50a0e1	-0.2037387
61	0x3d12b079	0.03581283
62	0x3dd165fd	0.10224531
63	0xbe64b141	-0.22333242
64	0x3ebe6cca	0.37192374
65	0xbbc85c7b	-0.00611454
66	0xbf0c5508	-0.5481725
67	0xbe212e7a	-0.15740386
68	0xbd5f36d6	-0.054495655
69	0x3d30e8ac	0.043190643
70	0x3ea295a7	0.317548
71	0x3c1d7330	0.009609982
72	0xbf0324c5	-0.5122798
73	0x3e6ad758	0.2293371
74	0x3c924b1a	0.017858077
75	0x3c27ab39	0.010233694
76	0xbdced7c1	-0.100997455
77	0x3c24e9fa	0.01006555
78	0xbe0899e7	-0.13339959
79	0xbd8a8ef0	-0.067655444
80	0x3dd51621	0.104046114
81	0xbef8b53a	-0.48575765
82	0x3dc8a165	0.097964086
83	0xbddee08e	-0.10882674
84	0x3dc04f47	0.09390121
85	0x3cafde28	0.021468237
86	0x3e0e6fed	0.13909884
87	0x3c72ea67	0.014826394
88	0xbdf41180	-0.119174
89	0xbd8b33fb	-0.06797024
90	0x3e9ef965	0.31049648
91	0xbecd2a12	-0.4007116
92	0x3d93d3cb	0.07218131
93	0x3d9dba73	0.07701578
94	0xbe0b9c6d	-0.1363389
95	0xbeb13278	-0.34608817
96	0xbd982085	-0.074280776
97	0xbea3c45e	-0.31985754
98	0x3e91ce3e	0.28477663
99	0xbdbf09c6	-0.09328036
100	0xbea4ab56	-0.3216197
101	0xbe703761	-0.23458625
102	0x3e89469a	0.26811677
103	0xbeae7bf4	-0.34078944
104	0x3ebbed05	0.3670427
105	0xbe18d779	-0.14925946
106	0xbc9b522a	-0.018960077
107	0x3e2f7af2	0.17136744
108	0xbcc3cc3e	-0.023901101
109	0xbd8444f0	-0.06458461
110	0x3c2b74c3	0.01046485
111	0xbeb2dc39	-0.34933642
112	0x3e42060e	0.18947622
113	0xbce29b3f	-0.027661918
114	0xbe1bb7a4	-0.15206772
115	0xbe9d71a0	-0.30750751
116	0x3e79f52b	0.2440993
117	0x3e4ccf41	0.20000936
118	0x3f56d53c	0.8391912
119	0x3ea51596	0.3224303
120	0x3ea4a5aa	0.32157642
121	0x3e5988f0	0.21243644
122	0x3e9b2090	0.3029828
123	0x3ee0d277	0.43910572
124	0xbeb95f88	-0.36205697
125	0x3e4d7c97	0.20067059
126	0x3e7c3d28	0.24632704
127	0x3bc6406e	0.006050161
128	0xbdf9998c	-0.1218749
129	0x3d0e0027	0.034668114
130	0x3f1b9c5b	0.60785455
131	0x3e0c3e26	0.13695583
132	0x3f596b6a	0.84929526
133	0x3eb2b7cf	0.3490586
134	0x3efcab42	0.4934941
135	0x3daeec75	0.08541194
136	0x3e0b1eb1	0.13585927
137	0xbd547f62	-0.051879294
138	0xbd91723e	-0.07101868
139	0xbe9b1e69	-0.3029664
140	0xbe9422c3	-0.2893277
141	0x3e4fec31	0.20304944
142	0xbecc3420	-0.39883518
143	0xbdc84f89	-0.09780795
144	0xbe3af9ad	-0.18259306
145	0xbe055e48	-0.13024247
146	0x3e080d81	0.13286401
147	0x3ee80e5b	0.45323452
148	0x3e879383	0.2647973
149	0xbd9074c1	-0.07053519
150	0xbc1bb927	-0.009504593
151	0x3e00b637	0.1256951
152	0x3ec0768b	0.3759044
153	0xbf61a90e	-0.8814858
154	0xbe063b49	-0.13108553
155	0xbe3a7b3d	-0.18211074
156	0x3eaa2f7e	0.3323936
157	0x3ef7d8fb	0.4840773
158	0xbe048384	-0.12940794
159	0xbe33d634	-0.17562181
160	0xbeaf2e33	-0.34214935
161	0xbec04969	-0.37556008
162	0xbe6ba5a7	-0.2301241
163	0xbd766a62	-0.06016005
164	0x3d4a2571	0.049352113
165	0x3e89b55d	0.26896182
166	0xbdcfa4ed	-0.10138879
167	0x3e6e3f24	0.23266274
168	0x3f1798bb	0.59217423
169	0xbcc8b58b	-0.024500629
170	0x3dad6524	0.08466557
171	0xbe1f88a4	-0.15579468
172	0xbc9da47a	-0.019243468
173	0xbe836d0f	-0.25669143
174	0xbbef6f5d	-0.0073069767
175	0xbe253a14	-0.16135436
176	0xbd9d4287	-0.07678705
177	0xbde8a61f	-0.1135981
178	0x3caa155e	0.020762142
179	0xbbea2a88	-0.0071461834
180	0x3e42df20	0.19030428
181	0xbe3d28f0	-0.18472648
182	0xbe52a502	-0.20570758
183	0x3dd45723	0.103681825
184	0xbcee17b4	-0.029064037
185	0xbe17a60e	-0.14809439
186	0x3e0f8a88	0.14017689
187	0x3dcf29d9	0.10115404
188	0x3e8691bd	0.26283064
189	0x3dcf6373	0.1012639
190	0xbd997b5f	-0.07494234
191	0x3ee4b937	0.44672558
192	0x3d07b1f4	0.033128694
193	0x3f10f45d	0.5662287
194	0x3e0c6ee6	0.1371418
195	0x3e6503fa	0.22364798
196	0x3ee6d27f	0.4508247
197	0xbecb9cc6	-0.39768046
198	0x3de0637e	0.10956477
199	0x3ca44f75	0.02005742
200	0x3da956b4	0.082684904
201	0x3eaca0f9	0.33716562
202	0x3e8ebadc	0.27876937
203	0xbec8026e	-0.39064354
204	0x3f069620	0.5257282
205	0x3ca0f0a5	0.019645998
206	0xbebdef7a	-0.3709677
207	0x3e7a8dc9	0.24468149
208	0xbe899f28	-0.2687924
209	0x3ec57e12	0.38572747
210	0x3dfdb0fb	0.12387272
211	0x3e82cfe4	0.25549233
212	0xbeaed726	-0.3414852
213	0xbf224634	-0.6338837
214	0xbd5ab656	-0.053396545
215	0xbe1b1f41	-0.15148641
216	0xbc0bbf3d	-0.0085294815
217	0xbe19f505	-0.15034874
218	0x3f289743	0.6585581
219	0xbefe4284	-0.49660122
220	0xbe9e9fe8	-0.30981374
221	0xbeba6a57	-0.36409256
222	0xbcfeb02d	-0.031089867
223	0xbe7a9ae3	-0.24473147
224	0x3ed160a2	0.40894037
225	0xbeba60ca	-0.3640197
226	0xbe4ec6f1	-0.20193078
227	0xbecfdb7b	-0.40597138
228	0x3d32b6c8	0.043631345
229	0xbec34548	-0.38138795
230	0xbe5305be	-0.20607659
231	0xbd8097e9	-0.062789746
232	0x3dd4a681	0.103833206
233	0xbe3a4dc0	-0.18193722
234	0x3ea5ffdf	0.32421777
235	0x3d8a57ae	0.06755005
236	0xbeaa035f	-0.33205697
237	0x3f0963b1	0.5366774
238	0xbc0745d9	-0.008256399
239	0x3e14bbd8	0.14524782
240	0x3f00c2f6	0.50297487
241	0x3f06eb0f	0.5270242
242	0x3e84025f	0.2578306
243	0xbc88b8a2	-0.016689602
244	0x3d4ccd43	0.05000044
245	0xbe91a04f	-0.28442618
246	0x3ec995bc	0.3937205
247	0x3ed5eaf7	0.41780826
248	0x3e0e81ac	0.13916653
249	0x3eac203f	0.33618352
250	0x3ddd27e9	0.10798628
251	0xbf01fc85	-0.5077594
252	0x3f096e31	0.53683764
253	0xbe32abb5	-0.17448314
254	0xbea37724	-0.31926835
255	0x3d898cca	0.067163065

fc2.0.bias f4 [84]
0	0x3d29150f	0.04127985
1	0xbf86ab83	-1.0521091
2	0xbf16657a	-0.5874859
3	0x3e7aaa1f	0.24478959
4	0xbecc038c	-0.39846456
5	0xbee47865	-0.44623104
6	0x3eb39f93	0.35082683
7	0xbf140d9d	-0.5783327
8	0x3db1b24c	0.086765856
9	0xbf4ef4de	-0.8084239
10	0x3f30bdd2	0.6903964
11	0x3edc21b5	0.42994466
12	0xbd48e172	-0.049043126
13	0x3f3a9711	0.7288676
14	0x3dbee535	0.093210615
15	0x3c8fad70	0.017538756
16	0xbe4d5b53	-0.20054369
17	0xbf1985ab	-0.59969586
18	0xbee5fae7	-0.44917986
19	0x3dfd3b94	0.12364879
20	0xbd51c564	-0.051213637
21	0x3f01d81a	0.5072037
22	0x3dcdbb62	0.10045506
23	0x3ea0e4fc	0.314247
24	0xbeff9d76	-0.4992482
25	0x3f560841	0.83606344
26	0x3eaae125	0.33374897
27	0x3e3f29c1	0.18668272
28	0x3efa38b6	0.48871392
29	0xbe3484f6	-0.17628846
30	0x3f4fd2ba	0.8118092
31	0x3e9973a5	0.29971042
32	0x3db7cb09	0.08974273
33	0x3e7931ef	0.24335454
34	0xbef4a4ab	-0.47781882
35	0xbd73c17f	-0.059510704
36	0xbd804c96	-0.062646076
37	0xbf235cd4	-0.6381352
38	0xbf8ec0a2	-1.1152537
39	0x3e357ab0	0.17722583
40	0x3d867f76	0.0656728
41	0x3f6ebddd	0.9325846
42	0xbeec5045	-0.4615499
43	0x3f089114	0.5334637
44	0xbeb949ed	-0.36189213
45	0x3f21e7ea	0.632445
46	0x3e1947bd	0.14968772
47	0x3ddbae59	0.107266136
48	0xbf236ab9	-0.6383472
49	0xbe971ebd	-0.2951564
50	0xbdd20e6a	-0.102566555
51	0x3f5b8a27	0.8575768
52	0x3eb9a4a2	0.36258417
53	0x3ed93f7c	0.42431247
54	0xbe92b531	-0.28653863
55	0x3e4ce0c3	0.20007615
56	0xbef6c5cc	-0.48197782
57	0x3f0407be	0.51574314
58	0xbf0f10c8	-0.5588498
59	0xbefb2ca5	-0.490575
60	0x3f52feb7	0.82419914
61	0xbe92ce88	-0.28673196
62	0x3ee9b746	0.4564764
63	0xbce1ab3f	-0.027547477
64	0x3eb82c10	0.35971117
65	0xbe00bec2	-0.12572768
66	0x3f02aa55	0.51041156
67	0xbedc5eb4	-0.43041003
68	0x3ea00d1b	0.3126
69	0xbe9953e1	-0.29946807
70	0xbf23991f	-0.6390552
71	0xbf2849cd	-0.6573761
72	0xbf80b772	-1.0055983
73	0xbe098d79	-0.13432874
74	0xbf251c07	-0.6449589
75	0xbea298ca	-0.31757194
76	0x3fc23531	1.5172483
77	0x3efa3c9a	0.4887436
78	0x3ed69db3	0.4191719
79	0x3e0353ad	0.12824889
80	0xbf1a5093	-0.60279197
81	0xbf10bea2	-0.5654088
82	0x3e96ea93	0.2947584
83	0x3e853f06	0.26024646

fc3.0.weight f4 [10, 84]
0	0xbde1480d	-0.11000071
1	0x3d8bdc91	0.06829179
2	0xbe32af1b	-0.1744961
3	0xbd824f52	-0.063627854
4	0x3da5181b	0.080612384
5	0x3e854b4c	0.2603401
6	0x3e297461	0.16548301
7	0xbe0ae16d	-0.13562556
8	0xbd906d9e	-0.07052158
9	0xbbd44010	-0.0064773634
10	0x3e968890	0.29401064
11	0xbe56a1d5	-0.20960172
12	0xbe80f080	-0.25183487
13	0xbe108b6b	-0.14115684
14	0xbd101a52	-0.03518135
15	0x3d7bbd30	0.06145972
16	0xbea8af61	-0.32946303
17	0x3e92c692	0.28667122
18	0x3e254776	0.16140541
19	0xbea6cad7	-0.3257663
20	0xbea61417	-0.32437202
21	0x3e8bd3e8	0.2731011
22	0x3e4d3119	0.2003826
23	0xbc82dc9c	-0.015974335
24	0x3e315253	0.1731656
25	0xbe1deaa7	-0.15421544
26	0xbe3fa909	-0.18716826
27	0x3e35c953	0.1775258
28	0x3db24efc	0.08706471
29	0x3e540788	0.20705998
30	0x3d826fd8	0.06368989
31	0x3d6f3449	0.058399472
32	0xbe1d7985	-0.15378387
33	0xbe26f50b	-0.16304414
34	0x3eaf7efc	0.3427657
35	0x3ee46bda	0.44613534
36	0xbe3a6ee9	-0.18206371
37	0xbdb06a59	-0.08614034
38	0x3eb52e70	0.35386992
39	0x3ea21a2e	0.316606
40	0xbe403acb	-0.18772428
41	0xbdaa2401	-0.083076485
42	0xbe10518c	-0.14093608
43	0xbe66757e	-0.22505757
44	0xbe191c6f	-0.14952253
45	0xbed05848	-0.40692353
46	0xbe1efc79	-0.15525998
47	0x3e29d471	0.16584946
48	0x3cda3e98	0.026641175
49	0x3df1755d	0.117899634
50	0xbd889c42	-0.06670429
51	0x3e7a1ed4	0.24425822
52	0x3e90c1a5	0.2827274
53	0x3e793d15	0.24339707
54	0x3ea6fdd7	0.3261554
55	0x3d8a8f3a	0.067655995
56	0x3e67e55c	0.22646087
57	0xbd741f1b	-0.059599977
58	0xbe437f2f	-0.19091485
59	0xbd49d0a7	-0.049271252
60	0xbe76694b	-0.24063604
61	0xbe109f84	-0.1412335
62	0x3e0412cd	0.12897797
63	0xbddcc3bc	-0.10779521
64	0xbe3876a9	-0.18014015
65	0x3e538685	0.20656784
66	0x3e8aa3a5	0.27077976
67	0x3cff1966	0.03114004
68	0x3e76bfe3	0.24096636
69	0x3d90a6ff	0.07063102
70	0x3e9fcaeb	0.31209502
71	0x3eb7e905	0.35919967
72	0xbd920cf1	-0.071313746
73	0x3c91adcf	0.017783074
74	0xbb540a4a	-0.0032354766
75	0xbe23c77a	-0.15994063
76	0x3e0ff40e	0.14057943
77	0x3dc52fa8	0.0962823
78	0xbd9cbf97	-0.0765373
79	0x3e869e50	0.26292658
80	0xbe8e9763	-0.27849874
81	0x3cf1a6bc	0.02949845
82	0x3c8a1630	0.016856283
83	0x3d644a64	0.055735007
84	0xbd3ade81	-0.045622353
85	0xbe89bb7b	-0.2690085
86	0xbe3305c1	-0.17482664
87	0x3eb25c03	0.34835824
88	0xbdc15817	-0.0944063
89	0xbdd2502b	-0.10269197
90	0x3e0e10d2	0.13873604
91	0xbdd45779	-0.103682466
92	0x3df6a18d	0.12042532
93	0xbec3fa3e	-0.38276857
94	0x3e9d76db	0.30754742
95	0xbdec3805	-0.115341224
96	0xbe938f63	-0.28820333
97	0x3e124d4a	0.14287296
98	0xbe9df31b	-0.30849537
99	0xbe0adb03	-0.13560109
100	0xbec9f98d	-0.39448205
101	0x3d19d41a	0.03755579
102	0xbdf2184c	-0.118210405
103	0xbe4bf22b	-0.19916598
104	0xbe453996	-0.19260249
105	0xbe0d83d9	-0.13819827
106	0x3e6466d8	0.22304857
107	0xbdedad54	-0.11605325
108	0x3c95c0d9	0.018280433
109	0xbe5c3257	-0.21503578
110	0x3e398a91	0.18119265
111	0x3e07c845	0.1325999
112	0xbe9f2f73	-0.31090888
113	0xbd9e9182	-0.07742597
114	0x3ecfea1f	0.40608308
115	0x3e3d890a	0.18509308
116	0xbd6bb4d4	-0.057545498
117	0x3dfec1f3	0.12439337
118	0x3e4cd145	0.20001705
119	0x3ecdba96	0.40181416
120	0x3d94d43d	0.07267044
121	0xbcd495b8	-0.025950298
122	0x3e21ede2	0.15813401
123	0xbded937d	-0.11600397
124	0x3dc92b27	0.09822684
125	0x3e7c31b7	0.2462834
126	0x3e888a1a	0.26667863
127	0x3e57ee85	0.21087082
128	0xbd358521	-0.044316415
129	0xbde5fc5d	-0.11229775
130	0xbe3f7b5b	-0.186994
131	0x3e15944c	0.14607352
132	0xbe57fa58	-0.21091592
133	0x3d821f3b	0.06353613
134	0xbde0bc54	-0.10973421
135	0x3e989c23	0.29806623
136	0xbb11f99b	-0.002227402
137	0x3dec6d4b	0.115442835
138	0xbc6d139c	-0.014470007
139	0x3dbcdfd0	0.09222376
140	0xbe25bc7d	-0.16185184
141	0x3e353f6b	0.17699973
142	0xbe1e71da	-0.15473118
143	0xbc637a51	-0.013884143
144	0xbda46f0d	-0.08028994
145	0xbd76d856	-0.060264908
146	0xbea4adce	-0.32163852
147	0xbd6c3742	-0.057669885
148	0xbe569612	-0.20955685
149	0xbde69945	-0.112597026
150	0x3de7dc04	0.113212615
151	0x3c326bbb	0.010889943
152	0xbe132b60	-0.14372015
153	0x3d78dde4	0.060758486
154	0xbe6e5d80	-0.23277855
155	0xbdef1a4c	-0.116749376
156	0xbe4b481f	-0.19851731
157	0x3e25eb0f	0.16202949
158	0xbe8108b1	-0.25201944
159	0xbede5e26	-0.43431205
160	0x3cdd937d	0.027047867
161	0x3e9d82bb	0.30763802
162	0x3e3d80e5	0.185062
163	0xbc303cd6	-0.010756692
164	0xbe105c12	-0.14097622
165	0xbec8ec57	-0.39242813
166	0x3e57d718	0.21078146
167	0x3e0161f1	0.12635018
168	0x3e20081f	0.15628098
169	0xbe8014d2	-0.25015885
170	0xbe165be4	-0.14683491
171	0x3d23e39a	0.04001198
172	0xbce43f61	-0.027862253
173	0xbb3127e0	-0.0027031824
174	0x3e936eca	0.28795463
175	0xbd7105b7	-0.05884334
176	0x3e4a3690	0.19747376
177	0xbe88f47c	-0.26749027
178	0x3d44da94	0.048060015
179	0xbe623b5e	-0.2209296
180	0xbe32d3dc	-0.1746363
181	0xbdb264a9	-0.08710606
182	0xbd81b139	-0.06332631
183	0x3d1fe947	0.03904083
184	0xbe69478b	-0.22781198
185	0x3eaba771	0.33526185
186	0xbd01a65d	-0.031652797
187	0xbdb23464	-0.08701399
188	0x3e182437	0.14857565
189	0x3ea4a984	0.3216058
190	0xbd847e92	-0.06469454
191	0xbe826d7c	-0.25474155
192	0xbe4c8104	-0.1997109
193	0xbdcc19d7	-0.09965866
194	0xbe0ef210	-0.13959527
195	0xbe070d51	-0.13188674
196	0xbe568b06	-0.2095147
197	0x3e898cb9	0.26865175
198	0xbca9d0b8	-0.020729408
199	0xbcf83560	-0.030298889
200	0xbe0b6ccb	-0.1361572
201	0x3cb50fab	0.022102198
202	0xbe133fc9	-0.14379801
203	0x3cd1b7ef	0.025600402
204	0xbe122086	-0.14270219
205	0xbe82154a	-0.25406867
206	0xbc036ad6	-0.008021077
207	0xbda39420	-0.07987237
208	0xbe27e4c5	-0.16395862
209	0xbe40218c	-0.18762797
210	0xbd83bd10	-0.06432545
211	0xbe357862	-0.17721704
212	0xbdadc20c	-0.08484277
213	0x3d4826e9	0.048865233
214	0xbcf85aec	-0.030316792
215	0x3bf4e6f4	0.007473821
216	0xbe821fa4	-0.25414765
217	0xbe27227a	-0.16321746
218	0xbd25fea7	-0.04052606
219	0x3e0b3754	0.13595325
220	0x3dff66c9	0.124707766
221	0x3db7b21e	0.0896952
222	0xbd87fccf	-0.06640016
223	0x3e871b03	0.26387796
224	0x3e51c8f3	0.20486812
225	0x3e07ebf8	0.13273609
226	0xbc5f5847	-0.013631887
227	0x3d25c307	0.040469196
228	0x3ea4fc06	0.3222353
229	0xbddc41cf	-0.107547395
230	0xbe89a578	-0.26884055
231	0xbd5b173a	-0.053488947
232	0xbe891842	-0.2677632
233	0xbdeebcdf	-0.11657118
234	0xbe6f782f	-0.2338569
235	0x3dd42cda	0.10360117
236	0x3d519b3b	0.05117343
237	0x3e90b834	0.28265536
238	0x3ca5a83d	0.020221824
239	0x3d9d9f81	0.076964386
240	0xbeb19b3f	-0.34688756
241	0xbd5ce97d	-0.05393361
242	0xbe88cb8e	-0.267178
243	0xbeb7a820	-0.35870457
244	0x3e861ff7	0.26196262
245	0x3e41f3ad	0.18940611
246	0xbe42a7a4	-0.19009262
247	0xbe141e61	-0.14464714
248	0xbe78ecbf	-0.24309061
249	0xbe379f2e	-0.17931816
250	0xbb35bca9	-0.0027730858
251	0x3df6aec0	0.1204505
252	0x3e5ca594	0.21547538
253	0x3e132495	0.14369424
254	0x3e11bf86	0.14233217
255	0x3cb4b0fe	0.022057053

fc3.0.bias f4 [10]
0	0xbf8ef1fe	-1.11676
1	0xbe6b4768	-0.22976458
2	0x3d892f8a	0.066985205
3	0xbf4ac9bc	-0.7921407
4	0xbd908d5f	-0.070582144
5	0x3d8efcdc	0.06981823
6	0xbf5c03a3	-0.8594305
7	0x3e8a3f17	0.2700126
8	0x3e8dc415	0.2768866
9	0xbc8ebd52	-0.01742426
