save_checkpoints/LeNet5_epoch_6.pth (torch, 249863 bytes, 10 tensors)

conv1.0.weight f4 [6, 1, 5, 5]
0.0079768915 0.13551484 -0.16371253 -0.13128537 0.10663759 -0.08137845 -0.08605514 -0.04388739
0.03506939 -0.08465851 0.1079834 -0.033149302 -0.055141974 -0.040223416 0.24326184 0.17498295
0.13263974 0.2848346 0.14965522 -0.053707886 -0.072445735 0.06449877 -0.22338468 0.025943046
-0.05720226 -0.058463655 -0.03931024 -0.02375889 -0.06430102 0.13182881 -0.037506342 -0.16768934
0.12967494 0.21302122 0.038891297 0.166791 0.17549163 0.059081886 0.071754806 0.10450488
-0.24282788 0.09312231 0.20163472 -0.0124934055 -0.24113625 -0.17954907 0.021287095 -0.23882928
0.044252355 -0.12243027 0.07385975 0.12539452 0.17712484 0.06550148 -0.013122733 0.14888433
-0.119962946 -0.026528683 0.13349146 0.08294068 0.16681673 0.19877121 -0.06729375 0.13276961
-0.11052693 -0.112803705 -0.3086163 -0.13443573 -0.23349144 0.1949171 -0.27758333 -0.10553109
-0.0036317443 -0.11585977 -0.2690956 -0.009807337 -0.005167041 -0.13535906 0.04969162 -0.20464876
0.038350996 -0.06813318 -0.06786969 0.04893852 -0.044249233 -0.013048403 -0.017331451 -0.22241423
0.1599565 -0.073003605 0.11381063 0.07175741 0.10216741 -0.08201688 0.2959877 -0.06471769
0.09332529 0.20460461 0.011391358 -0.0024405757 -0.05431924 0.01654372 -0.020378686 0.20327641
-0.19583914 0.024666572 0.04809022 0.13924828 0.12752779 0.056360826 -0.18251085 0.10405367
0.04043293 0.055121526 0.0061260797 0.10113142 0.13693082 -0.058979496 0.023566613 -0.11102786
0.023790801 0.08475496 -0.0019188202 -0.042949907 -0.25580403 0.08152698 0.15809959 0.0014974921
0.10477268 0.059723623 -0.01395567 -0.10417014 0.19794783 -0.082695365 -0.0021333832 0.102225244
0.042911712 0.06340032 0.05711117 -0.039431807 -0.079048805 -0.06854957 0.08311769 -0.18563929
-0.18028015 -0.06807595 0.10799478 -0.15858024 -0.032892738 0.029522674
00000000: 82b1 023c 67c4 0a3e 42a4 27be ac6f 06be
00000010: cf64 da3d bfa9 a6bd ad3d b0bd 44c3 33bd
00000020: eca4 0f3d 7161 adbd 6726 dd3d 90c7 07bd
00000030: 8ddc 61bd 4fc1 24bd a219 793e bb2e 333e
00000040: b6d2 073e d7d5 913e 383f 193e cdfc 5bbd
00000050: 6e5e 94bd ee17 843d f4be 64be 8386 d43c
00000060: eb4c 6abd 9677 6fbd c603 21bd 01a2 c2bc
00000070: 41b0 83bd 22fe 063e 40a0 19bd c1b6 2bbe
00000080: 82c9 043e 3c22 5a3e 7b4c 1f3d 43cb 2a3e
00000090: 14b4 333e d9ff 713d 2ff4 923d a806 d63d
000000a0: dfa7 78be e9b6 be3d 5579 4e3e 24b1 4cbc
000000b0: 6cec 76be b6db 37be 4662 ae3c aa8f 74be
000000c0: f541 353d b9bc fabd c843 973d 6c67 003e
000000d0: 3760 353e a425 863d bb00 57bc 2275 183e
000000e0: 22af f5bd ae52 d9bc fcb1 083e cedc a93d
000000f0: 01d2 2a3e ae8a 4b3e 4ed1 89bd c2f4 073e
00000100: f15b e2bd a105 e7bd f502 9ebe 85a9 09be
00000110: 6118 6fbe 5998 473e 671f 8ebe af20 d8bd
00000120: 8f02 6ebb e347 edbd e6c6 89be f4ae 20bc
00000130: 4850 a9bb 919b 0abe 7189 4b3d 728f 51be
00000140: ef15 1d3d 6989 8bbd 44ff 8abd c273 483d
00000150: af3e 35bd f8c8 55bc b0fa 8dbc 8ec0 63be
00000160: a3cb 233e ea82 95bd 8c15 e93d 8df5 923d
00000170: 263d d13d 77f8 a7bd b38b 973e b58a 84bd
00000180: 5421 bf3d df83 513e d2a2 3a3c 11f2 1fbb
00000190: da7d 5ebd b286 873c 34f1 a6bc b127 503e
000001a0: 0e8a 48be 8d11 ca3c 40fa 443d 1a97 0e3e
000001b0: a596 023e 9cda 663d 20e4 3abe 171a d53d
000001c0: 009d 253d 1cc7 613d 48bd c83b fd1d cf3d
000001d0: 9837 0c3e 7c94 71bd c50e c13c 9362 e3bd
000001e0: ede4 c23c 0294 ad3d ec80 fbba 3eec 2fbd
000001f0: bff8 82be 9ef7 a63d dce4 213e 7f47 c43a
00000200: 0f93 d63d c2a0 743d 53a6 64bc 2857 d5bd
00000210: d6b2 4a3e 305c a9bd 3bd0 0bbb 785b d13d
00000220: 31c4 2f3d 07d8 813d 67ed 693d 3f83 21bd
00000230: 57e4 a1bd b863 8cbd 9c39 aa3d 3a18 3ebe
00000240: 5c9b 38be 676b 8bbd 5e2c dd3d dc62 22be
00000250: 89ba 06bd 89d9 f13c

conv1.0.bias f4 [6]
-0.22264776 0.0372423 -0.17782106 0.10378199 -0.17762329 -0.20193173
00000000: c6fd 63be 628b 183d b916 36be a78b d43d
00000010: e1e2 35be 31c7 4ebe

conv2.0.weight f4 [16, 6, 5, 5]
0.0172241 0.06052877 -0.0020913573 -0.08470208 -0.04554517 -0.11175275 -0.014368996 0.004354654
0.029186765 -0.09218316 -0.05130118 -0.12944517 -0.03130706 0.023510845 -0.06560225 -0.079154216
-0.062721886 0.049266443 -0.07010801 -0.08335164 -0.07444423 -0.050051235 -0.089516275 -0.12418864
-0.091384046 -0.041182008 -0.14351724 -0.1910363 -0.09631657 -0.022072826 0.13831422 0.106049135
0.012178243 -0.049751878 -0.111053094 0.14821553 0.13782495 0.07589729 0.006687394 -0.053994533
0.0063582356 0.06395653 0.06599734 0.081852846 -0.12224248 0.07307683 -0.017967688 0.041586723
0.036306325 -0.18378593 -0.11770064 -0.022643141 -0.10291323 -0.0489463 0.019961549 0.065913945
-0.15582602 -0.26801682 -0.17323093 -0.16865401 0.08376931 0.08211866 0.045428123 -0.019220736
-0.10536564 -0.033296388 -0.009806118 -0.07117153 0.019512981 -0.00337661 0.023397736 -0.008808082
0.0049896836 -0.02070346 0.07154131 0.031071806 0.06649086 -0.038472608 -0.15290235 -0.05922976
-0.068762966 0.027481988 0.046367127 0.007647511 0.03781772 -0.15220459 -0.05995516 0.008309652
-0.08320966 -0.08201982 -0.044840258 -0.09059648 -0.13232559 -0.15538926 -0.08732538 -0.08952569
-0.05642307 -0.12352963 -0.058234908 -0.022546552 0.043972004 -0.030012054 0.044904422 0.073983446
0.013415078 0.17257075 0.17653523 0.15774493 0.1354197 -0.042439803 0.01339556 0.111963816
0.12268593 0.111804284 0.06584054 -0.06172648 -0.07639221 -0.0041155894 0.017785989 -0.02346777
-0.06561783 -0.08438391 -0.04439133 -6.9864895e-05 -0.15862775 -0.02085225 -0.10547862 -0.06598965
-0.011921782 -0.0093799345 0.0033448732 -0.077240884 -0.07574303 -0.19018245 -0.20518218 0.02417563
-0.01552823 -0.011646092 -0.028097326 -0.04300287 -0.085742936 -0.07022751 0.016121242 -0.001408576
-0.010289124 -0.097275876 -0.14045653 -0.015792137 0.05988142 -0.05035868 0.010636089 -0.06636212
-0.08014405 -0.10848705 -0.2318009 -0.029735632 -0.042985316 -0.054920353 -0.09490319 -0.12967007
0.10881271 0.03877057 -0.010263269 -0.025025139 0.01882733 0.041871734 0.067507565 0.039128233
0.04442968 -0.009225534 0.041966278 0.091183566 0.056506924 -0.0059134937 0.029767964 -0.04136672
0.0059178257 -0.09593889 -0.1436746 -0.08834189 -0.025110967 0.08184111 -0.028665487 -0.058950115
-0.08225276 -0.1133249 0.03295379 -0.062890954 -0.09401236 -0.08766942 0.013272797 -0.034744605
0.066361845 0.06850436 -0.06490438 -0.01583814 -0.031598285 0.012937934 0.04705994 -0.060673125
0.06627479 -0.09303803 -0.12868392 -0.07559789 -0.015710752 0.11907208 -0.08776644 -0.23872285
-0.07251172 -0.066592716 -0.07159348 -0.10334789 -0.12839055 -0.17922078 -0.19062679 -0.06333443
0.016395316 -0.06484443 0.03569608 0.054713644 0.02153735 0.029615922 0.17381747 -0.120357566
0.028485453 0.08341288 0.045323983 -0.03527777 -0.113975935 -0.1325739 0.035061713 0.04376219
0.028441455 0.035172846 -0.105297334 0.12529807 0.060432203 0.14388457 -0.023326222 0.044380706
0.11102577 0.04705995 -0.04328984 0.031771086 0.0059364727 -0.21484722 -0.0991653 -0.20558892
-0.14861658 -0.1252231 -0.02071299 -0.05550247 -0.04042326 -0.060731743 -0.016567297 -0.030497208
00000000: 8e19 8d3c 04ed 773d 270f 09bb 4978 adbd
00000010: 928d 3abd a0de e4bd f06b 6bbc 7cb1 8e3b
00000020: 1519 ef3c 86ca bcbd 3021 52bd 468d 04be
00000030: d53b 00bd d199 c03c 795a 86bd 9b1b a2bd
00000040: 5574 80bd 9ccb 493d ca94 8fbd 44b4 aabd
00000050: 3776 98bd 8602 4dbd 4f54 b7bd 9d56 febd
00000060: 8f27 bbbd 77ae 28bd 2ff6 12be 059f 43be
00000070: 9f41 c5bd 12d2 b4bc 3ea2 0d3e 4a30 d93d
00000080: 4187 473c a0c8 4bbd ce6f e3bd d0c5 173e
00000090: fc21 0d3e 0a70 9b3d ed21 db3b 5f29 5dbd
000000a0: bf58 d03b a4fb 823d 9d29 873d 77a2 a73d
000000b0: 445a fabd 4ea9 953d f930 93bc d756 2a3d
000000c0: f1b5 143d 6132 3cbe 080d f1bd 1c7e b9bc
000000d0: 2cc4 d2bd ea7b 48bd 6786 a33c e4fd 863d
000000e0: db90 1fbe 8039 89be 7363 31be a3b3 2cbe
000000f0: 3e8f ab3d d42d a83d d712 3a3d ce74 9dbc
00000100: f1c9 d7bd cb61 08bd d7a9 20bc 61c2 91bd
00000110: b0d9 9f3c 1e4a 5dbb 9cac bf3c c64f 10bc
00000120: 8080 a33b 4d9a a9bc 4084 923d 4d8a fe3c
00000130: 5c2c 883d 7495 1dbd 6f92 1cbe e89a 72bd
00000140: 99d3 8cbd e821 e13c 75eb 3d3d f997 fa3b
00000150: c1e6 1a3d 85db 1bbe 8b93 75bd 3525 083c
00000160: d469 aabd 02fa a7bd 6baa 37bd a68a b9bd
00000170: 5c80 07be 5d1e 1fbe a6d7 b2bd 3f59 b7bd
00000180: e11b 67bd 1afd fcbd ba87 6ebd 8cb3 b8bc
00000190: fd1b 343d d7db f5bc b3ed 373d a284 973d
000001a0: eaca 5b3c 63b6 303e a7c5 343e e387 213e
000001b0: 76ab 0a3e 5cd5 2dbd 0d79 5b3c 494d e53d
000001c0: c342 fb3d a5f9 e43d 68d7 863d e8d4 7cbd
000001d0: 8573 9cbd 11dc 86bb ecb3 913c 7b3f c0bc
000001e0: a462 86bd 79d1 acbd afd3 35bd 6e84 92b8
000001f0: 506f 22be 56d2 aabc 2d05 d8bd 9525 87bd
00000200: 9453 43bc 4cae 19bc a935 5b3b 7830 9ebd
00000210: 291f 9bbd 30bf 42be 471b 52be f90b c63c
00000220: 1e6a 7ebc 40cf 3ebc 5d2c e6bc c723 30bd
00000230: fe99 afbd 71d3 8fbd b210 843c f89f b8ba
00000240: b793 28bc 9338 c7bd d6d3 0fbe 835e 81bc
00000250: 3846 753d e744 4ebd fe42 2e3c dde8 87bd
00000260: 9022 a4bd 752e debd 375d 6dbe 2498 f3bc
00000270: 5f11 30bd 2af4 60bd 9b5c c2bd 3bc8 04be
00000280: 33d9 de3d e4cd 1e3d 4527 28bc 8501 cdbc
00000290: c63b 9a3c b281 2b3d 6841 8a3d ed44 203d
000002a0: e5fb 353d b226 17bc d5e4 2b3d 73be ba3d
000002b0: ce73 673d fbc5 c1bb f2db f33c 2670 29bd
000002c0: 52ea c13b 9c7b c4bd 6f1f 13be 98ec b4bd
000002d0: 84b5 cdbc 509c a73d e2d3 eabc ad75 71bd
000002e0: 2374 a8bd e316 e8bd 8efa 063d f9cc 80bd
000002f0: 8d89 c0bd 068c b3bd 2576 593c 5c50 0ebd
00000300: b8e8 873d 044c 8c3d 96ec 84bd fdbe 81bc
00000310: 346d 01bd a1f9 533c ecc1 403d 6284 78bd
00000320: 14bb 873d b98a bebd b8c5 03be 11d3 9abd
00000330: d6b3 80bc 10dc f33d e4be b3bd c373 74be
00000340: 0681 94bd c361 88bd 9a9f 92bd 0fa8 d3bd
00000350: d078 03be a785 37be ab33 43be 7bb5 81bd
00000360: 784f 863c 28cd 84bd 0e36 123d 6a1b 603d
00000370: 196f b03c 179d f23c 35fd 313e 077e f6bd
00000380: 535a e93c 5fd4 aa3d a4a5 393d 6c7f 10bd
00000390: 376c e9bd 74c1 07be df9c 0f3d fb3f 333d
000003a0: 0efe e83c 6711 103d 21a6 d7bd 234e 003e
000003b0: c287 773d 7a56 133e a216 bfbc 8bc8 353d
000003c0: 7b61 e33d efc1 403d b050 31bd 6622 023d
000003d0: be86 c23b e900 5cbe 2d17 cbbd e785 52be
000003e0: f22e 18be 7c3a 00be 4aae a9bc 8f56 63bd
000003f0: dc92 25bd d9c1 78bd 24b8 87bc 48d5 f9bc

conv2.0.bias f4 [16]
-0.11152135 -0.09759287 -0.15846501 -0.14387928 -0.18846276 -0.123708 -0.27881154 -0.23698106
-0.002402716 -0.124679275 -0.23208615 0.033674687 0.06483011 -0.07641235 -0.12579107 -0.007103508
00000000: 4e65 e4bd c5de c7bd a744 22be 1755 13be
00000010: 62fc 40be 9f5a fdbd 63c0 8ebe 2aab 72be
00000020: e376 1dbb d957 ffbd fea7 6dbe 78ee 093d
00000030: a6c5 843d 147e 9cbd 60cf 00be 8bc4 e8bb

fc1.0.weight f4 [120, 400]
-0.038774684 -0.058548428 0.038299166 0.036189493 0.006522452 -0.017555553 -0.055514082 0.020145318
0.11926592 0.020901024 -0.02562069 0.07073344 0.060927797 0.06582852 -0.027618023 0.00578034
-0.043165844 -0.033889234 0.020822855 -0.05007236 0.04214963 0.008580234 -0.029026022 0.023597844
0.027893921 0.028661143 -0.016596006 0.047146775 0.049480528 0.016374433 0.0023931302 0.034633692
-0.015298709 -0.0008711879 0.050431527 -0.08168257 -0.055274487 0.013632848 0.011709781 -0.044258993
0.04399696 0.06435222 0.010843596 0.00545769 0.080121286 0.101079226 0.02309004 -0.033681184
-0.0014558847 0.0681709 0.010326678 0.025224268 0.07608387 0.016433556 -0.016885854 0.04827896
0.09519521 0.08313837 -0.042799186 0.024449151 0.12244334 -0.001625778 -0.048737668 -0.03484517
0.01037895 0.016243406 0.005493889 -0.0036213857 0.006341692 -0.027667517 -0.00854695 0.01809661
0.07322488 -0.02642427 -0.02747325 0.057042517 0.08079786 0.09331374 0.15603235 0.054169916
0.15136325 0.10916033 0.030700251 0.05071601 0.04751145 0.16324352 0.08869398 0.030498026
-0.048343573 0.008326831 -0.064729944 0.002376171 0.034328848 -0.033838212 0.032790978 0.08218487
0.02216499 0.019093033 -0.07584693 0.005081927 0.113305256 0.106324166 0.09511927 0.048854437
0.013355585 0.14437747 0.05423899 0.07484429 0.017894765 0.04112954 0.006045132 0.036580812
0.05068814 0.01622809 -0.011735872 -0.011031525 -0.009288147 0.06636107 -0.020800026 -0.0035244701
0.061749842 0.029870218 -0.061991103 -0.0152225755 -0.01897457 -0.0054081646 -0.051559042 -0.07662556
-0.16204533 -0.05338912 -0.011821675 -0.015565065 -0.049688835 -0.05363338 0.0028463323 0.0436207
-0.013235394 -0.07127877 -0.014511971 0.034597587 0.124900945 -0.009929912 -0.029751481 -0.034150112
0.007871257 -0.06891118 0.023533156 0.027092924 0.037339125 -0.043394927 -0.021552483 0.0065220557
-0.028022539 -0.12618013 -0.045851447 -0.019422075 0.018937087 -0.04562254 -0.08020601 -0.012084482
0.04723631 -0.02372169 -0.11314922 0.024721578 0.08111694 0.02367434 -0.07186647 0.0021321638
-0.032016836 0.0073159025 0.054477286 0.0012675103 -0.018634101 0.064836346 -0.0778954 0.021684095
0.12341293 0.14541529 0.06899714 0.018128501 0.003976141 0.09103494 0.091063805 0.07380363
-0.018055039 0.08118713 0.06464592 0.08254901 -0.001801011 0.036272272 0.14635536 0.0420714
0.023863198 -0.027285535 0.09876622 0.079271205 0.050537825 0.0024715548 -0.0015224862 0.013072769
0.040221557 -0.05342555 -0.12873138 -0.011830919 0.057566486 -0.0393548 0.02334679 -0.02082314
0.046439305 -0.010937157 0.039336193 0.018893735 -0.08170484 -0.05954418 0.08422496 0.12485643
0.027126724 0.007856325 -0.030351926 0.041707817 -0.015382203 0.031085005 0.009987039 -0.017071063
-0.06520878 -0.041591782 -0.08251024 -0.059423566 -0.05517779 -0.03472702 0.039927907 -0.025725218
-0.09037547 -0.071200006 0.06814066 -0.042402662 -0.059361275 -0.058523558 0.01087323 0.019134687
0.032596294 -0.024551176 -0.08554032 -0.021015696 0.023263115 -0.04822214 0.028924631 0.0032111192
-0.033411793 -0.027130803 0.115860306 0.083307914 0.058586933 0.04963729 -0.011280989 0.09107896
00000000: 34d2 1ebd 7ad0 6fbd 96df 1c3d 6f3b 143d
00000010: 4bba d53b aad0 8fbc bc62 63bd cb07 a53c
00000020: b141 f43d a038 ab3c 7be2 d1bc b2dc 903d
00000030: 6d8f 793d 1ad1 863d 313f e2bc 0269 bd3b
00000040: abce 30bd 70cf 0abd b194 aa3c ad18 4dbd
00000050: 17a5 2c3d 1c94 0c3c fbc7 edbc 4450 c13c
00000060: cb81 e43c c6ca ea3c 59f4 87bc fa1c 413d
00000070: 18ac 4a3d ad23 863c 10d6 1c3b 0fdc 0d3d
00000080: 70a7 7abc 6e60 64ba 4a91 4e3d 3149 a7bd
00000090: 8067 62bd 4f5c 5f3c 62da 3f3c eb48 35bd
000000a0: 2836 343d 19cb 833d 57a9 313c 6cd6 b23b
000000b0: a116 a43d a002 cf3d 5327 bd3c 48f5 09bd
000000c0: 62d3 beba 2f9d 8b3d 3a31 293c 20a3 ce3c
000000d0: dcd1 9b3d aa9f 863c 3454 8abc 29c0 453d
000000e0: b5f5 c23d 7344 aa3d 334e 2fbd 9649 c83c
000000f0: 93c3 fa3d 0f18 d5ba 26a1 47bd cfb9 0ebd
00000100: 790c 2a3c e410 853c 1506 b43b c554 6dbb
00000110: f8cd cf3b fda6 e2bc 8208 0cbc 583f 943c
00000120: edf6 953d b677 d8bc 950f e1bc 6aa5 693d
00000130: 5979 a53d 461b bf3d f2c6 1f3e 46e1 5d3d
00000140: f8fe 1a3e 738f df3d 187f fb3c 97bb 4f3d
00000150: 5e9b 423d 4f29 273e 30a5 b53d ffd6 f93c
00000160: e903 46bd 436d 083c 2291 84bd 89b9 1b3b
00000170: 689c 0c3d f099 0abd d54f 063d 8b50 a83d
00000180: 5a93 b53c fe68 9c3c a355 9bbd 4b86 a63b
00000190: 960c e83d 7cc0 d93d e4cd c23d 971b 483d
000001a0: 62d1 5a3c b0d7 133e b429 5e3d f747 993d
000001b0: 0b98 923c 7377 283d 3e16 c63b c3d5 153d
000001c0: 5e9e 4f3d c5f0 843c d147 40bc 92bd 34bc
000001d0: 502d 18bc 50e8 873d d164 aabc ccfa 66bb
000001e0: 67ed 7c3d 63b2 f43c 62ea 7dbd 1c68 79bc
000001f0: 8f70 9bbc f936 b1bb 932f 53bd dded 9cbd
00000200: 36ef 25be 8dae 5abd b3af 41bc 9d04 7fbc
00000210: 8586 4bbd adae 5bbd 8889 3a3b 9eab 323d
00000220: 44d9 58bc 9bfa 91bd 9ec3 6dbc 33b6 0d3d
00000230: 11cc ff3d 12b1 22bc 61b9 f3bc fde0 0bbd
00000240: 72f6 003c 4e21 8dbd 9bc8 c03c fbf1 dd3c
00000250: e9f0 183d e1be 31bd d58e b0bc f8b6 d53b
00000260: 868f e5bc 5d35 01be bace 3bbd 0b1b 9fbc
00000270: f321 9b3c b3de 3abd 0c43 a4bd fefd 45bc
00000280: dc7a 413d fd53 c2bc c7ba e7bd e884 ca3c
00000290: a320 a63d b1f0 c13c ba2e 93bd c6bb 0b3b
000002a0: 1624 03bd 3dba ef3b 9323 5f3d 9722 a63a
000002b0: 8ba6 98bc ebc8 843d a087 9fbd d8a2 b13c
000002c0: ebbf fc3d bfe7 143e 5f4e 8d3d 3982 943c
000002d0: 4a4a 823b 8770 ba3d a97f ba3d 5c26 973d
000002e0: 29e8 93bc 7045 a63d 1565 843d 750f a93d
000002f0: e70f ecba 3c92 143d 2ede 153e 0f53 2c3d
00000300: c17c c33c ea85 dfbc f245 ca3d f158 a23d
00000310: c000 4f3d cff9 213b 298e c7ba 2b2f 563c
00000320: 5cbf 243d c0d4 5abd 29d2 03be 79d6 41bc
00000330: d6ca 6b3d 8032 21bd c441 bf3c 4a95 aabc
00000340: 2437 3e3d c331 33bc fd1e 213d 09c7 9a3c
00000350: de54 a7bd 99e4 73bd 237e ac3d bab4 ff3d
00000360: dd38 de3c d1b7 003c 9aa4 f8bc d1d5 2a3d
00000370: a305 7cbc fba5 fe3c ada0 233c 9dd8 8bbc
00000380: 2e8c 85bd 255c 2abd 21fb a8bd 2066 73bd
00000390: 1b02 62bd eb3d 0ebd 728b 233d b1bd d2bc
000003a0: c616 b9bd 4fd1 91bd 558d 8b3d 6aae 2dbd
000003b0: cf24 73bd 66b6 6fbd a225 323c 59c0 9c3c
000003c0: b183 053d 8c1f c9bc c32f afbd 1c29 acbc
000003d0: 4a92 be3c 9484 45bd 59f3 ec3c a471 523b
000003e0: ceda 08bd 6b41 debc 2b48 ed3d 579d aa3d
000003f0: daf8 6f3d 7950 4b3d e6d3 38bc 9b87 ba3d

fc1.0.bias f4 [120]
-0.0013561603 0.11451068 0.047710057 -0.044783525 0.079208694 0.0034469033 -0.0009908298 0.01014385
0.0432621 0.058753274 0.079491496 -0.047829647 -0.04143821 -0.072695054 0.005445901 -0.09150108
0.009977415 0.07495163 0.10227989 -0.084185384 0.16118173 -0.054524068 0.079960965 -0.10073219
7.4842595e-05 -0.012592315 0.14395776 -0.08652281 -0.12762335 0.04865258 0.013815863 -0.07127625
-0.018894263 -0.07561721 0.043483038 -0.08853966 -0.021842852 -0.00065663113 0.018499693 0.03854102
0.08475952 -0.040741917 -0.027933879 -0.0020995834 0.040912177 0.00978487 0.112117164 -0.032490265
0.1007616 -0.068358906 -0.020834748 -0.03566499 -0.06615092 0.047685023 0.037253767 -0.060629368
0.07722199 -0.12581466 0.022398202 -0.008239475 -0.04332747 0.034539357 -0.07466864 0.04025134
-0.024375634 -0.07384549 -0.09390546 -0.024081657 0.040931948 0.024176119 -0.02731046 -0.04882977
0.083589226 0.11362611 -0.03377363 0.017565425 -0.12574758 -0.013796683 -0.03537113 0.021970905
0.14090195 0.0230193 0.056368258 0.015174934 -0.007207581 -0.12170074 0.06418736 -0.021714887
-0.006142763 -0.1554592 0.010182756 -0.055470094 0.0076287095 0.00041950346 0.033264544 0.016425734
0.07496431 -0.021887517 -0.08229231 -0.07124041 0.035338063 -0.00085594406 -0.027840119 -0.01094999
0.038010992 0.046204902 0.08488668 0.10753888 -0.052899748 0.0034468563 0.030424181 0.02153655
-0.034365937 0.0010984434 -0.01884175 -0.12709485 0.055914722 -0.023088321 -0.008576421 0.13083054
00000000: 30c1 b1ba 9384 ea3d 9f6b 433d ee6e 37bd
00000010: 2b38 a23d 71e5 613b bbde 81ba 6432 263c
00000020: 9a33 313d 46a7 703d 70cc a23d 05e9 43bd
00000030: 1dbb 29bd 25e1 94bd 8773 b23b eb64 bbbd
00000040: 5078 233c 3d80 993d 1e78 d13d 6369 acbd
00000050: d30c 253e a154 5fbd 93c2 a33d ae4c cebd
00000060: d0f4 9c38 ff4f 4ebc aa69 133e df32 b1bd
00000070: b2af 02be ed47 473d ee5b 623c 48f9 91bd
00000080: 24c8 9abc 32dd 9abd 451b 323d 4854 b5bd
00000090: c8ef b2bc c521 2cba ab8c 973c 30dd 1d3d
000000a0: 6696 ad3d ffe0 26bd 97d5 e4bc 2a99 09bb
000000b0: 8793 273d b850 203c af9d e53d 8314 05bd
000000c0: 195c ce3d c1ff 8bbd a2ad aabc 7415 12bd
000000d0: 227a 87bd 5f51 433d 6897 183d 8056 78bd
000000e0: 9026 9e3d 8fd5 00be 6f7c b73c ddfe 06bc
000000f0: 2578 31bd 2479 0d3d dfeb 98bd 97de 243d
00000100: 69af c7bc 4e3c 97bd 8151 c0bd e546 c5bc
00000110: 42a8 273d ff0c c63c 30ba dfbc ba01 48bd
00000120: d430 ab3d ceb4 e83d 3856 0abd 5ee5 8f3c
00000130: f9c3 00be 7c0b 62bc 51e1 10bd 54fc b33c
00000140: 9a48 103e f992 bc3c 67e2 663d 49a0 783c
00000150: 922d ecbb 3d3e f9bd aa74 833d 6be3 b1bc
00000160: 3b49 c9bb b230 1fbe 93d5 263c 9c34 63bd
00000170: 41fa f93b cdf0 db39 6740 083d 438f 863c
00000180: e386 993d 734d b3bc df88 a8bd 7ee6 91bd
00000190: a5be 103d 6f61 60ba f610 e4bc 9667 33bc
000001a0: 6ab1 1b3d 5a41 3d3d 11d9 ad3d 583d dc3d
000001b0: 68ad 58bd a7e4 613b 223c f93c 6b6d b03c
000001c0: 4cc3 0cbd a5f9 8f3a 045a 9abc 2725 02be
000001d0: d606 653d b823 bdbc 1e84 0cbc 71f8 053e

fc2.0.weight f4 [84, 120]
0.091267 0.04436879 -0.11900258 0.0051763337 -0.037626978 -0.15122738 -0.11343896 -0.03397476
-0.063945554 0.08394521 -0.111174636 0.12549807 0.04458569 0.15099107 -0.08445445 0.005523566
-0.046497192 -0.022875167 -0.10919358 -9.724559e-06 0.06438366 -0.046984747 0.09188671 -0.061398063
-0.098471075 -0.034715854 0.0005323756 0.003913066 0.12103954 0.033677883 -0.09911533 0.056358676
0.06494257 0.06432278 -0.0101181455 -0.029330201 -0.055525888 -0.07586544 -0.045044042 -0.16141847
-0.044616017 -0.0055738227 0.0055798064 0.08355447 -0.12318074 -0.092331454 -0.06026267 -0.15607597
0.09171865 -0.049946744 0.012885654 -0.014052728 0.07757346 0.12277003 0.11931322 -0.13703349
0.0070170546 -0.088838935 0.03669511 -0.072892666 0.16402782 -0.03295159 -0.10135022 0.07102057
0.012384262 -0.12556782 -0.0026753726 0.063821696 -0.073669255 -0.031012563 -0.10897757 -0.05113573
-0.046198767 -0.022193277 0.12121984 -0.073656425 -0.014002741 0.09418039 0.058814485 0.00038607937
0.009538273 0.057747155 -0.14942794 -0.033690624 0.17821419 0.1532412 0.11145129 -0.00893623
-0.042367965 0.198295 0.011191158 -0.09623155 0.047411222 -0.1729238 -0.03243043 0.02850053
-0.046132565 0.012541976 -0.095889516 0.041535933 0.024395375 0.036006793 0.005341579 0.11676595
-0.12968354 0.015628472 0.0073131463 -0.016642556 0.053880014 -0.022724008 0.05123936 0.091459945
0.094070055 -0.07509031 0.015787646 0.10735818 -0.05363608 -0.041719716 -0.08781878 -0.10202415
0.15493402 0.19870898 0.07285354 0.078908935 0.05821638 -0.11194027 -0.14356506 0.019782452
-0.077376336 0.027000217 -0.0078088855 0.10341537 -0.012352315 0.20671928 -0.0016235954 -0.05886706
-0.062785 0.053554803 0.12294604 -0.12233734 0.040858284 -0.15446562 0.08725859 -0.025645843
0.063533835 0.054215334 0.07310397 -0.13815981 0.005659078 0.08483378 -0.012306529 0.015854707
-0.102520764 0.053017937 0.09003637 -0.06283561 -0.09914297 -0.063814305 0.107940175 0.024333427
-0.19102748 -0.018856352 0.030439472 -0.0721417 0.11331813 0.053349916 0.020974148 -0.035165153
0.036553193 -0.03603354 0.039972875 -0.0053097126 0.001037929 -0.038809452 0.102908455 -0.098528884
0.043698013 -0.028339056 0.07143273 -0.049447745 0.06510904 0.018065196 -0.00043187733 0.00049075903
-0.14616111 0.06906991 -0.003368939 -0.1288381 0.05942534 0.015159438 -0.10046856 -0.024619492
-0.046412334 0.09768845 0.06801857 -0.004511565 -0.16023473 0.11515155 -0.0382373 -0.017200775
0.024596445 0.061624754 0.057528127 0.028853435 -0.00914208 0.110200144 -0.05310663 -0.053743884
-0.002439653 -0.043938737 -0.059688598 0.043077745 0.02266792 -0.12091966 0.07112983 0.066845365
0.1216597 -0.039040595 0.020553807 0.031203665 0.062325194 0.04946781 0.017626965 0.030839493
-0.060857315 0.020139618 -0.117078036 0.045201283 -0.008956934 0.018744843 -0.031348873 -0.03635759
-0.06059203 -0.04145698 0.035110995 -0.002694284 0.09381015 -0.14595751 0.075931974 0.007816434
-0.011878985 0.1714628 -0.0961953 0.002760806 0.09034008 -0.12078154 0.08673095 0.057264484
0.08375919 0.10313498 -0.063489385 0.040949576 -0.05293197 -0.07061177 -0.028972091 0.037703935
00000000: 31ea ba3d 0cbc 353d a0b7 f3bd 3c9e a93b
00000010: bf1e 1abd 5adb 1abe af52 e8bd 1e29 0bbd
00000020: e3f5 82bd 77eb ab3d 87af e3bd 9182 003e
00000030: 7c9f 363d 679d 1a3e 74f6 acbd 08ff b43b
00000040: d773 3ebd b464 bbbc e2a0 dfbd aa26 23b7
00000050: 95db 833d 1473 40bd 192f bc3d 897c 7bbd
00000060: 34ab c9bd 3632 0ebd 1f8f 0b3a 2d39 803b
00000070: 94e3 f73d d2f1 093d fafc cabd 5bd8 663d
00000080: 9c00 853d a9bb 833d 94c6 25bc e445 f0bc
00000090: 1d6f 63bd 575f 9bbd 1a80 38bd e24a 25be
000000a0: 49bf 36bd 9da4 b6bb cfd6 b63b 9b1e ab3d
000000b0: 2f46 fcbd 4618 bdbd fdd5 76bd 61d2 1fbe
000000c0: fdd6 bb3d f594 4cbd 5a1e 533c 6a3d 66bc
000000d0: d6de 9e3d da6e fb3d 7d5a f43d 8252 0cbe
000000e0: 52ef e53b 30f1 b5bd 9d4d 163d c048 95bd
000000f0: e9f6 273e 3ff8 06bd b490 cfbd 3c73 913d
00000100: 5ce7 4a3c da94 00be 4e55 2fbb f3b4 823d
00000110: e8df 96bd 0f0e febc a22f dfbd b373 51bd
00000120: eb3a 3dbd adce b5bc 1c42 f83d 2ed9 96bd
00000130: c16b 65bc a6e1 c03d 75e7 703d b26a ca39
00000140: 6b46 1c3c 4888 6c3d a303 19be 2eff 09bd
00000150: c87d 363e 43eb 1c3e 9340 e43d 4469 12bc
00000160: 088a 2dbd d80d 4b3e 1e5b 373c 0c15 c5bd
00000170: 4532 423d f012 31be c5d5 04bd f279 e93c
00000180: 80f5 3cbd dc7c 4d3c b961 c4bd 9521 2a3d
00000190: cfd8 c73c dc7b 133d 6a08 af3b fd22 ef3d
000001a0: c3cb 04be 4807 803c 1ea3 ef3b f855 88bc
000001b0: 4ab1 5c3d b327 babc 5de0 513d 5a4f bb3d
000001c0: cda7 c03d f3c8 99bd 1855 813c 9bde db3d
000001d0: 82b1 5bbd 4be2 2abd 55da b3bd 0af2 d0bd
000001e0: 06a7 1e3e 5e7a 4b3e 3d34 953d 029b a13d
000001f0: 4d74 6e3d f140 e5bd b802 13be cf0e a23c
00000200: 7c77 9ebd 8f2f dd3c aee1 ffbb 70cb d33d
00000210: 5d61 4abc 38ae 533e d2ce d4ba 961e 71bd
00000220: 6c95 80bd 485c 5b3d 22cb fb3d 008c fabd
00000230: 045b 273d 3c2c 1ebe a2b4 b23d 3b17 d2bc
00000240: 071e 823d e610 5e3d 89b7 953d c479 0dbe
00000250: c96f b93b 55bd ad3d 53a1 49bc bbe1 813c
00000260: 68f6 d1bd 5629 593d fd64 b83d f5af 80bd
00000270: 780b cbbd 13b1 82bd bd0f dd3d e556 c73c
00000280: b59c 43be a378 9abc 335c f93c 07bf 93bd
00000290: 5613 e83d 7185 5a3d fad1 ab3c 5609 10bd
000002a0: cdb8 153d e897 13bd 99ba 233d 19fd adbb
000002b0: 1e0b 883a a9f6 1ebd abc1 d23d 83c9 c9bd
000002c0: b0fc 323d 4f27 e8bc 534b 923d b889 4abd
000002d0: e357 853d 76fd 933c 986d e2b9 48a6 003a
000002e0: 42ab 15be 8674 8d3d 6bc9 5cbb 23ee 03be
000002f0: fc67 733d 4b5f 783c 76c2 cdbd d1ae c9bc
00000300: dc1a 3ebd e210 c83d 524d 8b3d c0d5 93bb
00000310: 9314 24be 93d4 eb3d b79e 1cbd a4e8 8cbc
00000320: 7c7e c93c 3d6a 7c3d 9da2 6b3d 0a5e ec3c
00000330: aac8 15bc 9db0 e13d 5686 59bd 8c22 5cbd
00000340: 96e2 1fbb 1bf9 33bd 087c 74bd 4a72 303d
00000350: 13b2 b93c baa4 f7bd 84ac 913d 39e6 883d
00000360: b928 f93d 08e9 1fbd 7560 a83c d49e ff3c
00000370: b448 7f3d c29e 4a3d 6d66 903c 1ba3 fc3c
00000380: 8545 79bd d7fb a43c 9cc6 efbd fb24 393d
00000390: 1bc0 12bc c98e 993c ad67 00bd b2eb 14bd
000003a0: 592f 78bd cbce 29bd 8cd0 0f3d 9692 30bb
000003b0: 891f c03d e375 15be 3982 9b3d 8010 003c
000003c0: 13a0 42bc f293 2f3e 0b02 c5bd a3ee 343b
000003d0: 3804 b93d 505c f7bd ff9f b13d 2a8e 6a3d
000003e0: f089 ab3d 6f38 d33d b906 82bd beba 273d
000003f0: 32cf 58bd e79c 90bd e156 edbc 716f 1a3d

fc2.0.bias f4 [84]
-0.046937574 -0.01370924 0.02489192 0.010808382 0.0020804913 0.09101077 0.028173164 0.0075064762
0.02825215 -0.09795035 -0.027692059 0.00783161 0.07026658 -0.007802459 -0.02644436 0.043916643
-0.027693976 -0.083843045 -0.022234831 0.05768717 0.043121632 -0.07744382 -0.022708695 0.004771985
0.071632914 0.036707897 -0.16198295 -0.0037709735 -0.0026686562 -0.052994568 -0.03518649 0.11538126
-0.12278188 0.0033715158 -0.054104127 -0.04651775 -0.038926475 0.06390369 0.08790106 0.07599059
0.099792615 0.034700017 0.009200982 -0.11314954 -0.017725533 0.018908901 0.109491415 0.06504052
-0.037032012 -0.05697022 0.05671304 -0.16001247 -0.0542663 0.118655205 -0.011939603 -0.10843776
0.018022472 -0.094634585 0.0273466 -0.043384302 0.036920354 -0.083626404 0.0047508874 -0.01199332
0.010449547 0.07822505 -0.06544347 -0.1297796 0.028578801 -0.066307805 -0.02668827 0.017790772
-0.034795824 -0.07484748 0.10875177 -0.06413375 0.07749136 0.017885739 -0.07452681 -0.060830783
0.04876731 -0.025218472 0.040761612 -0.008967394
00000000: 9d41 40bd b89c 60bc 24ea cb3c a415 313c
00000010: da58 083b db63 ba3d 68cb e63c e3f8 f53b
00000020: 0e71 e73c 319a c8bd 75da e2bc 2750 003c
00000030: ede7 8f3d c5ab ffbb d8a1 d8bc f0e1 333d
00000040: 7ade e2bc e7b5 abbd d225 b6bc 6249 6c3d
00000050: 4fa0 303d de9a 9ebd 9607 babc 505e 9c3b
00000060: 47b4 923d 055b 163d dcde 25be 7022 77bb
00000070: 9fe4 2ebb d510 59bd b51f 10bd 034d ec3d
00000080: 1175 fbbd a6f4 5c3b 4a9c 5dbd 6589 3ebd
00000090: 5e71 1fbd f0df 823d 7905 b43d f4a0 9b3d
000000a0: 1260 cc3d 9b21 0e3d b7bf 163c f2ba e7bd
000000b0: 2335 91bc d7e6 9a3c 093d e03d f733 853d
000000c0: e1ae 17bd 9b59 69bd ef4b 683d 4fda 23be
000000d0: 5746 5ebd 8001 f33d 539e 43bc 9e14 debd
000000e0: dda3 933c c7cf c1bd fa05 e03c bdb3 31bd
000000f0: cc39 173d 5244 abbd 55ad 9b3b a17f 44bc
00000100: 9434 2b3c 7434 a03d 3a07 86bd f2e4 04be
00000110: 171e ea3c 63cc 87bd 5ca1 dabc f4bd 913c
00000120: 1186 0ebd a349 99bd 3fb9 de3d 8e58 83bd
00000130: cab3 9e3d 1d85 923c 83a1 98bd b329 79bd
00000140: 3bc0 473d f896 cebc a6f5 263d faeb 12bc

fc3.0.weight f4 [10, 84]
0.10185307 -0.24109846 -0.10315834 0.043975256 -0.12791033 0.09492148 -0.13203162 0.16583343
0.13741784 0.20644774 0.11291734 -0.13125914 0.2581557 0.30732518 0.10860642 0.049332675
-0.120760225 -0.20778063 -0.10459554 -0.2065407 0.09760309 0.1767519 0.1988588 -0.14638239
0.29897466 -0.09660565 0.14546593 -0.17260171 0.12667885 -0.19628724 -0.17179748 -0.057040483
0.25419724 -0.14985542 0.1741879 -0.13780838 0.08124713 -0.11174229 0.034818288 -0.051636826
0.15893255 -0.11291693 0.11460131 0.15244119 -0.1380164 0.14109595 -0.18074682 -0.18222448
-0.23827566 0.07550286 0.27544233 0.12447983 0.12018824 0.038769405 -0.15755273 -0.09616091
-0.045112662 0.12360973 -0.17465295 0.16553137 -0.00081896695 -0.006746619 -0.100275725 0.030876197
-0.03785817 -0.1083848 -0.07910071 0.24736613 0.13618469 0.26219332 0.16852339 -0.20466995
0.01846115 0.17600285 -0.17055647 -0.17971696 0.17257644 -0.10106603 0.128441 0.018295264
0.15362002 0.18158719 -0.20182261 0.25524354 -0.161527 0.03641169 0.20740528 -0.10517342
0.14047348 -0.1655762 -0.2284754 -0.19427103 -0.10968005 -0.18845004 -0.15936251 0.1101722
0.28421775 0.22923768 0.207169 0.21563719 0.20971273 -0.15594196 0.23901568 0.18023482
0.0012357035 -0.17287794 0.14058611 -0.23199673 0.16433911 -0.12608975 -0.1849673 0.19892038
-0.15342894 -0.120530374 0.12544532 0.037864584 0.20664884 0.11487439 -0.1770298 0.14819999
-0.24070874 0.16506834 -0.054104324 0.13381456 -0.09086421 -0.13050036 -0.07760902 -0.089377105
0.09454427 0.18997969 0.24009685 -0.054140463 -0.16348998 0.11394798 0.1615851 -0.11012743
-0.24618493 0.12513791 0.16298094 -0.15974587 0.16569388 -0.014722755 -0.008348688 0.11806297
0.12768649 0.118885525 0.042308725 -0.16337493 0.0476616 0.028133066 0.22577958 -0.080067724
-0.2697488 0.1185946 -0.12282156 0.1724966 -0.2097922 -0.15213485 0.19142382 -0.17993118
-0.1277457 0.20466335 -0.11934928 -0.19920789 -0.20786566 0.07814845 -0.19015144 -0.13086137
-0.12735866 0.0054670023 -0.11527598 0.010943967 -0.16865133 0.13876826 0.056190886 -0.1750679
0.035764787 -0.11607983 -0.22343741 -0.18078153 -0.05739738 -0.17751917 -0.15965395 0.14421421
0.15944825 -0.10293213 -0.07183313 0.10489743 -0.105707474 0.18019116 -0.08565193 0.07071711
0.21180335 -0.13728388 -0.117739595 -0.18685886 -0.16636606 0.03419439 0.085580185 0.17122659
0.123251304 -0.13634409 -0.15402378 0.030056516 0.14584127 0.16486804 0.13390563 -0.029029723
0.24594086 -0.14719693 -0.16928302 0.1962231 0.1885283 0.07945879 0.06068058 0.20456749
-0.21332842 -0.10370977 -0.023655511 -0.22285683 -0.09781004 0.084984414 -0.19523586 0.11788965
-0.15924641 0.10500131 0.21300614 0.008322 0.17183396 -0.07368986 -0.11835752 0.084223986
0.23337239 -0.19388278 -0.037934963 -0.09159018 0.12712899 -0.1458033 -0.21162418 0.10020494
0.090091266 -0.10666898 -0.19698398 -0.014901785 0.13750273 0.14903422 0.11386218 0.22921056
-0.03925413 0.18438776 -0.12626551 -0.16570199 -0.114838615 -0.092119835 -0.11327778 0.14997159
00000000: 5898 d03d 84e2 76be ae44 d3bd 661f 343d
00000010: edfa 02be 3166 c23d 4c33 07be 3dd0 293e
00000020: 43b7 0c3e 0967 533e 3541 e73d cc68 06be
00000030: fc2c 843e ba59 9d3e 0b6d de3d 0f11 4a3d
00000040: 2351 f7bd 72c4 54be 3036 d6bd 687f 53be
00000050: 21e4 c73d 73fe 343e a4a1 4b3e 44e5 15be
00000060: 3513 993e 2fd9 c5bd 05f5 143e 81be 30be
00000070: 1ab8 013e 86ff 48be aeeb 2fbe 48a3 69bd
00000080: 2426 823e b373 19be 505e 323e a41d 0dbe
00000090: e564 a63d 24d9 e4bd 9f9d 0e3d 2381 53bd
000000a0: 37bf 223e fe40 e7bd 17b4 ea3d 8b19 1c3e
000000b0: 2c54 0dbe 757b 103e b215 39be 0e99 3abe
000000c0: 89fe 73be 3ea1 9a3d c706 8d3e 48ef fe3d
000000d0: 4125 f63d abcc 1e3d 8155 21be 03f0 c4bd
000000e0: 0ec8 38bd 1927 fd3d 39d8 32be 0e81 293e
000000f0: f1af 56ba be12 ddbb 5c5d cdbd 14f0 fc3c
00000100: 2b11 1bbd daf8 ddbd 8eff a1bd 8c4d 7d3e
00000110: 0074 0b3e 343e 863e 6591 2c3e 0095 51be
00000120: d63b 973c 173a 343e 5ba6 2ebe b907 38be
00000130: e1b7 303e b5fb cebd 0a86 033e f3df 953c
00000140: 914e 1d3e fef1 393e 96aa 4ebe 48af 823e
00000150: 5567 25be 6d24 153d 0d62 543e 2965 d7bd
00000160: 48d8 0f3e cf8c 29be 75f5 69be fcee 46be
00000170: ef9f e0bd 0cf9 40be ed2f 23be f6a1 e13d
00000180: fd84 913e 48bd 6a3e 1c24 543e ffcf 5c3e
00000190: efbe 563e 40af 1fbe 87c0 743e 7a8f 383e
000001a0: 54f7 a13a ea06 31be cef5 0f3e 8d90 6dbe
000001b0: 8348 283e ac1d 01be 1168 3dbe c9b1 4b3e
000001c0: 7a1c 1dbe a1d8 f6bd bd74 003e e517 1b3d
000001d0: c19b 533e 4443 eb3d 4d47 35be bdc1 173e
000001e0: 5a7c 76be ad07 293e 7f9c 5dbd af06 093e
000001f0: 0417 babd e3a1 05be 7af1 9ebd 580b b7bd
00000200: 6da0 c13d 098a 423e f3db 753e 64c2 5dbd
00000210: eb69 27be 8f5d e93d 9176 253e 7d8a e1bd
00000220: e717 7cbe 2724 003e 7ae4 263e 6c94 23be
00000230: a8ab 293e b637 71bc efc8 08bc 00cb f13d
00000240: 3fc0 023e 417a f33d ea4b 2d3d c24b 27be
00000250: cf38 433d 5177 e63c c332 673e 8cfa a3bd
00000260: 841c 8abe bae1 f23d df89 fbbd f3a2 303e
00000270: c4d3 56be 3dc9 1bbe 9b04 443e e13f 38be
00000280: c5cf 02be 4593 513e 656d f4bd 27fd 4bbe
00000290: bcda 54be 4b0c a03d 0fb7 42be 8600 06be
000002a0: 4f6a 02be 8a24 b33b d015 ecbd 534e 333c
000002b0: efb2 2cbe 4419 0e3e 6a28 663d 0045 33be
000002c0: 197e 123d 43bb edbd c7cc 64be cb1e 39be
000002d0: 8419 6bbd 96c7 35be 537c 23be e4ac 133e
000002e0: 6746 233e 15ce d2bd 401d 93bd 77d4 d63d
000002f0: 297d d8bd 0884 383e 476a afbd 22d4 903d
00000300: fae2 583e 2594 0cbe 7521 f1bd ee57 3fbe
00000310: dd5b 2abe 6b0f 0c3d aa44 af3d 0656 2f3e
00000320: 2e6b fc3d c99d 0bbe 69b8 1dbe 1539 f63c
00000330: 6a57 153e 2bd3 283e 8f1e 093e becf edbc
00000340: ecd7 7b3e cbba 16be 8758 2dbe b5ee 483e
00000350: 900d 413e 4abb a23d 338c 783d 247a 513e
00000360: c472 5abe ca65 d4bd 34c9 c1bc 9534 64be
00000370: a150 c8bd 4f0c ae3d e9eb 47be 2170 f13d
00000380: 7e11 23be ed0a d73d 481e 5a3e ff58 083c
00000390: 3ef5 2f3e b6ea 96bd 6d65 f2bd a07d ac3d
000003a0: 2cf9 6e3e 3589 46be b161 1bbd a293 bbbd
000003b0: 1a2e 023e 764d 15be 02b4 58be 3f38 cd3d
000003c0: c581 b83d 4475 dabd 2bb6 49be 9e26 74bc
000003d0: 84cd 0c3e 6d9c 183e 9330 e93d 2cb6 6a3e
000003e0: f0c8 20bd 25d0 3c3e bf4b 01be c8ad 29be
000003f0: 8230 ebbd 53a9 bcbd 2efe e7bd 2792 193e

fc3.0.bias f4 [10]
-0.115067996 -0.008598868 0.17572865 0.012184361 0.07969738 0.06662284 -0.1455413 0.14783126
-0.020752238 0.033993904
00000000: c5a8 ebbd 44e2 0cbc 36f2 333e eaa0 473c
00000010: 6138 a33d 8e71 883d c708 15be 1461 173e
00000020: 9900 aabc 313d 0b3d
