save_checkpoints/LeNet5_epoch_19.pth (torch, 249863 bytes, 10 tensors)

conv1.0.weight f4 [6, 1, 5, 5]
0	0x3c9c6e17	0.019095464
1	0x3d819521	0.06327272
2	0xbe1fa5d6	-0.15590605
3	0xbde45ae9	-0.11150152
4	0xbc7680bf	-0.015045344
5	0xbdd5a3f2	-0.10431661
6	0xbd9da62b	-0.0769771
7	0x3af67227	0.0018802331
8	0x3dc19b6f	0.09453475
9	0xbda81f0d	-0.082090475
10	0x3daae27e	0.08343981
11	0xbc13ef82	-0.009029271
12	0xbc8ed8e8	-0.017437413
13	0xbd9039fc	-0.0704231
14	0x3e8916a0	0.26775074
15	0x3e5aa6dd	0.21352716
16	0x3e576ee4	0.21038395
17	0x3eac6c4d	0.33676377
18	0x3daf90af	0.08572518
19	0xbdb42c67	-0.087975316
20	0xbdf0dc5e	-0.11760782
21	0x3cdcac3b	0.026937595
22	0xbe931d31	-0.2873321
23	0xbd14ea65	-0.03635635
24	0xbd5a4cee	-0.053296022
25	0xbceaaee5	-0.02864785
26	0xbc7d931a	-0.015476966
27	0xbca6cee3	-0.020362323
28	0xbd96a7e6	-0.07356243
29	0x3e17b972	0.14816836
30	0xbd338095	-0.043823797
31	0xbe136cea	-0.14397016
32	0x3e011d95	0.12608941
33	0x3e821634	0.25407565
34	0x3d642127	0.05569568
35	0x3dcd037f	0.100104325
36	0x3e19d602	0.15023044
37	0x3daaa552	0.083323136
38	0x3de7a9ba	0.1131167
39	0x3dce6d2c	0.10079417
40	0xbe93fa84	-0.28902066
41	0x3dbc4765	0.09193305
42	0x3e838378	0.2568624
43	0x3c05611f	0.008140831
44	0xbe72bbe9	-0.23704495
45	0xbe60315c	-0.21893829
46	0x3cc16e76	0.023612242
47	0xbe6dbd0b	-0.23216645
48	0x3c5c6787	0.013452417
49	0xbdd5fa4f	-0.10448133
50	0x3c8520e3	0.016251033
51	0x3d9c9077	0.07644742
52	0x3e2d14ee	0.16902515
53	0x3d5e3176	0.05424639
54	0xbc410e19	-0.011783146
55	0x3e01709e	0.12640616
56	0xbdca87a5	-0.098891534
57	0xbc223d3d	-0.009902296
58	0x3dadb13e	0.08481072
59	0x3db0a83f	0.086258404
60	0x3e0590d7	0.13043533
61	0x3e474f26	0.19463786
62	0xbda20e30	-0.07912862
63	0x3dce6bf8	0.10079187
64	0xbda51f76	-0.08062641
65	0xbe4cb87d	-0.19992252
66	0xbeadeb51	-0.33968595
67	0xbdf3a4e9	-0.118966885
68	0xbe729e00	-0.23693085
69	0x3e3dd827	0.18539487
70	0xbebd8ba7	-0.3702061
71	0xbd915fd4	-0.07098356
72	0x3cdd58cd	0.027019883
73	0xbdf980ef	-0.12182795
74	0xbeaba68e	-0.3352551
75	0xbbdb666b	-0.006695559
76	0xbcc70e51	-0.024298819
77	0xbe109923	-0.14120917
78	0x3d6b3d99	0.05743179
79	0xbe3ba2cb	-0.1832382
80	0x3d4812f1	0.04884619
81	0xbdaf3f08	-0.08556944
82	0xbd1627e9	-0.036659155
83	0x3dad7adc	0.08470699
84	0xbd489141	-0.04896665
85	0xbc69ec35	-0.014277508
86	0xbd1dd1a4	-0.038530007
87	0xbe5804de	-0.21095607
88	0x3e2f038b	0.17091195
89	0xbdba94f2	-0.0911044
90	0x3e013b87	0.12620364
91	0x3db2537d	0.087073304
92	0x3e0d5f5f	0.13805912
93	0xbd5b66b4	-0.053564742
94	0x3eb23b2d	0.34810773
95	0xbd524a8f	-0.051340636
96	0x3dd46c84	0.1037226
97	0x3e6c1bc1	0.23057462
98	0xbbc5b7ed	-0.0060338886
99	0xbc31e455	-0.010857661
100	0xbd0d2ed6	-0.034468494
101	0x3d29b6ab	0.04143397
102	0x3aa0f223	0.0012279194
103	0x3e2aa8b0	0.16665912
104	0xbe6ddb8d	-0.23228283
105	0xb61789db	-2.2580996e-06
106	0x3da10b64	0.07863501
107	0x3e3d67b2	0.18496588
108	0x3e06ae46	0.13152418
109	0x3d96dce9	0.07366354
110	0xbe629898	-0.22128522
111	0x3e28ddf1	0.16490914
112	0x3da5160e	0.08060847
113	0x3cf8495e	0.030308422
114	0x3d44ad8b	0.048017066
115	0x3d4050e2	0.046952136
116	0x3e5548ad	0.20828505
117	0xbd399f5f	-0.045318004
118	0x3ba8d3d2	0.005152204
119	0xbdb0dc0a	-0.08635719
120	0x3cc89712	0.024486098
121	0x3d8e83a6	0.06958704
122	0x3c821e4c	0.015883587
123	0xbd8281eb	-0.06372436
124	0xbe7d8a76	-0.2475985
125	0x3dae8103	0.08520701
126	0x3e39c17b	0.18140213
127	0x3cc692c1	0.0242399
128	0x3dfdeb86	0.12398438
129	0x3cbe5daa	0.023238022
130	0xbd1e16d1	-0.03859598
131	0xbdade1a5	-0.08490304
132	0x3e63668a	0.22207084
133	0xbd32a1fe	-0.04361152
134	0xbc402c0a	-0.01172925
135	0x3d91dbdb	0.07122012
136	0x3d4ac203	0.04950143
137	0x3dbb26cd	0.0913826
138	0x3d5624a5	0.05228104
139	0xbd2a1bca	-0.041530408
140	0xbd9bf5c6	-0.07615237
141	0xbdadac0d	-0.08480082
142	0x3de78d29	0.11306221
143	0xbe6ec6bf	-0.23318003
144	0xbe4de0e3	-0.20105319
145	0xbd50d4cd	-0.050984193
146	0x3dbc9de2	0.09209801
147	0xbe23c4d9	-0.1599306
148	0xbde4aacd	-0.1116539
149	0x3d55bdb9	0.052182887

conv1.0.bias f4 [6]
0	0xbe17dac5	-0.14829548
1	0x3c3ff13d	0.0117152305
2	0xbdfc6bfc	-0.12325284
3	0x3e083c9a	0.13304368
4	0xbe99fd21	-0.30075935
5	0xbe6af7e5	-0.22946127

conv2.0.weight f4 [16, 6, 5, 5]
0	0x3d64de91	0.05587632
1	0x3cc44735	0.023959735
2	0x3b6ed934	0.003644538
3	0xbdcf0e9b	-0.10110208
4	0xbe2d8707	-0.1694604
5	0xbcf894a5	-0.030344317
6	0x3d8b742c	0.068092674
7	0x3d98712f	0.07443463
8	0xbaab6f7f	-0.0013079493
9	0xbe0c8488	-0.13722432
10	0xbde32de5	-0.11092738
11	0xbe01d5f0	-0.12679267
12	0xbc9388f1	-0.018009635
13	0x3cb94063	0.02261371
14	0xbd7c713e	-0.061631434
15	0xbdb9d860	-0.090744734
16	0xbdc775f9	-0.097392984
17	0xbd86db41	-0.06584788
18	0xbdc00d06	-0.09377484
19	0xbe1e64c7	-0.15468131
20	0xbd70cf62	-0.058791526
21	0xbd3ffa1f	-0.046869393
22	0xbd64e7b2	-0.055885024
23	0xbdde622f	-0.10858571
24	0xbdb0bca9	-0.08629734
25	0xbd4a197d	-0.049340714
26	0xbe177442	-0.14790443
27	0xbe1fb215	-0.15595277
28	0xbdf0bb70	-0.11754501
29	0xbcfaa3db	-0.03059571
30	0x3e0272f6	0.12739167
31	0x3dd5a9c0	0.10432768
32	0xbc43e188	-0.011955626
33	0xbd443196	-0.04789885
34	0xbdf5279f	-0.11970448
35	0x3e09e132	0.13464811
36	0x3e151159	0.14557399
37	0x3d86ef6b	0.06588634
38	0xbcb0d8c8	-0.021587744
39	0xbdaaacf2	-0.08333768
40	0xbdae8055	-0.08520571
41	0xbbeffbe4	-0.007323729
42	0x3db67e34	0.0891079
43	0x3d821ac7	0.063527636
44	0xbbaa8402	-0.005203725
45	0x3cc5cd4a	0.024145741
46	0xbca18f5f	-0.019721685
47	0x3d874de6	0.06606655
48	0x3d726342	0.05917669
49	0xbd38cb0f	-0.045115527
50	0xbd9f6a49	-0.07783944
51	0xbdde35c8	-0.10850102
52	0xbdd81793	-0.105513714
53	0xbdb40da3	-0.087916635
54	0x3e00e16e	0.12585995
55	0x3e2134ee	0.15742847
56	0xbd295812	-0.041343756
57	0xbe6fde51	-0.2342465
58	0xbe8358bd	-0.2565364
59	0xbe318eee	-0.1733968
60	0x3db6d48c	0.08927259
61	0x3e02d141	0.12775137
62	0x3dc6ce35	0.097072996
63	0xbd36204c	-0.044464394
64	0xbdfaafb9	-0.12240548
65	0xbdf90cfe	-0.12160681
66	0x3bab6c3d	0.005231409
67	0x3c06bae3	0.008223268
68	0xbd09896b	-0.033578318
69	0xbc8d0a5c	-0.017216854
70	0xbcbcdd42	-0.023054723
71	0x3b450488	0.0030062515
72	0x3d0fff3b	0.035155516
73	0x3d379d8d	0.044827987
74	0x3daf4c4c	0.08559474
75	0x3da33d55	0.079706825
76	0x3d98903d	0.07449386
77	0x3c8b6f01	0.017020704
78	0xbd92bae3	-0.07164552
79	0xbd93ccf0	-0.07216823
80	0xbd9b3574	-0.07578555
81	0x3cccfc3c	0.025022618
82	0x3d4dbfc6	0.050231718
83	0x3a02fc3e	0.00049966935
84	0xbc0bc1bc	-0.008530077
85	0xbe24ad71	-0.16081788
86	0xbdb6fe74	-0.08935252
87	0xbc06a134	-0.008217145
88	0xbd5bddb2	-0.053678222
89	0xbd52c27a	-0.051455
90	0xbc140f99	-0.009036922
91	0xbd9dd4f0	-0.0770663
92	0xbd2c5f3e	-0.042083018
93	0xbdc50aba	-0.096211866
94	0xbe267631	-0.16256024
95	0xbd985d1f	-0.074396364
96	0xbdf30bf2	-0.11867513
97	0xbdd379a8	-0.103259385
98	0xbc858cfe	-0.016302582
99	0xbc5e31dc	-0.013561692
100	0x3d27d429	0.040973816
101	0xbba852b6	-0.005136813
102	0x3da25adc	0.07927486
103	0x3d85cfa6	0.065337464
104	0x3c07fcf0	0.008300051
105	0x3dea2190	0.11432183
106	0x3d95204c	0.07281551
107	0x3e0e2dcc	0.13884658
108	0x3e016d20	0.12639284
109	0xbd284de3	-0.041089904
110	0xbd2bfe12	-0.041990347
111	0x3d0ad3b3	0.0338933
112	0x3e0ba445	0.13636883
113	0x3df49aa6	0.11943559
114	0x3d822b4e	0.06355916
115	0xbd92aa40	-0.07161379
116	0xbdfbf0bb	-0.12301775
117	0xbdbf0738	-0.09327549
118	0xbcf11598	-0.029429242
119	0xbc2c56a8	-0.010518707
120	0xbd8c7866	-0.06858902
121	0xbd74a5b6	-0.059728347
122	0xbdd9adfd	-0.10628889
123	0xbdf3dbc3	-0.119071506
124	0xbe0d1bdc	-0.13780159
125	0xbd5dff5a	-0.0541986
126	0xbe0b72d6	-0.13618025
127	0xbe15b09d	-0.14618154
128	0xbd30401e	-0.043029897
129	0xbc66ac5d	-0.014079181
130	0xbd589877	-0.052879777
131	0xbe27335f	-0.1632819
132	0xbe6b5d99	-0.22984923
133	0xbe5b755d	-0.2143149
134	0xbe5803ab	-0.21095149
135	0x3d6d5a67	0.057947543
136	0x3d361910	0.044457495
137	0x3cf60f2e	0.030036535
138	0xbd67e3db	-0.056613784
139	0xbe0e153a	-0.13875285
140	0xbda2bdcf	-0.07946359
141	0xbc8f2d09	-0.01747753
142	0x3ccdfa4d	0.025143767
143	0xbb979644	-0.0046260674
144	0xbd3fb4dc	-0.04680334
145	0xbd1ea9a0	-0.038735986
146	0xbde1d1fe	-0.11026381
147	0xbbbd74a4	-0.005781727
148	0x3d54e038	0.051971644
149	0x3b0837d0	0.002078522
150	0x3d39e667	0.045385744
151	0xbd6fd101	-0.05854893
152	0xbda4eaa3	-0.08052566
153	0xbdbd587d	-0.092453934
154	0xbe42f410	-0.19038415
155	0x3ad0ae35	0.0015921058
156	0xbdf11980	-0.11772442
157	0xbe05635a	-0.13026181
158	0xbe4374a3	-0.19087462
159	0xbe1b8843	-0.15188698
160	0x3d92e055	0.07171694
161	0x3d0c95a0	0.03432238
162	0xbcaefa2a	-0.021359522
163	0xbbd2f246	-0.0064375727
164	0x3c4bd35b	0.012440528
165	0x3e0f9f5a	0.14025632
166	0x3e1897d4	0.14901668
167	0x3db62ef8	0.08895677
168	0x3ce29251	0.02765766
169	0xbc2b4843	-0.01045424
170	0x3cf7c85f	0.030246912
171	0x3ddc3c4a	0.10753687
172	0xbd2327a1	-0.039832715
173	0xbc80ae97	-0.01570825
174	0xba38b65d	-0.0007046217
175	0xbda84863	-0.08216932
176	0xbd7896e5	-0.06069078
177	0xbdd7c8bd	-0.10536335
178	0xbdf19cdf	-0.11797499
179	0xbd8c0753	-0.068373345
180	0xbdc9dc13	-0.09856429
181	0x3da59d9b	0.080867015
182	0xbd97a78e	-0.074050054
183	0xbde84a37	-0.1134228
184	0xbd4e05c9	-0.050298486
185	0xbe386f85	-0.18011291
186	0xbc3b6e7f	-0.011439919
187	0xbe01af7f	-0.12664603
188	0xbda4cb30	-0.080465674
189	0xbceb8329	-0.028749065
190	0xbc9ab9db	-0.01888745
191	0xbc82385d	-0.015896017
192	0x3d404f7f	0.046950813
193	0x3dfb4802	0.12269594
194	0xbd008eb0	-0.031386077
195	0x3dd372ff	0.10324668
196	0xba59382e	-0.00082862645
197	0x3d81fd72	0.06347169
198	0x3dadacdf	0.08480238
199	0xbd60fb19	-0.054926965
200	0x3d8702bb	0.06592318
201	0xbcf403bc	-0.029786937
202	0xbe438aa2	-0.19095853
203	0xbd7c3993	-0.061578345
204	0x3c334e90	0.010944024
205	0x3e55f380	0.20893669
206	0xbc8ca9c7	-0.0171708
207	0xbe7e0f0d	-0.24810429
208	0xbdc65ef6	-0.09686081
209	0xbc774dfa	-0.015094275
210	0xbdf630ca	-0.120210245
211	0xbd6e5125	-0.058182854
212	0xbdb8d9e7	-0.090259366
213	0xbe69451e	-0.22780272
214	0xbe6ba366	-0.2301155
215	0xbd1d1a94	-0.038355425
216	0x3daf64bf	0.08564138
217	0xbde2228f	-0.11041748
218	0xbd1b9ab0	-0.03798932
219	0xbd326ac5	-0.043558855
220	0x3d3b3d29	0.045712624
221	0x3a0d917f	0.0005400404
222	0x3e172430	0.14759898
223	0xbd32aefb	-0.043623906
224	0x3d1df950	0.03856784
225	0x3dbb0774	0.09132281
226	0x3d94b5b1	0.072612174
227	0xbd9267a7	-0.07148676
228	0xbdda07f3	-0.106460474
229	0xbdfa811a	-0.122316554
230	0x3c9575e9	0.0182447
231	0x3d46fda7	0.048581745
232	0xbc8cb492	-0.017175946
233	0xbc08e1c3	-0.008354607
234	0xbdaffab2	-0.08592738
235	0x3dc946ef	0.09827983
236	0x3d5ec069	0.054382715
237	0x3d90d2d1	0.0707146
238	0xbabd1cc6	-0.0014428131
239	0x3dac2d44	0.08407071
240	0x3de9aea3	0.114102624
241	0x3c018021	0.0079040835
242	0xbc76fac4	-0.015074436
243	0x3c00ee68	0.0078693405
244	0xbd5b84af	-0.053593334
245	0xbe8cb862	-0.27484423
246	0xbe44a3fe	-0.19203183
247	0xbe1a9ff2	-0.15100077
248	0xbe0fa7c8	-0.14028847
249	0xbe197bfe	-0.14988706
250	0x3ca0fa83	0.019650703
251	0xbdf4c752	-0.1195208
252	0xbad9589f	-0.0016582197
253	0x3abfd19c	0.0014634612
254	0xbd93bb66	-0.07213478
255	0x3bef209e	0.0072975894

conv2.0.bias f4 [16]
0	0xbe811937	-0.2521455
1	0xbe678117	-0.22607838
2	0xbe9e9541	-0.30973247
3	0xbe65f212	-0.22455624
4	0xbecb061b	-0.39653096
5	0xbea7d567	-0.3278
6	0xbf280450	-0.6563158
7	0xbeb8ab4f	-0.36068198
8	0xbe3e458e	-0.1858122
9	0xbe581dbb	-0.21105091
10	0xbed32aa8	-0.41243482
11	0xbd1cbeb2	-0.0382678
12	0xbc8c183f	-0.017101405
13	0xbe109a61	-0.14121391
14	0xbe2e948d	-0.17048855
15	0xbe1514d8	-0.14558733

fc1.0.weight f4 [120, 400]
0	0x3c3e821f	0.011627703
1	0xbd7b5f09	-0.06136993
2	0x3dbdf3ae	0.09274994
3	0x3dcb1802	0.099166885
4	0x3d4bc6c6	0.049750112
5	0xbc8e4ade	-0.017369684
6	0xbd97e18d	-0.07416067
7	0x3cd6551d	0.026163632
8	0x3dfcc4bb	0.12342211
9	0x3d93d911	0.072191365
10	0x3cc02cef	0.023458926
11	0x3d935001	0.07192994
12	0x3d613612	0.054983206
13	0x3c44ccc1	0.012011708
14	0xbd5e9744	-0.054343477
15	0x3d0adce9	0.033902083
16	0xbb8c7e26	-0.004287499
17	0xbc5eefe8	-0.013607003
18	0x3d6e8caa	0.058239616
19	0xbdb2f7a7	-0.08738642
20	0x3dc9bd9e	0.0985062
21	0x3cacadcb	0.021078965
22	0xbdba8c22	-0.091087595
23	0xbd00b4a6	-0.03142228
24	0x3df0681f	0.117386095
25	0xbcdd1feb	-0.026992759
26	0xbd1512d1	-0.036394898
27	0x3d7c1069	0.061539087
28	0x3d002dd6	0.031293713
29	0x3d6f3354	0.05839856
30	0x3d228b5d	0.03968369
31	0x3d60675a	0.054786064
32	0x3cd8569b	0.026408484
33	0xbc819029	-0.015815811
34	0x3d83a6e0	0.06428313
35	0xbd89c95b	-0.06727859
36	0xbd3e9c08	-0.04653552
37	0x3d817cde	0.06322645
38	0x3d873d67	0.066035084
39	0xbd7454d1	-0.0596512
40	0x3d8e7335	0.06955568
41	0x3d988978	0.07448095
42	0x3d3e9ad7	0.046534386
43	0xbbb7550d	-0.0055948556
44	0x3e03851e	0.12843749
45	0x3ddd1e09	0.107967444
46	0x3d062506	0.032750152
47	0xbdbd0d2f	-0.0923103
48	0xbc769145	-0.015049283
49	0xbb850ad6	-0.0040601296
50	0x3d1ff205	0.039049167
51	0x3db88902	0.09010507
52	0x3d36e9b5	0.044656474
53	0x3ce815c3	0.02833069
54	0xbc6014cd	-0.013676834
55	0x3db2906d	0.08718953
56	0x3de8f914	0.11375633
57	0x3d7cd9b0	0.06173104
58	0xbdcf5058	-0.10122746
59	0xbcb3b339	-0.021936046
60	0x3e6479d7	0.22312103
61	0x3c7b0270	0.015320405
62	0xbcf1af41	-0.029502513
63	0xbe0d2898	-0.13785017
64	0x3d9b7fd5	0.075927414
65	0x3e093aee	0.13401386
66	0x3d38a4ab	0.045078915
67	0xbcd0733b	-0.025445571
68	0xbcb73ad7	-0.022366924
69	0xbd805747	-0.06266647
70	0xbd0c90bd	-0.03431772
71	0x3c655966	0.013998365
72	0x3d830231	0.06396902
73	0xbdb96556	-0.090525314
74	0xbd444e56	-0.04792627
75	0x3d8a7e61	0.06762386
76	0x3d2b000e	0.0417481
77	0x3e1e6e87	0.1547185
78	0x3e67d161	0.22638465
79	0x3d9b7412	0.07590498
80	0x3e38b81b	0.1803898
81	0x3e4e8d32	0.20171049
82	0x3c6b1c73	0.014350045
83	0xbd16bf23	-0.036803376
84	0xbd57e361	-0.05270708
85	0x3e502774	0.2032755
86	0x3d07bf2a	0.033141293
87	0xbcc4454a	-0.02395882
88	0xbd785ee0	-0.060637355
89	0x3cde33ec	0.027124368
90	0xbd4b5369	-0.049640093
91	0x3c44fba5	0.012022887
92	0x3d29b912	0.041436262
93	0xbd2f5392	-0.04280431
94	0x3d7c00e8	0.0615243
95	0x3d85fa54	0.06541887
96	0xbc9e7ac3	-0.019345647
97	0xbd3bda63	-0.045862567
98	0xbe038a31	-0.12845685
99	0xbc1a351c	-0.009412076
100	0x3dcd5e2b	0.10027727
101	0x3d981689	0.07426173
102	0x3dcd7132	0.10031356
103	0x3dbdc645	0.092663325
104	0xbcc6bdcc	-0.024260424
105	0x3e22593c	0.15854353
106	0x3dc2be4a	0.09508951
107	0x3d5de392	0.054172106
108	0x3c72c217	0.014816782
109	0x3cc37fc5	0.023864636
110	0x3d6f5080	0.05842638
111	0xbd335e7c	-0.04379128
112	0x3d264f6e	0.040603094
113	0xbd15983f	-0.036522146
114	0xbd66ec21	-0.056377534
115	0x3ce247a9	0.02762206
116	0x3d548120	0.051880956
117	0x3df6fa5f	0.12059473
118	0xbd71b3f5	-0.05900951
119	0x3d113ab7	0.035456385
120	0x3d7768d6	0.060402714
121	0x3c0a90de	0.008457391
122	0xbd443209	-0.04789928
123	0xbccda348	-0.025102273
124	0xbcbb7921	-0.022884907
125	0x3dba258d	0.090891935
126	0xbbbbfa50	-0.0057366267
127	0xbe3f56fb	-0.18685524
128	0xbe818a16	-0.25300664
129	0xba279490	-0.0006392682
130	0x3d8188bc	0.06324908
131	0x3c5d96ae	0.013524694
132	0xbd93ed31	-0.07222975
133	0xbdf5d2e2	-0.12003113
134	0xbcd3f825	-0.02587516
135	0xbc1ec026	-0.009689366
136	0xbd9cdb0a	-0.07658966
137	0xbdb7fc66	-0.08983688
138	0xbd432732	-0.0476448
139	0xbbb03c2e	-0.0053782677
140	0x3e0ef183	0.13959317
141	0xbcffeb32	-0.03124008
142	0xbd539826	-0.051658772
143	0xbce694e7	-0.028147174
144	0x3c0af9ee	0.008482439
145	0xbdb26222	-0.087101236
146	0xbd47367c	-0.048635945
147	0x3cefc478	0.029268488
148	0xbbd62aaf	-0.00653585
149	0xbce3a8ec	-0.02779051
150	0x3cc857aa	0.024455864
151	0x3e030812	0.12796047
152	0xbdd38335	-0.1032776
153	0xbe38c899	-0.18045272
154	0xbd28a8c0	-0.041176558
155	0xbc96c73a	-0.018405546
156	0xbc7005be	-0.014649807
157	0xbdb9aa41	-0.090656765
158	0xbe063c95	-0.13109048
159	0xbde42ac4	-0.111409694
160	0x3c5c3575	0.0134404795
161	0xbc41680d	-0.011804593
162	0xbe1862eb	-0.14881484
163	0xbd134afd	-0.035960186
164	0x3d5cd14e	0.053910546
165	0x3d02884a	0.031868257
166	0xbdd3763c	-0.10325286
167	0xbc653bcf	-0.01399131
168	0xbd6f5c0a	-0.058437385
169	0xbc3de6e7	-0.011590696
170	0x3d123bdc	0.035701618
171	0x3b841262	0.0040305117
172	0x3c1a2608	0.009408481
173	0x3d692b7a	0.056926228
174	0xbddcc55f	-0.10779833
175	0xbd0f53b0	-0.03499192
176	0x3d70890a	0.05872444
177	0x3e1c48f6	0.15262207
178	0x3da80f1d	0.08206008
179	0xbca6c435	-0.02035723
180	0x3d87c620	0.06629586
181	0x3df446fa	0.119276
182	0x3d847e11	0.06469358
183	0x3df8d4f2	0.12149991
184	0xbd66c02e	-0.05633562
185	0x3dc3da15	0.0956308
186	0x3cb4fcda	0.022093225
187	0x3db91f31	0.090391524
188	0xbd86b6a9	-0.065778084
189	0xbcc28741	-0.023746135
190	0x3e5244c7	0.20534049
191	0x3d11aae0	0.03556335
192	0xbcd005da	-0.025393415
193	0x3c904806	0.017612468
194	0x3e02aa4d	0.12760277
195	0x3e0899fb	0.13339989
196	0x3da5594d	0.080736734
197	0xbd017a67	-0.031610873
198	0xbc4ef3dd	-0.012631384
199	0xbd6c707a	-0.057724454
200	0x3cd3efa9	0.025871115
201	0xbd0c7224	-0.03428854
202	0xbe0a404a	-0.13501087
203	0xbd426931	-0.0474636
204	0x3d7c7e5a	0.061643936
205	0xbda94457	-0.08264988
206	0x3da1dcc3	0.07903435
207	0xbc30520c	-0.010761749
208	0x3d254b9a	0.040355302
209	0xbc77b3a8	-0.015118517
210	0x3d18747f	0.037220474
211	0x3d471690	0.0486055
212	0xbdbb4b32	-0.09145202
213	0xbdcf9fcb	-0.101379
214	0x3d9f3090	0.077729344
215	0x3e11eca2	0.14250425
216	0x3c8c63bf	0.017137406
217	0xbc4b80be	-0.012420831
218	0xbdb391bd	-0.08768032
219	0xbcc017f4	-0.023448922
220	0xbcce7251	-0.025200995
221	0x3d15bd7f	0.03655767
222	0x3d1a2a50	0.03763801
223	0xbc26acef	-0.0101730665
224	0xbd93abe2	-0.072105184
225	0xbdecc236	-0.1156048
226	0xbd8a3399	-0.06748123
227	0xbdb03299	-0.08603401
228	0xbda1f346	-0.07907729
229	0xbdd01c8c	-0.10161695
230	0x3d3e5ced	0.04647534
231	0xbd8d8cbb	-0.06911608
232	0xbdaaacff	-0.08333778
233	0xbd63c77d	-0.05561017
234	0x3cff05c5	0.03113068
235	0xbdd8da67	-0.10588532
236	0xbd53f57a	-0.051747777
237	0xbd43970f	-0.047751483
238	0x3d8290dd	0.06375287
239	0x3bd8617e	0.006603419
240	0xbbc92b8d	-0.006139225
241	0xbda2204b	-0.07916316
242	0xbd2329d5	-0.039834816
243	0x3cd4ca09	0.025975244
244	0x3d830d69	0.06399042
245	0x3bc91334	0.0061363224
246	0x3d744d7e	0.059644215
247	0xbd3c82f8	-0.04602334
248	0xbc8f9d89	-0.017531173
249	0xbd959b5a	-0.073050216
250	0x3cb9f7e7	0.022701217
251	0x3d2f92c8	0.04286459
252	0x3d937256	0.07199542
253	0x3c4a3bac	0.012343328
254	0xbc0fc29e	-0.008774428
255	0x3df9d575	0.12198917

fc1.0.bias f4 [120]
0	0x3d8fbd3d	0.07018516
1	0x3e4fd299	0.2029518
2	0x3dce7578	0.10080999
3	0xbd835bad	-0.0641397
4	0x3e0fdca0	0.14049006
5	0xbcefc1b4	-0.02926717
6	0x3cba2992	0.0227249
7	0x3c15983e	0.009130536
8	0x3e008939	0.12552346
9	0x3e1e707b	0.15472595
10	0x3e383c7b	0.17991821
11	0xbcd199d3	-0.025586044
12	0xbd6e06d8	-0.058111995
13	0xbe008bec	-0.12553376
14	0x3d41e613	0.047338556
15	0xbe19578a	-0.149748
16	0xbd17528c	-0.036943957
17	0x3e0c2b6d	0.1368844
18	0x3e66d9cc	0.2254402
19	0xbde11e78	-0.109921396
20	0x3e97664b	0.2957023
21	0xbd3696f2	-0.044577546
22	0x3e05fad2	0.13083962
23	0xbe352810	-0.17691064
24	0x3ce228ac	0.027607284
25	0x3d996684	0.074902564
26	0x3e526f2a	0.20550218
27	0xbe5c08b8	-0.21487701
28	0xbe7c7c01	-0.24656679
29	0x3e0bbf56	0.13647208
30	0xbd1dfcd7	-0.038571205
31	0xbe744de3	-0.23857836
32	0xbce510e4	-0.027962156
33	0xbd8634e2	-0.06553055
34	0x3e0d528d	0.13801022
35	0xbe11b773	-0.14230137
36	0xbd89a2ad	-0.06720481
37	0x3d99f8e5	0.07518176
38	0x3de0254a	0.10944612
39	0x3d3c5861	0.045982722
40	0x3e02a8a2	0.12759641
41	0xbd5dd79c	-0.0541607
42	0xbdaf5656	-0.08561389
43	0xba36436f	-0.00069527974
44	0x3d485bbd	0.048915613
45	0x3cde9e14	0.027174987
46	0x3e7f04b8	0.24904144
47	0xbc8e806e	-0.017395224
48	0x3e183775	0.14864905
49	0xbdf0fc0c	-0.11766824
50	0xbbde8ee9	-0.0067919386
51	0xbd4706d3	-0.048590492
52	0xbdd42da8	-0.10360271
53	0x3d0ed8d6	0.03487476
54	0x3d0b0347	0.033938672
55	0xbd912b5f	-0.070883505
56	0x3dd5c036	0.10437052
57	0xbe81bbe3	-0.2533866
58	0x3db17a6c	0.08665928
59	0xbd2bb466	-0.04192009
60	0xbe02cfd6	-0.12774596
61	0x3db3ee2c	0.08785662
62	0xbdcc14e2	-0.099649206
63	0xbb36f7e8	-0.002791876
64	0xbda2e809	-0.079544134
65	0xbdb912c3	-0.09036782
66	0xbe374c7d	-0.17900272
67	0xbd533005	-0.051559467
68	0x3dcdea37	0.100544386
69	0x3d888eb6	0.06667845
70	0xb9fd114e	-0.00048268813
71	0xbda71a40	-0.08159304
72	0x3e2d1dbc	0.16905874
73	0x3e61b374	0.22041112
74	0xbdb28b57	-0.08717983
75	0xbb57207f	-0.0032825766
76	0xbe6ca486	-0.23109636
77	0xbcb90a5c	-0.022587948
78	0xbdece4ca	-0.115670756
79	0x3dd13b06	0.10216336
80	0x3e61768d	0.2201788
81	0x3d842267	0.06451874
82	0x3e11a94c	0.14224738
83	0x3db08db4	0.08620778
84	0xbcea5515	-0.028605023
85	0xbe45b606	-0.19307718
86	0x3e23c505	0.15993126
87	0xbcab67a8	-0.02092345
88	0xbd2246ca	-0.03961829
89	0xbe8a64dc	-0.27030075
90	0x3c57cc1e	0.013171224
91	0xbdc845ee	-0.09778963
92	0x3c624a62	0.01381168
93	0x3c2429cb	0.01001973
94	0x3db70a2c	0.08937487
95	0x3d283554	0.041066483
96	0x3e483fa9	0.19555534
97	0x3c5f104f	0.013614728
98	0xbe37307b	-0.17889588
99	0xbe067c9f	-0.13133477
100	0x3dbd8e27	0.09255629
101	0x3d320cea	0.043469347
102	0xbdb41b15	-0.08794228
103	0xbcada136	-0.021195035
104	0x3dfafe81	0.12255574
105	0xbafb26ae	-0.0019161308
106	0x3e30e9ae	0.17276642
107	0x3e08a156	0.13342795
108	0xbd657d28	-0.05602756
109	0x3cc82559	0.024431871
110	0x3dc179ea	0.094470814
111	0xbc90f26b	-0.017693719
112	0xbd7d888f	-0.06189781
113	0x3d5a9658	0.053366035
114	0x3bc9bb0b	0.0061563305
115	0xbe88a347	-0.2668707
116	0x3debe042	0.11517383
117	0xbda5c007	-0.08093267
118	0xbda5ad8a	-0.080897406
119	0x3e4521a4	0.19251114

fc2.0.weight f4 [84, 120]
0	0x3dd84756	0.10560481
1	0x3d913067	0.0708931
2	0xbe138f05	-0.14410026
3	0xbd7a3f85	-0.061095733
4	0xbd0dc82a	-0.03461472
5	0xbe3bd81f	-0.18344162
6	0xbddbac8e	-0.107262716
7	0x3c697144	0.014248196
8	0xbe15253b	-0.14564984
9	0x3dab79ec	0.08372864
10	0xbe217269	-0.157663
11	0x3dc8003b	0.09765669
12	0x3b93923a	0.0045035155
13	0x3e1027a7	0.14077626
14	0xbd0bbff5	-0.03411861
15	0x3ce93863	0.02846927
16	0xbdc117c5	-0.09428362
17	0x3d65550c	0.05598931
18	0xbe177d56	-0.14793906
19	0x3c291007	0.010318763
20	0x3da08369	0.078375645
21	0xbd603519	-0.054738138
22	0x3d61cc2e	0.05512636
23	0xbd45fea8	-0.048338562
24	0xbe0bd299	-0.13654555
25	0xbda8502a	-0.08218415
26	0xbd45c0b2	-0.04827947
27	0x3cc6376a	0.024196345
28	0x3d7bebc4	0.06150414
29	0x3d86dd15	0.06585137
30	0xbe059bdb	-0.13047735
31	0x3d7cc977	0.06171557
32	0x3dca52b5	0.09879056
33	0x3cf039f8	0.029324517
34	0x3c4e979a	0.012609387
35	0x3cb15759	0.021648096
36	0xbd4999e4	-0.049219027
37	0xbd783645	-0.06059863
38	0xbd3cf2ed	-0.04613011
39	0xbe179c18	-0.14805639
40	0xbd20a86f	-0.03922313
41	0xbda6ca40	-0.08144045
42	0x3a242a49	0.00062624045
43	0x3d9e4f7a	0.07730003
44	0xbdf4509b	-0.11929437
45	0xbd35aabc	-0.044352278
46	0xbc8f1819	-0.017467545
47	0xbdda5c9c	-0.10662195
48	0x3e30000a	0.17187515
49	0xbd2b91ba	-0.041887023
50	0xbd679c7d	-0.056545723
51	0x3d5568b6	0.052101813
52	0x3da203b2	0.07910861
53	0x3e0749f3	0.13211803
54	0x3e144d73	0.1448267
55	0xbe29d221	-0.16584064
56	0xbd6c9ae5	-0.057764906
57	0xbc725552	-0.01479085
58	0x3c82df92	0.015975747
59	0xbd9877c9	-0.07444722
60	0x3d9d9652	0.07694687
61	0xbcb4952d	-0.022043789
62	0xbdd2a612	-0.10285582
63	0x3d658e71	0.056044046
64	0xbcd58360	-0.026063621
65	0xbe23ff04	-0.1601525
66	0xb9d705b3	-0.00041012242
67	0x3db35c67	0.08757859
68	0xbc8e07c2	-0.017337684
69	0xbb5bc939	-0.0033536686
70	0xbd84f0f5	-0.064912714
71	0xbcdb039a	-0.026735116
72	0xbd02cf52	-0.031935997
73	0xbc1247c9	-0.008928248
74	0x3db2660e	0.08710872
75	0xbd2d71a8	-0.04234472
76	0xbb82a87e	-0.003987371
77	0x3d8d018c	0.06885061
78	0x3da8ac2e	0.08235966
79	0x3c81a91c	0.015827708
80	0x3ca08f9e	0.019599732
81	0x3dd9ce1a	0.10635014
82	0xbe3de6ff	-0.1854515
83	0xbdf19d23	-0.117975496
84	0x3e34aee8	0.17644846
85	0x3e0ba012	0.1363528
86	0x3dc15d14	0.09441581
87	0xbd42c39b	-0.047549825
88	0x3c2f5b27	0.010702885
89	0x3e7694cb	0.24080198
90	0x3d69f090	0.057114184
91	0xbd395431	-0.045246307
92	0x3bd43a9e	0.0064767143
93	0xbe7dd002	-0.2478638
94	0xbdc25738	-0.09489292
95	0x3d925564	0.07145193
96	0xbc7f93e9	-0.015599229
97	0x3d744cb2	0.059643455
98	0xbdc404f3	-0.095712565
99	0x3dd55b49	0.10417802
100	0x3c07315b	0.008251513
101	0x3cf731b4	0.030175067
102	0x3c66639f	0.014061837
103	0x3de2d973	0.110766314
104	0xbe065d29	-0.13121475
105	0xbceb1770	-0.0286977
106	0x3bfa3f7e	0.0076369634
107	0xbda44184	-0.080203086
108	0x3dead880	0.11467075
109	0xbd4130a3	-0.047165524
110	0x3dbac985	0.09120468
111	0x3e0c5027	0.1370245
112	0x3db7cb6b	0.08974346
113	0xbd43b857	-0.047783222
114	0x3d1fe286	0.03903439
115	0x3e170eb5	0.14751704
116	0xbd910632	-0.0708126
117	0x3a1c4bc4	0.00059622177
118	0xbdf8ced5	-0.12148825
119	0xbdd11184	-0.10208419
120	0x3e36a815	0.17837556
121	0x3e786f83	0.24261288
122	0x3c5ea3f2	0.013588892
123	0x3dd86194	0.105654866
124	0x3d92f058	0.07174748
125	0xbded35b2	-0.11582507
126	0xbe0fa404	-0.14027411
127	0xbd72f455	-0.059315044
128	0xbdaaf466	-0.083473966
129	0xbac089a7	-0.0014689461
130	0xbb1173f8	-0.0022194367
131	0x3de91f6f	0.113829486
132	0xbc52835e	-0.012848703
133	0x3e694440	0.22779942
134	0xbc61140a	-0.013737688
135	0xbd151e5b	-0.036405902
136	0xbd92930d	-0.07156954
137	0x3c11f81a	0.00890925
138	0x3df79713	0.12089362
139	0xbe2f760a	-0.17134872
140	0x3cb7b847	0.022426737
141	0xbe324873	-0.1741045
142	0x3dd41a07	0.10356527
143	0xbc5bd86a	-0.013418296
144	0x3e07de8f	0.13268493
145	0x3caabfe0	0.020843446
146	0x3dafafa2	0.08578421
147	0xbe4c07bb	-0.19924824
148	0xbcea1065	-0.02857227
149	0x3dacbed1	0.08434833
150	0xbb73357e	-0.0037110741
151	0xbb369045	-0.0027856987
152	0x3c642f0d	0.013927233
153	0x3c1dc655	0.009629806
154	0x3d6ee50a	0.058323897
155	0x3d607de6	0.054807566
156	0xbe2e48ad	-0.17019911
157	0xbd0046af	-0.03131741
158	0x3e12dcdf	0.14342068
159	0x3d74a399	0.05972633
160	0xbdfcd9df	-0.12346243
161	0xbd98f58e	-0.07468711
162	0x3ceb7794	0.028743543
163	0xbd6d3405	-0.057910938
164	0x3e36ccb8	0.17851532
165	0x3d19db57	0.037562694
166	0x3d9da4de	0.076974615
167	0xbd60e312	-0.05490405
168	0x3d8d693e	0.06904839
169	0x3bc47693	0.0059955805
170	0x3d0e8595	0.034795363
171	0xbd07a98a	-0.03312067
172	0xbca820de	-0.020523485
173	0x3cc97279	0.024590718
174	0x3df7bebd	0.12096927
175	0xbe0bff88	-0.13671696
176	0x3d705075	0.05867048
177	0x3d3d8915	0.04627331
178	0x3c9de653	0.019274866
179	0xbd285e12	-0.041105337
180	0xbbebf4c3	-0.0072008087
181	0x3d49090c	0.049080893
182	0xbc178f50	-0.009250477
183	0xbd5620e9	-0.05227748
184	0xbe360831	-0.17776562
185	0x3d9ec60c	0.07752618
186	0xbd6090f7	-0.05482575
187	0xbe40f904	-0.18844992
188	0x3c0f07e7	0.008729911
189	0x3d9ed7c5	0.077559985
190	0xbde31f30	-0.11089933
191	0xba2cd1b1	-0.0006592526
192	0xbd495bf4	-0.04915996
193	0x3de42599	0.11139984
194	0x3b901f42	0.0043982575
195	0xbd2a37a5	-0.041556973
196	0xbe97c26d	-0.29640523
197	0x3ddc8b11	0.10768712
198	0xbd317a1d	-0.043329347
199	0xbd39e869	-0.04538766
200	0x3cf6c31f	0.030122338
201	0x3d8470a2	0.064667955
202	0x3d7a84bc	0.06116174
203	0x3d1a0463	0.03760184
204	0xbd94e641	-0.0727048
205	0x3dc7f466	0.09763412
206	0xbd3978fb	-0.04528139
207	0xbdbe12f9	-0.092809625
208	0x3ce62766	0.028094959
209	0xbd011b0e	-0.031519942
210	0xbdae5382	-0.085120216
211	0x3d8c30a0	0.06845212
212	0xbd253054	-0.040329292
213	0xbe01b8be	-0.1266813
214	0x3d4066ce	0.046973042
215	0x3ca5dbec	0.020246468
216	0x3e1bf9ea	0.15232053
217	0xbb9706db	-0.0046089715
218	0x3cafcd20	0.021460116
219	0x3cf0f46c	0.029413424
220	0x3e05f5ca	0.13082042
221	0x3df34983	0.118792556
222	0x3d04a610	0.032384932
223	0x3dc539da	0.09630175
224	0xbe1add97	-0.15123592
225	0x3ca78435	0.020448783
226	0xbd43f289	-0.04783872
227	0x3d98d488	0.07462412
228	0xbd55d4f3	-0.052205037
229	0xbcb76cd4	-0.02239076
230	0xbd34ea3a	-0.04416869
231	0xbc2f7df0	-0.010711178
232	0xbd87df1b	-0.06634351
233	0xbd47fd30	-0.048825443
234	0x3d86f996	0.065905735
235	0xbd345b97	-0.04403266
236	0x3e0c7a24	0.13718468
237	0xbdd475e8	-0.10374051
238	0x3d213dda	0.039365627
239	0x3c83ac54	0.016073383
240	0x3d420d26	0.04737582
241	0x3e0d18c7	0.13778983
242	0xbdd87fc2	-0.10571243
243	0xbc4d2c9d	-0.012522844
244	0x3ca97004	0.020683296
245	0xbe110b30	-0.14164424
246	0x3dd15881	0.10221959
247	0x3da118a2	0.078660265
248	0x3e0c4d69	0.13701405
249	0x3d3802a1	0.044924382
250	0xbd6b0c2c	-0.057384655
251	0x3db320f3	0.08746519
252	0xbc588be4	-0.013216946
253	0xbdfa7a24	-0.12230328
254	0xbbb9fae2	-0.0056756595
255	0xbcd93f5e	-0.026519474

fc2.0.bias f4 [84]
0	0xbd5010cc	-0.05079727
1	0x3d807ffa	0.062744096
2	0x3db2d7cd	0.08732567
3	0x3d8904ed	0.06690393
4	0xbc94ba50	-0.018155247
5	0x3e157f54	0.14599353
6	0xbb955ca8	-0.0045581646
7	0xbb9ec025	-0.0048446828
8	0xba2e0f6b	-0.00066398707
9	0xbdfe5adc	-0.12419674
10	0xbde0abd3	-0.10970273
11	0x3d5b357e	0.05351781
12	0x3d2c7252	0.04210121
13	0xbd8e5d79	-0.06951422
14	0x3cc2801f	0.023742734
15	0x3d936b77	0.07198232
16	0xbd1fa3f0	-0.038974702
17	0xbde3fbca	-0.11132009
18	0xbd1cf4c2	-0.038319357
19	0x3dd34aa2	0.103169695
20	0x3cc4d23e	0.024026033
21	0xbe4038bd	-0.18771644
22	0xbd3a352e	-0.045460872
23	0x3d2dfc43	0.042476904
24	0x3cf00889	0.029300945
25	0x3cd5c776	0.026096087
26	0xbe890761	-0.26763442
27	0x3cdbffc9	0.026855366
28	0xbd8e1597	-0.06937712
29	0xbc9a66f3	-0.018847918
30	0xbd589c62	-0.052883513
31	0x3e390d73	0.18071537
32	0xbe80ea65	-0.2517883
33	0x3d771d6e	0.0603308
34	0xbdb61c53	-0.08892121
35	0x3d3f805d	0.046753276
36	0xbce31f0c	-0.027724765
37	0x3d847fa6	0.064696595
38	0x3e476357	0.19471489
39	0x3e4731bf	0.1945257
40	0x3de954af	0.11393105
41	0xbcf10298	-0.029420182
42	0xbb853f8c	-0.0040664133
43	0xbe0e03fd	-0.13868709
44	0xbc18b6ce	-0.009320928
45	0x3cfc06a3	0.030764883
46	0x3e097b2c	0.13425893
47	0x3db84c59	0.08998937
48	0xbd9b3ecb	-0.07580336
49	0xbe0e7c65	-0.1391464
50	0x3d99e539	0.07514424
51	0xbe605f66	-0.21911392
52	0xbd86aff6	-0.06576531
53	0x3de4ec12	0.11177839
54	0x3c8c042d	0.017091835
55	0xbe0348b2	-0.128207
56	0xbd22494f	-0.039620694
57	0xbdb94718	-0.09046763
58	0x3d560f4c	0.052260682
59	0xbda7f47e	-0.0820093
60	0x3c6d27ee	0.014474852
61	0xbe1cb47f	-0.15303229
62	0xbb1981be	-0.002342328
63	0xbc5632a1	-0.013073594
64	0x3dbf4d2e	0.09340893
65	0x3deeefa4	0.116668016
66	0xbe23fdd6	-0.160148
67	0xbe7bcdcc	-0.24590224
68	0x3bb2ad62	0.0054527977
69	0xbe147642	-0.14498237
70	0xbe174882	-0.14773753
71	0x3d6c5290	0.057695925
72	0xbdbd631d	-0.0924742
73	0xbe12283a	-0.14273158
74	0x3de0cfd5	0.10977141
75	0xbd47edaf	-0.048810657
76	0x3dc7d0c9	0.097566195
77	0x3d2d14a9	0.04225603
78	0xbe09b6b3	-0.134486
79	0xbd83d984	-0.06437972
80	0x3a37e462	0.00070149277
81	0xbc0c90a0	-0.008579403
82	0x3dbdd15b	0.09268447
83	0xbd7896a4	-0.060690537

fc3.0.weight f4 [10, 84]
0	0x3e05f7dd	0.13082834
1	0xbe7c5d23	-0.24644904
2	0xbdd1aa56	-0.10237567
3	0x3d1872cd	0.037218858
4	0xbddc355d	-0.10752366
5	0x3ddc1e87	0.1074801
6	0xbe2905f4	-0.16506177
7	0x3e2eb656	0.17061743
8	0x3dc1d555	0.09464518
9	0x3e4a3c2b	0.19749515
10	0x3dffb700	0.12486076
11	0xbe1b9cea	-0.15196577
12	0x3e9c0ba7	0.3047764
13	0x3e927d25	0.28611103
14	0x3ddf43a8	0.10901576
15	0x3d7f0784	0.062263027
16	0xbda278cb	-0.07933196
17	0xbe6f6e03	-0.2338181
18	0xbd71c9d6	-0.059030376
19	0xbe350162	-0.17676309
20	0x3db2040b	0.086921774
21	0x3e54c402	0.20777896
22	0x3e1f8695	0.15578683
23	0xbe47ab54	-0.1949895
24	0x3eae1e15	0.34007326
25	0xbe05ec82	-0.13078502
26	0x3e3a1c12	0.1817477
27	0xbe4c17a4	-0.19930893
28	0x3de6707b	0.11251923
29	0xbe04c53a	-0.12965861
30	0xbe795773	-0.24349765
31	0xbd7c032c	-0.061526462
32	0x3e86d5bb	0.26334938
33	0xbdf046eb	-0.117322765
34	0x3e1f69ee	0.15567753
35	0xbe36c9db	-0.17850439
36	0x3db82f35	0.08993379
37	0xbd96b75b	-0.07359191
38	0x3c434689	0.011918672
39	0xbd7710a4	-0.060318604
40	0x3e0a843b	0.13527004
41	0xbe0d8465	-0.13820036
42	0x3e01ab90	0.12663102
43	0x3e58d5f0	0.2117536
44	0xbe2dd2a1	-0.1697488
45	0x3e38806f	0.18017744
46	0xbe7bd8de	-0.24594447
47	0xbe2a4804	-0.16629034
48	0xbe7b35bd	-0.24532218
49	0x3d88391c	0.06651518
50	0x3e7a7ca4	0.24461609
51	0x3ddd321d	0.10800574
52	0x3dc0953e	0.09403466
53	0x3dadcf1b	0.08486768
54	0xbe09d745	-0.13461025
55	0xbd940595	-0.07227627
56	0x3caf42f8	0.021394238
57	0x3e4c9cad	0.19981642
58	0xbe40a6f8	-0.18813694
59	0x3e252b04	0.1612969
60	0x3cf766b6	0.030200344
61	0x3c550d72	0.013003694
62	0xbe06b1e6	-0.131538
63	0x3d51c3c9	0.051212106
64	0xbc898b57	-0.016790075
65	0xbddb9877	-0.1072244
66	0xbd52991c	-0.051415548
67	0x3e81f938	0.2538545
68	0x3e2432ed	0.16035052
69	0x3e92f5e4	0.28703225
70	0x3e1b0748	0.15139496
71	0xbe48452b	-0.19557635
72	0x3dc6c7f0	0.09706104
73	0x3e39cac9	0.18143763
74	0xbe12506b	-0.1428849
75	0xbe5293a3	-0.20564131
76	0x3e5f892c	0.2182967
77	0xbcb01fe7	-0.021499587
78	0x3e027ed1	0.12743689
79	0xbc78fada	-0.015196526
80	0x3e503442	0.20332435
81	0x3e3b86bd	0.18313117
82	0xbe2e4109	-0.17016996
83	0x3e8e78f7	0.27826664
84	0xbe112a4f	-0.14176296
85	0x3d608ac5	0.05481984
86	0x3e4ca7f9	0.19985951
87	0xbdc51348	-0.09622818
88	0x3e0a7eab	0.13524882
89	0xbda937a8	-0.08262569
90	0xbe89a5ba	-0.26884252
91	0xbe304762	-0.1721473
92	0xbda683fe	-0.08130644
93	0xbe1899e9	-0.14902462
94	0xbe76de80	-0.24108315
95	0x3e172aca	0.14762416
96	0x3e85a096	0.2609908
97	0x3e6dbe37	0.23217092
98	0x3e94e3f0	0.29080153
99	0x3e87fc28	0.26559567
100	0x3e621234	0.22077256
101	0xbe27d825	-0.16391046
102	0x3e66ced7	0.2253984
103	0x3e60e4e6	0.21962318
104	0x3d93fc49	0.07225854
105	0xbe33ee99	-0.17571487
106	0x3d8d7281	0.069066055
107	0xbe3ecdfa	-0.18633261
108	0x3e5310f1	0.20611931
109	0xbe208ade	-0.15677974
110	0xbe163723	-0.1466947
111	0x3e3d5eea	0.18493238
112	0xbe4c5c15	-0.19957002
113	0xbdc3fcec	-0.095697254
114	0x3e107c54	0.14109927
115	0x3d2cc72e	0.04218214
116	0x3e4bb8e9	0.19894756
117	0x3e31e406	0.1737214
118	0xbe59f3ce	-0.2128441
119	0x3e11db93	0.14243917
120	0xbe9a8b13	-0.3018423
121	0x3e672f77	0.225767
122	0xbb8403e8	-0.004028786
123	0x3de118fe	0.10991095
124	0xbe33e0e7	-0.17566262
125	0xbcf87a4e	-0.030331757
126	0x3caa93f2	0.020822499
127	0xbd5c15bc	-0.053731665
128	0x3dc182e7	0.09448796
129	0x3e330e22	0.1748586
130	0x3e48d443	0.19612221
131	0xbdb3dfc3	-0.087829135
132	0xbded658f	-0.115916364
133	0x3df14b7f	0.11781978
134	0x3e3f4d60	0.1868186
135	0xbe1ec9ce	-0.1550667
136	0xbea0794c	-0.31342542
137	0x3e09b7b9	0.13448991
138	0x3e58be3e	0.21166322
139	0xbe495be0	-0.19663954
140	0x3df8730c	0.121313184
141	0xb9fcbf31	-0.00048207634
142	0x3c9e56f1	0.019328566
143	0x3e014d49	0.12627138
144	0x3de3994c	0.111132234
145	0x3df19e55	0.117977776
146	0x3e0b1462	0.13581994
147	0xbe5f6000	-0.21813965
148	0x3d08a3aa	0.033359207
149	0xbd4b3bb2	-0.049617477
150	0x3e5c1e94	0.2149604
151	0xbdc9f02e	-0.09860264
152	0xbe85ca59	-0.26130942
153	0x3e19fbc5	0.15037449
154	0xbe118d95	-0.14214166
155	0x3e72d3d2	0.23713616
156	0xbe611ed3	-0.21984415
157	0xbe1ff73f	-0.1562166
158	0x3e4b4729	0.19851364
159	0xbe1e475e	-0.15456912
160	0xbe2f603c	-0.17126554
161	0x3e22c63f	0.15895937
162	0xbdc777d4	-0.09739652
163	0xbe8ab8de	-0.27094167
164	0xbe45575e	-0.19271609
165	0x3db2f3be	0.087378964
166	0xbe104e7e	-0.14092442
167	0xbde1ddd9	-0.11028642
168	0xbdd22520	-0.10260987
169	0x3d3fae18	0.046796888
170	0xbd9e843f	-0.07740068
171	0x39502487	0.00019850033
172	0xbe1d56ac	-0.15365094
173	0x3e067d6e	0.13133785
174	0x3daf5e93	0.085629605
175	0xbe392cff	-0.18083571
176	0x3cd38c12	0.025823627
177	0xbdccfbc5	-0.10008959
178	0xbe2515e3	-0.1612163
179	0xbe4d3516	-0.20039782
180	0xbdb397b7	-0.08769172
181	0xbe49c95d	-0.1970572
182	0xbde11ba8	-0.10991603
183	0x3e365ff9	0.17810048
184	0x3dd7b8b0	0.10533273
185	0xbdfafff8	-0.122558534
186	0xbdfab158	-0.12240857
187	0x3e21fa63	0.15818171
188	0xbdeece45	-0.116604365
189	0x3e32fdab	0.17479579
190	0xbe250ccc	-0.16118163
191	0x3d71f781	0.05907393
192	0x3e5bc593	0.21462087
193	0xbe13177f	-0.14364432
194	0xbdef8481	-0.11695195
195	0xbe3affad	-0.18261595
196	0xbe1de037	-0.15417562
197	0x3d316a34	0.043314174
198	0x3d033469	0.032032404
199	0x3e312467	0.17299043
200	0x3defa266	0.11700897
201	0xbde4266e	-0.111401424
202	0xbe50934b	-0.20368688
203	0x3d94a4d5	0.07258002
204	0x3e2250e5	0.15851171
205	0x3dea8bad	0.11452422
206	0x3deaa488	0.11457163
207	0x3c155b56	0.0091160145
208	0x3e7db8c0	0.24777508
209	0xbe5c56e5	-0.21517523
210	0xbe483d82	-0.19554713
211	0x3e22dddc	0.15904945
212	0x3e45e9eb	0.19327514
213	0x3e1b4011	0.15161158
214	0x3d2e9c68	0.04262963
215	0x3e632509	0.22182097
216	0xbe39b07e	-0.18133733
217	0xbe3efe4d	-0.18651696
218	0xbd26e545	-0.040745992
219	0xbe33bfc0	-0.17553616
220	0xbe063c84	-0.13109022
221	0x3db0eea9	0.08639271
222	0xbe4f800f	-0.20263694
223	0x3e00b479	0.12568845
224	0xbe3dfd85	-0.18553741
225	0x3de9d068	0.114167035
226	0x3e3cfca6	0.18455753
227	0x3d40f382	0.047107227
228	0x3de6b5fd	0.1126518
229	0xbe00bfc6	-0.12573156
230	0xbd9fbb9c	-0.077994555
231	0x3c92ea5d	0.017934019
232	0x3e609ec5	0.21935566
233	0xbe35bb63	-0.17747264
234	0xbd967328	-0.07346183
235	0xbdef061e	-0.11671089
236	0x3dfb7470	0.12278068
237	0xbe561c1d	-0.20909162
238	0xbe71ff30	-0.23632503
239	0x3d31639c	0.043307886
240	0x3df66ad0	0.120320916
241	0xbe36220f	-0.1778643
242	0xbe816e0d	-0.25279275
243	0xbdb91641	-0.09037448
244	0x3e07193e	0.13193223
245	0x3e3d27f6	0.18472275
246	0x3d84fe0c	0.06493768
247	0x3e7a6b8a	0.24455085
248	0xbdbb5820	-0.09147668
249	0x3e63765e	0.22213122
250	0xbda39d13	-0.07988944
251	0xbe298668	-0.16555178
252	0xbe0149c1	-0.12625791
253	0xbdd748ff	-0.1051197
254	0xbdedb069	-0.11605913
255	0x3e43b81c	0.19113201

fc3.0.bias f4 [10]
0	0xbe8452d9	-0.25844458
1	0x3c70c781	0.014696003
2	0x3e6f610b	0.23376863
3	0xbd0f6634	-0.035009578
4	0x3ca2822c	0.019837461
5	0x3dce5782	0.100752845
6	0xbe7c1cb2	-0.24620321
7	0x3e7ff5d0	0.24996114
8	0xbc27ec3b	-0.010249193
9	0x3d9dfac6	0.07713847
