save_checkpoints/LeNet5_epoch_4.pth (torch, 249863 bytes, 10 tensors)

conv1.0.weight f4 [6, 1, 5, 5]
-0.019633448 0.038182758 -0.19681895 -0.059179164 0.27205643 -0.23370418 -0.2593759 -0.026524255
0.121981226 0.01537987 0.17311628 -0.02062986 -0.005202524 0.12766063 0.08894523 -0.058666155
-0.056498814 0.08976453 0.24361119 -0.07365993 0.08017987 0.018288778 0.01533912 0.20593865
-0.091827415 -0.014626603 0.11203597 0.09998129 0.06873392 0.0009695266 -0.0408069 -0.26180646
-0.2471208 -0.25017864 -0.14465998 -0.14915553 0.0016689339 -0.10730343 0.002018348 -0.15710151
0.048191585 0.12919016 0.058657948 0.10257095 0.07670105 0.06857076 0.08309573 -0.006755732
0.05390947 0.012212266 -0.033468165 0.060404543 0.103860795 0.114983685 -0.05438995 0.00039754956
0.23824425 0.045773964 -0.12732711 0.10319534 -0.1096256 0.18083632 -0.051738154 -0.10346287
-0.042806994 0.073019825 0.21949764 0.07449034 -0.04053423 -0.105621696 -0.059241295 0.26518056
0.023138687 -0.02370522 -0.095508 0.12102214 0.04282508 0.0113021005 -0.11532062 0.18233532
-0.074395075 -0.29275337 -0.28457004 -0.22947595 -0.061433922 -0.086428985 -0.051025998 -0.046438605
-0.03361858 0.06452905 -0.23711899 -0.07544308 -0.021262001 0.17924957 -0.09103038 -0.34485966
0.07632228 0.071764275 -0.106255755 0.12819646 0.07835536 0.037117343 0.02398107 0.13464129
-0.014744642 -0.066258706 0.10978795 0.04921632 -0.07972619 0.06335219 0.14268799 -0.23850095
0.0638268 -0.18480018 -0.011340436 -0.28118482 -0.2638627 -0.3125687 -0.03502258 -0.19171193
-0.05371032 -0.11950545 0.041097697 0.013823365 0.014514542 -0.4328468 -0.030646442 -0.1537677
-0.08283917 -0.03879242 -0.075340495 0.05031387 -0.039112672 -0.1822727 -0.2644368 -0.1975024
-0.21095833 -0.18441683 0.17678475 0.05700276 0.1334769 -0.3118828 -0.1397549 0.00015476413
0.08006253 0.09384905 -0.030565208 -0.2638639 -0.19150864 -0.050682183
00000000: 53d6 a0bc 8665 1c3d e88a 49be da65 72bd
00000010: fb4a 8b3e 2650 6fbe ebcc 84be 6549 d9bc
00000020: 4bd1 f93d dafb 7b3c 6545 313e f4ff a8bc
00000030: ef79 aabb 78b9 023e eb28 b63d ec4b 70bd
00000040: 4d6b 67bd 77d6 b73d 3675 793e 04db 96bd
00000050: 5835 a43d 59d2 953c ef50 7b3c 95e1 523e
00000060: 0310 bcbd 6ba4 6fbc 1d73 e53d fec2 cc3d
00000070: 5fc4 8c3d d427 7e3a 2325 27bd 7f0b 86be
00000080: 3c0d 7dbe 6a17 80be bf21 14be 3abc 18be
00000090: 21c0 da3a e7c1 dbbd 4346 043b 38df 20be
000000a0: 8a64 453d 6d4a 043e 5143 703d b810 d23d
000000b0: 7115 9d3d d46e 8c3d 182e aa3d 305f ddbb
000000c0: 2dd0 5c3d f515 483c ea15 09bd c16a 773d
000000d0: f8b4 d43d 917c eb3d ffc7 5ebd 336e d039
000000e0: 4df6 733e 7b7d 3b3d 0a62 02be 1458 d33d
000000f0: 6383 e0bd 282d 393e 63eb 53bd 57e4 d3bd
00000100: 6356 2fbd 6b8b 953d fdc3 603e 648e 983d
00000110: 3907 26bd 3050 d8bd 00a7 72bd bfc5 873e
00000120: 588d bd3c 7331 c2bc b399 c3bd 75da f73d
00000130: 5a69 2f3d 722c 393c 382d ecbd 1cb6 3a3e
00000140: 725c 98bd c5e3 95be 2ab3 91be befb 6abe
00000150: 23a2 7bbd ae01 b1bd a300 51bd 6836 3ebd
00000160: a3b3 09bd ce27 843d 52cf 72be e781 9abd
00000170: a62d aebc 338d 373e 236e babd 7291 b0be
00000180: db4e 9c3d 26f9 923d 9e9c d9bd ef45 033e
00000190: c678 a03d 5b08 183d f373 c43c 68df 093e
000001a0: 8393 71bc a5b2 87bd 81d8 e03d 0d97 493d
000001b0: 7c47 a3bd cbbe 813d cd1c 123e 9839 74be
000001c0: a0b7 823d 423c 3dbe 3ccd 39bc 75f7 8fbe
000001d0: 0319 87be 0109 a0be d673 0fbd 2250 44be
000001e0: 5aff 5bbd 46bf f4bd 0f56 283d 657b 623c
000001f0: 67ce 6d3c 199e ddbe 3f0e fbbc 4875 1dbe
00000200: 95a7 a9bd cde4 1ebd 1e4c 9abd eb15 4e3d
00000210: 9c34 20bd b2a5 3abe 4364 87be 123e 4abe
00000220: 7605 58be c4d7 3cbe 1007 353e ba7b 693d
00000230: 2bae 083e 1aaf 9fbe e91b 0fbe 2e48 2239
00000240: d3f7 a33d ee33 c03d e363 fabc 2b19 87be
00000250: d71a 44be 1f98 4fbd

conv1.0.bias f4 [6]
-0.29064542 -0.2421044 0.133493 -0.12584513 -0.14195572 0.17733854
00000000: 7acf 94be 37ea 77be 64b2 083e 8cdd 00be
00000010: d75c 11be 3c98 353e

conv2.0.weight f4 [16, 6, 5, 5]
0.17316742 0.11309214 -0.0065234895 0.015220765 -0.092790484 0.0531309 0.08248364 0.12321507
-0.106388114 -0.16944866 -0.04982713 -0.011183725 0.1067571 -0.12636575 -0.20218553 -0.05364957
0.075482674 -0.10728722 -0.13552676 -0.10278817 -0.065486215 -0.043951917 -0.111493245 -0.09243468
-0.17617941 0.18395336 0.14219597 -0.10340108 -0.059960674 -0.13313091 0.1763272 0.22972721
0.07791569 -0.20368838 -0.14822434 0.1659906 0.20942841 -0.08054068 -0.16275139 0.00092519884
0.024281025 -0.12021459 -0.16716358 -0.06254447 0.058077365 -0.12817481 -0.246026 -0.029014343
0.10517861 0.030848205 -0.08384522 -0.12446978 -0.031923845 0.124380104 0.0118182525 -0.117316864
-0.16872 -0.045231298 0.05206067 -0.060652476 -0.08862446 -0.12153916 -0.0265059 0.03466235
-0.15823276 -0.12516549 -0.10418634 -0.016039314 -0.0982824 -0.2439981 -0.1372193 -0.061887044
-0.07367353 -0.054919876 -0.187912 0.2309924 0.22848693 -0.088881925 -0.21480122 -0.12441834
0.013988736 0.15384816 -0.0059877764 -0.09809636 -0.021694444 -0.0027293165 0.14546907 0.01588839
-0.019856557 0.1131414 -0.008564137 0.010197621 -0.050560825 -0.00881757 0.17708485 -0.043033406
-0.019971171 0.00035576083 -0.094793245 0.05375983 0.17454714 0.045574605 0.075680986 -0.14789596
-0.25771838 0.04762658 -0.069760494 -0.1538723 -0.071277186 -0.014964673 -0.012961789 -0.17377803
-0.15690474 -0.05263304 0.05367043 -0.027386133 -0.24974608 -0.041762065 0.17649746 0.006401015
-0.2541572 -0.17056572 0.09502017 0.04283526 -0.12636895 0.20563614 0.031893905 -0.07210022
-0.034062505 0.028206507 0.23320267 0.016363697 -0.0023637186 0.09382176 0.030842438 0.053392097
0.08563929 0.031493608 0.02080166 -0.037307784 0.10667843 0.07656671 -0.007876572 0.050510384
0.04501221 0.063735686 0.05641678 -0.0407844 0.15076847 0.07395635 0.0031130312 -0.05296366
-0.096591555 -0.0654473 -0.060586546 -0.032170046 -0.11412054 0.014539718 -0.060732532 -0.0902946
-0.05666217 -0.05809282 0.030542916 -0.08780546 -0.16103451 -0.078680374 0.07548858 -0.09828615
-0.115857705 -0.013211813 -0.092445046 -0.007981915 -0.010000396 -0.0694889 -0.034374777 -0.16360542
-0.07841824 0.10261971 0.06209501 -0.00020865732 0.08522657 -0.08233589 0.10481632 -0.038343143
-0.005820941 -0.04607999 -0.06905733 -0.13501166 -0.17954692 -0.06879204 -0.127081 -0.110464826
-0.32634723 -0.022374712 0.02198327 -0.09968025 -0.2145745 -0.2248999 0.115145355 0.07802034
-0.053902425 0.045250107 -0.0073071523 -0.121984154 0.013123062 -0.039352555 -0.12388782 -0.06571964
-0.064866215 0.007989428 -0.24886021 -0.16828078 -0.07239608 0.0047959145 -0.14216009 -0.27711096
-0.11901499 -0.107567415 0.0024700842 -0.2743615 -0.014058664 -0.015205945 -0.07194664 0.026126571
-0.10484585 -0.078948624 -0.09316131 -0.00032573086 0.13141204 0.057136416 0.07375214 0.28859875
0.14181277 0.0656439 0.037379127 0.251795 0.2397292 -0.064164236 0.0061932597 -0.020546472
0.2604063 0.1774144 -0.038082458 -0.011674899 0.079426676 0.17883699 0.08090085 -0.077886455
-0.22171493 -0.124957845 0.014150132 0.25989324 0.14521694 0.15569921 0.038156074 0.006755784
00000000: cd52 313e da9c e73d ffc2 d5bb 8460 793c
00000010: f008 bebd c99f 593d 2fed a83d 2f58 fc3d
00000020: 03e2 d9bd f383 2dbe 8817 4cbd f13b 37bc
00000030: 77a3 da3d 0666 01be b909 4fbe a7bf 5bbd
00000040: a996 9a3d 67b9 dbbd 87c7 0abe 9b82 d2bd
00000050: a31d 86bd ed06 34bd 9256 e4bd 654e bdbd
00000060: 6068 34be 455e 3c3e d29b 113e f2c3 d3bd
00000070: 5399 75bd 7853 08be 1e8f 343e 9c3d 6b3e
00000080: 4392 9f3d b093 50be 1fc8 17be 71f9 293e
00000090: 6774 563e 83f2 a4bd 4da8 26be 0b89 723a
000000a0: 00e9 c63c 1133 f6bd ee2c 2bbe 5117 80bd
000000b0: 88e2 6d3d 4240 03be 3dee 7bbe 7daf edbc
000000c0: e267 d73d 60b5 fc3c 0bb7 abbd 03ea febd
000000d0: 94c2 02bd ffba fe3d 58a1 413c d343 f0bd
000000e0: f0c4 2cbe 7444 39bd 923d 553d bb6e 78bd
000000f0: be80 b5bd 86e9 f8bd e722 d9bc 1cfa 0d3d
00000100: c507 22be 622b 00be a65f d5bd e164 83bc
00000110: 4848 c9bd a3da 79be 3783 0cbe 457d 7dbd
00000120: 26e2 96bd aaf3 60bd 016c 40be 4689 6c3e
00000130: 7af8 693e ba07 b6bd daf4 5bbe 0bcf febd
00000140: 0331 653c 5f8a 1d3e 1c35 c4bb bfe6 c8bd
00000150: 8cb8 b1bc 55de 32bb d8f5 143e 5e28 823c
00000160: 38aa a2bc aeb6 e73d 9850 0cbc ec13 273c
00000170: de18 4fbd 9277 10bc bb55 353e cc43 30bd
00000180: 959a a3bc 6985 ba39 f622 c2bd 4433 5c3d
00000190: 7cbc 323e 70ac 3a3d a2fe 9a3d 0a72 17be
000001a0: aaf3 83be 1714 433d 97de 8ebd b390 1dbe
000001b0: c6f9 91bd 632e 75bc af5d 54bc def2 31be
000001c0: a3ab 20be be95 57bd 86d5 5b3d e258 e0bc
000001d0: 70bd 7fbe b30e 2bbd c0bb 343e 9bbf d13b
000001e0: e420 82be c8a8 2ebe ef99 c23d 0774 2f3d
000001f0: dd66 01be 4892 523e 2fa3 023d 48a9 93bd
00000200: 2085 0bbd 5511 e73c aecc 6e3e 290d 863c
00000210: 9ee8 1abb 9f25 c03d 48a9 fc3c acb1 5a3d
00000220: a763 af3d 71ff 003d 3e68 aa3c 0cd0 18bd
00000230: 397a da3d 02cf 9c3d bd0c 01bc fae3 4e3d
00000240: b95e 383d db87 823d 4815 673d 8b0d 27bd
00000250: 0d63 1a3e 6d76 973d ff03 4c3b 6cf0 58bd
00000260: cbd1 c5bd 3c09 86bd 9929 78bd bdc4 03bd
00000270: 08b8 e9bd ff37 6e3c adc2 78bd 60ec b8bd
00000280: 9716 68bd bdf2 6dbd 2335 fa3c 59d3 b3bd
00000290: 3be6 24be 2d23 a1bd c299 9a3d 404a c9bd
000002a0: ce46 edbd 5c76 58bc d453 bdbd 94c6 02bc
000002b0: b3d8 23bc 3250 8ebd 91cc 0cbd 2e88 27be
000002c0: be99 a0bd 482a d23d 5657 7e3d 06cb 5ab9
000002d0: 458b ae3d b89f a8bd f0a9 d63d b30d 1dbd
000002e0: 98bd bebb 5fbe 3cbd ee6d 8dbd 7f40 0abe
000002f0: 26db 37be d7e2 8cbd 8621 02be 623b e2bd
00000300: fc16 a7be 2c4b b7bc 4216 b43c 2925 ccbd
00000310: 6bb9 5bbe 294c 66be 54d1 eb3d 21c9 9f3d
00000320: cac8 5cbd 2d58 393d d670 efbb d4d2 f9bd
00000330: 1d02 573c 2530 21bd e6b8 fdbd 0598 86bd
00000340: 94d8 84bd 17e6 023c 36d5 7ebe cc51 2cbe
00000350: 6544 94bd 0c27 9d3b 6a92 11be 7de1 8dbe
00000360: 22be f3bd 4e4c dcbd 23e1 213b 1c79 8cbe
00000370: 5056 66bc 5b22 79bc c358 93bd 6407 d63c
00000380: 6cb9 d6bd d1af a1bd 5bcb bebd dbc6 aab9
00000390: e190 063e e007 6a3d 5d0b 973d 37c3 933e
000003a0: 5e37 113e 4f70 863d db1a 193d 46eb 803e
000003b0: 927b 753e 8a68 83bd d4f0 ca3b 1351 a8bc
000003c0: f953 853e 1fac 353e 5afc 1bbd 1348 3fbc
000003d0: 74aa a23d 0b21 373e 58af a53d ef82 9fbd
000003e0: 3d09 63be e6e9 ffbd f5d5 673c ba10 853e
000003f0: c0b3 143e 9d6f 1f3e 8b49 1c3d a05f dd3b

conv2.0.bias f4 [16]
-0.13987502 -0.18894355 -0.17248161 -0.27405903 -0.37945133 -0.30984685 -0.12349539 -0.21332826
-0.27298397 -0.41156846 0.037092935 -0.15634134 -0.17774674 -0.3346619 -0.3516735 -0.029939035
00000000: 663b 0fbe 6b7a 41be 059f 30be 7751 8cbe
00000010: 7247 c2be 3fa4 9ebe 27eb fcbd b972 5abe
00000020: 8ec4 8bbe 1ab9 d2be c3ee 173d f217 20be
00000030: 3e03 36be ce58 abbe 8d0e b4be b542 f5bc

fc1.0.weight f4 [120, 400]
0.046217006 -0.07186862 -0.13581704 -0.060483694 -0.049909048 -0.03903581 0.07480847 -0.09389126
-0.16533184 -0.0037841673 -0.06962708 -0.023830034 -0.025456894 -0.0359425 0.010989028 -0.007374354
-0.22168955 -0.03843698 0.10632804 0.22608581 -0.107322246 -0.22896649 0.058752663 0.12717839
-0.027047288 0.0586383 -0.07544108 -0.035433833 -0.12522513 -0.14880137 0.04532774 0.021029785
-0.010548415 -0.0619267 -0.10435875 -0.05196682 0.018711323 0.028768657 0.09191641 0.12618858
-0.016014693 -0.2813889 -0.037550513 -0.038410913 -0.08959318 -0.0836439 0.035240553 -0.036946844
0.14718644 -0.006329574 -0.04703623 -0.023792427 -0.014659217 -0.062305354 0.026984362 0.02139836
0.05482012 0.005406057 -0.067288555 0.055652607 0.0069500324 -0.019482186 -0.05233011 0.03682501
0.120766066 -0.079479255 -0.11963499 0.016810747 0.056250233 0.14274926 0.012493899 0.0104876645
-0.10181177 -0.08670416 0.12508543 0.023330193 -0.03959812 0.034316696 0.07921561 0.02033922
0.13378012 -0.060588837 -0.09269114 0.06692639 0.0075789117 0.101771444 0.08987486 -0.06975945
-0.026510524 0.060270008 0.040117286 0.25040558 -0.040762402 -0.17016567 -0.011506923 -0.0561664
0.14156903 -0.056262355 -0.03967765 -0.07890533 -0.024246367 -0.022324959 0.010817944 0.011673909
0.012988046 -0.049402393 0.04638235 0.073408544 -0.016140655 -0.09115898 -0.101961136 0.058194693
0.029701676 0.017975006 -0.1443994 0.09936802 0.053712305 -0.075872816 -0.18954048 -0.20105474
0.08447732 0.040745877 0.07973851 0.028204974 0.016624574 0.082414314 -0.1890511 -0.10527115
-0.05756387 0.030439578 -0.008087002 0.0035722528 -0.011784776 0.0122661805 -0.0076851193 0.09514646
0.020249518 0.055489738 -0.03377475 -0.10583512 -0.098080106 -0.22210556 -0.10722087 0.11093814
-0.08535132 -0.08579511 0.11707169 0.16926043 0.08755883 -0.023834756 -0.030060299 -0.060902882
-0.25195265 -0.262078 -0.15493502 -0.009180971 -0.10654915 -0.07621227 -0.12526853 -0.076976456
0.026867816 0.0124504 -0.040716197 0.016199358 -0.054673363 -0.020671668 0.038299676 0.17614102
0.033733774 -0.09516965 -0.07131093 -0.0011938744 0.05480675 0.042248648 -0.10813765 -0.01590652
-0.054010674 -0.11030546 0.073711604 -0.048476283 -0.0236711 0.051627476 -0.041955486 0.10652058
0.09613946 -0.05571726 0.033621304 0.06758158 -0.0021984675 -0.11635981 -0.095706925 0.035112064
-0.08259108 -0.054434367 -0.049914215 4.9114504e-05 -0.0030803774 0.061772034 0.13275452 0.06748543
0.073315084 -0.050129805 -0.13229182 -0.027455537 0.17558783 0.07356725 0.020213017 -0.061046954
0.08363867 0.07087866 0.022754243 0.00043534435 -0.06592708 0.13150498 0.25934342 -0.033612717
-0.03427206 0.0152293295 0.051733617 -0.010364071 -0.2100491 -0.14812328 0.0019799757 0.08460835
0.037036683 0.0157569 0.044036463 0.077273756 0.062220838 0.11969721 -0.11480946 -0.0014563971
0.18860988 0.14202012 0.06508672 0.13197553 0.10558587 0.107271284 0.041228253 0.028603693
0.060672708 0.18067124 0.10866301 0.0058451095 -0.13977903 -0.023504212 0.020559795 0.014029106
-0.080590926 0.10454207 0.12047876 -0.012383397 0.06177312 0.103279725 -0.027087487 0.0075538508
00000000: 0b4e 3d3d db2f 93bd 9f13 0bbe c0bd 77bd
00000010: 6e6d 4cbd 03e4 1fbd 2f35 993d 104a c0bd
00000020: c04c 29be cbff 77bb a498 8ebd 3437 c3bc
00000030: fa8a d0bc 7138 13bd 530b 343c 91a4 f1bb
00000040: 9602 63be 1870 1dbd 84c2 d93d 0a83 673e
00000050: c4cb dbbd 3176 6abe a2a6 703d 0d3b 023e
00000060: 4692 ddbc b72e 703d da80 9abd 1123 11bd
00000070: 043b 00be 635f 18be 95a9 393d a846 ac3c
00000080: 42d3 2cbc daa6 7dbd 0aba d5bd 29db 54bd
00000090: 7d48 993c 3fac eb3c ac3e bc3d 9437 013e
000000a0: 3f31 83bc 3512 90be 91ce 19bd c354 1dbd
000000b0: a17c b7bd 7e4d abbd 6658 103d 9355 17bd
000000c0: 0bb8 163e 5168 cfbb 10a9 40bd 56e8 c2bc
000000d0: 362d 70bc e633 7fbd 4f0e dd3c 9d4b af3c
000000e0: 108b 603d 4b25 b13b 95ce 89bd fdf3 633d
000000f0: 19bd e33b 1b99 9fbc 1958 56bd d2d5 163d
00000100: 3354 f73d 05c6 a2bd 3103 f5bd b1b6 893c
00000110: a566 663d dd2c 123e 36b3 4c3c 74d4 2b3c
00000120: b082 d0bd f391 b1bd 6516 003e f61e bf3c
00000130: a331 22bd aa8f 0c3d cb3b a23d 709e a63c
00000140: a8fd 083e 002c 78bd dad4 bdbd b410 893d
00000150: 8558 f83b 8c6d d03d 5010 b83d 0bde 8ebd
00000160: 992c d9bc afdd 763d 0652 243d 2935 803e
00000170: 7af6 26bd e93f 2ebe 8887 3cbc bd0e 66bd
00000180: 79f7 103e 5b73 66bd 0885 22bd 1e99 a1bd
00000190: 51a0 c6bc d5e2 b6bc bf3d 313c ec43 3f3c
000001a0: d0cb 543c 2a5a 4abd 6bfb 3d3d 3857 963d
000001b0: 6839 84bc 8fb1 babd 00d1 d0bd 8f5d 6e3d
000001c0: ee50 f33c 5240 933c 70dd 13be 7681 cb3d
000001d0: 6f01 5c3d 3563 9bbd e616 42be 4be1 4dbe
000001e0: 7202 ad3d 26e5 263d f24d a33d 1e0e e73c
000001f0: 4230 883c d6c8 a83d 9d96 41be 6798 d7bd
00000200: 18c8 6bbd 6c5c f93c 587f 04bc 751c 6a3b
00000210: ef14 41bc 17f8 483c 74d3 fbbb 26dc c23d
00000220: 51e2 a53c 3549 633d 6457 0abd 15c0 d8bd
00000230: 39de c8bd a46f 63be 9e96 dbbd 8933 e33d
00000240: accc aebd 59b5 afbd 48c3 ef3d 9b52 2d3e
00000250: 0b52 b33d 1b41 c3bc 0441 f6bc 4d75 79bd
00000260: f0ff 80be 162f 86be 49a7 1ebe c96b 16bc
00000270: 7136 dabd 2e15 9cbd 6546 00be d5a5 9dbd
00000280: e519 dc3c c3fc 4b3c 07c6 26bd 84b4 843c
00000290: 2df1 5fbd a157 a9bc 1fe0 1c3d 505e 343e
000002a0: 6d2c 0a3d 4ee8 c2bd 770b 92bd c77b 9cba
000002b0: 0b7d 603d eb0c 2d3d 4677 ddbd 644e 82bc
000002c0: 4c3a 5dbd d4e7 e1bd 1cf6 963d 118f 46bd
000002d0: e5e9 c1bc 5577 533d 84d9 2bbd 7627 da3d
000002e0: c4e4 c43d c837 64bd 7eb6 093d 3668 8a3d
000002f0: 2a14 10bb 0d4e eebd fe01 c4bd abd1 0f3d
00000300: 8325 a9bd 92f6 5ebd d972 4cbd 4c00 4e38
00000310: 28e0 49bb ac04 7d3d cdf0 073e cd35 8a3d
00000320: 3826 963d e954 4dbd 8277 07be 6fea e0bc
00000330: 4ccd 333e 6daa 963d c595 a53c 5f0c 7abd
00000340: c04a ab3d d528 913d 1b67 ba3c ee3e e439
00000350: c704 87bd 3ea9 063e a9c8 843e 7dad 09bd
00000360: dc60 0cbd 7084 793c a1e6 533d 10ce 29bc
00000370: 1c17 57be a1ad 17be 7bc2 013b 2547 ad3d
00000380: c7b3 173d 9d14 813c 945f 343d b441 9e3d
00000390: 47db 7e3d d023 f53d 3921 ebbd 94e4 beba
000003a0: f322 413e b96d 113e 304c 853d 9824 073e
000003b0: 683d d83d 0cb1 db3d f5de 283d 4b52 ea3c
000003c0: f283 783d e201 393e b68a de3d 5588 bf3b
000003d0: 3c22 0fbe e88b c0bc 046d a83c 56da 653c
000003e0: db0c a5bd 271a d63d 91bd f63d bbe3 4abc
000003f0: d005 7d3d 5284 d33d 94e6 ddbc 4b86 f73b

fc1.0.bias f4 [120]
-0.014655565 0.0151803 -0.017688392 -0.051290914 -0.06083717 0.0022564083 -0.1466663 0.00652874
0.0051152743 -0.037185084 0.0072569367 -0.05231779 -0.08910378 -0.10006407 -0.12153377 -0.005022821
-0.090041555 -0.059661184 -0.006163487 0.0048953434 0.085217215 -0.039793238 -0.001235804 0.024513898
0.030130256 -0.022855908 0.010187382 -0.0776849 0.040461894 -0.034912325 0.03345289 -0.18217677
-0.09516324 -0.03860082 0.19871551 0.054948345 -0.13895826 -0.0096460655 -0.07131447 0.079929866
0.039491177 0.022102147 0.02130473 -0.048620187 -0.07061507 0.017429562 0.016771305 -0.15809537
-0.10211948 0.08608452 0.029567104 0.05912513 -0.12527978 0.132838 -0.03207629 -0.20643088
0.1566759 0.074141435 -0.0072947694 -0.015478509 -0.04449356 -0.013932168 0.07014892 -0.01493589
0.025564393 -0.00133352 -0.11662212 -0.019327562 -0.12121884 -0.11972734 0.04501686 0.04217699
0.022955487 -0.074278876 -0.05563836 0.019424148 -0.12764235 0.11712519 -0.09860143 0.0038319319
0.003325113 -0.15254553 -0.093755074 0.094370365 -0.08141175 -0.0995609 0.09817762 -0.077083424
0.09877465 -0.059419245 0.1087363 -0.10348346 0.12281668 0.14270993 -0.07281858 0.02303399
-0.07289506 0.06702786 -0.10795457 0.056279574 -0.023133123 -0.023362286 -0.024804233 0.11913803
-0.08119512 0.19256508 -0.06257387 -0.06965499 -0.06898582 0.11231447 0.012568375 0.029396834
0.12866306 0.0579336 -0.052317802 -0.08042568 -0.061630327 -0.015945159 0.09729481 0.07249746
00000000: e51d 70bc cbb6 783c 3fe7 90bc 6c16 52bd
00000010: 6530 79bd 40e0 133b b12f 16be 0aef d53b
00000020: 089e a73b 634f 18bd 99cb ed3b 2e4b 56bd
00000030: 0b7c b6bd 64ee ccbd b2e6 f8bd 7a96 a4bb
00000040: b567 b8bd 495f 74bd 14f7 c9bb 1e69 a03b
00000050: 5d86 ae3d 3cfe 22bd b4fa a1ba 5fd1 c83c
00000060: bad3 f63c 503c bbbc fae8 263c 4319 9fbd
00000070: 5fbb 253d 3a00 0fbd e605 093d 8c8c 3abe
00000080: f2e4 c2bd e51b 1ebd 147c 4b3e 8411 613d
00000090: 134b 0ebe 880a 1ebc 520d 92bd 45b2 a33d
000000a0: 80c1 213d 900f b53c 4287 ae3c f625 47bd
000000b0: a29e 90bd 71c8 8e3c fa63 893c c1e3 21be
000000c0: 0524 d1bd 154d b03d b636 f23c 312d 723d
000000d0: 5849 00be af06 083e 6e62 03bd 9e62 53be
000000e0: a66f 203e 77d7 973d f608 efbb 9299 7dbc
000000f0: e13e 36bd bf43 64bc 3daa 8f3d aab5 74bc
00000100: 6b6c d13c 82c9 aeba 94d7 eebd d654 9ebc
00000110: 9541 f8bd 9c33 f5bd 9963 383d c8c1 2c3d
00000120: 250d bc3c 861f 98bd 0de5 63bd 641f 9f3c
00000130: adb4 02be 55df ef3d 8cef c9bd 2621 7b3b
00000140: 24ea 593b e534 1cbe a902 c0bd 4045 c13d
00000150: 34bb a6bd 96e6 cbbd 5911 c93d eadd 9dbd
00000160: 5d4a ca3d 9861 73bd 23b1 de3d 23ef d3bd
00000170: 5087 fb3d 8d22 123e e821 95bd c7b1 bc3c
00000180: 014a 95bd e745 893d 4917 ddbd 6985 663d
00000190: ad81 bdbc 4462 bfbc 3f32 cbbc a4fe f33d
000001a0: a149 a6bd c82f 453e bb26 80bd 47a7 8ebd
000001b0: 7048 8dbd 2105 e63d 96eb 4d3c a1d1 f03c
000001c0: 40c0 033e c84b 6d3d 314b 56bd 38b6 a4bd
000001d0: 1570 7cbd 6c9f 82bc 8042 c73d 8c79 943d

fc2.0.weight f4 [84, 120]
0.09551741 0.021269036 -0.093709156 0.02659758 -0.1388685 0.027088892 0.011710179 0.2046502
0.11104543 0.068373896 0.2208837 -0.09016307 -0.0847573 -0.020394156 -0.10468403 0.13675018
0.0952966 0.16038877 -0.11687685 0.089268714 0.060427744 -0.0097629735 0.09787952 -0.046281938
0.15311453 -0.012154851 -0.049806394 0.10991987 0.025426678 -0.23321243 -0.10363535 -0.05375383
0.0659403 -0.18331307 -0.06746273 0.06710157 0.104456194 0.070379995 -0.20394306 -0.0022397912
-0.0614761 -0.052155543 0.17120421 -0.20206848 0.10894963 0.08064181 0.08032961 0.065542094
0.09168883 0.076487735 0.05332123 -0.11735985 0.02814901 -0.17104326 0.053282052 0.0025552397
-0.024801288 -0.08612776 0.045832068 0.033204947 0.06584803 0.013780247 -0.14011239 -0.1096795
0.050488148 -0.013069171 0.03995223 0.017579244 -0.0018219427 -0.08475688 0.033702634 0.03741763
-0.14083907 0.0713002 -0.06752085 0.044884507 0.053821653 0.01992692 -0.03720624 -0.049881473
0.15945259 -0.045381308 -0.07465365 -0.033115335 0.015220511 0.0675325 -0.045496073 0.00091219984
0.07378504 -0.0101638725 0.12974535 -0.13201506 0.15198015 -0.118259095 -0.21830717 -0.112964235
0.17386116 -0.13174136 0.22591788 0.05536462 -0.051408045 -0.17187056 0.016969254 -0.19132371
0.03675951 -0.15711083 0.006898372 -0.040796854 0.051602136 0.06657165 -0.022121644 -0.11252985
0.053891547 -0.07514947 -0.16863135 -0.15413846 0.035193764 0.07530615 0.20825689 0.062730834
-0.08757849 -0.052912354 0.052294534 -0.0030766285 0.04775532 0.009542135 0.14029793 -0.07663291
-0.20988944 0.10585368 0.16909069 0.09746462 0.12372383 0.15299666 0.3449896 0.036508195
-0.099942334 0.073984206 0.060234208 -0.077790104 -0.07250532 0.07456779 -0.09007985 -0.10071108
0.023163874 -0.026369656 0.006039545 0.057385415 0.12662624 -0.011778734 -0.10048475 0.08090127
0.19458121 -0.10461526 -0.014319695 -0.019432345 0.04609904 0.109068625 0.1466053 -0.15120327
-0.086896315 -0.07890887 0.06313378 0.16462801 -0.052494247 0.074305914 -0.089828864 0.08638942
0.08544063 -0.13100609 0.03478357 -0.058701605 0.038267 -0.1687719 0.00991941 0.087675
0.036128685 0.09179738 0.02943003 0.06213535 0.047026422 -0.073586166 -0.061172366 0.09785858
0.05346334 -0.09531715 -0.09137658 0.020993544 0.1997182 -0.057659045 -0.0688746 0.19013068
0.052687395 0.04509985 0.06944052 0.15311551 0.05146618 -0.105618194 0.109645955 0.14453626
-0.029646786 0.18366806 0.1157812 -0.18985471 0.2605046 0.05980605 -0.08428599 -0.057787426
-0.054422196 -0.025659781 -0.08053315 0.13193904 0.03657613 -0.13777292 -0.13096073 -0.045653813
0.04206606 -0.09626399 0.014182296 -0.08474576 -0.03606415 0.09553929 0.015650628 -0.14844967
0.19662657 -0.070132434 0.02792848 -0.08687371 -0.062027313 -0.051657483 0.07876753 -0.09454861
0.12268487 -0.065521 0.11554243 0.112765856 -0.073754236 0.15740651 -0.12245551 0.1117265
0.17258282 0.0754946 0.030002428 0.07522109 0.06525292 -0.16236351 0.1213286 -0.0046373964
0.06849823 -0.11103384 -0.025091814 -0.07863808 0.108909905 0.07416792 -0.05675392 0.025663134
00000000: a29e c33d 673c ae3c 96ea bfbd 2be3 d93c
00000010: 8b33 0ebe 86e9 dd3c 0ddc 3f3c d28f 513e
00000020: c96b e33d 9d07 8c3d 562f 623e 6aa7 b8bd
00000030: 3c95 adbd a511 a7bc 9564 d6bd 3d08 0c3e
00000040: dd2a c33d f43c 243e 215d efbd 84d2 b63d
00000050: 1583 773d e1f4 1fbc 0f75 c83d 2192 3dbd
00000060: 0eca 1c3e 2425 47bc ca01 4cbd ab1d e13d
00000070: 9c4b d03c 3dcf 6ebe c53e d4bd fa2c 5cbd
00000080: b50b 873d 6cb6 3bbe e629 8abd 8c6c 893d
00000090: 21ed d53d 6323 903d 73d6 50be 76c9 12bb
000000a0: 5dce 7bbd 0da1 55bd 2850 2f3e 0aeb 4ebe
000000b0: fc20 df3d 8927 a53d da83 a43d ef3a 863d
000000c0: 5ac7 bb3d 9aa5 9c3d 5d67 5a3d 5c5a f0bd
000000d0: c198 e63c f725 2fbe 483e 5a3d cf75 273b
000000e0: 122c cbbc c063 b0bd 68ba 3b3d e901 083d
000000f0: 55db 863d 8cc6 613c 9f79 0fbe a59f e0bd
00000100: a9cc 4e3d 1420 56bc f3a4 233d 5902 903c
00000110: 41ce eeba 0495 adbd c60b 0a3d 3b43 193d
00000120: 1e38 10be d705 923d 5f48 8abd d1d8 373d
00000130: 1874 5c3d c83d a33c 9265 18bd 8450 4cbd
00000140: 8a47 233e c0e1 39bd 03e4 98bd f2a3 07bd
00000150: 735f 793c 7b4e 8a3d 175a 3abd b220 6f3a
00000160: 9c1c 973d 5f86 26bc f7db 043e f52e 07be
00000170: afa0 1b3e d331 f2bd ea8b 5fbe cb59 e7bd
00000180: a908 323e 35e7 06be 0457 673e 03c6 623d
00000190: 3e91 52bd d6fe 2fbe 1b03 8b3c 5dea 43be
000001a0: 2491 163d a9e1 20be bd0b e23b 9a1a 27bd
000001b0: c35c 533d b856 883d 7338 b5bc 0d76 e6bd
000001c0: 62bd 5c3d f7e7 99bd b2ad 2cbe 79d6 1dbe
000001d0: 5627 103d 1c3a 9a3d 4b41 553e 0679 803d
000001e0: 5a5c b3bd a0ba 58bd cb32 563d 43a1 49bb
000001f0: 159b 433d 9d56 1c3c 43aa 0f3e b7f1 9cbd
00000200: 42ed 56be d0c9 d83d 1c26 2d3e 889b c73d
00000210: eb62 fd3d 28ab 1c3e 7aa2 b03e 9e89 153d
00000220: 91ae ccbd 0885 973d 25b8 763d 6b50 9fbd
00000230: ab7d 94bd ffb6 983d c97b b8bd 9c41 cebd
00000240: 2ac2 bd3c 2d05 d8bc 60e7 c53b f80c 6b3d
00000250: 4faa 013e 97fb 40bc f3ca cdbd 91af a53d
00000260: 4c40 473e 8740 d6bd 279d 6abc 9530 9fbc
00000270: 59d2 3c3d 5f5f df3d b31f 163e 08d5 1abe
00000280: b2f6 b1bd f99a a1bd 494c 813d 3f94 283e
00000290: 3504 57bd b32d 983d 32f8 b7bd f0ec b03d
000002a0: 7ffb ae3d 7626 06be 3779 0e3d 1871 70bd
000002b0: dcbd 1c3d 8ad2 2cbe 0585 223c f38e b33d
000002c0: acfb 133d 4400 bc3d 3f17 f13c a381 7e3d
000002d0: c79e 403d 58b4 96bd e08f 7abd 146a c83d
000002e0: 60fc 5a3d a335 c3bd a523 bbbd a7fa ab3c
000002f0: ee82 4c3e e42b 6cbd 200e 8dbd 9eb1 423e
00000300: bdce 573d 9fba 383d d536 8e3d 50ca 1c3e
00000310: 33ce 523d 5a4e d8bd 0f8e e03d 5001 143e
00000320: d1dd f2bc 7b13 3c3e b21e ed3d 4669 42be
00000330: dc60 853e 30f7 743d 229e acbd 82b2 6cbd
00000340: cfe9 5ebd 7634 d2bc 90ee a4bd 071b 073e
00000350: dad0 153d 5814 0dbe 921a 06be 7eff 3abd
00000360: 764d 2c3d 0e26 c5bd dc5c 683c 2f8f adbd
00000370: 01b8 13bd 1aaa c33d bf35 803c 3103 18be
00000380: 7a58 493e 98a1 8fbd 45ca e43c d8ea b1bd
00000390: 5a10 7ebd cc96 53bd df50 a13d b4a2 c1bd
000003a0: 3542 fb3d e02f 86bd 82a1 ec3d c9f1 e63d
000003b0: 760c 97bd 2c2f 213e f4c9 fabd ddd0 e43d
000003c0: 8db9 303e ea9c 9a3d a7c7 f53c 840d 9a3d
000003d0: 53a3 853d 9f42 26be 217b f83d 4df5 97bb
000003e0: cd48 8c3d b665 e3bd 598d cdbc 000d a1bd
000003f0: 280c df3d 5ae5 973d cc76 68bd 7e3b d23c

fc2.0.bias f4 [84]
-0.11085118 -0.06238806 -0.1362211 -0.007200869 0.018087445 -0.14879547 0.035389114 -0.089053474
-0.010234229 -0.0037498262 0.16989468 0.03599896 -0.0044539035 0.2544499 -0.048667174 0.027083889
-0.037226725 0.050506894 -0.07261007 0.020551782 0.029056193 0.123350605 0.04686166 0.11286731
-0.029936545 0.123712204 0.069476716 0.007348239 0.045535542 0.012093717 0.1624849 0.11606227
0.08780545 0.12117583 -0.14659986 -0.11052881 -0.10743157 -0.10351251 -0.07634276 0.08488456
-0.055229444 0.08967833 -0.14518405 0.06250503 -0.019245265 0.096455835 0.12285485 0.07302964
-0.11586276 -0.08775412 -0.008000178 0.06357345 -0.011049913 0.028665407 -0.06134543 0.0070901876
-0.035066184 0.12765342 -0.1547871 -0.004247381 0.045198772 -0.07585238 0.17257379 0.051944043
-0.011499237 0.04622524 0.058340266 0.08572279 0.044013042 0.12515673 0.00049522973 0.08319669
-0.15950303 0.020784112 -0.08555567 -0.08232449 0.2598463 -0.06637907 0.16040167 0.039372135
-0.22511253 -0.10205758 0.08919673 -0.13984126
00000000: f205 e3bd 9f8a 7fbd 8b7d 0bbe 44f5 ebbb
00000010: 1f2c 943c d75d 18be 2df4 103d ab61 b6bd
00000020: 78ad 27bc a5bf 75bb dff8 2d3e a573 133d
00000030: 0df2 91bb 4247 823e 3b57 47bd 08df dd3c
00000040: 0d7b 18bd 51e0 4e3d 97b4 94bd 365c a83c
00000050: 4107 ee3c 3e9f fc3d 03f2 3f3d fa26 e73d
00000060: 7c3d f5bc d35c fd3d cf49 8e3d 7fc9 f03b
00000070: 7a83 3a3d ba24 463c 7162 263e 0eb2 ed3d
00000080: 58d3 b33d 092b f83d 461e 16be ee5c e2bd
00000090: 1505 dcbd 5efe d3bd 9859 9cbd f5d7 ad3d
000000a0: 4538 62bd 46a9 b73d 21ab 14be a302 803d
000000b0: 3fa8 9dbc a38a c53d 539b fb3d 9090 953d
000000c0: 7449 edbd 6fb8 b3bd 2e13 03bc cc32 823d
000000d0: b20a 35bc b7d3 ea3c 5845 7bbd ce54 e83b
000000e0: 8fa1 0fbd 94b7 023e 8280 1ebe 9d2d 8bbb
000000f0: 5922 393d 7e58 9bbd 2fb7 303e 47c3 543d
00000100: 4c67 3cbc ad56 3d3d 34f6 6e3d 6e8f af3d
00000110: 0547 343d 1629 003e 4ed2 013a 0763 aa3d
00000120: c354 23be 7143 aa3c d037 afbd be99 a8bd
00000130: 930a 853e c0f1 87bd 5640 243e ad44 213d
00000140: e683 66be 9103 d1bd c6ac b63d 8c32 0fbe

fc3.0.weight f4 [10, 84]
-0.118049204 0.17672074 -0.13100934 -0.04955714 0.11569204 0.32563224 -0.06463201 -0.18043348
-0.09201125 -0.014811211 0.10492184 -0.13617606 -0.018129958 -0.09786498 0.1013025 0.062502354
-0.31352958 0.19878152 0.107285954 -0.30093357 -0.13249639 0.10349944 0.21878307 0.04515335
0.1348578 -0.18365698 -0.18664661 0.12597449 0.15411186 0.19464563 0.117745884 0.03926549
-0.12587331 -0.30785412 0.30211923 0.38201326 -0.15772228 -0.09609866 0.20483835 0.06620464
-0.15398563 -0.15139818 -0.20752694 -0.1962176 -0.06391423 -0.29509905 -0.1217746 0.18478838
-0.095103234 0.14668986 0.0019276325 0.18969566 0.17589255 0.18456115 0.2703391 0.055882107
0.33728978 -0.038638856 -0.09379828 0.14153689 -0.18676521 -0.053660728 0.16343918 -0.013977452
0.05610862 0.14112201 0.14003187 0.068420805 0.17295672 -0.11829707 0.17925261 0.2112418
0.057204336 0.11672281 0.04161111 0.08992756 -0.07371931 -0.017735703 0.09831574 0.064006485
-0.2202 0.105673335 -0.20408218 0.21064204 -0.107939444 -0.24549131 -0.117238246 0.3063045
-0.16188 -0.16885158 0.04187867 -0.020723868 0.24580428 -0.28461143 0.2896939 0.16214651
-0.06501793 0.074737415 -0.23975007 0.02853189 -0.24956228 -0.1637125 -0.12262112 -0.12699637
-0.19073878 -0.1132905 0.24763307 0.064815655 0.02728675 -0.20229721 0.17329155 0.12926456
-0.19118914 -0.11063975 0.21203704 0.20301165 -0.24725929 0.119037986 -0.0010096148 0.2706026
-0.01180262 0.08510104 0.13096084 -0.120779306 0.18561855 0.15849762 0.27343574 0.23411055
-0.111860335 0.100740165 -0.2077826 0.091282636 -0.1704411 -0.09590719 -0.12161897 0.15676594
-0.21292666 -0.08924843 0.008350571 -0.124443755 0.03004945 0.0724883 -0.1494473 0.21668512
-0.084654264 -0.07870248 -0.25242558 0.10171094 -0.13082552 -0.12566204 0.07191845 -0.085792616
-0.08630317 -0.11132487 -0.18961556 -0.15482542 -0.03398249 0.20549025 -0.22705455 -0.2958582
0.0882949 0.34032804 0.14422694 -0.08490402 0.044768535 -0.20898306 0.2172924 -0.017172161
0.15362069 -0.17143765 -0.14154366 -0.10619258 -0.15448257 -0.052764148 0.23251453 -0.14158991
0.117008395 -0.08768862 -0.10526157 -0.16369972 -0.16706282 0.051318046 0.15589158 0.12523547
-0.03835513 0.22682066 -0.18450205 0.26092213 0.2101484 0.25409248 0.067313254 -0.12520365
-0.15055074 -0.13984388 -0.03785908 -0.083669916 -0.045055516 0.28473726 -0.17537016 -0.1459711
-0.06813149 -0.065246105 -0.18119758 -0.13941137 -0.0813561 -0.24457553 -0.15772447 -0.19347247
-0.06199908 -0.20647053 -0.14761893 -0.030397762 -0.04455471 0.10425797 -0.054283243 0.050705876
-0.19748056 -0.16508943 -0.12114786 0.16407047 0.04142668 0.13954708 -0.052360363 0.18451744
0.2003734 0.0056590294 0.054734446 0.085606754 0.17591102 0.011712809 -0.21965644 0.06496047
-0.2348238 -0.17190896 -0.27920958 0.21269764 0.10541132 0.25458717 0.10978786 -0.050835017
-0.1682039 -0.07253113 -0.19007288 -0.25493798 0.21736705 0.120661594 -0.036143843 -0.117378056
-0.24426216 -0.0074651735 -0.111155204 0.11911018 0.21314284 0.13737276 0.15001832 -0.13354316
00000000: c8c3 f1bd 48f6 343e 5027 06be 6dfc 4abd
00000010: f3ef ec3d 45b9 a63e ca5d 84bd 8ec3 38be
00000020: 6570 bcbd b9aa 72bc 43e1 d63d bd71 0bbe
00000030: 4785 94bc 6f6d c8bd af77 cf3d 3c01 803d
00000040: f386 a0be 628d 4b3e bdb8 db3d f713 9abe
00000050: 22ad 07be 84f7 d33d ab08 603e b8f2 383d
00000060: 2a18 0a3e 9310 3cbe 4a20 3fbe 75ff 003e
00000070: 80cf 1d3e 2f51 473e c124 f13d dad4 203d
00000080: efe4 00be 0e9f 9dbe 5faf 9a3e 3e97 c33e
00000090: f381 21be 60cf c4bd 25c1 513e 4c96 873d
000000a0: 69ae 1dbe 2008 1bbe f181 54be 44ed 48be
000000b0: 77e5 82bd 3917 97be f664 f9bd 2a39 3d3e
000000c0: 7cc5 c2bd de35 163e 9da8 fc3a 943f 423e
000000d0: 2d1d 343e 99fd 3c3e e369 8a3e a3e4 643d
000000e0: 3fb1 ac3e c743 1ebd 5019 c0bd 0cef 103e
000000f0: 613f 3fbe 5acb 5bbd 9a5c 273e af01 65bc
00000100: 27d2 653d 4a82 103e 8464 0f3e 3520 8c3d
00000110: 911b 313e bc45 f2bd ff8d 373e c54f 583e
00000120: 184f 6a3d 5e0c ef3d 6970 2a3d f12b b83d
00000130: 26fa 96bd 774a 91bc c359 c93d d515 833d
00000140: 1c7c 61be 436b d83d ebfa 50be 8cb2 573e
00000150: 5b0f ddbd 1362 7bbe 9b1a f0bd f2d3 9c3e
00000160: dfc3 25be 6ee7 2cbe f888 2b3d 1ac5 a9bc
00000170: 1eb4 7b3e 97b8 91be c252 943e bc09 263e
00000180: 1f28 85bd ee0f 993d 0b81 75be b6bb e93c
00000190: 418d 7fbe 40a4 27be c820 fbbd 560b 02be
000001a0: 0751 43be da04 e8bd 8693 7d3e 12be 843d
000001b0: 7688 df3c 0027 4fbe 5773 313e ee5d 043e
000001c0: 16c7 43be 1897 e2bd 3d20 593e 49e2 4f3e
000001d0: 8a31 7dbe 30ca f33d 0d55 84ba 6d8c 8a3e
000001e0: c75f 41bc 7449 ae3d 991a 063e 245b f7bd
000001f0: ca12 3e3e 334d 223e c5ff 8b3e adba 6f3e
00000200: 0817 e5bd dc50 ce3d f6c4 54be 64f2 ba3d
00000210: 1d88 2ebe fd6a c4bd 5e13 f9bd 4087 203e
00000220: 7209 5abe e2c7 b6bd d5d0 083c 5edc febd
00000230: 442a f63c bf74 943d b708 19be b4e2 5d3e
00000240: 375f adbd c42e a1bd ed3d 81be d34d d03d
00000250: 20f7 05be 8dad 00be fb49 933d 0ab4 afbd
00000260: b7bf b0bd 4bfe e3bd 952a 42be 8e8a 1ebe
00000270: 3931 0bbd 096c 523e fd80 68be ba7a 97be
00000280: f5d3 b43d 7a3f ae3e 3ab0 133e 29e2 adbd
00000290: 365f 373d a8ff 55be e681 5e3e a2ac 8cbc
000002a0: be4e 1d3e 5a8d 2fbe d2f0 10be 7f7b d9bd
000002b0: ae30 1ebe 381f 58bd 4a18 6e3e f2fc 10be
000002c0: 19a2 ef3d 1796 b3bd 6193 d7bd e6a0 27be
000002d0: 8412 2bbe df32 523d 0ba2 1f3e ba3d 003e
000002e0: 451a 1dbd ad43 683e 1bee 3cbe 9697 853e
000002f0: 2431 573e 6918 823e 88db 893d 6335 00be
00000300: f929 1abe 3c33 0fbe 1f12 1bbd 225b abbd
00000310: 228c 38bd 15c9 913e 3c94 33be 7379 15be
00000320: 8688 8bbd c09f 85bd dc8b 39be dbc1 0ebe
00000330: 079e a6bd 0272 7abe 8682 21be a61d 46be
00000340: bff2 7dbd 036d 53be 6b29 17be ba04 f9bc
00000350: 007f 36bd 3485 d53d 1b58 5ebd f7b0 4f3d
00000360: 5838 4abe 340d 29be 5f1c f8bd 1702 283e
00000370: 06af 293d 6ee5 0e3e d277 56bd 24f2 3c3e
00000380: af2e 4d3e 616f b93b 3a31 603d 9852 af3d
00000390: 0522 343e 15e7 3f3c 9eed 60be ff09 853d
000003a0: a675 70be e708 30be 8ff4 8ebe 69cd 593e
000003b0: e4e1 d73d 4059 823e 75d8 e03d 6138 50bd
000003c0: a53d 2cbe 338b 94bd 77a2 42be 3b87 82be
000003d0: 7895 5e3e 6d1d f73d 910b 14bd e863 f0bd
000003e0: dc1f 7abe 6a9e f4bb 57a5 e3bd 0af0 f33d
000003f0: 1e42 5a3e 72ab 0c3e 679e 193e 8abf 08be

fc3.0.bias f4 [10]
-0.15668648 -0.03558388 0.094896495 -0.14543563 -0.047746304 0.041749008 -0.2037579 0.01745359
0.15202323 0.015628567
00000000: 6c72 20be 67c0 11bd 1859 c23d 14ed 14be
00000010: a191 43bd 0201 2b3d e9a5 50be d5fa 8e3c
00000020: faab 1b3e 7b07 803c
