save_checkpoints/LeNet5_epoch_13.pth (torch, 249863 bytes, 10 tensors)

conv1.0.weight f4 [6, 1, 5, 5]
00000000: 3f06 cd3c f110 083e 5008 f8bd d7da ddbd
00000010: 02fc 5b3c f347 bebd 1590 80bd ddad 5a3c
00000020: 8052 cb3d 9fa1 96bd 44bf bc3d 11cd a7bb
00000030: 64eb bc3a 7e79 a9bc 6b89 943e b0ca 353e
00000040: 8b07 1f3e 87f0 a03e e043 df3d 5783 0bbd
00000050: f958 00be 19b5 273b bb56 93be cdb6 36bd
00000060: ce91 b5bc edad f6bc 7cb2 3cbc d4bd 92bb
00000070: e492 20bd 29fb 263e fb76 08bd dc0f 29be
00000080: c4a1 093e 9952 823e e0d0 3f3d 6548 d03d
00000090: 2d6e ed3d 0fc5 6e3d 40ea b13d 3016 ac3d
000000a0: 0f76 9abe 6fc2 693d c3ec 583e c71f 833b
000000b0: bbab 81be a196 6cbe 1c40 633b 1be6 65be
000000c0: efdc 233d ecc3 d6bd 17fa 0d3d 3576 b73d
000000d0: a1e9 1c3e 8a31 1f3d 5c97 14bd 7a4c 193e
000000e0: faf1 bcbd 6123 7dbc 90cd c73d 5d39 883d
000000f0: 838c 173e cf80 5d3e d684 77bd 9c5c e63d
00000100: 2fb6 d6bd b342 2cbe a506 9bbe 11ca f1bd
00000110: bf05 77be 838e 2a3e b4da bbbe 3cfe a4bd
00000120: 6d27 273c 7fa4 ebbd 4a9b a2be 7811 3bbc
00000130: 992e 8abc cbd3 00be 9fdc bb3d 1f91 3bbe
00000140: 8672 2b3d c0d6 afbd 24ef 2abd 1a1e af3d
00000150: a508 69bd 7617 38bd 764b 35bd 02a2 4ebe
00000160: 4610 2f3e 8852 d8bd d679 db3d 1d74 a73d
00000170: 223e 113e 19b4 3bbd a31f 9c3e bc04 6ebd
00000180: 0e25 db3d 9ad8 773e 8c97 a23c b5e1 b9bb
00000190: e2dd 0bbd 1077 243d 49cc 05ba 0ce2 3a3e
000001a0: 6bd5 73be 5ac8 30bc 9578 633d cdb3 053e
000001b0: 037c c93d 43ca 503d eabe 6abe 9505 0c3e
000001c0: 461f 3f3d 9958 db3c 2825 223d 959b 803d
000001d0: 9bb4 393e f334 8cbd bfb0 983b 8596 bebd
000001e0: 5706 b33c ea74 953d adb8 6dbc d00d 9ebd
000001f0: a680 7ebe 8ff4 a33d b7fa 1e3e 2055 f6bb
00000200: 2163 b93d 7612 803d 9e90 0abd e88d cdbd
00000210: 026c 4a3e 9667 cbbd 8c3c 443c 34a7 b43d
00000220: af74 313d 9cce 553d debd 423c efde 45bd
00000230: c3ac a4bd 77f7 8bbd 5502 b83d 38ca 73be
00000240: e4f5 56be 6bb4 8fbd e2de c93d 8459 1cbe
00000250: 9c54 bcbd 1782 053d
0.025027392 0.13287713 -0.121109605 -0.10832756 0.013426783 -0.09291067 -0.062774815 0.013347116
0.09927845 -0.073550455 0.092161685 -0.0051208814 0.0014413414 -0.020687815 0.29011092 0.177531
0.15530221 0.31433508 0.10901618 -0.034060802 -0.1253394 0.002559012 -0.28777108 -0.044607926
-0.022164252 -0.030112231 -0.011517163 -0.0044781957 -0.039202586 0.16306747 -0.033316594 -0.16509956
0.13440615 0.25453642 0.046830058 0.10170058 0.1159328 0.0582934 0.08687258 0.084026694
-0.30168197 0.057070192 0.21184067 0.004001591 -0.25326332 -0.23104335 0.0034675663 -0.2245106
0.04000562 -0.10486588 0.034662332 0.08958093 0.15323497 0.038865604 -0.03627716 0.1497058
-0.09225841 -0.0154503295 0.09756005 0.06651566 0.14799695 0.21631168 -0.060429417 0.112481326
-0.104839675 -0.16822319 -0.30278507 -0.11806119 -0.24123286 0.16655926 -0.36690295 -0.08056304
0.010202271 -0.115059845 -0.317591 -0.011417739 -0.016867923 -0.12580793 0.091729395 -0.18317078
0.041857265 -0.08585882 -0.04173197 0.08550663 -0.05689301 -0.04494425 -0.04426142 -0.20178989
0.17096052 -0.105626166 0.10716598 0.08176444 0.14183858 -0.04582605 0.30492887 -0.058109984
0.10700427 0.2420372 0.019847654 -0.0056726583 -0.03414715 0.04015261 -0.0005103988 0.18250293
-0.23811881 -0.010789955 0.055534918 0.1305687 0.098381065 0.05097414 -0.2292439 0.13674004
0.046660684 0.026775645 0.039586216 0.06279675 0.18135302 -0.06846037 0.0046597417 -0.09306053
0.021853609 0.0729769 -0.014509362 -0.07717478 -0.24853763 0.0800563 0.15525328 -0.007517472
0.090521105 0.06253521 -0.033829324 -0.10036832 0.19767764 -0.09931867 0.011977326 0.08820954
0.04332417 0.05219899 0.011886088 -0.04830831 -0.08040764 -0.068343095 0.0898482 -0.23807609
-0.20992237 -0.07016834 0.09856965 -0.15268523 -0.091958255 0.032594766

conv1.0.bias f4 [6]
00000000: b390 44be 6747 d13c 7555 0bbe bfb1 f73d
00000010: 6359 75be 8f13 4bbe
-0.19195823 0.025546743 -0.13606818 0.12094449 -0.2395988 -0.1983168

conv2.0.weight f4 [16, 6, 5, 5]
00000000: 5424 6c3d ad74 583d 2e1e 4b3c 6e9d a7bd
00000010: 4cef dfbd b418 a1bd 700e c03c c265 7d3d
00000020: 941d 19ba df4c debd 1af8 c0bd b3d3 bbbd
00000030: ceb6 fbbc 5674 073c 41d7 55bd 5483 a4bd
00000040: 68bf dcbd 5e43 a0bc b28f a7bd 5e41 d2bd
00000050: ad50 8bbd e2c0 8cbc bafc 6ebd 93a9 23be
00000060: c40f b1bd 31f0 1cbd 0f37 37be 1739 29be
00000070: 40a1 fbbd 9eb8 92ba 1bc5 ed3d 23d7 ab3d
00000080: cd2f e2bb 22fb 6cbd 2402 f1bd 8d31 0d3e
00000090: 8f13 333e 5eb8 983d c9fa 05bd 78df debd
000000a0: 63b3 e3bc 0bea f73c ea31 a63d 3fad d53d
000000b0: 9fd8 9cbc d14b 3b3d e06e 8abb 8ee0 463d
000000c0: 3896 bf3d 71c4 dabd 2713 d4bd 898c bdbd
000000d0: 8c0d b8bd 6864 f3bc d2f3 bb3d a4ef cc3d
000000e0: d6c3 c0bd 4859 8fbe 89d3 67be 066b 1cbe
000000f0: 3922 fd3d dfcc 0b3e fb88 a63d 1bc0 4abd
00000100: d09e debd 22be f2bd 44b3 bebc 49ce 0dbc
00000110: 0d05 c1bc 57b0 8f3c a3f2 723a 6320 ff3c
00000120: 6d8a 073d 8bf8 bb3c 227f ae3d 1578 a53d
00000130: d8af d83d 665e e6ba 9107 e3bd 6c80 b5bd
00000140: b403 b1bd 17f5 2a3d 8979 933d d362 bfb9
00000150: da0c a93a ae62 28be 7c87 c2bd 01ad 9d3b
00000160: 6221 8dbd df03 81bd 34f7 58bd 6751 b6bd
00000170: da62 69bd e053 edbd 4ed7 0dbe 24c7 b3bd
00000180: f11f 84bd abcf a2bd 5f15 5abd 89f9 cdbc
00000190: 163e 4c3d b0df 443c ebb2 9a3d 004b 9e3d
000001a0: c75a 093d 845e 003e d42a ab3d fe7b 1b3e
000001b0: 43ae 083e 7668 e2bc f824 5fbc 459b b83d
000001c0: b6ec 1d3e 0834 e93d 0f38 9a3d 9dbc 91bd
000001d0: ed3d a8bd 807c c8bc 4e96 2dbc 7537 323c
000001e0: de15 97bd a518 7fbd 777c bdbd 5291 78bd
000001f0: f864 0bbe 6ed6 5fbd 899f f0bd 9e27 c7bd
00000200: 135d fcbb 0f8c 86bc 17ac 4bbd 1cdf 23be
00000210: d78a 30be c634 6ebe 726b 49be a171 423d
00000220: 11c7 2f3c ec7f b43a c420 28bd 85f0 e4bd
00000230: 27f8 57bd e9e2 1fbd 5735 743b 6ce1 35ba
00000240: 28b4 063b 0ad0 27bd d4c1 fbbd 2ec2 e3bc
00000250: 4acd 593d fc12 2a3b 8a7d 823d f626 8ebd
00000260: e845 a0bd 3963 f7bd 5df2 67be 57d3 ab3c
00000270: 21b5 a0bd 95c5 b1bd a342 20be 20cf 44be
00000280: 79ae de3d 5cae 333d c2cb 26bd 0762 44bd
00000290: f144 dbbc d280 d73d 4239 f33d 625d 3d3d
000002a0: d4dd 0e3d 0d0a 22bd 2bc3 8f3d 72fa df3d
000002b0: 2efd 56bc cf1b 74bd 2824 a83c 383a 8cbd
000002c0: ec67 41bd 05e7 f4bd 5433 2dbe 1c3c b1bd
000002d0: 672c 32bd 233e bd3d 8187 70bd 137c c7bd
000002e0: 23cf 6cbd cfe8 17be 68df 853c a951 17be
000002f0: 65a0 e4bd 5f80 5dbd 8d33 fc3a 498a 0cbd
00000300: a455 193c b7a3 a63d e18d 3dbc 2897 063d
00000310: e60c ef38 f1cc 943c 5cea a83d 11d6 06bd
00000320: 41a6 663d 1144 22bd 924c 20be 1c05 a0bb
00000330: ed40 2a3d 08b1 3a3e 3fc3 4cbd f73d 63be
00000340: d447 83bd f609 00bd 0893 8dbd f8ab 7fbd
00000350: 4f19 c9bd 8a9b 3dbe 0415 65be fcf6 9ebc
00000360: aab0 e83c 5820 98bd 59ec 4fbc 8e49 a0bc
00000370: 3565 0e3d eb2e 0d3c af6d 273e 37ba fabd
00000380: 9c19 2e3c 2c85 ec3d 3a35 4f3d 6dfd 8cbd
00000390: ff7b 04be bbed 1fbe fe52 083d 0e0a a63d
000003a0: 28d7 5f3b d4b7 ed3c b53d aabd 3a1f 1c3e
000003b0: 147c 4e3d 9736 d43d 5f67 19bd 74e6 5e3d
000003c0: 7dd3 f03d eb34 fc3c b587 70bc 51b2 873c
000003d0: c283 f7bc 3e95 87be 085a 22be 8168 2ebe
000003e0: 45c8 11be 5e44 fdbd 057f babc c3a1 acbd
000003f0: b415 5d3c a270 6cbc 5d08 c2bd 4959 d63b
0.057651833 0.052845646 0.012397332 -0.08184324 -0.10934314 -0.0786604 0.023444384 0.061864622
-0.00058408943 -0.10854506 -0.094223216 -0.09171238 -0.030726817 0.008267483 -0.052207235 -0.08032861
-0.10778695 -0.019563373 -0.081817046 -0.10266374 -0.06802497 -0.017181817 -0.058346488 -0.15982656
-0.08645585 -0.038315002 -0.17892097 -0.16525684 -0.12286615 -0.0011193936 0.116098605 0.083906434
-0.006902671 -0.057856686 -0.117679864 0.13788433 0.1748793 0.0745704 -0.03270987 -0.10882467
-0.0277955 0.030262968 0.08114989 0.10433435 -0.019146262 0.0457266 -0.004224643 0.048553996
0.09354824 -0.106819995 -0.103552155 -0.092553206 -0.08986959 -0.029710963 0.091773644 0.10006645
-0.09412353 -0.27997804 -0.22639288 -0.15275201 0.12360043 0.13652371 0.08131596 -0.049499612
-0.10870135 -0.11852671 -0.02327884 -0.008655139 -0.023561979 0.01754014 0.0009267723 0.031143373
0.033090997 0.022945663 0.085203424 0.080795445 0.105804145 -0.001757574 -0.110854276 -0.08862385
-0.086432844 0.041737642 0.07200915 -0.0003650399 0.0012897507 -0.16443893 -0.09498498 0.0048118834
-0.06891133 -0.062995665 -0.052970126 -0.08902245 -0.056979038 -0.115882635 -0.13851663 -0.087782174
-0.06451405 -0.07949766 -0.053243037 -0.025143402 0.049863897 0.012016222 0.07553657 0.07729149
0.033533838 0.12536055 0.08357778 0.15184018 0.13347726 -0.027637701 -0.013619654 0.0901399
0.1542233 0.11386877 0.075302236 -0.07116053 -0.082149364 -0.024473429 -0.010594917 0.01087748
-0.07377218 -0.062279362 -0.092522554 -0.060685463 -0.13612735 -0.054647855 -0.11749179 -0.09724353
-0.007701525 -0.016424207 -0.049724665 -0.16003078 -0.17240463 -0.23262319 -0.19669893 0.047471646
0.0107286135 0.0013771034 -0.041046873 -0.11178688 -0.05272689 -0.039034758 0.0037263238 -0.00069381925
0.002055416 -0.040969886 -0.12292829 -0.027802553 0.053174295 0.0025951257 0.06371601 -0.06941025
-0.078258336 -0.12079472 -0.22651048 0.020974798 -0.078470476 -0.08680264 -0.1565042 -0.19219637
0.10873122 0.043867454 -0.040721662 -0.04794505 -0.026766272 0.105226174 0.118761554 0.046231635
0.03487952 -0.039560366 0.07019647 0.109364405 -0.013121886 -0.059596833 0.020525053 -0.06847042
-0.04721825 -0.11958126 -0.16914111 -0.08654043 -0.043499377 0.09240367 -0.058722977 -0.09740462
-0.05781473 -0.14834903 0.01634188 -0.14777245 -0.11163405 -0.054077502 0.0019241438 -0.034311567
0.009358797 0.08136695 -0.011569471 0.032858998 0.000113988106 0.01816413 0.082478255 -0.032918993
0.056310896 -0.039615694 -0.1565421 -0.0048834216 0.041565824 0.18231595 -0.04999089 -0.22191606
-0.064101845 -0.0312595 -0.069128096 -0.06241986 -0.0981928 -0.18516365 -0.22371298 -0.01940488
0.028404552 -0.07428044 -0.012690627 -0.019566324 0.034764487 0.008617143 0.16350435 -0.12242549
0.010626223 0.11548838 0.05058787 -0.06884275 -0.12937926 -0.1561803 0.033282273 0.081073865
0.0034155343 0.02901832 -0.08312551 0.15246287 0.0504113 0.10361975 -0.037452098 0.054418996
0.11759088 0.030786952 -0.014680793 0.01656452 -0.030214194 -0.2648105 -0.15854657 -0.17032053
-0.14236553 -0.12366556 -0.022765646 -0.08429291 0.013493944 -0.014431151 -0.094742514 0.0065414053

conv2.0.bias f4 [16]
00000000: 506e 52be b74b 2dbe bdfa 80be f502 38be
00000010: 9e2d 98be 7d4d 82be df40 00bf 1e15 9cbe
00000020: 122f dcbd 3791 37be 6635 a7be e514 25bc
00000030: 2f2b f83b d45a d7bd b04a 2cbe 74d6 b0bd
-0.20549893 -0.16923414 -0.25191298 -0.17969878 -0.29722303 -0.25449744 -0.50098985 -0.3048486
-0.107511654 -0.17926489 -0.32657927 -0.010075782 0.0075735073 -0.10515371 -0.16825366 -0.08634654

fc1.0.weight f4 [120, 400]
00000000: 8533 d5bc a89b 1fbd 0fa8 e13d 8b98 5d3d
00000010: 1c4a 543c 8bb5 153c f024 42bd 2551 533d
00000020: 8816 143e b977 9b3d 7fe9 ab3b 4de5 a83d
00000030: c178 873d 4082 c33c c123 34bd d1f3 1d3d
00000040: 2889 18bd 6c67 c4bc 81b5 b33c face 76bd
00000050: d0f2 883d 5799 c3bc 2e2d 84bd 91cc c63b
00000060: 35fd 913d bc91 803c 31d1 2b3c 7278 1f3d
00000070: 9b02 c83c e5e3 0e3d 2634 983c 3951 283d
00000080: 721d 89bc f7ea d93c c409 913d 59cb bcbd
00000090: aa4f 48bd d137 813d 5909 fe3c 14a9 6bbd
000000a0: c984 283d da5c 3d3d 694f 143d af07 193d
000000b0: 5fa5 de3d 91fe 8b3d 30e4 71bc 1736 82bd
000000c0: ff6a 183c f352 133d 9d8c 253c e3e1 6e3d
000000d0: 417a 893d 98ce 83bb 3939 aeba b666 df3d
000000e0: 2e92 f33d e7bf a23d de1e 8cbd 5fd8 823b
000000f0: dfa6 243e c36c b13c 40f7 fbbc b1cb cebd
00000100: bfd5 293c 9884 3b3d 8e32 153c 209b 22bc
00000110: 1194 15bd 3b1b 3abd 0276 dbbb b966 573d
00000120: 6db6 ae3d dcc7 47bd 307e 18bd 7999 703d
00000130: ee85 203d 0559 cd3d cfea 463e 7cb6 833d
00000140: 40c6 483e b4d0 403e 66c6 193c d048 76bc
00000150: af97 d43c 6445 523e 482d 1b3d ed65 bebb
00000160: 4e2c 85bd c42f 4e3c e145 bfbb 70cf 1c3d
00000170: bfaf e73c c8b6 51bd 1bb2 773d 82cd b03d
00000180: 101f c73b 9832 64bc 3312 9dbd 1ba8 ba3c
00000190: 1d17 1c3e 7450 f33d a8ea f83d 0e89 a03d
000001a0: ed6c 11bd 4461 353e b61d f03d 5d56 7c3d
000001b0: 522f 3a3d c04d c73c 2355 483d 8c43 6f3c
000001c0: 612b 3d3d ebe8 853a 57e1 35bd b28d a33b
000001d0: 3ae5 ad3d bee0 df3d c1b8 febc 41e5 05bc
000001e0: e7e4 b13d cd60 b33c 1427 98bd a50f 01ba
000001f0: fe6a bb3b d064 2a3d f558 22bc 0ffc 1abe
00000200: f4f1 67be c938 6dba b0f4 eb3c e640 9c3c
00000210: 805d 51bd 2f34 82bd 6beb d5bc 1d8a 01bc
00000220: 767a bebb df56 a9bd 471a f6bc 4acc b63c
00000230: aa4c e93d e00c ddbc 80c1 19bd cbf2 4abd
00000240: d3b3 a8bc 7e01 babd 473c fcb9 9bc8 fe3c
00000250: 5f96 d43c cfe6 7abd 62a6 dd3b d342 393d
00000260: 6c48 ccbd e783 30be b41e eabc 5356 5dbc
00000270: 647d a2bc f29b 94bd 97e9 c5bd a136 91bd
00000280: 7b30 f33c ec35 49bc 09f8 fabd ceab 8cbc
00000290: a5c4 933d 7ed1 923c 80af b7bd 36e5 3cbc
000002a0: de2e 9dbd de1a aebb ba21 1a3d bf96 c439
000002b0: 1400 a7bc bf4a 613d 08c9 babd a1f3 26bd
000002c0: 6d08 cf3d 911c 303e 6386 4f3d b66a c0bc
000002d0: 7eb6 3e3d f5eb e43d 3100 743d 7659 b73d
000002e0: ed9b 58bd 4cb2 d43d eff9 613d 1f18 8c3d
000002f0: 6505 4abc 1420 65bc 15c7 383e c147 283d
00000300: 29d9 7d3a 53aa e2bb 1cf9 083e 08ca aa3d
00000310: 2a5c 653d 82d8 3abc b1a8 d0ba 6bea c9bb
00000320: da0e ea3c 1415 38bd 3f73 08be 6f40 07bd
00000330: 07f3 b43d 236c 9cbd 9787 213d acb8 85bc
00000340: 30f0 473d e4c0 d3bc 87be 123d b4c8 713d
00000350: 5784 16bd 1cb1 9cbd 2dcf 823d 4d7d 093e
00000360: 61d0 fe3c a686 95bc 8dc4 92bd 0bec b03c
00000370: 9c55 c5bc 8e0d cd3c 5455 c33c 46d6 b7bc
00000380: afb3 b7bd 615d a6bd 7814 9bbd 4904 33bd
00000390: 83ab acbd 0446 babd 76d5 8e3d c930 aabd
000003a0: fbd8 82bd 6f17 c5bd 2536 233d 7670 c3bd
000003b0: 523d babc bbb2 3cbd 022a 853d e170 133d
000003c0: 38b9 873c 9671 b9bd 2e32 adbd c167 f7bc
000003d0: f1c2 2c3d d010 8b3b a979 6a3d 5b20 a83b
000003e0: f570 12bd 745d 49bd 6b6f 8a3d 168d c93d
000003f0: 0aae 6c3d e8bc 153d 412d edbc 33fc c13d
-0.026025543 -0.038966805 0.11018383 0.054100554 0.012957122 0.0091375215 -0.047398508 0.051591057
0.1446172 0.07591195 0.0052463408 0.08246861 0.06614829 0.023865819 -0.04397941 0.0385626
-0.037240177 -0.023975097 0.021937134 -0.060255982 0.06686938 -0.02387683 -0.0645393 0.0060668667
0.071283735 0.015694492 0.010486887 0.038933225 0.024415305 0.034885306 0.018579554 0.041093085
-0.016737673 0.026601298 0.07081941 -0.09218473 -0.0489041 0.06309474 0.031010317 -0.057534292
0.04114226 0.04623113 0.036208544 0.037360843 0.10871386 0.06835664 -0.014763877 -0.06357973
0.009302854 0.03596778 0.010104326 0.05832089 0.06712771 -0.0040224306 -0.00132922 0.109082624
0.11893116 0.07946759 -0.06841825 0.0039930786 0.16079281 0.021658307 -0.030757546 -0.10097445
0.010365902 0.045780748 0.009106291 -0.00992468 -0.03651816 -0.045436125 -0.0066974172 0.0525882
0.08530889 -0.048774585 -0.037229717 0.058740113 0.039190225 0.10026745 0.1942551 0.064312905
0.19606876 0.18829614 0.009385681 -0.015032008 0.025951235 0.20534283 0.03788498 -0.0058104903
-0.06502591 0.01258463 -0.0058371876 0.038283765 0.028282044 -0.051199704 0.06047259 0.086329475
0.006076701 -0.013928078 -0.07669487 0.022785237 0.15243192 0.118805796 0.12154132 0.07838641
-0.03550427 0.17712885 0.11724417 0.0616058 0.045455284 0.024329066 0.048909318 0.014603507
0.046183947 0.001021651 -0.044404354 0.0049912566 0.08490987 0.10931538 -0.031093957 -0.008172334
0.08686238 0.021896744 -0.074293286 -0.00049232907 0.0057195416 0.04160005 -0.009908904 -0.15135215
-0.22650892 -0.0009049294 0.0288032 0.019073915 -0.05111456 -0.063576095 -0.026113233 -0.007906464
-0.0058129383 -0.082685225 -0.030041827 0.02231421 0.11391576 -0.026983678 -0.03753805 -0.04954795
-0.02059356 -0.09082316 -0.00048110096 0.031101516 0.025950609 -0.061255272 0.006764219 0.045229744
-0.09974751 -0.17237817 -0.028579094 -0.013509351 -0.019835182 -0.07256307 -0.09663694 -0.07090498
0.029686203 -0.012280922 -0.1225434 -0.017171767 0.07215241 0.01792216 -0.08969021 -0.0115292575
-0.07674955 -0.0053132614 0.03762982 0.00037496348 -0.02038578 0.055002924 -0.09120375 -0.040759686
0.10109029 0.17198397 0.05066527 -0.023488384 0.046560757 0.11177818 0.059570495 0.0895261
-0.052883077 0.1038557 0.055169996 0.06840538 -0.012330388 -0.013984699 0.18044694 0.041084055
0.00096835435 -0.006917277 0.13376278 0.08339316 0.055996098 -0.011404159 -0.0015919415 -0.006161978
0.028571535 -0.044941977 -0.13325213 -0.033020433 0.08835416 -0.07637813 0.03943595 -0.01632341
0.048813045 -0.025848813 0.035826232 0.059029296 -0.036747303 -0.076509684 0.06387172 0.13426705
0.031105222 -0.018252682 -0.07166395 0.021596929 -0.024088673 0.025030877 0.023844399 -0.02244104
-0.08969819 -0.08123279 -0.075722635 -0.04370526 -0.08431151 -0.09095386 0.06974308 -0.08310086
-0.06389042 -0.0962361 0.039846558 -0.095429346 -0.022734318 -0.04606889 0.06502153 0.03599632
0.016567811 -0.09054868 -0.08456837 -0.03020084 0.042178098 0.0042439476 0.05724493 0.00513081
-0.035752255 -0.04916139 0.067595325 0.09841363 0.057783164 0.03655711 -0.028952243 0.09471931

fc1.0.bias f4 [120]
00000000: a738 393d 5928 253e 2675 7b3d a2aa 9dbd
00000010: fb69 e83d 267c 93bc 447f 6b3c 519e 4bbb
00000020: 48ea 923d 8a0c ea3d 6d3f 093e 2a1c 38bd
00000030: 89cc 58bd 7a3a e7bd 53aa 9a3c bcee 03be
00000040: 5509 95bb b691 f73d 6d16 373e f641 cfbd
00000050: d358 7b3e a861 c8bc 00be cd3d 9f23 14be
00000060: 14fa 433c 3c66 4e3d 929e 373e 4db7 0dbe
00000070: 7811 43be be0f d73d c625 6bbc f302 29be
00000080: 9510 9dbc 5187 99bd dffd c63d e712 ddbd
00000090: 7571 44bd 2d62 373d ad84 943d fc73 453d
000000a0: bbd3 d63d 6a5e 2bbd f970 85bd da63 efbb
000000b0: c5aa ba3c 45a5 8d3c 0083 453e 522d 8cbc
000000c0: f573 163e 52ab eabd d393 a3bb 22ec 0fbd
000000d0: e869 a8bd a065 0d3d 1ee0 253d b9a5 79bd
000000e0: b72a b13d e46d 4bbe f1d1 713d 9fb6 05bd
000000f0: 9100 adbd 8fa2 7b3d ef73 c0bd e4ae d83c
00000100: 23e2 57bd aa39 7cbd a1b2 0dbe f3c7 0cbd
00000110: 1373 a03d c0eb 883d 5227 a4bc 62e0 37bd
00000120: 00c5 f73d d425 323e ff2d aabd 1f69 b13c
00000130: a33c 34be 6723 d9bc e59e adbd 3a5a 413d
00000140: 0e37 413e dd5e 193d 0404 d53d 9a90 423d
00000150: 6df5 adbc 52cc 31be d34e ee3d 3bc1 b9bc
00000160: 70c0 44bc e891 64be 3a69 9c3c 1856 96bd
00000170: 7aaa 983b 5906 003c dd73 a63d 1d27 ae3c
00000180: c5a8 133e 7b21 f03a 4d7d 04be 96e8 d0bd
00000190: 8343 863d ac1f 343c 657f 73bd b48a 49bc
000001a0: 09a1 ac3d c25b da3c 487c 0d3e 1272 ea3d
000001b0: 15e3 26bd c233 ac3c 5a6e 6d3d 202b 57bc
000001c0: c928 07bd 1c38 aa3c 9c2c f135 15e9 48be
000001d0: f822 c33d 354f 4bbd 39cb 35bd fb6a 383e
0.045220044 0.16128673 0.06139102 -0.07698561 0.11348339 -0.018003535 0.014373604 -0.0031069706
0.07173592 0.11428173 0.13403101 -0.044948734 -0.052929435 -0.112904504 0.018880045 -0.12884039
-0.0045482316 0.12088339 0.17879649 -0.10120003 0.24545603 -0.024460629 0.10046005 -0.14466713
0.011961479 0.050390467 0.17931584 -0.13839455 -0.19049633 0.105010495 -0.014352268 -0.16505031
-0.019172946 -0.07496513 0.09716391 -0.10794621 -0.047959764 0.044771362 0.072518684 0.048206314
0.10489603 -0.041838087 -0.065156884 -0.0073056044 0.022786507 0.01729072 0.19288254 -0.017111454
0.14692672 -0.11458458 -0.0049919873 -0.035137303 -0.08223325 0.034520745 0.040496938 -0.06094906
0.08650725 -0.19866139 0.059038106 -0.032644864 -0.08447374 0.061434325 -0.093971126 0.026450582
-0.052705895 -0.06157843 -0.13837673 -0.034370374 0.07834449 0.06685591 -0.02003828 -0.044891723
0.12098122 0.17397243 -0.08309554 0.021656571 -0.17601256 -0.026506139 -0.08477572 0.047205187
0.18868658 0.037443984 0.104011565 0.047501184 -0.021235192 -0.17363098 0.11636128 -0.022675147
-0.012008771 -0.22321284 0.019093145 -0.0734064 0.0046589943 0.007814013 0.08127568 0.021258885
0.14419849 0.0018320525 -0.12938423 -0.10200612 0.065558456 0.010993879 -0.059447665 -0.012301136
0.084291525 0.026655082 0.13816941 0.114475384 -0.040743906 0.021020774 0.057966568 -0.01313284
-0.03299788 0.020778708 1.7968882e-06 -0.19620164 0.09528154 -0.049636085 -0.04438326 0.1800956

fc2.0.weight f4 [84, 120]
00000000: b04c b63d c446 853d bd8c 1abe 5222 47bc
00000010: 692e b0bc ca20 0dbe 62e4 09be b8ab 763c
00000020: 0993 01be ced0 933d 1729 07be e74a b33d
00000030: 2f37 953c 72a9 0a3e c15f 78bd 7924 54bc
00000040: 9267 b8bd 62e5 153d 9c1b 04be 749f a33c
00000050: 185d a53d d167 46bd b498 983d 7eee 40bd
00000060: 7005 05be 3ecf 8abd 20e4 21bc 9b86 153d
00000070: 491d da3d a6ee 2e3d 2f0a f9bd ee29 753d
00000080: d66c f43d c2a8 2a3c 979d b23c 0ef9 1bbc
00000090: a65b 35bd b448 a0bd 255e 39bd 4ea7 42be
000000a0: 0f01 e3bc cef7 7fbd ba00 acbb f290 bc3d
000000b0: 76cb 00be e198 3fbd 16ae 04bd 7ee0 d2bd
000000c0: 7708 e83d e431 53bd 29c5 f6bc 3d39 8c3c
000000d0: c1c9 a83d 1b77 ee3d a433 0c3e d578 3abe
000000e0: cbba b0bc de63 6ebd 98d5 d43c 0afa 95bd
000000f0: 947a b73d 3899 83bc 8d47 e8bd 0ea7 543d
00000100: 77d6 0b3c 855e 27be 9434 bebc 1af0 903d
00000110: ad8a 7bbd 2be1 613b 9331 dbbd 548c 32bd
00000120: 5974 32bd 57f9 06bd 4aff cf3d a3f2 9abd
00000130: 7c71 95bc d465 c23d d78d 243d cc49 aebc
00000140: 9a28 943c 7683 843d 7bf2 3cbe f3fd 9cbd
00000150: 90ac 393e c7fd 203e 4452 113e 7ef7 20bd
00000160: 47f9 bfbb 3d18 813e 5d44 673d 1d00 50bd
00000170: c14e a93c e195 5cbe 2f06 b4bd 7c2f 293d
00000180: d9bf 3cbd 8e0c 3c3d fe14 cbbd e711 ad3d
00000190: 3fb6 c7bb d038 1c3d ca2a 763c f29a e93d
000001a0: 9d6f e6bd daff b73b de6e 263c 27c0 89bd
000001b0: 00b1 ab3d e5ee 3abd 1ea9 a13d 16c2 f33d
000001c0: 188c d33d d87f 30bd a8f6 223d 28e3 013e
000001d0: ca90 7bbd 05b4 05bd 5173 f5bd 2fad f3bd
000001e0: 5598 1f3e a593 803e 8cb5 1e3d 9ed9 df3d
000001f0: d2e5 743d cb25 e8bd 3dcb 10be 365f 75bc
00000200: 2ae2 83bd 8614 eabb 01f1 ed3b 87aa 113e
00000210: 9f59 203b 9a67 443e 266b 003c 965c 40bd
00000220: 881d 89bd 8faf 393c 0000 1c3e ca97 22be
00000230: 3e16 243d 0fca 2ebe 3a6c 653d 746a 3abd
00000240: 01c4 b33d 48d1 383b 95b2 623d b7ab 3cbe
00000250: 01d9 cebc ad51 973d 4887 e8bc ec43 1b3c
00000260: 9079 c5bc f2cf d53c 3e26 a43d 9a8d 623d
00000270: 0e64 2abe 60f6 a6bd b3f8 f63d 4ce8 273d
00000280: 22bf 4dbe 4404 2cbd 4fd1 bb3b dfcc 69bd
00000290: e614 343e 2573 bf3d b885 393d 9eb1 3ebd
000002a0: fcc3 083d 7d40 da3c 9525 d43c 629b 13bd
000002b0: 1c35 1cbd fa8d a2bc 20bf b93d c696 d2bd
000002c0: 6d67 b63b 35e9 393c 015e 193d 671c 5bbd
000002d0: 622a 9dbb 60ed 703d 54f6 3e39 c686 32bc
000002e0: cda0 1fbe 322d 983d 4301 0bbd e6ca 31be
000002f0: aa9c c83c ff1c 603d a992 dcbd 24b0 95bc
00000300: ffdc b7bd 2964 e33d abba 0a3d f3ba 52bd
00000310: a3d2 7abe 5f6a a63d 5835 43bd c3f3 90bc
00000320: 0e2b 563d 5978 7e3d c04b 1a3d cb0b 2b3c
00000330: e440 2fbd a073 f23d 8bb0 cabc c289 99bd
00000340: 9c19 563d e3eb 31bd 634e a5bd a0a0 153d
00000350: af1e 9bbc 6c23 cbbd e317 583d a857 453d
00000360: 0d50 d23d 1c0e 9e3a d017 ddbc c7d6 4b3d
00000370: 4a03 a93d 503b d23d 3745 8b3b 9ccc 933d
00000380: 1363 c1bd 767c 503d 079f 9fbd bfea 593d
00000390: af4c 47bd deaf 80bc 847a edbc e9a1 e9bc
000003a0: 8422 a9bd c186 17bd c2e0 5f3d b3c6 89bc
000003b0: 65fd f23d 7e90 e8bd 1c67 a13d 8b03 073d
000003c0: 388c 913c 9f87 203e 9c96 b7bd b537 dabc
000003d0: ef6b 623d f9ca 09be 4b95 a33d e160 a83d
000003e0: 1fb3 0e3e e540 ed3d 0846 b7bb f25e 843d
000003f0: cf42 12bd 1bb2 03be d2f3 0cbd 4271 92bb
0.08901346 0.06507638 -0.1509275 -0.012154179 -0.021506505 -0.1378204 -0.13466027 0.015055589
-0.12653746 0.07217561 -0.13199268 0.08754521 0.01821479 0.13541201 -0.060638193 -0.012948149
-0.090041295 0.03659571 -0.12901157 0.019973494 0.08074397 -0.04843885 0.07451001 -0.047102444
-0.12990355 -0.067778096 -0.009881049 0.036505323 0.10650117 0.04270806 -0.121601455 0.05985444
0.11934821 0.010416212 0.02180366 -0.0095198285 -0.044276856 -0.07826367 -0.0452558 -0.19009134
-0.027710466 -0.062492184 -0.00524911 0.092073336 -0.12577614 -0.046776656 -0.032392584 -0.10296725
0.113297395 -0.05156125 -0.03012331 0.017117137 0.082416065 0.11643811 0.13691574 -0.18210156
-0.021573445 -0.05820071 0.025980756 -0.07323082 0.08958927 -0.016064271 -0.11341772 0.05191713
0.008535019 -0.1634465 -0.02321843 0.07077046 -0.06141155 0.0034466486 -0.10702815 -0.04359086
-0.04356799 -0.032952633 0.101561144 -0.075658105 -0.01824259 0.094920784 0.04017433 -0.021275423
0.018085767 0.06470387 -0.18451874 -0.076656245 0.18132234 0.15721808 0.14191538 -0.039298527
-0.0058585736 0.25213805 0.05646168 -0.050781358 0.020667436 -0.2154155 -0.08790242 0.04130505
-0.046081398 0.04591041 -0.09916113 0.0845068 -0.0060947235 0.038140118 0.01502485 0.114065066
-0.11251757 0.0056152167 0.010158269 -0.06726103 0.083833694 -0.045637984 0.07893585 0.11902253
0.10329455 -0.04309067 0.03978601 0.1268431 -0.06141738 -0.032642383 -0.119848855 -0.118982665
0.15585454 0.25112644 0.038747355 0.10930179 0.059789486 -0.113353334 -0.14140029 -0.014976313
-0.06439622 -0.00714356 0.007261396 0.14225207 0.002446748 0.19180146 0.007838046 -0.046963297
-0.06695086 0.01133336 0.15234375 -0.15878215 0.040060274 -0.17069267 0.056011416 -0.045511678
0.08777619 0.0028200913 0.05534609 -0.18424879 -0.02524996 0.07388625 -0.02838482 0.009476643
-0.024105817 0.026100133 0.080151066 0.055310823 -0.1663973 -0.08152461 0.12059154 0.04099302
-0.20092443 -0.041996256 0.0057317386 -0.057080146 0.17586097 0.09348134 0.04529354 -0.046556108
0.03339003 0.026642079 0.025896827 -0.036036856 -0.038136587 -0.01984309 0.09069657 -0.10282664
0.0055665285 0.011347105 0.037443165 -0.053493883 -0.004796312 0.05882013 0.00018211576 -0.01089639
-0.15588684 0.07430495 -0.03393675 -0.17362556 0.024488766 0.054715153 -0.10770161 -0.018272467
-0.089776985 0.111030884 0.033869427 -0.05144782 -0.24494414 0.081257574 -0.047658294 -0.01769436
0.052287154 0.06212649 0.037669897 0.010439823 -0.042786494 0.1183846 -0.024742385 -0.07496978
0.052270517 -0.04343785 -0.08071592 0.036530137 -0.01893553 -0.099188656 0.052757155 0.0481793
0.10269175 0.0012058648 -0.026988894 0.049765375 0.082525805 0.10265219 0.0042501944 0.072167605
-0.09442725 0.050899945 -0.07794004 0.053202387 -0.048657116 -0.01570886 -0.028989084 -0.028519588
-0.082585365 -0.036993746 0.054657705 -0.01681838 0.118647374 -0.11355685 0.07880995 0.032962363
0.017767057 0.15676735 -0.08964273 -0.026637891 0.055278715 -0.13456334 0.0798746 0.08221603
0.13935517 0.11584643 -0.005593065 0.06463422 -0.035708245 -0.1286091 -0.034412213 -0.004469068

fc2.0.bias f4 [84]
00000000: 93b2 40bd cc76 a43c f01d b33d c014 0c3d
00000010: b69a be3b 86cb 013e bdaf 053c 1550 073b
00000020: eacc 8e3c 68c8 cbbd 8539 a0bd 1b41 153d
00000030: b974 8e3d 9d17 38bd 642e a3bc 1fba 7c3d
00000040: f1d5 98bc a116 abbd df44 abbc 4dd7 cb3d
00000050: 440f 583d 040a 26be 488e a7bc e24e 593c
00000060: 7f7e 003d e2bb 753d 5c2d 5dbe 4fc1 a83c
00000070: bc28 4dbd 32cd 41bd 8aa6 6fbd ea24 213e
00000080: 398a 5bbe 3959 a73c 6f5f 7bbd f799 c1bb
00000090: 7320 dcbc 2d92 743d 8b81 163e 2c61 fc3d
000000a0: 5ad9 f23d bb5b 22bc 6973 a23b 1dba febd
000000b0: 84bc d4bc e74f 373d 07e7 fe3d 4cd7 883d
000000c0: b252 66bd 17df debd 8661 693d 2c36 3abe
000000d0: 5cba 88bd e1d8 063e e838 9abb 9b72 d7bd
000000e0: bf10 5a3b a4d5 cdbd 31f0 0d3d c775 83bd
000000f0: 1358 e73c 9c01 f9bd ba70 453c 324f ebbb
00000100: efec 8a3d 632f ae3d 6c59 0abe 4dfa 45be
00000110: 2d09 b6bc 1c0d 0cbe dbdd c1bd dcc8 583d
00000120: 9f07 b5bd da9b dabd 93d1 f63d 288e 9ebd
00000130: 4b6b 953d 3a1d 4e3c fb50 f6bd e0b7 6bbd
00000140: d10b da3c 3ecb a4bc c02c b23d 3515 40bd
-0.0470453 0.020076178 0.087459445 0.034199476 0.005816783 0.12675294 0.008159575 0.0020647098
0.017431695 -0.09950334 -0.07823471 0.036439043 0.06955857 -0.044944394 -0.019919582 0.061700936
-0.018656703 -0.083539255 -0.020906864 0.09953175 0.052748933 -0.16214758 -0.020453587 0.013263436
0.031370636 0.059993632 -0.21599334 0.02059999 -0.050087675 -0.04731483 -0.058508433 0.15736738
-0.21439447 0.020428287 -0.06137031 -0.0059082466 -0.026870942 0.059709717 0.14697854 0.123232216
0.11857863 -0.009909566 0.0049576056 -0.12437842 -0.025968798 0.044753935 0.12446409 0.066816896
-0.05623121 -0.10882395 0.05697777 -0.18184727 -0.0667617 0.1316867 -0.004706491 -0.10519906
0.0033274142 -0.10050514 0.034652893 -0.064189486 0.02824024 -0.1215851 0.012050802 -0.0071810717
0.06783473 0.08505132 -0.13510674 -0.19333763 -0.022221172 -0.13676876 -0.09466144 0.05292593
-0.08839344 -0.106742576 0.12051692 -0.07741958 0.07295855 0.01258021 -0.120271645 -0.057548404
0.026616963 -0.020116445 0.08699942 -0.046895225

fc3.0.weight f4 [10, 84]
00000000: 1cd0 193e f1a7 82be 4fcf d1bd 47da 453d
00000010: 66d3 dcbd 11aa aa3d ed27 05be 6aad 243e
00000020: 974b f73d a24c 553e 2a16 003e f7f9 18be
00000030: 0f5c 9f3e 1a85 933e 19cb de3d 21c2 443d
00000040: 71c2 d0bd 13d1 74be 204b 90bd c39e 4cbe
00000050: 079d fa3d 3cbd 423e 26b6 273e 53dd 2dbe
00000060: 17d7 ad3e 4fb8 d7bd 12d8 2a3e ffdf 3dbe
00000070: 7015 063e 1a6a 2ebe d539 4ebe 7d99 5bbd
00000080: d6c8 913e e1bc ddbd 3a78 383e 5244 3dbe
00000090: 4a94 cd3d 21b1 cabd b789 073c 9d3c afbd
000000a0: 5a63 113e ae40 01be 553b dc3d 81fd 243e
000000b0: f730 2abe fb01 293e 84e7 6dbe c5c6 2bbe
000000c0: e04a 81be f229 a23d c7bb 873e 09ca db3d
000000d0: f9d6 b13d fa6c 853d 0e2a 01be ec8b 82bd
000000e0: f7dc 9d3c 187d 0b3e 4d56 3fbe 8093 183e
000000f0: 8240 f13c 5043 bb3b 7030 f6bd 9082 133d
00000100: 1c74 b4ba 1ab4 fabd fd41 5abd ccb1 7c3e
00000110: 0def 1f3e 4fec 943e 48ba 263e 2b01 47be
00000120: ccc0 c73d bb33 563e 31b0 15be 1a46 4dbe
00000130: 0e73 373e 0c8b 85bd 1dc8 e43d a8cc 943c
00000140: 83e6 263e 76b6 4b3e 2cda 61be 099c 8f3e
00000150: 23f0 11be d9de 353d ffc2 4c3e 5f45 d0bd
00000160: df5a 293e 34b5 e0bd 4b86 6dbe 61f5 38be
00000170: a040 b8bd 79b1 41be 65ab 48be 740c 073e
00000180: 6acc 873e 4706 653e 5120 883e b32e 7e3e
00000190: 5b8a 793e cd12 34be 61be 813e 9cbd 593e
000001a0: 2e6d 5c3d fdbc 44be 03b6 ba3d be87 4dbe
000001b0: 1fa0 3e3e 54d8 03be b4d7 25be c936 4a3e
000001c0: ccf0 36be d554 aebd bff2 083e e136 f03c
000001d0: 7163 6f3e 9612 283e 42c9 48be 3500 2a3e
000001e0: 5399 8abe 7bc6 5b3e d5dc bfbb 73ea 0b3e
000001f0: c61d 09be d756 89bd 2001 f1bb ce81 76bd
00000200: 88ec 963d b925 343e 31c6 5a3e 04c3 c0bd
00000210: e59b 1bbe 4b2e f13d 0493 1d3e 6ad4 24be
00000220: 8025 9ebe d7f8 033e 5582 563e 72fa 56be
00000230: 9796 173e 15c9 47bc 55e7 663c f191 1b3e
00000240: b4c3 ea3d e656 0b3e df23 b33d 1a7f 3ebe
00000250: 357c 053b 0704 abbc 10ea 5a3e bf47 a7bd
00000260: 059c 8fbe 170b 0b3e 4817 f9bd 25ac 683e
00000270: 5c48 77be c289 10be fa72 503e 96d1 29be
00000280: 1208 23be 28c3 373e 2a43 e5bd 54a9 60be
00000290: 6595 43be b916 723d 4804 11be e229 f2bd
000002a0: 9c8c 03be fc45 183d b50e cbbd eda1 8abc
000002b0: ae7d 36be 098a 083e 3a4d 9e3d 6b61 4cbe
000002c0: 142b 8a3c 1309 b8bd a649 48be aafc 39be
000002d0: b9e0 76bd 5226 2abe f8d9 f4bd 8dc7 293e
000002e0: ae83 063e 67ab 0cbe b677 eebd 4ed0 0b3e
000002f0: e08a 01be 47ea 383e 629e dfbd 5688 7f3d
00000300: 10fc 753e 5f17 18be edc3 eebd 16ad 47be
00000310: 0edd 36be 4d96 9a3c 1507 843d c287 393e
00000320: 8a28 113e aef7 adbd e1d6 55be b7da 7b3d
00000330: 8bfb 313e 3d6f 243e 9eb6 d63d 6e92 223b
00000340: fc78 813e d98b 4bbe c387 58be f482 353e
00000350: 7cb3 463e c504 083e c613 313d 3de6 603e
00000360: 9661 34be dd2d 23be dc14 9cbc 8063 48be
00000370: beaf c5bd f520 dc3d 9d62 54be bad8 083e
00000380: 9ec2 22be f3c2 a93d 3a49 523e 71bb 4b3c
00000390: 0d69 193e 55de d4bd d00b b3bd 1629 7c3d
000003a0: 6f3a 593e 4abd 28be e6ec 73bd c722 dcbd
000003b0: 5ad4 103e 8ca1 4cbe 37a0 73be e064 593d
000003c0: 4ad4 b23d 07f6 14be 690b 70be e3b4 c7bd
000003d0: c178 e53d d027 1a3e 3b59 9c3d 5261 6c3e
000003e0: caa7 bbbd 7a41 5e3e 0d4f 0abe a781 46be
000003f0: 3d19 0ebe f01a b0bd da1b f2bd 922b 413e
0.15020794 -0.25518754 -0.10244619 0.04830387 -0.107825086 0.08333219 -0.13003512 0.16081777
0.120749645 0.20830014 0.12508455 -0.14939104 0.31124923 0.28812486 0.108785816 0.0480367
-0.10193337 -0.2390788 -0.07045579 -0.19982438 0.12236982 0.190175 0.16378078 -0.1697896
0.33953163 -0.10533201 0.16683987 -0.18542479 0.13094115 -0.17032662 -0.20139249 -0.053613175
0.28473538 -0.108270414 0.18014613 -0.18483093 0.100380495 -0.09897066 0.00827258 -0.08556483
0.14198056 -0.1262233 0.10753504 0.16112329 -0.16620241 0.16504662 -0.23232847 -0.16775043
-0.25252438 0.07918157 0.2651045 0.107318945 0.08683581 0.06514926 -0.12613699 -0.06374344
0.019270403 0.13621938 -0.18685265 0.14900017 0.029449705 0.0057148114 -0.120209575 0.036013186
-0.0013767513 -0.12241383 -0.053285588 0.24677199 0.15618534 0.2908654 0.16281998 -0.1943404
0.0975357 0.20918171 -0.14617993 -0.20046273 0.17914984 -0.06520662 0.11170981 0.018163994
0.1629887 0.19893822 -0.22055882 0.28048733 -0.14251761 0.044401977 0.1999626 -0.101694815
0.16538571 -0.10972062 -0.2319576 -0.18062355 -0.08996701 -0.18915357 -0.19596632 0.13188344
0.26523143 0.22365676 0.26587155 0.24822502 0.24369185 -0.17585297 0.2534056 0.21263736
0.05381506 -0.19212718 0.09116747 -0.20071313 0.18615769 -0.12875491 -0.16195565 0.19747461
-0.17865294 -0.08512274 0.1337385 0.029323043 0.23377778 0.1641334 -0.19608024 0.16601641
-0.27070102 0.21462433 -0.0058551827 0.13663654 -0.13390264 -0.067060165 -0.0073548704 -0.060182385
0.073693335 0.17592515 0.21364667 -0.09412196 -0.15196188 0.11776408 0.15388113 -0.16096655
-0.30887985 0.12887894 0.20948155 -0.20993975 0.14803539 -0.012193938 0.01409324 0.15192391
0.11463109 0.13607368 0.08747076 -0.18603173 0.0020368223 -0.020875944 0.2137835 -0.08167981
-0.2804872 0.13578449 -0.12162644 0.22721918 -0.24148697 -0.1411505 0.2035636 -0.16583857
-0.15921047 0.1794554 -0.11194451 -0.21939594 -0.19099958 0.0591037 -0.1416179 -0.11824395
-0.12846607 0.037176117 -0.099149145 -0.016922915 -0.1782138 0.13333906 0.077295735 -0.19959037
0.016866244 -0.08986106 -0.19559345 -0.1816279 -0.060272906 -0.1661618 -0.11955637 0.16580029
0.1313617 -0.1373726 -0.11643927 0.1365368 -0.12650633 0.1805812 -0.10918881 0.06238588
0.24021935 -0.14852665 -0.116584636 -0.19499621 -0.17857763 0.018870497 0.06446663 0.18118194
0.1417562 -0.08494507 -0.20882751 0.06148788 0.17381112 0.16058059 0.1048405 0.0024806517
0.25287616 -0.19877566 -0.21145539 0.17725736 0.19404405 0.1328307 0.043231748 0.21962829
-0.17615351 -0.15935464 -0.019052915 -0.19569206 -0.09652661 0.107484736 -0.20740743 0.13363925
-0.15894553 0.08289137 0.20535746 0.012434826 0.1498148 -0.10393969 -0.087424874 0.06156262
0.21213697 -0.16478458 -0.059552096 -0.10748821 0.14143506 -0.199835 -0.23791586 0.053074718
0.08731897 -0.14546977 -0.23441853 -0.09751298 0.112046726 0.1505425 0.07634207 0.23084
-0.091628626 0.21704665 -0.13506718 -0.19385396 -0.13876815 -0.08598888 -0.118217185 0.18864277

fc3.0.bias f4 [10]
00000000: 9193 43be 827a 743c e402 573e 811a 91bc
00000010: ced8 493d ffcf a83d dc0b 57be ea6d 483e
00000020: e503 2cbc 9b3b 713d
-0.19099261 0.014921786 0.20997196 -0.017712833 0.049279027 0.08242797 -0.21000618 0.19573179
-0.010498975 0.058894735
