save_checkpoints/LeNet5_epoch_87.pth (torch, 249863 bytes, 10 tensors)

conv1.0.weight f4 [6, 1, 5, 5]
000000 05 2b 62 bc 58 8f d8 bb 76 31 1a bd 36 9f 61 bb
       -0.013804202 -0.006608885 -0.037644826 -0.0034427173
000010 fd 17 13 bd b3 b3 7a 3d ef 22 07 be 83 d7 93 bc
       -0.03591155 0.06120653 -0.1319692 -0.0180471
000020 e5 94 98 3d db 47 22 be 72 a3 15 3e 6e 63 b7 bd
       0.074502744 -0.15847723 0.1461313 -0.089545116
000030 11 8d c5 bd 33 34 03 be ae 02 93 3e f0 f8 b2 3e
       -0.09646047 -0.12812881 0.28712982 0.3495555
000040 af 7c 8d 3e be 4a fd 3e a1 2a 20 3e 65 ed 26 bb
       0.2763419 0.49471086 0.15641262 -0.0025471088
000050 ff d2 9a be a9 8b c8 bd 99 99 a1 be e5 9d a4 bd
       -0.30239102 -0.09792263 -0.31562498 -0.080379285
000060 23 a7 4d bd 5e 0c a3 bd c4 e6 21 bd 4a 18 22 bd
       -0.050208222 -0.07961343 -0.039526716 -0.039573945
000070 90 39 9a bd 99 fe 4e 3e 06 10 d5 bc 78 9d 69 bd
       -0.075305104 0.20214309 -0.026008617 -0.05703494
000080 48 03 22 3e 73 b8 ce 3e 14 e3 d4 3d df 04 c4 3c
       0.15821564 0.403751 0.10394874 0.023928104
000090 35 13 29 3e b4 6a 00 3e 6f 2d 6f 3d 5e 43 a1 3c
       0.16511233 0.12540704 0.05839294 0.019685443
0000a0 f0 0e d3 be fc 94 99 3d 0d 9c 81 3e 15 fb 85 bc
       -0.41222334 0.0749912 0.2531437 -0.016355077
0000b0 07 75 98 be 0e 67 a5 be 51 91 07 3e c2 18 0c be
       -0.29776785 -0.32305187 0.13239028 -0.1368132
0000c0 76 ab c2 3d b9 11 fb bd f4 2b 5a bd c5 ae 96 3c
       0.0950536 -0.1225924 -0.053264573 0.018393883
0000d0 d8 68 28 3e ae 18 4b 3d 62 83 cd bc 67 01 7c 3d
       0.16446245 0.049584083 -0.025087062 0.061524775
0000e0 4e 03 b3 bb d7 50 8e 3b 9c 32 56 3d 1f 57 c8 3d
       -0.0054630404 0.004343133 0.05229436 0.09782242
0000f0 89 fc 48 3e d2 83 8f 3e e3 3d ee bc 5d be b0 3d
       0.19627585 0.28030258 -0.029082244 0.08630059
000100 1c 5d 82 bd ae 8c 2a be fe 65 d1 be 31 14 31 be
       -0.063654155 -0.16655228 -0.40898126 -0.17292859
000110 e0 6d 70 be 6a 55 63 3e f8 a1 02 bf 6f 33 ed bd
       -0.23479414 0.22200552 -0.51028395 -0.11582076
000120 10 ec 06 be 36 67 1d be 71 95 ac be 68 75 2f bd
       -0.13175988 -0.15371403 -0.33707765 -0.042836577
000130 4d eb 61 3d 32 f5 2b be 91 ef 85 bb 7e 57 ad be
       0.05515604 -0.16792753 -0.0040873964 -0.33855814
000140 c6 aa 4e bd 34 31 c0 bd 23 e8 b1 bd f8 70 b4 bd
       -0.05045583 -0.09384385 -0.08686855 -0.088106096
000150 65 4c 87 be 96 29 98 bd b2 41 f0 bd b2 7b 63 be
       -0.26425472 -0.07429807 -0.117312804 -0.22215155
000160 06 fd 8d 3d 9d 96 80 be 93 e1 fd 3d 89 8a bf 3d
       0.06933026 -0.2511491 0.123965405 0.09352595
000170 b6 f4 61 3e 48 35 d2 bd 7c 59 ab 3e a2 c3 7d 3d
       0.22066006 -0.10264069 0.3346671 0.061954148
000180 4e e2 58 3e 6a 0c 60 3e f4 6b 6c 3c 42 3c f9 bc
       0.21180078 0.21879736 0.014430035 -0.030424241
000190 88 78 8f bb a0 85 ab 3d 04 59 65 3d 05 a0 42 3e
       -0.004378382 0.08375096 0.055993095 0.19006355
0001a0 22 d1 8d be 29 55 da bc 37 97 27 3e e4 1c 66 3e
       -0.27698618 -0.026651936 0.16366278 0.22471958
0001b0 de 95 9b 3d 05 bb db 3d 8b 76 75 be d0 86 bf 3e
       0.07596944 0.107290305 -0.23971002 0.3740754
0001c0 f5 c9 10 3e 59 53 0a be 9a c8 b9 3d 6f c5 ce 3c
       0.1413954 -0.13508357 0.09071465 0.025240628
0001d0 bf bd 8d 3e aa 21 74 bd b9 2b e8 bd 80 6f 49 bd
       0.27683827 -0.059602417 -0.113364644 -0.0491786
0001e0 5a 44 0b 3d e6 da bb bc 4f 69 29 3d 7f d8 07 be
       0.034000732 -0.022931527 0.041360196 -0.1326618
0001f0 2f 2b a6 be 90 41 e7 3d be 85 15 3e 1e 6b 58 bd
       -0.3245482 0.11291802 0.146018 -0.05283653
000200 e2 a5 e4 3d 81 fd f5 bb 87 09 2d bd b2 ab 29 bd
       0.11164452 -0.0075070267 -0.042245414 -0.041423507
000210 bb 43 2e 3e f1 10 5f 3d 6d 6a 16 bb 4d 23 44 3d
       0.17018025 0.054459516 -0.0022951618 0.047885228
000220 90 53 bb 3d 89 8f c2 bc cc d0 95 bd 75 fb 3d be
       0.09146798 -0.023750084 -0.073152155 -0.18552954
000230 40 dd e0 3c 13 67 ec bd 20 3f 78 bd ae a4 ed be
       0.02744925 -0.11543097 -0.060607076 -0.46414703
000240 85 8d 4d be 94 ef 8f bd d7 0b 8b bd be e6 cc be
       -0.20073517 -0.07028118 -0.06789368 -0.40019792
000250 c6 5e fa bd b0 46 70 3e
       -0.12225108 0.23464465

conv1.0.bias f4 [6]
000000 eb c7 dd bc 55 81 f5 bd 00 03 a3 b9 8f 0c 26 bd
       -0.027072867 -0.11987559 -0.00031092018 -0.04053932
000010 7a 0d ae be ea 95 71 be
       -0.33994657 -0.23592344

conv2.0.weight f4 [16, 6, 5, 5]
000000 87 f7 de 3d f4 c3 91 3b b3 49 0b 3c ea d5 a2 bd
       0.10887056 0.0044484083 0.008501458 -0.07950957
000010 df 2e fe bd 95 81 95 3b 6e f0 88 3d a8 5e 90 3d
       -0.12411284 0.0045625665 0.06686483 0.07049304
000020 3f 7c 84 bd fd 18 09 be 9a 97 0a be 08 d8 be bd
       -0.064690106 -0.13388439 -0.13534394 -0.093185484
000030 a1 d2 81 bd f6 f9 4d bd 3d 85 93 bd 52 0a d4 bc
       -0.063390024 -0.05028721 -0.072031476 -0.025883827
000040 21 c1 07 be 2a e7 80 bd 45 1f f1 bc 15 e2 03 be
       -0.13257267 -0.06294091 -0.029433856 -0.12879212
000050 dd 73 20 3d 7b 28 7e bd f8 b8 f3 bc 73 34 4b bd
       0.039172996 -0.062050324 -0.029751286 -0.049610566
000060 69 5c 9d bd 15 2d 90 bd 84 db 29 be b4 c0 38 be
       -0.076836415 -0.07039849 -0.16587645 -0.1804226
000070 d2 a5 b1 bd 1a 94 58 bd 8f c8 86 3d 0c b7 12 3d
       -0.08674206 -0.052875616 0.06581222 0.0358191
000080 a8 08 7d bc 3b e9 3e bd 15 9b 1d bd b0 c8 90 3d
       -0.015443958 -0.046609145 -0.038477976 0.07069528
000090 72 5b 12 3e 87 06 e1 3d 6a 5c e6 3c b0 6f 96 bd
       0.14292696 0.10987573 0.028120238 -0.073455215
0000a0 a0 e2 b7 bd 77 91 22 3d ae e4 2c bc 38 b0 a9 3c
       -0.08978772 0.039689507 -0.010552568 0.02071391
0000b0 a1 48 b7 3a a5 86 5f bd 86 32 6e bc 4a 8e a0 3c
       0.0013983437 -0.054571766 -0.014538413 0.019599099
0000c0 6b 2b ab bc 95 e7 9d 3c 1c d2 b6 3c f2 d2 c8 bd
       -0.020894727 0.019275466 0.022316985 -0.098058596
0000d0 cb b0 f1 bd 59 a4 82 bd 79 94 b6 3d 28 9a 8c 3d
       -0.11801299 -0.06379003 0.08915038 0.068653405
0000e0 cf 5d 07 bc d1 8f 40 be cf b4 5f be eb d4 5f bd
       -0.008262112 -0.18804862 -0.21846317 -0.054646414
0000f0 10 f7 c2 3d 8b a3 3b 3e f7 9c 87 3d 6d a1 cc bd
       0.0951978 0.18324105 0.066217355 -0.09991727
000100 d8 1a 65 bd 8b ce 1d be 81 d0 59 bd da 3d d0 3c
       -0.055933803 -0.15410821 -0.05317736 0.025420118
000110 62 8c 70 3d fc 55 53 3d 67 75 11 bc 03 d4 15 bd
       0.05872763 0.051595673 -0.008878089 -0.036579143
000120 55 74 d9 3a a2 21 71 3d 93 37 4f 3d 0c f6 62 3a
       0.0016590456 0.058869965 0.05059011 0.00086578797
000130 37 c1 ae 3d 2e 09 c5 3d f7 9c 7c 3c 1c 39 88 bd
       0.085329466 0.096208915 0.015418283 -0.06651518
000140 e2 62 19 be b3 5c 69 bd 5a 0c 4a 3d 9a 1b 3f 3e
       -0.14979127 -0.05697317 0.049328186 0.18662873
000150 60 9f e4 3d 55 cb f5 bd ca d8 2b be dd ba c1 bd
       0.11163211 -0.12001673 -0.16781917 -0.094594695
000160 55 f8 47 3c d8 f0 a4 3b d0 8e a4 3c a4 40 78 bd
       0.012205203 0.0050335936 0.02008763 -0.06060852
000170 ad a7 6c bd b5 38 df bc 46 04 03 bd 49 e5 b4 3d
       -0.057777096 -0.02724872 -0.031986497 0.08832795
000180 a2 a3 72 bc 04 13 0e be 61 ce dd bd 0e 4f e5 bc
       -0.014809521 -0.13874441 -0.10830379 -0.027991798
000190 a4 c0 31 bb 6e 04 10 3d 07 de 8b bc b4 94 cc 3b
       -0.002712288 0.035160474 -0.017073644 0.0062433127
0001a0 b4 1f d5 bc 6c f7 b2 3c 78 35 83 3d db db 85 3d
       -0.026016094 0.021846496 0.06406683 0.06536075
0001b0 52 94 bb 3d 09 4f 96 bd b4 0e f1 3c 84 8d c5 3c
       0.09159149 -0.073392935 0.029425956 0.024115331
0001c0 6d 06 31 3d 8a ee b2 3d 62 c3 6b 3b 0e 51 94 bd
       0.04321902 0.08736904 0.0035974612 -0.072420225
0001d0 7a 05 9a bd c1 0f db bd 2b 7a a8 bd 46 fd a7 bc
       -0.07520576 -0.10696364 -0.08226427 -0.020506512
0001e0 89 53 5b bc 6e 34 01 be 0f d9 ae bd 54 9b 0a be
       -0.013386616 -0.12617657 -0.085374944 -0.13535815
0001f0 ae 5a c8 bd 89 fe 19 be ce b9 0b be 54 37 16 be
       -0.09782921 -0.15038504 -0.13645098 -0.14669544
000200 eb 73 3f bd 88 b9 88 3d 03 22 e3 bd 97 1c a0 be
       -0.046741407 0.06676012 -0.110904716 -0.31271812
000210 c6 5d c6 be 0a 02 8a be 74 18 f8 bd ff 98 9f 3d
       -0.38743418 -0.2695468 -0.12114039 0.077928536
000220 9a da 3c bc 99 ab d3 bd 8d 85 59 be fa fb 22 be
       -0.011526728 -0.10335464 -0.21242352 -0.15916434
000230 7b b5 50 3d 97 f1 40 3d 33 72 ff 3c fa 3d 23 bc
       0.050954323 0.047105398 0.031182384 -0.009963507
000240 f5 45 cb bb 25 92 e2 3c f5 de 58 3d 86 ff a7 3d
       -0.006203408 0.027657578 0.052947003 0.08203034
000250 06 be e3 3c 13 26 84 bb 96 93 d3 bd 40 e7 58 bd
       0.027800571 -0.004032859 -0.10330884 -0.052954912
000260 82 98 27 be f2 be 6c bd 0e c2 36 be 16 a6 bb 3c
       -0.16366771 -0.057799287 -0.17847463 0.022906344
000270 0e 3b ba bc a5 b3 b1 bd 67 c4 b3 be ea 9b 9b be
       -0.022733238 -0.086768426 -0.3511078 -0.3039239
000280 50 af df 3c 2b a4 b3 3b 4e ed 0e be be 36 d1 bd
       0.027305275 0.005482217 -0.13957712 -0.10215519
000290 69 39 d2 bd 47 42 9a bc 11 05 71 3d 61 f0 ca 3c
       -0.10264856 -0.018830432 0.058842722 0.024772825
0002a0 5a 83 db bd ef a0 bb 3b 6b f2 84 bb 74 06 24 bd
       -0.10718413 0.005725972 -0.004057219 -0.040045217
0002b0 10 b8 eb bd b8 e5 08 bd df ff be bd 54 4d b8 bd
       -0.115097165 -0.033422202 -0.09326147 -0.08999124
0002c0 d5 82 bc bd f4 25 d6 bd 18 c6 25 be 8e fa 19 be
       -0.09204642 -0.10456458 -0.16188848 -0.15036985
0002d0 1d 44 9e bd 72 c4 1d 3e 3a 09 13 3e 04 c8 36 bd
       -0.07727835 0.15406969 0.14358988 -0.044624344
0002e0 03 74 df bc 2e 00 cc bb 6b 8a ab bd cd 9b 17 be
       -0.027276998 -0.0062256074 -0.083760105 -0.14805527
0002f0 c4 6e a3 bd ba 55 87 bc 1b d1 68 bd 86 db ff bc
       -0.07980111 -0.01652037 -0.056840044 -0.031232607
000300 e2 fb df 3d 32 5b 11 3e dd 00 f6 3d 35 fa 25 3e
       0.10936715 0.14194945 0.120118834 0.16208728
000310 d5 26 b5 3d 38 72 90 3d d9 d7 cf 3d a2 98 15 bc
       0.08845297 0.070530355 0.101485915 -0.009130629
000320 4a c8 06 bc 46 1e 74 bd a6 7e b6 bd 77 67 d9 3d
       -0.008226464 -0.059599183 -0.08910875 0.106154375
000330 bb ea 2a 3d 99 29 27 3e 9c 46 95 bd bc a1 ed bd
       0.041727763 0.16324462 -0.07288858 -0.11603114
000340 80 bb 29 3d 68 12 a0 3d 00 d3 46 3c 03 0e af 3d
       0.04143858 0.07816011 0.012135267 0.085475944
000350 99 f5 06 be 63 23 86 be ce 4f 5b be ab 89 55 be
       -0.13179626 -0.26198873 -0.21417162 -0.20853297
000360 8e 63 46 3c c4 7f 8f bd 2a 88 21 bd 21 cb a4 3d
       0.012108697 -0.07006791 -0.039436497 0.08046556
000370 92 fa 97 3d 6d 0b bb 3b bb 60 b5 3d 56 8e b4 bc
       0.07420839 0.005708149 0.088563405 -0.022040527
000380 fe 46 c1 bc 19 1a 60 bc 9c 28 94 3d 11 c0 85 3d
       -0.023593422 -0.013678097 0.07234308 0.065307744
000390 c2 50 79 bd 26 ee 70 3d 7c 61 a5 bd 2e 9c fc 3d
       -0.060868032 0.058820866 -0.08075234 0.123344764
0003a0 a2 57 1f 3d 77 8c 6b 3d a0 cf ce 3d 8b b6 d5 3a
       0.038901933 0.057507005 0.10098195 0.0016305012
0003b0 4b c1 16 3e 8f f6 79 3e a5 59 3a 3e 8b ed 81 3e
       0.14722173 0.24410461 0.18198259 0.25376543
0003c0 4c 9b 00 3e ac 1e e3 3c 51 27 c7 3d 27 3c a5 3d
       0.12559241 0.027724586 0.09724296 0.08068114
0003d0 45 97 0b bd df 7d 8d bd c9 ac d4 bd 46 cb 3c be
       -0.03407981 -0.06908774 -0.10384519 -0.18436918
0003e0 f3 0d c4 bd 4e df 0b bd 20 97 ea 3b 01 09 12 be
       -0.09572973 -0.034148507 0.007159129 -0.14261247
0003f0 97 98 04 bd 9c 4b 88 bb 5e 13 f2 bd 1d 7b 9a 3d
       -0.032372084 -0.004159404 -0.118201 0.07543013

conv2.0.bias f4 [16]
000000 ca 67 5d bf bf da 4a bf 14 d7 7c bf 55 6a 25 bf
       -0.86486495 -0.7924003 -0.98765683 -0.64615375
000010 d1 5f 9e bf 76 0a 5d bf 85 ff c0 bf ec a7 68 bf
       -1.2372991 -0.8634409 -1.5077978 -0.9088123
000020 ab 00 45 bf 05 b6 19 bf 5a 30 84 bf e2 39 c5 be
       -0.76954144 -0.60043365 -1.0327256 -0.38520724
000030 33 49 c0 be cc 4a 15 bf 42 1e 07 bf 2f 14 6b bf
       -0.37555847 -0.58317256 -0.52780545 -0.9182767

fc1.0.weight f4 [120, 400]
000000 1f 6c 1d bc 7f 5d bf bd bc 62 50 3e da 5e 78 3d
       -0.009608298 -0.09344005 0.20350164 0.060637332
000010 41 51 96 3d 60 12 fd bd 69 67 6e 3d 09 c5 10 3e
       0.07339717 -0.123570204 0.05820409 0.14137663
000020 51 48 53 3e 3f 00 0b 3e 22 1c 3c 3c 7b f1 9e 3c
       0.20633055 0.13574313 0.011481317 0.019402256
000030 e1 69 c9 3d ee 20 5d 3b a6 5f e1 bd 6e 6a 10 3d
       0.09834648 0.0033741551 -0.110045716 0.03525775
000040 45 5e 17 3d 44 8b f6 bc 21 ac 1e 3d 63 6f c6 bd
       0.036955137 -0.030095704 0.038738374 -0.09689214
000050 c4 4b 84 3c d9 5c aa 3b ee 70 32 be 22 3d 54 3d
       0.01614941 0.0051990566 -0.17425892 0.051816113
000060 d5 02 4f 3e 47 d2 90 bd 6c 2b d5 bc 47 2a e6 3b
       0.20215924 -0.07071357 -0.026021682 0.007024083
000070 3c 7e 5d 3d 11 1f 26 3c 6b df 2c 3e de 20 45 3d
       0.054075465 0.010139243 0.16882102 0.048127048
000080 29 63 82 3d 80 c2 f8 3d 14 8d b4 3d 15 df 73 bb
       0.063665695 0.12146473 0.08815971 -0.0037211825
000090 e6 94 94 3d 52 8c 97 3d 84 6b 70 bd 42 2d dd bd
       0.072549626 0.07399811 -0.058696285 -0.10799648
0000a0 8d e5 06 3e e8 52 9e 3c de 1c 6a 3d 5e 25 ee 3c
       0.13173504 0.019326642 0.057156436 0.029070552
0000b0 d3 75 97 3e b2 57 2e 3e 5d 4f 9d bd 64 70 e4 bd
       0.2958208 0.1702564 -0.07681153 -0.11154249
0000c0 f5 ce a4 bd dc b9 55 3e 09 eb 41 3e e2 4d 2f 3e
       -0.080472864 0.20871681 0.18937315 0.17119554
0000d0 bd 48 50 3d ad 84 ea 3d c7 ff 89 bd 2d 9a 4c 3e
       0.05085062 0.11451087 -0.06738239 0.19980688
0000e0 d3 15 96 3d 1d 31 ff bd 0d e9 33 be f5 32 5f 3e
       0.073283814 -0.124605395 -0.1756937 0.21796782
0000f0 46 eb bc 3e 7e 3a 1c 3e 62 96 ec bd 84 96 a6 3c
       0.3689825 0.15256688 -0.11552121 0.020335443
000100 d8 ee 4a 3e 26 8b 82 3e 30 52 20 3e 25 d4 27 bd
       0.19817674 0.25496787 0.15656352 -0.0409738
000110 7c 6d 0f be a4 d1 6f be 9b 01 8a bc fa 82 c8 3d
       -0.14006609 -0.23419815 -0.016846469 0.09790607
000120 75 ad 82 3d 9a 77 9d bc 9a 33 d3 bd e0 4e 2b 3e
       0.063807406 -0.01922207 -0.103125766 0.16729307
000130 f1 6b 1d 3e 90 33 88 3e 7d b9 d0 3e 2b 56 ef 3d
       0.15373208 0.2660184 0.40766516 0.11686357
000140 e6 70 81 3e 79 0a 6a 3e 9a b4 ac bc 86 70 7e bd
       0.25281447 0.22855558 -0.021082211 -0.06211903
000150 e9 91 af 3d ae 8f cc 3e d7 e0 43 3e fc e3 d0 3c
       0.08572752 0.3995337 0.19128738 0.025499336
000160 99 e5 38 be f6 8a ee 3c 3f fe d1 bc de e4 52 3d
       -0.18056335 0.029118996 -0.02563393 0.051487796
000170 53 66 a3 3d 95 cb b2 bd 15 e8 c3 3c 8e 93 dc 3d
       0.07978501 -0.087302364 0.023914376 0.10770331
000180 90 f1 8d bc 99 c2 ea bb e6 01 a0 ba 89 46 fa bc
       -0.0173271 -0.007164311 -0.0012207597 -0.030551212
000190 00 c2 a8 3d 8d c3 02 3e a3 f0 31 3e 23 da 98 3e
       0.082401276 0.12769909 0.17376952 0.29853925
0001a0 7b 65 0c be a1 e7 b0 3d f9 5e 5c 3e 3c 4e b1 3d
       -0.13710587 0.0863793 0.21520604 0.086575
0001b0 dc 13 b2 3c 3e a1 c2 3d cf ab c0 3c 39 a9 6b bd
       0.021737985 0.09503411 0.023519425 -0.05753443
0001c0 a3 d9 f2 3d aa a1 84 bc 93 57 df bd a9 13 55 bc
       0.11857917 -0.016190369 -0.10905375 -0.013005176
0001d0 f9 c2 59 3e 61 0b 11 3e 61 31 20 bd e7 77 ca bd
       0.21265782 0.14164497 -0.03910959 -0.09886151
0001e0 5b 45 bc bd 8e 7f f9 3d d5 47 f9 3d ae bf e3 3d
       -0.09192916 0.12182532 0.12171904 0.111205444
0001f0 ff f3 c1 3d ba 01 52 3d 5e 6d 57 3b 6d 5e 36 be
       0.09470367 0.051271178 0.0032871584 -0.17809458
000200 b7 ac bd be ac 2d 69 bd 55 4e 67 bd 6b bd cd bc
       -0.37045833 -0.05692832 -0.056471188 -0.025114736
000210 7e 80 b5 bd d1 6f 85 be 2a 61 f2 bc e1 da 52 be
       -0.088623986 -0.26061872 -0.029587347 -0.20591308
000220 95 d6 fd bd 47 60 82 bc 2f ca 1d bd b0 a1 ce 3d
       -0.12394444 -0.01591505 -0.038522895 0.10089433
000230 cb a1 59 3e 77 93 11 bc 58 e5 6a bd 67 bd 5c bd
       0.21253125 -0.008885256 -0.057347625 -0.053891566
000240 00 d5 14 3d f4 68 32 3c e6 51 e3 bd 7c ae fa 3d
       0.036335945 0.010889281 -0.11099605 0.122403115
000250 93 d7 cc bd b8 00 9a 3d 87 5e 25 bd f6 b4 47 3e
       -0.10002055 0.07519668 -0.04037335 0.19502625
000260 72 8f c0 3c b5 80 89 be c8 dd c3 bd 01 62 2b be
       0.0235059 -0.26856008 -0.09563786 -0.16736604
000270 e6 a7 f0 3c 67 50 83 bd 66 96 6f be 2b 2a 50 be
       0.029376935 -0.0641182 -0.23397216 -0.20328586
000280 a7 01 05 be e8 72 8f 3e bd 6d b7 bc 57 f6 ef bd
       -0.12988912 0.28017354 -0.022391194 -0.117169075
000290 3d 3f 97 bd 13 b2 04 bd 2a 23 d0 3d 56 67 8a 3b
       -0.073851086 -0.032396387 0.10162957 0.0042237444
0002a0 2b f0 86 bd 63 c4 c0 bd 44 84 d2 bd 2f c2 f0 bd
       -0.06588777 -0.09412458 -0.10279134 -0.117557876
0002b0 25 c4 ae bd a8 14 41 3e 72 1e c8 bd c1 39 c1 bd
       -0.08533505 0.18855536 -0.09771432 -0.09434844
0002c0 54 6c bf 3d eb 52 2e 3e 77 c0 bb 3d f8 a3 19 3d
       0.09346834 0.17023818 0.09167569 0.03750989
0002d0 47 e7 79 3e 6d e1 34 3e 02 c8 bd bb 9e 69 12 3c
       0.24404632 0.17664118 -0.005791665 0.008936314
0002e0 fc cf 22 3c 5e 41 3c 3e bd 62 e5 3d bb ab 0a be
       0.009937283 0.1838431 0.112004735 -0.13542072
0002f0 06 a0 55 bd b3 66 11 3d d5 5e b6 3e 0a ba 90 3d
       -0.052154563 0.035498332 0.35619226 0.07066734
000300 32 2b 20 be 5c 4a a5 bc 96 96 43 3e 26 a1 a4 3e
       -0.15641478 -0.020177059 0.19100413 0.32154197
000310 a6 cf 00 3e 63 90 96 3d 83 20 60 bd 81 d0 da bd
       0.12579212 0.07351758 -0.054718506 -0.106843
000320 c9 78 2b bd 90 75 9b 3a c4 76 26 bc 9c 64 af 3d
       -0.041863237 0.0011860598 -0.010160152 0.085641116
000330 63 86 1a bd 33 ac 43 bd 7d 17 be 3d 12 3b 8e 3c
       -0.037725817 -0.047771644 0.09281824 0.017362151
000340 e7 0f 4f be 67 b8 c7 bc 43 39 16 3e 16 bb 1b 3e
       -0.2022091 -0.024379922 0.14670281 0.15208086
000350 a2 05 26 bd 06 9d 9d bd 73 44 55 3e 21 4c 9f 3e
       -0.040532716 -0.076959655 0.20826893 0.3111277
000360 b1 1f b4 3d a1 22 73 bd 26 1d f5 bd 0f a0 8a bd
       0.08795107 -0.059359197 -0.1196845 -0.0676881
000370 f2 38 af bd a6 2c 18 3e b1 dc 22 3d f8 a0 12 3c
       -0.08555783 0.14860782 0.03976125 0.008949511
000380 14 41 09 be 5c 73 3b be 0f d5 0f bd a2 17 6b be
       -0.13403732 -0.18305725 -0.035115298 -0.22958234
000390 01 bb 06 be ce b2 5f be 51 73 a1 bc 8a 5e 7d bd
       -0.13157274 -0.21845552 -0.019708307 -0.061857738
0003a0 b6 ea c9 bd ea d9 09 be c5 18 b3 3b bb 57 d0 bc
       -0.09859221 -0.13462034 0.0054655992 -0.025432458
0003b0 cb eb 32 bb 6a 37 97 bd 04 2b e2 3d f9 c9 9c 3d
       -0.0027301188 -0.07383616 0.11043361 0.07655711
0003c0 c9 6a 07 3e 38 5b 84 bc 61 ef 16 bd 11 80 0c bc
       0.13224329 -0.016156778 -0.036849383 -0.008575455
0003d0 ad 5d f3 bd 04 63 44 3d a8 cd a4 3d 36 52 71 3d
       -0.118831016 0.04794599 0.08047038 0.058916293
0003e0 e3 e6 b3 3c 95 4a 54 bd 65 68 4e 3d b8 5c ba 3d
       0.021960681 -0.05182894 0.050392527 0.09099716
0003f0 ba e2 e0 3d 73 61 26 3e 78 1a 78 bc f1 8a 50 3e
       0.10980745 0.16248111 -0.015143029 0.20365502

fc1.0.bias f4 [120]
000000 9d 80 80 3e 1e 21 b6 3e 27 e4 bb 3e 38 6c 29 be
       0.25098124 0.3557214 0.36697504 -0.16545188
000010 9e 71 cb 3e ea 4b 4c be 85 28 90 3d d0 21 c6 3c
       0.3973512 -0.19950834 0.070389785 0.024186045
000020 51 84 42 3e 4d 04 d1 3e 18 b8 c3 3e da 4c 75 bd
       0.18995787 0.40823594 0.3822639 -0.059887744
000030 0c f7 57 bd f7 f2 4f be 3d 4a 93 3c 4a c6 e6 be
       -0.052725837 -0.20307527 0.017979736 -0.45073158
000040 43 60 b6 bc c8 b2 8d 3e d5 c7 13 3f 7d 5d db bd
       -0.022262698 0.27675462 0.57726794 -0.10711191
000050 ba dc 18 3f fa b5 b4 bd 55 ab 9b 3e b5 cf b9 be
       0.597118 -0.08823772 0.30404153 -0.3629128
000060 08 db eb 3d 52 df de 3e 73 14 d3 3e 40 4a f9 be
       0.11516386 0.43529755 0.4122654 -0.4868946
000070 a6 2c 1d bf a3 af b6 3e c5 8c c3 bd 83 39 0b bf
       -0.61396253 0.35680875 -0.09548334 -0.5438463
000080 14 6a 23 3d 63 47 09 be 45 ec c0 3e dc 28 c9 be
       0.039896086 -0.13406138 0.3768026 -0.39288986
000090 98 0f 61 be 68 05 c3 3e 2f a7 d3 3e 2a 85 ed 3d
       -0.21978605 0.38090062 0.41338488 0.11597665
0000a0 a1 af 32 3e 70 f4 e6 bd f6 7c 57 be 52 97 86 3a
       0.1744981 -0.112770915 -0.21043763 0.0010268486
0000b0 ad bf 49 3e c6 78 4d bc 99 0b 03 3f 70 65 9c 3d
       0.19702025 -0.012541002 0.5118957 0.07636535
0000c0 a3 77 8b 3e 44 d0 a3 be 27 66 16 bd 69 64 1d be
       0.27239713 -0.31994832 -0.036718514 -0.15370335
0000d0 e9 a2 3b be 1d c1 5c 3d 66 f0 4b bd a3 e4 92 bd
       -0.18323864 0.053895105 -0.04978981 -0.07172515
0000e0 45 0b 00 3e f9 06 16 bf d9 9b ba 3e 50 a2 1b be
       0.12504299 -0.5860439 0.36447027 -0.15198636
0000f0 b2 d7 b1 be 1b 00 b9 3d d1 4d 80 be 74 10 16 be
       -0.34734875 0.09033223 -0.2505937 -0.14654714
000100 8a ec 5d be bb d9 57 bd 31 c6 ec be 76 7b 36 be
       -0.21672264 -0.05269788 -0.46244958 -0.17820534
000110 55 92 07 3e 67 1b 36 3e 2a 6e 09 3e e4 c6 3e be
       0.13239415 0.1778389 0.1342093 -0.18630558
000120 43 3d bb 3e 71 28 04 3f 45 62 80 be 50 55 59 3d
       0.36570176 0.5162421 -0.25074974 0.053059876
000130 59 04 0f bf 59 16 9b bd 49 47 83 be de c0 54 3e
       -0.5586601 -0.07572622 -0.25640324 0.20776698
000140 90 dd c5 3e 06 1f 58 bc 88 17 8e 3e f1 d7 a2 3e
       0.386456 -0.01319099 0.27752328 0.31805375
000150 0b 6d 2b be 09 ea f6 be 98 4e d7 3e fc f6 82 bb
       -0.16740815 -0.4822543 0.4205215 -0.003996728
000160 12 85 58 be 38 fa 11 bf 6d b4 cb bd 4c d9 f3 bd
       -0.21144512 -0.5702243 -0.09946523 -0.119066805
000170 a4 b0 0c 3e 47 41 de bd 91 87 40 3e 25 5a 58 3e
       0.13739258 -0.108522944 0.18801714 0.21128137
000180 9c 1e 17 3f 9d 21 ea 3c 6d 3d b7 be df d8 94 be
       0.5903108 0.028580481 -0.35789052 -0.2907171
000190 e7 19 9a 3e 2c fb 40 3e 5a 2f 8f be a2 37 67 3c
       0.30097887 0.18845814 -0.27965814 0.014112385
0001a0 4c d7 ac 3e b2 18 45 be f7 02 a2 3e 11 6f 74 3e
       0.33758008 -0.19247702 0.31642887 0.23870493
0001b0 18 53 b4 bd 73 2a 07 bd 82 d3 7b 3e f0 a9 e0 bd
       -0.088049114 -0.032999467 0.24592403 -0.10969913
0001c0 7b 23 a7 3a 17 03 22 3e a4 b0 bb 3d 0f b3 20 bf
       0.0012751663 0.15821491 0.09164551 -0.6277322
0001d0 bb 44 8e 3e cb 14 b3 be 2b 6d 87 be 5d ad c7 3e
       0.27786812 -0.349768 -0.26450476 0.38999453

fc2.0.weight f4 [84, 120]
000000 b5 0a ed 3c 6e 82 61 3d 60 f6 0b be 2f 53 cc 3d
       0.02893577 0.055056028 -0.13668203 0.099768035
000010 93 0c 2b bd 18 89 93 be 83 ba ab bd 68 a4 e2 3d
       -0.04176004 -0.28815532 -0.08385184 0.11066514
000020 d8 25 ac be cb 5c a2 3d 6a f5 28 be 46 b2 6a 3e
       -0.33622622 0.07927855 -0.16499868 0.22919568
000030 30 aa c3 3c 80 5d 35 3e 9c df 30 be c1 8b ea 3c
       0.023884863 0.17711449 -0.172728 0.028631093
000040 8e d9 18 be c9 68 aa 3c 98 ea 08 be 48 0d 75 bd
       -0.1492674 0.020801919 -0.1337074 -0.05982712
000050 48 97 e6 3d c0 e1 db 3d 12 b5 aa 3d 7f 36 0a 3d
       0.11259323 0.10736418 0.08335318 0.033743378
000060 b3 ee 18 be 49 4d a9 bd 12 80 57 be e9 4e 0c bd
       -0.14934807 -0.08266694 -0.21044949 -0.034254942
000070 7d fb 76 bc 87 48 81 3d e5 7d 42 be 06 2c 2b 3e
       -0.015074608 0.063126616 -0.18993337 0.16716012
000080 a0 f2 48 3e f4 de cc 3d 3b 0b 34 3e 4f 1b a6 bd
       0.19623804 0.100034624 0.17582409 -0.081106775
000090 04 c3 07 be 1a 50 2a be e2 99 c0 bd b5 13 75 be
       -0.13257986 -0.16632119 -0.09404351 -0.23933299
0000a0 1d 52 18 bc e7 30 f4 bc dd 22 cc bd 5a 64 9e 3d
       -0.009296921 -0.029808475 -0.09967587 0.07733984
0000b0 16 14 f4 bd 41 67 db 3d 1f 70 78 37 e2 8a 62 be
       -0.119178936 0.107130535 1.4808057e-05 -0.22123292
0000c0 c2 79 50 3e 89 8c de 3c 78 5a 56 be 4a dc 03 3d
       0.20358947 0.027166622 -0.20932949 0.032192506
0000d0 b4 70 18 3e 74 94 5d 3e 42 14 f1 3d e7 ab 89 be
       0.14886743 0.21638662 0.11771442 -0.26888964
0000e0 a3 df 49 3a 77 c3 ed 3d ca 8e 94 bd 66 98 a5 bd
       0.0007700866 0.116095476 -0.07253797 -0.08085708
0000f0 1a b1 6b 3d 8c 29 66 3d c3 38 13 be aa df a8 3d
       0.057541944 0.056191966 -0.14377122 0.082457855
000100 c8 61 b8 bc 93 d8 0c be d4 1e 17 3d 91 e4 20 3e
       -0.022507563 -0.13754492 0.036894634 0.15712191
000110 ea 2d a1 bc 59 5b bb 3d ca 41 3f bb cd be 33 3d
       -0.019675214 0.091482826 -0.00291835 0.043883134
000120 58 14 3e 3d 69 d7 e2 bc b5 6d 19 3e 84 db fe bc
       0.04640612 -0.027690606 0.14983256 -0.031110533
000130 fb 11 95 bd 82 00 b0 3d df 53 7c 3d 8d b3 68 3d
       -0.0727882 0.08593847 0.061603423 0.056811858
000140 d6 a2 97 3c ff 85 97 3e 40 12 70 be fe 06 f1 bd
       0.018510263 0.29594418 -0.23444462 -0.11768912
000150 d6 23 2d 3e df d2 e3 3d 7f bc e8 3d 56 e4 56 bd
       0.16908202 0.11124205 0.11364078 -0.052463852
000160 36 a5 54 3c 8d 91 7b 3e 2d dd 4e 3e 0b 25 84 3b
       0.0129788425 0.24567242 0.2020156 0.004032736
000170 32 72 56 3d 6b 23 fb bd 10 0e b9 bd 45 47 68 3e
       0.052355 -0.12262615 -0.09035885 0.22683437
000180 d5 fe 70 3d d3 0c 17 bd 6c dc 59 3c 6d 98 6e 3d
       0.058836777 -0.036877465 0.013297182 0.058250833
000190 3e 87 34 bd 00 b3 6e 3c c3 97 f7 bd 76 6e 0d 3e
       -0.04407429 0.014569044 -0.12089493 0.13811669
0001a0 ed 19 40 be bc c4 5c bd 14 27 6c 3d 20 c8 c6 bd
       -0.1875989 -0.053898558 0.057654455 -0.097061396
0001b0 3f c9 39 bd cc cd ba 3d 27 0a fb 3c 30 66 34 3e
       -0.04535794 0.09121284 0.03064449 0.17617106
0001c0 c8 7f cf bd e0 fa 19 3d 09 1b 74 3d e5 7c 85 3d
       -0.10131794 0.03759277 0.059596095 0.06517962
0001d0 85 e7 97 3c be 75 83 3d 7d e0 44 3d 45 7f 51 be
       0.018543014 0.06418942 0.04806565 -0.20458706
0001e0 e9 e3 8f 3e 21 4a 9b 3e 19 8f 18 3c cd 17 2d 3e
       0.2810357 0.30329993 0.009311461 0.1690361
0001f0 9f 09 45 3e 20 89 7f be a2 89 8a be 52 16 dc bc
       0.19241951 -0.24954653 -0.2705813 -0.026866112
000200 a3 e4 81 bd 46 ba a7 ba 48 67 67 bb 44 fb 6b 3e
       -0.06342437 -0.0012796603 -0.0035309363 0.23045069
000210 23 40 1f bc 2c 0b 4b 3e f7 51 b0 3d a2 b8 19 bd
       -0.009719881 0.1982848 0.086093836 -0.037529595
000220 44 b4 97 3d 2d 39 06 3e ea e3 3d 3e a8 d0 88 be
       0.0740743 0.13107748 0.18543974 -0.26721692
000230 07 8b 06 3e 76 38 85 be 73 b2 42 3e 34 3b 22 bc
       0.13138972 -0.2601964 0.19013385 -0.00990181
000240 2f 24 d0 3d 97 c1 f2 3d 33 ec e4 3d 51 f0 21 be
       0.101631515 0.118533306 0.11177864 -0.1581433
000250 b0 e4 92 3c 43 b5 a6 3d 4d 35 01 be f0 97 80 bd
       0.017931312 0.08140042 -0.12617989 -0.0627898
000260 c9 1b 97 3d d0 67 bb bd fe e4 66 3b 30 1f ea 3d
       0.073783465 -0.0915066 0.0035231705 0.1143173
000270 07 86 2f be 97 20 c7 3c 81 e2 0b 3e bb f0 ba bd
       -0.17140971 0.024307532 0.13660623 -0.09127947
000280 0a c0 37 be d8 42 86 bd 1f e6 8c bd 42 43 fa bc
       -0.17944351 -0.06555718 -0.068798296 -0.03054965
000290 ca 84 39 3e 7a 8f e9 3d a2 55 46 3e 04 5d 09 bd
       0.18117061 0.11404319 0.19368604 -0.033535972
0002a0 db 2b d5 3d 50 4d 70 3d cf a6 e0 3d 3e ac 1b be
       0.104087554 0.05866748 0.10969316 -0.15202424
0002b0 21 38 c0 3c 15 b0 58 3e c6 3b 4e 3e 1c ac 47 be
       0.023464264 0.2116092 0.2013999 -0.19499248
0002c0 07 f5 f9 3d 96 ca 92 3d f5 dd ad 3d 04 28 86 bc
       0.122049384 0.071675465 0.084896006 -0.016376503
0002d0 e4 ef 3f be 3e 34 cc 3c 2c ad c7 bc 84 5d 50 3d
       -0.18743855 0.024927255 -0.024374567 0.050870433
0002e0 aa b1 a8 be d3 69 cc 3d 4d 5e 04 be fa 4d 95 be
       -0.32948047 0.09981122 -0.12926598 -0.29161054
0002f0 ac 56 6e bd 4a 77 11 3e f1 6d 9e 3c 78 5a c1 3d
       -0.058188125 0.14205661 0.019339534 0.09441084
000300 c9 dc 4e 3b b7 a6 ce 3d ff 69 9a bd ff 81 46 be
       0.0031564704 0.10090392 -0.075397484 -0.19385527
000310 b1 c8 80 be 27 68 dc 3d 7d 91 64 bd 36 b9 f0 bc
       -0.25153115 0.10762053 -0.05580281 -0.02938519
000320 db 6f 3a bc bd 67 af bc ff ae 6e 3d 37 20 28 3e
       -0.0113792075 -0.021411771 0.058272358 0.16418539
000330 4d b0 90 be 2d 5d 5c 3e 0e 47 08 3c 7a e3 53 bd
       -0.28259507 0.21519919 0.008317722 -0.05173061
000340 44 df c9 3d 03 56 c0 bd 3f 97 b8 bc b0 4c a5 3c
       0.09857038 -0.093914054 -0.022533057 0.020178169
000350 1c 04 57 bb d4 ab 33 be 9e f0 16 bc a6 5a 4e 3d
       -0.0032808846 -0.17546016 -0.009212641 0.050379418
000360 11 bc 29 3e 37 ba 65 bd 55 df bc bd a3 f9 13 bd
       0.16575648 -0.05608579 -0.09222285 -0.036126744
000370 63 86 03 3e 1f 16 92 3d 0b 59 44 3d d9 80 be 3d
       0.12844233 0.071331255 0.04793648 0.093019195
000380 cc c1 86 be b7 82 2e bd c1 50 9f bd 85 30 d2 3c
       -0.2631973 -0.04260513 -0.077790745 0.025657902
000390 f8 db f1 bd 4b 24 34 3d 6d 07 5b 3d 95 4d 4c bd
       -0.11809534 0.043979924 0.05347388 -0.049878675
0003a0 1b 28 d9 bc e2 50 be bd 9f 3c 43 3d 2b fa b9 bc
       -0.026508382 -0.09292771 0.047665235 -0.022702297
0003b0 ec 6d 32 3e b6 75 b9 bd c6 0a fc 3d eb 0a e2 bc
       0.17424744 -0.09055655 0.12306742 -0.027593097
0003c0 e8 43 62 3c b7 51 39 3e 91 27 c3 bd d5 c2 be 3d
       0.013810135 0.18097578 -0.09529031 0.09314505
0003d0 a2 11 93 3c 5b 4b f4 bd d7 5e 21 3d a6 87 b1 3d
       0.017952744 -0.119284354 0.039397087 0.08668451
0003e0 1f 6c ed 3d 1a 10 b9 3d 08 82 ec bd 5d e5 87 bc
       0.11592888 0.09036274 -0.11548239 -0.016588861
0003f0 09 18 bd 3c 0e 1f e2 bd 61 ea ea bc 1e 87 ee 3b
       0.02308275 -0.110410795 -0.028676214 0.007279291

fc2.0.bias f4 [84]
000000 3f 27 3e bd 09 e6 77 3e cc 61 82 3e 05 3e 32 3e
       -0.046424147 0.24208845 0.25465238 0.17406471
000010 75 27 c1 3d cd a1 16 3e a1 87 87 3d aa b9 a7 bc
       0.09431354 0.1471016 0.06617666 -0.020474274
000020 97 1e 85 3b 29 72 d3 bd 2f 5d 81 be 43 04 60 3e
       0.0040624845 -0.10324509 -0.25266406 0.21876626
000030 5d ec 07 be e0 dd 13 be a6 92 4d 3d 2d 9a 56 3d
       -0.13273759 -0.14440107 0.050188683 0.052393127
000040 66 7e 18 be b2 b8 e3 bd da df ca bd df 30 8d 3e
       -0.14891967 -0.11119212 -0.099059775 0.27576348
000050 ca ca 4f 3d 71 aa aa be 71 f4 1a be 58 57 ef 3d
       0.050730504 -0.3333316 -0.1513231 0.116865814
000060 ab fc 6f bd b9 fe bb 3d 31 c3 fd be 81 de 80 bd
       -0.058590572 0.09179444 -0.49562982 -0.06292439
000070 00 eb a5 3d d3 ee 88 3d f2 1f 27 be d7 72 88 3e
       0.08101463 0.06686177 -0.1632078 0.26650116
000080 66 16 0b bf be 30 9a 3e a2 73 04 be b4 8f 44 3e
       -0.5433105 0.30115312 -0.12934735 0.19195443
000090 75 36 55 bd e8 72 6c bb 85 f9 da 3e ad a4 bc 3e
       -0.052053887 -0.0036079232 0.42768493 0.36844388
0000a0 cc c7 54 3e 10 5b 06 be 1b 18 93 bd 8c 86 0b be
       0.20779341 -0.13120675 -0.07182332 -0.13625544
0000b0 a2 89 18 3d 9b c9 f7 3d 4a 83 81 3e 75 86 96 3e
       0.037240632 0.12099 0.25295478 0.29399458
0000c0 ff 27 05 be 87 45 98 be 43 da 90 3d ed e5 b7 be
       -0.13003539 -0.29740545 0.0707288 -0.35917607
0000d0 24 af cb 3b b2 47 d0 3d ec cf 83 3d cb 72 45 be
       0.0062159467 0.10169925 0.06436142 -0.19282071
0000e0 27 db 20 be c1 64 54 be c4 50 e8 bb 15 a4 09 be
       -0.157086 -0.2074156 -0.007089706 -0.13441499
0000f0 d3 55 33 bd 2b 1c 09 be 40 e1 62 be 92 a9 bc 3d
       -0.04378302 -0.13389651 -0.22156239 0.092120305
000100 0d ee 42 3e 57 bb c9 3d 3e f5 dc be 17 91 fe be
       0.19036122 0.09850185 -0.43155855 -0.4972007
000110 29 2e dd 3c e2 b5 79 be 4a eb fa be 49 a2 cb 3d
       0.02699955 -0.24385789 -0.49007636 0.09943063
000120 1a 87 84 be 5d ae b7 be 50 92 32 3e d6 d7 a5 3b
       -0.25884324 -0.35875216 0.17438626 0.00506113
000130 93 11 11 bd 95 81 05 bd b2 11 30 be a4 03 30 bb
       -0.03541715 -0.032594282 -0.1719425 -0.0026857639
000140 cb 99 a4 3c 02 72 87 3c a7 75 1d 3e 75 c7 1d be
       0.020092865 0.016533855 0.15376912 -0.15408118

fc3.0.weight f4 [10, 84]
000000 48 37 f5 3d 3d cc 96 be 85 2e 30 be dd 32 ff 3d
       0.11973435 -0.29452696 -0.17205246 0.12460873
000010 29 d1 07 bd 03 c1 2d 3e e9 52 e4 bd 42 06 28 3e
       -0.033158455 0.1696816 -0.11148626 0.16408637
000020 f3 55 a8 3d 3f 2a 91 3e 91 29 bb 3c 4c 37 0b be
       0.082195185 0.28352544 0.022846969 -0.13595313
000030 4d 02 96 3e 99 e4 9f 3e cc e8 32 3e 6a dc ed 3d
       0.2929863 0.31229094 0.17471617 0.11614306
000040 ef ae f9 bd 50 db 57 be 8a 86 69 bd f8 6c 52 bd
       -0.12191569 -0.21079755 -0.057013072 -0.051373452
000050 4f 18 cc 3d b8 c3 41 3e f5 40 b4 3e 89 19 7f be
       0.09965574 0.18922317 0.35205808 -0.24912085
000060 39 58 ac 3e b7 11 95 bd f9 fa 35 3e cc d4 a2 bd
       0.3366106 -0.072787695 0.1777152 -0.07950744
000070 4e 2a 03 3e 20 84 4f be 83 e5 4b be 6a fd 87 bc
       0.12809107 -0.20265245 -0.1991177 -0.01660033
000080 51 e4 9b 3e 8f 11 9a bd 84 cc 45 3e b7 75 11 be
       0.3044763 -0.0752288 0.19316298 -0.14205061
000090 b3 59 df 3d c7 4a af bd c5 8c 22 bd e0 0b 46 be
       0.10905781 -0.085591845 -0.03968503 -0.19340467
0000a0 3c 18 90 3d b7 ee cf bd b8 0c 4f 3e d0 30 6a 3e
       0.07035872 -0.10152953 0.20219696 0.22870183
0000b0 37 cf 45 be f9 2f 55 3e 61 0f 8c be f3 b1 43 be
       -0.19317327 0.20819081 -0.27355483 -0.19110851
0000c0 4c 90 a3 be 42 80 00 3d 9d 93 24 3e d9 b0 11 3e
       -0.31946027 0.031372316 0.16071935 0.14227618
0000d0 9b 28 d0 bb 0b 7d fb 3d 8f 08 28 be 49 29 1f be
       -0.006352497 0.122797094 -0.16409515 -0.15543093
0000e0 f4 c3 ec 3c 40 a5 3e 3e b5 aa 09 be 43 0f 03 3d
       0.028902031 0.18617725 -0.13444026 0.031996977
0000f0 b1 01 15 3d c4 fd 11 bc 05 58 fd bd c9 76 19 3c
       0.036378566 -0.0089106 -0.12370304 0.0093666995
000100 40 0b 80 3d 3d c4 47 be 4d 11 95 bd 7a 7b 61 3e
       0.06252146 -0.19508453 -0.072786905 0.22019759
000110 2b be 6e 3e 7f 28 96 3e 70 87 99 3d d7 10 80 be
       0.23314731 0.2932777 0.07496536 -0.25012848
000120 60 23 53 3e b8 78 47 3e e7 55 42 be 93 d6 1d be
       0.20618963 0.19479644 -0.18978082 -0.15413885
000130 6e d2 8a 3e f3 16 a0 bc 3e f1 22 3e a9 8c 8d 3d
       0.2711367 -0.019542193 0.15912339 0.069115944
000140 76 86 91 3e 34 b4 2e 3e e0 2e 46 be 98 8c a3 3e
       0.28422898 0.1706093 -0.19353819 0.31943202
000150 36 03 21 be dd 89 07 3d 51 22 55 3e 43 ad ec bc
       -0.15723881 0.03309046 0.20813872 -0.028891211
000160 cb 03 dd 3d 5f 99 04 be ff be 44 be 50 62 97 be
       0.10791739 -0.12949131 -0.19213484 -0.29567194
000170 ce f1 10 be b3 3e 39 be a8 85 32 be 2b 83 10 3e
       -0.14154741 -0.18090324 -0.17433798 0.14112537
000180 09 6d 66 3e 37 9f 5f 3e ec 24 a2 3e 8e 23 a9 3e
       0.22502531 0.2183808 0.31668794 0.3303494
000190 d7 1a 6c 3e b0 36 69 be f7 02 54 3e 7e 41 46 3e
       0.23057114 -0.22774768 0.20704256 0.19360921
0001a0 e8 37 2d 3e dc 3b 94 bc 7b ca d1 3c 96 b3 96 be
       0.16915858 -0.01809495 0.025609246 -0.29433888
0001b0 7f ff 67 3e 7d 4c f4 bd e6 52 9c bd 6b f1 99 3d
       0.22656058 -0.119286515 -0.07632999 0.0751675
0001c0 9a 28 81 be 2d ba fd bd 35 52 12 3e b8 02 22 3d
       -0.2522629 -0.12389026 0.14289172 0.039553374
0001d0 3d df 50 3e 24 13 32 3e 29 25 51 be 53 20 e0 3d
       0.20397659 0.17390114 -0.20424332 0.10943665
0001e0 be d9 7b be 86 99 22 3e ee 2e 06 3d fe 6a 31 3e
       -0.24594781 0.15878877 0.0327596 0.1732597
0001f0 6b 94 74 be 35 16 32 3c e8 cc f8 3d 11 b3 45 be
       -0.23884742 0.010869552 0.12148458 -0.1930659
000200 2e ae 84 bd 66 cf 40 3e 3d b9 13 3e df ed a8 bd
       -0.06478535 0.18829116 0.14426132 -0.08248495
000210 c2 a3 e8 bd 89 4f 40 3e cd 65 6e 3e c4 54 21 be
       -0.11359359 0.1878034 0.23281021 -0.15754992
000220 71 f2 91 be 7c 76 80 3c 5f 35 59 3e df e0 24 be
       -0.2850528 0.015681498 0.21211766 -0.16101407
000230 4c bf 50 3e 06 b9 df bd bf 22 9d bc 5f c7 c6 3d
       0.20385474 -0.10923962 -0.019181607 0.09705996
000240 c6 a6 62 3d 65 95 89 3d bb 7a 71 3e 0d 75 86 be
       0.05533483 0.06717948 0.23581974 -0.26261178
000250 65 69 4e 3d 58 b8 26 be 18 8d 5b 3e 80 81 50 bd
       0.05039348 -0.16281259 0.21440542 -0.05090475
000260 6c c6 43 be da 1d 0d 3e b8 f9 82 be f9 94 31 3e
       -0.1911866 0.13780919 -0.25581145 0.17341985
000270 b8 d4 1f be 1e f9 c5 bd e0 ff 3c 3e 2e 0a 0b be
       -0.1560849 -0.09666656 0.18456984 -0.13578102
000280 eb c9 8e bd b1 fd eb 3d c7 d4 16 be d5 97 5e be
       -0.069721065 0.11522997 -0.14729606 -0.21737607
000290 60 24 56 be df a3 81 3e f4 e8 92 bd 59 82 e2 bd
       -0.20912313 0.25320336 -0.071733385 -0.11060018
0002a0 41 22 1a be 88 aa 69 3d 0d 87 8c bd a3 5f f7 bc
       -0.1505213 0.057047397 -0.068616964 -0.03019697
0002b0 71 ef 37 be fc 43 29 3e ae 17 f2 3d fc e7 4b bd
       -0.17962433 0.1652984 0.11820923 -0.049781784
0002c0 61 70 27 bd 1c e9 32 be 8f 23 3f be c9 01 1f be
       -0.040878657 -0.17471737 -0.18665908 -0.15528025
0002d0 f5 ac 53 be 19 88 4a be c6 53 07 be e5 de 72 3e
       -0.20671447 -0.1977848 -0.13215551 0.2371784
0002e0 d1 a2 5b 3e bc a4 1c be 65 8f f6 bd b2 6b 2c 3e
       0.21448828 -0.15297216 -0.12039069 0.16837958
0002f0 e2 cd 61 be 63 14 77 3c 3d b2 1b be d4 33 0a 3e
       -0.22051194 0.015080544 -0.15204711 0.13496333
000300 3f 33 43 3e ff 31 3d be c3 6a 39 be 34 1a 62 be
       0.19062518 -0.18476103 -0.18107133 -0.22080308
000310 8d d7 57 be 18 05 83 3d 30 80 98 3a 83 0f 43 3e
       -0.2107832 0.06397456 0.0011634883 0.19048886
000320 62 c5 3d 3e 52 66 3b bd 4e 3e 29 be b7 6b 18 3e
       0.18532327 -0.045751877 -0.16527674 0.1488484
000330 9e f2 f6 3d 93 ce 39 3d bf 7e 04 3e 24 82 70 bb
       0.12057994 0.04536302 0.12938975 -0.0036698664
000340 4b 4d 81 3e fd b6 85 be de cd 44 be aa cd cc 3d
       0.25254282 -0.2611617 -0.19219157 0.10000165
000350 c4 c0 3d 3e b2 43 e5 3d d2 ea 44 3b 96 aa 69 3d
       0.18530566 0.111945525 0.003004719 0.05704745
000360 47 c8 03 be 20 ec 47 be 4c 5d 98 3c 43 1c 5a be
       -0.12869368 -0.19523668 0.018599175 -0.21299843
000370 2c 58 35 be 74 c0 07 3e a5 16 18 be 7e 1a eb 3d
       -0.17709416 0.13257009 -0.14852388 0.11479662
000380 7d af 58 be b7 1a e3 3d 2e 30 23 3e 19 20 85 3d
       -0.21160693 0.1108908 0.15936348 0.06500263
000390 7f 75 ea 3d 24 76 27 be c3 af 8f bd 86 3a 40 3d
       0.11448192 -0.16353661 -0.07015946 0.046930812
0003a0 8c cb 18 3e ea eb 62 be 0b cc a3 bc 86 97 cb bd
       0.14921397 -0.22160307 -0.019994756 -0.0994101
0003b0 c8 63 42 3e cc 26 92 be 70 40 58 be b8 70 0d bd
       0.18983376 -0.28545225 -0.21118331 -0.034531325
0003c0 75 7c f5 3d c1 14 2a be 35 e0 79 be 81 3a 0d be
       0.11986629 -0.1660948 -0.24401934 -0.13791849
0003d0 2a b0 76 3e a9 d1 a7 3e 75 0b aa 3d 82 6b 5f 3e
       0.24090639 0.32777146 0.083029665 0.21818355
0003e0 c0 db 3d be 2f b7 1a 3e 26 d3 c8 bd 4a 64 49 be
       -0.18540859 0.15108941 -0.09805898 -0.19667163
0003f0 d1 40 27 be dd 09 ea bd 07 8e b5 bd 9e 3c 5b 3e
       -0.16333319 -0.114276625 -0.0886498 0.21409842

fc3.0.bias f4 [10]
000000 94 cb 1a bf 17 c0 a6 3d de e8 96 3e c7 9b 86 be
       -0.60466886 0.08142107 0.2947454 -0.26290724
000010 cc f8 af bd e1 d6 81 3e a3 b7 fe be 20 c3 c4 3e
       -0.08592376 0.25359252 -0.4974948 0.3843012
000020 f7 92 19 3e 21 5a 46 3e
       0.14997469 0.19370319
