save_checkpoints/LeNet5_epoch_92.pth (torch, 249863 bytes, 10 tensors)

conv1.0.weight f4 [6, 1, 5, 5]
-0.17946514 -0.09657599 -0.15446317 -0.20135802 0.4852448 -0.58127946 -0.45166254 -0.1970255
0.15775372 0.33092266 -0.0060913437 0.07349337 -0.07933644 0.52604425 0.39040157 -0.1612151
0.09092061 0.16197775 0.7072561 0.13955371 0.096910566 0.08183731 0.2941201 0.36678252
-0.26265645 -0.121731564 0.44004017 0.3324746 0.32721198 -0.058926962 -0.52937055 -0.73159915
-0.23161776 -0.26829857 -0.33194458 -0.036360167 -0.18735185 -0.62779784 -0.48324013 -0.37436303
0.22284155 0.0698287 -0.026051262 0.0010309374 0.13927874 0.028910737 -0.037070252 0.027471336
0.2620123 -0.06977591 -0.12954192 0.03725568 -0.060731575 0.33919898 -0.13645262 -0.09778665
0.47857755 0.46292746 -0.086366706 0.17350347 -0.18539235 0.5255972 0.061461486 -0.15430579
0.084867686 0.18793693 0.60855585 -0.18409476 -0.14995828 -0.21850634 0.6721679 0.6842933
-0.1302959 -0.09920865 -0.36003432 0.25012138 0.13675095 0.055909872 0.25983274 0.59288406
0.16336907 -0.43392 -0.45341882 0.034755472 -0.023260584 -0.08800285 -1.0227562 0.010385646
0.05006355 -0.05234207 -0.38448024 -0.22824699 0.10281342 0.25644073 -0.09986777 -1.0735875
0.05389746 0.2620766 -0.058802467 0.14809477 0.20603225 0.15706713 -0.0082106795 0.23462065
0.052028894 0.17405471 0.171904 0.09623335 0.008319536 0.11721741 0.099677905 -0.22575349
0.022558603 -0.18751273 -0.17703344 -1.0759065 -0.50917697 -0.4501511 -0.36116123 -0.30515644
-0.102241576 0.16994578 0.14432219 0.33195618 0.061183106 -0.4112734 -0.1437981 0.06217377
0.48686263 0.22247837 -0.26871717 -0.6039595 -0.018432388 0.19158973 -0.12532951 -0.13127305
-1.0122392 -0.2844491 0.3372736 -0.08868776 0.23551767 -0.6099279 -0.81850886 0.06219373
0.217789 0.08276666 0.086090766 -0.19017386 -0.3628994 -0.07226619
00000000: b6c5 37be a2c9 c5bd 982b 1ebe cc30 4ebe
00000010: 0272 f83e bbce 14bf 5040 e7be 0dc1 49be
00000020: 318a 213e b26e a93e e599 c7bb b183 963d
00000030: 257b a2bd d6aa 063f b7e2 c73e 9215 25be
00000040: 9634 ba3d 7fdd 253e bc0e 353f 2be7 0e3e
00000050: 0c79 c63d 529a a73d e996 963e ebca bb3e
00000060: e87a 86be 664e f9bd f24c e13e 1c3a aa3e
00000070: 5488 a73e 665d 71bd d484 07bf 154a 3bbf
00000080: 352d 6dbe 6e5e 89be a4f4 a9be 66ee 14bd
00000090: 2ad9 3fbe 5cb7 20bf 406b f7be 83ac bfbe
000000a0: 9330 643e 5902 8f3d 7569 d5bc 8520 873a
000000b0: 169f 0e3e 36d6 ec3c fad6 17bd 910b e13c
000000c0: 7a26 863e ace6 8ebd a3a6 04be 6999 183d
000000d0: acc1 78bd 7dab ad3e 3cba 0bbe 5e44 c8bd
000000e0: 1e08 f53e d404 ed3e 07e1 b0bd e5aa 313e
000000f0: 7ed7 3dbe 8a8d 063f 0abf 7b3d 5602 1ebe
00000100: 1ccf ad3d 8a72 403e 51ca 1b3f 5683 3cbe
00000110: aa8e 19be 20c0 5fbe 3213 2c3f d92d 2f3f
00000120: 4a6c 05be e82d cbbd 6b56 b8be e90f 803e
00000130: 7108 0c3e c001 653d cc08 853e 40c7 173f
00000140: 394a 273e c32a debe 8326 e8be c15b 0e3d
00000150: fb8c bebc d73a b4bd ade9 82bf 8e28 2a3c
00000160: 700f 4d3d a364 56bd 98da c4be 94b9 69be
00000170: d88f d23d 334c 833e 7987 ccbd 516b 89bf
00000180: 95c3 5c3d e72e 863e dbda 70bd 28a6 173e
00000190: 1efa 523e 35d6 203e 1686 06bc 6540 703e
000001a0: 401c 553d 663b 323e 9a07 303e fe15 c53d
000001b0: aa4e 083c ae0f f03d ee23 cc3d ec2b 67be
000001c0: d2cc b83c 5603 40be 4148 35be 4eb7 89bf
000001d0: 6c59 02bf 347a e6be 20ea b8be 773d 9cbe
000001e0: 0864 d1bd 4406 2e3e 32c9 133e 29f6 a93e
000001f0: 239b 7a3d 6d92 d2be cf3f 13be eca9 7e3d
00000200: 0f46 f93e 5fd1 633e 4c95 89be 179d 1abf
00000210: 85ff 96bc 1930 443e 6156 00be 716c 06be
00000220: 0e91 81bf 50a3 91be 20af ac3e eea1 b5bd
00000230: 8b2b 713e 3c24 1cbf cc89 51bf dabe 7e3d
00000240: 1404 5f3e 9181 a93d 5b50 b03d f0bc 42be
00000250: f3cd b9be 4c00 94bd

conv1.0.bias f4 [6]
-0.2093002 -0.0596404 -0.08292907 -0.15390772 -0.18598129 0.03130152
00000000: cb52 56be 7e49 74bd b7d6 a9bd fc99 1dbe
00000010: e171 3ebe 0636 003d

conv2.0.weight f4 [16, 6, 5, 5]
0.22618517 0.3563724 0.5629359 0.039583866 -0.14105102 -0.052966166 0.033736598 0.10975382
-0.21698314 -0.47056803 -0.09623232 -0.026486848 -0.04046087 -0.20584065 -0.60124975 0.02158832
-0.052522425 -0.05420578 -0.91037565 -0.10138701 0.106697135 -0.20247991 -0.19972487 -0.28635457
-0.084673926 0.35949188 -0.015848383 -0.03341914 0.022820996 0.10209622 0.20121236 0.053488504
-0.1336771 -0.23545964 0.08921666 0.4876324 0.22814277 -0.15341318 -0.3545181 0.17947109
0.016880427 -0.30002606 -0.18731233 -0.23653501 -0.156385 -0.2639741 -0.21429771 0.09484428
0.21972606 0.25623572 -0.1274439 -0.16852503 -0.13251404 0.028146006 0.0506662 -0.108496696
-0.44130018 -0.32750046 -0.14887881 -0.46705857 -0.4925242 -0.2705599 0.05828707 -0.23291528
-0.42000386 0.043223336 -0.06089954 0.0008550737 -0.14330351 -0.6630793 0.11832595 -0.05850998
0.1148018 -0.19455467 -0.40614375 0.25303572 0.30492786 -0.5233615 -0.33299217 -0.16397911
0.007153195 0.16278459 0.023719223 -0.0819542 -0.023755237 0.01917583 -0.05358816 -0.009393866
-0.43012407 0.4085744 0.20350868 -0.13904206 -0.081143044 0.16363288 0.36678296 -0.507319
-0.0813469 -0.02969781 0.01721947 -0.015069918 0.5233722 0.3353339 -0.5027247 -0.37485093
-0.5760602 0.27875358 0.28449556 -0.36116487 -0.5250863 -0.26288384 0.36988986 -0.3966512
-0.5084575 -0.03130094 0.24045552 -0.4282009 -0.48971233 0.040276624 0.15520659 -0.0248391
-0.13890474 -0.053857163 0.18658224 0.19354357 -0.36255765 0.58381444 0.59532046 0.29267633
0.27205074 0.1708888 0.5971387 0.25353518 0.28916785 0.4100697 -0.0858957 -0.018405573
0.17277472 0.10800994 0.1311676 0.10170002 -0.19543935 0.00638501 -0.23096025 -0.13228993
-0.05373205 -0.4262856 -0.083126895 -0.0054460983 0.016439414 0.13166223 -0.19454868 -0.48904422
-0.5645756 -0.33921087 -0.23002724 -0.46432272 -0.30774254 0.17975956 -0.03221518 -0.024662055
-0.23110192 -0.07682486 0.033084992 -0.34846085 -0.23415607 -0.20294957 -0.18505062 -0.21704584
-0.6118348 -0.24506758 -0.17520611 0.11986202 -0.10772062 -0.24080849 -0.3405167 -0.095062084
-0.078567125 -0.047789235 0.1698773 0.030479424 0.089088954 -0.06436499 0.2796218 0.15632007
0.061470427 -0.23700358 -0.08010073 0.22406723 -0.1336721 0.2900733 0.02425894 0.020599728
-0.36873516 -0.033253193 0.23751065 -0.1473901 -0.31144294 -0.5399343 0.18088304 0.4695492
0.14662257 -0.29694209 -0.36366808 -0.13999605 -0.09495691 -0.19081578 -0.63783956 -0.35514304
-0.109039836 0.15044367 -0.56101495 -0.62006694 -0.48531872 0.00085517846 -0.24471495 -0.6317923
-0.57260346 -0.620208 -0.0366809 -0.43952486 -0.06254153 -0.27130967 -0.20742229 -0.1550866
-0.3287804 -0.2290525 0.29168618 0.3718591 0.28502938 0.037467293 0.108508684 0.7478287
0.2348347 -0.045958996 -0.19629669 0.46170247 0.43615323 -0.10433589 -0.02801309 -0.12736262
0.36436805 0.33476412 0.0302647 -0.06771714 -0.029188223 0.0218081 0.021735976 -0.18382853
-0.5868499 -0.138347 -0.30938396 0.4577527 0.2947786 0.26415005 0.15345043 -0.17450431
00000000: 169d 673e 7176 b63e 911c 103f b122 223d
00000010: ae6f 10be 0df3 58bd 632f 0a3d 9cc6 e03d
00000020: d430 5ebe 4bee f0be 7315 c5bd f2fa d8bc
00000030: 4cba 25bd e4c7 52be 81eb 19bf fdd9 b03c
00000040: c121 57bd e106 5ebd 610e 69bf fea3 cfbd
00000050: 0784 da3d e556 4fbe ad84 4cbe 119d 92be
00000060: 8669 adbd 520f b83e 78d4 81bc 82e2 08bd
00000070: 19f3 ba3c d317 d13d 9d0a 4e3e c316 5b3d
00000080: a6e2 08be 551c 71be 39b7 b63d f4aa f93e
00000090: 429e 693e 5818 1dbe 6583 b5be 45c7 373e
000000a0: d248 8a3c 049d 99be cece 3fbe 3c36 72be
000000b0: 6423 20be 9d27 87be dc70 5bbe b83d c23d
000000c0: deff 603e 5431 833e a780 02be d391 2cbe
000000d0: c3b1 07be 7492 e63c 5d87 4f3d 8433 debd
000000e0: 19f2 e1be 24ae a7be b073 18be 4d22 efbe
000000f0: 222c fcbe d486 8abe 6cbe 6e3d 5881 6ebe
00000100: bf0a d7be f40a 313d cc71 79bd 0627 603a
00000110: 28be 12be 91bf 29bf e054 f23d 29a8 6fbd
00000120: 351d eb3d 5739 47be 13f2 cfbe e68d 813e
00000130: 811f 9c3e 05fb 05bf f37d aabe 24ea 27be
00000140: 5965 ea3b 01b1 263e d14e c23c 9bd7 a7bd
00000150: 589a c2bc a116 9d3c 427f 5bbd bbe8 19bc
00000160: 3939 dcbe aa30 d13e 9464 503e 0b61 0ebe
00000170: 532e a6bd 618f 273e faca bb3e a8df 01bf
00000180: 3499 a6bd d248 f3bc d90f 8d3c d1e7 76bc
00000190: b8fb 053f e3b0 ab3e 91b2 00bf 76ec bfbe
000001a0: ae78 13bf cab8 8e3e 67a9 913e 9aea b8be
000001b0: 0e6c 06bf b698 86be 3462 bd3e de15 cbbe
000001c0: 452a 02bf 6a35 00bd f939 763e 263d dbbe
000001d0: 93bb fabe 1af9 243d 7aee 1e3e 5e7b cbbc
000001e0: 0b3d 0ebe 5499 5cbd 6a0f 3f3e 4930 463e
000001f0: 28a1 b9be dd74 153f ec66 183f acd9 953e
00000200: 3c4a 8b3e 79fd 2e3e 15de 183f 5dcf 813e
00000210: cf0d 943e a8f4 d13e 16ea afbd 49c7 96bc
00000220: dbeb 303e 5134 dd3d cd50 063e 1a48 d03d
00000230: 4121 48be 5939 d13b d880 6cbe 0377 07be
00000240: 2316 5cbd 1b42 dabe 6f3e aabd 2f75 b2bb
00000250: f3ab 863c 77d2 063e c537 47be 0164 fabe
00000260: 0788 10bf 0cad adbe 438c 6bbe b5bb edbe
00000270: 6e90 9dbe e412 383e 11f4 03bd 1408 cabc
00000280: fba5 6cbe 5a56 9dbd 2184 073d 7669 b2be
00000290: 9cc6 6fbe 03d2 4fbe e97d 3dbe 4441 5ebe
000002a0: 35a1 1cbf fff2 7abe 3b69 33be 387a f53d
000002b0: a19c dcbd 8096 76be 3458 aebe e9af c2bd
000002c0: cde7 a0bd a5be 43bd 51f4 2d3e fcaf f93c
000002d0: 4574 b63d cbd1 83bd 972a 8f3e 5e12 203e
000002e0: 6ac8 7b3d 11b1 72be da0b a4bd e171 653e
000002f0: 57e1 08be 7d84 943e afba c63c c3c0 a83c
00000300: dbca bcbe 8034 08bd fe35 733e 6eed 16be
00000310: 7375 9fbe 2239 0abf 6739 393e c168 f03e
00000320: 3a24 163e cb08 98be b432 babe 205b 0fbe
00000330: c578 c2bd 3665 43be 7449 23bf 4fd5 b5be
00000340: 4750 dfbd e80d 1a3e ad9e 0fbf b5bc 1ebf
00000350: b27b f8be 0e2e 603a 8e96 7abe 24bd 21bf
00000360: 2496 12bf f4c5 1ebf b63e 16bd 6709 e1be
00000370: c615 80bd 1ae9 8abe 8266 54be 06cf 1ebe
00000380: e855 a8be bd8c 6abe e457 953e 5164 be3e
00000390: 5fef 913e 4e77 193d cd39 de3d b471 3f3f
000003a0: 8278 703e 803f 3cbd 0002 49be 4464 ec3e
000003b0: 7a4f df3e 0eae d5bd b57b e5bc 596b 02be
000003c0: 738e ba3e 3466 ab3e aded f73c 49af 8abd
000003d0: 241c efbc e7a6 b23c a50f b23c 8c3d 3cbe
000003e0: cc3b 16bf d6aa 0dbe 9367 9ebe 905e ea3e
000003f0: 38ed 963e ad3e 873e 1c22 1d3e 42b1 32be

conv2.0.bias f4 [16]
-1.4285327 -1.0522258 -1.5017715 -1.826598 -2.7332766 -2.3718452 -1.0482397 -1.4635952
-1.5865064 -2.3331382 -0.597323 -1.6950421 -1.86746 -1.984651 -2.357447 -1.365871
00000000: 29da b6bf 56af 86bf 0c3a c0bf f7cd e9bf
00000010: 01ee 2ec0 50cc 17c0 b82c 86bf 1657 bbbf
00000020: a412 cbbf 2352 15c0 29ea 18bf 24f7 d8bf
00000030: ee08 efbf 0b09 febf 69e0 16c0 dcd4 aebf

fc1.0.weight f4 [120, 400]
-0.18241033 -0.3309118 -0.92034966 -0.32016537 -0.33466664 0.071663335 -0.24875982 -0.42260844
-0.3196412 0.04451756 -0.07411514 -0.0041484255 -0.14668462 0.19707063 0.2323919 0.2013823
-0.27817875 -0.0025943213 0.43337008 0.8040173 0.0054308185 -0.11207472 -0.08103363 0.2832745
0.18493827 -0.35971263 -0.47022697 -0.34241733 -0.409795 -0.6124732 -0.027961925 0.46015036
0.3215937 -0.3304171 -0.2716095 -0.036785387 0.37166795 0.11031043 0.10900529 0.41627488
0.16310927 -0.5028677 0.22227426 0.28200236 -0.087270215 0.16583753 0.1772333 0.280355
0.22758198 0.2975382 -0.2852088 -0.23718889 -0.38777614 -0.49568498 -0.3163242 0.03633074
0.32213876 0.3611846 -0.4535467 -0.043262124 0.037573688 0.09977724 -0.16397148 0.609897
0.18422498 -0.30345196 -0.44592905 -0.26499796 0.5121508 0.3191017 -0.074755035 -0.29782546
-0.16437362 0.36342436 0.41630763 -0.15703595 -0.2073216 0.028529875 0.5453224 0.14034295
-0.051229756 -0.24164551 -0.06692778 0.3302261 0.48387477 0.35982764 -0.105471626 -0.023089914
-0.34173527 0.020788025 -0.21511066 0.11653427 0.2030462 -0.2890862 -0.07359751 0.068443276
0.75504863 0.07670539 0.107484065 -0.22650379 0.39468345 -0.027644476 0.23232062 0.29300338
-0.078846775 0.14980672 0.30178598 0.85711306 0.62354475 -0.01664783 -0.5147431 -0.10212164
-0.072041005 -0.46600977 -0.28561735 0.2476767 0.2056532 -0.34358814 -0.2666838 -0.15203103
0.3512566 0.47616312 0.3149675 -0.095282644 -0.110952474 -0.25427923 -0.46434814 -0.4778293
0.118321545 0.26946414 -0.22768493 -0.11024386 0.039275438 -0.5188413 0.115070954 0.21444793
0.08745421 0.040101998 0.022972671 -0.13820495 -0.61476576 -0.56162345 0.007842148 -0.06799336
-1.0393777 0.25003207 0.32598358 0.06728212 -0.079603516 -0.6123347 -0.520033 -0.6408019
-0.9616145 -0.7583587 -0.5482564 0.16971713 -0.3339448 -0.41233775 -0.5762304 -1.0116965
0.5429403 0.12997296 0.2144952 0.10113783 -0.45928305 0.052198768 -0.061436035 0.35479617
0.102572404 -0.20451388 -0.28008813 0.0745697 0.06534696 -0.19132878 0.19913095 -0.09178209
-0.22782075 -0.42830324 0.4730762 0.22289336 0.56067306 0.13510484 -0.04033041 0.24572381
0.303142 0.028150765 -0.037654474 -0.18907282 -0.32363427 -0.46673426 -0.4302476 -0.14335135
-0.6234833 -0.06383575 -0.1892755 -0.445798 0.3571748 -0.14693187 -0.19170922 -0.24417008
-0.28256255 -0.32871723 -0.17426461 0.21420963 0.09777142 0.15900542 -0.20471504 -0.0678799
0.30008286 0.1332021 0.20805302 0.3870643 0.36434487 0.89762574 0.35432583 0.07703743
0.019071756 -0.22795281 0.26088962 -0.69274867 -0.6569429 -0.12240202 -0.024807952 0.1499823
0.18779802 0.20902938 -0.055031564 0.25198305 0.37919918 -0.025660662 -0.14936261 0.18523392
0.06720523 0.3158817 -0.029942045 0.4182958 0.34187114 0.55088264 0.4194825 -0.37804222
0.33777037 0.57641584 -0.13763309 -0.15329075 -0.4676321 0.114660226 -0.20754428 -0.3721225
-0.38639265 -0.2590852 0.3340851 0.5561716 0.4086546 0.40663052 0.16350798 0.27472562
00000000: c6c9 3abe 456d a9be 099c 6bbf b7ec a3be
00000010: 6d59 abbe 3ac4 923d e5ba 7ebe 2260 d8be
00000020: 03a8 a3be 0c58 363d aec9 97bd 84ef 87bb
00000030: 7e34 16be e2cc 493e 24f8 6d3e 2937 4e3e
00000040: 726d 8ebe 7d05 2abb afe2 dd3e 14d4 4d3f
00000050: 02f5 b13b 6e87 e5bd f6f4 a5bd 5b09 913e
00000060: 7560 3d3e 412c b8be 97c1 f0be 5351 afbe
00000070: a6d0 d1be 0bcb 1cbf 6810 e5bc d498 eb3e
00000080: eea7 a43e 6e2c a9be 6610 8bbe 46ac 16bd
00000090: 434b be3e 6fea e13d 2a3e df3d fb21 d53e
000000a0: 1e06 273e f0bb 00bf dd9b 633e 9d62 903e
000000b0: baba b2bd 50d1 293e a57c 353e b18a 8f3e
000000c0: 400b 693e ed56 983e e306 92be a5e1 72be
000000d0: 988a c6be 6cca fdbe 3ff5 a1be 8bcf 143d
000000e0: 5fef a43e 30ed b83e 4637 e8be a033 31bd
000000f0: dee6 193d 0258 cc3d 24e8 27be 3622 1c3f
00000100: 79a5 3c3e 0e5e 9bbe d050 e4be d0ad 87be
00000110: 511c 033f 4c61 a33e 2b19 99bd 947c 98be
00000120: 8f51 28be c212 ba3e 4626 d53e 08ce 20be
00000130: 1d4c 54be 7cb7 e93c 409a 0b3f 10b6 0f3e
00000140: 4bd6 51bd ec71 77be 6f11 89bd 6513 a93e
00000150: 6fbe f73e 543b b83e 8201 d8bd 0f27 bdbc
00000160: edf7 aebe a64b aa3c f845 5cbe 85a9 ee3d
00000170: 58eb 4f3e 1b03 94be 4bba 96bd fd2b 8c3d
00000180: de4a 413f b717 9d3d 9b20 dc3d 9cf0 67be
00000190: f313 ca3e ab76 e2bc 75e5 6d3e 8a04 963e
000001a0: 6b7a a1bd ef66 193e b183 9a3e c36b 5b3f
000001b0: a1a0 1f3f 0861 88bc 34c6 03bf 2725 d1bd
000001c0: 3c8a 93bd d598 eebe 703c 92be f69e 7d3e
000001d0: c196 523e c9ea afbe c78a 88be 06ae 1bbe
000001e0: e8d7 b33e a7cb f33e 6c43 a13e 8c23 c3bd
000001f0: 0d3b e3bd e330 82be 0abf edbe 0ba6 f4be
00000200: 9152 f23d 34f7 893e 3d26 69be 88c7 e1bd
00000210: 48df 203d c9d2 04bf 52aa eb3d 3d98 5b3e
00000220: 311b b33d fe41 243d 2f31 bc3c 9985 0dbe
00000230: 4a61 1dbf 8ec6 0fbf 5a7c 003c 1a40 8bbd
00000240: 540a 85bf 3404 803e 52e7 a63e 35cb 893d
00000250: 2b07 a3bd f8c1 1cbf e220 05bf 980b 24bf
00000260: 5e2c 76bf cc23 42bf 885a 0cbf 54ca 2d3e
00000270: d0fa aabe ef1d d3be d683 13bf 457f 81bf
00000280: 23fe 0a3f a217 053e a1a4 5b3e 5a21 cf3d
00000290: 2627 ebbe 60ce 553d 5aa4 7bbd d8a7 b53e
000002a0: 7b11 d23d 166c 51be b667 8fbe 00b8 983d
000002b0: a1d4 853d b1eb 43be fce8 4b3e 40f8 bbbd
000002c0: d849 69be 904a dbbe 0b37 f23e 283e 643e
000002d0: 4588 0f3f ec58 0a3e 8031 25bd 069f 7b3e
000002e0: 6e35 9b3e 6f9c e63c 943b 1abd 4e9c 41be
000002f0: 64b3 a5be cbf7 eebe 6a49 dcbe b2ca 12be
00000300: 9a9c 1fbf 51bc 82bd 70d1 41be a33f e4be
00000310: 9edf b63e 4f75 16be 6c4f 44be b907 7abe
00000320: 0aac 90be a04d a8be 6c72 32be c559 5b3e
00000330: 623c c83d 51d2 223e d2a0 51be 9e04 8bbd
00000340: 76a4 993e 2266 083e da0b 553e 4b2d c63e
00000350: 698b ba3e cdca 653f 326a b53e cdc5 9d3d
00000360: 5f3c 9c3c 766c 69be 5393 853e fa57 31bf
00000370: 692d 28bf e9ad fabd 0c3a cbbc f694 193e
00000380: 204e 403e cc0b 563e c768 61bd ec03 813e
00000390: 6526 c23e 4f36 d2bc 83f2 18be f6ad 3d3e
000003a0: e5a2 893d 3fbb a13e 0549 f5bc de2a d63e
000003b0: bc09 af3e a506 0d3f 69c6 d63e c08e c1be
000003c0: 3df0 ac3e fd8f 133f b0ef 0cbe 40f8 1cbe
000003d0: 7a6d efbe fbd2 ea3d 7d86 54be d786 bebe
000003e0: 42d5 c5be d1a6 84be 340d ab3e 4361 0e3f
000003f0: 2d3b d13e e031 d03e a36e 273e d6a8 8c3e

fc1.0.bias f4 [120]
-0.5286701 0.26098013 -0.52219254 -0.25544384 -0.7094094 -0.17706098 -0.4975398 -0.22695693
0.42047706 -0.39840108 -0.05920352 -0.71867776 -0.4779154 -0.43087342 -0.8010937 0.18584564
-0.4562354 0.06329093 -0.32236966 0.2642799 0.7721992 -0.2398996 -0.33879986 -0.11850744
-0.20811382 0.15836453 -0.29335895 0.3451532 0.57461655 0.07350833 0.43900296 -0.79240805
-0.74031913 -0.20001563 1.4725244 0.08726286 -0.7579956 0.18432155 -0.32868138 -0.3002444
0.5888631 0.12770772 0.3382533 -0.049758792 -0.4434091 -0.068014964 0.16564809 -0.40175858
-0.45870313 0.11361558 -0.037828423 0.21793494 -0.56149036 0.61621165 -0.34722543 -0.2845031
0.99763 0.78584206 0.031916868 -0.55536157 0.012266181 -0.0757613 0.4164872 -0.084171556
-0.13707617 0.66870236 -0.8759435 -0.09609161 -0.84022534 -0.6497432 0.41859162 0.24073866
-0.14551342 -0.27952594 -0.4825731 0.17666604 -0.7856309 0.71341497 0.2568895 -0.4839377
-0.15827684 -1.2253222 -0.9720563 0.97058654 -0.19273408 -0.5634178 0.99906486 -0.60555136
0.23898718 -0.119386256 0.43273297 -0.4472175 1.327909 0.19994596 -0.38645366 0.21576114
-0.16801858 -0.19345291 -0.6797868 0.9394289 -0.15530302 0.105088025 0.22606495 0.42589617
-1.143433 0.54594654 -0.26257065 -0.5935612 0.09255814 0.15439683 0.0750177 -0.009891173
0.6338881 0.5645707 -0.1541738 -0.30295226 0.4838987 -0.6456788 0.26687324 0.38444424
00000000: ec56 07bf 309f 853e 69ae 05bf 89c9 82be
00000010: db9b 35bf 794f 35be 89bd febe 6667 68be
00000020: c548 d73e 3afb cbbe 647f 72bd 44fb 37bf
00000030: 54b1 f4be 719b dcbe 7a14 4dbf 524e 3e3e
00000040: b097 e9be ad9e 813d a30d a5be b24f 873e
00000050: d9ae 453f 3ea8 75be 2d77 adbe 07b4 f2bd
00000060: ca1b 55be 502a 223e 2533 96be ecb7 b03e
00000070: 121a 133f 898b 963d ffc4 e03e 41db 4abf
00000080: 8e85 3dbf e6d0 4cbe ae7b bc3f dfb6 b23d
00000090: 000c 42bf cabe 3c3e ed48 a8be a2b9 99be
000000a0: bbbf 163f d0c5 023e 892f ad3e e0cf 4bbd
000000b0: 8406 e3be 6e4b 8bbd a79f 293e 4db3 cdbe
000000c0: 23db eabe 49af e83d faf1 1abd 562a 5f3e
000000d0: d5bd 0fbf 0cc0 1d3f 88c7 b1be 64aa 91be
000000e0: ae64 7f3f f22c 493f 43bb 023d 2d2c 0ebf
000000f0: 18f8 483c be28 9bbd cf3d d53e 2362 acbd
00000100: b25d 0cbe 1430 2b3f d53d 60bf aecb c4bd
00000110: 0219 57bf 9255 26bf a451 d63e 3284 763e
00000120: 7801 15be 061e 8fbe d213 f7be f1e7 343e
00000130: 1b1f 49bf 5da2 363f 0587 833e afc6 f7be
00000140: 5313 22be 5cd7 9cbf afd8 78bf 5c78 783f
00000150: 155c 45be 263c 10bf b7c2 7f3f 6a05 1bbf
00000160: 0eb9 743e c880 f4bd 2d8f dd3e b1f9 e4be
00000170: ecf8 a93f a2be 4c3e 41dd c5be 7df0 5c3e
00000180: 100d 2cbe 8518 46be 8206 2ebf 6a7e 703f
00000190: c107 1fbe 6438 d73d 927d 673e 100f da3e
000001a0: 035c 92bf 27c3 0b3f a96f 86be a0f3 17bf
000001b0: 1f8f bd3d 341a 1e3e e1a2 993d 960e 22bc
000001c0: 7e46 223f b587 103f bddf 1dbe 8f1c 9bbe
000001d0: 92c1 f73e 354b 25bf 9ca3 883e e0d5 c43e

fc2.0.weight f4 [84, 120]
0.15159607 0.03759305 -0.14309798 0.031587493 -0.44943908 -0.13626008 -0.054547157 0.64785916
0.3400886 -0.14948907 0.4385271 -0.113359265 0.09032768 -0.27112526 -0.15331644 0.8764983
0.36528537 1.251664 -0.4011758 0.15565464 -0.13054347 -0.03857563 -0.00015742153 -0.121864036
0.2664193 -0.5905938 -0.19381934 0.6469271 0.080995366 -0.85093594 -0.3540785 -0.55087715
0.29153806 -0.5702952 0.30172914 0.40873727 0.13440897 0.21271306 -0.65752935 0.15251526
0.2024632 -0.3900774 0.28243604 -0.5129626 0.51352787 0.18877895 -0.023844184 -0.16074657
0.15329243 0.18161017 0.26841685 -0.26129523 0.07586946 -0.1745813 0.38496935 -0.24623887
0.1838168 0.23783106 0.17879026 0.013240941 -0.38995868 0.11295484 0.22799467 -0.29891765
0.39037305 0.023149205 -0.33510235 -0.2290835 0.045510598 0.13769728 0.36948875 0.015596269
-0.5497206 0.19678135 -0.01619993 0.1029931 -0.058212765 -0.09970433 -0.17702962 -0.1899055
0.34358454 -0.31742615 0.09342795 -0.26790583 -0.051756166 0.18199955 0.12922962 0.10479274
-0.072487205 0.049168732 0.24549906 -0.33143732 0.20789571 0.29533663 -0.002820509 -0.32467702
-0.015948977 -0.28799388 0.3918994 -0.22968927 -0.51118374 -0.33062345 0.2730927 -0.3514894
0.2965305 -0.19160238 0.045102913 0.2831055 0.072103776 0.026290782 0.048343804 -0.5162065
0.038816597 -0.21990626 -0.111440994 -0.1989751 0.33552393 0.05506026 0.8808257 0.2084142
0.33666164 0.110689126 0.09278689 0.27314302 -0.28307205 0.10605405 0.3954874 0.017645793
-0.22737554 -0.1004929 0.7531881 0.2294231 1.0005082 0.24463858 0.46765104 -0.07081765
0.08057902 -0.11532287 -0.06345633 -0.21433882 -0.09223437 0.276302 -0.25658128 -0.33393946
-0.109246746 -0.16414498 0.05754074 0.40725863 0.26695 0.0019709242 0.071999796 0.051572494
0.12435037 -0.8813626 -0.07802628 -0.42199397 0.42265424 0.65657115 0.031228086 0.008953871
-0.27034292 -0.28190488 -0.14147979 0.057759155 0.095408216 0.40355498 -0.16367833 0.39169016
0.65032005 -0.19194312 0.093714565 -0.037525594 -0.1720648 -0.016188856 0.035468277 -0.22624253
-0.03276819 0.114874505 -0.040445395 -0.21191116 0.14595357 -0.3078177 5.284604e-05 0.30316806
-0.0027342874 -0.17969583 0.33922586 0.017845817 0.3360881 -0.050703365 -0.076559946 0.64611363
0.040063266 0.5832352 0.13194217 0.3613691 0.44742897 -0.54278094 -0.03910877 0.23535405
0.19550231 0.41790822 0.23472524 -0.3073609 0.63155186 -0.08644908 -0.38129306 0.17559369
-0.07630575 0.33975798 0.109805904 0.37239757 -0.30596858 -0.61465 -0.26615676 -0.1407384
-0.07470729 0.033467915 0.68460464 -0.5749576 -0.11231687 -0.3973449 -0.08736198 -0.1810551
0.4436842 -0.27504316 -0.037000813 -0.3621416 0.11039504 -0.2969065 -0.25980026 -0.1421066
0.22455946 -0.1852963 0.25806853 -0.04700787 -0.4103658 0.65553445 -0.05176966 0.28694844
0.6471611 0.55164135 0.27040532 0.15574667 -0.081708506 -0.21724573 0.5378905 0.4412095
0.24183223 0.29197618 0.10182809 -0.43949896 0.53184664 -0.11683975 -0.24575222 0.07571244
00000000: 003c 1b3e 2cfb 193d 4788 12be e361 013d
00000010: e11c e6be c387 0bbe d76c 5fbd 19da 253f
00000020: 1820 ae3e aa13 19be a086 e03e e728 e8bd
00000030: b8fd b83d eed0 8abe fcfe 1cbe 3162 603f
00000040: af06 bb3e 8736 a03f ea66 cdbe ee63 1f3e
00000050: 30ad 05be 7b01 1ebd 8511 25b9 da93 f9bd
00000060: 1c68 883e 2831 17bf 9478 46be 049d 253f
00000070: e6e0 a53d f0d6 59bf c749 b5be 4906 0dbf
00000080: 7a44 953e defe 11bf 3e7c 9a3e 0346 d13e
00000090: 81a2 093e 74d1 593e d853 28bf f62c 1c3e
000000a0: 8352 4f3e 3ab8 c7be 759b 903e 8451 03bf
000000b0: 9076 033f 454f 413e e154 c3bc c09a 24be
000000c0: b1f8 1c3e 04f8 393e ef6d 893e 7dc8 85be
000000d0: 7361 9b3d 71c5 32be b41a c53e 0b26 7cbe
000000e0: 793a 3c3e fc89 733e cb14 373e 88f0 583c
000000f0: aaa8 c7be de54 e73d 6f77 693e bc0b 99be
00000100: fade c73e 67a3 bd3c 8992 abbe dd94 6abe
00000110: 5269 3a3d 8400 0d3e a12d bd3e 7e87 7f3c
00000120: 7dba 0cbf 0d81 493e b7b5 84bc 0cee d23d
00000130: 8270 6ebd c931 ccbd 4147 35be 9676 42be
00000140: 50ea af3e ae85 a2be 2757 bf3d f42a 89be
00000150: 46fe 53bd 175e 3a3e c554 043e 939d d63d
00000160: 2c74 94bd 2765 493d 1b64 7b3e 27b2 a9be
00000170: 9de2 543e 5d36 973e 4ad8 38bb 113c a6be
00000180: 6ea7 82bc ef73 93be 0aa7 c83e aa33 6bbe
00000190: f0dc 02bf 7a47 a9be ced2 8b3e 6bf6 b3be
000001a0: d8d2 973e 6a33 44be d5bd 383d 34f3 903e
000001b0: 25ab 933d c45f d73c 2704 463d 1c26 04bf
000001c0: 27fe 1e3d 1b2f 61be 2d3b e4bd 21c0 4bbe
000001d0: cbc9 ab3e de86 613d cb7d 613f 886a 553e
000001e0: ea5e ac3e fbb0 e23d 0e07 be3d 67d9 8b3e
000001f0: d2ee 90be de32 d93d 537d ca3e e98d 903c
00000200: 22d5 68be 39cf cdbd efd0 403f e4ed 6a3e
00000210: a710 803f 8982 7a3e f56f ef3e d808 91bd
00000220: 9d06 a53d 662e ecbd 64f5 81bd a37b 5bbe
00000230: 60e5 bcbd 7577 8d3e 9f5e 83be 1dfa aabe
00000240: c2bc dfbd 9f15 28be d7af 6b3d 3484 d03e
00000250: acad 883e 9f2a 013b a174 933d ae3d 533d
00000260: 68ab fe3d fba0 61bf 3ecc 9fbd 980f d8be
00000270: 2366 d83e 0c15 283f 0bd2 ff3c 42b3 123c
00000280: 636a 8abe d655 90be 14e0 10be dd94 6c3d
00000290: 6265 c33d c29e ce3e 4b9b 27be 9d8b c83e
000002a0: 607b 263f bd8c 44be 6ced bf3d 70b4 19bd
000002b0: c131 30be 7e9e 84bc 2f47 113d 1fac 67be
000002c0: f037 06bd 5343 eb3d 12aa 25bd 3dff 58be
000002d0: da74 153e 489a 9dbe 01a7 5d38 d838 9b3e
000002e0: bb31 33bb 2f02 38be 03af ad3e 6431 923c
000002f0: bd13 ac3e 55ae 4fbd 76cb 9cbd b467 253f
00000300: 6119 243d e74e 153f d91b 073e 5f05 b93e
00000310: 6915 e53e b1f3 0abf 8530 20bd a700 713e
00000320: c231 483e 11f8 d53e d05b 703e 685e 9dbe
00000330: 62ad 213f 370c b1bd d838 c3be d5ce 333e
00000340: 3046 9cbd c2f4 ad3e ebe1 e03d e5aa be3e
00000350: eaa7 9cbe b459 1dbf b345 88be ba1d 10be
00000360: 2300 99bd a715 093d 4042 2f3f 6c30 13bf
00000370: 6306 e6bd ca70 cbbe d6ea b2bd 8266 39be
00000380: 932a e33e 75d2 8cbe 2a8e 17bd a06a b9be
00000390: cb16 e23d 2104 98be 8a04 85be 6484 11be
000003a0: eaf2 653e 50be 3dbe 8f21 843e 538b 40bd
000003b0: 771b d2be 1bd1 273f 6c0c 54bd e8ea 923e
000003c0: 5aac 253f 5e38 0d3f 9172 8a3e 0e7c 1f3e
000003d0: ca56 a7bd aa75 5ebe 31b3 093f 36e6 e13e
000003e0: dea2 773e e77d 953e 3f8b d03d 0206 e1be
000003f0: 1a27 083f ae49 efbd 78a6 7bbe 200f 9b3d

fc2.0.bias f4 [84]
-0.14973983 -1.0537983 -0.65480155 0.2308031 -0.31193337 -0.51821464 0.37356246 -0.54050255
0.22785018 -0.9644222 0.6402739 0.41045272 -0.028817523 0.8631426 0.05922031 -0.057064645
-0.319539 -0.8354255 -0.43145615 0.15217714 -0.062035777 0.56533635 0.1649057 0.34077662
-0.49179462 1.0530784 0.34654212 0.34009367 0.44695827 -0.2449088 0.78254855 0.2713073
0.16844165 0.22986251 -0.5028955 -0.10372844 0.18778665 -0.7552669 -1.2310572 0.20418549
0.06757766 0.97139364 -0.5294625 0.6662891 -0.23825392 0.5369768 0.1681954 0.19303027
-0.7293546 -0.4130645 -0.10589659 0.81749326 0.4140244 0.31551337 -0.20848499 0.1677068
-0.6133312 0.63334495 -0.5333734 -0.4741214 0.98146987 -0.35752034 0.46078408 -0.077407576
0.34006765 -0.14135213 0.4976187 -0.46173277 0.3926273 -0.23389441 -0.74863714 -0.65647376
-1.0532626 -0.019472048 -0.71489346 -0.39291304 1.6074424 0.55216014 0.48586947 0.14412259
-0.53703636 -0.5068852 0.24160528 0.35878572
00000000: 6655 19be dde2 86bf 13a1 27bf a657 6c3e
00000010: bbb5 9fbe b7a9 04bf 9443 bf3e 605e 0abf
00000020: 8f51 693e 60e4 76bf fee8 233f dc26 d23e
00000030: ba12 ecbc eaf6 5c3f ff90 723d 9ebc 69bd
00000040: 9e9a a3be 72de 55bf d2e7 dcbe 53d4 1b3e
00000050: 3a19 7ebd e2b9 103f 0add 283e 467a ae3e
00000060: 81cc fbbe 46cb 863f f86d b13e c220 ae3e
00000070: b7d7 e43e 5fc9 7abe 1a55 483f cae8 8a3e
00000080: f87b 2c3e 1461 6b3e c2bd 00bf 946f d4bd
00000090: 254b 403e 2c59 41bf 4893 9dbf 0016 513e
000000a0: 2866 8a3d 41ad 783f db8a 07bf ec91 2a3f
000000b0: d6f8 73be 5077 093f 6a3b 2c3e baa9 453e
000000c0: fcb6 3abf 317d d3be 50e0 d8bd 3d47 513f
000000d0: 02fb d33e f88a a13e 177d 55be 55bb 2b3e
000000e0: 4603 1dbf e522 223f 298b 08bf 0ac0 f2be
000000f0: 9c41 7b3f e80c b7be e4eb eb3e dd87 9ebd
00000100: 591d ae3e 9dbe 10be e1c7 fe3e 3d68 ecbe
00000110: 7206 c93e 0482 6fbe afa6 3fbf aa0e 28bf
00000120: 4fd1 86bf d883 9fbc 4203 37bf e62b c9be
00000130: acc0 cd3f 5e5a 0d3f e2c3 f83e df94 133e
00000140: 377b 09bf 3ac3 01bf 6067 773e c3b2 b73e

fc3.0.weight f4 [10, 84]
-0.13474332 0.06934295 -0.23761652 -0.062402874 0.16026472 0.23269439 0.26643002 -0.21383792
-0.097362116 -0.07052482 0.3697629 -0.22398284 -0.21359187 -0.11718148 -0.06496855 0.07139837
-0.40406966 0.29243526 0.15822108 -0.44135162 -0.30736125 0.29266936 0.26886648 0.045006473
0.15610497 -0.16993248 -0.16662669 0.16116947 0.052614875 0.22645853 0.13215616 0.0006475003
-0.13698006 -0.15604432 0.32660735 0.52661145 -0.255713 -0.10883324 0.39666095 0.32078308
-0.2119796 -0.1282118 -0.15577215 -0.1883923 -0.12502864 -0.36314872 -0.06636905 0.18868642
-0.07350661 0.10660036 -0.02956146 0.2845554 0.36797896 0.2058761 0.27497855 0.049622472
0.3011481 -0.00026065594 -0.2129898 -0.021738093 -0.22928733 -0.24594477 0.13833821 -0.29190758
-0.17361252 0.13734536 0.24905024 0.1565452 0.23132063 0.010751281 0.28468427 0.33918074
-0.044511627 0.061627038 0.024371125 -0.14601092 0.12680274 0.102297254 0.021946372 0.22158313
-0.3817514 0.018648563 -0.039571576 0.009351529 0.031594507 -0.26872826 -0.13872871 0.3043444
-0.023217829 -0.10699166 0.14590697 0.0029062743 0.2331877 -0.34259847 0.2817451 -0.040051196
-0.19138984 0.15749693 -0.2994023 -0.056496773 -0.33593342 0.10143112 -0.063709065 -0.27821875
-0.2343432 -0.09535394 0.2364799 -0.11276868 0.005740594 -0.19259074 0.13953078 0.13544412
-0.3626059 -0.13343114 0.36171043 0.24679735 -0.12027872 0.16024442 0.20178339 0.45627397
0.09371025 0.00855377 0.140496 -0.107116945 0.110021286 0.22518714 0.20921122 0.21029016
-0.18324605 -0.15401398 -0.20568265 0.25512227 -0.15581706 0.104780115 -0.084198706 0.19435275
-0.09143805 0.07650496 -0.08308699 0.056483917 -0.05623699 0.18074435 -0.31263825 0.04016074
-0.07099337 -0.11329748 -0.2885682 0.021807143 -0.1507392 -0.01611694 0.057486665 -0.009576399
-0.15776956 -0.0121051455 -0.14602093 -0.13731626 -0.195954 0.1715945 -0.24826016 -0.42928526
0.06465767 0.2984726 0.1582801 0.02874139 -0.20073344 -0.40813118 0.1891563 0.17919433
0.19319363 -0.19188268 -0.11325584 0.108236805 0.008465367 -0.040854245 0.30722806 -0.09788904
0.10933261 -0.30818313 -0.035850797 -0.1865192 -0.26635125 -0.043170586 -0.055696674 0.043775644
-0.2648705 0.30177352 -0.050633077 -0.035797417 0.19485271 0.30634347 -0.04970264 -0.2613201
-0.16896024 -0.08357989 -0.14946854 -0.11638736 -0.23180464 0.34721833 -0.04755007 0.056208134
-0.16683139 0.016604258 -0.09903542 0.065912075 -0.1967327 -0.18222535 -0.001251886 0.009230278
-0.18254834 -0.12464014 0.005105617 -0.23352586 -0.08589586 -0.052644044 -0.0720352 -0.0023271595
-0.22278441 -0.22147736 -0.07432732 0.14215949 0.12632136 0.05241526 -0.011593004 0.22976024
0.19712953 0.17189793 -0.12909032 0.0077297045 0.24715713 -0.14077763 -0.28226382 -0.11968775
-0.23401281 -0.094892725 -0.16365395 0.17278163 0.0721238 0.3344049 0.03398259 0.1372762
-0.33135667 -0.08574925 -0.22653967 -0.3332461 0.16217759 0.19273666 -0.15587948 -0.094994806
-0.22032192 -0.19518547 -0.059999462 0.09358283 0.2617393 0.13486302 0.10875527 -0.031929187
00000000: 27fa 09be ad03 8e3d bf51 73be 289a 7fbd
00000010: 6f1c 243e 7047 6e3e 8469 883e 54f8 5abe
00000020: ca65 c7bd 516f 90bd 9051 bd3e c25b 65be
00000030: d4b7 5abe d8fc efbd 3b0e 85bd 4f39 923d
00000040: 38e2 cebe 13ba 953e b504 223e d7f8 e1be
00000050: 745e 9dbe c2d8 953e dea8 893e b558 383d
00000060: fbd9 1f3e c802 2ebe 30a0 2abe 9c09 253e
00000070: b282 573d bfe4 673e f253 073e 02bd 293a
00000080: 8044 0cbe 15ca 1fbe 1439 a73e 02d0 063f
00000090: d0ec 82be f6e3 debd 2517 cb3e ae3d a43e
000000a0: 2e11 59be f449 03be bc82 1fbe e9e9 40be
000000b0: 8207 00be a1ee b9be 7fec 87bd 0337 413e
000000c0: a28a 96bd 4a51 da3d e02a f2bc 3fb1 913e
000000d0: bd67 bc3e 2fd1 523e fdc9 8c3e ef40 4b3d
000000e0: 1530 9a3e a6a8 88b9 001a 5abe 1614 b2bc
000000f0: 4cca 6abe f2d8 7bbe 88a8 0d3e e974 95be
00000100: 7bc7 31be 43a4 0c3e 0707 7f3e 634d 203e
00000110: 51df 6c3e 2426 303c 23c2 913e 19a9 ad3e
00000120: d351 36bd a26c 7c3d f4a5 c73c e383 15be
00000130: 94d8 013e 3981 d13d e1c8 b33c b0e6 623e
00000140: eb74 c3be dfc4 983c ce15 22bd 2837 193c
00000150: 3e69 013d c096 89be e60e 0ebe 07d3 9b3e
00000160: 5133 bebc 721e dbbd a368 153e 3177 3e3b
00000170: c2c8 6e3e 1169 afbe e540 903e b90c 24bd
00000180: b3fb 43be e046 213e 424b 99be 2969 67bd
00000190: 77ff abbe 1ebb cf3d e679 82bd b072 8ebe
000001a0: aaf7 6fbe ed48 c3bd c927 723e 44f3 e6bd
000001b0: 981b bc3b 8236 45be 28e1 0e3e ddb1 0a3e
000001c0: 7ba7 b9be 2ca2 08be 1c32 b93e 72b8 7c3e
000001d0: b154 f6bd 1d17 243e 4ea0 4e3e be9c e93e
000001e0: 29eb bf3d 1d25 0c3c 2fde 0f3e 2160 dbbd
000001f0: d752 e13d 7597 663e 773b 563e 4e56 573e
00000200: daa4 3bbe d7b5 1dbe 799e 52be 639f 823e
00000210: 828e 1fbe f596 d63d 5f70 acbd 6804 473e
00000220: df43 bbbd a2ae 9c3d 8329 aabd ae5b 673d
00000230: c258 66bd 0c15 393e 1f12 a0be 977f 243d
00000240: f964 91bd 8208 e8bd 36bf 93be e5a4 b23c
00000250: 605b 1abe ac07 84bc 2377 6b3d 54e6 1cbc
00000260: 588e 21be a954 46bc 8386 15be a29c 0cbe
00000270: 2aa8 48be 78b6 2f3e e937 7ebe 47cb dbbe
00000280: 3e6b 843d 67d1 983e 2e14 223e 1073 eb3c
00000290: 118d 4dbe 92f6 d0be 30b2 413e b87e 373e
000002a0: 8dd4 453e e57c 44be aef2 e7bd 42ab dd3d
000002b0: 53b2 0a3c c856 27bd ff4c 9d3e 0d7a c8bd
000002c0: c7e9 df3d 2eca 9dbe 49d8 12bd e4fe 3ebe
000002d0: 315f 88be a4d3 30bd 3222 64bd 174e 333d
000002e0: 1b9d 87be 0f82 9a3e a164 4fbd 50a0 12bd
000002f0: 7887 473e 0dd9 9c3e ff94 4bbd c0cb 85be
00000300: ea03 2dbe ef2b abbd 480e 19be 7f5c eebd
00000310: 325e 6dbe 9ac6 b13e ddc3 42bd 803a 663d
00000320: d9d5 2abe a705 883c 15d3 cabd e9fc 863d
00000330: 4c74 49be 4899 3abe 5316 a4ba 983a 173c
00000340: f4ed 3abe 5443 ffbd 054d a73b 6721 6fbe
00000350: 2bea afbd 48a1 57bd 3187 93bd 4283 18bb
00000360: 9921 64be f6ca 62be ec38 98bd 4292 113e
00000370: 635a 013e 62b1 563d 95f0 3dbc 4546 6b3e
00000380: 53dc 493e 0306 303e 4130 04be 7649 fd3b
00000390: c216 7d3e 0328 10be e284 90be da1e f5bd
000003a0: 0ea1 6fbe 1e57 c2bd e794 27be abed 303e
000003b0: a5b5 933d 1e37 ab3e 5431 0b3d 2292 0c3e
000003c0: 95a7 a9be 4e9d afbd 04fa 67be 3c9f aabe
000003d0: e211 263e c25c 453e df9e 1fbe a38c c2bd
000003e0: 129c 61be b3de 47be ffc1 75bd 5ba8 bf3d
000003f0: b202 863e 8819 0a3e 15bb de3d 2ec8 02bd

fc3.0.bias f4 [10]
-1.0601047 -0.22943632 0.010990346 -0.8205915 -0.087211505 0.033754095 -0.9796554 0.23194578
0.25309768 -0.06345807
00000000: 83b1 87bf 5bf1 6abe da10 343c 4912 52bf
00000010: f29b b2bd bc41 0a3d b2ca 7abf 3283 6d3e
00000020: 0596 813e 4ef6 81bd
