save_checkpoints/LeNet5_epoch_7.pth (torch, 249863 bytes, 10 tensors)

conv1.0.weight f4 [6, 1, 5, 5]
00000000: 1c24 6abd 4a2c 523d 0bde 0cbe 8d46 303a
00000010: a67e a93e fc85 88be c909 88be 2126 02bd
00000020: b251 ef3d 8814 8f3d bd77 103e 1677 283b
00000030: 5838 1c3c 031c 1a3e 3c87 0d3e f9e8 b0bd
00000040: e637 c239 6d7c 043e be86 a13e bf44 9abd
00000050: 26c2 263d aee8 073d af63 e53c ffb9 583e
00000060: 2bd5 edbd 3635 b6bc 72d3 d73d 27bf a03d
00000070: 9aa9 163d f4a0 30bd be12 04be 2039 afbe
00000080: e816 8dbe a9e7 7bbe 8da5 2cbe 69f3 4dbe
00000090: 2b8a 19bd 6552 f1bd 314a c7bc 25ba 4fbe
000000a0: a3da e63c 530b c03d d515 963d 2571 223d
000000b0: 8fe4 643d d070 033d 2334 083d 5168 b8bb
000000c0: 9d78 3a3c f439 08b7 b9d9 e4bc a80e 95bb
000000d0: 3387 ba3d 7b6b d23d e26f 933b 949b 91bd
000000e0: e054 943e 259a c53d c85f fcbd bab0 d03d
000000f0: 24e9 57be 7034 263e cdd6 4fbd c4c2 97bd
00000100: b0e5 23bd 4d82 86bc db80 203e 605a 153d
00000110: 4c62 3dbd 7bac 13be 1f9b b3b9 ee09 a53e
00000120: 52a6 853c 7b6c 78bd 4201 0bbe 5bcf 103e
00000130: 88ec 303d 62a4 ca3d f60d 1c3d a656 953e
00000140: 66bc 21bd 5729 a5be 307f 5bbe 02cf babd
00000150: 1070 1cbc a12d 0bbe cf06 64be 84e1 d6ba
00000160: 1db6 513d 5369 a13d 1efd a8be 6a82 a7bd
00000170: 3c98 353d b79d 5a3e aa2e cbbd cdd3 c7be
00000180: b1e9 9d3d c1c0 a93d 8ed3 cabd 472c 963d
00000190: a0fe 9c3d 9ece a33c 235d 653d 24b3 6d3e
000001a0: 8b88 843d 9696 a3bd 00e1 d83d e788 a03c
000001b0: d64d abbc f63b ee3d aba3 053e 3715 3abe
000001c0: 91d5 0abc 7045 17be b546 7c3c 5126 c6be
000001d0: ca99 6dbe 2fdc 9bbe 9949 ea3b 9502 2fbe
000001e0: 7367 37bd f784 a0bd 7a90 ae3d 449d 843d
000001f0: edc5 e43c 95a2 e1be 30d6 7dbc d195 61be
00000200: be17 cdbb 6533 143d 6b27 61bd 9aa2 513d
00000210: f886 0bbd a70f 03be 4fef 24be 2fdd e7bd
00000220: ba21 30be 3f0f 52be d7c0 6f3e e6f5 8b3d
00000230: d378 573e ae84 85be c69b 92be 13ef 403c
00000240: 705e 953d fa42 263e 6408 8e3d 453d 83be
00000250: 974c 31be c501 03be
-0.057163343 0.05131177 -0.13756578 0.000672438 0.33104438 -0.26664722 -0.26569965 -0.031774644
0.11685504 0.06986338 0.14108177 0.0025705746 0.009534918 0.15049748 0.13821119 -0.08638186
0.0003704421 0.1293809 0.31548113 -0.075326435 0.040712498 0.033180885 0.028001634 0.21164702
-0.11612924 -0.02224217 0.10538377 0.078489594 0.03678284 -0.043122247 -0.12897775 -0.3422327
-0.2755654 -0.2460009 -0.16860028 -0.20112385 -0.037485283 -0.11783294 -0.02432737 -0.20285852
0.028180426 0.0937716 0.07328383 0.039658684 0.055882033 0.03209001 0.033252846 -0.00562767
0.0113812955 -8.119725e-06 -0.02793585 -0.0045488663 0.091078185 0.102744065 0.0044994215 -0.07109752
0.28971004 0.09648541 -0.12322956 0.10189958 -0.2108503 0.16230941 -0.05074196 -0.074101955
-0.04001397 -0.016419554 0.15674154 0.03646314 -0.04623632 -0.14421265 -0.00034257115 0.32234138
0.01631466 -0.06065033 -0.13574699 0.141416 0.043194324 0.09894635 0.03809925 0.2916767
-0.03948631 -0.32258102 -0.21435237 -0.09121515 -0.009548202 -0.13591625 -0.22268222 -0.0016394113
0.051199067 0.07881417 -0.33005613 -0.081791714 0.044334635 0.21349226 -0.0992101 -0.3902878
0.07710589 0.08288718 -0.09903632 0.07332664 0.07665753 0.019995984 0.055997025 0.23212868
0.06471356 -0.07987706 0.1058979 0.01959653 -0.020911139 0.116325304 0.13050716 -0.18172155
-0.00847377 -0.14772582 0.015397717 -0.38701108 -0.23203197 -0.30441424 0.007149887 -0.17090829
-0.04477639 -0.07837861 0.085236505 0.064753085 0.02792641 -0.44069353 -0.015492961 -0.22029807
-0.006258934 0.036181826 -0.054969233 0.05118046 -0.034064263 -0.1279894 -0.16106914 -0.11321484
-0.17200366 -0.20513628 0.23413406 0.06834011 0.21042185 -0.2607779 -0.2863447 0.01177575
0.07293403 0.16236487 0.06935194 -0.25632682 -0.17314373 -0.12793644

conv1.0.bias f4 [6]
00000000: e290 9ebe dfeb 63be 3896 213e a970 11be
00000010: 8129 19be 1d1d 0d3e
-0.30969912 -0.22257946 0.1577996 -0.14203133 -0.14957239 0.13780637

conv2.0.weight f4 [16, 6, 5, 5]
00000000: 4d26 373e f568 f33d f346 793c b7b2 fe3c
00000010: 33a6 5cbe 0fcc 973d 8469 d33d 0faa 1a3e
00000020: 58bd 0dbe 4fbc 5cbe d773 e0bd ed7e babc
00000030: eb38 e53d 95b3 ffbd b749 90be bc45 b2bd
00000040: d2ca 823d 94fb 8fbd 0741 4cbe 0283 f1bd
00000050: d002 e3bd 5150 1ebc f68b e1bd 7611 a5bd
00000060: d56a c7bd dd09 a03e 5552 913c 49eb d6bd
00000070: a58d 91bd 4520 0dbe f20c 353e 0dcb 693e
00000080: 7eff e73c 8a1e 54be 40e3 93bd 7ceb 233e
00000090: b30b 453e 443e b9bd 80e5 08be c11b 5abc
000000a0: 75e4 923d d7a7 e1bd 0873 4cbe 8403 d7bd
000000b0: 682d 193d 31d2 d5bd 09b8 52be 576e 8cbd
000000c0: c639 6e3e c814 adbc fd2d 10be 541e b4bd
000000d0: 4348 69bc e1b8 233e 91b4 93bd 0d39 2fbe
000000e0: 002f 4bbe a0c5 b5bd 679a c33d b372 57bd
000000f0: 4548 33be 983e 7ebe b2eb 8ebd c98f eb3c
00000100: 8d86 49be 6158 d2bd faf5 2cbe bd41 11bd
00000110: 686f 3abd 81a1 aebe 64af 98bd f7e2 a0bd
00000120: f72c 8dbd f7f9 b4bd 4cea 2fbe 4391 273e
00000130: 9605 643e 9b7e cabd 1763 90be 04b8 e6bd
00000140: c347 90bd dbed 503e 93df b1bc 347f 0fbd
00000150: 26f8 0fbd d199 47bd afa0 c63d 67d9 a83d
00000160: b30e b5bc 738c cc3d 0ff7 aebd 0bcf e5bc
00000170: 2988 3cbd a284 89bd d6cd 2f3e d938 26be
00000180: a084 003d 295e 9a3d 31f1 ccbd 775a 593d
00000190: b5e6 413e bfcc 103e 9978 af3d 1d2a 93be
000001a0: 0514 60be 8d2b f43d 8edd 4bbc 6415 29be
000001b0: 3573 01be 068b 85bc 5017 16bd b158 30be
000001c0: c8da 20be 3bae 4abd bc2b 223d fb1e 753d
000001d0: dc37 69be 8e5b 543c add1 2a3e a38e 583d
000001e0: bab4 83be 728c 7bbd ffe8 c43d 1977 d3bb
000001f0: 8600 09be 8f1b a03e 62a3 10bd cc4d c9bc
00000200: f286 65bc 66bb ee3c 93bb 9c3e 9569 973d
00000210: 1aae f23c a333 df3d 1620 b23d 4d5d a93d
00000220: aeea 7c3d 2899 d63d 616c b33d 49db 1fbd
00000230: 88d1 5c3d c40e 733d b70d 5ebd 5e7f 2b3d
00000240: edf2 483c 8889 253e 4c1a 6bbc b856 c5bb
00000250: 973c 593d 161c 133d 06c6 41bd 6182 9cbc
00000260: 78c1 a8bd d0a7 0fbe 049a ffbd 827e fdbd
00000270: b2c4 0dbe bc0f 24bd 06f4 d3bd 09e1 b3bd
00000280: 7b14 02be 7b3c 17be 8a24 b73c 7bb1 11be
00000290: 9424 80be 79a6 13be 4437 d13b cdda fcbd
000002a0: 5237 cdbd dfb7 28bc 454c 98bd df85 a3bc
000002b0: a12a a2bd 493a cbbd df7f a2bd 49bd 5ebe
000002c0: 70b0 a6bd 4dcc 0b3e 62ad e03d 267d 92bd
000002d0: a4c7 a23d e6ee 97bd bcd9 2b3e 2b48 653d
000002e0: 919b cdbc 5f60 8bbd 7aeb 6ebd 63e6 a4bd
000002f0: b737 4cbe ebf2 8ebd 5de7 fdbd ed58 1bbe
00000300: b16e 99be 8e5c 8abd c18e 813d ebbd 1cbd
00000310: 0c86 20be acd3 babd 014a 2a3e 84cd e23d
00000320: b317 47bd 599b af3d 302f 86bc 1aac 43be
00000330: 4225 d33c 774e 0cbe 0a4d cebd 9b8f 08be
00000340: 9329 183d af0f ec3b 9019 afbe be46 3bbe
00000350: 1079 15be d8f0 223d 63a9 24be 0455 a4be
00000360: 8c37 3abe b7d2 1fbe 1b55 e7bc f76e 6fbe
00000370: e107 2cbc 849c 99bd 9bbc 23be ea61 b03a
00000380: f668 0ebe ace6 b6bd 0068 f9bd 9f40 573d
00000390: 9cd5 103e b46c d63c 41ee cd3c 4fb5 9d3e
000003a0: d615 4c3e 4dda e33c e7ed 393c f16f 5c3e
000003b0: a73d 9d3e a168 9ebd eccb 5e3b e76d 8cbd
000003c0: a7c2 593e cb3c 723d 4350 303c 39ae eebd
000003d0: e981 0a3d 6089 443e bb6f 5e3d faeb 84bd
000003e0: 0f87 53be a4dc 9fbd 58f5 f1bc 0977 803e
000003f0: 823c 673e 57f8 033e c538 813d 0f41 e53c
0.17885704 0.11885253 0.0152146695 0.031091077 -0.21547775 0.07411968 0.1032286 0.15103935
-0.1384176 -0.21556209 -0.10959595 -0.022765601 0.11192497 -0.124854244 -0.2818124 -0.08704707
0.06386341 -0.070304066 -0.19946681 -0.11792566 -0.11084521 -0.009662704 -0.110130236 -0.08059971
-0.097371735 0.31257525 0.017739454 -0.10494096 -0.07107095 -0.13781841 0.1768072 0.22831364
0.02832007 -0.20714775 -0.07221079 0.16007799 0.19242744 -0.09045079 -0.13368797 -0.013312281
0.07172481 -0.11018341 -0.19965756 -0.104987174 0.03739682 -0.104404815 -0.20578016 -0.06856983
0.23264226 -0.021128073 -0.14080043 -0.08794847 -0.01423842 0.15988494 -0.07212175 -0.17111607
-0.19842148 -0.088755846 0.09550934 -0.05259962 -0.17508037 -0.24828565 -0.06978549 0.028755086
-0.19680233 -0.10270763 -0.16890708 -0.035463084 -0.0455164 -0.34107593 -0.07455328 -0.0785579
-0.06893342 -0.088367395 -0.17179221 0.16364007 0.22267756 -0.09887429 -0.282006 -0.11265567
-0.070449375 0.20403235 -0.021713054 -0.03503342 -0.035148762 -0.048730675 0.09698617 0.08244591
-0.022101736 0.09987726 -0.085432164 -0.028052827 -0.04602829 -0.06714751 0.17168364 -0.16232623
0.03137648 0.07537491 -0.10006941 0.05306479 0.18935664 0.14140604 0.08567924 -0.28743067
-0.21882637 0.11922369 -0.0124429595 -0.16512066 -0.12641604 -0.016301643 -0.036643326 -0.17221333
-0.15708458 -0.049482565 0.03959249 0.059844 -0.22775215 0.012961281 0.16681547 0.052870404
-0.2572382 -0.061413236 0.09614753 -0.0064534065 -0.13379106 0.31271026 -0.035312064 -0.02457323
-0.014009224 0.029142093 0.30611858 0.07393185 0.029624034 0.10898521 0.08697526 0.08269749
0.061747245 0.10478431 0.08760906 -0.039027486 0.053910762 0.059340253 -0.0542123 0.041869514
0.012264949 0.16165745 -0.014349531 -0.0060223006 0.0530363 0.035915457 -0.04730799 -0.019105138
-0.08240026 -0.14028859 -0.12480548 -0.12377645 -0.13844565 -0.040054068 -0.10349278 -0.087831564
-0.12703125 -0.14769165 0.02235629 -0.1422786 -0.25027907 -0.14418973 0.006384762 -0.123464204
-0.10020317 -0.010297745 -0.07436422 -0.019961296 -0.07918287 -0.099232264 -0.07934546 -0.21751894
-0.081391215 0.13652153 0.1097057 -0.071527764 0.07948235 -0.07418613 0.16782278 0.055977028
-0.025098594 -0.06805491 -0.058330037 -0.08051755 -0.19943129 -0.06979927 -0.12397645 -0.15170641
-0.29967263 -0.06755935 0.06326056 -0.038267057 -0.15676135 -0.091224045 0.16629793 0.11074355
-0.048606586 0.08574552 -0.016379923 -0.1910862 0.025774602 -0.13701807 -0.10073288 -0.13336031
0.037149023 0.007204018 -0.3419919 -0.18288705 -0.14596963 0.039780468 -0.16080241 -0.32096112
-0.18185252 -0.15607725 -0.028238824 -0.23382173 -0.010499925 -0.07500556 -0.15989916 0.0013456915
-0.13907227 -0.08930716 -0.121780396 0.05255186 0.14143986 0.02617488 0.025138022 0.3080239
0.19930205 0.027814055 0.011348224 0.21527077 0.307111 -0.077348 0.0033996059 -0.068569
0.2126566 0.059140008 0.010761323 -0.11654324 0.0338153 0.1919303 0.054305773 -0.064903215
-0.2065699 -0.07805756 -0.029535934 0.25090817 0.22581676 0.12887703 0.06309656 0.027985124

conv2.0.bias f4 [16]
00000000: 6009 3bbe eb59 7dbe a0ca 85be dda5 bcbe
00000010: 0494 07bf 8137 edbe d291 41be 3db3 77be
00000020: 852f b4be a41a febe e599 2abb a709 65be
00000030: 21d2 68be 7f4e dbbe 9890 e9be f928 f2bd
-0.18265295 -0.24741332 -0.26131153 -0.36845294 -0.5296023 -0.4633141 -0.18903282 -0.24189468
-0.35192505 -0.496297 -0.002603167 -0.22366963 -0.22736408 -0.42833325 -0.4561813 -0.11824221

fc1.0.weight f4 [120, 400]
00000000: 111d 0fbc 1b4a 3fbe e50c 47be 668f ecbd
00000010: 5ff1 10bc 0bfd d2bd 757d 70bb f477 a0bd
00000020: bfb9 47be e047 4a3c 053c ecbd fb93 18be
00000030: 0678 acbd a249 063d 67f6 19bb 1078 933d
00000040: cc44 96be e2d9 a039 51bf 033e d9d7 853e
00000050: e1ca edbd ae89 8abe f536 fc3d 3a8c 853d
00000060: d094 babd d185 653c fd38 c9bd 214c 13bd
00000070: eacc 72be 0259 41be 7bf5 19be 6940 3abd
00000080: e0ad bb3d 6f58 4e3b 992f 32bd 2ccf 18be
00000090: ddf0 90bb f7f9 cf3c b1d2 1c3d 4865 7f3e
000000a0: f59a aabc 7d7c a3be 257e 7cbd ffce d0bc
000000b0: 529d 90bd aead 33be 58c2 2d3d 05cc 55bd
000000c0: 48d2 c23d 1d13 543d 7c08 3bbd 2d52 babd
000000d0: 1194 a9bd 8f54 24be c6e9 863d cb3b efbc
000000e0: 240b 703c 6b8e 5e3d e69f 8ebc 2ed8 473d
000000f0: e6d9 313d 894f d1bd ff14 debd f628 a93d
00000100: 7d46 ee3d 939f fabd 39f9 06be 22d6 033d
00000110: 09e3 9a3d f7c4 643e 0643 36bc 3a80 8ebc
00000120: 627c abbd 2095 77bd 7d50 3e3e 0710 d03d
00000130: df0f ab3b dab6 bdbd 6c38 dc3d b493 993c
00000140: 0d97 b73d 8e6e e3bd d08d 0ebd 21fe f43d
00000150: 6fd1 9b3c 5cec 3e3e dc4a 2d3d c515 12be
00000160: 1d98 e7bc 47dc 92bc fb67 033e 3219 943e
00000170: 138d 54b9 6efc 04bd 2e24 e3bd 6588 8fbd
00000180: 6694 283e 4f61 09bd ca76 473d ad72 1cbe
00000190: 192e 943c be77 413c e89b 3a3d 5bea 6c3d
000001a0: db81 4cbd 9a0d b7bd dc20 ae3d 75c5 083e
000001b0: eee7 d0bc 2fae a2bd 8c3b e9bd 2591 383d
000001c0: ec07 eb3b cc96 9e3c d3b5 89be a8f7 d63d
000001d0: cc6d 4e3d 668b 3bbd 3940 aebe d90d 4ebe
000001e0: f8ab c23d 481f 873d f71b c53d 34fe cd3d
000001f0: 38e4 b7bb c3c6 e73c 6f4d acbd cd15 37bd
00000200: bfdf 223c 808c 783d 107c c93c a82d 123d
00000210: 9462 803d 8935 863d 842c 5dbd 9a94 db3d
00000220: 5553 583c f748 353d 8b30 a7bd 6f7f 42bd
00000230: 521a 11bd 45a4 60be b20f 12bd babd 693d
00000240: f191 59be b72a eebd 8fd0 133e c77d 723e
00000250: b1c7 d33d 8f02 77bd d35e 90bc eadd e8bd
00000260: 26f9 83be 15df a9be 3ab7 4dbe 520b bcbc
00000270: 282f ddbd 5cee 4ebd c5b0 14be 5d96 b7bb
00000280: d683 f93c 5f05 1d3d 5064 1cbd 2b02 7a3d
00000290: 0674 d43c c87a 7abd 38d2 f63c 2186 473e
000002a0: f396 023e c6e7 07bd 4cfb dfbd d9a6 123d
000002b0: ca92 783d 82a6 083d 93e6 34bd 1f94 963b
000002c0: 1902 11bd 511c 07be e298 1f3e a591 163d
000002d0: a071 59bd 7698 e73d 35fd 343d fd49 f53d
000002e0: 81dd f63c b0ee b9bd 1749 db3d 8a8a fe3d
000002f0: 586b ac3c 55ec 00be 7a25 8abd d2d1 5a3d
00000300: 53cd d2bd c958 d5bd dd59 04bd eedb bf3d
00000310: 5b83 003d c0ab a2bc e1e3 fc3d 87e6 103d
00000320: cc5b 453d e4d4 3abe 6e21 01be 32e7 2abb
00000330: ecfc 823e 4ab7 aa3c 3102 bebd ea64 bb3c
00000340: 18ed ca3d 8951 ad3d ab82 123d da98 993c
00000350: 4760 853d 754f 453e 3a0f 5e3e 9a59 d4bc
00000360: f266 6e3b 23ec bebc db1a 703d c25d e73c
00000370: ac75 9ebe 2af1 e4bd d8f7 1dbd 3e13 063e
00000380: 04eb f93d dbbe 87bd 12cf 643c 1c3f 5f3e
00000390: ff12 333e 480a d53d 56c6 89bd 258b 80bd
000003a0: 262e 1b3e 61ea c03d e090 d13c 8e2d 943e
000003b0: 9639 3c3e 33d2 843d 0c79 7e3d b5c5 3bbd
000003c0: 7949 a13b ccae 3e3e c45a d23d c3df c43d
000003d0: cf84 cfbd 61a5 13bd f0e3 633c 7a5b c2bc
000003e0: dfdb bd3b 3e79 073e 4874 bc3d 9713 cf3d
000003f0: cafc d43d 797e cc3d c4f2 78bd 5170 04bd
-0.008734957 -0.18680613 -0.19438513 -0.115507886 -0.00884661 -0.1030217 -0.0036695872 -0.07835379
-0.1950445 0.012346238 -0.11534885 -0.149002 -0.0842133 0.032785065 -0.0023492815 0.072006345
-0.29349363 0.00030679913 0.1286595 0.2614124 -0.11610962 -0.27058166 0.1231517 0.06520887
-0.09110415 0.014008955 -0.09825323 -0.035961274 -0.23710981 -0.1888161 -0.1503505 -0.045471583
0.091640234 0.0031485816 -0.043502424 -0.1492278 -0.0044232444 0.025387747 0.03828687 0.2494098
-0.020825842 -0.31930915 -0.06164374 -0.025489328 -0.070612565 -0.17546722 0.04242167 -0.05219652
0.09512764 0.05177604 -0.04566239 -0.09097705 -0.082801946 -0.16047882 0.065875575 -0.029203316
0.014651094 0.05433504 -0.01741023 0.04879015 0.043420695 -0.10220248 -0.108438484 0.08259766
0.11634538 -0.122374676 -0.13181008 0.032186635 0.07562835 0.22340761 -0.011124378 -0.017395128
-0.083733335 -0.06044495 0.18585391 0.10159307 0.005220398 -0.09263392 0.10752949 0.018747188
0.089643575 -0.11105071 -0.03480321 0.11962534 0.019020764 0.18644851 0.04230772 -0.14266117
-0.028270775 -0.017927302 0.12832634 0.28925472 -0.0002027045 -0.0324673 -0.11090885 -0.07008437
0.1646286 -0.033540066 0.04869727 -0.1527812 0.018088387 0.011808334 0.04555884 0.057840686
-0.049928527 -0.08938141 0.08502361 0.13356574 -0.025501218 -0.07943379 -0.11388311 0.045060296
0.007172575 0.019359015 -0.26896533 0.104964554 0.05039768 -0.045787238 -0.34033373 -0.2012247
0.09505457 0.06597763 0.096244745 0.10058251 -0.0056119226 0.02829302 -0.08413207 -0.044698525
0.009941041 0.060680866 0.02459529 0.035688072 0.06268802 0.0655318 -0.05399753 0.10721703
0.013203462 0.044259038 -0.08163556 -0.04748481 -0.03542549 -0.21937664 -0.0356595 0.057065703
-0.21247078 -0.11629241 0.14435028 0.23680793 0.103408225 -0.060305174 -0.01762334 -0.11370452
-0.25776023 -0.3317801 -0.20089427 -0.022954617 -0.1080001 -0.050520286 -0.14520557 -0.0056026415
0.030458372 0.0383352 -0.038181603 0.061037224 0.02593423 -0.06115225 0.030129537 0.1948476
0.12752895 -0.03318002 -0.10936603 0.03580365 0.060686864 0.03336192 -0.044165205 0.004595294
-0.03540239 -0.13194396 0.15585664 0.03675999 -0.053086877 0.113083765 0.04418679 0.11977003
0.030134918 -0.09078729 0.107073 0.12428768 0.02104728 -0.12590154 -0.06745429 0.053422756
-0.10293069 -0.10417325 -0.032312263 0.0936812 0.03137527 -0.019857287 0.12348152 0.035376098
0.048183247 -0.18245274 -0.12610409 -0.0026077745 0.2558359 0.020839352 -0.09277762 0.022875268
0.09908503 0.08462817 0.035769146 0.018749643 0.06512504 0.19268592 0.21685496 -0.025921632
0.0036377278 -0.023305958 0.05861936 0.02824295 -0.30949152 -0.11178811 -0.03856644 0.13093278
0.12203029 -0.066282 0.013965385 0.21801418 0.17487715 0.104023516 -0.06727283 -0.0627654
0.15154323 0.09419704 0.025581777 0.28941005 0.18381342 0.06485405 0.062127158 -0.045842845
0.0049220887 0.18621367 0.102712184 0.09612992 -0.10132753 -0.03604639 0.013909325 -0.02372526
0.005794033 0.13229844 0.092018664 0.10111158 0.10399778 0.0998506 -0.060778394 -0.032333676

fc1.0.bias f4 [120]
00000000: b40e 13bd cb62 42bc c4e0 79bc 4f29 87bd
00000010: 99d1 dfbd 6400 3a3d 2eab 24be 03ab ebbb
00000020: 6a56 91ba 76b0 b3bd 52cf 1c3b 53e3 06be
00000030: e805 9fbd d5ed 13be 466c 53be c901 03bd
00000040: a781 c2bd 85c8 00bd 1c78 dcbd f140 013d
00000050: eae6 133e c381 95bd f15c 1d3c ef64 e93c
00000060: 578c c13c 35ce 08bd eceb 61bd 7df6 88bd
00000070: e98f a33d 3d07 0dbb a7da 663d d52c 60be
00000080: b4bd 02be 00fb e7bc 7456 963e 5efb 643d
00000090: 39ff 5bbe ca12 b3bc 88b1 d9bd 63a7 223d
000000a0: 82c0 9d3d c507 693d bd29 443c 3a16 efbd
000000b0: 658b 0dbe 2e0f 95bc c2eb 473d da01 48be
000000c0: d274 33be 9b43 b43d 057c 813c c8fe a83c
000000d0: d576 58be e934 483e bbb4 2dbd ba95 61be
000000e0: 3629 833e 6eb6 bd3d 98b0 15bd 28b4 47bd
000000f0: 5ce6 d1bd 7007 8bbd 60ba e13d 2a45 3ebd
00000100: 4561 b33b c8b8 5b3d 2ebb 32be 3b5a 88bc
00000110: d250 80be 6960 16be f3a7 da3d 8f87 693d
00000120: 5dae 813c e52d e2bd d32c c2bd 79bd 433d
00000130: 1bb4 3abe 9f37 463e 5718 8bbd debc a1bd
00000140: aa90 82bc a81f 52be f6d3 08be c76e 3e3e
00000150: f1fd c3bd b000 06be fd5a 3c3e 6950 ebbd
00000160: 9034 063e 82f3 b4bd 4a3c 083e d706 08be
00000170: 0d1c 773e a895 103e e372 d3bd 3450 9e3d
00000180: 909f 3fbd 76c2 dd3d 0b4a 59be 5e25 f43d
00000190: 5732 a93a 3a35 0abd 66cd bb3b 202c fd3d
000001a0: 55d4 42be ab3e 273e 7c65 e6bd 9ad0 a3bd
000001b0: dc7e bdbd eab8 213e 4cbb e73c 4f63 9e3d
000001c0: 083d 333e b9cf d73d 43b0 a0bd 7c3f dcbd
000001d0: 2005 e9bc d568 28bd ac72 bf3d ab08 d93d
-0.035902694 -0.011864374 -0.015251342 -0.06599676 -0.109286495 0.04541053 -0.16080925 -0.007192017
-0.0011088375 -0.08773892 0.0023927283 -0.13172655 -0.077647984 -0.14446194 -0.20646772 -0.031984124
-0.094973855 -0.03144123 -0.107650965 0.031556074 0.14443555 -0.07300141 0.0096046785 0.028490512
0.02362649 -0.03339978 -0.055156633 -0.06687639 0.07986433 -0.0021519207 0.056360867 -0.21892102
-0.12767678 -0.028317928 0.29362833 0.055903785 -0.21484078 -0.021859545 -0.106295645 0.039710414
0.077027336 0.056892175 0.011972842 -0.11674161 -0.13822706 -0.018195715 0.04880882 -0.19531956
-0.17525032 0.08801957 0.015806207 0.020629302 -0.21139081 0.19551434 -0.042408686 -0.22029772
0.2561738 0.09263311 -0.036545366 -0.048755795 -0.10249016 -0.06788528 0.11021876 -0.04645268
0.005474242 0.053643018 -0.17454216 -0.016644588 -0.2506166 -0.14685215 0.10676565 0.057014044
0.015830213 -0.1104391 -0.09481206 0.047788117 -0.18232767 0.19357155 -0.06791752 -0.07897352
-0.015938122 -0.20519888 -0.13362107 0.18596946 -0.0956992 -0.130862 0.18394084 -0.114899464
0.13105989 -0.08835508 0.13304248 -0.13283859 0.24131794 0.1411959 -0.10324647 0.07730141
-0.04678303 0.10828106 -0.21219651 0.1192119 0.0012908679 -0.033742167 0.0057312725 0.12361932
-0.1902631 0.163325 -0.11249825 -0.07998772 -0.09252712 0.15793195 0.028287552 0.07733785
0.1750375 0.10537667 -0.07846119 -0.10754296 -0.028444827 -0.0411156 0.09348044 0.105973564

fc2.0.weight f4 [84, 120]
00000000: 305a 263d 3e50 84bc cd30 c2bd 16a0 163d
00000010: 3133 4ebe 0600 383d 76f6 54bd 9ba3 4f3e
00000020: a67f d53d 5b7c cb3d b9a9 a23e c8d8 2e3c
00000030: 82a6 d4bc 087f a2bd 7a93 d8bc 1731 8c3e
00000040: fad9 713d 88d6 863e 815f f3bd de88 ef3d
00000050: 51b8 91bd 57da 26bd 3d8d c43d 34ca fcbc
00000060: f47b 403e 424a 873c adc0 bdbd fb97 1e3e
00000070: a49e 6cbd 02f2 65be d9ef 1bbe fece 84bd
00000080: 14f0 943d bc0a 60be 3efb 90bd bd32 843d
00000090: 7fcc 413d 60a3 433d 85b7 59be 2c7b 993c
000000a0: d06d 22bd c2cb 0fbe 6cf3 093e b698 78be
000000b0: d50b 263e ee87 0e3e 4b04 e83d f44e a03d
000000c0: 7302 9e3d 2c1f d33d 3167 053e 81dd 4cbd
000000d0: 180f ad3d e04d 04be 148b df3d 5b82 0ebd
000000e0: 2829 893c 5016 843c 320a be3d c0e4 723c
000000f0: 3684 a63d f197 0c3d 8bdf b6bd cf7b 11bd
00000100: 78eb 463d e671 a0bb e09c 633b 59f8 fd3c
00000110: 4da2 93bc 038d b3bd 4638 d43d 4d46 083e
00000120: 702d 40be a48f 983d 2f17 453c 0b84 e73d
00000130: f9ff 2a3d 94d9 a8bc a18a d33c 00da 1bbe
00000140: e08c 093e ce0d b9bd b234 283d 961a 6dbd
00000150: 0dfb 0bbd 6f89 fb3d 6c71 713c f5d8 b5bd
00000160: 6ed4 963d 946e c2bd d228 f63d f4aa 20be
00000170: bc59 f03d b3de 04be 3c82 76be 91cb 0abe
00000180: ca14 053e b292 19be 5eac 7c3e 549a 95bb
00000190: e0bb a7bd b459 babd 2d07 08bd a4cd 7dbe
000001a0: 1f42 c23d 2138 3fbe a9d8 5fbd 94c3 5e3c
000001b0: 504d d33d 2dea 6a3d 95ee 29bd dd30 2dbd
000001c0: 1ee3 9f3d 97b2 6abd 9b6b 3cbe ae7a 0dbe
000001d0: 5644 f9bb 80c5 983d 5049 5e3e 4b27 1ebd
000001e0: 1fb7 753d 0b8d 30bd 9158 043e 8b2c ed3d
000001f0: 3524 64bd e190 753a 29d8 413e 3064 c93b
00000200: 306e 22be 689c e43d beeb 5e3e e32a e13d
00000210: ab93 c43d fdd2 633e d231 b43e dce6 07bd
00000220: d9f9 07bd 073f 803d 6142 ac3d 18fb a7bd
00000230: 9fb5 f0bd ed78 613d 0d23 50bd b9fb 84bd
00000240: 7bee 83bd 674d aabc 9608 1ebc 5945 253e
00000250: aca2 ac3c 15b0 753d 2841 cebd b386 5f3d
00000260: 4297 4c3e b600 2bbe f713 74bd 1c60 ae3b
00000270: ef0c a43d 8a9a 493e c152 033e a54b 61be
00000280: 26e1 69bd 8c36 b5bd 4525 a43d c0a1 cf3d
00000290: c420 e0bd 4a5f 163e 7dee c7bd f8c0 343c
000002a0: f678 343e 4a48 0dbe 7d8d a73d e323 223c
000002b0: 0171 993c ccf1 29be 1308 9d3c f931 1e3e
000002c0: 17f3 d43a 350d d23d 5cd4 11bd 5de8 203e
000002d0: edc6 613d 44b6 d1bd c27b ebbd f60d c93d
000002e0: 534c 973c 84a3 a3bd e2db c3b9 e2b9 efbb
000002f0: 2d11 f33d e7a4 c1bd 2dd7 bfbd edef 743e
00000300: f011 163d c0d1 2b3e dde0 9e3c bc9a bb3d
00000310: cf2c af3d 1a32 04be 4429 9f3d 0eb0 063e
00000320: 372f 5d3c f605 a63e 0453 bd3d 00e1 2abe
00000330: fc4e a93e 55d0 093e fa72 20be 6300 5cbd
00000340: 7aca 8dbc f2ba 26bd 9d92 99bd 19ba 583d
00000350: 13ec 0cbd 701f 4bbe b45b 48be 5438 f9bc
00000360: f77c 17bd a9b5 d2bd 6d40 1e3c f3ab 26be
00000370: 8faf 80bc 7834 8b3d 8441 98bc 3d48 e1bc
00000380: c17c d93d 0690 55be f8b8 123d 20e9 95bd
00000390: 19cc 5bbd 5a7b b6bd 42d3 e53d 290b 1fbe
000003a0: 4843 083d d7f1 4bbe 0261 8b3d aeeb 593e
000003b0: 30f7 06be 1a88 c23d e2a2 88bd ff3b 8f3d
000003c0: fe51 113e 5e1d 173e 8c3a 273c 0700 7c3d
000003d0: 14bb e23d 64ac 35be 10a8 fd3d 3c6f ba3c
000003e0: 8adc 493d 4f99 c2bc 9ab8 43bb a26b ecbd
000003f0: 3aff 973d 0654 b63d 1b16 ccbc b16c 56ba
0.040613353 -0.016151544 -0.09481964 0.036773764 -0.20136715 0.044921897 -0.051992856 0.20277254
0.10424738 0.09935828 0.31770113 0.010671802 -0.025958303 -0.079343855 -0.02643751 0.27381203
0.05904577 0.2633555 -0.1188345 0.11696027 -0.07115234 -0.04073557 0.095972516 -0.030858137
0.18797284 0.016514901 -0.092652656 0.15487663 -0.05776848 -0.224556 -0.15228213 -0.06484793
0.07272354 -0.21879095 -0.07079171 0.0645499 0.047314163 0.04776323 -0.21261413 0.01873549
-0.039655507 -0.14042571 0.13471764 -0.24277005 0.16215451 0.1391904 0.11328944 0.07827559
0.07715311 0.1030868 0.13027646 -0.05001593 0.084501445 -0.12920332 0.10915199 -0.034792285
0.016743258 0.01612392 0.09279288 0.014825046 0.08130686 0.03432459 -0.08929356 -0.035518464
0.048564404 -0.0048963903 0.0034730956 0.03100221 -0.018021727 -0.0876713 0.10362296 0.13308068
-0.18767333 0.07449272 0.012029453 0.11304482 0.04174802 -0.020611562 0.02582294 -0.15219879
0.13432646 -0.09035836 0.04106588 -0.057886682 -0.034174968 0.12282073 0.014736515 -0.08879272
0.073647365 -0.09493747 0.120195046 -0.15690213 0.117358655 -0.12975578 -0.24073118 -0.13554217
0.12996212 -0.14997366 0.24675128 -0.0045655165 -0.08190131 -0.09099141 -0.03320997 -0.24785477
0.09485268 -0.18673755 -0.054649983 0.013596434 0.103174806 0.057352234 -0.041487295 -0.042282928
0.07806991 -0.057299223 -0.18400423 -0.1381633 -0.007607023 0.07459545 0.21707654 -0.03861169
0.05998909 -0.04310326 0.1292441 0.115807615 -0.055698592 0.0009367597 0.18930115 0.0061459765
-0.15862346 0.111626446 0.21769616 0.10994508 0.09598478 0.22248454 0.3519426 -0.03317915
-0.033197258 0.062620215 0.08411098 -0.08202189 -0.117533915 0.055046964 -0.050814677 -0.06493325
-0.06441971 -0.020788861 -0.009645602 0.16139735 0.021073662 0.059982378 -0.10071021 0.05457182
0.19979575 -0.1669949 -0.059589352 0.0053215157 0.080102794 0.19687858 0.12824537 -0.22001512
-0.057099484 -0.088482946 0.08014921 0.10138273 -0.109437495 0.14684787 -0.09762285 0.011032335
0.17624268 -0.13797107 0.081812836 0.009896251 0.018730642 -0.16596144 0.01916889 0.1544875
0.0016246763 0.10256425 -0.035602912 0.1571364 0.05512135 -0.102398425 -0.11498214 0.09817116
0.018469011 -0.079901725 -0.00037357124 -0.00731586 0.118685104 -0.09455281 -0.093672134 0.2391965
0.0366382 0.16779232 0.019394333 0.091603726 0.085534684 -0.12909737 0.07771543 0.13153097
0.013500026 0.32426423 0.092443496 -0.16687393 0.33068073 0.13458379 -0.1566886 -0.053711306
-0.017308462 -0.04070563 -0.074986674 0.05291185 -0.034404825 -0.19836211 -0.19566232 -0.030422367
-0.03698441 -0.10288555 0.009658915 -0.16276531 -0.015708713 0.06797117 -0.018585928 -0.027500266
0.10619498 -0.20855722 0.03582093 -0.07319856 -0.05366144 -0.08910246 0.11221935 -0.15531601
0.03326729 -0.19916473 0.06805612 0.21281311 -0.13180232 0.094986156 -0.066716924 0.06993865
0.14191434 0.14757296 0.01020683 0.061523464 0.110708386 -0.17741543 0.12385571 0.022758119
0.049282588 -0.023754744 -0.002986467 -0.11543967 0.074217275 0.08902745 -0.024912884 -0.00081796484

fc2.0.bias f4 [84]
00000000: 51f5 08be 3765 3bbe b264 0ebe bd00 673d
00000010: 5952 22bd a21c 18be a6f8 2c3d c886 0abd
00000020: deaa f13c d776 8bbd b42e 8f3e 8e6f cabb
00000030: 9041 613d 8f7f ad3e da71 3abd e506 1a3d
00000040: e3db aebd 77e2 bebc 25b8 63bd 53c4 5c3b
00000050: 64cd ff39 c84a 083e 2b8a 913d 8274 063e
00000060: 9ad9 88bd 74d1 393e 33e6 b63d a1f5 163d
00000070: 6235 3c3d aa3a fc3c 971e 8f3e b0a8 de3d
00000080: a0cd 933d abc0 053e aaa6 1fbe 7b14 cabd
00000090: 4a99 18be e2e9 d8bd 523c 32be 20d0 1f3e
000000a0: 3c54 5eba 3d64 053e 0768 1fbe 167d 043e
000000b0: 8f94 35bd 8ad5 963d 3943 293e ec2a 1f3e
000000c0: 7772 1dbe 1dab b9bd ed0d 4dbd c267 1e3e
000000d0: 34d6 db3c c846 df3c ceb7 1fbd 9b8d afbc
000000e0: 5206 f9bc caa2 003e d95b 0dbe 6a01 d6bd
000000f0: 0753 733d 28f7 07be 3058 6e3e 0557 e73d
00000100: 5104 28bb f558 b53d e659 dc3d 150e ad3d
00000110: fd8b 773d 4b70 ea3d 58a0 f8bc f420 833b
00000120: aee4 89be fc56 db3c ed82 46be b1cc 02be
00000130: 4603 c33e 458a c9bc 390f 123e 6cc5 983d
00000140: 31ab 9abe d982 18be b02a 493d 9ee2 5dbe
-0.13374831 -0.18300329 -0.139056 0.05639719 -0.039629314 -0.14854673 0.042229317 -0.033819944
0.029500421 -0.06809776 0.2796532 -0.006177849 0.054994166 0.33886382 -0.045518734 0.03760423
-0.08538034 -0.023301346 -0.055595536 0.0033686354 0.00048790418 0.13309777 0.071064316 0.13130382
-0.06682129 0.18146306 0.08930626 0.036855344 0.045949347 0.030789692 0.27953026 0.10872018
0.07216954 0.13061778 -0.15590921 -0.098671876 -0.14902225 -0.105914846 -0.17405823 0.15606737
-0.000848118 0.13026519 -0.15567027 0.12938341 -0.04433113 0.07364948 0.1652955 0.15543717
-0.15375696 -0.090658404 -0.05006211 0.15469268 0.026835538 0.02725543 -0.03899365 -0.021429827
-0.030398522 0.12562099 -0.13804568 -0.104494885 0.059405353 -0.13277876 0.23275828 0.112958945
-0.0025637338 0.08854858 0.10759334 0.084499516 0.060436238 0.114471994 -0.030349895 0.004001731
-0.2693228 0.026774876 -0.19385882 -0.12773396 0.38088435 -0.024602065 0.1426362 0.0745953
-0.30208734 -0.14893664 0.049112976 -0.21668479

fc3.0.weight f4 [10, 84]
00000000: ffde cdbd 42d0 483e 90ee 15be 7b3d a0bd
00000010: 2ba8 2f3e 4d55 9e3e 45a0 82bd 6601 44be
00000020: ce40 85bd 06dc 34bc 971d f33d 482f e1bd
00000030: 81ae 30bc f240 30be e36f f23d caab c53d
00000040: 8bd8 87be a5e2 593e d766 223e d3d9 95be
00000050: 7530 3cbe 94d8 2d3e beb6 373e ee84 8c3d
00000060: 191c cc3d 9b15 0fbe 8f76 25be a43c 6d3e
00000070: 09c9 1d3e 1159 653e e815 2b3d 97cf be3c
00000080: 3275 04be a582 81be 60ab b53e b22d a83e
00000090: 96cb 24be 2d05 14be ea3e 5b3e 83d4 993d
000000a0: 6c42 63be 86fb 42be e460 27be f2c6 5cbe
000000b0: 6ad1 16be ae68 91be a942 33be 5cf0 f73d
000000c0: cf52 22bd baf2 303e 4656 993b f220 713e
000000d0: aab3 443e 49ec 9e3e 98e5 a23e 9265 9c3d
000000e0: 0a3f a63e 07fe 51bc 2376 18be bb1f 0b3e
000000f0: f4dd 4fbe 500c b4bc ebf2 e33d a31a 0dbd
00000100: 897c 083c f96f 233e baa6 e13d 2733 c33d
00000110: 37b0 363e 1a18 e2bd 0b94 933e b828 3f3e
00000120: 0798 853d 71a1 213e 4ae9 a43d b1ce 003e
00000130: ede6 0cbc 6f77 21bb fc9e 263e 53dc 083e
00000140: 6097 8fbe 53f3 0a3e 8250 8dbe 40dd 393e
00000150: 18eb 9dbd 1da2 6dbe 5baf ebbd e4e8 8e3e
00000160: 1835 4dbe 2172 87be f6d2 413d 529a b539
00000170: 5e44 5d3e 0990 a4be cb97 a23e 165e f23d
00000180: fe95 06be bddb 183e da88 72be 4765 7b3a
00000190: 706b 89be 8889 37be 5534 e1bd 28f3 12be
000001a0: 7f38 46be 162c 2ebe 8908 5e3e 6a9d 3f3d
000001b0: 875b 4a3d 5840 3abe 3e37 793e aaff e43d
000001c0: bc66 29be cac4 0dbe 23bb 5a3e 0df0 2b3e
000001d0: 56db 66be 1937 673d 5d86 903d d7a9 a63e
000001e0: c47b 723d fbc5 d33c dda7 043e 9be2 3fbe
000001f0: 5211 433e 481b 273e bc30 6a3e 3788 8c3e
00000200: 2735 12be a527 b23d 9c8f 41be 7eb5 713e
00000210: 67aa 47be 56c4 383c cea1 21be d336 253e
00000220: 9b33 61be 8ce7 63bd 8bd4 3dbb 3b3f fbbd
00000230: 4b15 013d ddf0 063e aa9e 18be 760b 243e
00000240: 6640 0fbe 0864 d9bd 1ea8 91be 2e75 0d3e
00000250: 4681 d0bd 5496 d6bd 3aac eb3d f847 f1bc
00000260: 523f 00be fb10 e1bd 6693 72be 9705 39be
00000270: 9520 02be 0f46 5d3e 8458 57be 7b21 aabe
00000280: 0123 233e bb9f 753e dd6c 4a3e a096 d7bc
00000290: 7ecb 623c 1107 38be 4794 823e acbe 3f3d
000002a0: 88d1 0d3e d66d e5bd d733 5dbe ecc8 a3bd
000002b0: 187e 09be 0717 4abd c59b 363e 83c9 ffbd
000002c0: 1ad1 fa3d f589 0cbe d869 dcbd 3dc6 54be
000002d0: 348b ecbd ee34 783c 6060 313e 2fb5 133e
000002e0: 4ae2 40bd 8eb5 8b3e fdd6 ccbd 3a61 7e3e
000002f0: 5b3c 793e 49de 553e 1bb3 1e3c a746 2dbe
00000300: 71c2 23be a126 ecbd cfe3 c4bd 88f8 e5bd
00000310: b38e 87bd 0088 7c3e 32b0 1ebe 6ebd fabd
00000320: 3ab2 0cbe 3f97 2bbd edd1 46be 6c78 b2bd
00000330: cf69 c0bd 778b 89be e238 2ebe 5f02 27be
00000340: 6ade 48bd f4f1 31be 5944 16be 772d 16bb
00000350: 7ec1 c3bc 0196 a03d 5ddf 76bd 3d15 10bb
00000360: c2da 51be bddf 3fbe fccc 2fbe ee5d 233e
00000370: 65f6 443d a648 6a3d 82c1 8ebd 9f58 513e
00000380: 5c94 283e 4a4b f73c b680 ba3c 6a69 c13d
00000390: 1f62 6b3e 104e 2c3d 7465 27be 46a7 ac3d
000003a0: 8060 83be e897 18be fb47 7fbe c85a f43d
000003b0: 416a 033e bbe1 883e 5b55 bd3d 7b7b b8bc
000003c0: 757a 45be d9dd 0bbe 852e 5ebe 08f0 4fbe
000003d0: 7988 3b3e 9547 ed3d 6d1a 9abd 4a41 c3bd
000003e0: c895 83be 6d56 35bc 0e0e 16be 6803 1a3e
000003f0: 266c 643e 42f2 d93d 46d4 0b3e 4368 22be
-0.10052299 0.19610694 -0.14641786 -0.078242265 0.17153995 0.30924454 -0.06378225 -0.19141158
-0.06506501 -0.011038786 0.11870878 -0.10995346 -0.0107837925 -0.17212275 0.11837747 0.09651907
-0.26532397 0.21277864 0.15859543 -0.2926775 -0.1837786 0.16977149 0.17940804 0.06861292
0.09966297 -0.13973086 -0.16158508 0.23167664 0.1540872 0.22397257 0.04176894 0.023292346
-0.12935331 -0.25294986 0.3548231 0.32847363 -0.16093287 -0.144551 0.21410719 0.075112365
-0.22193307 -0.19041261 -0.16345555 -0.21560267 -0.14728323 -0.28400177 -0.17505898 0.12106392
-0.039629754 0.17280093 0.004679474 0.23547724 0.19209161 0.31039646 0.3181579 0.076365605
0.3246997 -0.0128169125 -0.14888816 0.13586323 -0.20299512 -0.021978527 0.11130317 -0.03444923
0.008330473 0.15960683 0.11018129 0.09531241 0.17840658 -0.11039753 0.28823885 0.18667877
0.065231375 0.15784241 0.08052309 0.12578847 -0.008599979 -0.0024637838 0.16271585 0.13365297
-0.28045177 0.13569383 -0.27600485 0.18150806 -0.07710856 -0.23206373 -0.11508056 0.27912056
-0.20039785 -0.2645426 0.04732033 0.00034637988 0.21608111 -0.3214114 0.31756434 0.11834352
-0.13143155 0.14927574 -0.23685017 0.00095899816 -0.2683978 -0.17923558 -0.1099631 -0.14350569
-0.19357489 -0.17009005 0.21682943 0.04678098 0.049403694 -0.18188608 0.2433748 0.111815766
-0.16543096 -0.138446 0.2136045 0.16790791 -0.22544608 0.05644903 0.07056878 0.32551453
0.059200063 0.02585124 0.1295466 -0.18738787 0.19049576 0.16319 0.22870153 0.27447674
-0.14278089 0.08698968 -0.18902439 0.2360439 -0.19498597 0.011277279 -0.1578438 0.16134195
-0.21992342 -0.055640742 -0.0028965797 -0.1226792 0.031514447 0.1317782 -0.14904276 0.16019997
-0.1398941 -0.106147826 -0.28448576 0.13814232 -0.10180907 -0.104778916 0.11507459 -0.029453263
-0.12524155 -0.10989567 -0.2368904 -0.18068539 -0.12707742 0.21608756 -0.2102986 -0.3322867
0.15931322 0.23986714 0.1976809 -0.02631694 0.013842462 -0.17971446 0.25503752 0.0468127
0.13849461 -0.1120259 -0.21601807 -0.07997307 -0.13427007 -0.049338367 0.17832859 -0.12489607
0.12246914 -0.13724501 -0.107623756 -0.20778747 -0.115499884 0.015149338 0.1732192 0.14424585
-0.047090806 0.27286953 -0.10001943 0.24841776 0.2433943 0.20885576 0.009686257 -0.16921483
-0.15992142 -0.115308054 -0.096137635 -0.11229044 -0.066190146 0.24661255 -0.154969 -0.12243162
-0.13739863 -0.041892286 -0.19416018 -0.08714375 -0.093951814 -0.26864216 -0.17013887 -0.16309498
-0.049040236 -0.17377454 -0.1467451 -0.0022915283 -0.023895975 0.07841111 -0.06027161 -0.0021985315
-0.20493606 -0.18737693 -0.17168039 0.159538 0.048086543 0.05719819 -0.069705024 0.20443963
0.16462845 0.030187268 0.022766452 0.09443934 0.22986649 0.042066634 -0.16347295 0.084303424
-0.2565956 -0.14901698 -0.24929802 0.11931378 0.12833501 0.2673472 0.09244796 -0.022519818
-0.19284995 -0.13658847 -0.21697433 -0.20306408 0.18313779 0.11585919 -0.075245716 -0.09533937
-0.25700212 -0.011067969 -0.14653799 0.15040362 0.2230688 0.1064191 0.13655195 -0.15860085

fc3.0.bias f4 [10]
00000000: d8fa 6abe a959 e53c 0e2f f93d 38b9 7dbe
00000010: dd89 44bd a2f0 bb3d d904 8cbe f33e 8d3c
00000020: 43d2 3e3e 445f ac3c
-0.22947252 0.027996855 0.12167178 -0.24777687 -0.04798304 0.091767564 -0.27347448 0.01724193
0.18634896 0.02104152
