save_checkpoints/LeNet5_epoch_73.pth (torch, 249863 bytes, 10 tensors)

conv1.0.weight f4 [6, 1, 5, 5]
0	0xbbf74426	-0.0075459657
1	0xbccfca2f	-0.025364963
2	0xbdac5a07	-0.08415609
3	0xbc4bee11	-0.012446896
4	0xbcdcb224	-0.026940413
5	0x3c51281a	0.012765909
6	0xbdd11455	-0.10208956
7	0x3b5f88d8	0.0034108665
8	0x3db18bba	0.08669229
9	0xbe1ea550	-0.15492749
10	0x3e07be67	0.13256226
11	0xbd5eabde	-0.054363124
12	0xbd9a7940	-0.07542658
13	0xbdccf547	-0.100077204
14	0x3e98b1c2	0.29823118
15	0x3eb3decd	0.3513092
16	0x3e94d169	0.29066017
17	0x3eec7703	0.4618455
18	0x3e2e8fe4	0.17047077
19	0xbb2f0f06	-0.0026711836
20	0xbe889e76	-0.26683396
21	0xbdb80a94	-0.089863926
22	0xbe93e31d	-0.2888421
23	0xbd899300	-0.06717491
24	0xbd0c2772	-0.034217305
25	0xbd92bb21	-0.07164598
26	0xbcff92fc	-0.031198017
27	0xbd76a16e	-0.060212545
28	0xbe21d00b	-0.15802018
29	0x3e125e4a	0.14293781
30	0x3c31ed0e	0.010859741
31	0xbd09d4f9	-0.033650372
32	0x3e185764	0.14877087
33	0x3eb2e2f1	0.34938768
34	0x3dc17938	0.09446949
35	0x3d996302	0.07489587
36	0x3e4fd4ed	0.20296068
37	0x3dced989	0.10100085
38	0x3ce455dd	0.027872974
39	0x3c83c20d	0.016083742
40	0xbec1d4bd	-0.3785762
41	0x3db24232	0.08704032
42	0x3e727cab	0.2368037
43	0xbd363683	-0.04448558
44	0xbe9bcefd	-0.30431357
45	0xbea1d267	-0.31605837
46	0x3e15b780	0.14620781
47	0xbe036825	-0.12832697
48	0x3d93fee1	0.07226349
49	0xbe238427	-0.15968381
50	0xbc2e3e06	-0.010634905
51	0x3d5d00a6	0.053955697
52	0x3e3fc7a5	0.18728502
53	0x3d7e1828	0.062034756
54	0xbc4a9d66	-0.012366628
55	0x3dfa9d7c	0.12237069
56	0xbb63f881	-0.003478557
57	0x3ce9fffa	0.028564442
58	0x3d72d157	0.059281673
59	0x3dd03286	0.101658866
60	0x3e5644b8	0.20924652
61	0x3e88c0fd	0.26709738
62	0xbd27e743	-0.040992033
63	0x3d8e4013	0.06945815
64	0xbdad54fd	-0.08463476
65	0xbe03b1c0	-0.12860775
66	0xbebccb78	-0.36873984
67	0xbe321f8f	-0.17394851
68	0xbe7cebcf	-0.24699329
69	0x3e625dfa	0.22106162
70	0xbee8bf45	-0.45458427
71	0xbe103683	-0.14083295
72	0xbd8de55b	-0.06928512
73	0xbe2b04b3	-0.16701011
74	0xbeb6ac11	-0.3567815
75	0xbd207972	-0.03917832
76	0x3cc312ef	0.02381274
77	0xbe0ee30a	-0.13953796
78	0x3cc59dc1	0.024123074
79	0xbe979391	-0.29604772
80	0xbce6440d	-0.028108621
81	0xbddb49bb	-0.10707422
82	0xbc6eb976	-0.0145705845
83	0xbca9ee4b	-0.02074351
84	0xbe4b5fe2	-0.19860795
85	0xbd095986	-0.03353264
86	0xbd816727	-0.06318503
87	0xbde0c61d	-0.10975287
88	0x3e1c9cfc	0.1529426
89	0xbe50fa0e	-0.20407888
90	0x3e2aa3c4	0.16664034
91	0x3e1c2020	0.1524663
92	0x3e9d1ffb	0.30688462
93	0xbd25fb12	-0.040522642
94	0x3eac9376	0.33706254
95	0x3d3d4333	0.046206664
96	0x3e4dc454	0.20094424
97	0x3e7ed41b	0.248856
98	0xbbf811ba	-0.0075704725
99	0xbd556708	-0.05210021
100	0xbd3dc35c	-0.046328887
101	0x3d7ed690	0.06221634
102	0x3d8a414c	0.06750736
103	0x3e1feb0e	0.1561701
104	0xbe8e105b	-0.27746853
105	0xbd3314ea	-0.043721117
106	0x3e17093a	0.14749613
107	0x3e848f0f	0.25890395
108	0x3d9c6e8d	0.076382734
109	0x3dd4a8b5	0.10383741
110	0xbe72b559	-0.23701991
111	0x3e932470	0.28738737
112	0x3dbe9863	0.09306409
113	0xbe0c1bef	-0.13682531
114	0x3dae18a5	0.08500794
115	0x3ca8dfe3	0.02061457
116	0x3e859985	0.2609369
117	0xbdc3ec5c	-0.09566566
118	0xbdf510fc	-0.1196613
119	0xbcedc86d	-0.029026235
120	0x3d6fe7f0	0.058570802
121	0x3c89e38d	0.016832137
122	0x3d9569eb	0.07295593
123	0xbddde1fd	-0.108341195
124	0xbea1bfa5	-0.31591526
125	0x3def3832	0.1168064
126	0x3e3b4991	0.18289782
127	0xbcc58997	-0.02411346
128	0x3de3fca9	0.111321755
129	0xbcaa8506	-0.020815384
130	0xbcffec0b	-0.031240484
131	0xbb0b523e	-0.0021258737
132	0x3e46df8b	0.19421212
133	0xba9af6c5	-0.0011822811
134	0xbc7d297e	-0.015451787
135	0x3d0c268a	0.03421644
136	0x3dc44a67	0.095845036
137	0x3ca1ca3d	0.019749755
138	0xbdc9f194	-0.098605305
139	0xbe5eb070	-0.21746993
140	0x3c293096	0.010326525
141	0xbd7ff7d0	-0.06249219
142	0x3cff4aad	0.031163538
143	0xbee08aea	-0.43855983
144	0xbe8467cd	-0.25860444
145	0xbd36d27c	-0.044634327
146	0xbc1807b3	-0.009279179
147	0xbe9d7f83	-0.30761346
148	0xbe3c9d00	-0.18419266
149	0x3e2b1297	0.1670631

conv1.0.bias f4 [6]
0	0xbc9d459d	-0.019198233
1	0xbdc77e14	-0.09740844
2	0xbb7bae41	-0.0038403424
3	0x3b7308cc	0.00370841
4	0xbeb80456	-0.35940808
5	0xbe7a986d	-0.24472208

conv2.0.weight f4 [16, 6, 5, 5]
0	0x3de394cd	0.11112366
1	0x3b528672	0.0032123593
2	0x3bfa09ea	0.0076305764
3	0xbdde257e	-0.10846995
4	0xbe21d8e8	-0.158054
5	0xbc48d73d	-0.012258348
6	0x3c769451	0.01505001
7	0x3dc0f401	0.0942154
8	0xbda20e4b	-0.079128824
9	0xbe1af8b9	-0.15133943
10	0xbe0574c3	-0.13032822
11	0xbddcd784	-0.10783294
12	0xbcea02f1	-0.028565856
13	0xbd1f9c6e	-0.038967542
14	0xbdbaa6b9	-0.09113831
15	0xbd283c57	-0.04107317
16	0xbe13e592	-0.14443043
17	0xbd2e53c0	-0.04256034
18	0x3c2c5689	0.010518678
19	0xbe00fad1	-0.12595679
20	0x3d9ec21a	0.07751866
21	0xbd894485	-0.06702522
22	0xbcf26e2a	-0.029593546
23	0xbd90ac29	-0.07064087
24	0xbdca6577	-0.09882634
25	0xbd31ae49	-0.043379102
26	0xbe1f379f	-0.15548562
27	0xbe5b8fe3	-0.21441607
28	0xbe1d1913	-0.15341596
29	0xbd89ddf9	-0.06731791
30	0x3d3fec48	0.046856195
31	0x3dce189f	0.1006329
32	0x3c13698d	0.008997333
33	0xbd41abd9	-0.047283027
34	0xbd21618d	-0.039399672
35	0x3d45e9a0	0.048318505
36	0x3e0348e2	0.12820771
37	0x3dbf3f4e	0.09338246
38	0x3cc33eb8	0.023833618
39	0xbdadabf8	-0.08480066
40	0xbd7ce7a9	-0.061744366
41	0xbd129523	-0.03578676
42	0x3b89e08a	0.0042076753
43	0x3baab2bd	0.0052092955
44	0x3c7fc45d	0.0156107815
45	0x3bd91588	0.006624881
46	0xbd1f3d39	-0.038876746
47	0xbc23042e	-0.009949727
48	0xbd133be7	-0.0359458
49	0xbd72778d	-0.059196044
50	0x3c32d998	0.010916136
51	0xbdb5bff5	-0.088745035
52	0xbe39d259	-0.18146648
53	0xbd6a6d4b	-0.057233136
54	0x3e0cff9f	0.13769387
55	0x3e0333a0	0.12812662
56	0xbc8f9d6c	-0.01753112
57	0xbe420fbc	-0.18951315
58	0xbe906586	-0.28202456
59	0xbe073b61	-0.13206245
60	0x3db54e70	0.088528514
61	0x3e2fb115	0.17157395
62	0x3d82f007	0.06393438
63	0xbddea479	-0.108712144
64	0xbde5d31a	-0.11221905
65	0xbe1cf26e	-0.15326855
66	0xba8fb584	-0.001096413
67	0x3cd9c242	0.026581887
68	0x3ceaf1ff	0.028679846
69	0x3cf853ae	0.03031334
70	0xbd9f41fc	-0.077762574
71	0xbce83c10	-0.028348953
72	0x3c9a4f9b	0.018836787
73	0x3d1177e1	0.035514716
74	0x3ceaea2a	0.028676111
75	0x3d122b01	0.035685543
76	0x3dc0d3c8	0.09415394
77	0x3dec0dc4	0.11526063
78	0x3cfb7258	0.030694172
79	0xbd9f166f	-0.07767951
80	0xbde6a3f1	-0.11261738
81	0xbd57fab5	-0.052729327
82	0x3e059944	0.13046747
83	0x3db71b71	0.08940781
84	0x3cc37f33	0.023864364
85	0xbde14385	-0.109992065
86	0xbe398fd2	-0.1812127
87	0xbce39d40	-0.027784944
88	0x3bbea82c	0.0058183875
89	0x3d6083d4	0.05481322
90	0x3d502269	0.050814066
91	0xbdb649f4	-0.08900824
92	0xbd2bbc5b	-0.041927677
93	0xbd1b815d	-0.037965167
94	0xbd66d4dd	-0.056355346
95	0x3d5b7c91	0.053585593
96	0xbc8b8ffa	-0.017036427
97	0xbe09f6d1	-0.13473059
98	0xbd7379a5	-0.05944218
99	0xbd2a7639	-0.041616652
100	0x3bbca88d	0.0057573975
101	0xba9fb0c7	-0.0012183421
102	0x3ca44e86	0.020056974
103	0x3da31371	0.079626925
104	0x3c9c2b9c	0.019063763
105	0x3d4dfc61	0.050289515
106	0x3df4ede4	0.119594365
107	0x3d85f503	0.06540873
108	0x3dda0f10	0.10647404
109	0xbd434a6d	-0.0476784
110	0x3d27633a	0.040866114
111	0x3d254811	0.04035193
112	0x3d73d436	0.059528552
113	0x3da5ed02	0.08101846
114	0x3cad9bb7	0.021192415
115	0xbd5da020	-0.054107785
116	0xbd8ae8e2	-0.067827
117	0xbdf10288	-0.11768061
118	0xbcd55906	-0.026043426
119	0xbaeb045c	-0.0017930376
120	0xbd35eac7	-0.044413354
121	0xbdb990d6	-0.090608284
122	0xbd0e2ef4	-0.034712747
123	0xbdda750f	-0.106668584
124	0xbdfbfd68	-0.12304193
125	0xbda5d1c4	-0.0809665
126	0xbe29c321	-0.16578342
127	0xbddc3a52	-0.10753311
128	0xbd2fff9b	-0.042968374
129	0x3d821c75	0.06353084
130	0xbda67811	-0.081283696
131	0xbe9b7852	-0.30365235
132	0xbebc436e	-0.36770195
133	0xbe8b1e11	-0.27171376
134	0xbe317a3e	-0.17331788
135	0x3d545704	0.051840797
136	0xbd046619	-0.03232393
137	0xbda72fbc	-0.081634015
138	0xbe466fef	-0.19378637
139	0xbe3190fc	-0.17340463
140	0x3ca7e0e0	0.020492971
141	0x3d29d23b	0.041460257
142	0xbc63471e	-0.013871936
143	0xbd153ae8	-0.03643313
144	0xbcb9b8af	-0.022671072
145	0x3d1ddfa1	0.038543347
146	0x3d8f531f	0.06998276
147	0x3d13b405	0.036060352
148	0x3d880b3a	0.06642766
149	0xbbe3be3e	-0.006950169
150	0xbd45d312	-0.048296995
151	0xbc796a8d	-0.015223158
152	0xbe1e9306	-0.15485772
153	0xbdbdc2a0	-0.092656374
154	0xbe51a036	-0.20471272
155	0x3ba934db	0.0051637716
156	0xbca05a4f	-0.019574312
157	0xbdb8edc2	-0.09029724
158	0xbea89596	-0.32926625
159	0xbe911443	-0.2833577
160	0x3d7df17d	0.06199788
161	0x3c8ed855	0.01743714
162	0xbdd4f79b	-0.103987895
163	0xbda4e2fe	-0.08051108
164	0xbe04d365	-0.12971266
165	0x3bcba4ea	0.0062147276
166	0x3db2cd33	0.08730545
167	0x3d4f179e	0.050559632
168	0xbdf3f287	-0.11911493
169	0x3cd660ff	0.026169298
170	0xbc3560ac	-0.011070412
171	0xbd8a37a3	-0.06748893
172	0xbe37174a	-0.17879978
173	0xbd189060	-0.03724706
174	0xbdb7a536	-0.08967058
175	0xbe1893f5	-0.14900191
176	0xbdcd3f7e	-0.10021876
177	0xbda1ec65	-0.07906417
178	0xbddb85c3	-0.107188724
179	0xbdb36375	-0.08759204
180	0xbd9e6dfa	-0.0773582
181	0x3df41eeb	0.1191996
182	0x3d9a1af4	0.07524672
183	0xbd86f46a	-0.06589587
184	0xbc68dce0	-0.014212817
185	0xbcb8a6af	-0.022540418
186	0xbd8e4f7d	-0.06948755
187	0xbe191940	-0.14951038
188	0xbd9e92cf	-0.07742845
189	0xbd226849	-0.039650235
190	0xbdbd1e90	-0.09234345
191	0x3b797772	0.003806558
192	0x3d90a007	0.07061773
193	0x3e330499	0.17482223
194	0x3d97c1d1	0.074100144
195	0x3e7abea0	0.2448678
196	0x3d8a2196	0.06744687
197	0x3d8f7618	0.070049465
198	0x3e107a58	0.1410917
199	0xbad4a560	-0.0016223602
200	0xbaff0c75	-0.0019458669
201	0xbdb5d936	-0.0887932
202	0xbde86c9c	-0.113488406
203	0x3da030c1	0.07821799
204	0x3d302d47	0.04301193
205	0x3e2ba4cd	0.16762085
206	0xbd7a5379	-0.061114762
207	0xbe38ffd8	-0.18066347
208	0xbcecb126	-0.028893065
209	0x3d761b56	0.060084663
210	0xbd15a5e5	-0.036535162
211	0x3ce11394	0.027475156
212	0xbe0d345c	-0.13789505
213	0xbe88ecd1	-0.26743177
214	0xbe6b071b	-0.2295193
215	0xbe268127	-0.16260205
216	0x3d2abf5c	0.0416864
217	0xbdb4cc65	-0.08828048
218	0xbd22ecf6	-0.039776765
219	0x3cf4a2fa	0.02986287
220	0x3dc9f420	0.09861016
221	0x3c5bae02	0.013408186
222	0x3df56f19	0.11984081
223	0xbd617101	-0.05503941
224	0xbd86c056	-0.06579654
225	0x3c774a8a	0.015093455
226	0x3c66d85e	0.014089672
227	0x3cc0ec7b	0.023550263
228	0xbdf9a0fe	-0.1218891
229	0xbd01cb84	-0.03168823
230	0xbd57ca96	-0.052683435
231	0x3d032b66	0.03202381
232	0xbb43d0db	-0.0029879126
233	0xbb319b57	-0.0027100646
234	0x3bf0f001	0.0073528294
235	0xbc9531e8	-0.018212274
236	0x3df37e43	0.11889317
237	0x3e52dcf6	0.20592102
238	0x3e183ff6	0.14868149
239	0x3e2b2cc9	0.16716303
240	0x3e1701ac	0.14746732
241	0x3d06f32c	0.03294675
242	0x3d32d4e3	0.043660056
243	0x3d946567	0.072459035
244	0x3c53ddb1	0.012931273
245	0xbd7c9cc3	-0.061672937
246	0xbe1d0a96	-0.1533607
247	0xbdb6a400	-0.08917999
248	0xbd35f216	-0.044420324
249	0xbd73983b	-0.05947135
250	0x3b758df0	0.0037468635
251	0xbe1aa7d6	-0.15103087
252	0xbccaae16	-0.024741214
253	0xbcdfaead	-0.027304972
254	0xbe26862b	-0.16262119
255	0x3e403591	0.18770434

conv2.0.bias f4 [16]
0	0xbf3cdc4a	-0.73773634
1	0xbf3088c5	-0.68958694
2	0xbf5cc46d	-0.8623722
3	0xbf1015f5	-0.56283504
4	0xbf8ea653	-1.1144508
5	0xbf4bb686	-0.79575384
6	0xbfb22cce	-1.3919923
7	0xbf4d00bd	-0.8007925
8	0xbf2d265d	-0.6763666
9	0xbf05c17c	-0.5224836
10	0xbf6ff298	-0.93729544
11	0xbe99c874	-0.30035746
12	0xbea034d3	-0.31290302
13	0xbefa6a88	-0.48909402
14	0xbedcd01b	-0.43127522
15	0xbf45678b	-0.7711112

fc1.0.weight f4 [120, 400]
0	0xbc7ea2b0	-0.015541717
1	0xbe1dcb29	-0.1540953
2	0x3e1c361e	0.15255019
3	0x3d67d0ed	0.05659573
4	0x3da2ce71	0.07949532
5	0xbdfb24e4	-0.12262896
6	0x3c2849e3	0.010271522
7	0x3df7f555	0.1210734
8	0x3e7c7bc4	0.24656588
9	0x3e012d21	0.12614872
10	0x3a59bdcf	0.0008306177
11	0x3d8a072a	0.06739648
12	0x3da59120	0.08084321
13	0xba62a952	-0.00086464465
14	0xbdb0a8ea	-0.08625968
15	0xbb8f08dc	-0.00436507
16	0xbbb80776	-0.005616124
17	0x3c2b6c91	0.010462896
18	0x3d805226	0.062656686
19	0xbdb575e9	-0.0886038
20	0x3e04d715	0.12972672
21	0xbc8fd982	-0.01755977
22	0xbe267b6c	-0.16258019
23	0x3cc5c501	0.02414179
24	0x3e113d59	0.14183559
25	0xbd9c950d	-0.07645617
26	0xbc9c6f8f	-0.019096164
27	0xbc8c5fad	-0.017135466
28	0x3c67dfcf	0.014152481
29	0xbca0b0c3	-0.019615537
30	0x3dad0059	0.08447332
31	0xbc6aded5	-0.014335354
32	0x3d1dafa1	0.03849757
33	0x3cbe3ed8	0.023223326
34	0x3dd64326	0.10462026
35	0xbb9ea618	-0.0048415773
36	0x3dc37e5c	0.095455855
37	0x3df8764e	0.1213194
38	0x3cfaf904	0.030636318
39	0x38534949	5.0374572e-05
40	0x3e4769fd	0.19474025
41	0x3c84fe66	0.016234588
42	0xbb39c72f	-0.0028347482
43	0x3d2b633c	0.041842684
44	0x3e85cc50	0.2613244
45	0x3e300adf	0.17191647
46	0xbde28b67	-0.11061745
47	0xbdebcb18	-0.115133464
48	0xbd7a7cb7	-0.061154094
49	0x3e751891	0.23935153
50	0x3e35be25	0.17748316
51	0x3e18eb0d	0.14933415
52	0xbcc7e13d	-0.024399394
53	0x3dc26bc6	0.094932124
54	0xbdeb193e	-0.11479424
55	0x3e4b9085	0.19879349
56	0x3d15fbef	0.036617216
57	0xbd7eb9bd	-0.062188853
58	0xbe4fbff2	-0.20288065
59	0x3e0f9cb3	0.1402462
60	0x3eb46b01	0.35237888
61	0x3e0b8b20	0.1362729
62	0xbdd4ec30	-0.10396612
63	0xbd9592e1	-0.073034056
64	0x3e2a5d1a	0.16637078
65	0x3e6a0aa7	0.22855626
66	0x3e3aece8	0.18254435
67	0xbd0a0e75	-0.033705194
68	0xbdba1872	-0.09086694
69	0xbe5727a4	-0.21011215
70	0xbc51b68d	-0.012799871
71	0x3d8b7ddc	0.06811115
72	0x3d0f2713	0.034949373
73	0xbde4b903	-0.11168101
74	0xbdfddfce	-0.12396203
75	0x3dc41d1e	0.09575866
76	0x3dc1b49c	0.09458277
77	0x3e6510a0	0.22369623
78	0x3eb4a7c0	0.35284233
79	0x3dde14d7	0.10843819
80	0x3e7078e2	0.23483613
81	0x3e947ce0	0.29001522
82	0xbb4e7dc7	-0.0031508075
83	0xbdbeba2c	-0.09312853
84	0x3d54eb67	0.05198231
85	0x3ecec462	0.40384203
86	0x3e2b61ee	0.16736576
87	0xbc3350f8	-0.010944597
88	0xbe16418e	-0.14673445
89	0x3d7b1f17	0.061308946
90	0xbd8e971a	-0.06962414
91	0x3ced1c8f	0.028944282
92	0x3d27fc97	0.041012373
93	0xbd736802	-0.05942536
94	0xbd3ae1ae	-0.04562538
95	0x3e377c6a	0.17918554
96	0xbbd1ea30	-0.006406091
97	0xbcc1c1c4	-0.023651965
98	0xbc321913	-0.010870236
99	0xbcbf6537	-0.023363693
100	0x3d887c85	0.06664375
101	0x3e2c1faa	0.16808954
102	0x3e2f2d1b	0.1710705
103	0x3e8eaa38	0.27864242
104	0xbdec805d	-0.11547921
105	0x3d9c5ed9	0.07635278
106	0x3e573a07	0.2101823
107	0x3e0608e0	0.13089323
108	0xbd62093d	-0.05518459
109	0x3d8b7202	0.06808855
110	0x3d8653fe	0.06558989
111	0xbcb7b0d7	-0.022423191
112	0x3d2c253e	0.042027704
113	0x3bcfd0ff	0.006342053
114	0xbd99748e	-0.07492934
115	0x3d0bed05	0.034161586
116	0x3e95baff	0.2924423
117	0x3e77a667	0.24184571
118	0xba4c1b2b	-0.0007786031
119	0xbd85bba6	-0.06529932
120	0xbd766044	-0.0601504
121	0x3d752bf3	0.059856366
122	0x3daef053	0.08541932
123	0x3db97af8	0.090566576
124	0x3d3d1122	0.046158917
125	0x3d9e1de1	0.07720543
126	0xbc7463e2	-0.014916392
127	0xbe6ff9d3	-0.23435144
128	0xbeb9c7e6	-0.36285323
129	0xbdaebde9	-0.08532316
130	0xbcb5eab2	-0.022206638
131	0xbcc3847e	-0.023866888
132	0xbd965a6c	-0.07341465
133	0xbe56c4a8	-0.20973456
134	0xbc179111	-0.009250895
135	0xbddcb5b4	-0.107768446
136	0xbd88a2ee	-0.06671701
137	0xbd787ae9	-0.06066409
138	0xbd3ad625	-0.04561438
139	0x3e3a1ba9	0.18174614
140	0x3e579464	0.210527
141	0xbd21a109	-0.039460216
142	0xbe17fd02	-0.14842609
143	0xbd3fa729	-0.046790276
144	0x3d8c9e35	0.06866113
145	0xbda27ff5	-0.07934562
146	0xbe2e5f90	-0.17028642
147	0x3e06b5aa	0.13155237
148	0xbd8eda9d	-0.06975291
149	0x3d9e6718	0.07734507
150	0xbd3eb9c2	-0.04656387
151	0x3e4b8189	0.19873632
152	0xbd48c71e	-0.049018018
153	0xbe7dc9a1	-0.24783947
154	0xbdbdcd9a	-0.09267731
155	0xbd8bcfea	-0.06826766
156	0x3c27c4b8	0.0102397725
157	0xbdfb0ad5	-0.122579254
158	0xbe41f119	-0.18939628
159	0xbe66e029	-0.22546448
160	0xbd1d6589	-0.03842691
161	0x3e6deb4c	0.2323429
162	0x3c7bebef	0.015376075
163	0xbdc14764	-0.09437445
164	0xbdac0ad1	-0.084005006
165	0xbc91bf8c	-0.017791532
166	0x3d9350ff	0.07193183
167	0x3d8c07a2	0.06837393
168	0xbdd49cf7	-0.10381501
169	0x3c09b153	0.008404094
170	0xbe088f88	-0.13336003
171	0xbe1c1350	-0.15241742
172	0x3b398b7e	0.0028311904
173	0x3e1881a9	0.14893211
174	0xbdc70961	-0.09718586
175	0xbdb62ab4	-0.08894864
176	0x3e1fb654	0.15596896
177	0x3e527f29	0.2055632
178	0x3dc44e24	0.09585217
179	0x3c8ba63b	0.017047038
180	0x3e3fcd26	0.18730602
181	0x3e2d94a4	0.16951233
182	0xbd28b021	-0.041183595
183	0x3d749d5c	0.059720382
184	0xbc1d21a0	-0.009590536
185	0x3e2f4377	0.1711558
186	0x3d377129	0.044785652
187	0xbd241f05	-0.040068645
188	0xbd179449	-0.03700665
189	0x3c3a27b0	0.011362001
190	0x3ea5e095	0.32397905
191	0x3d975a21	0.073902376
192	0xbe200b9a	-0.15629426
193	0x3c98fdf7	0.018675787
194	0x3e110f32	0.14165953
195	0x3e87573b	0.2643374
196	0x3e32f773	0.17477207
197	0x3db91212	0.0903665
198	0xbd7a038c	-0.06103854
199	0xbdd87d5e	-0.10570787
200	0x3d5f7b9f	0.054561254
201	0x3d9b2dff	0.075771324
202	0xbd020ace	-0.031748585
203	0x3d589f1e	0.05288612
204	0xbcdb60e2	-0.026779596
205	0xbd3264ef	-0.04355329
206	0x3dcadc7c	0.09905335
207	0x3c6fa321	0.014626295
208	0xbdf46e08	-0.11935049
209	0xbc23ab0b	-0.00998951
210	0x3e11dd00	0.14244461
211	0x3d7746d2	0.060370274
212	0xbd20e730	-0.039282978
213	0xbd45f14e	-0.04832583
214	0x3e376b2f	0.17911981
215	0x3e9a17f6	0.30096406
216	0x3dedc8ef	0.11610591
217	0x3c82d6db	0.015971592
218	0xbe081e4f	-0.13292812
219	0xbd827cf3	-0.063714884
220	0xbd1c6b93	-0.03818853
221	0x3e1d7797	0.15377651
222	0x3d823bad	0.063590385
223	0x3c53504b	0.012897561
224	0xbdf99932	-0.12187423
225	0xbe1a244c	-0.15052909
226	0xbd8b0062	-0.067871824
227	0xbe1fa537	-0.15590368
228	0xbe2300f6	-0.15918335
229	0xbe99a57c	-0.30009067
230	0x3b4f0d5d	0.0031593658
231	0xbde2f3b0	-0.11081636
232	0xbd8a1b06	-0.067434356
233	0xbe2a4c00	-0.16630554
234	0xbd139cb5	-0.03603812
235	0xbc9d7a92	-0.019223485
236	0xbd4d1408	-0.05006793
237	0xbd61bd42	-0.05511213
238	0x3de7efaf	0.11325013
239	0x3db0bd47	0.08629852
240	0x3e306413	0.17225675
241	0x3d82854a	0.06373079
242	0xbd616938	-0.055031985
243	0x3b1c33b4	0.0023834528
244	0xbe01f412	-0.12690762
245	0x3cc74154	0.024323143
246	0x3d1d63f8	0.038425416
247	0x3df96b90	0.12178719
248	0xbbed89ff	-0.0072491164
249	0xbd001f55	-0.03127988
250	0x3d646a0f	0.055765208
251	0x3d1ee10b	0.038788836
252	0x3dead4f1	0.114663966
253	0x3e2e4773	0.17019443
254	0x3cbb0444	0.022829182
255	0x3e307a8c	0.17234248

fc1.0.bias f4 [120]
0	0x3e5bf459	0.2147993
1	0x3ebdca36	0.37068337
2	0x3ea01cdb	0.31272015
3	0xbdf25ce1	-0.118341215
4	0x3ec74496	0.38919514
5	0xbe15c3ab	-0.14625423
6	0x3d60c95e	0.05487954
7	0x3c5dcdeb	0.013537864
8	0x3e3b14a9	0.182696
9	0x3ec86a39	0.3914354
10	0x3eb5be07	0.35496542
11	0xbd3042a6	-0.04303231
12	0xbd7c429d	-0.061586965
13	0xbe32ddd9	-0.1746744
14	0xbb5d9b1f	-0.0033814383
15	0xbec08eae	-0.37608856
16	0xbc8d270b	-0.017230531
17	0x3e7bd674	0.24593526
18	0x3f062db1	0.5241347
19	0xbde419fe	-0.1113777
20	0x3f0c731c	0.5486314
21	0xbd63fac5	-0.055659074
22	0x3e7d6eca	0.24749294
23	0xbea785d0	-0.32719278
24	0x3dcecbbe	0.100974545
25	0x3eab1f51	0.3342233
26	0x3ec90b5d	0.39266482
27	0xbef32222	-0.4748698
28	0xbf12bc1b	-0.57318276
29	0x3ead4b0e	0.33846325
30	0xbd9e6de9	-0.077358074
31	0xbefe945a	-0.49722558
32	0x3d6ba943	0.057534467
33	0xbded1ce3	-0.11577775
34	0x3ec43564	0.38321984
35	0xbec575c4	-0.3856641
36	0xbe63ff81	-0.22265436
37	0x3eaa7307	0.33290884
38	0x3ebe411a	0.37159044
39	0x3dd24873	0.10267725
40	0x3e1f03a2	0.1552873
41	0xbe03f2cc	-0.12885588
42	0xbe68b660	-0.2272582
43	0xbb515a9f	-0.0031944884
44	0x3e3be361	0.18348457
45	0x3bceb473	0.0063081323
46	0x3ef24388	0.47317147
47	0x3d893174	0.066988856
48	0x3e841af8	0.25801826
49	0xbea9cf4f	-0.33165976
50	0xbd674066	-0.0564579
51	0xbe0a0647	-0.13478957
52	0xbe201c70	-0.15635848
53	0x3cc4fa71	0.024045201
54	0xbcc6170f	-0.024180917
55	0xbd865576	-0.06559269
56	0x3ded81a2	0.11596991
57	0xbf096819	-0.53674465
58	0x3ea7cad5	0.32771936
59	0xbe09bb6a	-0.13450399
60	0xbea5c3c1	-0.3237591
61	0x3df04fe6	0.117339894
62	0xbe5d93b6	-0.21638379
63	0xbdece80e	-0.115676984
64	0xbe64c6ae	-0.22341415
65	0xbd995b33	-0.07488098
66	0xbecb23f4	-0.39675868
67	0xbe1bc993	-0.15213613
68	0x3e1bf090	0.15228486
69	0x3e27c3b7	0.16383253
70	0x3dd7a064	0.10528639
71	0xbe452d7d	-0.19255634
72	0x3ea4984c	0.32147443
73	0x3ef062ce	0.46950382
74	0xbe56f812	-0.20993069
75	0x3d35db11	0.04439837
76	0xbf02aee5	-0.5104812
77	0xbd520f87	-0.05128434
78	0xbe88f8c4	-0.26752293
79	0x3e62422d	0.22095557
80	0x3eb2ce40	0.3492298
81	0x3cd33e52	0.025786553
82	0x3e7433fd	0.23847957
83	0x3e884e4f	0.26622245
84	0xbe07f787	-0.13278018
85	0xbedf0297	-0.43556663
86	0x3ec95de3	0.39329442
87	0x3c956064	0.01823444
88	0xbe384c14	-0.17997772
89	0xbf09ba2b	-0.53799695
90	0xbd9db856	-0.07701175
91	0xbdf26c4a	-0.11837061
92	0x3df406d3	0.11915364
93	0xbdb95943	-0.090502284
94	0x3e32b8e5	0.17453344
95	0x3e325d66	0.17418441
96	0x3f054a23	0.5206625
97	0x3cf9c6c3	0.030490285
98	0xbec15e3c	-0.37767208
99	0xbe8229b2	-0.25422436
100	0x3e758ae0	0.23978758
101	0x3e2aa79c	0.166655
102	0xbe73113f	-0.23737048
103	0x3a7e533a	0.0009701733
104	0x3e96180d	0.29315224
105	0xbe2f6c72	-0.17131212
106	0x3e9b0c9a	0.30283052
107	0x3e66c0af	0.2253444
108	0xbdd29525	-0.10282353
109	0xbcf6a591	-0.030108245
110	0x3e54a914	0.20767623
111	0xbde30c03	-0.110862754
112	0xbc070c3f	-0.008242666
113	0x3e1b7f5a	0.151853
114	0x3d9364d3	0.07196965
115	0xbf1390a1	-0.5764256
116	0x3e8b75b1	0.2723823
117	0xbe916a82	-0.28401572
118	0xbe88819c	-0.26661384
119	0x3ec20d19	0.37900618

fc2.0.weight f4 [84, 120]
0	0x3d89872e	0.067152366
1	0xbb31ff7a	-0.0027160333
2	0xbdedc664	-0.11610106
3	0x3dae9577	0.08524602
4	0xbd7d8e9f	-0.061903592
5	0xbe892094	-0.26782668
6	0xbd2ec781	-0.04267073
7	0x3dccae17	0.099941425
8	0xbe9e5af3	-0.30928764
9	0x3c158541	0.0091260085
10	0xbdac2a24	-0.08406475
11	0x3e2697fa	0.16268912
12	0x3d763b53	0.06011517
13	0x3e157fe4	0.14599568
14	0xbe55c5f3	-0.20876293
15	0x3d3e7615	0.04649933
16	0xbd7f4991	-0.062326018
17	0xbd6c3370	-0.057666242
18	0xbe752f7f	-0.239439
19	0xbd42239c	-0.04739724
20	0x3df0f29e	0.117650256
21	0x3d6a278a	0.057166614
22	0x3e5766cb	0.21035306
23	0x3d28c6d5	0.041205246
24	0xbe2a544d	-0.1663372
25	0xbd65f094	-0.056137636
26	0xbe1b1bcd	-0.15147324
27	0x3c5e5a99	0.013571405
28	0xbd56eacf	-0.052470025
29	0x3e10d42e	0.1414344
30	0xbe12cc87	-0.14335833
31	0x3e243d26	0.16038951
32	0x3e56c1cf	0.2097237
33	0x3cf21013	0.02954868
34	0x3df0142d	0.11722598
35	0xbda4fe15	-0.08056275
36	0xbd91fd64	-0.071284086
37	0xbe189c85	-0.14903457
38	0xbdbbddb8	-0.09173149
39	0xbe3b7ebd	-0.18310066
40	0x3d3ea1b3	0.046540927
41	0xbdb26cc2	-0.0871215
42	0xbd3fc27e	-0.04681634
43	0x3d3c5fe1	0.045989875
44	0xbe221b95	-0.15830834
45	0x3c378697	0.011201522
46	0xbb8e0909	-0.004334573
47	0xbe54016b	-0.20703666
48	0x3e3972d8	0.18110216
49	0x3d6d0185	0.057862777
50	0xbe65fe7f	-0.22460364
51	0xbc53a90a	-0.01291872
52	0x3e05f09f	0.13080071
53	0x3e84b33e	0.25918
54	0x3d5aab40	0.053385973
55	0xbe85803f	-0.26074407
56	0x3c3dc270	0.011582002
57	0x3c80af58	0.01570861
58	0xbd75e3fc	-0.060031876
59	0xbdd7f9a5	-0.10545663
60	0x3d290ca5	0.041271824
61	0x3d19cd1a	0.037549116
62	0xbe73911d	-0.23785825
63	0x3dd9c0cc	0.10632476
64	0xbc291d0b	-0.010321866
65	0xbda3a440	-0.079903126
66	0x3d97a816	0.07405107
67	0x3e45fc82	0.19334605
68	0xbd84c869	-0.06483538
69	0x3d5130b9	0.051071856
70	0xbc365c68	-0.01113043
71	0x3d085343	0.03328253
72	0x3d1c1d79	0.038114045
73	0xbd38ccbb	-0.04511712
74	0x3e1f303c	0.15545744
75	0xbdc797de	-0.09745763
76	0xbd0f861a	-0.03504
77	0x3d0e73fe	0.034778588
78	0x3df101e6	0.1176794
79	0xbbd6fc20	-0.0065608174
80	0x3d2229ab	0.03959052
81	0x3e2e31b9	0.17011155
82	0xbe4a1535	-0.19734652
83	0xbe3199b7	-0.17343794
84	0x3dfc0cff	0.12307166
85	0x3e074f69	0.13213886
86	0x3de1b264	0.110203534
87	0xbc06c5bc	-0.0082258545
88	0x3c6f2ced	0.0145981135
89	0x3e713032	0.23553541
90	0x3e4041f4	0.18775159
91	0x3d1a1528	0.037617832
92	0x3d41b1aa	0.047288574
93	0xbe266fb2	-0.16253546
94	0xbd8c2652	-0.068432465
95	0x3e493b7e	0.196516
96	0xbc0c528c	-0.008564603
97	0xbd8c5b81	-0.068533905
98	0x3d01c772	0.031684346
99	0x3d5d9110	0.05409342
100	0xbccc1598	-0.02491264
101	0xbcbde896	-0.023182195
102	0xbddfa781	-0.10920621
103	0x3e1a440a	0.15065017
104	0xbe213923	-0.15744452
105	0xbd04baa3	-0.032404553
106	0xbccc8b5d	-0.024968797
107	0xbd94d829	-0.07267792
108	0xbc699f79	-0.014259213
109	0x3d9a84ac	0.075448364
110	0x3d38fbed	0.04516213
111	0x3e06cfff	0.13165282
112	0xbce3b60a	-0.027796764
113	0xbdb4c756	-0.08827083
114	0x3d8cb677	0.0687074
115	0x3d9fd992	0.0780517
116	0x3ca146f0	0.019687146
117	0x3d9e7fec	0.07739243
118	0x3d8466e5	0.06464938
119	0xbe1d485f	-0.15359639
120	0x3e93e616	0.2888648
121	0x3e92ed83	0.28696832
122	0xbd035d2f	-0.03207129
123	0x3e0e01dd	0.13867898
124	0x3e01adf9	0.12664022
125	0xbe561b07	-0.20908748
126	0xbe73f906	-0.23825464
127	0x3d55cb09	0.052195583
128	0xbd2d50ec	-0.0423135
129	0xbc24bcb9	-0.010054761
130	0x3c872220	0.016495764
131	0x3e4c09c9	0.19925608
132	0xbd3b7e6a	-0.045774855
133	0x3e169705	0.14706047
134	0x3dd9e91d	0.10640166
135	0xbcd2eca9	-0.025747614
136	0x3c908ce2	0.017645303
137	0x3e38e0d9	0.18054523
138	0x3e1153ec	0.1419217
139	0xbe6d8268	-0.23194277
140	0x3df3a792	0.11897196
141	0xbe649c75	-0.22325309
142	0x3e218337	0.1577271
143	0xbd3def4e	-0.046370797
144	0x3da8c5dc	0.08240864
145	0x3db494f3	0.08817472
146	0x3d954dc2	0.07290222
147	0xbe7b781d	-0.24557538
148	0xbd903b99	-0.07042617
149	0x3da72720	0.081617594
150	0xbdb0ea31	-0.086384185
151	0xbd8eea61	-0.06978298
152	0x3dcc431a	0.09973736
153	0xbe0cf3d9	-0.13764895
154	0x3cb2a554	0.02180735
155	0x3db40648	0.087902606
156	0xbe2c53e2	-0.16828874
157	0xbd611cd9	-0.054959152
158	0x3de7ceb8	0.11318725
159	0xbdfbea7b	-0.12300583
160	0xbe25f0bb	-0.16205113
161	0xbe034e12	-0.1282275
162	0xbdda4a9a	-0.1065876
163	0xbcb1944e	-0.021677162
164	0x3e78ff73	0.24316196
165	0x3dba4143	0.09094479
166	0x3e3c546f	0.18391584
167	0xbb264c1a	-0.002537495
168	0x3df7d10a	0.12100418
169	0x3da3229e	0.07965587
170	0x3d9be469	0.07611925
171	0xbdac972b	-0.084272705
172	0xbc32e7e3	-0.010919544
173	0x3e1d42e0	0.15357542
174	0x3e53c3d3	0.2068017
175	0xbe40c9f3	-0.18827038
176	0x3e2c4fee	0.16827366
177	0x3daee390	0.08539498
178	0x3d71efcd	0.059066582
179	0x3d2b6b4c	0.041850373
180	0xbe15ffff	-0.14648436
181	0x3dbeb9a5	0.09312753
182	0xbcadc4df	-0.02121204
183	0x3d905333	0.07047119
184	0xbebf763b	-0.3739489
185	0x3de91fed	0.113830425
186	0xbdf5cdfc	-0.12002179
187	0xbea5f960	-0.3241682
188	0xbd0f7f68	-0.035033613
189	0x3dd9fd9b	0.106440745
190	0xbd51f183	-0.051255714
191	0x3d058769	0.03259984
192	0xbd23727e	-0.03990411
193	0x3da4b390	0.08042061
194	0xbd752e55	-0.05985864
195	0xbe2c7105	-0.16839989
196	0xbe5ccea5	-0.21563204
197	0x3dc4476f	0.095839374
198	0xbdb5f730	-0.08885038
199	0xbd10b803	-0.035331737
200	0x3d858cb9	0.06520981
201	0x3d2e1dfd	0.042509068
202	0x3d455629	0.04817787
203	0x3db79511	0.08963979
204	0xbe5953e2	-0.21223405
205	0x3e67620b	0.22595994
206	0xbd461684	-0.048361316
207	0xbd0c84f9	-0.0343065
208	0x3d3af3c9	0.045642648
209	0xbdd51819	-0.10404987
210	0x3bc48200	0.0059969425
211	0x3cb8f781	0.022578957
212	0x3c290799	0.010316753
213	0xbe1ae716	-0.15127215
214	0x3c3ec5ea	0.011643866
215	0x3c442157	0.011970839
216	0x3e1e2a94	0.1544593
217	0xbd83b355	-0.06430689
218	0xbdcc50d0	-0.09976351
219	0x3ccc98a4	0.024975128
220	0x3e17f173	0.148382
221	0x3de635c0	0.11240721
222	0x3dc6b3a0	0.097022295
223	0x3d9f0dcb	0.07766303
224	0xbe69b292	-0.22822025
225	0xbdb4a600	-0.088207245
226	0xbdcb0f0c	-0.09914979
227	0x3d6b2ffc	0.05741881
228	0xbd92ac97	-0.07161825
229	0x3da26a5a	0.07930441
230	0x3c9859de	0.01859754
231	0xbcce2a6e	-0.025166716
232	0xbb08ba90	-0.0020863153
233	0xbda457bc	-0.080245465
234	0x3b556656	0.0032562218
235	0xbcc4f122	-0.024040762
236	0x3e3bf649	0.18355669
237	0xbd56b152	-0.0524152
238	0x3db47f50	0.088133454
239	0x3b2379ac	0.0024944348
240	0xba1237c7	-0.00055777695
241	0x3e0d30ac	0.13788098
242	0xbdabb197	-0.08383482
243	0x3d118cd6	0.035534702
244	0xbc5f0f0e	-0.013614429
245	0xbe06df44	-0.13171107
246	0x3d0bdb52	0.034144707
247	0x3cac1536	0.021006208
248	0x3df8af0d	0.12142763
249	0x3dcb7a02	0.099353805
250	0xbd79b61c	-0.06096469
251	0x3d8ef1ad	0.0697969
252	0xbad41827	-0.0016181514
253	0xbe45ebc9	-0.19328226
254	0x3c0a497a	0.00844037
255	0xbd9768b6	-0.07393019

fc2.0.bias f4 [84]
0	0xbd0db884	-0.034599796
1	0x3e2a1775	0.1661051
2	0x3e8206b9	0.25395754
3	0x3e29be3c	0.16576475
4	0x3d401f28	0.046904713
5	0x3e3f210d	0.18664952
6	0x3d5af58f	0.05345684
7	0xbc35197c	-0.011053439
8	0x3d10e424	0.03537382
9	0xbe00c8ea	-0.12576643
10	0xbe34974f	-0.17635845
11	0x3e64387b	0.2228717
12	0xbdf25c59	-0.1183402
13	0xbe0c85ac	-0.13722867
14	0x3d3d755a	0.046254493
15	0x3d408bae	0.04700821
16	0xbe0e662c	-0.13906163
17	0xbdd8d863	-0.105881475
18	0xbdd388e1	-0.10328842
19	0x3e870ce1	0.26377013
20	0x3c76c633	0.015061903
21	0xbe971626	-0.29509085
22	0xbdc8be07	-0.0980187
23	0x3da71368	0.08157998
24	0xbdcbc15b	-0.09948989
25	0x3dafa054	0.08575502
26	0xbeeb4188	-0.45948434
27	0xbcc95a6f	-0.024579255
28	0x3d3ed012	0.04658515
29	0x3d2e2eae	0.042524986
30	0xbe0c2860	-0.13687277
31	0x3e79e19a	0.24402466
32	0xbf04a83e	-0.5181922
33	0x3e810a15	0.25203004
34	0xbe090ae4	-0.1338306
35	0x3e2fa1e6	0.17151603
36	0xbbcbd909	-0.006220941
37	0xbc8bb2a6	-0.01705296
38	0x3ecf4c9e	0.40488142
39	0x3ea8421b	0.32862934
40	0x3e13d46c	0.14436501
41	0xbdefa964	-0.117022306
42	0xbd6d2269	-0.057894144
43	0xbe0433a6	-0.12910327
44	0xbc8a64f9	-0.01689385
45	0x3dd69b53	0.104788445
46	0x3e5492d9	0.20759143
47	0x3e8d9d53	0.2765909
48	0xbdd6d082	-0.104889885
49	0xbe90e339	-0.28298357
50	0x3db5c590	0.08875573
51	0xbeb1bb62	-0.34713274
52	0x3bc37e85	0.00596601
53	0x3d8861ca	0.06659277
54	0x3d8f4718	0.06995982
55	0xbe4491de	-0.19196269
56	0xbe1da05f	-0.15393208
57	0xbe378524	-0.17921883
58	0x3aebe263	0.0017996546
59	0xbdeb44c4	-0.114877254
60	0xbd7de916	-0.061989866
61	0xbe244d9c	-0.1604523
62	0xbe530ee1	-0.20611145
63	0x3d4f71ed	0.050645757
64	0x3e3b1145	0.18268307
65	0x3e02184c	0.12704581
66	0xbebf0742	-0.37310225
67	0xbee8c97f	-0.4546623
68	0x3d3873a0	0.045032144
69	0xbe5c4b5e	-0.21513125
70	0xbed8baf0	-0.42330122
71	0x3dd2bba2	0.10289694
72	0xbe7f4b97	-0.24931179
73	0xbea7215f	-0.32642648
74	0x3e37cea4	0.17949921
75	0xbb547cd6	-0.003242304
76	0xbd562a14	-0.052286223
77	0x3c8ebe8c	0.017424844
78	0xbe590dca	-0.21196666
79	0xbd4d5bd5	-0.050136406
80	0xbc40fc27	-0.011778868
81	0x3c22ef89	0.009944805
82	0x3e1017d9	0.14071597
83	0xbe44191b	-0.19150202

fc3.0.weight f4 [10, 84]
0	0x3e0615de	0.13094279
1	0xbe98a088	-0.29809976
2	0xbe18b0ca	-0.1491119
3	0x3e066bdb	0.13127081
4	0xbd9a846d	-0.075447895
5	0x3e185654	0.14876682
6	0xbde7630c	-0.112981886
7	0x3d8f1c21	0.06987787
8	0x3dd5d435	0.10440866
9	0x3ea321e3	0.3186179
10	0x3d980633	0.074230574
11	0xbe018411	-0.12648036
12	0x3e83c529	0.2573636
13	0x3e920293	0.2851759
14	0x3e5ee73f	0.21767901
15	0x3df0362f	0.11729085
16	0xbe1b140b	-0.15144365
17	0xbe5821d7	-0.21106659
18	0xbd3e3995	-0.046441633
19	0xbd87aceb	-0.06624778
20	0x3e1d7d3d	0.15379806
21	0x3e4d6d1b	0.20061152
22	0x3ea3101b	0.31848225
23	0xbe866b3e	-0.26253694
24	0x3e8c1945	0.2736303
25	0xbde47951	-0.11155952
26	0x3e489ed9	0.19591846
27	0xbdf623ec	-0.1201857
28	0x3e19e515	0.15028794
29	0xbe4de1e4	-0.20105702
30	0xbe71e75d	-0.23623414
31	0xbcf58259	-0.029969381
32	0x3ea37a6a	0.31929332
33	0xbd9a9d2b	-0.07549509
34	0x3e651363	0.22370677
35	0xbe1d0704	-0.15334707
36	0x3dba48b3	0.090958975
37	0xbdbb5af3	-0.091482066
38	0xbcbbccf6	-0.022924881
39	0xbe093413	-0.13398771
40	0x3de8689c	0.11348078
41	0xbe34b98c	-0.17648906
42	0x3e0e9a4b	0.13926046
43	0x3e5ff9dd	0.21872659
44	0xbe306b64	-0.17228466
45	0x3e492c06	0.196457
46	0xbe847440	-0.25869942
47	0xbe7dbb7e	-0.24778554
48	0xbea4c75f	-0.32183358
49	0x3cf84fae	0.030311432
50	0x3e5a5ba3	0.21324019
51	0x3e305c86	0.17222795
52	0x3d015530	0.03157538
53	0x3e3f5a8b	0.18686883
54	0xbe270dd2	-0.16313866
55	0xbd9558cb	-0.072923265
56	0x3d3ee2c5	0.046602983
57	0x3e383f42	0.17992881
58	0xbe23f58d	-0.16011639
59	0x3d509119	0.050919626
60	0x3ccef362	0.025262538
61	0xbd11417a	-0.035462834
62	0xbdf88d89	-0.12136371
63	0x3cefd21c	0.029274993
64	0x3d002e91	0.03129441
65	0xbe2a08f5	-0.1660498
66	0xbdd8ddc4	-0.105891734
67	0x3e5b6393	0.21424703
68	0x3e4f4a7b	0.20243256
69	0x3ea3581f	0.3190317
70	0x3df39df3	0.11895361
71	0xbe876dac	-0.2645086
72	0x3e35a776	0.17739663
73	0x3e5ca7e7	0.21548425
74	0xbe2ee7b1	-0.17080571
75	0xbe351ca6	-0.1768671
76	0x3e8efb89	0.2792628
77	0xbd3383a7	-0.043826725
78	0x3e43fe67	0.19140016
79	0x3d8d3b1d	0.068960406
80	0x3e78dd98	0.24303281
81	0x3e2f0b2e	0.17094108
82	0xbe3e9c09	-0.1861421
83	0x3e8760c1	0.26441005
84	0xbe0f267b	-0.13979523
85	0x3cc3df58	0.02391021
86	0x3e6ee318	0.23328817
87	0xbc8cd2b9	-0.017190324
88	0x3e016b09	0.12638487
89	0xbe091a5a	-0.13388959
90	0xbe6e6686	-0.23281297
91	0xbe8501bb	-0.25977883
92	0xbddff79a	-0.10935898
93	0xbe25ae2e	-0.16179726
94	0xbe4e9493	-0.20173864
95	0x3e3a3a7e	0.18186375
96	0x3e758163	0.23975138
97	0x3e6c78a4	0.23092896
98	0x3e927d21	0.2861109
99	0x3ea00d78	0.31260276
100	0x3e74ee2d	0.23918982
101	0xbe66373c	-0.22482008
102	0x3e37c7f6	0.17947373
103	0x3e622eae	0.2208812
104	0x3e2391b1	0.15973546
105	0xbcf4ef1a	-0.029899169
106	0x3c69368a	0.0142341945
107	0xbe8f2c01	-0.2796326
108	0x3e553c7a	0.20823851
109	0xbe039abf	-0.12852
110	0xbd485d91	-0.048917357
111	0x3da74011	0.081665166
112	0xbe587afd	-0.21140666
113	0xbdb430ba	-0.08798356
114	0x3e3bf525	0.18355234
115	0x3be6d23f	0.0070441063
116	0x3e50a6b3	0.2037609
117	0x3e51be57	0.20482765
118	0xbe61f21b	-0.22065012
119	0x3dff5d1d	0.12468932
120	0xbe78adbe	-0.24285027
121	0x3e6428d6	0.22281203
122	0x3d9a7377	0.075415544
123	0x3e3a415c	0.18188995
124	0xbe8dedc5	-0.27720466
125	0x3d04fcbb	0.032467585
126	0x3e098baa	0.13432184
127	0xbe50eb87	-0.20402347
128	0xbd1ad5bf	-0.0378015
129	0x3e329292	0.17438725
130	0x3e09da9e	0.13462302
131	0xbdf95d9b	-0.12176057
132	0xbdcdc4ef	-0.10047328
133	0x3e27baf5	0.16379912
134	0x3e4364d5	0.19081433
135	0xbe10fe87	-0.14159594
136	0xbe63aa80	-0.2223301
137	0x3d58448a	0.05279974
138	0x3e80a6c3	0.2512723
139	0xbe1f75c9	-0.15572275
140	0x3e22b1ad	0.1588809
141	0xbdec8d86	-0.11550431
142	0xbd20bcff	-0.03924274
143	0x3ddc958e	0.10770713
144	0x3d810e01	0.06301499
145	0x3d9f81d4	0.077884346
146	0x3e512285	0.20423324
147	0xbe7bfd73	-0.24608402
148	0x3d98557a	0.07438178
149	0xbded72af	-0.1159414
150	0x3e5f2f2d	0.2179534
151	0xbda6516c	-0.08120999
152	0xbe561c5d	-0.20909257
153	0x3e189488	0.1490041
154	0xbe611db9	-0.21983995
155	0x3e58d4ef	0.21174978
156	0xbdf3be5a	-0.11901541
157	0xbdc1f1f6	-0.094699785
158	0x3e6d2ae3	0.23160891
159	0xbde02078	-0.10943693
160	0xbda611c1	-0.08108855
161	0x3de4f735	0.111799635
162	0xbe067c68	-0.13133395
163	0xbe5a9bf5	-0.21348555
164	0xbe420896	-0.18948588
165	0x3e3311ea	0.17487302
166	0xbdfda9f5	-0.12385932
167	0xbe014202	-0.12622836
168	0xbe09a1c0	-0.13440609
169	0x3d72cc0c	0.059276626
170	0xbd3df622	-0.04637731
171	0xbd97eb07	-0.07417875
172	0xbde7d59a	-0.11320038
173	0x3e0b2b4c	0.13590735
174	0x3de0b311	0.10971654
175	0xbd807b8c	-0.06273565
176	0xbb7d151c	-0.0038617318
177	0xbddc16b5	-0.107465185
178	0xbe00fd67	-0.12596665
179	0xbe7155b5	-0.23567851
180	0xbe36ea8e	-0.17862913
181	0xbe55c026	-0.2087408
182	0xbdf1286d	-0.11775289
183	0x3e77be1f	0.24193619
184	0x3e15f807	0.14645396
185	0xbe374a30	-0.17899394
186	0xbdc14d46	-0.09438567
187	0x3e2a0722	0.16604283
188	0xbe3ec814	-0.18631011
189	0x3d5c585a	0.053795196
190	0xbe2d45d4	-0.16921169
191	0x3da772b2	0.08176173
192	0x3e664457	0.22487007
193	0xbe4b5820	-0.19857836
194	0xbe125016	-0.14288363
195	0xbe6a3514	-0.2287181
196	0xbe53620c	-0.2064287
197	0x3cf816fb	0.030284395
198	0xbce5228d	-0.027970577
199	0x3e44f24e	0.19233057
200	0x3e30df57	0.17272697
201	0xbd440008	-0.047851592
202	0xbe4f58d1	-0.20248725
203	0x3e21d1d8	0.15802705
204	0x3df8c626	0.12147169
205	0x3d9c455d	0.076304175
206	0x3dfac717	0.122450046
207	0x3cefcf19	0.029273557
208	0x3e7a6407	0.2445222
209	0xbe584ce8	-0.21123087
210	0xbe4f69ad	-0.20255156
211	0x3df9d15a	0.12198134
212	0x3e2ce1c5	0.16882999
213	0x3dc79008	0.09744269
214	0x3b97b835	0.0046301135
215	0x3e1015c9	0.1407081
216	0xbe084ebf	-0.13311289
217	0xbe0ee4d2	-0.13954476
218	0xbac4951c	-0.0014998051
219	0xbe5d62ed	-0.21619768
220	0xbe42716b	-0.18988578
221	0x3dec9d43	0.11553433
222	0xbe107d19	-0.14110221
223	0x3dd24bf2	0.10268392
224	0xbe592e6c	-0.21209115
225	0x3e0e92cd	0.13923188
226	0x3df42a3a	0.119221166
227	0x3d94ac47	0.07259422
228	0x3da80e32	0.082058325
229	0xbe0bdbb5	-0.1365803
230	0xbd482d59	-0.048871372
231	0x3d1264e7	0.03574076
232	0x3e3975bc	0.18111318
233	0xbe52fab8	-0.20603454
234	0xbd194801	-0.037422184
235	0xbe03267b	-0.12807648
236	0x3e060b05	0.13090141
237	0xbe9ae085	-0.3024942
238	0xbe411719	-0.18856467
239	0xbb08eae1	-0.0020891952
240	0x3e1154fb	0.14192574
241	0xbe249585	-0.16072662
242	0xbe74abb9	-0.23893632
243	0xbe28246e	-0.16420147
244	0x3e636ab6	0.22208676
245	0x3e94f897	0.2909591
246	0x3d483c5d	0.048885692
247	0x3e1d7c51	0.15379454
248	0xbe43c615	-0.19118531
249	0x3e3f45d1	0.18678977
250	0xbda5b72d	-0.08091579
251	0xbe69e91a	-0.22842827
252	0xbe2f30af	-0.17108415
253	0xbd4c8664	-0.049932852
254	0xbe20d9ab	-0.15708034
255	0x3e60badc	0.21946281

fc3.0.bias f4 [10]
0	0xbf08af36	-0.5339235
1	0x3d981de2	0.07427575
2	0x3e90d014	0.2828375
3	0xbe56bea5	-0.20971163
4	0xbd9288a4	-0.071549684
5	0x3e6e1778	0.2325114
6	0xbef38ff0	-0.47570753
7	0x3eb6ffe3	0.357421
8	0x3dec9f7b	0.11553856
9	0x3e31d52b	0.17366473
