save_checkpoints/LeNet5_epoch_25.pth (torch, 249863 bytes, 10 tensors)

conv1.0.weight f4 [6, 1, 5, 5]
00000000: 3f1b ebbd 7385 80bd 9aa0 43be 8a3e b9bd
00000010: 60ce 9e3e d80e c3be 5bbb 83be 119c 5ebd
00000020: 629a d03c 6770 a0ba f195 543e 4ee0 3d3e
00000030: de46 b53d 6d26 693e 7bb4 433e 198e bb3c
00000040: 12d2 a73d 70d7 793e 4a2d 0d3f 46e2 04bd
00000050: 2d57 193e d9fb 253d e9d8 97bd e644 133e
00000060: 0eec 56be f428 7bbd b046 493e e82b 2d3e
00000070: a6ed 073e 1db3 e9bb f752 d5be e7db 13bf
00000080: 8f9d 76be 3422 39be 6107 40be ef72 c8bd
00000090: 15b5 f7bd 431a 81be 3e71 bebd 4aa8 71be
000000a0: 8ecf 253e bb1e 3f3e ae9b 133e b62f 493d
000000b0: 1161 a33d bad0 c53c c963 35bc 4292 8d3c
000000c0: 88ae 223d daa1 bbbb 1804 7abc 1083 3e3c
000000d0: 5815 8abd 3d9f 813e 0e14 03be 597a c8bd
000000e0: ef25 a33e b1e5 a03e 028e 923b f4b0 473d
000000f0: ddc2 96be dd55 693e 552a 643e acf5 9a3c
00000100: 04ea 70bc 02da 21bd 3bfd c03e 4ecb 91bd
00000110: a7ae c9bd fc45 fbbd 4265 4e3e 49e4 a03e
00000120: a1a8 cfbd 7b8f 04be dc32 65be 32b5 9a3e
00000130: 4b84 643d ae33 703d fd76 bb3d 4338 863e
00000140: 4e70 a53d 68e3 7cbe 7735 a7be 4c42 22be
00000150: 3011 0bbe cdaa bbbd 7140 c9be 4bb7 11bd
00000160: 8a82 12bd 4aac 33bd 88d4 e1be b270 75bd
00000170: 5185 4e3d fd86 453e 638d d1bb c173 03bf
00000180: b95f e03d c3e5 a63d b7dc 3ebe bbee 243e
00000190: e6e3 823d d829 8c3c 6999 103c e6ec 6f3e
000001a0: 3eb8 3a3e 0383 513d d078 ce3d 8975 94bd
000001b0: ea28 b1bd 6b83 0a3e 3c96 603e c3d3 0fbe
000001c0: a937 ae3c ad74 80be 5aad 23bd d053 ecbe
000001d0: 3e24 b9be 4725 07bf 643e 8abe 4aa6 3dbe
000001e0: ac4b 3dbc bbda 08bc 1e30 ad3c 10c4 703e
000001f0: e8d6 473c dae0 edbe f8a4 eebd 150e 64be
00000200: 461b 9f3d faac 2f3e a267 a5bd 9c26 38bd
00000210: cb59 4fbe f737 26be 8186 c13c c8a1 1bbd
00000220: 712f 53be 360b 83be 5837 213e d747 693e
00000230: 832e 623e f7a4 66be 696e 20bf 50ba 81bd
00000240: a141 453e f218 eb3c 4b9d 8a3d b0b2 c1be
00000250: 47b9 96be 92d3 afbd
-0.11479806 -0.062754534 -0.19104233 -0.090451315 0.31016827 -0.38097262 -0.25728878 -0.054348055
0.02546424 -0.001224053 0.20760323 0.18542597 0.088514075 0.22768565 0.19111817 0.022894906
0.081943646 0.24398589 0.5514723 -0.032442354 0.14974661 0.040523384 -0.07414419 0.14381751
-0.20988485 -0.061318353 0.19655871 0.1691128 0.1327425 -0.0071319477 -0.4166486 -0.5775742
-0.24083541 -0.18079454 -0.18752815 -0.09787547 -0.120950855 -0.2521535 -0.09298943 -0.23599353
0.16192457 0.18664066 0.14414856 0.049117766 0.07977498 0.02414738 -0.011071154 0.017281655
0.039717227 -0.0057260813 -0.015259765 0.011627927 -0.06742352 0.25316802 -0.12800619 -0.09788961
0.3186488 0.3142524 0.004472495 0.04875274 -0.29445544 0.2278666 0.22281773 0.018915974
-0.014704231 -0.03951455 0.376932 -0.071188554 -0.098477654 -0.12269208 0.20155814 0.31424168
-0.10139585 -0.12945358 -0.22382683 0.30216366 0.055790227 0.058643036 0.091535546 0.262148
0.08078061 -0.24696124 -0.32657978 -0.15845603 -0.13580775 -0.09163437 -0.39306977 -0.035575192
-0.035769023 -0.04386548 -0.4410746 -0.059921928 0.05042011 0.19289775 -0.0063950284 -0.513485
0.10955758 0.08149292 -0.18638884 0.16106693 0.063911244 0.017109796 0.008825638 0.23430213
0.18234345 0.051150333 0.10081637 -0.072489806 -0.08650382 0.13526694 0.2193231 -0.14045624
0.021266775 -0.25089017 -0.039960243 -0.46157694 -0.36160463 -0.52791256 -0.27000725 -0.18520465
-0.011553686 -0.008352931 0.021141108 0.23512292 0.012197234 -0.4646061 -0.11652559 -0.22270997
0.07768874 0.17155829 -0.08076407 -0.044958696 -0.20249097 -0.16232286 0.023623707 -0.037996083
-0.20623566 -0.2559449 0.15743768 0.22781311 0.22088055 -0.22523867 -0.6266847 -0.063343644
0.19263317 0.028698418 0.067682825 -0.3783164 -0.2943823 -0.08585276

conv1.0.bias f4 [6]
00000000: d40a aebe bcb3 44be 82a0 8b3d 5499 5dbd
00000010: 48e1 0abe 0e97 953d
-0.33992636 -0.19209188 0.06817724 -0.054101303 -0.135625 0.07304202

conv2.0.weight f4 [16, 6, 5, 5]
00000000: 38a3 8d3d fb09 8a3d d682 493e 435a 033e
00000010: aa33 11bd 13ee 953d ffa7 86bd 8b15 9b3d
00000020: c6dd f2bd fb84 67be 6dde f4bd 598e 02bd
00000030: 68cd 1b3e 816e 33be 65bc ddbe 082a b13c
00000040: 31ca f63d 67f2 e5bd 2f0d b3be 0753 5abe
00000050: bccb 023e 84aa 7fbd 7520 1fbe dcf2 30be
00000060: 52b9 2bbe beb6 a13e 6694 1fbe a5ce f2bd
00000070: 0ee4 d53c 5a6e babd 4b43 273d dc51 b83d
00000080: 5865 f23d bcd2 64be 9b24 6cba 9672 2d3e
00000090: e0ca 773e 217a 63be bab9 6fbe 235c e7bc
000000a0: d79d 6c3e 5ba8 50be be78 7dbe 2504 53be
000000b0: bdc2 053e 061c 0bbe a4d3 75be fe96 c8ba
000000c0: eb4b 433e 098b a53d 541c bebd eb5c 453c
000000d0: ac08 793d ba05 c2bc 4d54 ccbd 1d59 91be
000000e0: f699 4abe 507e 03be e45c 3b3d a0e0 70be
000000f0: f4c9 8ebe a695 7bbe c82a 65bd 8536 3cbd
00000100: 5cc9 c5be 017b 64bd 4417 4bbe ae11 aabd
00000110: 624f 54be 820d 17bf 1407 06be 40c2 1bbd
00000120: 545f 78bd b7c5 5dbe c377 63be d4df 033e
00000130: fa78 4b3e 9c25 32be afd2 a3be 4477 61be
00000140: 325d 4abd 68e2 993e 4b93 f7bc 43b2 dbbd
00000150: d40e e6bc d62b d33d 0b95 1b3e 0654 873c
00000160: f177 39be ee33 f33d 422a 963d 41bb f4bd
00000170: 10f1 0bbe ae00 c1bc 0c49 4d3e 5883 4ebe
00000180: 3cec cdbc 8729 f63a d97f cd3b 1fdd ad3c
00000190: 1064 103e 75ed 9e3e db57 d0bd 72f2 d5be
000001a0: 957c 9cbe c319 9a3e 7a6a dabd cec3 d7be
000001b0: 8d6b 89be c65e 38bc 61e2 423e 21dc 8abe
000001c0: c466 34be 2290 1abd 6a95 243e c4c9 1fbd
000001d0: f58b 85be 5e98 91bd b680 393e efb5 c2bc
000001e0: 7452 95be c7ab c3bc de3b 003e e647 f73d
000001f0: 8036 1dbe 1265 e43e 2604 7c3e dfb8 443e
00000200: fe75 f23d 7e6f 4b3d f9d0 603e 6c91 c83d
00000210: 3bd8 e23d a079 3e3e ee99 023e c13a d5bd
00000220: ffa8 303e 1903 8c3d 71d7 063d d7d4 7e3e
00000230: d941 7dbd dcdb 1abd 30a9 1bbe d801 6d3a
00000240: 4e8c 9c3c 760a 723d c179 033d c3a8 5dbd
00000250: 1c0a f4bd 7687 4d3e d3a0 08be 9721 0cbe
00000260: 20fd 2bbe 84f8 edbd ab86 abbe 79b0 febd
00000270: 11a3 37be ae58 4a3c 328e cc3d de02 0bbe
00000280: 65b2 edbd d7c8 27be 7c26 0a3c 3f11 63be
00000290: b0e4 8ebe 30bc 6abd 4448 6cbd 4211 09be
000002a0: 0d13 7bbe d4bc cbbd 7a2f 89bd 702c 91bd
000002b0: d015 13be cc7a f8bd 028a 03be 8546 e6bd
000002c0: a4fd 26be b471 003e b093 083e 80c8 72bd
000002d0: ec72 b63d db3f 093d 43b5 803e 0118 483e
000002e0: 975c dd3d 5149 46bd 6058 92bc 3b7a 77bd
000002f0: 8c2b 1fbe 7928 5a3b cc86 c4bc 5220 343d
00000300: 36c7 57be 71b8 54bd bdc8 d83c b2b1 de3d
00000310: a976 1ebe ef41 66be a063 983d 181e 5e3e
00000320: db68 073e cdc6 3bbe e9d5 56bc 1e7a 45be
00000330: 9baf 9a3c b404 dbbd 8658 69be b057 6abe
00000340: 082d ae3d dd8c e6bd 0745 e3be d62d 69be
00000350: be9b a0be c421 ad3d 5a45 5dbe 99bd f2be
00000360: 47fd 9ebe 5207 94be d754 a7bd 890e c5be
00000370: e290 fbbd bd97 19be 6116 9ebd 5a7a 78bd
00000380: 3c99 4bbe f451 80bc 193e 2c3e 2513 713e
00000390: 70fb 6a3e e821 9e3c fc40 f9bb 2a74 ec3e
000003a0: f1f9 8f3e f725 ef3d d192 7dbd 3d85 823e
000003b0: cda5 923e e0c7 0ebe 7b39 8dbd 110d 25be
000003c0: 2bc7 733e 547f 033e 030c b0bd 6636 47bd
000003d0: ab4a 6cbd 9a09 333e 4d96 39be 297c 20be
000003e0: efff afbe 9795 fcbd 7171 7f3c 181a 643e
000003f0: 4e3a 2c3e 5dce 7b3e cd87 4b3c 35b3 df3d
0.06915897 0.06740185 0.19678816 0.12827401 -0.03544966 0.073208 -0.065750115 0.07572468
-0.11858706 -0.22609322 -0.11956487 -0.031874035 0.15215075 -0.17522623 -0.43307796 0.021626487
0.12050284 -0.11227875 -0.34970996 -0.21320735 0.12773031 -0.062418476 -0.15539725 -0.17280143
-0.16769913 0.31584734 -0.15583953 -0.118558206 0.026109722 -0.09103079 0.04083566 0.089999884
0.11835736 -0.22346014 -0.000900814 0.16938242 0.24198484 -0.22214557 -0.23410693 -0.028242176
0.23107086 -0.20376723 -0.2475309 -0.2060705 0.13062568 -0.13584909 -0.24006516 -0.0015303788
0.19071929 0.080831595 -0.09282747 0.012046079 0.060799286 -0.023684371 -0.099770166 -0.283883
-0.19785294 -0.12841153 0.045742884 -0.23523188 -0.27888453 -0.24568805 -0.055949003 -0.04595043
-0.38630188 -0.05578137 -0.19833094 -0.083041534 -0.20733407 -0.59004986 -0.13088638 -0.038027048
-0.060637787 -0.21657453 -0.22213654 0.12878352 0.19870368 -0.1739716 -0.31996676 -0.22018152
-0.049405284 0.30055547 -0.030221602 -0.1072736 -0.028083242 0.103110954 0.15193574 0.016519558
-0.1811216 0.11875139 0.07332279 -0.11949778 -0.13666177 -0.023559894 0.20047396 -0.20167291
-0.02513706 0.0018780687 0.006271344 0.021223603 0.14100671 0.3104054 -0.10173007 -0.41786534
-0.305638 0.3009778 -0.1066484 -0.42141575 -0.26839867 -0.0112530645 0.19031669 -0.2712107
-0.17617327 -0.037735112 0.16072622 -0.039010778 -0.2608334 -0.0710914 0.18115506 -0.023768393
-0.2916447 -0.02388562 0.12522838 0.120742604 -0.15352821 0.4460836 0.24610958 0.19211148
0.118389115 0.049666874 0.21954717 0.09793362 0.11076399 0.18601084 0.12754032 -0.10411597
0.17251967 0.06836528 0.032920305 0.2488588 -0.061830375 -0.03780733 -0.15201259 0.0009041107
0.019109871 0.059092008 0.032098535 -0.05411602 -0.11915991 0.20071205 -0.133426 -0.13684689
-0.16795778 -0.11619666 -0.3350118 -0.12436003 -0.17933299 0.012350244 0.09988059 -0.13575312
-0.11606292 -0.16385208 0.008432027 -0.22174548 -0.2790885 -0.057308376 -0.057686105 -0.1338549
-0.24518986 -0.099481255 -0.066985086 -0.07088554 -0.1436379 -0.12132797 -0.12845615 -0.11243919
-0.16307694 0.12543374 0.13337588 -0.059273243 0.08908638 0.033508163 0.25138292 0.19540407
0.10808676 -0.048409764 -0.017864406 -0.060419302 -0.15543956 0.0033288284 -0.023990057 0.043976136
-0.21072087 -0.05193371 0.026462907 0.108737364 -0.15474953 -0.22486089 0.07440877 0.21691167
0.13223593 -0.18337555 -0.013112524 -0.19284865 0.018882563 -0.106942564 -0.22787675 -0.22885013
0.08504683 -0.11257336 -0.443886 -0.22771391 -0.31368822 0.08453706 -0.21608487 -0.47410277
-0.3105261 -0.28911835 -0.08170479 -0.38487652 -0.122834936 -0.1499929 -0.07719112 -0.06066356
-0.19882673 -0.015664078 0.16820563 0.2354246 0.22947478 0.019303277 -0.0076066237 0.46182376
0.28120378 0.11677163 -0.061907593 0.25492278 0.2864212 -0.13943434 -0.06895729 -0.16118266
0.23806445 0.1284154 -0.08596041 -0.048635863 -0.057688396 0.17484131 -0.18123741 -0.15672363
-0.3437495 -0.123332195 0.015591011 0.22275579 0.16819116 0.2459044 0.012422514 0.10922853

conv2.0.bias f4 [16]
00000000: 66cd 0cbf ba83 07bf 1f70 23bf 12a8 57bf
00000010: 5b60 a4bf 317e 85bf 3d6f ccbe bbd2 24bf
00000020: 627e 62bf 0a2f 80bf ea74 82bd a1aa 3abf
00000030: 9173 36bf 8825 3bbf 92be 67bf f832 f0be
-0.55000913 -0.52935374 -0.6384296 -0.8424083 -1.2841905 -1.0429136 -0.39928618 -0.6438405
-0.88474095 -1.0014355 -0.06369956 -0.7291661 -0.7127009 -0.73104143 -0.9052516 -0.46913886

fc1.0.weight f4 [120, 400]
00000000: 145e 5bbd 9ec7 58be 9bb2 02bd cbb6 84be
00000010: bd9b 4abe 3d16 613d ccea 22be 3d25 e8bd
00000020: 8aa5 cbbd afe0 463e e72f 94bd e230 52bd
00000030: b4fd 09be 0448 f93d 267b 2abd ded9 143e
00000040: 1da2 84be 0e6e c2bd c90a d43d 5bfc e83e
00000050: 16e6 15bd 9772 45be 4397 3b3e d7f5 7d3d
00000060: 3942 683c dc71 663d 0ec7 8fbe 00b7 353c
00000070: 4189 ecbe 38b3 15be 7b97 90be 96c7 6abc
00000080: 31f9 2c3d 04d2 4bbe 3f15 91be 83f7 8fbc
00000090: 4165 39be 266b 0b3e 6288 26bd b7e5 283e
000000a0: 025b 2fbe 4cfb 9cbe 0a03 0ebe 26a8 073e
000000b0: 24a3 d0bd 6d0b 50be 602a f63d b21a 9e3d
000000c0: d50e 223d 6172 613e e1ca 75be b645 49be
000000d0: 30dc 81be d7dc 18be 6d1c 1dbe c16a ea3d
000000e0: a432 b63e a16c 7e3e 4b88 e53c 771f 9c3d
000000f0: 32df 5cbd f037 46bd e428 9abe 8362 ed3d
00000100: 7c4c 333e 288f eebd 34df a3be 8b47 7c3d
00000110: 041c 8a3d 0269 b23e d23a 363e ea26 38be
00000120: 43ea 6c3d 3684 ec3c 03a6 9b3e 4228 6f3e
00000130: fefc 80bb 3b1e 8bbc 8636 763e 860c e13d
00000140: 495f cbbd f1d3 56bd baa6 e4bb 47fa 853e
00000150: cbb4 303e e604 263e 7e7f 03be 772c 98be
00000160: 15c4 47be e13b 49be 417d c2bd cef0 953e
00000170: eb90 7bbc eb2e 6d3d a46f bebd b312 26be
00000180: c25a 6b3e 860f 0a3e fa5a 7b3d 0477 e9bd
00000190: 190c 05be ea78 15be 1f9b 2a3d 8455 63bc
000001a0: 902f 8f3d 745f c13d 33d8 d33d e4b2 ab3e
000001b0: 2fbc 343e faec 15be 157f d9be c808 1e3e
000001c0: 34fc 44be b2c4 e8bd a7f6 0fbf c70f 173c
000001d0: 9abd c2bd 3c87 3bbe 6316 8cbe fb42 8ebe
000001e0: 1ffb 623e 5942 693e b679 cf3d 750b 8dbc
000001f0: cc36 63bd cabf 9c3d 5282 37be 3084 6bbe
00000200: dff7 85be 9757 16bd 2e19 82be a5dd e0bd
00000210: 210d 07be e757 fcbd 6b77 17be a727 833e
00000220: 27e7 57bd f6b2 c83d f819 21be 297d 06be
00000230: 96e4 81be 9a8e 12be 51ba b43d a857 88bb
00000240: d34c e2be aae8 51be 41a8 2c3e 936f fc3d
00000250: 7c78 e6bb 4015 abbe 57bc abbd 1ad6 5abe
00000260: 5521 04bf 0c95 6cbe c96a dfbe 5c1a 99bc
00000270: 9f2c 51be dc88 e5be ca5a 0cbe 21c8 8cbe
00000280: 7abc 203e 16fc 223e 1b72 7e3d bcc9 97bd
00000290: db86 82bd 0a7b 6d3e 9849 c4bb 7be1 303e
000002a0: 8b2e 813e 23d5 0dbe a0aa 84be 84c5 093e
000002b0: 775d 88bc caf2 28bd fe9b b6bc 0f80 27be
000002c0: 4b1f 00be 27c5 1bbe 3cf5 6e3e 5835 a63d
000002d0: dcac 713e 0944 663c 81d8 c23c 60a6 d83e
000002e0: 0a43 593e fecc 10be 720a 773e cc46 383e
000002f0: da2f 8f3c ad7e 9fbe 8d0f 92be 55ac d33d
00000300: ec84 d8be 0d80 c03d 2bb8 97bd 474c 99bc
00000310: 525c a43d f8a4 f7bd 3c89 8b3d c039 043e
00000320: 1857 cdbd 19c3 1fbe 91db 83bd 5f16 91bd
00000330: 6c3d 9a3e 9e2a 12be 8aca dd3d ab20 60be
00000340: eaee 273e 2780 fe3c 1226 e9bd 566f 823e
00000350: d09f 2f3d db8a ee3e 7cd3 8c3d 86b8 95bc
00000360: 91a3 a43d 537f 54bd 111e ae3d 3729 fabc
00000370: f606 d6be dd1e e7be b368 36be 7a8d 033e
00000380: 5319 7a3e d11c eb3d 0542 3e3d 3102 703e
00000390: f50c 3d3e eced 813e b796 7fbe ad30 113e
000003a0: 7b31 9b3e fbe9 543e 3609 92bd 972b a33e
000003b0: a3c4 d53e 1c55 453e 01a8 483e f363 0dbe
000003c0: 4b5b 79bd 67f5 893e dd34 223e d8c1 f23d
000003d0: b4a2 aabd 04d3 26be b150 8cbd 7b4e 973d
000003e0: ddba d0bd a566 6c3e 1f9c 913d b042 313d
000003f0: 791b 923e b5b4 573e 6ce0 1a3c 4f0a bc3e
-0.053556517 -0.21169898 -0.031908613 -0.2592071 -0.19785972 0.05495285 -0.1590988 -0.11335228
-0.099436834 0.19421647 -0.07235699 -0.05131615 -0.13475686 0.12171939 -0.04162135 0.14536235
-0.25904933 -0.094936475 0.103536196 0.45505032 -0.03659638 -0.19281994 0.1831942 0.06200203
0.014175945 0.05626093 -0.28081554 0.011090994 -0.46198466 -0.14619148 -0.2824057 -0.014329812
0.042229835 -0.19904333 -0.28336522 -0.017574077 -0.18105032 0.13615093 -0.04065741 0.1649388
-0.1712456 -0.30660474 -0.13868347 0.13247737 -0.101873666 -0.20316859 0.12019801 0.077199355
0.039564926 0.22016288 -0.24003173 -0.19655499 -0.25363302 -0.14927994 -0.15342875 0.11446143
0.3558551 0.24846126 0.028019091 0.07623189 -0.053923793 -0.04839319 -0.30109322 0.11591055
0.17509645 -0.11648399 -0.32006228 0.061591666 0.06743625 0.3484574 0.17795876 -0.17983595
0.057840597 0.028871637 0.30400094 0.23355201 -0.003936409 -0.016982188 0.24044237 0.10988717
-0.099302836 -0.052448217 -0.006977883 0.2616751 0.17256467 0.16212806 -0.12841603 -0.29721424
-0.19508393 -0.19651748 -0.094965465 0.29285282 -0.015354375 0.057906073 -0.092986375 -0.1621807
0.2298384 0.13482484 0.06136606 -0.113996536 -0.12992896 -0.14596906 0.04165184 -0.013875369
0.06991494 0.09442034 0.10343971 0.3353492 0.17649911 -0.1464118 -0.42479768 0.15433037
-0.19236833 -0.11365642 -0.56235737 0.00922007 -0.0950882 -0.18313307 -0.2736083 -0.27785477
0.22166108 0.22779216 0.101306364 -0.017217377 -0.05547218 0.07653768 -0.17920807 -0.22999644
-0.26165673 -0.036704626 -0.25409836 -0.10979775 -0.13188602 -0.123214535 -0.14791648 0.2561619
-0.05271068 0.09799759 -0.15732563 -0.13133682 -0.2536971 -0.1431221 0.088245995 -0.00416084
-0.44199237 -0.2049891 0.16861059 0.123259686 -0.007033406 -0.3341465 -0.08385532 -0.21370736
-0.5161336 -0.23103732 -0.43636158 -0.018689327 -0.20427178 -0.44830978 -0.13706508 -0.27496436
0.15696898 0.15916476 0.06212054 -0.07411525 -0.06373378 0.23191467 -0.0059902184 0.17273514
0.25230822 -0.13850836 -0.25911427 0.13454252 -0.01664613 -0.041247167 -0.02229118 -0.16357444
-0.12511937 -0.15211926 0.23335737 0.08115643 0.23601097 0.014054307 0.023784878 0.42314434
0.2121698 -0.14140698 0.24125078 0.17995757 0.017478872 -0.31151333 -0.2852749 0.10335604
-0.4228891 0.09399424 -0.07408174 -0.01871313 0.08025421 -0.12092012 0.06813285 0.12912655
-0.100263774 -0.15601768 -0.06438363 -0.07084345 0.30124986 -0.1427407 0.10829647 -0.21887462
0.16399732 0.031066967 -0.113842145 0.25475568 0.04287702 0.46590313 0.06876275 -0.018276464
0.0803901 -0.05187924 0.085018285 -0.03053723 -0.41802186 -0.45140734 -0.17813377 0.12846938
0.24423723 0.11480106 0.04644968 0.23438336 0.18461974 0.25376832 -0.24959837 0.14178725
0.30311188 0.20792381 -0.07130663 0.31869194 0.41751584 0.19270748 0.19595338 -0.13807659
-0.06087808 0.2694504 0.15840478 0.11853379 -0.083318144 -0.16291434 -0.06851328 0.07388016
-0.10191891 0.23086031 0.07109856 0.04327649 0.28536585 0.21065028 0.00945292 0.36726615

fc1.0.bias f4 [120]
00000000: 7bdf 04be fbaf 133d 9009 62be 9f41 2abe
00000010: 2c03 aabe 8edd 94bd 5ffa 89be 86a3 163d
00000020: 7ccf ca3d bd78 86be 0d8a 653d 264f a7be
00000030: 294e 31be 6bcb 5fbe 730e ffbe 02dc 9f3c
00000040: 7666 77be 51c4 203d ea83 febd d641 003e
00000050: 2fd3 b13e 497d 3fbe 6317 613c 646d 8cbd
00000060: f3a1 c1bd 31d0 4dbb 20e1 2ebe 45ce 503d
00000070: ecd0 6a3e 4cb8 bebc 81f0 003e 475f bdbe
00000080: 36f0 89be cf1b a6bd 48d5 123f 6d13 fe3d
00000090: 199c 93be 3535 bd3d c05c 69be c40b 17bd
000000a0: e6fa 973e ba1d 1d3e 5601 3e3e 06a7 98bd
000000b0: d5f8 8fbe c14e 023d d743 4e3e 73b6 7abe
000000c0: 4cd0 93be b245 563e 7c31 b2bd a285 ee3d
000000d0: b2aa 57be e58d b63e 8dd0 a2bd 9996 a5be
000000e0: dde5 f53e 2542 ad3e e5fa 473d 829e b6bd
000000f0: f078 0abe 0a3e 87bd fe24 443e b2a4 04be
00000100: 5cd1 443d 5610 773e 216f c5be b35e 8bbd
00000110: 5597 f3be 6a24 89be 4fbe 463e 943b b03d
00000120: df72 5ebd f5d1 3abe e4c0 80be b4a0 8c3c
00000130: f22e f9be c597 c43e b41c 783d 06e3 2abe
00000140: 0539 21bd 5bc5 e8be 5c30 b8be cfc6 ea3e
00000150: 66d6 51be c56d a3be 989c 003f 690e 97be
00000160: 64f2 423e e2b8 49bd 1f9a 3d3e d1f1 43be
00000170: 11fe 1d3f bd5b 653e f1c6 7cbe adc7 ba3d
00000180: 3cce debd 6992 9c3c 543a aabe 5ba9 d63e
00000190: cdd5 0ebd b803 4fbd efaa 673d b18f 453e
000001a0: 721b e3be e2e7 703e da33 a1be 8060 64be
000001b0: 0a69 473d 972e 313e 3d87 d53c a740 dc3d
000001c0: 5816 b33e d67e 683e b907 f6bd 2e13 80be
000001d0: 0432 8f3d 5447 5fbe d5c9 8a3e eb8a 5a3e
-0.12975876 0.0360565 -0.2207396 -0.16626595 -0.33205545 -0.07268821 -0.2694883 0.03677704
0.09902856 -0.2626399 0.05603986 -0.32677573 -0.17314972 -0.21854942 -0.4981571 0.019514088
-0.2416018 0.039249722 -0.12427504 0.12525114 0.34731433 -0.18700136 0.013738486 -0.06856802
-0.094547175 -0.003140461 -0.17078066 0.050977964 0.2293126 -0.023281239 0.12591745 -0.36986753
-0.2694108 -0.08110773 0.5735669 0.12406049 -0.2883003 0.09238664 -0.22789288 -0.036876455
0.29683608 0.15343371 0.18555197 -0.07453732 -0.2811953 0.031813387 0.20143066 -0.24483661
-0.28869855 0.20925024 -0.08700845 0.11646582 -0.21061209 0.35655132 -0.07949934 -0.3234146
0.48026934 0.33839527 0.048823256 -0.08916952 -0.13522696 -0.0660363 0.19154736 -0.12953451
0.048051223 0.24127325 -0.38561347 -0.06805172 -0.47576395 -0.26785594 0.19408534 0.086051136
-0.05430877 -0.18244155 -0.25147164 0.017166473 -0.4866863 0.3839704 0.06057425 -0.16688165
-0.03936102 -0.4546307 -0.35974395 0.45854804 -0.20491943 -0.31919685 0.50238943 -0.29503182
0.19037777 -0.049248584 0.18515824 -0.19135214 0.617158 0.22398277 -0.24685265 0.091201164
-0.1087918 0.019112783 -0.33247626 0.41926083 -0.034871865 -0.050540656 0.0565595 0.19293095
-0.44356877 0.23525956 -0.31484872 -0.22302437 0.048684157 0.17302929 0.026065463 0.10754519
0.34977984 0.22704634 -0.12013192 -0.25014633 0.069919616 -0.21804553 0.2710711 0.21342055

fc2.0.weight f4 [84, 120]
00000000: ad08 393e 52d3 df3d c8a6 11be a870 fa3c
00000010: e696 d5be 1475 903d dd94 823d 6232 a33e
00000020: 07e8 973d e37d 533a 37f2 933e 5340 ce3d
00000030: 3329 f6bd 43a1 b93d 984c 6dbc 39b2 e13e
00000040: b760 033e ae1c cc3e f1f1 66be ef3a 913e
00000050: 0391 1dbd 2977 423d 555d e6bc b273 26be
00000060: a7de 0a3e f75c 4abd 560d 49bd ca52 0c3f
00000070: fd62 933e a9e9 cdbe fa03 bebe 8a12 c83b
00000080: 6428 283e eddc d1be 9936 ba3d 74c1 053d
00000090: 103f 163d 0d2b b03c 1813 aebe ee49 10be
000000a0: df69 7ebd 3b4f c0bd 8184 1e3e 4dcc 56be
000000b0: 417d 1a3e b25c ce3d 2c9b 1a3e 4148 ea3c
000000c0: 84c1 513e 8514 74bd b70a 413e 50d6 85be
000000d0: 6575 503e 0cfc 16be c236 883e 4aa0 8fbd
000000e0: f731 7c3d 0752 843c 51b3 463e 5f65 6abe
000000f0: 3d42 c0bd 1da8 a03d 2a4c c43c 2fef 03be
00000100: 688a 48bc 3bba 2f3c f805 1cbe 3bb0 4abe
00000110: 1db2 fbbd 1623 13be 97c7 603e 7390 073e
00000120: f236 c2be 9c0f 0d3e baba e4bd 720a 4e3d
00000130: b26e d73d c498 f9bd 0f84 2abc c8d8 8b3d
00000140: 6817 253e 3d6a d1bd 112b 85bc 716c 0bbe
00000150: 1603 a23b 248e e23d d719 043e 1301 cd3b
00000160: 0483 553d 7007 993d 65a2 463e 1c50 a9be
00000170: b488 a73d e8f9 e3bd 1377 5dbe c5da 51be
00000180: 2c81 8f3e 3cf1 71be da56 973e 3423 ebbd
00000190: d92d 69be dc9d 8ebe 7255 123e 634b 3bbe
000001a0: c3f4 c2bc e019 5cbe 6231 2dbc 0963 063d
000001b0: 3eb9 763d d3f5 babc acc1 d8bd ca37 073d
000001c0: ae8f bd3e e086 82bd 56e7 27be badb 48be
000001d0: 59b3 44bd d55a 9fbd 49ca cb3e 647e 193e
000001e0: de18 453e 2394 343e c0b7 773e 50b7 0a3e
000001f0: 5534 37be 1176 aebd 59be 883e ab8e c93c
00000200: bc20 d1bd 04e1 cb3d 2f5c 263e 5d39 083d
00000210: f8dd ac3e 14a8 c03e b2a9 163e 8460 a53d
00000220: 7d43 463e 468c ea3d 4a65 29bd 5ff8 f7bd
00000230: 4977 9dbd 6b14 163e c2e2 3cbd 8998 2abd
00000240: cbf0 6cbc 725e 29be 669e 523d 902d 123f
00000250: 675d 443d 9f99 5abd f489 f5bc 01d8 0b3e
00000260: bea2 453e 8652 20be 8902 8dbd b335 fdbd
00000270: c15f 8b3e fefb 923e 547f fc3c 34d6 9dbe
00000280: a044 5dbd 54df dcbd 5f49 0bbd f707 1c3e
00000290: c81f e53a 578d 1e3e 31aa 1abe d65a 90bc
000002a0: 950b d83e b196 27be 7419 203e b551 efbd
000002b0: 8e43 3abe b774 28be 64f5 b3bd 3a6f 493e
000002c0: 30f0 553d bf04 d53d 6f3c de3d 108a ef3d
000002d0: 061e 283d 4807 31bd f12a 41bd 8dc6 623e
000002e0: 3768 293e 7a95 4abe 1049 93bd c70c 04bd
000002f0: 5d42 fb3d d4c1 f63a af91 2b3e 51b4 b43e
00000300: 5dad 95ba da90 413e a2d4 743e 9c8f a63e
00000310: 3733 c33d 9d50 74be 1700 5f3e f301 dabd
00000320: 52e4 0dbe a535 e03e 75fa 063e 6ae1 97be
00000330: 3a87 e33e d80e dc3d 5f97 51be 7e2f dd3d
00000340: fdcc 9ebd 3fb7 123e 8472 d2bc 8c40 e33c
00000350: 3b0b 3abe a152 d3be df0b eebd 835b 33be
00000360: 027b 19be 94c7 40be a5b7 6f3b 85fd 4ebe
00000370: 0461 40be f0b5 28be 2d88 d13b 69cb f8bd
00000380: 2c9e 123e 83c4 b9be 823c 013e 5b79 03be
00000390: fc0c 8cbc 9e36 70be 2bb2 203e 74cd 133d
000003a0: 40b7 cf3d d1f5 a7bd 22fb 8cbb a260 1b3e
000003b0: 33d3 4ebe 5d1e 373e b650 d0bd 9dcb 0d3e
000003c0: 6b4a 2a3e 5990 773e bdaa f43c 3f74 ca3d
000003d0: 187f 023d f4cf 4cbe 0389 803d 2002 a63c
000003e0: 2db0 ab3d 0517 6bbd 51ba 1ebc c4da 00be
000003f0: b11a 833e f7c1 e13d 4a8c 313c 5905 ffbd
0.18069716 0.10928978 -0.14223778 0.030571297 -0.4171669 0.07053581 0.0637605 0.31874377
0.074173026 0.000806777 0.28895733 0.100708626 -0.12019577 0.09063961 -0.014483593 0.44081286
0.12829863 0.3986563 -0.22553231 0.28365275 -0.038468372 0.04747692 -0.028120676 -0.16255072
0.13561498 -0.049405064 -0.049084984 0.54813826 0.2878646 -0.4021733 -0.3711241 0.0061057257
0.16421658 -0.40988865 0.09092445 0.032655194 0.036681235 0.021504903 -0.33998942 -0.14090702
-0.062112685 -0.09390112 0.15480234 -0.20976372 0.15086843 0.10076274 0.15098256 0.028598906
0.20483977 -0.05958988 0.18851744 -0.2614007 0.20357282 -0.14744586 0.26604277 -0.070129946
0.061571088 0.016152395 0.19404341 -0.22890233 -0.09387634 0.07844565 0.0239621 -0.1288421
-0.01224003 0.010725553 -0.15236652 -0.19793789 -0.12289832 -0.14368853 0.21951137 0.13238697
-0.37932545 0.13775486 -0.11168428 0.05030293 0.1051916 -0.12187341 -0.010407462 0.06828457
0.1612221 -0.102253415 -0.016255887 -0.13615586 0.0049442155 0.110622674 0.12900482 0.0062562316
0.0521269 0.07472122 0.19397886 -0.3306893 0.08180371 -0.1113165 -0.21627454 -0.2049361
0.28028238 -0.2362718 0.2955845 -0.11481324 -0.22771396 -0.27854812 0.14290407 -0.18290477
-0.023798352 -0.21494246 -0.010570856 0.03280929 0.060235254 -0.022822296 -0.10583815 0.03301219
0.3702368 -0.063733816 -0.16396841 -0.19615069 -0.0480226 -0.07780997 0.3980277 0.1498962
0.19247767 0.17634635 0.24191189 0.1354649 -0.17891057 -0.08518613 0.26707724 0.024604162
-0.10211322 0.09955028 0.16246103 0.03325783 0.337631 0.37628233 0.14713171 0.080750495
0.19361682 0.11452536 -0.041356362 -0.1210792 -0.076887675 0.14656226 -0.04611469 -0.041649375
-0.014461706 -0.16539934 0.05142059 0.5710077 0.047940638 -0.05336916 -0.029973008 0.13656618
0.19300362 -0.1565648 -0.06885249 -0.12363758 0.27221492 0.2870788 0.030822434 -0.30827487
-0.054020524 -0.10784784 -0.03400552 0.15237413 0.0017480785 0.15483604 -0.15103985 -0.017621439
0.42196336 -0.16366078 0.1563471 -0.11685506 -0.18189833 -0.16450773 -0.08787039 0.19671336
0.052231014 0.10401296 0.108513705 0.11696255 0.041044258 -0.043219835 -0.047160093 0.22146054
0.16543661 -0.19783583 -0.0719167 -0.032238748 0.12268517 0.0018826076 0.16754793 0.3529382
-0.0011419464 0.18902913 0.23909238 0.3253144 0.09531253 -0.23858877 0.21777378 -0.10644903
-0.13856629 0.43790928 0.1318148 -0.29664165 0.44439107 0.10745019 -0.204679 0.10800074
-0.07753942 0.14327715 -0.02568937 0.02774074 -0.18168347 -0.41273978 -0.11623358 -0.17515378
-0.1498833 -0.18826133 0.0036577967 -0.20213898 -0.18787009 -0.16475654 0.0063944072 -0.121481724
0.1431815 -0.3628274 0.12620738 -0.12839262 -0.017096035 -0.23458335 0.15692966 0.036084607
0.10142374 -0.08201183 -0.0043023983 0.15173581 -0.20197754 0.17882676 -0.101716444 0.13847204
0.1662995 0.24176158 0.02986657 0.098854534 0.031859487 -0.20001203 0.06276133 0.020264685
0.08383212 -0.057395 -0.009687976 -0.12583452 0.256063 0.11023324 0.01083667 -0.12452192

fc2.0.bias f4 [84]
00000000: 79e1 1fbe b4ea fbbe f051 afbe 80a8 e53d
00000010: 0ad0 a5bd 5b88 70be bc0f 393e 7f30 d2bb
00000020: f3e8 84bb 9b21 c8be 3bc8 f53e ff8f 083e
00000030: 16b0 6d3d f43a 123f d9f2 b3bc bc14 e4bc
00000040: 86a2 42bd b483 8bbe ba15 83be f364 4a3d
00000050: b8d9 abbd be4c 743e 00cd b63d b965 243e
00000060: 45ba 13be 1d5f f33e 56c0 d73d 4abb 203d
00000070: 274f c23d b62f 403d 5573 dc3e 1a40 0e3e
00000080: 033f 3dbd fbad 753e 8d76 9dbe 50ea dbbd
00000090: c7be 48be 63fa bbbe 755d bebe 465f 1b3d
000000a0: 5a6e 8d3d bb11 fd3e 7879 a0be 0289 af3e
000000b0: 7383 f4bc a524 be3e 0232 5cbb 48e2 0e3e
000000c0: da52 23be 966e 27be b1f9 ccbd 6483 6c3e
000000d0: 9c7b 013e 4e05 3e3e 498b 07bc 0c33 0dbc
000000e0: fa2e 86be 25e6 953e c65c 8dbe ceb2 6dbe
000000f0: 6027 c93e 1c05 83be 7b55 ea3e 2d16 903d
00000100: cad0 413e dc5f 643d 5746 833e 179a a73b
00000110: 090b a63b 7aaa 413e b8e3 6dbe 7df1 10be
00000120: 1209 d1be 84bb 81bd 1f3a 9dbe 1fc6 2ebe
00000130: 7241 513f b586 a63d e29e 593e d83f b53d
00000140: 4809 f3be d34d abbe 4217 eb3d f3b3 72bb
-0.15613355 -0.49202502 -0.342422 0.112137794 -0.08096321 -0.23489515 0.18072408 -0.0064144726
-0.00405609 -0.3908814 0.48004326 0.1333618 0.058029257 0.57121205 -0.021966385 -0.027841918
-0.047518276 -0.2724892 -0.25602514 0.04941268 -0.08391136 0.238574 0.089258194 0.16054429
-0.14426525 0.47533503 0.10534732 0.039241113 0.09487753 0.0469205 0.4305674 0.1389164
-0.04620267 0.2399215 -0.3075451 -0.10738051 -0.19604026 -0.36714467 -0.37180677 0.037932657
0.069058135 0.4942759 -0.31342673 0.34284216 -0.029847836 0.37137333 -0.0033599143 0.13953507
-0.15949574 -0.16350779 -0.10008562 0.23096997 0.1264481 0.18556711 -0.008272954 -0.008618128
-0.26207715 0.2927715 -0.27609843 -0.2321274 0.39287853 -0.25589836 0.4576834 0.0703548
0.18927303 0.05575548 0.25639603 0.0051148045 0.0050672335 0.18912688 -0.23231399 -0.1415462
-0.40827233 -0.06334594 -0.30708405 -0.17067765 0.81740487 0.08131162 0.21252015 0.08850068
-0.4746802 -0.33457813 0.114790455 -0.0037033528

fc3.0.weight f4 [10, 84]
00000000: 6c65 e0bd daee 193e 908e 24be f103 92bc
00000010: dbc0 983d 73b8 863e 0442 463d f645 1cbe
00000020: ff41 f8bd 260e 02bd 6828 603e f0a8 23be
00000030: a63d b1bd 513d 63be f704 903d 024d 773d
00000040: 6698 25be 8bbc 9d3e 9151 233e e43d 92be
00000050: 0162 b2be e963 773e 5a96 903e 7048 da3d
00000060: 5e8f 143e bd5d 80be 182f f4bd 2bc2 193e
00000070: c899 483e 5ff4 493e 0560 c73d 4376 5a3b
00000080: 5145 20be 0d4f 90be e88f a73e be52 d03e
00000090: cbfe 10be ef82 f2bd 76f8 af3e 6a8d 383e
000000a0: e412 00be 7eea 0dbe 559f 9dbd e3b6 37be
000000b0: 340b b0bd 76fc a6be bf54 91bd e4fc 733e
000000c0: 6b3f b4bd 9995 b03d 2601 c5bd 3908 363e
000000d0: 37f8 813e d372 123e 858c 6c3e 139a 1f3d
000000e0: f74f 713e 581e 643d d6f0 2ebe f59b 223d
000000f0: 8a6a 59be c03d a7bc b205 843d 7f17 98bd
00000100: c90d b9bd 2cf3 2b3e 2721 923e 0dce 083c
00000110: ee0b ab3e d1be e7bd 72b1 823e 1cbf 753e
00000120: b672 9a3d 7aef 6d3d bc67 dc3d 345d 193d
00000130: 4c2e 553d fda7 5dbc 2e2f a13d b06d 563e
00000140: 377b 9cbe 32ed dc3d 083e aabd 713a d93d
00000150: 56a2 b0bd e57f 6ebe 23a9 64be 00dd 823e
00000160: da82 2fbe dd58 51be d419 383d fd96 8bbd
00000170: 9fc9 103e 0e44 a8be 197f cc3e 99b0 bc3d
00000180: 76e8 ffbd 8594 2b3e 1b3b 8ebe 0079 f1bc
00000190: 2284 28be 7260 8abb 9b17 98bc 2fbb 27be
000001a0: 8130 3fbe dd2f edbd b04a 713e 591c 87b9
000001b0: a917 8c3d 5215 43be 5a8c 923e 94aa dd3d
000001c0: ebab 5abe 86c7 e2bd 9074 783e d729 073e
000001d0: 6df6 2bbe f0c6 713d 3091 013e e8fa ae3e
000001e0: ef7c 013e c33c 893c ba81 fe3d a061 19be
000001f0: 4293 013e cf45 6d3e d0f3 6a3e a723 7b3e
00000200: e81b d8bd 7b0e 7c3d e3bd 1ebe 7a78 4f3e
00000210: f5da dfbd 5d2e c93d 9b28 30be a606 123e
00000220: cd59 1ebe c8a1 053c 7e6c afbc e065 3dbd
00000230: 551f 92bd 4947 3f3e 966e 75bd 6902 283d
00000240: 5e1a e5bd 5720 84bd 8848 3bbe e198 de3d
00000250: 02dd acbd f7c6 08be c2bb aa3d 7eae aebd
00000260: 6765 e1bd e0fe bebd c75e 62be 50f1 85be
00000270: 0ece 37be 5e43 733e b7cf 6fbe 389a 88be
00000280: 6deb 703d a4d4 8d3e 79ef 1a3e f66c 83bd
00000290: bcf2 b4bc 9408 91be 7860 963e 783f 4d3e
000002a0: 86dc 2d3e 7220 4abe dcd0 4dbe d22c 3dbc
000002b0: 5b27 8abc 1b04 55bd e753 813e cd2d 28be
000002c0: caed 053e 1d16 3bbe 2845 96bd 4938 62be
000002d0: 9fb8 57be f485 56bd bf7e 863d fae8 863d
000002e0: c2a6 49be 8ea3 983e 01ee 0ebd 92bc 0a3e
000002f0: f375 493e d678 453e f6df 3f3d d6b1 5bbe
00000300: ec9d d2bd a446 96bc c274 dcbd 6473 14be
00000310: 7925 abbd 01ac 5f3e 2f3b bbbd 34b1 bebd
00000320: bf84 4fbe e6ad 3a3c ee8b 30be e89d b6bb
00000330: 0a93 dcbd dbb0 9cbe 93e3 e5bd e88d 15be
00000340: 9a5b 4ebe 1813 1fbe 2988 95bd 66eb 9e3d
00000350: e895 6ebd 237d 1c3e 5842 64bd ef13 c33d
00000360: f7ea 62be cc90 36be a752 f9bd 076f 783e
00000370: 5c38 8f3d edb7 cb3d fc67 c4bd 3cb4 2f3e
00000380: 958f 4e3e 83c0 f43d 84a8 12bd f8b9 ff3d
00000390: 6ea5 313e 6cf7 233d e745 65be f0be bc3d
000003a0: a9e3 81be 27aa babd 1521 71be 51f7 193e
000003b0: 0de7 b33d 6372 553e 2b30 143d 0232 113d
000003c0: d74f 0abe 9a61 b7bd a8ac 44be 6b3e 48be
000003d0: 025b 8c3e b596 e03d 1b05 9dbd 5de2 6cbd
000003e0: 012f 78be cb11 7ebd 924c f8bd b7f2 143e
000003f0: 4aa3 3f3e 964d 1e3e 85df e73d fec8 d5bd
-0.10956845 0.15032521 -0.16070008 -0.017824145 0.07458659 0.263126 0.0484028 -0.15261063
-0.12121963 -0.031751774 0.21890414 -0.15982413 -0.08654337 -0.22191359 0.07032197 0.060376175
-0.16171417 0.3080791 0.15949084 -0.28562844 -0.34840396 0.24159206 0.2823971 0.106583476
0.14507815 -0.25071517 -0.11923045 0.15015475 0.19589913 0.19722126 0.09735111 0.003333465
-0.15651442 -0.2818531 0.3272698 0.40688127 -0.14159696 -0.1184138 0.34369248 0.18022695
-0.12507206 -0.13858983 -0.07696406 -0.1794086 -0.08595887 -0.32614487 -0.07096242 0.23826939
-0.088011585 0.086222835 -0.0961936 0.17776574 0.25384685 0.14301614 0.23100479 0.038965296
0.2356566 0.055693 -0.17084059 0.039699513 -0.21232048 -0.020415187 0.06446399 -0.074263565
-0.090358324 0.16791981 0.28540918 0.008349908 0.3340754 -0.11315692 0.25526005 0.23998684
0.075414106 0.05808971 0.10761973 0.0374424 0.052046105 -0.013528821 0.07870327 0.2094028
-0.30562755 0.10787429 -0.08312613 0.1060685 -0.08624713 -0.23290975 -0.22330146 0.25559235
-0.1713976 -0.20444055 0.044946507 -0.06815908 0.14139412 -0.32864422 0.39940718 0.09213371
-0.1249551 0.16755874 -0.2777947 -0.029476643 -0.16456655 -0.004222923 -0.018565943 -0.16379999
-0.18670847 -0.11581395 0.23563647 -0.00025770327 0.0684045 -0.19051102 0.28622705 0.10823551
-0.21354644 -0.11073212 0.24263215 0.13199554 -0.16793223 0.059027612 0.12653041 0.341758
0.12645315 0.016752606 0.12427087 -0.14978647 0.1265383 0.23171161 0.2294457 0.24525319
-0.10552198 0.061537247 -0.15502124 0.20260802 -0.109304346 0.09823296 -0.1720299 0.14260349
-0.15463944 0.008156247 -0.021414038 -0.046239734 -0.07134882 0.18679537 -0.059919916 0.041017924
-0.1118667 -0.06451481 -0.18289387 0.10869003 -0.084405914 -0.13357149 0.08336593 -0.085293755
-0.11005669 -0.09325957 -0.22106467 -0.2616067 -0.17949697 0.23756167 -0.2341908 -0.2668016
0.05881827 0.27701294 0.15130414 -0.06417267 -0.022088401 -0.28326857 0.29370475 0.20043743
0.16978654 -0.1973894 -0.20099205 -0.0115463305 -0.01686447 -0.05200587 0.25259325 -0.16423722
0.1307899 -0.18270154 -0.07337409 -0.22091784 -0.21066521 -0.05237384 0.06567144 0.065874055
-0.1969252 0.29812282 -0.034894947 0.13548496 0.196739 0.19284377 0.046844445 -0.21454558
-0.102840275 -0.018344231 -0.10764457 -0.14497143 -0.08356757 0.21842958 -0.09142148 -0.093111426
-0.20265482 0.011394 -0.17240879 -0.005573023 -0.10770233 -0.3060368 -0.11225047 -0.14604914
-0.2015213 -0.15534627 -0.07301361 0.077597424 -0.05824843 0.15282111 -0.055727333 0.095252864
-0.22159944 -0.17828673 -0.12173968 0.24261104 0.069931716 0.099471904 -0.09590146 0.17158598
0.2017196 0.11950781 -0.03580524 0.124866426 0.17348263 0.04003088 -0.22389947 0.09216106
-0.25369003 -0.09114485 -0.23547776 0.1503575 0.08784304 0.20844416 0.03617875 0.03544808
-0.13507019 -0.08954163 -0.19206488 -0.1955506 0.27413183 0.10966245 -0.076669894 -0.057833064
-0.2423668 -0.062028687 -0.1212398 0.14545713 0.18714634 0.15459284 0.1132193 -0.10438727

fc3.0.bias f4 [10]
00000000: 26c9 11bf 21b0 fabc 740a 3c3e f0c1 fabe
00000010: a976 62bd b7e5 c33d eeea 08bf 65e2 483e
00000020: 1f9e b03e 9b8c b2bb
-0.56947553 -0.030601563 0.18363363 -0.48976088 -0.055288944 0.09565299 -0.53483474 0.19617613
0.34495637 -0.0054488904
