save_checkpoints/LeNet5_epoch_42.pth (torch, 249863 bytes, 10 tensors)

conv1.0.weight f4 [6, 1, 5, 5]
000000 b6 09 e1 bd 15 29 01 bd 85 22 de bd 11 9e 9d bd
       -0.1098818 -0.03153332 -0.10846428 -0.076961644
000010 29 50 15 3f 7f 7d 0c bf 5c d6 a1 be c2 ed ab bd
       0.5832544 -0.5487899 -0.31608856 -0.08394958
000020 03 1a d5 3d 82 0b 41 3e fc c3 c5 bb 3c 67 db 3d
       0.10405352 0.18852046 -0.006035326 0.1071305
000030 ee 00 9e 3b 65 d8 bc 3e e7 ba fb 3d 9c f1 30 be
       0.004821888 0.36883846 0.12291508 -0.17279667
000040 7c 85 9c 3c f1 1a e8 3d 82 35 14 3f 94 b9 ac 3c
       0.019106619 0.11333264 0.57894146 0.021084584
000050 06 74 9a 3d 23 66 d6 bc fd e9 11 3d a0 e2 12 3e
       0.07541661 -0.02617175 0.03562354 0.14344263
000060 be 7d 89 be c9 00 75 bc 35 b5 a0 3e 44 5d 19 3e
       -0.26853746 -0.0149538005 0.3138825 0.14976984
000070 d2 85 64 3e 1d 5f 59 bd b3 0b 11 bf 4b e2 20 bf
       0.22316673 -0.053069223 -0.56658477 -0.62845296
000080 20 e4 69 be 87 74 fc bd 9d db 69 be 89 73 7e bd
       -0.22840929 -0.12326913 -0.22837682 -0.0621219
000090 ea ec de bd 1a 47 a0 be fb df 17 be ef a1 57 be
       -0.108850315 -0.31304246 -0.14831536 -0.21057867
0000a0 4d e7 76 3e 75 2c 4f 3e 4f f8 49 3e 49 e0 17 3d
       0.24111672 0.20231803 0.19723628 0.03707913
0000b0 09 7c 04 3e 33 4c d4 3d a4 56 8d 3d 6f 41 df 3d
       0.1293794 0.10366096 0.06901291 0.10901152
0000c0 1d 73 9e 3d f4 8d 97 bd e0 f7 c5 bc 86 67 22 bd
       0.077368 -0.07400122 -0.024166048 -0.03964951
0000d0 68 a6 3a be 1a 2b 58 3e 8a 32 2f be 92 87 a9 bd
       -0.18227541 0.21110192 -0.17109123 -0.08277811
0000e0 60 d5 ac 3e 5b ae 99 3e 3a b7 79 bd 4f 7d 04 3e
       0.33756542 0.30015835 -0.060965754 0.12938426
0000f0 4b fa 4a be f1 ea 98 3e fd a5 12 3e 50 0c 9c bd
       -0.19822042 0.29866746 0.14321132 -0.07619536
000100 28 da 7f 3d f5 02 8d 3d cc f9 0c 3f 18 50 ec bd
       0.06246391 0.0688533 0.5506866 -0.11538714
000110 c5 8e b0 bd fd a2 94 bd 20 ba a3 3e d9 de fa 3e
       -0.08620981 -0.0725765 0.3197794 0.48998144
000120 27 32 04 be 0d 3b 15 be 0e b4 76 be 9c 2a 07 3e
       -0.12909757 -0.14573307 -0.24092123 0.13199848
000130 6e fb 05 bd ae 7b 3f bd 86 a9 35 3c 49 0d cd 3e
       -0.032710485 -0.04674881 0.011087781 0.40049198
000140 02 df 00 bc ee c1 a4 be c9 e2 e0 be a9 de d6 bd
       -0.007865669 -0.32179207 -0.43923023 -0.10491688
000150 0e 13 e8 3c bc cb 44 be 83 2b 15 bf b9 d8 ad bd
       0.028329398 -0.19218343 -0.5826952 -0.08488602
000160 85 14 ab 3c 1e 06 a1 3d a6 42 08 bf 9a 2f c2 bc
       0.020883808 0.07862495 -0.532267 -0.023704339
000170 ec 19 ea 3d 85 18 92 3e cc ab 93 3d ee bd 49 bf
       0.114307255 0.28534332 0.07210502 -0.78805435
000180 f0 1c 32 3d 1f 86 19 3e e5 02 84 bd 04 09 51 3e
       0.04348463 0.1499257 -0.064458646 0.20413595
000190 72 ec 89 3c 16 43 74 bc 0e 53 88 3d 6c eb a2 3e
       0.016836379 -0.014908573 0.066564664 0.31820238
0001a0 a5 df 00 3e d1 0c 6c 3d 64 fc 15 3e d5 4c a5 bd
       0.12585314 0.05762941 0.1464706 -0.08071295
0001b0 56 34 b5 bd 93 e2 2c 3d 72 3a 59 3e ef a7 10 be
       -0.08847873 0.042208266 0.21213701 -0.14126562
0001c0 fb f9 46 bd 00 7f d1 be 92 df f5 bd a9 c8 0f bf
       -0.048578244 -0.40917206 -0.12005533 -0.5616556
0001d0 cc 1a 04 bf e2 e5 ea be 05 27 9d be c2 e5 8e be
       -0.5160339 -0.45878512 -0.30693832 -0.27909666
0001e0 4f 73 25 bd a7 7d 01 3d 80 c0 08 3e f6 ac 85 3e
       -0.04039317 0.031613972 0.13354683 0.2610852
0001f0 60 b5 50 bd ee 6d 8c be dc 38 75 be c5 67 87 be
       -0.050954223 -0.2742762 -0.23947471 -0.26446357
000200 11 23 45 3e 54 13 76 3e fe 8c 9b bc f0 b2 5d be
       0.19251658 0.2403081 -0.018988129 -0.2165029
000210 c7 54 88 be aa 26 33 bd ea 61 40 3d 8d 03 11 bd
       -0.2662718 -0.043738045 0.046968378 -0.035403777
000220 42 66 97 be f6 d0 f5 be 1a 19 69 3e 88 85 10 3e
       -0.29570204 -0.48010987 0.22763482 0.14113438
000230 7b c5 b7 3e bb 81 5b be 40 af 3b bf 9a ab 3d bd
       0.35892853 -0.21436207 -0.73314285 -0.04630623
000240 6a 24 e3 3d 49 9f 41 3d de fa 6f 3e 59 d3 a7 be
       0.1109093 0.047271047 0.23435542 -0.32778433
000250 95 d2 c1 be 7d 0f 12 be
       -0.37855974 -0.14263721

conv1.0.bias f4 [6]
000000 16 fa 81 be 3c 03 17 be 14 95 3e 3d 71 79 03 be
       -0.25386113 -0.14747328 0.04652889 -0.12839295
000010 76 55 fb bd 4f 50 82 3c
       -0.1227216 0.015907435

conv2.0.weight f4 [16, 6, 5, 5]
000000 0a b3 29 bd 4e a5 b5 3d 8f e2 da 3d 51 72 78 3d
       -0.04143051 0.0886942 0.10687744 0.060655896
000010 73 45 11 be fb cf da bd 25 f0 06 3e b2 14 32 3e
       -0.14186649 -0.106842004 0.13177545 0.17390707
000020 80 86 4f be 58 40 c2 be 3a 2e 6e bd 7f 4f d9 bb
       -0.20266151 -0.37939715 -0.058149554 -0.006631791
000030 a2 fc 37 3e c0 12 8a be fc eb 04 bf 1e 1c e5 3d
       0.17967466 -0.2696743 -0.51922584 0.111870036
000040 79 54 7f 3d 29 9a 1c 3d 40 81 0e bf 12 fc b6 be
       0.06233642 0.038232956 -0.5566597 -0.3573919
000050 49 70 3b bc 9b f5 4c be b8 dd a0 be da cc db bd
       -0.011440345 -0.20015566 -0.31419158 -0.10732432
000060 5c e7 4d be af 7a 90 3e 35 bd a5 bd e0 90 06 be
       -0.20107788 0.282186 -0.08092729 -0.13141203
000070 63 84 8e 3c 0f da 13 3e 57 80 52 3e 1b 9f 41 bd
       0.017397111 0.14438652 0.2055677 -0.047270875
000080 84 f9 0d be 5f aa 56 be 43 cb 20 3e 70 10 96 3e
       -0.13864714 -0.20963429 0.15702538 0.29309416
000090 56 49 ee 3e 5a 3a 56 be dd bf 8d be 5d 75 a0 3d
       0.46540326 -0.20920697 -0.27685443 0.07834885
0000a0 85 a0 ca 3e 6b 80 19 be 7a 26 ed bd ca 92 42 be
       0.39575592 -0.14990394 -0.115796044 -0.19001308
0000b0 80 d9 96 3d f2 01 9b be 5f 72 47 be 35 49 1f ba
       0.073657036 -0.30274922 -0.19477223 -0.00060762774
0000c0 96 7e 73 3e 25 1f eb 3d 27 b4 d7 3b 81 b7 0e be
       0.23778757 0.1148055 0.006582755 -0.13937189
0000d0 c2 35 8a bd 4d 0e 3f 3d 17 04 81 bc ec 01 ab be
       -0.06748535 0.046644498 -0.01574902 -0.33399904
0000e0 02 19 44 be 0d f7 09 bc fb c6 1c bd 81 cb 95 be
       -0.19150165 -0.008420718 -0.0382757 -0.29256824
0000f0 20 fa c8 be 77 a3 75 be 70 dd 57 3d 96 b5 01 be
       -0.3925333 -0.23988138 0.052701414 -0.12666926
000100 b5 d7 b3 be 6e c1 ee bd 21 64 9f bd 56 3a 10 be
       -0.3512551 -0.116579875 -0.0778277 -0.14084753
000110 9f 34 47 be d0 31 14 bf 07 43 0c bc 47 d6 46 bd
       -0.19453667 -0.5788851 -0.008560902 -0.048544195
000120 6c 5f b2 bc c1 29 13 bd 34 9f 6c be ed bb 12 3e
       -0.021774016 -0.03592849 -0.23107606 0.143295
000130 68 1a 6d 3e db 13 93 be 90 3d eb be 66 59 98 be
       0.23154604 -0.28726086 -0.45945406 -0.29755706
000140 da 46 f2 bd 56 18 a8 3e de 89 d4 3c f7 c9 cc bd
       -0.1182992 0.32831067 0.025944646 -0.09999459
000150 ef c2 cc bd 76 28 91 bd bf 0c 11 3e 98 70 3c 3d
       -0.09998118 -0.070877954 0.14165018 0.046005815
000160 e2 ad 0d be 90 f7 98 3e 5d a9 29 3d 1f 27 81 bd
       -0.13835862 0.29876375 0.041421283 -0.0630629
000170 77 a3 a7 bd a4 0b 89 3c c7 97 95 3e 1b 32 b0 be
       -0.08185475 0.016729183 0.2921736 -0.34413227
000180 bb 92 93 bd 87 33 bd bc bc 25 78 3d 9f c5 73 3d
       -0.07205721 -0.02309586 0.06058286 0.059514638
000190 c9 3b 7b 3e 38 31 57 3e 4f 6c 42 be 86 5a d1 be
       0.24534525 0.21014869 -0.18986629 -0.40889376
0001a0 75 68 bc be 58 64 86 3e 18 33 a4 3b f9 2d 89 be
       -0.36798444 0.2624843 0.0050109737 -0.26792887
0001b0 96 5d 59 be 4d 71 3f 3d cf 1f a1 3d a8 8a b8 be
       -0.21227106 0.04673891 0.07867395 -0.36043286
0001c0 46 ce 9e be 98 5b 96 3d d2 f3 35 3e bd 9f 9f be
       -0.3101675 0.07341689 0.17768791 -0.31176558
0001d0 82 43 a1 be e6 55 d6 bb 02 0b 39 3e c8 c2 7a bd
       -0.31496817 -0.0065410016 0.18070605 -0.061220914
0001e0 e6 d0 5d be e6 92 e3 3c e5 f4 03 3e 48 54 3d 3e
       -0.2166172 0.027780008 0.12886389 0.18489182
0001f0 f3 dd b3 bd 94 56 e6 3e 48 d9 58 3e 8b a3 3b 3e
       -0.08782568 0.4498793 0.21176636 0.18324105
000200 4b 7a 23 3e 28 a2 3e 3d dd 18 af 3e a9 fc 7f 3e
       0.1596462 0.046541363 0.34198657 0.24998726
000210 0a 57 cf 3c ab 79 28 3e 3a 92 84 bc cb 79 f9 bd
       0.025310058 0.16452663 -0.016183008 -0.12181433
000220 07 8f 95 3e 8e 53 18 3e c2 8a 56 3b 59 27 94 3e
       0.29210684 0.14875624 0.0032736515 0.2893627
000230 48 69 0e 3c 9b fe 35 3d 71 6d 32 be 1b fe 27 be
       0.008692093 0.044432264 -0.17424561 -0.16405527
000240 b8 2f 8d 3d 43 6f 18 be 18 be cd bd e4 5a 5c be
       0.06893867 -0.14886193 -0.10046023 -0.21519047
000250 c5 1e 62 3d a5 ee da 3d 80 fd 88 bd bb 0d 08 be
       0.055205125 0.10690049 -0.06688976 -0.13286488
000260 ac 92 5d be 72 78 4d be 39 3b ab be 05 3f 10 be
       -0.21637982 -0.20065477 -0.3344362 -0.1408654
000270 c6 e2 8a be c5 8a 21 be af 5f c7 3c 6e 0b 90 be
       -0.2712614 -0.15775593 0.024337618 -0.2813372
000280 c3 7f 21 bd 3b 81 b8 be 29 53 0d 3d 01 ec 3d be
       -0.039428484 -0.36036095 0.034503136 -0.1854706
000290 75 51 35 be f0 00 28 be b5 08 07 be 67 30 90 be
       -0.17706855 -0.16406608 -0.13186915 -0.28161928
0002a0 ea 75 f3 be 82 4c 3e be 3a bd 19 be 4c 35 62 bd
       -0.475509 -0.18583873 -0.1501359 -0.05522661
0002b0 14 1d 13 be 18 d4 00 be f6 dd 88 be 64 5f 1e 3a
       -0.14366561 -0.12580907 -0.26731843 0.0006041436
0002c0 de 37 e3 bd ba b8 76 bb a0 d8 bc 3d b9 b6 aa ba
       -0.1109464 -0.0037646727 0.092210054 -0.0013024426
0002d0 35 c4 24 3e 54 8a 46 3b 03 4d 8e 3e 08 b5 cd 3c
       0.16090472 0.0030294852 0.2779313 0.025110736
0002e0 39 ab bd 3d 71 ae b4 bd 56 ef de 3d d2 d6 87 3d
       0.09261174 -0.088223346 0.108854935 0.066327706
0002f0 af fb 4b be b2 27 44 3b 6a e2 6f 3b 4b 08 9b 3c
       -0.19920228 0.0029930887 0.003660346 0.018924853
000300 58 90 7c be 77 ad ab bd 92 05 8c bb 0d 90 99 3a
       -0.24664438 -0.08382695 -0.004273125 0.0011715904
000310 74 e0 0b be 26 82 03 bf c0 4e 48 3e fd ba a6 3e
       -0.13659841 -0.51370466 0.1956129 0.32564536
000320 57 fc 24 3e 4e dc a0 be 21 b2 b1 bd 93 87 94 be
       0.16111885 -0.3141808 -0.086765535 -0.29009685
000330 0d 15 ec 3d f1 6a 88 bd 7a 7e 94 be 0c d2 b4 be
       0.115274526 -0.066610225 -0.29002744 -0.35316503
000340 9f b6 81 3d ed 64 0a be ac 60 fc be e3 ea 96 be
       0.0633366 -0.13515063 -0.49292505 -0.2947608
000350 2a 37 b7 be 78 2d 59 3d 6d d8 ab be 36 78 8b be
       -0.35784274 0.053021878 -0.33563557 -0.2724015
000360 1e 75 88 be ef fa 4f be ea 2a 36 be 55 a8 99 be
       -0.26651853 -0.20310567 -0.17789808 -0.3001124
000370 28 1c 08 bd 49 98 8c be 52 51 19 be b4 a6 38 3d
       -0.033229977 -0.27459934 -0.14972427 0.045080855
000380 ac 78 68 be e1 64 61 3b 80 12 be 3d b5 90 79 3e
       -0.22702283 0.0034392404 0.09280872 0.24371608
000390 03 34 e5 3e 99 e5 3d 3d fb 3a cc bc 54 5a 18 3f
       0.44766244 0.04636154 -0.024930468 0.5951283
0003a0 e8 57 8d 3e 85 2b 32 3d a6 17 7a bd 2f a0 66 3e
       0.2760613 0.043498535 -0.06105771 0.22522043
0003b0 a8 a0 13 3f f4 fa 88 bd 05 95 45 bd f8 68 27 be
       0.57667017 -0.066884905 -0.04823782 -0.16348636
0003c0 58 e1 a5 3e 4f f3 32 3e e8 7d 39 bc d4 d9 ff bd
       0.32398486 0.17475627 -0.011321522 -0.12492719
0003d0 57 97 02 3d 64 9a 65 3e d6 0a 58 bd 4a b7 99 be
       0.03188261 0.22422177 -0.05274471 -0.3002265
0003e0 e3 10 cc be c7 b2 cc bd ae a7 9e bd 90 31 83 3e
       -0.39856634 -0.099950366 -0.07746826 0.2562375
0003f0 56 98 c3 3e a5 07 f1 3d ca 52 24 3d 8a 35 57 3e
       0.3820216 0.11769036 0.040118016 0.21016517

conv2.0.bias f4 [16]
000000 e1 b4 5c bf 14 a1 27 bf 8e ef 69 bf c3 e4 9c bf
       -0.862135 -0.6548016 -0.91381156 -1.2257313
000010 0d ec e5 bf 7f ec b7 bf 2c 40 0b bf dc 27 6e bf
       -1.7962662 -1.4369048 -0.54394794 -0.9302957
000020 bc 16 95 bf 02 19 bb bf 51 b3 84 be 59 04 86 bf
       -1.1647563 -1.4617007 -0.25918058 -1.0470077
000030 02 1d 8a bf 6c e2 88 bf 5d 8c ac bf d3 45 40 bf
       -1.0790102 -1.0694098 -1.3480335 -0.75106543

fc1.0.weight f4 [120, 400]
000000 35 5f 86 bd 2e f1 41 be 79 59 7c be 60 6e 25 be
       -0.06561128 -0.18939659 -0.24643506 -0.16155386
000010 a8 af df be 4e eb 3f 3d 1b fe 5c be 80 dd 0b be
       -0.43688703 0.046855263 -0.21581309 -0.13658714
000020 e9 07 82 be 03 ce 77 3d 89 e1 b0 bd ac 98 0c be
       -0.2539666 0.060499202 -0.086367674 -0.13730115
000030 14 d9 93 be de 8e bd 3e dc 0a 3f be 30 65 16 bd
       -0.28876555 0.37023062 -0.18656486 -0.036717594
000040 25 01 8c be b7 5c 16 be 3f fa d0 3d 03 30 28 3f
       -0.27344623 -0.14683805 0.10203981 0.6569826
000050 9e 9a 17 3d 70 c7 c2 be a4 4d 97 3e 32 21 66 3e
       0.03701269 -0.38042784 0.29551423 0.224736
000060 4a cf a7 3d 46 ce 3b 3c 08 c7 c7 be 52 24 7f be
       0.08193834 0.011462754 -0.39019036 -0.24916199
000070 72 14 30 bf d2 e4 be be ed 58 a8 bd 4e 8b 5e 3e
       -0.687812 -0.3728395 -0.08220086 0.21732828
000080 0c 91 6a 3e a6 a0 91 bd bd e4 51 be 72 85 ae bc
       0.22906893 -0.071107194 -0.20497413 -0.021303866
000090 03 1b ec bb bd ee 3c 3e 0d 5c cd 3d a4 01 65 3e
       -0.0072053685 0.18450446 0.10027323 0.22363907
0000a0 48 0b a0 3d 65 d0 bf be 86 cd 79 be 91 8d e1 3d
       0.07814652 -0.3746368 -0.24394807 0.1101333
0000b0 c3 49 1c bd 28 bc a7 bd 40 9a 6b 3d 83 2a d3 3d
       -0.038156282 -0.08190185 0.05752015 0.10310843
0000c0 09 54 81 3d 33 8e 0a 3e 6b f2 0d be a7 1c 0f be
       0.063148566 0.13530807 -0.13862006 -0.13975774
0000d0 97 f5 77 be 7f 95 44 be dd 6f 1c be 3e 04 d9 3d
       -0.24214779 -0.19197653 -0.15277047 0.10596512
0000e0 b0 c9 82 3e 91 67 54 3e b9 1d 8d be ae 9f ea 3c
       0.255445 0.20742632 -0.2756174 0.028640594
0000f0 9e 2d 24 3d 7c 24 11 bd bd 94 a0 be 67 35 22 3e
       0.040082566 -0.035435185 -0.31363478 0.15840684
000100 a3 ce fd 3d 8e ca 85 bd df 5d d4 be b8 09 39 3c
       0.123929285 -0.06532775 -0.41477868 0.011293821
000110 ce 72 08 3e 9e 6a df 3e e4 75 0a 3e bc 13 2a be
       0.13325045 0.4363603 0.13521534 -0.1660909
000120 f0 30 4c 3b 9b b8 95 3d b6 b9 01 3f 2d 46 69 3e
       0.0031157099 0.07310601 0.50674 0.22780676
000130 2a 07 5d bd fa 5b 8b bc b3 69 a8 3e 0c 65 19 3e
       -0.05396191 -0.017011631 0.32893142 0.14979953
000140 e6 45 d2 bd 1f ec 8a bd 11 91 e4 bd dd b1 02 3e
       -0.10267238 -0.06783318 -0.11160482 0.12763162
000150 c5 1d 73 3e 97 cb bc 3e 85 c5 32 bc 2d 09 ad be
       0.23741825 0.36874077 -0.01091135 -0.33796063
000160 ea 3a 40 be 8a ff aa be 5b 76 78 bd 4f 64 75 3e
       -0.18772474 -0.33398086 -0.060659748 0.23964046
000170 4a fe 50 3c de d7 16 bc ae 6b 09 bc 22 fa 46 be
       0.01275594 -0.00920674 -0.008387489 -0.19431356
000180 9a 10 bb 3e 03 43 a8 be 3a 1c 4e 3e e6 ae ef ba
       0.36536103 -0.32863626 0.20127955 -0.0018286377
000190 39 19 81 bd 4d 39 0b 3e 1a 83 49 3e 42 b1 e9 3d
       -0.06303639 0.13596077 0.19678918 0.11410762
0001a0 72 b8 62 3e 29 7f 6f 3e 94 d1 a4 3e b9 14 ae 3e
       0.22140673 0.23388352 0.32191145 0.34000185
0001b0 93 12 91 3d b0 be 62 3d 7d 3b 06 bf 73 98 b4 3d
       0.07083621 0.055357635 -0.5243452 0.0881814
0001c0 68 eb 3f be e9 1f ef be 47 54 01 bf 84 07 09 3e
       -0.18742144 -0.46704033 -0.5051922 0.13381773
0001d0 a5 d3 c5 bd 20 5e 6d be 69 da ac be 05 f3 b3 be
       -0.096595086 -0.23180437 -0.33760384 -0.35146347
0001e0 89 92 a5 3e ef f1 d4 3e 4e b1 5d 3e 02 92 3b bc
       0.3233836 0.4159083 0.21649668 -0.011448385
0001f0 fa 51 86 bd 15 b7 84 be 97 f1 fb bd c0 70 1c be
       -0.065586045 -0.2592093 -0.12301939 -0.15277386
000200 19 c4 39 3d f3 05 01 3e 73 a0 b9 be ce a8 bb 3b
       0.04535303 0.12599926 -0.36255226 0.00572691
000210 91 7e 95 3d 9f bf 9d bd e8 53 80 bc c6 41 b3 3e
       0.07299531 -0.077025644 -0.01566501 0.3501112
000220 f2 d6 eb bd 75 59 9f 3d 05 c4 29 3d fb f8 49 bc
       -0.11515607 0.077807344 0.041446704 -0.012327428
000230 5b 30 39 be ab d7 86 be 4b 05 b4 3e 8b bf 14 3c
       -0.18084852 -0.26336417 0.35160288 0.0090788705
000240 30 ad 23 bf d3 77 78 bd e6 0b 47 3e af 23 18 3d
       -0.6393614 -0.06066115 0.19438133 0.037143406
000250 7a 75 14 bd 79 a2 cf be ed 53 39 be 39 5a 9d be
       -0.036244847 -0.40553644 -0.18098421 -0.30732897
000260 88 bc 34 bf d6 7e c0 be ed a7 02 bf 9f 38 fd 3d
       -0.70600176 -0.37596768 -0.51037484 0.12364315
000270 a6 b4 b7 bc 81 fb d1 be 65 38 85 be ec c8 23 bf
       -0.022425007 -0.41012195 -0.26019588 -0.6397846
000280 72 a0 60 3e cd e8 8e 3e 11 f0 6e 3e 7c a5 2a 3d
       0.21936205 0.27911988 0.23333766 0.041661724
000290 45 d9 08 bd b1 f4 17 3e f0 02 76 be 80 49 1b 3e
       -0.03341033 0.14839436 -0.24024558 0.15164757
0002a0 eb 1e 95 3e cf d8 ca bd f5 da 54 be 28 62 6e 3e
       0.2912515 -0.09904634 -0.2078665 0.23279631
0002b0 89 8d 49 3d 36 8b 20 be 22 c0 b2 bb 7d 9b 9b be
       0.049207244 -0.15678105 -0.005455033 -0.30392066
0002c0 f4 c3 3a be 24 7c 72 be f4 7a da 3d 18 0d fd bd
       -0.18238813 -0.23680168 0.10667983 -0.12356013
0002d0 d8 46 e7 3e 84 b4 95 3e d2 47 0f 3e b3 b2 21 3f
       0.45171237 0.29239285 0.13992241 0.631633
0002e0 85 1a 3b 3e 94 c9 af bd f5 01 7d 3e d8 a1 87 3d
       0.18271835 -0.0858337 0.24707778 0.06622666
0002f0 d7 b9 63 be 96 b3 a2 be 0d 60 cb be be 72 60 bb
       -0.22238861 -0.31777638 -0.39721718 -0.003424808
000300 f9 35 f9 be 44 61 b8 bd 62 46 ac bd 44 bc 80 be
       -0.4867399 -0.09002927 -0.08411862 -0.25143635
000310 5f 16 45 3e 0c f7 7a be 08 34 1c be 65 c1 aa be
       0.19246815 -0.24508303 -0.15254223 -0.33350673
000320 5a a9 c6 be e5 4f 90 be c1 0c 64 be 7d 81 35 be
       -0.3880108 -0.28185955 -0.2227049 -0.17725177
000330 af 7c 27 3e e8 65 8f bd 2f e0 5d 3c 2a 21 1e be
       0.16356157 -0.07001859 0.013542219 -0.15442339
000340 4b 08 19 3e 76 d9 2a be e2 9e e1 3d 4f 7f a5 3e
       0.1494457 -0.16684517 0.110166326 0.3232369
000350 59 7a c4 3d 22 68 31 3f ac c1 8a 3e d0 0b 34 3d
       0.095936485 0.6929952 0.27100885 0.043956578
000360 fd c2 3a bd ea b4 1f be 6a c3 d1 3d e3 a9 af bd
       -0.04559611 -0.15596357 0.102423504 -0.08577325
000370 5e eb b6 be ed 6d 87 be 77 81 cc bd 43 fc cb 3d
       -0.35726446 -0.26451054 -0.09985631 0.099602245
000380 39 1b 25 3e 34 30 df bc db 8c ee ba 28 74 50 3e
       0.16123666 -0.027244665 -0.0018199937 0.2035681
000390 3b 2a fa 3d 42 52 94 ba 4a 23 63 be 40 3b 94 bd
       0.12215086 -0.0011316019 -0.2218143 -0.072378635
0003a0 d6 b8 1e 3e 17 70 2e 3e 6a 09 0b be 93 60 ed 3e
       0.15500197 0.17034946 -0.1357781 0.46362743
0003b0 46 6b a4 3e 46 7c e5 3e 30 42 9e 3e 2d de af be
       0.32113093 0.44821376 0.30909872 -0.34349194
0003c0 16 39 e0 bd 47 82 db 3e 32 b0 33 3c 0e 5e fc bb
       -0.10948388 0.4287283 0.010967301 -0.007701642
0003d0 a9 14 0b be 7e 3f 64 bd cc 62 5d 3d f1 1e 77 be
       -0.135821 -0.055724613 0.0540493 -0.24132897
0003e0 08 9a cf be 70 cc f5 bd e2 c5 b3 3e d6 98 6d 3e
       -0.40547204 -0.12001884 0.3511191 0.23202834
0003f0 75 5c 60 3e 31 59 67 3d 6f c8 8b be 18 1d b8 3e
       0.2191027 0.056481544 -0.27301356 0.35959697

fc1.0.bias f4 [120]
000000 57 79 ec bd 92 ec fd 3d 50 95 8e be 75 31 17 be
       -0.11546581 0.12398638 -0.2784829 -0.1476496
000010 0c 93 c3 be 55 0e 98 bd c1 7e 96 be 27 43 ec bd
       -0.38198125 -0.074246086 -0.2939358 -0.11536246
000020 22 55 bb 3d 77 d3 a4 be 51 de 2c 3d 02 1d a1 be
       0.09147097 -0.32192585 0.042204205 -0.31467444
000030 ec 2b a3 be f1 3a a9 be e7 38 29 bf 57 be 01 3e
       -0.31869447 -0.3305278 -0.6610245 0.12670265
000040 d7 fc a9 be e2 85 a1 3d 06 da 3e be 2f 88 aa 3d
       -0.33200714 0.07886864 -0.18637857 0.08326756
000050 2c 6e ea 3e 9c c4 a1 be 09 95 1d be 06 f1 06 be
       0.4578718 -0.31595314 -0.15388884 -0.1317788
000060 c1 0c a0 bd 78 ce a1 3d d6 bb 3c be b8 63 88 3c
       -0.078149326 0.07900709 -0.18431029 0.016649112
000070 4e 2d c8 3e a8 28 2d 3d 9d 35 8a 3e 42 03 f5 be
       0.39097065 0.0422751 0.2699403 -0.47854048
000080 aa b3 af be d3 cb 39 be 90 7c 4c 3f c7 22 16 3e
       -0.3431676 -0.18144159 0.7987757 0.14661704
000090 bd 74 fd be 8a 3c 14 3e cb 22 6e be 6d 4f c3 bd
       -0.49503127 0.14476219 -0.2325546 -0.09536634
0000a0 b9 8c 5a 3e a2 7a 2f 3e 58 ab 3f 3e 8a d4 1a bd
       0.21342744 0.17136624 0.18717706 -0.03780035
0000b0 b0 a1 bd be a4 ce 7e bd 3e 17 45 3e 6c 12 67 be
       -0.3703742 -0.062208787 0.19247147 -0.22565621
0000c0 ed d4 9d be 4a ee 2b 3e 82 d8 7b bc bd 83 7a 3e
       -0.30826512 0.16790119 -0.015371444 0.24464317
0000d0 3a 5f b0 be dd f6 e4 3e 92 27 22 be d2 a6 a0 be
       -0.34447652 0.44719592 -0.15835407 -0.31377274
0000e0 8c e7 2a 3f a5 2e fe 3e cd cf 58 3d d7 38 28 be
       0.6675956 0.49644962 0.05293255 -0.16427933
0000f0 c7 98 ef bd 34 e9 cd 3c 64 96 68 3e 82 d9 0b be
       -0.11699062 0.025135614 0.2271362 -0.13657191
000100 0c 3c fd bc 53 a3 ec 3e 84 65 0f bf b4 de c5 bd
       -0.030912422 0.46218356 -0.56014276 -0.09661618
000110 1b 02 26 bf 92 28 9d be f2 10 8f 3e 42 6a d1 3d
       -0.6484696 -0.30695015 0.27942616 0.10225345
000120 d8 86 c8 bd b7 e0 c0 be f5 4a 99 be 04 b2 27 3d
       -0.097913444 -0.37671444 -0.2994 0.040941253
000130 7a 81 ed be 42 51 09 3f ba cd b6 3d 4f f0 94 be
       -0.46387845 0.53639615 0.08925958 -0.2908959
000140 e0 8b e7 bd bf b5 26 bf 44 ba ed be 29 6c 19 3f
       -0.11305976 -0.6512107 -0.46431172 0.59930664
000150 7a 36 70 be 86 3c de be 0f e5 0f 3f 65 c0 b8 be
       -0.23458281 -0.4340555 0.5620889 -0.36084285
000160 8d 12 9a 3e b6 4a d4 bd 8d b7 97 3e a1 05 65 be
       0.30092278 -0.103658125 0.29632226 -0.22365429
000170 9a cb 5e 3f 08 5c 24 3e b1 3d 95 be 9a 9a 2a 3e
       0.8702942 0.16050732 -0.2914863 0.16660538
000180 3b f9 07 be c0 8a 16 3d 9d f8 ea be e4 d0 16 3f
       -0.13278668 0.036753416 -0.45892802 0.5891249
000190 ff 97 ce 3c 51 d8 0c 3d 1b e8 00 3e 8e 9b b3 3e
       0.025218962 0.034385983 0.12588541 0.35079616
0001a0 e8 3d 2a bf d1 5c 92 3e c0 84 98 be a2 8c bd be
       -0.6650071 0.28586438 -0.2978878 -0.37021357
0001b0 cb b5 8e 3d 4c f6 77 3e ff 43 c8 3d 8c c3 3a 3d
       0.06968268 0.24215049 0.09778594 0.045596644
0001c0 76 61 07 3f 49 fa d9 3e 5d 45 26 be 79 b9 49 be
       0.5288309 0.42573765 -0.16237397 -0.19699658
0001d0 4e df 46 3e ac 97 bc be e4 99 8b 3e 98 d7 a1 3e
       0.19421121 -0.36834466 0.27265847 0.31609797

fc2.0.weight f4 [84, 120]
000000 21 28 97 3d dd d0 6d 3e 88 5e 42 3d e6 ac 84 3d
       0.07380701 0.23224206 0.047453433 0.0647829
000010 cb 4c d4 be 9a f5 d8 b8 e8 1c 2b 3d 2c 7a c8 3e
       -0.41464838 -0.000103454295 0.041775614 0.3915571
000020 8f 02 8b 3d c4 e0 30 be 12 2a 68 3e 6d 98 a2 bd
       0.067875974 -0.17273241 0.22672299 -0.07939229
000030 07 5b 97 bb 95 b5 82 bd 3b 5f b5 bd 16 fc 0c 3f
       -0.0046190056 -0.0638229 -0.088560544 0.5507215
000040 6a 83 cb 3e 47 de ed 3e 85 02 97 be b1 f7 5c 3e
       0.39748698 0.46458647 -0.2949411 0.21578862
000050 c2 08 c1 bd 38 02 48 be 73 35 c0 bd fa d4 54 be
       -0.094254985 -0.19532096 -0.09385195 -0.20784369
000060 56 b9 79 3e 8c 45 fd 3c dc 2a c6 bc 6d 95 0c 3f
       0.24387106 0.030916952 -0.024190359 0.54915506
000070 f2 be 95 3e a0 43 0f bf 2c 90 b8 be 25 7e a4 be
       0.29247242 -0.5596256 -0.36047494 -0.3212749
000080 bd 3c 72 3e ca 11 f7 be e7 a8 ac 3d ca d6 2c 3d
       0.23655982 -0.4825576 0.08430653 0.042197026
000090 ac da 84 3e b1 92 1d 3e 4e 20 00 bf 36 23 30 bd
       0.25948083 0.1538799 -0.50049293 -0.04300233
0000a0 fd f7 4c bc 38 93 ed bd ab c5 27 3e c2 89 89 be
       -0.012510297 -0.116003454 0.16383998 -0.26862913
0000b0 ab be 71 3e d7 52 89 3e 99 6c ed 3b f7 c0 e2 3c
       0.2360789 0.26821014 0.007245612 0.027679903
0000c0 39 d8 2a 3e 0e d7 63 3d 43 6c 4c 3e 61 e0 7f be
       0.16684045 0.055625014 0.19963174 -0.24987938
0000d0 ab 14 3e 3d a0 12 06 be 1d 69 5d 3e a6 97 67 be
       0.04640643 -0.13093042 0.21622129 -0.22616443
0000e0 ed c6 3d 3d 5d ac bb 3d 67 e1 de 3d 6b 63 c3 bc
       0.04633229 0.09163735 0.10882836 -0.023851117
0000f0 3e be e3 bc 1e d4 0d 3e 55 94 92 3e 96 a9 e7 be
       -0.027800675 0.13850448 0.28628793 -0.4524657
000100 7f 9c 8e 3e 90 68 32 bd d7 53 94 be 4c 60 93 be
       0.27853772 -0.04355675 -0.28970215 -0.28784406
000110 dd a4 4a bd ad 78 4e be 25 d9 a3 3e 84 9e 97 3d
       -0.049473632 -0.20163222 0.32001606 0.07403281
000120 b0 7b bb be c0 a0 65 3e 85 5c d6 bd 6f 82 01 bb
       -0.36617804 0.22424603 -0.104668655 -0.0019761582
000130 a3 ea 03 3e 9d 92 5c bc 35 3d 84 bd 1d 67 04 3e
       0.12882476 -0.01346269 -0.06456987 0.1292996
000140 26 0b 73 3e a1 a0 9d 3d 53 44 f0 bd b3 28 d2 3c
       0.23734722 0.07696653 -0.11731782 0.025654173
000150 16 24 ac bd 37 a4 ca 3d 0c 14 88 3d 54 62 9d bd
       -0.0840532 0.09894603 0.06644449 -0.0768477
000160 79 e0 8d bd c3 30 17 3e b4 7a bf 3e 89 d8 f8 be
       -0.069275804 0.14764695 0.37398303 -0.48602703
000170 fa f8 3f bc c6 3f 8a 3d 4e 47 84 be 0d d4 89 be
       -0.0117170755 0.06750445 -0.2583565 -0.26919594
000180 61 7b 5b 3e ea 37 0f bf b9 a4 a1 3e 6e 01 49 3e
       0.21433784 -0.55944693 0.31570986 0.19629452
000190 a4 41 b1 be 89 78 1c be 8b 96 1e 3e 56 a0 d2 bd
       -0.34620392 -0.15280356 0.15487115 -0.10284488
0001a0 79 30 f1 3b a8 0a 8b be 6b cb cf bd cd a7 e2 3d
       0.0073605147 -0.27156568 -0.10146221 0.11067162
0001b0 11 89 36 3c 77 83 c2 bd 5e 82 88 bd 63 f9 3e bd
       0.011141078 -0.09497731 -0.066654906 -0.046624552
0001c0 d8 da 26 3e 69 ee 8a be 10 4b 77 be 78 a2 bf be
       0.1629442 -0.27135018 -0.24149728 -0.3742864
0001d0 7e 01 24 bd 2e b3 c2 bd 5e f7 b4 3e 01 04 8c bd
       -0.040040486 -0.09506832 0.35344976 -0.06836701
0001e0 fd e3 77 3e 1d 1e 55 3e 9d 84 9a 3e 2d ec d3 3d
       0.24208064 0.20812269 0.301793 0.10347781
0001f0 76 a2 b0 bd fe 53 cb 3d 47 b2 a1 3e ae 63 c1 3d
       -0.08624737 0.099281296 0.31581327 0.094428405
000200 97 b4 6a be dd f8 38 3e e2 39 2c 3e 3b ca 25 3d
       -0.22920452 0.18063684 0.16818956 0.040476065
000210 f1 22 b1 3e ca 7a c9 3e e4 1e 97 3e 0f 69 12 bd
       0.3459697 0.39351493 0.29515755 -0.035744723
000220 3d 41 1d 3e 7a 4c c8 bd 2c fa 28 be 7a 3f 62 be
       0.15356918 -0.09780212 -0.16501683 -0.22094527
000230 14 5a 8c bd 6a 65 36 3e a0 a7 1b be da 2e 5d 3c
       -0.068531185 0.17812124 -0.15200663 0.01349994
000240 87 c5 11 be d7 e8 f0 bd bb ab cd 3d 13 cd 2e 3f
       -0.14235507 -0.11763161 0.100425206 0.6828167
000250 3d 88 2e 3e 17 31 e6 bd 2b 9c 45 3d 81 7b 41 3e
       0.17044158 -0.11239832 0.048244637 0.18894769
000260 d4 ce 89 3e aa ef ff be ff 98 90 be 74 3e 04 be
       0.2691561 -0.49987537 -0.28241727 -0.12914449
000270 a0 1d 85 3e 1f f8 cc 3e 01 ac 80 3d 70 4d 99 be
       0.25999165 0.4003305 0.06282807 -0.29941893
000280 49 50 b5 bd df 8b 23 be 0d 5c 0b 3d a0 b9 4e 3d
       -0.08853204 -0.15971325 0.034023333 0.050469995
000290 15 e4 e8 3d c0 1e 03 3e f8 ff 03 bd 7b 5f f0 3d
       0.11371628 0.12804699 -0.032226533 0.117369615
0002a0 8b 42 fa 3e 9c 74 75 3c 58 16 00 3e 9a 71 4c 3e
       0.48878893 0.014981415 0.12508523 0.1996521
0002b0 f3 89 73 be f7 00 03 be 77 cf 09 be 54 31 e5 3a
       -0.23783092 -0.12793337 -0.13458048 0.0017486014
0002c0 96 1d 4e 3e 93 66 72 3e a4 73 47 3e 7e 39 92 3e
       0.20128474 0.23671941 0.19477707 0.28559488
0002d0 76 72 99 3e 72 b4 8a be fb ba c0 3d 98 a6 51 3e
       0.2997014 -0.27090794 0.09410664 0.20473707
0002e0 60 d0 a9 3d 66 2b ad bd 27 3c c8 bc ca e6 97 bd
       0.082916975 -0.08455543 -0.024442745 -0.074170664
0002f0 00 99 2f 3a fc c5 86 3c 7e be 77 3d 10 33 ea 3e
       0.0006698519 0.016451828 0.060484402 0.45742083
000300 f9 bf 0f bc 42 ba 82 3e 93 72 0c 3e ce 22 5a 3e
       -0.008773797 0.25532728 0.13715582 0.2130234
000310 d1 f7 8d 3c b2 62 98 be 64 f7 ed bc b6 92 94 be
       0.017330082 -0.297628 -0.02904863 -0.29018182
000320 31 30 b4 bd 08 56 e3 3e 7e bd cc 3e 94 5c 74 be
       -0.08798254 0.44401574 0.3998832 -0.23863441
000330 90 b1 a8 3e 99 7d 01 3d a7 93 6d be 72 07 3f 3e
       0.3294797 0.03161392 -0.23200856 0.18655184
000340 8c 1b 81 be 7c dc 62 3e 28 80 bf bd 5b f7 06 bd
       -0.2521633 0.2215442 -0.09350616 -0.03295074
000350 f3 6f a4 be 5e eb 02 bf 60 95 48 be 47 99 0c 3d
       -0.3211666 -0.5114039 -0.19588232 0.034325864
000360 55 2e cb bd 82 d3 37 be e1 03 aa 3d f7 cd 92 be
       -0.099209465 -0.17951778 0.08301521 -0.28672764
000370 4b a2 f1 bd df 72 4f be 81 2e dd bd 73 cf da bb
       -0.11798533 -0.20258664 -0.107998855 -0.006677562
000380 28 3a 65 3e ac 53 8e be 75 84 ab 3c 81 41 8b be
       0.22385466 -0.27798212 0.020937184 -0.27198413
000390 e1 0a 70 3d 1d 97 99 be 22 c2 2d be cc 5e 26 be
       0.058604125 -0.29998103 -0.16968587 -0.162471
0003a0 db a4 30 be e7 11 8a be 1b b4 85 3c 08 6d 18 bd
       -0.17250387 -0.26966783 0.016321233 -0.037213355
0003b0 ce d2 0b be d0 00 cc 3e ee e4 0d bd 8a 64 51 3e
       -0.13654634 0.3984437 -0.034642152 0.20448509
0003c0 4e 1d a7 3e 05 94 a0 3e 56 14 39 3e 45 e2 0a 3e
       0.32639545 0.3136293 0.18074164 0.13562877
0003d0 1b 7e 37 3e 46 18 49 be be 8c 9f 3e 34 7e 7f 3d
       0.17919199 -0.19638166 0.31162065 0.062376216
0003e0 5f 4c 4b 3e 6c 69 19 3e 4b 5a 95 bd 2a ff 2f be
       0.19853352 0.14981622 -0.07292613 -0.17187181
0003f0 c0 cb e4 3e ee 91 26 3e 51 58 e2 3b 36 f6 8a 3d
       0.446867 0.16266605 0.006907501 0.06785242

fc2.0.bias f4 [84]
000000 7f 69 87 bd e2 14 35 bf fc a5 f7 be 75 41 54 3e
       -0.06611919 -0.7073499 -0.48368824 0.20728095
000010 e3 f4 ae bd e2 26 a4 be 76 4f a3 3e e9 b5 85 bc
       -0.08542802 -0.32060915 0.3189656 -0.016322093
000020 1b e3 01 3e 20 96 17 bf a3 dd 17 3f 45 d3 96 3e
       0.1268429 -0.5921345 0.59322566 0.2945806
000030 3a fd 4f 3c 7a 02 3c 3f d3 d3 7c 3d df 93 d3 bc
       0.012694651 0.7344128 0.06172545 -0.025827346
000040 ec 92 09 be 56 19 b4 be 93 f3 ce be f9 78 b6 3d
       -0.13434952 -0.3517558 -0.40420207 0.089097925
000050 8b e1 8d bd 70 48 a0 3e eb 63 76 3e 78 3d 9d 3e
       -0.069277845 0.31305265 0.24061553 0.3071096
000060 e8 ea a2 be 62 58 0c 3f 24 ac 59 3e 87 63 83 3d
       -0.31819844 0.5482236 0.21257073 0.06415468
000070 ba 54 84 3e dc 82 64 3b d3 9a fa 3e ea b6 0a 3d
       0.2584589 0.0034868037 0.48946247 0.033865847
000080 ef 95 55 bd 1d f6 51 3e 9a d9 93 be 6d 59 53 be
       -0.05214494 0.20504041 -0.28876954 -0.20639582
000090 c9 81 15 be bb 07 c6 be 54 67 08 bf 6f 72 b0 3d
       -0.1460029 -0.38677773 -0.53282666 0.086155765
0000a0 87 c8 bf bd 9e 45 12 3f 1a 2f c5 be 5f c7 97 3e
       -0.093644194 0.5713748 -0.38512498 0.29644296
0000b0 73 ae 8e bc 95 85 b4 3e 61 ec 81 3d 4e 01 40 3e
       -0.017417168 0.35258165 0.06343914 0.18750498
0000c0 83 b9 b9 be c9 fb 2d be b4 1a 91 bd 52 90 0d 3f
       -0.36274347 -0.1699058 -0.07085171 0.5529834
0000d0 59 b8 cb 3d 6c 36 b5 3e 44 82 11 be 94 b0 94 bd
       0.09947271 0.35393083 -0.14209849 -0.07260242
0000e0 5d e3 b8 be ac 75 c3 3e 29 8f cf be 9e 7a 89 be
       -0.36110964 0.38175714 -0.4053891 -0.26851362
0000f0 76 df 1b 3f 8c b9 37 be 25 ae b9 3e 92 0d 87 bc
       0.6088785 -0.17941874 0.36265674 -0.016485963
000100 ef f1 93 3e 91 92 0d 3e 2d 32 9e 3e df e3 23 be
       0.28895518 0.13825442 0.30897656 -0.16004895
000110 ea b8 9e 3d d9 cf fe 3d 2d 68 c9 be 84 92 ab be
       0.07750113 0.124419875 -0.39337292 -0.3351022
000120 26 c9 2f bf 74 87 40 bd 3c 74 da be c6 fa 52 be
       -0.68666303 -0.04700418 -0.42666805 -0.20603475
000130 33 c1 8b 3f 6a 75 a5 3e 43 8e 52 3e 2b b2 62 3d
       1.0918335 0.32316142 0.20562081 0.055345695
000140 ce 67 18 bf d4 41 e0 be d1 48 13 3e 69 40 2b 3d
       -0.59533393 -0.43800223 0.14383246 0.041809473

fc3.0.weight f4 [10, 84]
000000 33 39 37 bc 0d 09 00 3e 61 7b 15 be 8a 33 4a 3d
       -0.011183071 0.12503453 -0.14597847 0.049365558
000010 19 db 12 3e da 4b b0 3e 52 94 ea 3d 41 2d 6e be
       0.14341392 0.3443287 0.11454071 -0.2325945
000020 69 ee 0d be 3c 36 65 bd b2 98 19 3e f1 dc 5a be
       -0.13860478 -0.055959925 0.14999655 -0.21373345
000030 24 f9 4a be 81 b5 88 be 19 88 b1 3b e6 b0 ad 3d
       -0.19821602 -0.26700976 0.0054178354 0.08481006
000040 7f 4f 6c be 4a f1 43 3e 26 86 0c 3e 84 77 bb be
       -0.230772 0.19135013 0.13723049 -0.3661462
000050 ad 21 9a be 20 00 56 3e 70 31 19 3e 07 9b 81 3d
       -0.30103818 0.20898485 0.14960265 0.06328397
000060 62 39 42 3e 95 0b 79 be 12 e8 3a be 06 d0 11 3e
       0.18967202 -0.24320824 -0.1825259 0.14239511
000070 c3 38 5d 3e 9e 11 02 3e 5c dd 60 3d af 86 1c bd
       0.21603684 0.12702033 0.054898605 -0.03821438
000080 7b 91 16 be 39 88 59 be 35 cf 9d 3e 7a c9 cc 3e
       -0.14703934 -0.21243371 0.3082215 0.39997464
000090 05 5b 11 be 0d f7 7b bd 25 53 bb 3e 6a a8 30 3e
       -0.14194877 -0.061514903 0.36586872 0.17251745
0000a0 ca ac ea bd 4a 3a 1a be da b3 30 be 27 36 2f be
       -0.11458738 -0.15061298 -0.17256108 -0.17110501
0000b0 52 b2 8f bd 29 87 46 be df 28 10 be f0 23 1d 3e
       -0.07016434 -0.19387497 -0.14078091 0.1534574
0000c0 7c d4 58 bd 13 3c b4 3d df fc 03 be aa ca 7c 3e
       -0.052937016 0.08800521 -0.12889431 0.24686685
0000d0 23 c7 10 3e f3 ea 50 3e 53 1c 8e 3e 68 76 a5 3d
       0.14138465 0.20402126 0.27755985 0.08079225
0000e0 7d 3b 82 3e db 8a 00 bc 04 34 09 be f4 ab b1 3d
       0.2543601 -0.007845606 -0.13398749 0.086753756
0000f0 e6 2e 4c be ea 17 8d bc b9 45 2e 3e b2 6a a1 bd
       -0.19939765 -0.017223317 0.17018785 -0.07881679
000100 71 36 b7 bd 8e a1 7b 3e 47 53 82 3e 55 a6 89 3c
       -0.08945931 0.24573347 0.2545416 0.016802946
000110 fd 9a 86 3e 58 92 07 be 58 15 b3 3e 0c 7d 8f 3e
       0.26290122 -0.1323942 0.3497722 0.2802509
000120 4c 87 54 bc 2c d4 06 3e 79 71 23 3d 3a 32 0b 3c
       -0.01297171 0.13166875 0.039903138 0.008495862
000130 4e 6c 0f 3d 70 49 e7 3c d1 2d 03 3e 0f f8 36 3e
       0.035015397 0.02823326 0.12810446 0.17868064
000140 78 73 b2 be 48 8f a1 3d 17 a4 4c bd 5b 16 84 3d
       -0.3485372 0.07888657 -0.049961176 0.064495765
000150 c3 f5 cf bc 24 51 69 be e8 95 34 be ee f6 91 3e
       -0.025385743 -0.22784859 -0.1763531 0.28508705
000160 e1 2c 97 bd 73 5c 1c be 71 3a 46 3c e1 69 a2 bd
       -0.07381607 -0.15269642 0.012098894 -0.07930351
000170 17 17 48 3e eb db a9 be 1e fa ae 3e bf 34 23 3b
       0.19540058 -0.33175597 0.341752 0.0024903265
000180 66 f3 6a be 35 62 4e 3e 77 df 71 be 1a 2e 9f bd
       -0.22944412 0.2015465 -0.23620401 -0.07772465
000190 97 47 8c be 1a 95 a2 bd 3c 5c 68 bb 0d 93 58 be
       -0.2739837 -0.07938595 -0.0035455367 -0.21149845
0001a0 9f 89 fa bd f0 62 4b be f3 1a 4e 3e 47 3c 4d 3a
       -0.122332804 -0.1986196 0.20127468 0.00078291114
0001b0 b9 2b 05 3e c8 28 26 be 57 79 55 3e d4 6f 41 3e
       0.1300496 -0.16226494 0.20847069 0.18890315
0001c0 69 7a a7 be 2c 84 30 bd 2d fe 86 3e fc cd 28 3e
       -0.3271058 -0.0430948 0.26365796 0.16484827
0001d0 e3 e0 0b be f4 38 7f 3d 52 71 86 3d db 58 ae 3e
       -0.13660006 0.062310174 0.06564583 0.34052166
0001e0 0b 67 4d 3d 2c 60 32 3d d9 1b fa 3d e9 ba d8 bd
       0.050147098 0.043548748 0.12212343 -0.10582525
0001f0 dc 33 8b 3d 24 72 5d 3e be 30 60 3e 41 d1 82 3e
       0.06797001 0.21625572 0.21893594 0.25550273
000200 24 12 b0 bd a3 a4 60 3c d7 cf 7f be 12 7f 3c 3e
       -0.0859721 0.013711127 -0.24981628 0.18407848
000210 60 55 bd bd 28 41 a4 3d 59 e9 01 be e7 44 80 3e
       -0.092447996 0.0802024 -0.12686671 0.25052568
000220 61 f7 ce bd 80 ec b8 3d 86 6e 94 bd 49 17 15 bd
       -0.101057775 0.09029484 -0.07247643 -0.03639916
000230 df ee 0b bd 0a 40 67 3e 8a 94 00 be 7a 05 81 3d
       -0.034163352 0.22583023 -0.12556663 0.06299873
000240 26 5c 1e be bf 89 29 bd 92 ba 07 be b8 f2 3a 3c
       -0.1546484 -0.04139113 -0.13254765 0.011410408
000250 a8 d9 32 be c5 38 f0 bd 59 98 ad 3d b6 58 6d bd
       -0.17465842 -0.11729578 0.08476324 -0.05794593
000260 31 c0 9b bd bc 4f fc 3b 46 37 42 be 81 5d 4d be
       -0.07605017 0.0076999348 -0.18966398 -0.200552
000270 ba e0 e8 bd a5 6b 11 3d f6 60 72 be 9d dc b9 be
       -0.11370988 0.03550305 -0.236698 -0.36301127
000280 25 b6 4e 3c e3 46 8b 3e 2d 83 0f 3e 13 d3 ac 3b
       0.012616669 0.2720252 0.14014883 0.0052741854
000290 1e 84 1d bd b0 74 82 be 15 54 7b 3e aa 6b 3e 3e
       -0.038456075 -0.2547965 0.24543793 0.18595758
0002a0 fe 13 45 3e 00 2c 18 be 96 1f 45 be 32 8b bf bc
       0.19245908 -0.14860535 -0.1925033 -0.023381803
0002b0 4f 62 a9 bd 51 de db bd 58 7b 9d 3e d5 c6 e9 bd
       -0.08270704 -0.10735763 0.30758166 -0.11414877
0002c0 65 a6 cf 3d 7c 4c 5c be 6b 9a 0e bd fb d3 66 be
       0.10139159 -0.21513551 -0.034815233 -0.22541802
0002d0 1a 1c db bd 1c cd 35 bd 6b bc 59 3c 23 8b 23 3c
       -0.10698719 -0.04438506 0.013289551 0.009981903
0002e0 87 2a 29 be 6e bc 74 3e 87 ff c5 bc e6 6f 16 3d
       -0.16520129 0.23900005 -0.024169696 0.03672781
0002f0 75 4c 40 3e 06 92 29 3e 93 c3 e2 bd ca 39 90 be
       0.18779166 0.1655961 -0.11072459 -0.2816909
000300 9c 6b 4d be 1d 59 0f be 8f 81 ea bd 3c ba 19 be
       -0.20060581 -0.13998838 -0.114504926 -0.15012449
000310 0f 99 f0 bd 85 df 96 3e 68 cd 98 bd 1d 85 51 bd
       -0.117479436 0.29467407 -0.07461053 -0.051152337
000320 c0 a5 23 be 4c 14 23 3d ec 7a 3c be d5 51 be 3c
       -0.15981197 0.03981428 -0.18406266 0.02323238
000330 ac 43 d5 bd 19 e2 8b be 44 78 ca bb 22 ac e2 bd
       -0.10413298 -0.27320936 -0.0061788876 -0.11067988
000340 99 03 d2 bd 43 27 81 be b8 34 b2 bd 8e 91 99 3b
       -0.102545924 -0.25225267 -0.087014616 0.004686541
000350 fd e1 d9 bd a3 94 f8 3d 65 29 8b bd 6c 53 3d 39
       -0.10638807 0.12137725 -0.06795005 0.00018055522
000360 bf 04 71 be 13 b0 5d be 52 73 09 be e9 c1 3c 3e
       -0.23536967 -0.21649198 -0.13422897 0.18433346
000370 94 65 f6 3c 87 09 0c 3d 74 76 d8 bd 20 9e 69 3e
       0.030077733 0.034188773 -0.10569468 0.22814226
000380 08 10 1b 3e cc b1 14 3e cb f7 ca 3c 61 17 6c 3d
       0.15142834 0.14520949 0.02477636 0.057639483
000390 0d b2 86 3e 85 25 d4 bc 7d 25 5c be 14 d5 d7 3c
       0.26307717 -0.025896797 -0.21498676 0.02634672
0003a0 c9 fb 89 be 32 1f df bd 32 5b 5d be 89 b0 9f 3d
       -0.2694991 -0.10894622 -0.2161682 0.07797343
0003b0 0d 3d fd 3d fc 79 85 3e 03 80 07 3d b4 7e 03 bd
       0.1236516 0.2606963 0.033081066 -0.032103255
0003c0 44 b1 7c be da 67 bf bd e4 46 9e be 93 9c 98 be
       -0.24676996 -0.0934598 -0.3091346 -0.29806957
0003d0 78 e3 58 3e e7 1b 58 3e 9d 5f 5b bd 46 a4 19 be
       0.21180522 0.21104394 -0.05355798 -0.15004072
0003e0 99 74 10 be 92 89 96 bd 46 20 8c bc 08 29 1d 3e
       -0.14106978 -0.07350458 -0.017105233 0.15347683
0003f0 c4 ce 60 3e 80 d6 2d 3e 34 7a f7 3d 1e 0b 12 be
       0.21953875 0.16976357 0.12083855 -0.14262053

fc3.0.bias f4 [10]
000000 0d f5 49 bf 84 4f 84 3c 75 a9 1f 3e f8 29 20 bf
       -0.7888954 0.016151197 0.15591986 -0.6256404
000010 2c 33 0a bd a5 2a 4d 3d 0b 0a 32 bf 9a ed a3 3e
       -0.033740208 0.050089497 -0.69546574 0.32017213
000020 8a c8 9d 3e f2 a4 c2 bc
       0.30817062 -0.023760293
